project_networks/cifar10_cnn_2layer_w2_ibp.onnx (onnx, 805923 bytes, 16 tensors)

0.weight f4 [8, 3, 4, 4]
-0.020864904 0.022063604 0.08744026 -0.13288915 0.018994566 -0.08490753 0.008296778 -0.03853336
0.037094932 -0.026324762 -0.21311949 -0.2589129 -0.05329586 0.01889703 -0.11014881 -0.2853612
-0.21665789 -0.20488483 -0.15522717 0.0679659 -0.116601594 -0.043127347 -0.030578077 -0.17544554
0.019974248 0.06635026 0.12370422 0.013166087 -0.02137626 0.054222453 0.052117888 0.079014465
-0.047540933 -0.03354064 -0.14619452 -0.19257061 -0.19248977 -0.18441248 -0.12519673 -0.17590311
-0.21687514 -0.22153759 -0.0645188 0.09261665 -0.13108838 0.06701253 0.057525598 -0.21418527
-0.24118036 -0.036972824 0.06578452 -0.035837743 -0.103717886 0.061989322 0.12327499 -0.015129702
0.091756195 -0.22330724 -0.026659073 0.092611715 -0.21949464 -0.05520163 -0.119501874 -0.09778996
-0.2620136 -0.25803497 -0.21125437 0.011166278 0.11607626 -0.18086979 -0.14928111 0.07204733
0.0044932594 -0.24203952 -0.10428345 -0.081068784 -0.121387735 0.0585856 -0.17031398 -0.06390716
0.13686663 -0.058154598 -0.24433409 -0.15474048 -0.06770865 -0.28791445 -0.12741084 -0.29299
-0.09501452 -0.15980597 -0.2216393 -0.0015397752 0.1846812 -0.10324075 -0.20716096 0.1373372
0.09661446 -0.14797969 0.00159022 -0.24628693 0.0820992 -0.23159769 -0.16591147 -0.19323827
-0.08156458 -0.08511234 0.050728545 -0.1344441 0.01694686 -0.14986919 -0.1578794 -0.18561436
-0.038919263 -0.08934321 0.009364698 -0.124523945 0.10303505 -0.24967137 -0.13316739 -0.026225798
0.029038826 -0.13090089 -0.29623362 -0.03189481 -0.033723157 -0.17358519 -0.14515929 0.071412414
-0.21221119 -0.1902469 -0.18945052 -0.08239269 0.14872733 -0.21747118 0.026284074 -0.1342974
-0.013687062 -0.24309579 -0.1693281 0.043284666 -0.034187827 -0.24205631 -0.013489948 0.09423762
-0.04684227 -0.199634 0.009661116 0.060303047 -0.016268523 -0.17377838 0.035744403 0.10081652
0.033858873 -0.25106496 -0.16767575 -0.01891909 -0.17436992 0.009757127 0.12923181 -0.010439115
-0.0048947274 -0.17177503 -0.27098736 -0.31165737 -0.23368993 -0.3518103 -0.35511932 0.0014843587
-0.0665591 -0.31886768 0.024743529 -0.088683076 -0.23086654 -0.043300543 0.0015344834 -0.021553315
0.14733568 0.11478608 -0.3063547 -0.028517693 0.06685057 -0.047585998 -0.32243872 0.011521793
-0.12837224 -0.060730968 0.054930035 -0.0025132084 0.05045601 -0.13162312 -0.13419417 -0.062905036
0.004586373 0.005270936 0.005422226 0.0045673437 0.17893204 0.74439895 0.4320415 0.0045442204
-0.0007598584 0.00043276546 0.00069307635 0.001280656 -0.00041508648 -0.0007639408 -0.000620353 -0.00043798873
0.021668885 0.009432714 0.0138660865 0.015597067 0.0060244426 0.007926702 0.004082649 0.0020384633
-0.0004821199 7.2104725e-05 0.0005457742 0.0002477089 -0.0010611658 -0.0008453426 -0.0007002764 -0.0005793036
1.6876978e-05 0.00042129113 -0.00065523427 -0.00071236177 0.00010789015 -0.00062754104 -0.0007194552 0.00014996844
-0.00052780716 -0.00067895825 -0.00064702163 -0.00062216684 -0.0024799241 -0.0017595931 -0.0017083135 -0.0015757494
-0.23235163 -0.05809881 -0.25696164 0.0016963526 0.045533493 -0.091342114 -0.124406315 -0.16599241
-0.015610332 -0.28192317 -0.25384754 -0.10339016 -0.26177445 -0.123300746 -0.055309825 -0.0038912613
00000000: e0ec aabc bbbe b43c e113 b33d 1814 08be
00000010: 7e9a 9b3c 00e4 adbd 36ef 073c 28d5 1dbd
00000020: dbf0 173d 07a7 d7bc ff3b 5abe 3b90 84be
00000030: c24c 5abd f2cd 9a3c b395 e1bd dd1a 92be
00000040: 91db 5dbe 54cd 51be dff3 1ebe b531 8b3d
00000050: d1cc eebd 4da6 30bd e07e fabc ffa7 33be
00000060: 09a1 a33c a5e2 873d a358 fd3d 92b6 573c
00000070: 441d afbc 5d18 5e3d 9179 553d 56d2 a13d
00000080: 48ba 42bd e961 09bd 04b4 15be 3b31 45be
00000090: 0a1c 45be a0d6 3cbe 9233 00be f21f 34be
000000a0: 8414 5ebe c0da 62be 6f22 84bd ccad bd3d
000000b0: 083c 06be de3d 893d f69f 6b3d 6253 5bbe
000000c0: fcf7 76be d170 17bd 09ba 863d 99ca 12bd
000000d0: 0b6a d4bd 84e8 7d3d 9977 fc3d 92e2 77bc
000000e0: acea bb3d a7aa 64be 2164 dabc 36ab bd3d
000000f0: 34c3 60be 1b1b 62bd 66bd f4bd 1a46 c8bd
00000100: a626 86be 291d 84be 1153 58be c4f2 363c
00000110: 64b9 ed3d ee35 39be 26dd 18be 8d8d 933d
00000120: 313c 933b 35d9 77be 9092 d5bd 6407 a6bd
00000130: 229a f8bd 74f7 6f3d ca66 2ebe c2e1 82bd
00000140: c426 0c3e 8433 6ebd b732 7abe 4a74 1ebe
00000150: d5aa 8abd 8669 93be fd77 02be c902 96be
00000160: f996 c2bd 2da4 23be 6af5 62be 48d2 c9ba
00000170: 121d 3d3e e36f d3bd 0122 54be 1fa2 0c3e
00000180: cddd c53d fd87 17be ee6e d03a a432 7cbe
00000190: a023 a83d f227 6dbe b2e4 29be 41e0 45be
000001a0: 550b a7bd 614f aebd bcc8 4f3d b7ab 09be
000001b0: 24d4 8a3c 4f77 19be 23ab 21be b111 3ebe
000001c0: ce69 1fbd 93f9 b6bd 646e 193c 6906 ffbd
000001d0: 0a04 d33d daa9 7fbe 085d 08be 7cd7 d6bc
000001e0: d5e2 ed3c e20a 06be efab 97be 22a4 02bd
000001f0: 4b21 0abd 51c0 31be a3a4 14be ac40 923d
00000200: e44d 59be 15d0 42be 51ff 41be 80bd a8bd
00000210: fa4b 183e c4b0 5ebe b351 d73c 4285 09be
00000220: b33f 60bc 1aee 78be 5864 2dbe 434b 313d
00000230: 8908 0cbd 9cdd 77be f104 5dbc a7ff c03d
00000240: aedd 3fbd db6c 4cbe a849 1e3c 5400 773d
00000250: 9145 85bc f6f2 31be b968 123d e478 ce3d
00000260: 9aaf 0a3d 968b 80be 31b3 2bbe 35fc 9abc
00000270: 078e 32be 5bdc 1f3c 5855 043e d208 2bbc
00000280: f363 a0bb cbe5 2fbe dbbe 8abe 8e91 9fbe
00000290: 6a4c 6fbe 7b20 b4be 33d2 b5be d08e c23a
000002a0: 2350 88bd a042 a3be f1b2 ca3c 799f b5bd
000002b0: 4768 6cbe e95b 31bd b820 c93a 9490 b0bc
000002c0: 2adf 163e f714 eb3d 86da 9cbe f09d e9bc
000002d0: f4e8 883d 89e9 42bd b016 a5be e7c5 3c3c
000002e0: 0374 03be 09c1 78bd 51fe 603d a4b4 24bb
000002f0: f6aa 4e3d 36c8 06be 326a 09be 5bd4 80bd
00000300: 4949 963b d1b7 ac3b eeac b13b a8a9 953b
00000310: f639 373e ee90 3e3f 8b34 dd3e afe7 943b
00000320: 3c31 47ba cce4 e239 91af 353a afdb a73a
00000330: f79f d9b9 3343 48ba 2f9f 22ba daa1 e5b9
00000340: f282 b13c ac8b 1a3c 952e 633c d78a 7f3c
00000350: b068 c53b ffde 013c bec7 853b bd97 053b
00000360: 0ac5 fcb9 ee36 9738 4912 0f3a edde 8139
00000370: d116 8bba fb99 5dba c192 37ba 68dc 17ba
00000380: 0993 8d37 bde0 dc39 07c4 2bba cabd 3aba
00000390: 1543 e238 9181 24ba d299 3cba d940 1d39
000003a0: 8a5c 0aba 1efc 31ba e39c 29ba e918 23ba
000003b0: 3986 22bb 26a2 e6ba 7de9 dfba 6089 ceba
000003c0: 96ed 6dbe 05f9 6dbd 7a90 83be 2658 de3a
000003d0: 5481 3a3d 9311 bbbd bdc8 febd eaf9 29be
000003e0: 7ac2 7fbc 3c58 90be 4ef8 81be 38be d3bd
000003f0: 4d07 86be 1a85 fcbd 8e8c 62bd 8804 7fbb

0.bias f4 [8]
-0.1616177 -0.12577279 -0.1491278 -0.14791515 -0.430482 -0.11112687 -0.79270047 -0.14780267
00000000: 1c7f 25be 95ca 00be f5b4 18be 1277 17be
00000010: 2368 dcbe 7c96 e3bd 6bee 4abf 9559 17be

2.weight f4 [16, 8, 4, 4]
0.106959224 0.005581172 0.043664597 0.15617189 0.04639512 -0.0785456 -0.16544542 -0.010700688
0.1246031 0.037267532 -0.029902352 -0.041203484 0.013909167 0.15081048 -0.15546758 -0.18843555
0.12857187 -0.07870017 -0.114435576 0.048204042 0.05775277 -0.120002374 -0.09852935 -0.026976833
0.03522812 0.036668126 -0.10661479 -0.04513217 0.14593023 -0.115211174 -0.21175998 -0.02851242
-0.019285912 -0.016403409 -0.048418347 -0.16356657 0.018773185 -0.08907704 -0.09120039 -0.12563886
0.003093813 -0.012909213 0.06609165 -0.0429992 0.20024052 0.28685454 -0.13566287 -0.12720513
0.050721556 -0.06873483 -0.30408165 -0.16925736 -0.03330528 -0.37009588 -0.48641905 -0.45740297
-0.24345504 -0.3767316 -0.36310202 -0.16333953 -0.05779103 -0.41435915 -0.3488094 -0.1748609
-0.014472598 -0.0039370246 -0.09677467 0.053848937 0.0003320609 0.044519182 -0.08495447 -0.14329898
-0.009276711 -0.043145027 -0.21738213 -0.16946122 -0.23219009 -0.08122312 -0.0029091595 -0.0071549667
-0.051099196 0.027916351 0.0294982 -0.0864506 0.010537489 0.04717879 0.009311535 -0.08858971
-0.10570231 0.09189664 -0.057740144 -0.00974432 0.053973347 0.06659988 0.15327203 0.0007095124
-0.07725174 -0.15634076 -0.16654252 -0.0874791 -0.057174724 -0.07156584 -0.14295855 -0.06347079
-0.098041855 -0.13835657 -0.07031174 -0.27254978 0.057166 -0.22500524 -0.004340786 -0.02949727
-0.27344558 0.07664241 0.058519587 -0.021848483 0.0046359864 -0.030977415 -0.17158903 -0.098776035
0.1497132 -0.041535914 -0.20327659 -0.17280519 0.1473749 0.06615919 0.18870243 -0.0020984637
0.03155762 -0.057818566 -0.053504337 0.017828938 0.04289364 -0.013613031 -0.022188744 -0.02360797
0.06305857 -0.1601383 -0.050507378 -0.010673448 0.05466858 0.06747087 0.016410047 0.1384173
-0.11137439 -0.23751199 -0.0034138472 -8.441927e-05 -0.10440156 -0.24417391 -0.31608188 -0.38185486
0.15326647 -0.04817 -0.15238954 -0.2027501 0.30371225 0.15400817 -0.034150776 0.019762604
-0.1803162 0.0019722756 -0.00014324448 -3.454736e-05 -0.12569736 0.0036554504 -0.00043830535 0.024846818
-0.6253657 -0.30333793 0.00055186794 5.5758795e-05 -0.35138592 -0.48437056 -0.138524 -0.0972373
-0.32673952 -0.33716813 -0.1349192 -0.013566208 -0.12224118 -0.35986978 -0.43856448 -0.31767395
-0.051105645 -0.043475024 -0.018714556 -0.0713877 0.19533297 0.05218556 -0.009772499 0.11527045
-0.0012300623 -0.0022963183 -0.0030098103 -1.4990226 -7.0795386e-06 -0.00017142866 0.0014834703 0.0005703129
0.001638554 0.0015185069 0.00086526695 0.0005274205 0.0022253075 0.0014511752 0.0011455304 0.00050840445
-0.17932034 0.02496356 -0.025444724 -0.033578984 -0.09649151 0.013900061 0.14752223 0.11895137
-0.12841134 -0.19335485 -0.08167833 -0.057444543 -0.15295489 -0.08096466 -0.046254914 0.038296536
0.00047921264 -0.0003908748 -0.00047918438 -1.2710478 0.08198987 0.058085077 0.041704666 0.007918799
0.27976078 0.160235 0.023238866 0.24937528 0.0062209303 0.00036177775 0.0011219841 0.00013632848
-0.43842688 4.139766e-05 -0.2948368 -0.10064856 -0.19281174 0.020186314 -0.4120514 -0.18279861
-0.012929457 0.026804108 -0.023809863 -0.24442157 -0.15871017 -0.18077058 -0.17102525 -0.1425516
00000000: 700d db3d 44e2 b63b a6d9 323d 86eb 1f3e
00000010: cf08 3e3d 84dc a0bd 866a 29be f051 2fbc
00000020: e92f ff3d d7a5 183d c7f5 f4bc fcc4 28bd
00000030: 46e3 633c 106e 1a3e e532 1fbe 40f5 40be
00000040: 58a8 033e 8e2d a1bd 335d eabd 9a71 453d
00000050: 2b8e 6c3d cec3 f5bd c1c9 c9bd 85fe dcbc
00000060: 5c4b 103d 5131 163d db58 dabd 83dc 38bd
00000070: bc6e 153e d6f3 ebbd 9cd7 58be e192 e9bc
00000080: 7dfd 9dbc 7160 86bc 5152 46bd ff7d 27be
00000090: 39ca 993c 066e b6bd 45c7 babd 79a7 00be
000000a0: 92c1 4a3b 2a81 53bc 0f5b 873d ee1f 30bd
000000b0: da0b 4d3e 99de 923e 35eb 0abe 1042 02be
000000c0: 68c1 4f3d d9c4 8cbd 97b0 9bbe cd51 2dbe
000000d0: 1e6b 08bd 357d bdbe eb0b f9be b930 eabe
000000e0: 474c 79be f7e2 c0be 82e8 b9be 7a42 27be
000000f0: 49b6 6cbd e226 d4be 2597 b2be bc0e 33be
00000100: 7a1e 6dbc 2802 81bb cc31 c6bd b490 5c3d
00000110: 7618 ae39 bf59 363d 9cfc adbd f8bc 12be
00000120: 59fd 17bc d7b8 30bd 6c99 5ebe 3e87 2dbe
00000130: 3dc3 6dbe 4f58 a6bd 99a7 3ebb 3674 eabb
00000140: 644d 51bd d5b0 e43c 36a6 f13c 030d b1bd
00000150: 6fa5 2c3c 8c3e 413d 698f 183c 866e b5bd
00000160: 747a d8bd 4e34 bc3d ee80 6cbd a4a6 1fbc
00000170: 2813 5d3d 8565 883d 58f3 1c3e 92fe 393a
00000180: 2936 9ebd cb17 20be 1f8a 2abe 3e28 b3bd
00000190: 0b30 6abd 1c91 92bd ba63 12be f9fc 81bd
000001a0: 2bca c8bd 58ad 0dbe 9aff 8fbd a58b 8bbe
000001b0: e526 6a3d c667 66be 273d 8ebb 42a4 f1bc
000001c0: 0f01 8cbe b2f6 9c3d 3cb2 6f3d 97fb b2bc
000001d0: 79e9 973b 59c4 fdbc 09b5 2fbe 174b cabd
000001e0: 6b4e 193e 9021 2abd bd27 50be d8f3 30be
000001f0: 72e9 163e 787e 873d 363b 413e 6186 09bb
00000200: 9042 013d 29d3 6cbd 5d27 5bbd fe0d 923c
00000210: 3eb1 2f3d 3109 5fbc 2bc5 b5bc 8065 c1bc
00000220: da24 813d 4bfb 23be d3e0 4ebd b0df 2ebc
00000230: 29ec 5f3d 2b2e 8a3d 5d6e 863c 44bd 0d3e
00000240: 4218 e4bd 5836 73be daba 5fbb 400a b1b8
00000250: 7cd0 d5bd ba08 7abe 7cd5 a1be 7b82 c3be
00000260: e3f1 1c3e e84d 45bd 010c 1cbe b99d 4fbe
00000270: 2c80 9b3e 51b4 1d3e afe1 0bbd 2fe5 a13c
00000280: cfa4 38be 4b41 013b e633 16b9 f2e6 10b8
00000290: cfb6 00be 4890 6f3b 59cc e5b9 8e8b cb3c
000002a0: f717 20bf 1c4f 9bbe 3bab 103a 8dde 6938
000002b0: dbe8 b3be 6bff f7be 3cd9 0dbe 5924 c7bd
000002c0: 674a a7be 4da1 acbe 4228 0abe cd44 5ebc
000002d0: 9559 fabd da40 b8be 868b e0be 29a6 a2be
000002e0: 2754 51bd de12 32bd 454f 99bc b733 92bd
000002f0: 5e05 483e 87c0 553d d51c 20bc ea12 ec3d
00000300: 0b3a a1ba d47d 16bb 3d40 45bb f9df bfbf
00000310: c68c edb6 88c1 33b9 0171 c23a 0d81 153a
00000320: c0c4 d63a a308 c73a 15d3 623a 9742 0a3a
00000330: 77d6 113b 5c35 be3a 9f25 963a 7246 053a
00000340: c09f 37be 6180 cc3c 7471 d0bc 1e8a 09bd
00000350: 579d c5bd 15bd 633c 1110 173e c79c f33d
00000360: 437e 03be d0fe 45be f846 a7bd f84a 6bbd
00000370: 35a0 1cbe cdd0 a5bd cb75 3dbd d4dc 1c3d
00000380: d53e fb39 54ee ccb9 0a3b fbb9 b2b1 a2bf
00000390: 4eea a73d 9eea 6d3d 83d2 2a3d dabd 013c
000003a0: ce3c 8f3e a514 243e 6f5f be3c 3c5c 7f3e
000003b0: f2d8 cb3b fdac bd39 8a0f 933a 66f3 0e39
000003c0: 7d79 e0be 66a2 2d38 d9f4 96be d520 cebd
000003d0: 7170 45be c55d a53c 67f8 d2be 8f2f 3bbe
000003e0: 13d6 53bc 4a94 db3c e70c c3bc a649 7abe
000003f0: eb84 22be ec1b 39be 3e21 2fbe 0cf9 11be

2.bias f4 [16]
-0.055376086 -0.13592827 -0.32255182 -0.133609 -0.09669999 -0.14284211 -0.29483178 -0.0020986325
0.21275553 -0.09765023 -0.23826265 0.08371264 -0.13010791 -0.15545069 -0.09305221 0.17585681
00000000: 09d2 62bd c830 0bbe 8325 a5be ccd0 08be
00000010: a50a c6bd 3445 12be 31f4 96be 3689 09bb
00000020: 96dc 593e d8fc c7bd 20fb 73be 8871 ab3d
00000030: 023b 05be 772e 1fbe 2892 bebd cf13 343e

5.weight f4 [128, 1024]
-0.11590864 -0.036459915 0.009395937 0.016185204 -0.08074713 -0.030556282 -0.09736662 -0.0648446
-0.03294584 0.04409033 -0.037184797 -0.123732336 -0.06757915 -0.0752799 -0.053567965 -0.094473094
0.026520615 -0.040582824 -0.049840726 -0.04162136 0.0005560884 -0.038512766 -0.08403907 0.022061296
-0.033051003 -0.025141366 -0.09134549 -0.057095945 -0.02954608 -0.015299014 -0.04503304 -0.06857716
0.017186837 -0.07792922 -0.11907186 -0.0899094 -0.03979403 -0.08902421 -0.07074311 0.057263147
0.0013152577 -0.05097677 -0.08230029 -0.07322672 0.009065798 0.012014001 -0.038601525 0.026705733
-0.051820096 -0.010024291 -0.09006556 0.049292736 -0.10851949 -0.09309822 0.0038231143 0.030630492
-0.06305092 -0.09742203 0.019650143 0.015340905 -0.045505773 0.030757204 -0.039250217 0.046123087
-0.099469565 -0.03086215 -0.012082926 -0.0012264602 -0.08720714 -0.0080991555 -0.098970786 0.030682836
-0.006526748 0.022963097 -0.103719756 -0.06539622 -0.04465389 -0.05299709 0.043886464 0.009696465
-0.0976977 -0.021816595 -0.025023898 -0.050514765 -0.05227524 0.033903833 -0.0067786956 0.0036684575
-0.014416457 -0.004906632 -0.015464722 -0.11203866 -0.096799664 0.02118806 -0.050516892 -0.14573292
-0.004655386 -0.041247636 -0.082222626 -0.10802849 0.0073209642 -0.030480005 -0.045154795 -0.12798557
-0.0644372 -0.041143015 -0.069844075 -0.040392667 -0.062333275 -0.050924942 0.00842826 -0.085843615
-0.075903386 -0.039328285 -0.020283494 -0.010149672 -0.044281136 -0.09684338 -0.069011144 -0.076257944
0.005633832 -0.027358316 -0.056841698 0.013934558 -0.06303386 0.038465776 -0.084696375 -0.10785698
-0.14532804 0.023508118 0.015254497 -0.04489849 0.060656287 0.023840435 -0.08190726 0.022536248
-0.09137004 0.044117536 0.07194736 0.08669952 -0.03233794 0.04102402 -0.100336306 -0.03938848
-0.04435555 -0.034857433 0.019096546 -0.00599372 -0.031675216 0.010213231 -0.037396774 0.0158365
-0.0046101394 0.010666479 -0.03934146 -0.08124477 -0.03480557 0.053701375 0.079658166 -0.02206147
-0.018535398 -0.059493635 0.030037586 0.03805729 0.085804015 0.0032914097 0.04296459 -0.09847639
0.015168183 -0.0030173238 -0.055874832 -0.09576134 0.060146786 -0.056911595 0.04059167 -0.11412279
-0.02285338 -0.011686971 0.03628743 0.05396158 0.015962765 -0.0009960852 -0.15402398 -0.0660647
-0.0777561 0.0696141 0.092557095 -0.007731601 0.0018502154 0.00032997446 -0.080230765 -0.04038173
-0.037269417 0.00961397 -0.074998215 0.034689095 -0.023815539 -0.008856725 -0.02190256 -0.07925295
0.079266496 0.03656821 -0.022695506 -0.066178314 -0.033932116 0.030815262 0.0024384684 -0.0795468
-0.049088832 0.027257496 -0.017654063 -0.006959644 0.03946854 -0.06880404 -0.053670336 -0.083824225
-0.06625702 -0.04906208 -0.07102104 -0.05354332 -1.29579485e-05 0.032087833 -0.1097125 -0.0343986
0.022676276 -0.091824494 -0.00766431 -0.03275609 -0.07759364 0.016111268 -0.07616152 -0.06829287
-0.058934152 -0.06719951 -0.09117468 -0.01929972 0.025235688 -0.082924314 -0.013142577 0.01869495
0.066732064 0.0516844 -0.03543913 -0.07456693 -0.049720973 -0.0523353 -0.058602817 -0.013111549
0.05789273 -0.04289024 -0.05100559 -0.050000086 0.014456275 -0.058403462 -0.017621906 -0.09778316
00000000: 8261 edbd fe56 15bd 6bf1 193c d596 843c
00000010: c05e a5bd 2b51 fabc 2768 c7bd 3fcd 84bd
00000020: 38f2 06bd 1098 343d 164f 18bd 6167 fdbd
00000030: f066 8abd 592c 9abd 156a 5bbd 1c7b c1bd
00000040: c341 d93c 2d3a 26bd ca25 4cbd 297b 2abd
00000050: 76c6 113a 90bf 1dbd ad1c acbd e4b9 b43c
00000060: 7d60 07bd 44f5 cdbc 5813 bbbd 70dd 69bd
00000070: 9f0a f2bc b7a8 7abc 9174 38bd 2f72 8cbd
00000080: 69cb 8c3c 5b99 9fbd f3db f3bd 6b22 b8bd
00000090: 11ff 22bd 5352 b6bd c3e1 90bd c38c 6a3d
000000a0: ba64 ac3a 05cd 50bd 0e8d a8bd e4f7 95bd
000000b0: b688 143c 5fd6 443c a21c 1ebd fbc5 da3c
000000c0: 4f41 54bd ed3c 24bc 4b74 b8bd 2ee7 493d
000000d0: 773f debd 48aa bebd 378d 7a3b ccec fa3c
000000e0: d720 81bd 3485 c7bd 56f9 a03c 6b58 7b3c
000000f0: 4364 3abd 88f6 fb3c d6c4 20bd 90eb 3c3d
00000100: b3b6 cbbd 9fd2 fcbc 77f7 45bc 2dc1 a0ba
00000110: a899 b2bd 52b2 04bc 32b1 cabd 925a fb3c
00000120: 55de d5bb 1b1d bc3c 066b d4bd 74ee 85bd
00000130: ffe6 36bd 7a13 59bd 4bc2 333d ecdd 1e3c
00000140: bb15 c8bd b7b8 b2bc ebfe ccbc 92e8 4ebd
00000150: 901e 56bd bfde 0a3d d21f debb 816a 703b
00000160: 0133 6cbc d0c7 a0bb bf5f 7dbc 8674 e5bd
00000170: e73e c6bd 9592 ad3c cdea 4ebd 033b 15be
00000180: 358c 98bb 48f3 28bd 5664 a8bd 0a3e ddbd
00000190: b3e4 ef3b 34b1 f9bc 3cf4 38bd a60e 03be
000001a0: a7f7 83bd 9485 28bd 690a 8fbd c872 25bd
000001b0: 2d51 7fbd ac96 50bd af16 0a3c c7ce afbd
000001c0: 3c73 9bbd b216 21bd 9229 a6bc cf4a 26bc
000001d0: 2360 35bd d255 c6bd b755 8dbd 202d 9cbd
000001e0: 029c b83b 8c1e e0bc d7d2 68bd c64d 643c
000001f0: e517 81bd 4a8e 1d3d 4b75 adbd 1fe4 dcbd
00000200: e0d0 14be 1994 c03c ffed 793c 7be7 37bd
00000210: ba72 783d 044d c33c febe a7bd f09d b83c
00000220: 3720 bbbd 97b4 343d 2359 933d 858f b13d
00000230: ca74 04bd ce08 283d 1f7d cdbd d155 21bd
00000240: 2aae 35bd abc6 0ebd 5c70 9c3c f866 c4bb
00000250: dfbd 01bd 6555 273c 5c2d 19bd 8cbb 813c
00000260: a710 97bb 75c2 2e3c 8324 21bd a863 a6bd
00000270: 4990 0ebd f9f5 5b3d d223 a33d 42ba b4bc
00000280: 8cd7 97bc 99af 73bd 6211 f63c f6e1 1b3d
00000290: 04ba af3d b1b4 573b a3fb 2f3d fdad c9bd
000002a0: f883 783c 4bbe 45bb 02dd 64bd 851e c4bd
000002b0: 7a5c 763d 221c 69bd 7343 263d 36b9 e9bd
000002c0: 0337 bbbc b67a 3fbc 21a2 143d d106 5d3d
000002d0: 58c4 823c 138f 82ba 76b8 1dbe ee4c 87bd
000002e0: 973e 9fbd d691 8e3d 938e bd3d 5f59 fdbb
000002f0: ed82 f23a 6c00 ad39 0750 a4bd 5067 25bd
00000300: d1a7 18bd ea83 1d3c aa98 99bd 2716 0e3d
00000310: ce18 c3bc cc1b 11bc ff6c b3bc 5f4f a2bd
00000320: 7956 a23d 8cc8 153d edeb b9bc 7f88 87bd
00000330: 67fc 0abd 4a70 fc3c b6ce 1f3b 6fe9 a2bd
00000340: 5f11 49bd 1d4b df3c 419f 90bc ba0d e4bb
00000350: c4a9 213d 22e9 8cbd 6dd5 5bbd 09ac abbd
00000360: c3b1 87bd 52f5 48bd 7b73 91bd 3e50 5bbd
00000370: f765 59b7 886e 033d f2b0 e0bd 8ce5 0cbd
00000380: 99c3 b93c 7b0e bcbd e424 fbbb 402b 06bd
00000390: 6ae9 9ebd c7fb 833c 92fa 9bbd 22dd 8bbd
000003a0: f064 71bd e69f 89bd cab9 babd 721a 9ebc
000003b0: 13bb ce3c 39d4 a9bd f753 57bc 2726 993c
000003c0: d2aa 883d 05b3 533d 9f28 11bd 8cb6 98bd
000003d0: 38a8 4bbd 8a5d 56bd 8209 70bd d3d1 56bc
000003e0: ed20 6d3d adad 2fbd 3deb 50bd e4cc 4cbd
000003f0: 03da 6c3c 7838 6fbd d15b 90bc 8a42 c8bd

5.bias f4 [128]
-0.15510531 -0.18737212 -0.10195377 -0.29455012 -0.13692407 -0.25895473 -0.23127005 -0.101723716
-0.041422907 -0.26131886 -0.24629475 -0.15625875 -0.24737644 -0.23978348 -0.17943805 -0.1623116
-0.2476919 -0.30606207 -0.1420337 -0.27023116 -0.15666522 -0.2254561 -0.14392488 -0.29949012
-0.21508138 -0.12213618 -0.15038706 -0.12417051 -0.1191603 -0.26881093 -0.4501644 -0.24378824
-0.16320312 -0.18786454 -0.15734515 -0.19175896 -0.27299756 -0.18866906 -0.22826506 -0.23662882
-0.26796073 -0.26438487 -0.1367698 -0.14982997 -0.13932072 -0.10427344 -0.17221922 -0.17252544
-0.19230871 -0.13961059 -0.14451632 -0.21526219 -0.09440183 -0.19525294 -0.23851866 -0.11929519
-0.19821069 -0.16224666 -0.2519564 -0.08947296 -0.16847701 -0.13921878 -0.23156168 -0.28203446
-0.2332429 -0.26356843 -0.19458443 0.006942928 -0.21596926 -0.22995795 -0.19482403 0.50529575
-0.19318554 -0.28763682 -0.15732412 -0.27922407 -0.1906782 -0.19005957 -0.18519324 -0.2099134
-0.23222747 -0.26011074 -0.22077793 -0.26597083 -0.18606527 -0.21219642 -0.21769004 -0.20872131
-0.18685393 -0.2769446 -0.22039935 -0.12667705 -0.27316523 -0.14247875 -0.19009744 -0.17937797
-0.38355058 -0.312536 -0.17996576 -0.28273976 -0.1625729 -0.12431454 -0.35344046 -0.165677
-0.21396026 -0.15070438 -0.27069774 -0.24560001 -0.15226716 -0.17074814 -0.11235811 -0.14820348
-0.09148096 -0.28062522 -0.13750142 -0.23065603 -0.19364853 -0.25767377 0.3431275 -0.2346066
-0.12609029 -0.14241973 -0.14892794 -0.11862437 -0.22526364 -0.15892644 -0.19933337 -0.13039786
00000000: edd3 1ebe 7ade 3fbe 23cd d0bd 46cf 96be
00000010: d335 0cbe b795 84be 0ed2 6cbe 8654 d0bd
00000020: 11ab 29bd 96cb 85be b134 7cbe 4b02 20be
00000030: 4050 7dbe cd89 75be 9cbe 37be 0335 26be
00000040: f2a2 7dbe 2bb4 9cbe 4871 11be bd5b 8abe
00000050: d96c 20be f7dd 66be 0b61 13be c556 99be
00000060: 4b3e 5cbe 8922 fabd 11ff 19be 1c4d febd
00000070: 510a f4bd 96a1 89be f37b e6be a0a3 79be
00000080: b81e 27be 905f 40be 161f 21be 765c 44be
00000090: 56c6 8bbe 7632 41be 51be 69be d34e 72be
000000a0: 2632 89be 745d 87be 620d 0cbe 076d 19be
000000b0: 17aa 0ebe 508d d5bd 3c5a 30be 82aa 30be
000000c0: 93ec 44be 14f6 0ebe 16fc 13be b16d 5cbe
000000d0: bf55 c1bd 63f0 47be 3c3e 74be 0951 f4bd
000000e0: bef7 4abe fd23 26be 6e00 81be 993d b7bd
000000f0: 3d85 2cbe 5e8f 0ebe 811e 6dbe d266 90be
00000100: 3ad7 6ebe 71f2 86be 2441 47be 8081 e33b
00000110: 0c27 5dbe 197a 6bbe f37f 47be 105b 013f
00000120: 6ed2 45be 2245 93be 9319 21be 75f6 8ebe
00000130: 2541 43be fa9e 42be 4ca3 3dbe 8af3 56be
00000140: 0acd 6dbe 3c2d 85be 9c13 62be 542d 88be
00000150: e587 3ebe 054a 59be 23ea 5ebe 0abb 55be
00000160: a356 3fbe afcb 8dbe 5eb0 61be a1b7 01be
00000170: 50dc 8bbe f3e5 11be e7a8 42be dcae 37be
00000180: be60 c4be b804 a0be f248 38be 44c3 90be
00000190: 8379 26be 9f98 febd 26f6 b4be 3ba7 29be
000001a0: 6618 5bbe 4052 1abe e598 8abe 927e 7bbe
000001b0: eceb 1bbe 9ad8 2ebe 021c e6bd a7c2 17be
000001c0: 5f5a bbbd 1cae 8fbe 2ccd 0cbe 1831 6cbe
000001d0: cd4b 46be d1ed 83be 68ae af3e b63c 70be
000001e0: d01d 01be 7ad6 11be 9180 18be 55f1 f2bd
000001f0: 83ab 66be 9dbd 22be 0c1e 4cbe 0487 05be

7.weight f4 [128, 128]
-0.067686155 0.1817936 -0.02790007 0.043542147 -0.010131974 -0.088907026 0.16137134 -0.097228885
-0.06521172 -0.1703694 0.083384484 0.044071812 0.021176301 0.01552791 0.058843825 0.25363904
-0.15761335 0.08263369 0.005854133 -0.22322628 0.05183871 -0.100887395 -0.21245773 -0.22115572
-0.02537829 -0.041373543 -0.09054947 0.0486077 -0.0055364002 -0.11928624 -0.09673993 -0.1802973
0.016429443 0.009414418 -0.13280156 0.015287521 -0.32027304 -0.022153445 0.060734484 -0.14598526
0.11945502 0.017897308 0.03482938 0.057430636 -0.007852133 0.11009995 0.17656292 -0.09361198
-0.33795303 -0.23360881 0.011172622 0.17272663 0.10132752 0.17567416 -0.05992315 0.0045009875
-0.007348672 0.27492586 -0.11888581 -0.15991734 -0.24389362 0.03019419 -0.026837423 -0.09689114
-0.17962688 0.06677594 -0.0025923853 -0.087526366 0.10342895 -0.21043694 -0.14161527 -0.24732105
-0.16818435 -0.09200685 -0.031215673 -0.2508521 0.055548068 -0.027164236 0.117166 -0.01778623
-0.21920602 -0.055988573 -8.3241124e-05 -0.28839314 0.29121774 -0.1693418 -0.16871434 0.22998802
-0.07627458 -0.20819989 0.04058367 -0.0819905 -0.047567952 -0.07077907 -0.23954888 -0.031021008
0.04433958 0.062405553 -0.04321091 -0.03130788 -0.05510857 -0.086568266 0.018172113 -0.19502372
0.15912595 -0.014896191 -0.022558771 0.029570978 0.06980744 -0.13498166 -0.0542081 0.06772773
-0.18581772 0.36118478 0.06266734 -0.09714891 0.11831176 -0.21132655 -0.18014912 -0.03226328
-0.1347546 0.12920564 -0.25840458 0.21010788 -0.044042706 -0.062087435 -0.13265656 -0.030700456
0.04484622 0.22191615 -0.029985009 0.036757838 -0.060153134 -0.23833232 -0.12787953 0.016305165
-0.033587955 -0.1210901 -0.27971548 0.010110755 -0.21094377 -0.06611883 -0.14838855 -0.021427257
-0.032888733 0.028734915 0.0885238 -0.12596618 -0.007230718 -0.08628072 0.014465408 0.25938565
0.27967924 -0.06571483 -0.08197433 -0.052815862 -0.21250144 -0.28430745 -0.08715259 0.107352145
0.03407124 -0.13532716 -0.04541002 -0.11857314 -0.067460075 -0.21276014 -0.054899234 -0.0023494412
-0.11009283 0.14250696 -0.08983068 0.03160692 -0.096511684 -0.07326174 -0.031421904 -0.08473623
0.014023164 -0.14064774 0.06009204 -0.01669762 -0.08172961 -0.012197914 -0.062078703 0.03677342
0.08611131 -0.28312108 0.19279993 0.032313205 -4.029339e-06 -0.10756872 0.023679007 0.002460742
-0.04737034 -0.24228348 0.2444938 -0.406506 -0.030661179 0.0656486 -0.020543845 0.00656609
0.04448257 -0.09442911 -0.053759 -0.35320428 -0.011755044 0.0067587257 0.089783244 -0.013287502
-0.25277132 -0.08221035 0.17041804 -0.006743096 -0.0156005155 0.0003943519 -0.026013687 -0.16396834
-0.14144073 0.00097203185 -0.09690838 -0.015836954 0.17219484 -0.1648981 -0.06065591 -0.16841736
-0.029311994 -0.2349114 0.15870093 -0.23079975 0.01929049 -0.16865665 -0.12385894 -0.054881673
-3.2500057e-07 -0.141422 -0.14402494 -0.061597027 0.072446555 0.09334188 -0.011573065 0.30154806
0.050409127 0.21429026 0.114513256 -0.22732307 -0.017048895 0.1542608 -0.1286214 0.119656585
-0.017598877 -0.06347831 -0.028834334 -0.27430618 -0.011761752 -0.0070392713 0.067899294 0.098076686
00000000: 0a9f 8abd 1a28 3a3e b08e e4bc 4059 323d
00000010: 9400 26bc e314 b6bd 873e 253e f01f c7bd
00000020: b98d 85bd 5175 2ebe 7cc5 aa3d a584 343d
00000030: ec79 ad3c c668 7e3c 3906 713d fadc 813e
00000040: 6565 21be da3b a93d 07d4 bf3b 6e95 64be
00000050: d454 543d 0d9e cebd 858e 59be a576 62be
00000060: 22e6 cfbc 4e77 29bd 0072 b9bd de18 473d
00000070: b16a b5bb 584c f4bd 961f c6bd db9f 38be
00000080: 0a97 863c ee3e 1a3c 22fd 07be 8378 7a3c
00000090: d4fa a3be 247b b5bc b9c4 783d 297d 15be
000000a0: d5a4 f43d 609d 923c 41a9 0e3d 633c 6b3d
000000b0: 3ca6 00bc 157c e13d e9cc 343e a3b7 bfbd
000000c0: 2e08 adbe 2637 6fbe 600d 373c 40df 303e
000000d0: ce84 cf3d ede3 333e fa71 75bd 057d 933b
000000e0: 21cd f0bb 15c3 8c3e 677a f3bd 5fc1 23be
000000f0: 40bf 79be ce59 f73c 28da dbbc dd6e c6bd
00000100: 1cf0 37be d3c1 883d 02e5 29bb 0641 b3bd
00000110: 8fd2 d33d c87c 57be 9803 11be bb41 7dbe
00000120: 8538 2cbe 166e bcbd 03b8 ffbc b06f 80be
00000130: 5f86 633d 8887 debc baf4 ef3d 6eb4 91bc
00000140: 8b77 60be 4654 65bd bd91 aeb8 44a8 93be
00000150: 7e1a 953e f067 2dbe 74c3 2cbe fb81 6b3e
00000160: d935 9cbd 5a32 55be 103b 263d a3ea a7bd
00000170: 9dd6 42bd 9ef4 90bd 4d4c 75be c51f febc
00000180: 6b9d 353d f79c 7f3d ecfd 30bd b13c 00bd
00000190: 86b9 61bd b44a b1bd afdd 943c 4cb4 47be
000001a0: eaf1 223e 270f 74bc 2ccd b8bc d63e f23c
000001b0: 34f7 8e3d a238 0abe 5009 5ebd d6b4 8a3d
000001c0: 0047 3ebe 36ed b83e bc57 803d 02f6 c6bd
000001d0: 704d f23d fd65 58be 0379 38be 8026 04bd
000001e0: 1cfd 09be 7c4e 043e 9b4d 84be 8526 573e
000001f0: 2066 34bd 654f 7ebd 1fd7 07be 867f fbbc
00000200: acb0 373d fd3d 633e 1fa3 f5bc 638f 163d
00000210: 2263 76bd 630d 74be daf2 02be 6992 853c
00000220: 8693 09bd 16fe f7bd de36 8fbe 95a7 253c
00000230: a501 58be 4f69 87bd 2bf3 17be 3788 afbc
00000240: 56b6 06bd 7c65 eb3c f74b b53d 47fd 00be
00000250: a9ef ecbb f2b3 b0bd 5200 6d3c 32ce 843e
00000260: 1e32 8f3e 7f95 86bd 28e2 a7bd 7255 58bd
00000270: fa99 59be bf90 91be 0f7d b2bd 71db db3d
00000280: 498e 0b3d 3493 0abe dbff 39bd 79d6 f2bd
00000290: 8228 8abd cbdd 59be 05de 60bd 15f9 19bb
000002a0: 5a78 e1bd 58ed 113e 26f9 b7bd 4276 013d
000002b0: eba7 c5bd 400a 96bd 41b4 00bd 308a adbd
000002c0: 6ac1 653c f605 10be 1223 763d 72c9 88bc
000002d0: db61 a7bd c2d9 47bc 3d46 7ebd ba9f 163d
000002e0: 205b b03d 3ff5 90be 586d 453e da5a 043d
000002f0: c233 87b6 fd4c dcbd 7afa c13c 6644 213b
00000300: 6707 42bd 2919 78be 955c 7a3e 8e21 d0be
00000310: 272d fbbc c672 863d 914b a8bc 5b28 d73b
00000320: 5b33 363d 0d64 c1bd 6632 5cbd 31d7 b4be
00000330: 3a98 40bc 4d78 dd3b 47e0 b73d d3b3 59bc
00000340: 3e6b 81be e65d a8bd 1182 2e3e 30f5 dcbb
00000350: 4e99 7fbc 04c1 ce39 a81a d5bc 51e7 27be
00000360: d7d5 10be f4cf 7e3a e777 c6bd 80bc 81bc
00000370: d853 303e 0cdb 28be 5572 78bd 9a75 2cbe
00000380: b51f f0bc 9d8c 70be 7f82 223e c556 6cbe
00000390: 1707 9e3c 54b4 2cbe c2a9 fdbd 9bcb 60bd
000003a0: bd7b aeb4 eed0 10be 467b 13be 2a4d 7cbd
000003b0: dc5e 943d 072a bf3d f49c 3dbc 8264 9a3e
000003c0: cd79 4e3d e86e 5b3e ed85 ea3d 61c7 68be
000003d0: 20aa 8bbc 8bf6 1d3e 54b5 03be 830e f53d
000003e0: 852b 90bc eb00 82bd fb35 ecbc dc71 8cbe
000003f0: 5db4 40bc b0a9 e6bb c90e 8b3d 6edc c83d

7.bias f4 [128]
-0.15180431 -0.17287041 -0.15187204 -0.07451627 -0.039629385 -0.1567389 -0.1109764 -0.23218645
-0.10881574 -0.07736696 -0.12379313 -0.08335962 -0.115500756 -0.08542313 -0.12885709 -0.083446495
-0.1265632 -0.1144906 0.25414446 -0.0059298454 -0.124592 -0.076677166 -0.075096995 -0.07799858
-0.09098851 -0.09501348 -0.12944566 -0.122035205 -0.09172472 -0.13419415 -0.10566724 -0.1377952
-0.12772217 -0.15229516 -0.15129498 -0.097073205 0.14091386 -0.097212665 0.06545412 -0.17082523
-0.111248456 -0.106973566 -0.111607246 -0.09435169 -0.13301621 -0.122643456 -0.09611445 -0.0881085
-0.098913915 -0.13197447 -0.15572914 -0.08487091 -0.07950032 -0.07818332 -0.08915261 -0.0991334
-0.11497351 -0.0077021136 -0.11772462 0.06617133 -0.0831981 -0.11517363 -0.143811 -0.21044546
-0.09984462 -0.086937 -0.012135326 -0.1633266 -0.21226959 -0.12546863 -0.096025474 -0.06819815
-0.10091279 -0.0981218 -0.13006234 -0.097893365 -0.12260941 -0.15881856 -0.120444514 -0.13075136
-0.13072097 -0.07294637 -0.12638964 -0.16687763 -0.14463675 0.02734437 0.07068417 -0.14049685
-0.116965674 -0.0634613 -0.17218602 -0.07401384 -0.1412655 -0.00661608 -0.11417942 -0.1063947
-0.09724059 0.11800292 -0.10784645 -0.18130362 -0.07602794 -0.009289095 -0.07267395 -0.17025436
-0.12471396 -0.10128315 -0.14500119 -0.114695534 -0.064760916 -0.06971227 -0.100725986 -0.10230609
-0.081444 -0.096056364 -0.13048309 -0.096474394 -0.093521886 -0.13291869 -0.13791814 -0.1608007
-0.16015255 -0.11264716 -0.122447014 -0.14241868 -0.15296966 -0.11398628 -0.087659985 -0.12638244
00000000: 9772 1bbe f104 31be 5884 1bbe fc9b 98bd
00000010: 6c52 22bd 2a80 20be 9847 e3bd 49c2 6dbe
00000020: c9da debd 9272 9ebd 4187 fdbd 73b8 aabd
00000030: a98b ecbd 52f2 aebd 1df3 03be ffe5 aabd
00000040: c999 01be 0c7a eabd 391f 823e 264f c2bb
00000050: 172a ffbd eb08 9dbd 74cc 99bd b8bd 9fbd
00000060: 2f58 babd 6d96 c2bd 678d 04be 98ed f9bd
00000070: 2cda bbbd 316a 09be 1168 d8bd 2f1a 0dbe
00000080: 9ac9 02be 43f3 1bbe 12ed 1abe 51ce c6bd
00000090: b94b 103e 6f17 c7bd cf0c 863d cfec 2ebe
000000a0: 3bd6 e3bd f514 dbbd 5792 e4bd 753b c1bd
000000b0: 6735 08be 7e2c fbbd a7d7 c4bd 3b72 b4bd
000000c0: 6193 cabd 5124 07be 7677 1fbe cdd0 adbd
000000d0: 10d1 a2bd 941e a0bd a595 b6bd 7406 cbbd
000000e0: 3b77 ebbd 0362 fcbb 9b19 f1bd d684 873d
000000f0: c463 aabd 27e0 ebbd 3143 13be 047f 57be
00000100: 567b ccbd 070c b2bd 3fd3 46bc 173f 27be
00000110: 335d 59be d97a 00be 01a9 c4bd 79ab 8bbd
00000120: 5dab cebd 15f4 c8bd 102f 05be 517c c8bd
00000130: a41a fbbd 55a1 22be 9dab f6bd afe3 05be
00000140: b8db 05be e864 95bd 496c 01be f8e1 2abe
00000150: a81b 14be 4d01 e03c ddc2 903d 68de 0fbe
00000160: b38b efbd 00f8 81bd 8851 30be 9194 97bd
00000170: e7a7 10be b4cb d8bb e6d6 e9bd 77e5 d9bd
00000180: 1326 c7bd 84ab f13d 99de dcbd a8a7 39be
00000190: 89b4 9bbd 4a31 18bc 14d6 94bd 2957 2ebe
000001a0: 086a ffbd 8a6d cfbd 317b 14be 7ee5 eabd
000001b0: 5fa1 84bd 4ec5 8ebd 6d49 cebd db85 d1bd
000001c0: 1dcc a6bd 33b9 c4bd 5c9d 05be 5e94 c5bd
000001d0: 6788 bfbd d61b 08be 6a3a 0dbe f0a8 24be
000001e0: 08ff 23be 8eb3 e6bd 80c5 fabd 34d6 11be
000001f0: 14a4 1cbe a471 e9bd 1487 b3bd 666a 01be

9.weight f4 [128, 128]
-0.14516595 -0.04717513 -0.12082454 0.009942263 -0.36909226 0.15289399 -0.01175691 -0.053344015
-0.015609693 0.08405037 0.15687169 0.027288077 -0.06641737 -0.3161633 0.17268287 0.056622304
0.11329224 0.09242601 -0.2195384 -0.3607727 -0.03641651 -0.05891944 -0.19171098 -0.17622875
0.11121836 -0.12803152 0.034901887 0.26436296 -0.0033519622 -0.050426275 0.060310848 0.12531409
-0.003507867 -0.10587325 0.0031015659 0.05184175 -0.10902794 -0.06844305 -0.15468359 -0.02894926
-0.024518732 -0.10512139 0.017125595 0.018769551 -0.23738825 -0.012397087 -0.3690857 -0.024007577
-0.23840326 -0.2500557 -0.16827108 -0.018900685 0.117633976 0.02786374 0.086676836 -0.16253076
-0.13952498 -0.062244292 -0.025354855 -0.15588216 -0.025398815 -0.04023448 -0.21650429 -0.029289462
-0.032736808 0.08241032 0.00089759106 -0.21298283 -0.22865885 0.15453611 0.16330752 -0.19201082
-0.16323419 -0.06905479 -0.01618958 -0.17320146 -0.027377144 -0.16293183 -0.13319354 0.022909362
-0.17358336 -0.015950674 -0.10296254 -0.12415887 -0.06703319 -0.074102096 -0.07206717 -0.03270652
-0.03118579 -0.00907491 0.060689926 -0.009714051 -0.14649884 -0.022485672 -0.01386063 0.06517277
-0.1935616 0.045025103 0.033060934 0.117296904 -0.22835393 -0.021230966 -0.11276895 -0.1353427
-0.05265897 0.053413063 0.112230316 0.058335852 -0.098160535 -0.07305205 -0.15859753 0.03369684
-0.10909754 0.219293 -0.11567449 0.02692284 -0.3302803 0.0015771466 -0.015867833 0.07378115
0.0033918435 0.07411209 -0.15463988 -0.20326406 -0.11779951 -0.13435236 0.04315444 -0.096011765
0.30400613 -0.007931345 0.005780186 -0.15582868 0.0036642575 0.07191822 -0.028346147 -0.0033321013
-0.012025996 -0.12376805 0.049952596 -0.09020386 -0.19533016 0.033319667 -0.18553267 -0.026366232
-0.022635275 0.13276461 -0.0046366146 0.0003152081 -0.22774978 0.013073104 -0.058290277 -0.012704065
-0.012716687 -0.001582764 -0.019541701 0.123494096 0.07176865 -0.08852671 -0.018993381 0.0020453862
-0.18590903 0.06781564 0.047497276 -0.09667472 0.00019267072 -0.08298266 1.277745e-05 0.02164414
0.07444203 0.070140734 -0.05854778 -0.32634822 0.19395895 -0.11268614 -0.04875518 0.00043620414
0.022354798 -0.023891767 -0.031187885 -0.03170885 -0.07900006 -0.08388693 0.09139216 0.15258162
0.029313643 0.00031726487 -0.064315766 0.0011384644 0.06395974 -0.112491235 -0.023490516 0.10091595
-0.21064623 -0.0068956204 0.003506149 -0.064728476 -0.13319632 -0.031344477 -0.023333035 -0.0023584198
0.19340335 0.12717696 0.1408453 0.21402434 -0.02636459 0.10378343 0.013361755 -0.08828603
0.06635525 -0.27127692 -0.07439601 -0.05709905 0.058233075 0.0010522315 -1.3368965 -0.009416062
0.10804655 -0.029289363 -0.062152788 -0.030459693 -0.07169461 0.00016784435 -0.00010027218 -0.06784733
-0.02465933 0.0056242063 0.03817999 0.1802706 -0.07329 0.00042411272 -0.08779876 -0.14033815
-0.2017114 0.059898496 -0.20421892 -0.031007446 -0.076368384 -0.28529677 0.07519466 0.04815451
-0.1565065 -0.025379915 0.015832141 -0.0002094279 -0.010617236 -0.007417723 -0.02036542 0.22472318
-0.07464274 -0.1365328 -0.20590453 -0.29618388 0.044528395 -0.031249475 0.108949445 0.07875666
00000000: 62a6 14be b63a 41bd db72 f7bd e0e4 223c
00000010: a9f9 bcbe 3e90 1c3e 0ea0 40bc 417f 5abd
00000020: ccbf 7fbc 9a22 ac3d f9a2 203e 3f8b df3c
00000030: d505 88bd 28e0 a1be c7d3 303e caec 673d
00000040: c305 e83d d949 bd3d adce 60be 33b7 b8be
00000050: 7a29 15bd 8355 71bd e24f 44be 4f75 34be
00000060: 74c6 e33d b21a 03be 48f5 0e3d 955a 873e
00000070: 98ac 5bbb c88b 4ebd 8208 773d 5652 003e
00000080: 3ee4 65bb 13d4 d8bd a443 4b3b 0458 543d
00000090: 0a4a dfbd df2b 8cbd 6065 1ebe 0027 edbc
000000a0: 82db c8bc e249 d7bd fa4a 8c3c 9ac2 993c
000000b0: e815 73be 271d 4bbc cdf8 bcbe 8aab c4bc
000000c0: fc1f 74be 4d07 80be 414f 2cbe 9cd5 9abc
000000d0: 15ea f03d 8042 e43c a083 b13d 776e 26be
000000e0: a3df 0ebe dff3 7ebd fcb4 cfbc 939f 1fbe
000000f0: 2d11 d0bc e9cc 24bd 4db3 5dbe 74f0 efbc
00000100: 0817 06bd bec6 a83d 514c 6b3a 2c18 5abe
00000110: 8c25 6abe b73e 1e3e 163a 273e 7c9e 44be
00000120: dd26 27be 996c 8dbd 03a0 84bc b95b 31be
00000130: 0846 e0bc 9ad7 26be e363 08be 6aac bb3c
00000140: d6bf 31be fdaa 82bc 06de d2bd 0147 febd
00000150: b248 89bd d7c2 97bd f497 93bd 46f7 05bd
00000160: 5879 ffbc eeae 14bc 0096 783d af27 1fbc
00000170: cb03 16be df33 b8bc b217 63bc 4d79 853d
00000180: 0335 46be 3e6c 383d e76a 073d 5c39 f03d
00000190: 9dd5 69be 90ec adbc 68f3 e6bd 4797 0abe
000001a0: efb0 57bd a8c7 5a3d 02d9 e53d 93f1 6e3d
000001b0: 6408 c9bd 509c 95bd 6467 22be b305 0a3d
000001c0: 886e dfbd 588e 603e bfe6 ecbd 4a8d dc3c
000001d0: 801a a9be 42b8 ce3a 42fd 81bc 921a 973d
000001e0: b149 5e3b 14c8 973d eb59 1ebe 7424 50be
000001f0: df40 f1bd aa93 09be b6c2 303d d1a1 c4bd
00000200: b1a6 9b3e 79f2 01bc b767 bd3b 8e91 1fbe
00000210: 0a24 703b dc49 933d 2e36 e8bc 625f 5abb
00000220: af08 45bc 1a7a fdbd 189b 4c3d cdbc b8bd
00000230: a104 48be 347a 083d 47fc 3dbe fffd d7bc
00000240: 9d6d b9bc 72f3 073e beee 97bb 8442 a539
00000250: 3d37 69be 9330 563c c9c1 6ebd b624 50bc
00000260: a759 50bc bf74 cfba eb15 a0bc 79ea fc3d
00000270: 71fb 923d 7e4d b5bd 0298 9bbc e30b 063b
00000280: f05e 3ebe ede2 8a3d 818c 423d 65fd c5bd
00000290: a707 4a39 d0f2 a9bd bb5e 5637 0d4f b13c
000002a0: 1075 983d f2a5 8f3d cccf 6fbd 1d17 a7be
000002b0: 2d9d 463e fec7 e6bd 83b3 47bd 54b2 e439
000002c0: 6921 b73c abb8 c3bc bc7d ffbc 24e1 01bd
000002d0: c9ca a1bd e9cc abbd d02b bb3d 5b3e 1c3e
000002e0: 2a23 f03c 9256 a639 fcb7 83bd 8738 953a
000002f0: 53fd 823d ce61 e6bd 2f6f c0bc 06ad ce3d
00000300: a5b3 57be a8f4 e1bb 6bc7 653b 5d90 84bd
00000310: 9e64 08be 1163 00bd ec24 bfbc b88f 1abb
00000320: 870b 463e ad3a 023e c039 103e 3229 5b3e
00000330: 8dfa d7bc 688c d43d 43eb 5a3c 4ecf b4bd
00000340: 43e5 873d cfe4 8abe ef5c 98bd b2e0 69bd
00000350: ce85 6e3d 08eb 893a 6d1f abbf d445 1abc
00000360: 8247 dd3d 3ff0 efbc ec93 7ebd 9b86 f9bc
00000370: a0d4 92bd 60ff 2f39 3749 d2b8 8af3 8abd
00000380: 5d02 cabc 434b b83b 9f62 1c3d db98 383e
00000390: 1119 96bd 725b de39 d6cf b3bd ceb4 0fbe
000003a0: 6f8d 4ebe 2058 753d c41e 51be 5403 febc
000003b0: 0767 9cbd 6b12 92be a8ff 993d aa3d 453d
000003c0: 3d43 20be 8ae9 cfbc 68b2 813c e099 5bb9
000003d0: eaf3 2dbc 5f10 f3bb 62d5 a6bc d51d 663e
000003e0: 4bde 98bd 41cf 0bbe a3d8 52be 6aa5 97be
000003f0: 6863 363d e6fe ffbc e320 df3d 2c4b a13d

9.bias f4 [128]
-0.10297912 0.081894465 -0.14666669 0.21501507 -0.10184915 -0.06996063 -0.045012783 0.08778625
0.22118129 -0.03410749 -0.16207919 -0.119117424 -0.063567944 -0.1259905 -0.13428718 -0.11232356
-0.16334905 0.26335195 -0.071324475 0.23269072 0.02096951 -0.07824189 -0.16426232 -0.11766826
-0.08902624 -0.14913008 0.12546277 0.12060831 -0.124860086 -0.09420326 -0.09910905 -0.05675722
-0.12809284 -0.15717214 -0.14320284 -0.11853847 -0.09161057 0.16827653 0.07630659 -0.08817211
0.22753912 0.16753185 -0.12072316 -0.06826184 -0.16545522 -0.13251504 -0.09354106 -0.12954402
-0.10855081 -0.091070406 -0.17904735 -0.06184822 -0.09034837 -0.09825206 -0.07232253 -0.13990478
-0.083195664 -0.06837783 -0.07233607 -0.118943855 0.04851881 -0.12175815 -0.07637707 -0.111405924
-0.1287365 -0.1532523 -0.1048107 -0.033068873 -0.07130271 -0.10018068 -0.08970348 -0.13930191
-0.124410056 -0.11846872 -0.103138454 -0.124298744 -0.15607503 -0.082202904 -0.09677268 -0.06812781
-0.051805116 -0.07089925 -0.1044237 -0.16218656 0.0895899 0.3545625 -0.072603144 -0.02453345
-0.1713052 -0.13096413 -0.05162572 -0.13914405 -0.15712103 -0.10445579 0.26902166 -0.0034201574
0.20309362 -0.12752137 -0.0771414 -0.121593215 -0.11080433 -0.07561162 -0.12273387 -0.050247077
-0.11054265 -0.09446732 -0.132193 -0.10150076 0.073250405 -0.16431218 -0.07146887 -0.06389022
-0.028153911 -0.15821221 -0.09915131 0.18711083 -0.09377822 -0.11503898 -0.018012967 -0.08041854
-0.0733613 -0.088271044 -0.066023126 -0.10702283 -0.06997393 -0.1539214 -0.09301751 -0.13013147
00000000: b8e6 d2bd 49b8 a73d cb2f 16be e92c 5c3e
00000010: 4a96 d0bd 8547 8fbd 535f 38bd 47c9 b33d
00000020: 597d 623e 4cb4 0bbd 16f8 25be d6f3 f3bd
00000030: e92f 82bd a703 01be 9482 09be e509 e6bd
00000040: f944 27be 11d6 863e 9112 92bd 7a46 6e3e
00000050: 40c8 ab3c 493d a0bd 6234 28be 0ffc f0bd
00000060: 6453 b6bd 8eb5 18be 5079 003e 7d01 f73d
00000070: a5b6 ffbd a4ed c0bd b0f9 cabd 427a 68bd
00000080: c52a 03be bcf1 20be c4a3 12be 4cc4 f2bd
00000090: 539e bbbd af50 2c3e a146 9c3d 9493 b4bd
000000a0: 0400 693e 788d 2b3e b43d f7bd ddcc 8bbd
000000b0: 186d 29be 06b2 07be 7592 bfbd 30a7 04be
000000c0: e34f debd 1f83 babd 3058 37be 8f54 7dbd
000000d0: 9108 b9bd 6038 c9bd d61d 94bd 3343 0fbe
000000e0: 7d62 aabd ad09 8cbd ef24 94bd d698 f3bd
000000f0: a9bb 463d 565c f9bd 956b 9cbd ca28 e4bd
00000100: 80d3 03be 2cee 1cbe fea6 d6bd 3a73 07bd
00000110: 2807 92bd 872b cdbd 75b6 b7bd 29a5 0ebe
00000120: b3ca febd ba9f f2bd 413a d3bd 5790 febd
00000130: 22d2 1fbe ff59 a8bd c130 c6bd 9886 8bbd
00000140: 9a31 54bd a033 91bd 18dc d5bd 3c14 26be
00000150: e97a b73d 3789 b53e f5b0 94bd 60fa c8bc
00000160: a16a 2fbe 761b 06be 7e75 53bd c77b 0ebe
00000170: 56e4 20be ebec d5bd 35bd 893e b824 60bb
00000180: c6f7 4f3e f694 02be 4ffc 9dbd dd05 f9bd
00000190: 61ed e2bd 44da 9abd e55b fbbd e1cf 4dbd
000001a0: 2f64 e2bd 1578 c1bd 9a5d 07be a1df cfbd
000001b0: 4f04 963d 7441 28be 455e 92bd e0d8 82bd
000001c0: 08a3 e6bc 6202 22be d80f cbbd fb99 3f3e
000001d0: cc0e c0bd 8f99 ebbd ee8f 93bc 7ab2 a4bd
000001e0: 733e 96bd 73c7 b4bd 2237 87bd c92e dbbd
000001f0: 7e4e 8fbd 929d 1dbe f77f bebd 2f41 05be

11.weight f4 [128, 128]
-0.061670322 -0.043097593 -0.07515531 -0.18317853 0.04490036 -0.038319536 -0.03676325 0.008040055
-0.08892857 -0.017119737 -0.08325301 -0.113143995 -0.030339848 -0.1102244 -0.09968221 -0.0454081
-0.054079525 -0.0580093 -0.19411951 -0.00030512424 -0.035447195 -0.052295554 -0.02010548 -0.038379207
-0.1861853 0.024473714 -0.0586395 -0.07248326 -0.0012906358 -0.07409419 -0.044120926 -0.007706411
-0.01224449 -0.08240093 -0.039725382 -0.10437846 -0.1435159 -0.0010528204 -0.029675534 -0.23507215
-0.04610685 -0.027936645 0.17621574 -0.01895803 -0.050252866 -0.040071275 -0.13120613 0.088567056
-0.02858934 -0.20328285 -0.023421343 0.058836695 0.035159815 -0.15516038 -0.12317012 -0.047015972
-5.1050036e-05 -0.019814992 0.019003473 -0.0473877 -0.21357438 -0.06437816 0.0033776017 -0.1240419
-0.109326124 0.027556771 -0.11503688 -0.15709415 -0.24365863 -0.017042117 -0.01913009 -0.045236725
-0.083544664 0.012424903 -0.09241076 -0.0035649277 -0.07703564 -0.3249192 -0.03584926 -0.01214538
-0.0105657065 -0.019574817 -0.03585102 -0.08694448 0.005509341 0.13506624 -0.035659816 -0.080328524
0.0769463 -0.02491318 -0.087587774 -0.1238916 0.015313136 -0.16688581 -0.105300725 0.032245435
-0.04621992 -0.1273097 -0.029952964 -0.11322918 -0.1195746 -0.21050471 -0.09632516 -0.1866919
-0.13857424 -0.008307477 -0.051566184 -0.03560692 -0.12373162 0.020768726 0.06247275 -0.13001941
-0.043557476 -0.13546897 -0.04186126 -0.08457347 0.083864965 0.057305492 -0.19027649 -0.16052064
-0.03342305 -0.024224207 -0.16352174 -0.067090586 -0.024471689 -0.030878438 -0.09014504 -0.0085831955
-0.054052413 0.008860962 -0.047176704 -0.24081908 -0.049864296 -0.09739668 -0.061299216 -0.08967953
-0.039327376 0.032457516 -0.14135335 -0.06240822 -0.0036373534 -0.014903931 -0.15349586 0.04781703
0.020011377 -0.17879352 -0.018867532 -0.11801323 -0.17537618 -0.051663507 -0.038078655 0.052197963
-0.04724104 -0.12763956 -0.010429633 -0.15780945 -0.10066343 -0.08371784 -0.1649841 0.036442377
-0.10828408 -0.17241642 -0.03318897 -0.13858503 -0.16998844 -0.030114736 -0.107157394 -0.025483403
-0.009557725 -0.036193814 -0.11669071 -0.030207526 -0.106675915 -0.13490424 -0.0033828083 -0.15236367
0.036008064 -0.043820824 -0.011008378 -0.037136126 -0.12571107 -0.19289476 -0.1842635 -0.043139465
-0.10802993 -0.035367936 -0.007357997 -0.18225545 -0.14255095 -0.13381736 -0.14577283 -0.013610293
0.021177303 -0.06058301 -0.06383501 -0.075147 -0.09346796 -0.074185364 -0.01500372 -0.14342113
-0.021455545 -0.11314306 -0.036796194 0.05320019 -0.0522673 -0.029070837 0.08431366 -0.19213358
-0.18141574 -0.074417286 -0.08695737 -0.029664418 -0.12140358 0.003332257 -0.15590836 -0.041558914
-0.12715515 -0.079690896 -0.050819736 -0.029777426 -0.1110683 -0.03588459 -0.17405875 0.06840035
-0.018603636 0.06965792 -0.11687873 0.012519922 -0.03763772 -0.082918234 -0.052407004 -0.03888784
-0.045778677 0.055176858 -0.037463486 -0.015657749 -0.16330434 0.027466962 0.007870242 0.059331343
-0.039048124 -0.016021408 -0.035854753 0.036551327 -0.07028057 0.038303234 0.03221165 -0.035784718
-0.031281505 0.063138045 -0.050056558 -0.05186246 -0.021777332 -0.07335605 -0.012597032 -0.17436416
00000000: 059a 7cbd 1a87 30bd 07eb 99bd 2793 3bbe
00000010: 71e9 373d f2f4 1cbd 1095 16bd 6fba 033c
00000020: 2f20 b6bd b13e 8cbc 8e80 aabd 0ab8 e7bd
00000030: 468b f8bc 55bd e1bd 3026 ccbd d8fd 39bd
00000040: 7e82 5dbd 299b 6dbd 44c7 46be 15f9 9fb9
00000050: 1431 11bd dd33 56bd 3fb4 a4bc 8433 1dbd
00000060: 5ca7 3ebe 197d c83c f92f 70bd 1a72 94bd
00000070: 8d2a a9ba b2be 97bd 25b8 34bd 1086 fcbb
00000080: 1d9d 48bc d2c1 a8bd 15b7 22bd 60c4 d5bd
00000090: d5f5 12be cafe 89ba 1b1a f3bc c1b6 70be
000000a0: 89da 3cbd 64db e4bc e671 343e df4d 9bbc
000000b0: f3d5 4dbd c721 24bd e65a 06be a562 b53d
000000c0: 3134 eabc 6129 50be 1ede bfbc bffe 703d
000000d0: bd03 103d 5de2 1ebe 9e40 fcbd d293 40bd
000000e0: 8f1e 56b8 0d53 a2bc 2cad 9b3c 9b19 42bd
000000f0: 3eb3 5abe b2d8 83bd c15a 5d3b ae09 febd
00000100: 60e6 dfbd bdbe e13c 7598 ebbd 4add 20be
00000110: a681 79be e99b 8bbc b5b6 9cbc 254a 39bd
00000120: 7719 abbd d291 4b3c da41 bdbd 90a1 69bb
00000130: ddc4 9dbd cf5b a6be acd6 12bd 6afd 46bc
00000140: c91b 2dbc 5e5b a0bc 85d8 12bd f30f b2bd
00000150: b487 b43b ce4e 0a3e 0710 12bd 4883 a4bd
00000160: 0696 9d3d ba16 ccbc 3861 b3bd e1ba fdbd
00000170: f3e3 7a3c 1de4 2abe e8a7 d7bd ca13 043d
00000180: 1951 3dbd 795d 02be eb5f f5bc b3e4 e7bd
00000190: 87e3 f4bd 8c8e 57be 2046 c5bd 292c 3fbe
000001a0: 68e6 0dbe 161c 08bc 1037 53bd 90d8 11bd
000001b0: 0167 fdbd 2d23 aa3c 6de3 7f3d cf23 05be
000001c0: 5369 32bd 61b8 0abe b676 2bbd db34 adbd
000001d0: 65c1 ab3d 2ab9 6a3d d7d7 42be 865f 24be
000001e0: 9ce6 08bd d871 c6bc 3e72 27be ca66 89bd
000001f0: da78 c8bc c7f4 fcbc f69d b8bd 88a0 0cbc
00000200: 1066 5dbd 922d 113c 5c3c 41bd 4799 76be
00000210: 813e 4cbd e977 c7bd e314 7bbd e7a9 b7bd
00000220: be15 21bd 2cf2 043d efbe 10be c39f 7fbd
00000230: aa60 6ebb 9e2f 74bc 052e 1dbe cadb 433d
00000240: e6ee a33c a615 37be 1590 9abc ecb0 f1bd
00000250: d095 33be 1d9d 53bd 5df8 1bbd 88cd 553d
00000260: d27f 41bd f2b3 02be 0de1 2abc cd98 21be
00000270: a128 cebd 4274 abbd 98f1 28be 9a44 153d
00000280: 0bc4 ddbd ee8d 30be 28f1 07bd 3ce9 0dbe
00000290: 7311 2ebe 2eb3 f6bc 5675 dbbd 92c2 d0bc
000002a0: 0198 1cbc f73f 14bd 8afb eebd c675 f7bc
000002b0: e778 dabd 5624 0abe 1bb2 5dbb 3905 1cbe
000002c0: 317d 133d 777d 33bd 7c5c 34bc 0d1c 18bd
000002d0: 67ba 00be 3486 45be 92af 3cbe 02b3 30bd
000002e0: cc3e ddbd f8dd 10bd 5a1b f1bb 2ca1 3abe
000002f0: e0f8 11be 6b07 09be 7945 15be b5fd 5ebc
00000300: 067c ad3c e425 78bd eebb 82bd ace6 99bd
00000310: 216c bfbd 7fee 97bd 2ad2 75bc fddc 12be
00000320: 8ac3 afbc 8cb7 e7bd 9bb7 16bd 71e8 593d
00000330: 3d16 56bd f725 eebc a4ac ac3d aabe 44be
00000340: 0cc5 39be 1768 98bd b516 b2bd cb02 f3bc
00000350: 71a2 f8bd ff61 5a3b 71a6 1fbe ae39 2abd
00000360: f634 02be fb34 a3bd 5b28 50bd caef f3bc
00000370: c777 e3bd b8fb 12bd 753c 32be 7c15 8c3d
00000380: a766 98bc d0a8 8e3d 1e5e efbd 5c20 4d3c
00000390: 032a 1abd 09d1 a9bd baa8 56bd db48 1fbd
000003a0: 6c82 3bbd 2101 623d 5073 19bd ae44 80bc
000003b0: 4139 27be 6502 e13c 30f2 003c 6c05 733d
000003c0: edf0 1fbd 543f 83bc 6fdc 12bd d8b6 153d
000003d0: 42ef 8fbd dae3 1c3d 5df0 033d ff92 12bd
000003e0: 0921 00bd 854e 813d 1b08 4dbd bb6d 54bd
000003f0: 6066 b2bc b23b 96bd c863 4ebc 858c 32be
