project_networks/cifar10_cnn_2layer_w1.onnx (onnx, 536819 bytes, 16 tensors)

0.weight f4 [4, 3, 4, 4]
00000000: 2c91 dc3a 702d 163d 3dd5 943b 2343 243c
00000010: 946e d53d 1f5a b83e 929d 5d3e e1e8 d73d
00000020: ef52 ba3b 5bbf dc3d f396 5f3c c901 d43c
00000030: 2d05 5b3c 932c 783d 8af8 2f3d d443 a23c
00000040: 990d 6a3a bae3 833a 0b0a 8a3a 225a 893a
00000050: 1301 f139 d51c 423a 7a07 f93c 7ee9 543a
00000060: 9d35 913a 01e1 c03a 6dc9 873a 651c 8b3a
00000070: dbdb 2d3a 6b5d 883a ba58 5e3a c064 813a
00000080: 6931 063a b1c0 143a fd4c ee39 538d cd39
00000090: b2f1 583a 583f 513a 9363 5b3a f90f 083a
000000a0: 90da e139 ad35 163a 71fc 0b3a baab 9039
000000b0: 02cb c639 d49b 823a 671f 933a fa86 113a
000000c0: 50f5 eab9 af2e b2b9 fe3d f839 0764 8637
000000d0: 9104 7aba 22ee 1fba f0ca 8fb8 a79f 02b9
000000e0: 339f c4b9 b923 0fba 7f21 5339 b419 6137
000000f0: 23fa 83ba 1da5 11ba c507 55b9 0f2f d9b9
00000100: be3c 0139 04fe 463a 3ed8 293a 6e39 2e3a
00000110: a456 bfb9 3b56 bc39 dc2c b439 184e 4f39
00000120: 2758 7d39 7a03 123a dbbd 023a 1a3c 3a3a
00000130: 0ba9 14ba 58d2 6b39 0ffe e238 180e cd37
00000140: ae29 a43a 5d53 d43a 2222 023b 827d b83a
00000150: 4953 943b b632 c23e ec94 fe3e 1f0d 0c3f
00000160: 7979 8e3a 318c b53a 8ad3 103b 59e2 cd3a
00000170: b56f 5839 1495 1e3a 77a4 643a ce82 c039
00000180: b643 4d3a ba83 2e3a 0007 593a b931 8c3a
00000190: 50f4 413a 26e5 3a3a 3c75 3e3a b348 723a
000001a0: b6cd f03a 8344 3f3c 4c14 a03a c2d8 943a
000001b0: 7269 ab3c 9786 663d 4f5f ba3c 8d61 a13a
000001c0: ae25 623a ba16 763a 4db9 723a 4fe5 983a
000001d0: bdd4 603d 0bf9 9e3b 2d9a 783d 56bb fa3a
000001e0: a46e 4e3b adc0 863b b560 483b e58d 073b
000001f0: d88a 543e 18b9 793c 88eb 6e3e 4488 a63b
00000200: 7a63 983a 8316 a53a 69f3 9a3a 4e16 a63a
00000210: 3ea7 623a c4e9 793a a336 6f3a 7f0b 153a
00000220: af87 173b dcfb 1d3b 0557 093b 8472 f13a
00000230: 43c9 c63a 5a87 a13a 3b32 c53a 2d5c 583a
00000240: b950 90ba d4fe afbc bb1c 4dbb 7ad6 0bbc
00000250: be2f 02be f95c 82be 0256 2cbe 02e0 17be
00000260: b4e7 4eba 1f72 bfb9 1a70 3aba a6fa cfb9
00000270: 6c91 973d 233e 2d3e 8447 eb3d 2c7b b23d
00000280: f8aa dfba 7a5c 0ebb 4cfc 10bb e6bc 04bb
00000290: 3056 56be 4944 57bc b250 55be 2982 d7bb
000002a0: ed84 5aba e9bb 13ba 3a67 f4b9 e548 29ba
000002b0: 3631 253e d06b 493c ada2 923e ccc6 eb3b
000002c0: 8661 afba 07f7 ceba 5eb5 e2ba d256 d9ba
000002d0: 05bb 46bd 0df2 57be b021 80bd 0449 b1bd
000002e0: 956e 34ba 9113 2dba a512 15ba e22a 0eba
000002f0: 3273 983d 4595 ee3e ab54 8e3e 84d7 6d3e
0.0016827933 0.036664426 0.0045420215 0.010025772 0.10421482 0.36006257 0.2164214 0.10542465
0.005686156 0.10778686 0.013646829 0.025879757 0.013367933 0.060589384 0.042961635 0.019807734
0.0008928418 0.0010062375 0.0010531557 0.0010479132 0.00045967902 0.0007404809 0.030399073 0.0008121951
0.00110786 0.0014715494 0.0010359712 0.0010613321 0.0006632187 0.0010403817 0.0008481849 0.0009871945
0.0005119057 0.0005674465 0.00045452258 0.00039205942 0.00082757615 0.0007982156 0.0008369025 0.00051903684
0.00043078186 0.0005730044 0.0005340046 0.00027593767 0.00037916756 0.0009964653 0.0011224569 0.0005551424
-0.0004481473 -0.00033985588 0.00047348434 1.6020624e-05 -0.00095374236 -0.0006100853 -6.8565714e-05 -0.00012457241
-0.00037502646 -0.000546034 0.00020135006 1.341703e-05 -0.0010069053 -0.0005555915 -0.00020316157 -0.00041424527
0.00012325027 0.0007590952 0.0006479061 0.0006646131 -0.0003649491 0.000359224 0.00034365698 0.0001977015
0.000241608 0.0005569976 0.0004987397 0.0007104293 -0.00056709413 0.00022489706 0.00010823842 2.4444467e-05
0.0012524629 0.0016199161 0.001985677 0.001407549 0.00452653 0.37929314 0.49722993 0.5470752
0.0010869942 0.0013850984 0.0022098743 0.0015707716 0.0002064098 0.0006049436 0.0008722017 0.0003671855
0.0007830219 0.0006657202 0.0008278936 0.0010695971 0.0007398771 0.00071294827 0.0007265394 0.00092424004
0.0018371854 0.011674049 0.001221308 0.0011356103 0.020924304 0.0562807 0.022750525 0.0012312398
0.00086268305 0.0009387542 0.00092591794 0.0011665019 0.054890383 0.0048514656 0.06069391 0.0019129317
0.0031499052 0.004112324 0.003057522 0.002068394 0.2075609 0.015241884 0.23332036 0.005082162
0.0011626326 0.001259521 0.001182181 0.0012671442 0.0008646137 0.000953343 0.0009125268 0.0005685612
0.0023121645 0.0024106419 0.0020956409 0.0018420969 0.0015166182 0.0012323663 0.0015044877 0.00082534814
-0.0011010385 -0.021483816 -0.0031297642 -0.008535022 -0.12713525 -0.25461558 -0.16829684 -0.14831546
-0.0007892803 -0.00036515386 -0.00071120413 -0.00039668864 0.07400784 0.16918235 0.1148825 0.087148994
-0.0017064502 -0.00217226 -0.0022123037 -0.0020254194 -0.20931315 -0.013138839 -0.20831564 -0.0065767956
-0.00083358475 -0.0005635606 -0.00046616216 -0.00064577005 0.16132054 0.012293771 0.28639737 0.0071953293
-0.0013380505 -0.0015790173 -0.0017296483 -0.0016581661 -0.0485182 -0.21088429 -0.062564254 -0.08656505
-0.0006882933 -0.0006602342 -0.0005686677 -0.000542326 0.07443847 0.4659826 0.27798972 0.23226744

0.bias f4 [4]
00000000: 5093 83be d97c c4be e06a e9bd 5516 8cbe
-0.25698328 -0.383765 -0.11397338 -0.27360788

2.weight f4 [8, 4, 4, 4]
00000000: db85 173d 468b b1bd 8018 dcbd b741 77bb
00000010: 5c69 51bd 0a21 2dbe 71e7 e7bc 9742 c23c
00000020: 67ba bfbd 57ff b8bd dc7c 423d 7c75 5d3e
00000030: 459b a1bb 1fb4 e6ba 8f3e ec3d bbe1 813d
00000040: 5121 ab3d ff1a 12be 0dcb d1bd b0a5 2e3a
00000050: fde6 c2bd b8ff 18bf ae3a 31bd d72e b73d
00000060: eb25 49be 6725 1dbe 8429 243e 07aa 593e
00000070: eaff 11bd c7b8 d93b 5e2f 3d3e e343 173e
00000080: ab58 90b9 b08a 0bbe 663d e2bd 31a5 5b39
00000090: 5ad9 69bd 6976 10be 1149 a3ba 45cd c73d
000000a0: c39f 73bd 65fe 14bb 4b68 643b a9e2 1c3e
000000b0: 7e84 52bb 68ce 76ba 10f7 8d3d 0983 f63c
000000c0: d4ab 2bbd df1e bbbb d027 003d bcd7 be3d
000000d0: 8eba 893a 9c33 213d eb03 ce3d f9ad 293d
000000e0: e352 ac3a 037b 8e3d 1c7b bf3d 0b02 ff3a
000000f0: 804c f43c 72cc 273d b65a e13b eeb7 6d3b
00000100: 0e34 1cbb 8c3f c3ba ec7f 283d c2b2 2ab9
00000110: 2d6c b1ba f6b5 a2ba a6c4 553d 88d2 aa3d
00000120: bd34 74bc b5de 99bd 431c d83c cbe8 333e
00000130: 3fd4 13b8 703d d2bc baa4 c73a 1266 2b3d
00000140: 925e 09bb 33e1 ebb9 8697 0b3d 6fdb 543b
00000150: efbd 5fbe 6601 90bc 0b65 1a3e 8472 0b3e
00000160: 8f7b c9be 0489 1ebe 6bb3 4b3e e186 573e
00000170: 3bbe 03be 11f9 4abe 74d2 8f3d 4f61 513e
00000180: 4e11 58be 1506 13bd 7da4 46ba 8c36 7eb9
00000190: 100f 34be 88b5 30be 3c19 bab9 0c5d 253d
000001a0: 3e6f 3fbb a282 7fbe 6c5c 0fb9 2ce9 6d3d
000001b0: db10 e5b9 b216 cabd 7b1d 95bc 15bb f5b8
000001c0: 09e4 5639 daab 083a c447 2a3a 93ea 053a
000001d0: b47d 38bb 8571 43bc 200b 923a 0561 383b
000001e0: 525c 083b 4e5a a63a 0297 36bc 6999 6dbc
000001f0: e413 973a 9da8 84ba db93 13bc 7a82 1dbc
00000200: af2e b0bd 805a e0b9 9a47 b43d f827 c2bb
00000210: dc03 09be 146e 7338 350f 1c3e 3a19 21bd
00000220: 003d 1bbe aa5a 69b9 7bfc 193e abff 26bc
00000230: babf 22bd dc60 7fba dc05 403c 637f 80ba
00000240: caf8 4fbd c7c9 8b3d 4a60 6f3d 2bc5 92bd
00000250: aab5 3abe 4a20 853e e766 173e 9fea 6abe
00000260: ee09 0bbe 305e 083e 0c1d 0b3e a1ee 07be
00000270: 689d b3bc fdf5 e43b 3f6c 5e3d 5f0c 1bbd
00000280: c013 31be 804e 4ab8 eaea 453e 979d d4bc
00000290: 7c2e 08be 4075 db39 7c9d 583e 55d2 e0bc
000002a0: d0f7 3dbd 775b 2e39 bd73 ab3d cc16 16ba
000002b0: 73b7 1dba 30c8 35b9 0d0a 4b39 524b 0f3a
000002c0: 1326 e0b9 33eb 543a 3383 7e39 669e c53a
000002d0: 7061 41bb ddc8 85b9 31db d5b9 9218 c2ba
000002e0: ef2f 3fb9 5ca6 59ba eb8f 98bc c6c5 eab9
000002f0: 04ea 0039 cc60 f8ba 5bcc 27bb 7788 9d3a
00000300: 9516 f73c a323 d03d 116d f83d 1afc e73d
00000310: 921e c33d ca5a 1b3e f529 2c3e 594e a83d
00000320: ab7c 413d 0ead 223d 3148 423b 9ad0 f53a
00000330: aff7 a2bc 1b20 e6bd ece5 0dbe 3db0 55bc
00000340: 5e89 143a abcc a73c 20e9 e63c 9d50 4a3a
00000350: 7398 743d a1c4 583e 7563 c53d 8955 c23a
00000360: 6691 e1b9 80d5 76ba ddc4 09bd 0250 2dbd
00000370: f530 79bd 3b19 b9be e36c 4cbe 6be6 cebc
00000380: 3165 deb8 4dd9 8d3d c4a6 a13d 15a4 3b3d
00000390: 44c9 3eba 80f2 a53c 2f56 a138 1abb 3eb9
000003a0: 6fcd 5fbb 8fc7 52be 5d10 9bbe a18c 4dbe
000003b0: 7d57 09bd 9dd4 18be 1657 2cbe 262b 64bd
000003c0: 1b22 363c 8946 1c3d d169 873d 95ef 023d
000003d0: 5ee7 8a3d cf3c 1f3e a7a8 403e 6f79 963d
000003e0: cb21 0c3d 49a7 6d3e bede 873e 6c89 ae3d
000003f0: 67f8 c93b 23bb 623d ceba af3d 09c1 ed3c
0.03699289 -0.086691424 -0.107468605 -0.0037728378 -0.05112587 -0.16907135 -0.028308602 0.023713393
-0.09361725 -0.09033077 0.047482356 0.21626848 -0.0049318396 -0.0017601288 0.115353696 0.06341883
0.08355964 -0.1426811 -0.10243807 0.00066622626 -0.09516714 -0.59765196 -0.043268852 0.08944481
-0.19643371 -0.15346299 0.16031462 0.21256267 -0.03564445 0.0066443416 0.184751 0.1477199
-0.00027531883 -0.13627124 -0.11046867 0.00020947006 -0.05709205 -0.1410767 -0.0012457689 0.09755949
-0.059478533 -0.0022734639 0.0034852203 0.15320839 -0.0032122429 -0.0009414912 0.06931889 0.03009178
-0.041911915 -0.005710467 0.03128797 0.09318492 0.0010507868 0.03935586 0.10059341 0.04142568
0.0013147261 0.069570564 0.09349653 0.0019455565 0.029821634 0.04096646 0.0068772687 0.003627296
-0.0023834738 -0.0014896258 0.04113762 -0.00016279056 -0.0013536267 -0.0012413848 0.05218949 0.08340937
-0.014905152 -0.07513181 0.026380664 0.17569272 -3.52452e-05 -0.025664061 0.0015231587 0.04184539
-0.002096091 -0.0004499048 0.03408005 0.0032479425 -0.21849798 -0.017578792 0.15077607 0.13617903
-0.3935208 -0.15481955 0.19892661 0.21047546 -0.12865536 -0.19821574 0.070225626 0.20447277
-0.21100351 -0.035894472 -0.0007577611 -0.00024243648 -0.17583871 -0.17256749 -0.00035495486 0.04037194
-0.0029210593 -0.24952176 -0.00013671973 0.0580837 -0.00043690842 -0.0986761 -0.018202534 -0.00011717357
0.0002049358 0.0005213596 0.0006495679 0.00051085016 -0.0028151097 -0.011928921 0.0011142232 0.0028134
0.002080698 0.0012691708 -0.0111444015 -0.014501908 0.0011526314 -0.0010121051 -0.009007419 -0.009613628
-0.08602654 -0.00042792037 0.088027194 -0.005925175 -0.13380378 5.8038233e-05 0.15240176 -0.0393307
-0.15159988 -0.00022254387 0.1503772 -0.010192792 -0.039733626 -0.0009741911 0.011720147 -0.0009803589
-0.050774373 0.06825595 0.058441438 -0.07166513 -0.18233362 0.26001197 0.14785348 -0.22941063
-0.13578007 0.1331718 0.13585299 -0.13274623 -0.021925643 0.006987332 0.05430245 -0.037853595
-0.1729269 -4.823366e-05 0.19327894 -0.025954051 -0.13298982 0.00041858293 0.21153826 -0.027444044
-0.04637891 0.00016628006 0.08371685 -0.0005725443 -0.0006016411 -0.00017336081 0.00019363333 0.00054662407
-0.00042752977 0.00081222056 0.00024272203 0.0015077114 -0.002950754 -0.00025517392 -0.00040789836 -0.0014808348
-0.00018233036 -0.00083026825 -0.018623313 -0.0004477931 0.00012294209 -0.0018949746 -0.0025603983 0.0012018819
0.030162135 0.10163047 0.12130178 0.113273814 0.09527315 0.15171352 0.1681288 0.08218069
0.047238033 0.03971582 0.002964508 0.0018754185 -0.019893495 -0.112365924 -0.1385724 -0.013042507
0.0005666221 0.020483335 0.028187335 0.0007717701 0.0597157 0.21168758 0.096381105 0.0014826517
-0.00043023675 -0.0009415969 -0.03363501 -0.04231263 -0.060837705 -0.36152062 -0.19963412 -0.025256356
-0.00010604633 0.069262125 0.07893136 0.045810778 -0.0007277916 0.020257235 7.693131e-05 -0.00018189513
-0.0034149548 -0.20583938 -0.30285922 -0.20073177 -0.0335307 -0.14924856 -0.16830096 -0.055705212
0.01111653 0.038153205 0.0661198 0.031966764 0.06782411 0.1555054 0.18814336 0.0734738
0.034211915 0.23208345 0.26537126 0.08522305 0.006163645 0.05535425 0.08580552 0.02902271

2.bias f4 [8]
00000000: cb74 073d e0f9 ff3d a1d0 22bd ee74 263a
00000010: c2f2 c4bc 9c95 793e 6987 4fbe 9464 1d3e
0.033070367 0.12498832 -0.039749745 0.00063498213 -0.024041537 0.24373478 -0.20266499 0.15370399

5.weight f4 [128, 512]
00000000: 692d 7f3a cc4e 083b 376c 4c3b 9090 d9ba
00000010: b78d f5bb b807 f63b 870e f23c 952c 5bbe
00000020: 83c1 77bc 9aa3 2c36 b40c ffbc e13f f93c
00000030: 1dc3 313c edb1 dcbd 88c2 073d 629a 28bd
00000040: b3ab aa3b cc19 b5bd de11 d03b 83a9 0c3c
00000050: d047 e7bb a4af 6b3b 4ad1 253d 37f9 51bb
00000060: 7fa8 64bc bf66 84be 0147 b9bd 81f0 613c
00000070: 1125 49ba 5a43 fcbd b7f3 e8bd 24a6 5dbe
00000080: 2bcb 85bd 5fbf b2bd 107a 68be a023 2fbc
00000090: 73b0 c6bd f4f0 94bd 79bc 0cbe fc51 503d
000000a0: c7d5 3abc 063a a63b d7ae 623b dbd9 c9bc
000000b0: b739 cbbd 9441 f4bd c83e 31be 69ec 01be
000000c0: 22d0 8ebd cfde 4a3b 4447 a73e 1dee 34bd
000000d0: 0e4f 09be 0e30 bfbc 72f9 ff3d 0fae 19bc
000000e0: f155 a0be 9f48 57be 41e8 67bf 5920 4ebf
000000f0: 3f0a 93be aedc 943c 90da 863d a322 cf3d
00000100: 9a18 883a 1f23 053c d800 bfbd 0b48 82bc
00000110: 7c0d 7ebd 66dc 29bd dc9f b63d cab7 d83d
00000120: 4407 96bb 8ad8 a63b 58c4 81bd c3a4 debc
00000130: 86eb 19bc 68e3 45bc aee7 acbc f987 b5bc
00000140: bbfa 9f3b 67bf ffbd 7b81 0e3c 4a48 b13a
00000150: 357c 4bbd 6a93 c63b 0f7e 4ebc 09a3 7bbc
00000160: 0f55 55bb 56b6 6cbd 95db 713b 4c18 6f3c
00000170: 1910 19be 43d2 85be fe01 4abe 6bda 31bf
00000180: 0434 0cbe 7cf0 cebd d1ff e53c 940c 913e
00000190: 64c8 9f3e 2a14 bebd 2bba 61be b5b9 1bbe
000001a0: 4bcc 36be b999 b03b a193 a63d af5f db3e
000001b0: 3c13 cb3e c17d 0abd 12a4 83bd 3fa8 49be
000001c0: 1ce0 773d a14b 64be e1c0 66bd 6040 8e3e
000001d0: e4e8 973e dbb5 fd3d 9bd9 c53d 0893 c83e
000001e0: 237c a93d 62c2 703b 8211 10be 42f3 79bd
000001f0: 4ab4 26bc 50ad 833d f91b 073e f64c 1c3f
00000200: 84e9 3abb e4e6 413b 3bd1 7c3b d31e aa3c
00000210: b3ca a1bd 7d89 3dbb 5a3e 203d f40e 69bc
00000220: 9b91 1dbb fc73 8cb9 3085 093a d437 59bd
00000230: a20e 39bc 7da4 3ebc 7b5b a63c 91ab 4dbc
00000240: 2428 9ab9 877c b0bc 0360 c43b 28c7 babc
00000250: fc93 91bb e0cc 3ebc f6ab 043c 591d bcbb
00000260: adc2 08be a648 07be 6f7e 733a 0bd9 8fbd
00000270: 4593 a43d 79fe 46be 01c0 3cbd 149f c8bd
00000280: 9056 31be b22d 34be 51a6 45be 98ad 45bc
00000290: c14b 2f3a 1668 4d3a 4ac1 a1bd 8956 07be
000002a0: 965d 50bb a34f afbc 7ac1 653a 3ce5 733b
000002b0: 09d4 063b 3ea2 15bc ecb9 1fbb ffc3 b3bd
000002c0: fb85 a73d 520e 843b 0815 61bb a0a2 f83e
000002d0: d65e 8e3c 5d42 923e 51eb e93a 3a14 823e
000002e0: fc41 3f3d d1e7 08bc 035d 993b 88d2 06bd
000002f0: 5e57 28bd 77ac 0e3e 90cb a0bb 3a18 bb3e
00000300: 09d0 0c3d 52c0 92bd 22fd 98be e13f 7a3c
00000310: 8d62 803b c72b a1be 8418 443e fa04 5d3d
00000320: 5e21 7e3d 161d 863d 7144 783d 72e4 fa3d
00000330: 7e7b 1b3c 3084 f63a 2f1d 22bd 039c f5bb
00000340: 6a1b 013e 8200 63bb 8dfc 183b 3966 3aba
00000350: 7eea 48bc 8782 c9bb 2394 4b3c 72dd 0a3c
00000360: e7d1 5c3d 6f15 ed3c 5ccb 0f3c 80da 9e3d
00000370: bb34 00ba 395b 71bb 6cc8 673c 95b2 063d
00000380: caf7 7bbb 5c8e bbbb ad7b 2fb9 675b 91bc
00000390: 4538 4a3a 1016 12be 6ca0 e2bc 6c26 5cbb
000003a0: 252a 48be 9f33 8bbb c8c9 73bb 3923 743b
000003b0: 7628 8e3e 85c4 693e 97a3 8a3e 9130 823e
000003c0: d4ec 44bc 108c 3abe 1f91 8cbd 3e42 363e
000003d0: 5094 183f 0fcc 443f a6d0 513f 9e78 ddba
000003e0: 3321 8b3e 0d61 933e fa55 a33e cf5d 0e3c
000003f0: 9bfd aebe 465d e8be 2d06 fdbe f254 e2bc
0.00097342447 0.002079892 0.003119243 -0.0016598869 -0.0074937004 0.0075082444 0.029547943 -0.21403725
-0.01512182 2.5725226e-06 -0.031133987 0.030425968 0.010849741 -0.10776124 0.033144504 -0.041162856
0.0052084564 -0.08842811 0.006349786 0.008585337 -0.0070581213 0.0035962844 0.040482797 -0.0032039413
-0.013956188 -0.2585964 -0.09046746 0.013790251 -0.0007673065 -0.12317534 -0.1137461 -0.21645409
-0.06532892 -0.087279074 -0.22702813 -0.010689646 -0.09701624 -0.07272521 -0.13743772 0.050859436
-0.011403508 0.005072835 0.0034589076 -0.024640014 -0.099231176 -0.119265705 -0.17309105 -0.1268784
-0.06973292 0.0030955558 0.3267156 -0.044172395 -0.13409063 -0.023338344 0.1249875 -0.009379878
-0.31315568 -0.21023796 -0.90588766 -0.8051811 -0.28718755 0.018171635 0.06584656 0.10114028
0.0010383308 0.008126049 -0.09326333 -0.015903493 -0.06202458 -0.041469954 0.089172095 0.1058193
-0.004578503 0.0050917314 -0.06336278 -0.027178174 -0.009394532 -0.012078144 -0.021106567 -0.022159563
0.0048821843 -0.12487679 0.008697863 0.0013525572 -0.049679 0.0060600536 -0.012603297 -0.015358695
-0.003255192 -0.057791077 0.0036904563 0.014593195 -0.14947547 -0.2613698 -0.19727322 -0.69473904
-0.13691717 -0.101044625 0.028076084 0.2832991 0.31207573 -0.0928119 -0.22043674 -0.1520756
-0.17851369 0.005389419 0.08133627 0.42846438 0.39663112 -0.033811335 -0.06427778 -0.19693087
0.06051646 -0.22294475 -0.056336287 0.2778349 0.2966987 0.12388202 0.096606456 0.39174676
0.0827563 0.0036736955 -0.14069179 -0.061023004 -0.01017482 0.06429541 0.13194264 0.61054933
-0.0028520534 0.0029587084 0.003857686 0.020766651 -0.0789999 -0.002892106 0.039121963 -0.0142247565
-0.0024043086 -0.00026789296 0.0005245982 -0.053031757 -0.011294993 -0.011635897 0.020307293 -0.012553112
-0.00029403076 -0.021543754 0.005992891 -0.022800043 -0.00444269 -0.011645526 0.008097639 -0.005740803
-0.13355513 -0.13211307 0.00092885544 -0.070238195 0.08035902 -0.19433011 -0.046081547 -0.09795967
-0.17318177 -0.17595556 -0.19301726 -0.012065314 0.00066870084 0.00078356394 -0.07898195 -0.13216604
-0.0031794063 -0.021400278 0.0008764487 0.0037215492 0.002057316 -0.00913292 -0.0024372293 -0.08777618
0.081798516 0.0040300274 -0.003434481 0.48561573 0.017379206 0.28566256 0.0017846619 0.25406057
0.046693787 -0.008356051 0.0046802773 -0.032915622 -0.041098945 0.13932978 -0.004907079 0.3654192
0.034378085 -0.071655884 -0.29880625 0.015274019 0.003917998 -0.31478712 0.19149977 0.053959824
0.06204354 0.065485165 0.060612146 0.12250604 0.009489892 0.0018807705 -0.039578613 -0.0074954047
0.12608114 -0.0034637754 0.0023343891 -0.0007110569 -0.012262939 -0.0061495933 0.012425455 0.008475648
0.053911116 0.028940884 0.008776512 0.07756519 -0.000489067 -0.0036828055 0.014146905 0.032885153
-0.0038447254 -0.0057237577 -0.00016735373 -0.01774378 0.0007714073 -0.14266229 -0.027664386 -0.0033592237
-0.19547327 -0.004248097 -0.0037199128 0.003725244 0.27765244 0.22828873 0.27077934 0.25427678
-0.012019355 -0.18217492 -0.06863617 0.17798707 0.59601307 0.7687387 0.81959 -0.0016896909
0.27173766 0.2878498 0.31901532 0.008689358 -0.3417786 -0.45383662 -0.49418774 -0.027628396

5.bias f4 [128]
00000000: b46d 88bc 1320 c038 014a 083a d6f1 87be
00000010: 5445 1cbe ecae 40bd 75d7 1dbe ab43 4abd
00000020: 403d ed3d 84ed c0bc 07f7 f8bd 14b8 713d
00000030: 7e9f ffbc ee3a 1abf 0b80 29be 527a 25be
00000040: 55d2 853e e1ae d8bc 8f11 00bd b8f8 713c
00000050: eee7 783e 2254 ab3e 7d3a 4fbe 1372 ef3e
00000060: 48bb ab3e 5ec4 2b3e 64b0 ffbc ea81 20bd
00000070: 8abc 2abe 7c98 0ebf a77e b8bc b372 1c3e
00000080: 13dc 34be a31e a13e 8214 e23c 7301 a73d
00000090: fc49 54bc 33c3 b33d c24c 1fbd 00e2 13be
000000a0: 1020 0e3f 77ba 983e b980 e23d 8190 01bf
000000b0: f69d 43bd 2692 913e c99d 21be 8123 7dbe
000000c0: b666 ba3e 01f9 afbe 3d86 18bd 4124 3abf
000000d0: a249 313f 9b33 d0be 03f8 aabe f1d6 cbbc
000000e0: 5639 413e 2b2a bfbd 0a2e 343f 13e6 91b9
000000f0: fdd0 bebe ad1e ab3e db63 3dbe 37a0 563e
00000100: 523b 8cbe 0b79 833e a6a7 32bf e292 2abd
00000110: 3c03 84be e926 183e c81e e3bc 22b5 7ebe
00000120: 472b aabe 24b7 a0bd deeb 9c3e 7ca8 41bd
00000130: 1f4f 35bd 78c8 2b3f f654 01be d5ef 55bd
00000140: cdfb 18bf ae42 eb3e 1a09 0c3f adcc c73d
00000150: 76f0 9e3e 3b47 3a3e 95d1 f1bd 15dd b6bc
00000160: 2db1 c3bd 51b2 d7be 9d61 28be be75 b43e
00000170: c386 44bd 1ab1 4dbd 5a4c 83bf a69c 4a3d
00000180: b805 823e 2e09 07bd 90f1 27bf 4382 8dbe
00000190: a2e1 cfbb 18f8 f23e 3f8d 2abd ffa8 3bbf
000001a0: 041b db3e 3b53 373e 7a0d 673e 3d19 d93e
000001b0: 8535 60be b054 7ebd 25f0 44be a1d2 a53e
000001c0: 91b8 e53e 1ad4 383e 1e3f 0d3f 4d9b ce3c
000001d0: 8e5f 113e ba28 8abe 2981 903d b38a 70be
000001e0: 4d8f dbbc 2b3b 51be 1a78 a03e 3c73 633e
000001f0: cccb 69bd 65ba 5cbe 9555 59bd fdde 043d
-0.016653873 9.161248e-05 0.0005199016 -0.26551694 -0.15260822 -0.04704182 -0.15414222 -0.04938094
0.11583948 -0.023550756 -0.12156492 0.05901344 -0.031203981 -0.6024617 -0.16552751 -0.16159943
0.26137033 -0.026450576 -0.031266745 0.014768772 0.24307224 0.33462626 -0.20237155 0.4676672
0.33541322 0.16774127 -0.03121204 -0.039186396 -0.16673484 -0.5570142 -0.02252133 0.1527813
-0.17662077 0.31468686 0.02759767 0.08154573 -0.012957092 0.08777466 -0.03889156 -0.14441681
0.55517673 0.2982976 0.11059708 -0.5061112 -0.047758065 0.28431815 -0.15782847 -0.24720575
0.36406487 -0.34369662 -0.037237395 -0.7271157 0.6925298 -0.40664372 -0.33392343 -0.024882765
0.18869528 -0.09334215 0.7038275 -0.00027827974 -0.3726882 0.3342184 -0.18495123 0.20959555
-0.27389008 0.25678286 -0.6978706 -0.041643985 -0.25783718 0.14858593 -0.027724639 -0.24873784
-0.33236143 -0.07847431 0.30648702 -0.04727982 -0.04426491 0.67102766 -0.12630066 -0.052230675
-0.5975922 0.4594931 0.5470139 0.09755836 0.31042832 0.18191235 -0.11807553 -0.022322217
-0.09555278 -0.42128232 -0.16443487 0.3524608 -0.04798008 -0.050217725 -1.0257676 0.049465798
0.25394988 -0.03296774 -0.6560297 -0.27638444 -0.006344036 0.47454906 -0.04163861 -0.7330474
0.4279405 0.17902844 0.22563735 0.42402068 -0.21895416 -0.062092483 -0.19232233 0.3238726
0.44867375 0.1804966 0.55174434 0.025220538 0.14196607 -0.26984197 0.07055885 -0.2349041
-0.02680173 -0.20432727 0.3134163 0.22211927 -0.05707912 -0.21555479 -0.053060133 0.03243922

7.weight f4 [128, 128]
00000000: e4e4 a63e b2f6 08bf b15c f4bc 3f2d 7c3c
00000010: 0622 9abe 6982 b83d 69c6 203d c141 543d
00000020: 3344 cdbe ba2b f7bd c11d 3fbe 56cc 5abc
00000030: e763 303d bf99 8e3d 0a45 0dbf 7739 cbbe
00000040: 9265 c23c 8d35 a53d 15b8 0b3e 193f 063c
00000050: db09 4dbe 3ad7 c1bd 8486 5fbe d75d 9f3d
00000060: 41be a1bd b46d d13d 02de 6e3d 99fb c3bd
00000070: 7f5e 95bb cd0c 2cbe 30df bebc f2e5 debd
00000080: 0c16 b3bd 71bd 94be 3ea3 7bbe 1756 f5be
00000090: 39a9 87be 50bd 7d3e 2bcc b1bd 44aa b5bd
000000a0: 69b8 08be f73e 2c3d 8dc2 3cbe 27b9 803d
000000b0: 2cee e7bd 339d d1be b3c4 b93d 1f4f eabc
000000c0: 761a fe3e 9be1 2d3e 8c88 3abe 5467 d63d
000000d0: a317 b53c 3ddb 53be bddb 4abe 8451 11be
000000e0: 1c57 8cbc 97c2 ca3e 2710 75bc f70d bb3e
000000f0: 1be6 a53d e17a 0dbe 1a41 aabd 4280 cfbd
00000100: 9788 b33d dc39 8abe 48fa 0ebe e996 323e
00000110: ad14 be3d ea48 3ebd 9fa4 b03d 62f2 3e3e
00000120: 97d7 043e 9dfc 92be ff45 94be 3a26 113d
00000130: 3514 21bd 4688 963d 4e69 9c3b c61a 98bd
00000140: ff3b 83be e015 e2bd 5d85 1e3d a4b9 0a3f
00000150: 933e 8bba 540e 263d 263f 56be 3723 88bd
00000160: 94da 89be 425d 8b3c 961b d93d 15de fc3e
00000170: f376 81bd 7bed e3bb a409 273e 3415 e63d
00000180: a88e 96be b38f ce3c d560 9dbc 6bd0 2fbe
00000190: 8298 5e3e 08fe f8bd af23 a7bd b03c 5dbe
000001a0: c7f4 26be c7d1 993d 417d ea3c 35e5 9d3d
000001b0: 6668 b1be 8c3b 0c3e a5b2 d1bd 91a7 3cbe
000001c0: 4e75 f63c f9b8 dc3c bac6 083e 0b49 983d
000001d0: 573d 53be 77d6 6d3a d055 353d d968 773e
000001e0: e72f 7d3e e23a 07be 7866 6b3e 2725 423e
000001f0: 1f15 e2bd 2f24 fd3d 2033 21bd c658 bfbe
00000200: 84bb 0ebd cf5b 5dbe eef1 9b3c 0409 3abe
00000210: e1e9 723e d94f 213d ca79 bebd 42c0 81be
00000220: ff1e eebc 02e2 a9bc 71d2 043d 93ce 5a3e
00000230: fd58 10bd bf42 953b 4396 10be 173d 98be
00000240: 08e9 f73d a0a5 72bd 4f44 be3d 2b4d 04be
00000250: 6e1d 21bd f751 66be ba3e 82be df55 5e3c
00000260: f792 d63e f545 b43d b8a0 43bd 4c25 2d3d
00000270: fb39 73be ceb5 2ebe 70a3 0e3e cc0b 2f3b
00000280: f35b 80be afb3 d5bd 7496 8e3e 89cb 083e
00000290: 8faa 293e 3092 9fbe 90ac 083e b374 86bc
000002a0: 273c b83d 348f 623e 7b61 333e fd09 723e
000002b0: a348 c73d bdcd d5bc e717 9b3c 0d45 293e
000002c0: b529 80bd 5177 04bd 382d 5cbe 96e7 fe3d
000002d0: 7411 4b3c c5cc 53bd f292 6a3d ccf5 f13d
000002e0: e617 16be a758 603c de11 34bd ad8c 73bc
000002f0: 6d7f 74be a82a 7fbe 7451 dd3d 9ec5 df3d
00000300: 2949 22be 692b b4be e93a 833a 510c c4bd
00000310: ef44 e83e efb9 f1bd 19ba 0e3d a7d1 f6be
00000320: 351e 143e fc8c abbc eb39 11be 3ef5 d9bd
00000330: f8f1 813c a2f2 44be 4707 a73e 5d59 633d
00000340: cc43 04be 6a9a 31bd adcd 2dbe f7a7 083d
00000350: d6cb 333e b429 45be 98d3 d3bd 8f78 bc3d
00000360: 41d2 f5bc e567 22bd e9e6 e83d 476e 223e
00000370: ad7c 793d 107c 5ebd 7418 8bbe 1c8c 323d
00000380: c47c 90be 0295 8b3d c22f edbe 8004 3f3e
00000390: e3e0 7e3d 4203 313e 0b9f b0bd e901 f73d
000003a0: eca5 af3e 6154 44bc ebc4 df3d 4ede 773d
000003b0: 9a2b 91be a011 ca3d 27cb bebe 33d2 41be
000003c0: 14f9 6b3e 5c4f f1bd 0d68 6cbd 8155 40ba
000003d0: 4016 1dbd 336e 433e 0cee 97bd 27db 7c3d
000003e0: 82fb 4ebe d4c1 a7bd 7ddf e8be 3704 5ebe
000003f0: b112 c03c 0ee0 2abe cdd3 85bd 098f 57be
0.32596505 -0.5350143 -0.029829355 0.015391647 -0.30104083 0.09009249 0.03925172 0.05182052
-0.40091094 -0.12068887 -0.18663694 -0.013354382 0.043064024 0.069629185 -0.5518347 -0.3969228
0.023730073 0.080668546 0.1364444 0.008193755 -0.20023291 -0.09464879 -0.21828657 0.077815704
-0.07897616 0.10226002 0.058317192 -0.09569473 -0.004558384 -0.16801758 -0.023299783 -0.10883702
-0.087444395 -0.29050782 -0.2457399 -0.47917244 -0.26496294 0.24779248 -0.0868152 -0.08870366
-0.13351597 0.042052235 -0.1843359 0.06285315 -0.113247246 -0.40940246 0.090707205 -0.028602181
0.49629563 0.16980593 -0.18216151 0.10468927 0.022105997 -0.20689102 -0.19810386 -0.14191252
-0.01713138 0.39601585 -0.014957464 0.36534092 0.0810053 -0.13816406 -0.083131984 -0.10131885
0.08766287 -0.26997268 -0.13962662 0.1744038 0.09281287 -0.046456255 0.08625149 0.18647149
0.12972866 -0.28708354 -0.28959653 0.035436846 -0.03932591 0.07350211 0.0047732955 -0.07426982
-0.2563171 -0.110393286 0.038701404 0.54189515 -0.0010623507 0.040541008 -0.20922527 -0.06647342
-0.26924574 0.017012242 0.10600965 0.49388185 -0.06321516 -0.0069558 0.16312271 0.11234513
-0.29405713 0.025215006 -0.019211212 -0.17169349 0.21737865 -0.121578276 -0.08161103 -0.21605182
-0.16304313 0.07510715 0.028624179 0.077097334 -0.34649962 0.1369459 -0.10239152 -0.18423297
0.030085232 0.02694367 0.13357058 0.07435807 -0.20628868 0.000907279 0.04427129 0.2416109
0.24725305 -0.13206056 0.22988307 0.18959485 -0.11039185 0.12360417 -0.039355397 -0.37372416
-0.034846798 -0.21617053 0.01903626 -0.18167502 0.2372203 0.03938279 -0.09300573 -0.25341994
-0.029067514 -0.020737652 0.032427255 0.21367864 -0.035241116 0.004555076 -0.1411982 -0.29734108
0.12104994 -0.059239984 0.092903726 -0.12920062 -0.039334707 -0.22492205 -0.25438482 0.013570278
0.41909 0.08802406 -0.047760695 0.042271897 -0.23752587 -0.1706154 0.13929534 0.0026709912
-0.25070152 -0.104346626 0.27849162 0.13358893 0.16568969 -0.3116622 0.13347077 -0.016413068
0.08995848 0.2212494 0.17517655 0.23636623 0.09730651 -0.02609908 0.018932296 0.16530247
-0.06257955 -0.03234035 -0.21501625 0.12446515 0.012394298 -0.051708955 0.057269044 0.1181446
-0.14657554 0.013693011 -0.043962352 -0.014865083 -0.23876734 -0.24918616 0.108065516 0.10926364
-0.15848221 -0.3518937 0.0010012063 -0.09572662 0.45365092 -0.11803042 0.034845445 -0.48206827
0.14464648 -0.02094125 -0.1418225 -0.10642479 0.01586245 -0.19233182 0.3262274 0.055505145
-0.12916487 -0.04336015 -0.1697299 0.03336331 0.17558226 -0.1925419 -0.10343093 0.09202682
-0.030007483 -0.039649863 0.113721676 0.1586238 0.060909916 -0.054317534 -0.27167094 0.04359065
-0.2822019 0.0681553 -0.463255 0.1865406 0.062226187 0.17286399 -0.08624085 0.12060911
0.34306276 -0.011983008 0.10926231 0.06051474 -0.28353578 0.09866643 -0.37264368 -0.18927841
0.23044235 -0.11782715 -0.057716418 -0.000733696 -0.038351297 0.19085006 -0.07418451 0.061732437
-0.2021313 -0.08191267 -0.45483008 -0.21681295 0.023446413 -0.16687033 -0.065345384 -0.21050657

7.bias f4 [128]
00000000: 9e88 23be 3f5d dcbb c864 ab3e e13d 0abc
00000010: d50c 8f3c 5d98 5d3d 4e69 6b3d f39e 843e
00000020: fa0e 863c 46d4 10bf 434e aabe 9a0b 57bf
00000030: 6f87 d5bd 1ae1 933e 63f9 983d 4088 4dbe
00000040: 3027 dabd c995 29bd 35a0 67be e6d1 88be
00000050: a72f 5ebe 760a 503e 1169 8c3e 747c f4be
00000060: b0be 29be 0cf9 9bbd c0b2 2fbd f5df 71bd
00000070: a61e 93bd 1a22 333e 33b7 eebe 6543 023f
00000080: 5136 bebe 3b95 e4be 7d2b 0d3d 3267 193e
00000090: bd41 71be 02d1 edbe 25eb 14bf d5a5 c33d
000000a0: 0e8a 643d 891c df3d b534 d83e e115 173e
000000b0: 2fd2 a5be d04b c2be 1254 5ebe cbe0 7b3d
000000c0: f2cb d83e 420e 9e3d adf0 22be 4700 26bd
000000d0: f43f 77bd 83bd 48be 784b 92be e6ed 28be
000000e0: 48a4 b2be c1cb 93bc 4336 7a3e d838 ecbd
000000f0: 91ab b3be 53b5 05bf 847b 0dbd e920 7dbe
00000100: 61f3 213f e5f8 a6be aced 50bf e10d 1dbe
00000110: 5e70 2fbf 9077 cf3e e039 843f f270 34be
00000120: b42a 483e e6b5 89bd 733c f8be 9db8 d9be
00000130: d265 a4bd 08c2 b33d 24f6 9cbe 704e 85be
00000140: c3af b63e 37b7 4b3e af87 9b3d 7ffb 63be
00000150: a7d7 f6be e461 90bd 12a6 a43e 417c 0f3f
00000160: ede3 d9bc 71ca 643f fa87 a7be 372f 93be
00000170: 7090 993e 5c7c 083d 489b 043d 8054 42be
00000180: f050 1f3e ffa3 25bf 199b 98bd f1f4 5e3e
00000190: 7659 19bf aeb3 6bbe 83cb b93e dcba a73c
000001a0: 9a44 d43e 535a 2dbf 3624 93be 44cd c2be
000001b0: b7c9 2fbf 8a97 4c3f c50d 52bf afba 823e
000001c0: 866d c1bd 911e 313f 5748 ccbe ead0 84bd
000001d0: 8ddb 7cbc 1098 843e 8c75 443e 1f9b e5bd
000001e0: c9d6 0ebd 3f32 21be 6743 7dbe 3b5c b8bd
000001f0: 4518 493e 7d46 1a3e 1c0d 383e 71e0 3ebf
-0.15970084 -0.006724983 0.33475327 -0.008437605 0.017462173 0.054100383 0.057473473 0.2590252
0.016364563 -0.56573904 -0.33262834 -0.8400208 -0.104262225 0.28882676 0.07469442 -0.20071507
-0.10652006 -0.041402612 -0.22619708 -0.2672264 -0.21697865 0.2031649 0.2742391 -0.477512
-0.16576648 -0.07615861 -0.04289508 -0.059051473 -0.0718358 0.17493477 -0.46624145 0.50884086
-0.37150815 -0.44645104 0.0344653 0.14980772 -0.23560233 -0.46448523 -0.581713 0.09553114
0.05579572 0.108941145 0.42227712 0.1475444 -0.3238692 -0.37948465 -0.21711758 0.061493676
0.42343098 0.07717563 -0.15912123 -0.04052761 -0.060363725 -0.19603543 -0.28573203 -0.16497001
-0.34890962 -0.018041493 0.24434762 -0.115342796 -0.35091832 -0.52229804 -0.03454162 -0.24719585
0.6326199 -0.32611766 -0.8161266 -0.15337326 -0.68530834 0.40520906 1.0330162 -0.1762121
0.1954754 -0.067241475 -0.4848362 -0.4252366 -0.08027233 0.08777243 -0.3065654 -0.26036406
0.3568097 0.1989411 0.07594239 -0.22263907 -0.48211405 -0.07049921 0.32157952 0.5604897
-0.026597941 0.893714 -0.3272093 -0.2874696 0.2999301 0.033321723 0.03237465 -0.18977547
0.15558219 -0.64703363 -0.074514575 0.21773125 -0.5990213 -0.23017761 0.3628808 0.020474844
0.4145859 -0.6771595 -0.28738564 -0.3804723 -0.6866717 0.7991873 -0.8205226 0.25533053
-0.09444718 0.69187266 -0.3989894 -0.0648516 -0.015433204 0.25897264 0.19185466 -0.112112276
-0.034872804 -0.15741824 -0.24732743 -0.090019666 0.19638164 0.15065952 0.17973751 -0.7456122

9.weight f4 [128, 128]
00000000: 83dc aa39 e27c 733a d342 d2b8 eb1c e2ba
00000010: 6457 0ab9 dbdf 14bb 85a4 e5b9 c209 b5b8
00000020: afcf fbb8 e103 803a 5e6a f739 2d8c 19bb
00000030: 97d5 98bd adbf acb9 cf3b 8439 c26d 94ba
00000040: 797b c1b9 1f8a c0b9 8bac 45ba 3649 dc39
00000050: b20e 84b9 527c 1cbb 65e9 1fb9 26b7 6738
00000060: 1603 6fb9 d5e0 5bba 78f7 773a a5c0 c83a
00000070: e373 27ba 3606 ffba af14 e1ba 40c0 3f3b
00000080: cc64 66bb 70ac 1f39 602c 10ba 4267 1fbb
00000090: 45fe 1fbb 56dc 2aba c3da 9439 5009 86ba
000000a0: a298 69bb c6f1 6d3a aeb7 b5b9 c068 7e3a
000000b0: 7f69 4fba 044a a5b9 a3fb f839 c46e 46bb
000000c0: 03bf 99b9 1a23 81ba 1eec ac36 b2d2 ac39
000000d0: 6f23 0c38 2bd6 20ba 10c4 dbba 3201 7aba
000000e0: 9ae6 e7b9 3666 0fb9 2fb3 9e3e 274a b63a
000000f0: 7d98 08ba f65b 2139 7c80 1ebb 4af1 e9b9
00000100: 8e6c 92b9 8cc6 a0b8 4ed5 97bb f1c7 d0bd
00000110: e906 87b9 4b4b 5638 0281 00ba e081 f9b9
00000120: 6d2c a7ba cde4 a2bb a42b 623a 1090 4b39
00000130: ab9e e5b9 2583 173a 99ed a938 3c0b 253a
00000140: 68e1 9239 9cbb d639 f945 ccba 64cb f8b8
00000150: 43be 0e3a 9003 bcba a817 e3ba 42f3 0f3a
00000160: 2a13 423a 25a6 b2ba 1d76 ab39 a693 05ba
00000170: 87af 853a 80af e939 a64c 1b3a c063 0e39
00000180: 0c84 2cba 66e7 a7b9 440c 42b9 b75a 6639
00000190: d987 b8ba db9e 09bb 51a9 9bba eec4 7734
000001a0: c410 e6b9 6da5 08ba a27e 4dbb cdfc 98b9
000001b0: 0d59 5a3f 3efc 35bb eae9 e939 acbd 563a
000001c0: 1ae6 7dba 9628 e6b8 54e9 253b fee0 3739
000001d0: eeca 433f 2cac ddba 16f5 20b8 335e 4fbd
000001e0: 416c ee38 0c91 a9b9 bfd8 88bb aa4b 1238
000001f0: b885 05bb 99c8 f0ba f145 75b9 29f6 65b9
00000200: e44d 003f 5f6c aa3d aa4d c53d d796 0ebd
00000210: b223 473d 22f3 6dbb 795c 9abe 87b3 aebd
00000220: 0762 a53d 8f4b 56be 1420 dd3d 5f6e c5bd
00000230: 69d1 79bd 1b65 2dbd aeeb 22bd c95d 8cbc
00000240: add0 813e a98f 6bbe c9af cc3d 9ca0 2ebe
00000250: a875 ccbd b8d1 0c3e 987f 6d3b 3eb0 1b3e
00000260: 3232 733e a308 833d 54e4 113d 252b 5e3d
00000270: f2b5 27be 3291 ca3c 42c6 b4bd a2e7 68bd
00000280: 9913 0d3e c28a 49bd df41 303e bbc8 89bd
00000290: 585f ddbc 5741 a4be 155e 1fbe cdeb 5f3d
000002a0: a3c1 ab3d 7a8b c53e a2cb 953d 80f9 ddbc
000002b0: 9491 cdbd 4109 323e 317b 47be 2ed5 cc3d
000002c0: 8460 adbc 5e6c 233e 6d20 053e 9fa6 133e
000002d0: 4d3a aebd 21b0 b7bd d79c d1bd fc7f 433e
000002e0: b65e 6c3e f98e f13c 93cb e93c 1247 8cbc
000002f0: ff31 a53b 0201 1fbe 4520 fe3d 16ce 073e
00000300: 6c19 003e 909c 073d d564 acbd 044f d8bd
00000310: 4244 55bb 3d41 22bc ea79 28be bc55 67bd
00000320: 756d 0b3e 939d 33be 84c7 d4bd 1108 09be
00000330: b772 ccbc ff1b c5bd 053c fb3d 9557 89be
00000340: d12c 0abe 49e7 16be dc8e 503d e913 e73e
00000350: 4b1b 4b3e 5613 b43d 427a 3ebe 198a 00be
00000360: 4605 33be 4c60 9ebd 3eb9 07be 2e05 b13d
00000370: afba b93d 1f9e c7bd 27f4 ab3e 4cc8 dbbd
00000380: 0b86 7fbd 7f68 773e 7a68 a5bd 141a a9be
00000390: 242a e0bd 7076 623d 8021 943d 1a61 1dbe
000003a0: cf17 9e3d c961 313e fc67 cc3e 5f67 343b
000003b0: 22ca 71bd 6a06 4bbd 5eb1 28be 75c4 35bd
000003c0: cd1b bbbe fb35 6bbd 9ef2 9f3e 47a4 84bc
000003d0: c30c c0bd 8373 1ebe 0d04 47b9 0406 c9bd
000003e0: 4d27 c83d 6fb8 493d 0f24 b1bd a410 813d
000003f0: 5290 a93c 17f1 413e 9b9c 8b3b c6f9 7d3d
0.0003258922 0.00092883233 -0.00010026027 -0.001725105 -0.00013193261 -0.0022716436 -0.0004380086 -8.63257e-05
-0.00012007297 0.0009766781 0.0004719076 -0.0023429499 -0.07462614 -0.00032949206 0.00025221563 -0.0011324214
-0.00036903823 -0.00036724002 -0.00075406645 0.00042016216 -0.0002518795 -0.0023877812 -0.00015250368 5.5245262e-05
-0.00022793966 -0.00083876896 0.0009459178 0.0015316202 -0.0006387813 -0.0019456807 -0.0017172302 0.0029258877
-0.0035155294 0.0001522766 -0.00054997765 -0.002432302 -0.002441303 -0.0006517818 0.0002839175 -0.0010226164
-0.0035643955 0.00090768596 -0.00034659862 0.000970494 -0.00079121435 -0.00031526398 0.0004748973 -0.0030278424
-0.0002932475 -0.000985238 5.153487e-06 0.00032963377 3.34116e-05 -0.0006135429 -0.0016766805 -0.0009536921
-0.00044231565 -0.00013675619 0.3099608 0.0013907597 -0.0005210711 0.00015388415 -0.002418547 -0.00044620998
-0.0002792817 -7.666377e-05 -0.004633582 -0.10194386 -0.00025754355 5.1091698e-05 -0.0004902036 -0.00047589745
-0.0012754329 -0.004971123 0.0008627719 0.00019413256 -0.000437965 0.0005779735 8.102804e-05 0.00062959245
0.0002801523 0.0004095704 -0.0015584818 -0.00011863446 0.00054452213 -0.0014344323 -0.0017325776 0.00054912653
0.00074033684 -0.0013629837 0.00032703663 -0.00050955487 0.0010199406 0.0004457198 0.0005924202 0.00013579335
-0.0006580956 -0.00032025127 -0.00018505851 0.00021968303 -0.0014078572 -0.0020999226 -0.0011876022 2.307531e-07
-0.0004388151 -0.00052126386 -0.0031355997 -0.0002918005 0.8529213 -0.0027768756 0.00044615503 0.00081917155
-0.0009685472 -0.00010974814 0.0025316076 0.00017536056 0.7648152 -0.0016912273 -3.8375227e-05 -0.050626945
0.00011368888 -0.0003234226 -0.004176229 3.487958e-05 -0.0020373892 -0.001837033 -0.00023391076 -0.00021930844
0.5011885 0.083214514 0.09633954 -0.03481182 0.048618026 -0.0036308249 -0.30148676 -0.08530336
0.08075338 -0.20927261 0.10797134 -0.09640192 -0.060990725 -0.04233275 -0.039775543 -0.017134564
0.2535452 -0.23004021 0.09994466 -0.17053455 -0.09983379 0.13751876 0.0036239382 0.1520395
0.23749617 0.06398132 0.03561814 0.054240365 -0.16378 0.024727438 -0.08826877 -0.056861527
0.13777007 -0.049204595 0.17212628 -0.067277394 -0.027023003 -0.320811 -0.15563233 0.054668237
0.08386543 0.38582975 0.073142305 -0.02709651 -0.100375324 0.17386343 -0.19480588 0.10001598
-0.021164186 0.15959308 0.1300065 0.1441903 -0.08507214 -0.08969141 -0.10234993 0.19091791
0.23083004 0.02948712 0.028539455 -0.017123733 0.0050413604 -0.15527728 0.12408499 0.1326221
0.12509698 0.033108294 -0.0841767 -0.10561946 -0.0032541906 -0.009903249 -0.16452757 -0.056478247
0.13615973 -0.17540579 -0.10389617 -0.13381983 -0.024957044 -0.096244805 0.12267307 -0.26824632
-0.13493659 -0.14736666 0.05091749 0.45132378 0.1983463 0.087927505 -0.18601325 -0.1255268
-0.1748248 -0.07733211 -0.13254258 0.08643566 0.0906881 -0.09746956 0.3358471 -0.10731563
-0.062383693 0.24160956 -0.08076568 -0.3302771 -0.10945538 0.055288732 0.07232952 -0.15369073
0.07719385 0.17322458 0.39923084 0.0027527434 -0.05903066 -0.049566664 -0.1647391 -0.04437681
-0.36544648 -0.057424527 0.3123979 -0.016191615 -0.09377434 -0.15473752 -0.00018979628 -0.098156005
0.09773121 0.049248155 -0.08649456 0.06302002 0.0206987 0.18939625 0.004260612 0.06200578

9.bias f4 [128]
00000000: 07fd 0fbe 127b f7bd d749 0b3f 83f4 82be
00000010: a515 d3be 5ed5 9bbe df35 78be f6d0 d23e
00000020: 8f3a 9bbe 69cb 783e f0ea 843e f916 1ebe
00000030: d8e6 03bf 54c2 62bf 8936 53be 8f24 70be
00000040: 9d09 123d 93d0 e7bc 8ec5 15be 82bd 77be
00000050: e7ec c73e 76cc a73e 450d f4be 8001 8b3d
00000060: eb8f 243f 879c 95be 6375 5e3e fd22 97bf
00000070: fd13 d13c 5f48 9abe 9535 1fbf 1266 9a3d
00000080: cafb 24bf eb32 1dbd 1427 163f 190e c6bd
00000090: 8800 8fbe 6b3a 8c3e 0a47 d7bd 584d b7be
000000a0: f41a 15bf ab9b 873e d916 5bbe a52e dc3e
000000b0: eb3c 66be 060e a43c 6adf 1bbe 7a2a 5bbd
000000c0: 4057 a9bd b211 2cbf 6990 7b3e 2403 0dbf
000000d0: f065 5e3d 88c8 ee3b 528a 28be cd42 f9be
000000e0: 51d0 03bc 5c91 3dbf fc79 84be 3dcc e5bd
000000f0: 7399 b53d bbf0 5abe 83c9 db3d ba74 243d
00000100: 3738 11be 5ea3 3cbf ce7b 9b3e 9433 c3bb
00000110: 8645 a33d 16aa 6bbe e4d3 eebd ca4c 33be
00000120: c039 8fbe 74c8 46be 8d1e 4cbe 61fa d7bc
00000130: e65f bbbe 3657 823c f685 a3be c512 dabe
00000140: 55aa 26be f78f 93bd ccc5 a1bd ae60 5dbf
00000150: 5a89 373e 3fcf 56be 0635 193f 34f6 8d3d
00000160: d14d 14be 69ab 1ebd 991f ba3c 4a3f 52be
00000170: 7b16 073f e736 053e a9f2 06be e7f3 adbe
00000180: 8c2a 72be 1f46 cb3d 6e5c 23be b70b 203e
00000190: 355c c13e f1fc f4be b6ce d5be 566f 1a3f
000001a0: d060 b83e c12a 20be aa83 c6bc 1efa 1abe
000001b0: 7b97 26be b8f6 7d3e f639 2a3f ff4c db3c
000001c0: dc3c e4bc a844 dbbe 911c bebc 5de1 35be
000001d0: 3e22 813e 4aea 14be 7c3b 34be 00c9 8a39
000001e0: e709 eabe 0a72 573f f5fd 373e 77a1 2dbe
000001f0: fb68 d73e 4709 86be 7bf8 70be 2095 6c3e
-0.14061366 -0.12084021 0.54409546 -0.25577173 -0.4122745 -0.30436224 -0.242393 0.4117505
-0.30318114 0.24296345 0.25960493 -0.15438451 -0.51524115 -0.8857777 -0.20626272 -0.23451446
0.0356537 -0.028297698 -0.14626142 -0.24193385 0.3904793 0.3277318 -0.47666374 0.067873955
0.642821 -0.29220983 0.21724467 -1.1807553 0.025522226 -0.3013334 -0.62191135 0.075389996
-0.644467 -0.038378637 0.5865338 -0.09670658 -0.27930093 0.2738832 -0.105115965 -0.35801196
-0.5824425 0.26485953 -0.21395434 0.43004337 -0.22484176 0.020026218 -0.15221944 -0.053507306
-0.08268595 -0.672145 0.24566807 -0.5508292 0.054296434 0.007287089 -0.16459015 -0.48683777
-0.008045272 -0.74049926 -0.25874317 -0.11220596 0.08867159 -0.21380894 0.10731795 0.04015038
-0.141816 -0.7368678 0.30367893 -0.0059570763 0.07972245 -0.23014101 -0.11661509 -0.17509761
-0.27973747 -0.19412404 -0.19933529 -0.026364507 -0.36596602 0.015910726 -0.31938142 -0.42592445
-0.16275914 -0.072051935 -0.07899055 -0.86475646 0.17923489 -0.20977496 0.5984653 0.06931725
-0.1448281 -0.03873769 0.022720145 -0.20531955 0.5276868 0.13009225 -0.13178505 -0.33975145
-0.23649043 0.09925484 -0.15953228 0.15629469 0.3776566 -0.4784923 -0.4175927 0.60326135
0.36011362 -0.1564131 -0.024232704 -0.15134475 -0.16268723 0.24801147 0.6649469 0.026770113
-0.027861051 -0.42825818 -0.02320698 -0.1776175 0.25221437 -0.14542499 -0.17600816 0.00026471168
-0.4571068 0.84158385 0.1796797 -0.16956125 0.4207228 -0.26178953 -0.23532288 0.23103762

11.weight f4 [128, 128]
00000000: 3d23 06bc b22d 29be f16c c7bd 9d84 ebbd
00000010: a353 dbbe 8531 87be 6812 8ebb 2667 c1bd
00000020: 55f1 6abc 97ae f3bb a4e5 d03b 8a46 a2bd
00000030: 9f81 8abd 3750 b73d 245c 89bd 556e 913d
00000040: 3d72 a83d 3da6 6fbe 428b 493e f3b2 e73c
00000050: f4c1 42bd d89a 1f3e ecb2 b43d e21c 0bbe
00000060: ab78 113e 1ae9 2ebc 098b ee3d 68a8 0b3d
00000070: 7021 4dbe e526 dabd cb02 403e f693 04be
00000080: 896d 95be 8b4f 383e 9388 7a3d 113d 26bd
00000090: e53d fcbd cb54 05be 1c4c a1bd dc82 a23d
000000a0: ccbe 89bd 1bf9 a4be bf1b 3dbe 7a76 9cba
000000b0: c91e 0ebe 023e 0cbe ea94 10be 7f60 553e
000000c0: 1b94 10bb a851 c63d 3256 8bbe 7e89 1abe
000000d0: 2489 93bd 0c66 2ebe fec8 8fbe 5a62 c63d
000000e0: c37a dbbd c2b6 923d 1abc 2bbe 697d bbbd
000000f0: e324 093c 2d0d 963c e40b 68bc 0d3f 3a3e
00000100: dea3 353d 62e1 5c3d 31de 36be 783c 33bd
00000110: fa33 533d 19d3 d6bc cbfa 5e3d 4244 d03d
00000120: e765 28be 14f1 cf3d a5bc a9bc 9aa9 903d
00000130: fffa 643d 3091 ebbd 65da ad3c e885 90bc
00000140: da02 7abe c68f b43d 3b10 f1bd 0f2e 63be
00000150: d4c9 173e bad8 b4bd 72f6 8d3d 2dfa a53d
00000160: ef48 7e3d 975d 42bd ff5e 9fbd 3dd5 253d
00000170: 5535 2c3e cf66 d6bd 3a69 153e a9eb 11be
00000180: dadd 013e 69c3 8e3c e7b1 05bd 45ab d13d
00000190: b558 20bc b83a 923d e910 963d fa45 173e
000001a0: 0b8c fabd 6086 993e eb09 833e 7a7b a6bc
000001b0: ba15 133d 74ca e43d a332 00bc f885 fbbd
000001c0: d9a4 ddbd 7145 45bd cd4e c0bc 9a29 1fbe
000001d0: fbce 303e 371a 2cbd 277e 1abe 0821 853d
000001e0: 90ff 863c 9b54 acbd e13d 32be 0658 bbbd
000001f0: e92b c1bd 9663 debc 8587 ddbd aa42 77bb
00000200: 22c1 0cbe ccad 4dbe 8d38 4bbe 37dd 893b
00000210: de85 57b9 91e1 aebe 23e1 b6bc 52c0 33bd
00000220: cfd4 91bd 2a21 b3bd 764f 90bd 4208 a4bd
00000230: 7d33 a3b9 8831 cabc 9fca 21bb 006e 9bbd
00000240: a92c 3abd 191d d9bd b3fc 80bd b682 18bd
00000250: 8983 6ebd 85bc 65be 97ec 99bd 9cc8 ecbb
00000260: 7bff 92be 7d23 6abb f277 29be 5992 7fbd
00000270: 15a3 30bb f7d1 d7bc 88a2 43bd 9ca5 bcbc
00000280: 42e0 9abe 1685 10be b19b 31bd 0692 59bd
00000290: d486 f4b9 8bdb 16be c343 8dbc caeb 86bb
000002a0: 5424 afbc 753e 08bd e043 3ebd 8b4e 5abb
000002b0: 9280 91be c5a4 d2bc ee3d 673d 42f8 0bbb
000002c0: 6cf7 aebd 88bd eabd efa5 2dbd d8e7 17be
000002d0: 73f5 55bd 090f 3abd 975b d8bd b5f1 74b8
000002e0: ee4e 6db9 f3d8 f9bc 69bc 36be 5445 4dbd
000002f0: 0a5b 3f3c e19c c5bc e8cd cdbc 0cf6 4dbd
00000300: d269 c3ba e690 16be 9f0c f7bc b27d c4be
00000310: 1f58 57bd b6dd b3bc 5402 33bd dda5 b7bd
00000320: fb92 38bd 3f88 77be 4d7d a2b8 ba5a cbbc
00000330: 638a 3dbc 4d33 55be db89 63bd b212 9fbe
00000340: bd4a 2ab9 cd7e 44bd 5350 60bc f28e 09be
00000350: 44b3 44bd fed5 43bc 3a83 8abe 7206 08bc
00000360: 3a4c 613d b787 d3bc 0aab 97bc 3e94 39bb
00000370: 2ed6 d2bc 0ccd ebbc 4cc8 bbbe 73fd b8bc
00000380: 75c4 c1bb f7d4 0bbe 18ba 9cbd ed3c 33be
00000390: d210 18bd a014 67bd 47b6 89be 890a 17be
000003a0: 0ae3 18bd 8ac1 d7bd 06ac 3fbd d877 fbbd
000003b0: 535d 1abd a38e 8cbd 1947 b0be 0cfe 94be
000003c0: 3400 17be 69c9 18be db2b 29bc 78a6 1bbc
000003d0: 896d 3fbb c3a8 4d3d 0cfb 14bc 9cda 81be
000003e0: 416e 1ebc 7a53 81be 5828 c2bc e12c 35bd
000003f0: 715b 67be b9aa 47ba d893 81bd 21a2 37be
-0.008187112 -0.16521338 -0.09737576 -0.11499903 -0.42837247 -0.26404968 -0.0043356903 -0.09443502
-0.014339765 -0.007436584 0.0063750315 -0.079236105 -0.067630045 0.08950847 -0.067070276 0.07101122
0.08224914 -0.23403259 0.19682029 0.028283572 -0.04754825 0.15586412 0.08823189 -0.13585237
0.14206187 -0.010675693 0.116476126 0.03409615 -0.20032287 -0.1065195 0.18751065 -0.12947068
-0.2918513 0.17999093 0.061165404 -0.04058558 -0.12316493 -0.13020627 -0.07875845 0.07935116
-0.06725845 -0.32221302 -0.18467616 -0.0011937164 -0.13878931 -0.13695529 -0.14119306 0.20837592
-0.0022060934 0.096835434 -0.272142 -0.15091512 -0.07203892 -0.17031115 -0.28083032 0.09686728
-0.10716774 0.071637645 -0.16770974 -0.091547795 0.008370611 0.01831683 -0.014162991 0.18188114
0.04434573 0.05392588 -0.17858197 -0.04375884 0.05156324 -0.026223706 0.054438394 0.10169269
-0.16445123 0.10153404 -0.020719836 0.07063599 0.05590343 -0.11502302 0.021222303 -0.017641976
-0.2441515 0.08816485 -0.11770674 -0.22185539 0.14823085 -0.088304 0.06931771 0.08104358
0.062081274 -0.047452535 -0.07781791 0.040486563 0.1681722 -0.10468828 0.14590922 -0.14250053
0.12682286 0.017427163 -0.032640364 0.10237745 -0.009786774 0.07140106 0.07327444 0.14772788
-0.12233742 0.29985332 0.25593504 -0.02032255 0.035909392 0.11171427 -0.007824573 -0.12281412
-0.10822458 -0.048161928 -0.023475075 -0.15543213 0.17266457 -0.042017188 -0.15087186 0.06500441
0.016479284 -0.08414575 -0.17406417 -0.091476485 -0.09432203 -0.027147096 -0.10816864 -0.0037728944
-0.1374555 -0.2008583 -0.19845791 0.004207279 -0.00020553867 -0.3415647 -0.02232415 -0.043884583
-0.07120668 -0.0874656 -0.07046406 -0.080093876 -0.00031128144 -0.024681821 -0.0024687422 -0.0758934
-0.045452747 -0.10601253 -0.062981986 -0.03723403 -0.05823091 -0.22435196 -0.07515829 -0.007226063
-0.2871054 -0.003572672 -0.16549662 -0.062395427 -0.0026952673 -0.026345236 -0.047762424 -0.023028187
-0.3024922 -0.14113268 -0.04336137 -0.053117774 -0.0004663976 -0.14732186 -0.017244225 -0.0041174637
-0.021379627 -0.03326269 -0.04645145 -0.0033310975 -0.28418404 -0.025713334 0.056455545 -0.002135769
-0.08543286 -0.114619315 -0.042394575 -0.14834535 -0.05223603 -0.045424495 -0.105643444 -5.839924e-05
-0.00022631485 -0.030498957 -0.1784531 -0.050114945 0.01167942 -0.024122657 -0.025122598 -0.050283477
-0.0014908856 -0.14703712 -0.030157385 -0.38377148 -0.052574273 -0.021956306 -0.043703392 -0.08967183
-0.045062046 -0.24173068 -7.748101e-05 -0.024823535 -0.0115686385 -0.20820351 -0.05555139 -0.3106895
-0.00016240306 -0.04797249 -0.013691026 -0.13433436 -0.048022524 -0.011952875 -0.27053243 -0.008302318
0.055004336 -0.02582155 -0.018514175 -0.002831712 -0.025736894 -0.028784297 -0.36676252 -0.022581792
-0.005913312 -0.13655458 -0.07652682 -0.1750371 -0.037125416 -0.056416154 -0.2689688 -0.14750113
-0.037325896 -0.105349615 -0.046794914 -0.12278718 -0.037686657 -0.06863143 -0.34429243 -0.29100072
-0.14746171 -0.14920582 -0.010325397 -0.009500138 -0.0029209575 0.05020977 -0.009093057 -0.25362098
-0.009669841 -0.25259 -0.023700878 -0.044232253 -0.22593476 -0.0007616687 -0.06327027 -0.17932941

11.bias f4 [128]
00000000: 8f96 4fbe f88f 7fbe a537 8a3e 7b5e 2bbe
00000010: a7e9 c33e af65 26be 8ad2 e13e ea7a bcbe
00000020: 373d 85be d566 92bd 8f9b 86bd 2a94 e93e
00000030: 243b ec3e cac0 95bd a753 33be afc1 09be
00000040: 958d ed3e 57f0 73be d7af f33d 4682 3fbe
00000050: a8f7 7abe 2aab 223f 840c 28be 28de cc3e
00000060: 79b2 1d3d 50d0 0b3f 4b9b 18be d7f6 80be
00000070: 5d7d 28be ce67 91be 851d 4fbe 2510 e63d
00000080: 5c90 e03d c34d 463e 2c69 0c3e 36f3 c3bd
00000090: c671 82be e79b 97be f520 b33e ed66 61be
000000a0: 6596 b53e 90b4 42be 2fed c8be ec8f 0cbf
000000b0: dc66 00bf af33 953e 1e51 32bd 0dce dc3e
000000c0: e264 94bd 05d5 b6bd 958a 3b3f aa74 703b
000000d0: 8336 093f 8310 243f e0be 25bf ef39 0abf
000000e0: 8e0a f0bc 692c 72bf 0e1d fa3d 1034 2cbd
000000f0: f431 d2be a2ee f53e d09e 86be e490 c53e
00000100: 2a2a 60bd 0c06 8ebd 9831 92be 2f25 32be
00000110: 16e5 35be 062d 793d 67e9 f3bd 9794 303e
00000120: ba00 133f 1eb5 e83e 8b90 df3b 61af d3bd
00000130: 0790 e43e 6349 3bbe 5f88 fbbe 9d55 363e
00000140: 9981 73be 3239 e4be a38a f43c 04e6 2cbe
00000150: 5c86 adbd 664a 093f bbb8 a63f a873 48be
00000160: acf9 64be 92cf 00bf ce50 33be eca0 de3d
00000170: 1f92 66be 5936 c13d 3adf a0be 4b97 0d3f
00000180: eaf4 a23c b587 373e ab7d 58be a87f 083f
00000190: 529f 743e ea16 35be f2b7 97be 19be bcbe
000001a0: 3914 1c3e 8cad b43e 2b84 74be 6986 063f
000001b0: f1d1 1c3f e359 f7bd df8d 9bbe 30a5 82be
000001c0: 3804 273f 3c15 96be 74e1 d5be 3c57 8a3d
000001d0: 9e6a 8f3e c956 8b3f ef3a 31be a2e6 c13e
000001e0: 066e 65be d681 973e d0da 0c3f c4b2 8a3e
000001f0: 9efd 87be 506d cdbe 974b 52be 2d01 c23d
-0.20272277 -0.24957263 0.26995578 -0.1673526 0.382642 -0.16249727 0.4410594 -0.36812526
-0.26023266 -0.0714852 -0.06572639 0.45620853 0.4613887 -0.07312162 -0.1751238 -0.1345279
0.4639708 -0.23822151 0.11898773 -0.18702039 -0.24508536 0.63542426 -0.16411024 0.40013242
0.038500283 0.54614735 -0.1490299 -0.25188324 -0.16454072 -0.2839951 -0.20226105 0.11233548
0.10965034 0.19365601 0.13711995 -0.09567873 -0.25477427 -0.29611132 0.34986082 -0.2201192
0.35466304 -0.19014192 -0.39243457 -0.5490711 -0.5015695 0.29140994 -0.04353439 0.43125954
-0.07245804 -0.08927349 0.73258334 0.003669063 0.53598803 0.64087695 -0.6474438 -0.5399465
-0.029301908 -0.94599015 0.12212573 -0.04204184 -0.41053736 0.48033625 -0.2629304 0.38587105
-0.05472771 -0.06934747 -0.28553462 -0.17396997 -0.1776317 0.060833953 -0.11909752 0.17244183
0.57422984 0.4545068 0.006822651 -0.10336185 0.44641134 -0.18289714 -0.4912748 0.17806096
-0.23779906 -0.44574887 0.029851263 -0.16884619 -0.08472893 0.5362915 1.3025125 -0.1957537
-0.22360867 -0.5031673 -0.17511293 0.10870537 -0.22516678 0.09434194 -0.31420308 0.5530898
0.019892175 0.17922862 -0.21141689 0.5331979 0.23888901 -0.17684522 -0.29632527 -0.36863783
0.1524209 0.35288656 -0.23878543 0.52548844 0.61257845 -0.120776914 -0.30381677 -0.25516653
0.6524081 -0.29313076 -0.4177357 0.0675492 0.2801103 1.088586 -0.17307638 0.3787127
-0.22405252 0.29591244 0.5502138 0.27089512 -0.26560682 -0.4012246 -0.20536648 0.094728805
