project_networks/cifar10_cnn_3layer_k5_w1_ibp.onnx (onnx, 113040 bytes, 10 tensors)

0.weight f4 [4, 3, 5, 5]
2.3315277e-05 0.0005006613 0.0006847099 0.00043288883 0.00013292415 0.00040565152 0.00052184873 0.00064593466
0.00077137933 0.00022582 0.00066467543 0.0006583931 0.0008533051 0.00055828923 0.0008890328 0.0007280437
0.0008336122 0.0007017823 0.0008261168 0.0007288091 0.00048587823 0.0009528792 0.0009977965 0.0008649158
0.0007115966 0.00039026779 0.00026650162 0.0008660023 0.00045844834 0.0006532493 0.00055161736 0.00047611338
0.0006192015 0.00033990777 0.00024311255 0.0006016658 0.0004207955 0.00077033724 0.00070245663 0.0004249453
0.0006343568 0.00085736596 0.0004765519 0.0007084176 0.0006062623 0.0004941183 0.00063390675 0.000574762
0.00087924756 0.0006545623 -0.9747249 -0.3648146 0.00023842575 -0.0001385024 -0.0003348854 -0.36428264
-0.0005814611 0.00024942492 0.0003314881 0.00012665192 0.00029054773 0.00032266226 0.00025681098 0.0004117938
0.0003542733 -0.00064163737 0.00066599605 0.00030004347 0.00036998655 0.00050166366 -0.00046386174 0.0002351976
0.00031809456 0.0005503387 0.00064678164 -0.030626671 -0.18233289 -0.0025330556 -0.06535979 0.020426834
-0.042377286 0.07801818 -0.0482967 -0.047177557 0.109329745 0.040300593 0.12942909 -0.12036295
-0.045581087 0.036145467 -0.049556725 0.13597701 -0.04887141 0.070209116 -0.06884701 -0.11745789
-0.04014704 -0.03589554 -0.20862561 0.04257902 -0.033000413 -0.024398029 0.15402412 -0.08440894
0.045123957 -0.103547394 -0.011850184 -0.055664845 0.0039834664 -0.038223077 -0.04245722 -0.036209613
-0.0043727797 -0.057888422 -0.061532263 -0.029624565 0.029471006 -0.029738367 0.047623612 -0.16088101
-0.18281747 -0.01493278 0.13555215 -0.0024685676 0.054274555 -0.13571413 0.097270794 -0.057440568
0.018662557 -0.14556961 -0.14683521 0.047174025 -0.052865155 -0.18781479 0.056800757 -0.22223307
-0.15947604 -0.02991891 0.04067471 -0.015648598 -0.00401 -0.16558672 -0.02222098 -0.23912679
-0.097133964 -0.04759931 0.09210116 -0.15136601 -0.19907372 -0.07298284 -0.022870816 -0.024121417
-0.026140466 -0.025099926 -0.024030756 -0.019029213 -0.019004557 -0.01969988 -0.019275676 -0.019463845
-0.014108029 -0.0061350116 -0.0036423109 -0.001126856 -0.004228632 0.007237098 0.026398264 0.029514907
0.029508956 0.02533932 -0.10150325 -0.1029887 -0.10643684 -0.10530804 -0.095596455 -0.024307374
-0.025703587 -0.027693752 -0.026613884 -0.025709052 -0.020028044 -0.019908847 -0.020539798 -0.020262364
-0.020422747 -0.01603695 -0.015186151 -0.015041617 -0.014907008 -0.01562798 -0.008862757 -0.0073291603
-0.0061740642 -0.0058857207 -0.0069085667 -0.109113984 -0.8329419 -1.0647011 -0.44263336 -0.100784145
-0.031533495 0.0067200493 0.43188405 0.043503746 -0.03201918 -0.026542071 -0.02627691 -0.026945164
-0.026366897 -0.026573868 -0.021016365 -0.019971037 -0.01967146 -0.019570133 -0.020367352 -0.011134909
-0.00813601 -0.007206106 -0.006900595 -0.0077361525 -0.12546809 -0.2748003 -0.43127766 -0.12614669
-0.116826415 0.56566405 0.021363 0.040879704 0.015162085 0.0008550517 0.54189855 0.1362573
0.20259327 0.16743569 0.088375136 0.0027013593 0.10452534 0.21344338 0.17575923 0.04840759
-0.0015103103 -0.00045280662 -0.0002099428 -0.0008327097 -0.0013062424 -0.003899874 -0.0037079277 -0.0034357526
-0.0034235544 -0.002794119 -0.30498773 -0.17089689 -0.023747848 -0.0058635687 -0.0035820098 -0.44684622
00000000: 2d95 c337 d03e 033a 1b7e 333a 5bf5 e239
00000010: 8e61 0b39 a0ad d439 adcc 083a f153 293a
00000020: 6436 4a3a 18ca 6c39 9d3d 2e3a 0398 2c3a
00000030: 56b0 5f3a 285a 123a fb0d 693a 30da 3e3a
00000040: c586 5a3a d0f7 373a c38f 583a 8d0d 3f3a
00000050: 79bd fe39 a4ca 793a 7fc8 823a 84bb 623a
00000060: 708a 3a3a db9c cc39 3eb9 8b39 6e04 633a
00000070: e55b f039 d23e 2b3a 6a9a 103a db9e f939
00000080: e951 223a a635 b239 07ec 7e39 1cb9 1d3a
00000090: 379e dc39 75f0 493a 1125 383a 31cb de39
000000a0: f74a 263a dbc0 603a b7d9 f939 1ab5 393a
000000b0: 93ed 1e3a b887 013a c32c 263a a0ab 163a
000000c0: 4e7d 663a ef96 2b3a 9287 79bf fbc8 babe
000000d0: ed01 7a39 f43a 11b9 8f93 afb9 4183 babe
000000e0: 326d 18ba 3fc5 8239 94cb ad39 decd 0439
000000f0: a854 9839 ff2a a939 96a4 8639 07e6 d739
00000100: c2bd b939 8e33 28ba 3d96 2e3a 274f 9d39
00000110: c1fa c139 1482 033a 7832 f3b9 609f 7639
00000120: eec5 a639 9b44 103a c88c 293a c9e4 fabc
00000130: 79b5 3abe 9f01 26bb 5bdb 85bd 2d56 a73c
00000140: ce93 2dbd ffc7 9f3d c3d2 45bd 413d 41bd
00000150: 46e8 df3d 3c12 253d 0f89 043e da80 f6bd
00000160: 3cb3 3abd 450d 143d fefb 4abd 8f3d 0b3e
00000170: 632d 48bd ccc9 8f3d a9ff 8cbd c38d f0bd
00000180: 3971 24bd 3407 13bd f4a1 55be 5767 2e3d
00000190: 712b 07bd 60de c7bc 80b8 1d3e 98de acbd
000001a0: e6d3 383d a810 d4bd 4627 42bc d200 64bd
000001b0: bd87 823b cd8f 1cbd 9fe7 2dbd 8850 14bd
000001c0: 8949 8fbb 691c 6dbd 4109 7cbd 37af f2bc
000001d0: 2e6d f13c e09d f3bc fa10 433d febd 24be
000001e0: 8134 3bbe 9ea8 74bc 2fce 0a3e b1c7 21bb
000001f0: ff4e 5e3d a5f8 0abe e935 c73d cd46 6bbd
00000200: 38e2 983c 3310 15be f85b 16be 8d39 413d
00000210: 2289 58bd 8552 40be e9a7 683d 1191 63be
00000220: b04d 23be 8018 f5bc 869a 263d 7d31 80bc
00000230: 5166 83bb 918f 29be c608 b6bc a7dd 74be
00000240: 2cee c6bd 7ef7 42bd 889f bc3d b1ff 1abe
00000250: fbd9 4bbe 0778 95bd 945b bbbc 479a c5bc
00000260: 8824 d6bc 5c9e cdbc 26dc c4bc 27e3 9bbc
00000270: 72af 9bbc a561 a1bc 06e8 9dbc a472 9fbc
00000280: 5d25 67bc 3508 c9bb d6b3 6ebb 03b3 93ba
00000290: 5690 8abb 2e25 ed3b 2c41 d83c 3fc9 f13c
000002a0: c4bc f13c 6894 cf3c f0e0 cfbd bdeb d2bd
000002b0: 8ffb d9bd beab d7bd 13c8 c3bd 4220 c7bc
000002c0: 5490 d2bc 02de e2bc 5c05 dabc ca9b d2bc
000002d0: da11 a4bc e117 a3bc 1443 a8bc 42fd a5bc
000002e0: 9b4d a7bc ec5f 83bc 55cf 78bc 1d71 76bc
000002f0: 863c 74bc 4006 80bc 1935 11bc 7429 f0bb
00000300: ce4f cabb 01dd c0bb 4261 e2bb 2777 dfbd
00000310: ae3b 55bf 2048 88bf d7a0 e2be eb67 cebd
00000320: 4429 01bd dc33 dc3b e81f dd3e fc30 323d
00000330: 8b26 03bd c26e d9bc ad42 d7bc 1bbc dcbc
00000340: 64ff d7bc 71b1 d9bc 832a acbc 4d9a a3bc
00000350: 0b26 a1bc 8b51 a0bc 6fd9 a6bc 316f 36bc
00000360: e64c 05bc 3321 ecbb 631e e2bb 8d7f fdbb
00000370: b57a 00be a0b2 8cbe 6dd0 dcbe 992c 01be
00000380: b042 efbd 5ccf 103f 7501 af3c 7a71 273d
00000390: 656a 783c 8c25 603a ddb9 0a3f 0987 0b3e
000003a0: 9c74 4f3e 4374 2b3e 06fe b43d 4a09 313b
000003b0: 6211 d63d e790 5a3e 3afa 333e 0947 463d
000003c0: 9bf5 c5ba ad66 edb9 1724 5cb9 344a 5aba
000003d0: 3936 abba 0795 7fbb b400 73bb 5d2a 61bb
000003e0: b65d 60bb 8a1d 37bb 5a27 9cbe 98ff 2ebe
000003f0: d98a c2bc 2e23 c0bb 27c0 6abb 07c9 e4be

0.bias f4 [4]
0.8981643 -0.15792336 -0.1168177 -0.38597956
00000000: 18ee 653f a9b6 21be 1e3e efbd 1d9f c5be

2.weight f4 [8, 4, 5, 5]
-0.00041302622 0.00035880567 -0.00060438423 -0.00018684205 -0.00046223972 -0.0056783995 -0.004425947 -0.0043727793
-0.0042649116 -0.00420508 -2.5477493 -3.650262 -4.1582055 -3.759563 -2.7453651 -0.0015984311
-0.0010529135 -0.0013065336 -0.0016165039 -0.0011381651 -0.00029840542 -0.0005832683 -0.0004242119 -0.00041922356
-0.0007289015 -0.003149086 0.023194654 -0.08964573 0.00062855764 0.16940947 -0.12194121 -0.014099513
-0.22977048 -0.2002946 -0.19649775 -0.044244405 0.024140397 -0.22269681 -0.18283692 -0.17014389
-0.09616687 0.05689717 -0.01385299 0.12542482 0.07532896 0.07418865 0.099033125 0.15789045
0.010852257 -0.043293912 -1.585994e-05 -6.9775415e-06 -1.0900434e-05 -9.54139e-06 0.002377311 3.8246e-05
0.0006290275 -4.04662e-05 -1.0395197e-05 -0.00035304448 3.7352122e-06 0.00017565108 -0.0025487887 -6.9896945e-05
-0.0005457572 0.00058629573 2.7206159e-05 -0.00015061247 -0.005425485 -0.0056546265 0.00018536505 0.00014836024
4.3957374e-05 -9.481676e-05 4.012717e-07 0.0005691803 -0.0004261483 0.0007279706 0.00064333004 0.0008171814
0.003270392 0.0035250876 0.0013245101 1.6068543e-05 0.00097510056 0.00012988067 0.002349336 3.604803e-05
0.002089527 0.0023804284 0.0023208857 0.0020661098 0.00010714708 -0.00055815437 -0.0011152014 0.0002905096
-0.00042141316 -0.0008808748 -0.0002965519 -3.6317942e-05 -0.0613596 -0.05726942 -0.04393865 -0.5138248
-0.010550383 -0.047638927 -0.05282501 -0.031300515 -0.6805786 -0.012273552 -0.050960325 -0.054955173
-0.037903305 -0.55725867 -0.017541833 -0.060086567 -0.052606635 -0.040851187 -0.49520925 -0.028101569
-0.06016466 -0.04483271 -0.055251926 -0.74899834 -0.034618545 2.8558108e-05 -0.05874229 0.08671852
0.05879494 1.7006277e-08 0.09741548 -0.07218835 -0.050891485 -0.09835982 -0.0013685217 0.08197476
-0.05429208 0.09453122 4.360961e-05 -0.07651626 0.17782173 -0.11529356 0.07594199 -0.0072017163
0.027332477 0.01662147 -0.11378276 0.01964614 0.039138675 -0.061325356 -0.016373266 -0.44183284
-0.094226025 -0.018010112 -0.008981128 -0.0012463666 -0.51499057 -0.5595559 -0.024657413 -0.0023097012
0.0015727903 -0.6779304 -1.1988187 -0.0053745704 -2.409715e-06 -0.010299275 -0.51303065 -0.57642025
-0.0011836427 -4.1215294e-06 -0.059845395 -0.35272667 -0.1771758 -0.0012166802 -0.00019028573 -0.4435888
-0.024092738 0.0050199293 0.19479778 -0.042259317 -0.668483 -0.03237243 -0.009794404 0.031289335
-0.04160098 -0.41438332 -0.86183095 -0.010828184 0.07939988 -0.038388543 -0.41213056 -1.3713056
-0.008040889 0.124778315 -0.03462287 -0.63342303 -1.5547065 -0.0070186816 0.11122597 -0.031274877
-0.19577566 -0.24341077 -0.22042724 -0.17791522 -0.13652954 0.21012118 -0.01309405 -0.012153808
-0.011991552 -0.01138061 -0.016504984 -0.50145024 -0.38025254 -0.1913845 -0.48839736 -0.017427424
-0.06409109 -0.1520437 -0.046934906 -0.24719329 -0.020103013 -0.0066375937 -0.03436132 -0.07220555
-0.1867555 0.077679195 0.09862049 0.047028452 0.15137853 -0.001255472 -0.032959763 0.014881062
0.053729188 -0.111296356 -0.07461549 -0.00024613092 -0.06945787 -0.18429232 -0.11521285 -0.021912048
-0.116173975 -0.029431408 -0.011665196 -0.1037064 -0.08690576 0.020922422 -0.06350237 -0.023311255
-0.06001543 -0.019522876 0.012709612 0.017408703 -0.032805502 -0.060306262 0.004701201 -0.036825
00000000: 718b d8b9 151e bc39 8a6f 1eba 08eb 43b9
00000010: c458 f2b9 de11 babb 8907 91bb 8849 8fbb
00000020: acc0 8bbb c5ca 89bb 530e 23c0 e59d 69c0
00000030: 0510 85c0 ae9c 70c0 10b4 2fc0 7382 d1ba
00000040: ea01 8aba fe3f abba dfe0 d3ba 7c2e 95ba
00000050: 4c73 9cb9 79e6 18ba c268 deb9 3ccb dbb9
00000060: c013 3fba e560 4ebb b702 be3c 2e98 b7bd
00000070: cac5 243a ad79 2d3e 50bc f9bd a501 67bc
00000080: f448 6bbe 071a 4dbe b536 49be 9f39 35bd
00000090: 15c2 c53c a20a 64be 9a39 3bbe 333a 2ebe
000000a0: 23f3 c4bd 020d 693d a7f7 62bc 5d6f 003e
000000b0: 1246 9a3d 38f0 973d e1d1 ca3d 09ae 213e
000000c0: aacd 313c f554 31bd f60a 85b7 a020 eab6
000000d0: 02e1 36b7 f513 20b7 a9cc 1b3b 546a 2038
000000e0: 52e5 243a 40ba 29b8 0867 2eb7 d418 b9b9
000000f0: 75aa 7a36 fa2e 3839 9409 27bb a395 92b8
00000100: 2511 0fba a4b1 193a c838 e437 baed 1db9
00000110: 44c8 b1bb 724a b9bb 8d5e 4239 2691 1b39
00000120: df5e 3838 5cd8 c6b8 5d6e d734 0b35 153a
00000130: a86c dfb9 48d5 3e3a 26a5 283a 1e38 563a
00000140: 1354 563b 2805 673b 2f9b ad3a efca 8637
00000150: e49d 7f3a 9430 0839 51f7 193b 4732 1738
00000160: 72f0 083b f600 1c3b 001a 183b 9267 073b
00000170: 27b4 e038 1b51 12ba f32b 92ba 8a4f 9839
00000180: 1ef1 dcb9 82ea 66ba 867a 9bb9 1854 18b8
00000190: 3454 7bbd 5793 6abd 04f9 33bd 068a 03bf
000001a0: 83db 2cbc 0921 43bd 0a5f 58bd f834 00bd
000001b0: 663a 2ebf 0217 49bc c6bb 50bd ad18 61bd
000001c0: 7f40 1bbd 81a8 0ebf e4b3 8fbc 551d 76bd
000001d0: 0e7a 57bd 9353 27bd 118c fdbe 4335 e6bc
000001e0: 386f 76bd 81a2 37bd d84f 62bd 5bbe 3fbf
000001f0: 2dcc 0dbd 1290 ef37 c19b 70bd 7b99 b13d
00000200: f7d2 703d 3315 9232 c481 c73d 7cd7 93bd
00000210: 9773 50bd e070 c9bd f85f b3ba 62e2 a73d
00000220: 5f61 5ebd 9699 c13d 76e9 3638 8fb4 9cbd
00000230: e616 363e 081f ecbd 7987 9b3d 60fc ebbb
00000240: 5ce8 df3c c029 883c f006 e9bd f1f0 a03c
00000250: e04f 203d 4c30 7bbd 3a21 86bc ea37 e2be
00000260: 93f9 c0bd f189 93bc 9525 13bc 205d a3ba
00000270: 6cd6 03bf 0e3f 0fbf 58fe c9bc 5b5e 17bb
00000280: 1626 ce3a d98c 2dbf e472 99bf 2a1d b0bb
00000290: 97b6 21b6 4abe 28bc fa55 03bf 4790 13bf
000002a0: 7524 9bba ab4b 8ab6 7220 75bd 9798 b4be
000002b0: 936d 35be 0379 9fba 7087 47b9 121e e3be
000002c0: 225e c5bc 387e a43b 1279 473e 1b18 2dbd
000002d0: b421 2bbf f498 04bd b578 20bc 3f29 003d
000002e0: ca65 2abd 0d2a d4be f4a0 5cbf b268 31bc
000002f0: 679c a23d 4e3d 1dbd c702 d3be f186 afbf
00000300: efbd 03bc c68b ff3d b6d0 0dbd 0328 22bf
00000310: 9f00 c7bf f8fc e5bb 71ca e33d 161a 00bd
00000320: 6a79 48be ac40 79be aeb7 61be 682f 36be
00000330: 66ce 0bbe 022a 573e 6d88 56bc c420 47bc
00000340: 3778 44bc bd75 3abc 7635 87bc 0b5f 00bf
00000350: 76b0 c2be 4cfa 43be 380f fabe f5c3 8ebc
00000360: 3042 83bd 58b1 1bbe d13e 40bd 3d20 7dbe
00000370: 13af a4bc 2c80 d9bb 75be 0cbd 81e0 93bd
00000380: d53c 3fbe 4516 9f3d 8af9 c93d e8a0 403d
00000390: f902 1b3e a68e a4ba d100 07bd b3cf 733c
000003a0: 2313 5c3d 58ef e3bd 02d0 98bd 220b 81b9
000003b0: ee3f 8ebd 20b7 3cbe b7f4 ebbd e580 b3bc
000003c0: 9fec edbd 231a f1bc 611f 3fbc 0564 d4bd
000003d0: a6fb b1bd 8065 ab3c 880d 82bd 3ff7 bebc
000003e0: bdd2 75bd 70ee 9fbc fa3b 503c b29c 8e3c
000003f0: 105f 06bd b303 77bd 880c 9a3b d0d5 16bd

2.bias f4 [8]
0.047908466 -0.3757209 -0.22163898 0.104385264 -0.5268155 0.005192653 -0.60699314 -0.43518928
00000000: ab3b 443d 7d5e c0be 54f5 62be f1c7 d53d
00000010: 61dd 06bf 2127 aa3b e763 1bbf 21d1 debe

4.weight f4 [8, 8, 4, 4]
-0.007755451 -0.0063222004 -0.0036284574 0.00020334 -0.013424446 -0.018141154 -0.007718672 -0.011188211
-0.014938308 -0.006429552 -0.0070265364 -0.0109691955 -0.11533392 -0.11945114 -0.00814253 -0.011288833
-0.0010153196 -0.0012790556 -0.015335289 -0.028409226 -0.00012435412 -6.827329e-05 -0.0108554 -0.007219912
-6.260504e-05 -0.0012031862 -0.00016667986 -0.0004849443 -0.0010784672 -0.0035491525 0.002712645 0.0015008062
-0.00079189666 -0.00077396544 -0.0048101884 -0.0019180242 -4.304281e-05 -0.0006199815 -0.0016301562 -0.00071661844
-1.0046655e-05 -0.00013415888 -0.00015783517 0.009763711 0.083227485 -4.3452295e-05 -5.3972606e-05 -3.785212e-05
-0.0038237649 -0.0004695843 -0.103954 -0.028474886 -0.0015511643 -0.0027963584 -0.00025979316 -0.028225942
-0.00411375 -0.0745913 -0.105183996 -0.074387096 -0.1631868 -0.15230434 -0.18455967 -0.0020267107
-0.0046084393 0.3034934 0.43684703 0.9300684 -0.0037726264 0.029411845 0.72629726 0.47772413
-0.00033001107 0.47009015 0.6845473 0.38735384 0.12597765 0.3380698 0.36533344 0.07059066
0.00040838364 -0.0002239459 -0.005919054 -0.018090744 -0.00043801992 -0.0011651983 -0.00303517 -0.00952636
-0.0024455534 -0.017645309 -0.013421323 -0.008708454 -0.024408516 -0.019952897 -0.0015211751 0.0005645492
-0.003674356 -0.00019298376 -0.000905317 0.0007193353 -0.0058512106 0.0047847326 -0.0018779751 0.0021780357
-0.0022671383 -0.005728721 -0.011008849 0.0054013557 -0.022100423 0.0011054863 0.0023225807 -0.0010232353
-0.021344677 -0.04649448 -0.016747424 -0.032913927 -0.0010327686 -0.13285479 -0.1253172 -0.20152545
0.0505491 -0.0071644164 -0.023329975 -0.15889858 -0.2426812 -0.24034043 -0.1577934 -0.15172395
-0.0066381353 -0.010074621 -0.02402477 -0.044938203 -0.004315984 0.012434463 -0.009386668 -0.053845648
0.045144312 -0.034058414 -0.027456546 -0.01556547 0.0030521343 0.036892917 -0.021134425 -0.0287846
-0.15325911 -0.14600207 -0.20153034 -0.23998469 -0.004734199 -0.106133856 -0.06627728 -0.1352746
-0.13256456 -0.19698095 -0.18395385 -0.012472926 -0.09661195 -0.02294976 -0.05641808 -0.06449624
-0.19794129 -0.08340469 -0.10327 -0.10152159 -0.17154394 -0.12316442 0.07458663 -0.05574435
-0.19715817 -0.17392 -0.039285626 -0.2113431 -0.07412666 -0.26192245 -0.021283163 -0.034388132
0.06913292 -0.061210133 0.1431759 -0.093998864 -0.062719315 0.023788283 0.10156851 0.062174097
0.14380799 -0.012241174 0.20343736 -0.042966884 0.111915335 -0.060804836 -0.035948 0.117881894
0.12147304 -0.014874674 0.008046365 0.088182166 -0.010967631 -0.019462336 -0.020607362 0.017339064
0.061298892 -0.019544883 0.033296835 0.07945773 -0.019730473 -0.02303149 -0.020651186 -0.037861597
-0.089154266 -0.077880085 -0.14500703 -0.06086644 -0.1282444 -0.13114364 -0.103850774 -0.1113015
-0.15227894 -0.102033824 -0.09543903 -0.121341966 -0.1331486 -0.09854214 -0.12014346 0.005259662
-0.045187503 -0.040843666 0.044166476 -0.118948825 -0.03924425 0.033586644 -0.03191305 -0.045709003
-0.017006248 -0.03155599 -0.079401605 -0.21913196 -0.04915167 0.02551485 0.042029917 -0.06676597
0.0015523321 0.036050804 -0.0116230035 0.019679533 -0.057289094 -0.014901737 -0.010776684 -0.017016502
-0.19205603 -0.28421074 -0.103903756 -0.077667035 -0.000680773 -0.102132335 -0.16018611 -0.0992766
00000000: 7021 febb 762a cfbb 6acb 6dbb aa37 5539
00000010: 35f2 5bbc c29c 94bc eaec fcbb c24e 37bc
00000020: cebf 74bc feae d2bb dc3e e6bb 24b8 33bc
00000030: 3134 ecbd cda2 f4bd 3f68 05bc ccf4 38bc
00000040: 7914 85ba fca5 a7ba dd40 7bbc 77ba e8bc
00000050: 0e65 02b9 f22d 8fb8 d9da 31bc 0395 ecbb
00000060: d34a 83b8 3bb4 9dba c9c6 2eb9 1f40 feb9
00000070: 5b5b 8dba e698 68bb a2c6 313b b3b6 c43a
00000080: 4997 4fba f1e3 4aba c99e 9dbb 3666 fbba
00000090: de88 34b8 4186 22ba f7aa d5ba 73db 3bba
000000a0: 0e8e 28b7 00ad 0cb9 8e80 25b9 f9f7 1f3c
000000b0: 2c73 aa3d 8c40 36b8 a560 62b8 68c3 1eb8
000000c0: 2198 7abb 8a32 f6b9 d6e5 d4bd 2a44 e9bc
000000d0: 7050 cbba 1c43 37bb d934 88b9 173a e7bc
000000e0: a3cc 86bb 53c3 98bd b56a d7bd 4358 98bd
000000f0: 711a 27be abf5 1bbe 36fd 3cbe 90d2 04bb
00000100: 6402 97bb 7d63 9b3e 6aaa df3e f618 6e3f
00000110: 2b3e 77bb 1cf1 f03c 9eee 393f 4298 f43e
00000120: 5605 adb9 a8af f03e 7e3e 2f3f 3e53 c63e
00000130: 4900 013e 7c17 ad3e fc0c bb3e d691 903d
00000140: 531c d639 05d3 6ab9 a0f4 c1bb 0a33 94bc
00000150: 0aa6 e5b9 91b9 98ba b4e9 46bb 7314 1cbc
00000160: 9445 20bb e58c 90bc 1ce5 5bbc e7ad 0ebc
00000170: 5ef4 c7bc 4274 a3bc 2b62 c7ba 41fe 133a
00000180: 77cd 70bb af5b 4ab9 cc52 6dba c691 3c3a
00000190: 83bb bfbb 3fc9 9c3b 6326 f6ba 60bd 0e3b
000001a0: 4594 14bb ffb7 bbbb 765e 34bc dbfd b03b
000001b0: f20b b5bc f7e5 903a 7036 183b 141e 86ba
000001c0: 08db aebc ff70 3ebd e531 89bc c1d0 06bd
000001d0: f75d 87ba 160b 08be 2753 00be b05c 4ebe
000001e0: 930c 4f3d 7bc3 eabb 811e bfbc 4fb6 22be
000001f0: 6c81 78be cd1b 76be 9894 21be 865d 1bbe
00000200: b784 d9bb 0610 25bc 98cf c4bc 1f11 38bd
00000210: 196d 8dbb ebb9 4b3c 8aca 19bc 418d 5cbd
00000220: 3ee9 383d d680 0bbd 8dec e0bc 5006 7fbc
00000230: 5106 483b 071d 173d 1a22 adbc aecd ebbc
00000240: f5ef 1cbe 9181 15be f85d 4ebe 8cbe 75be
00000250: 5721 9bbb b55c d9bd 62bc 87bd 6d85 0abe
00000260: 01bf 07be 60b5 49be 665e 3cbe 3e5b 4cbc
00000270: 7cdc c5bd 2301 bcbc a516 67bd 9b16 84bd
00000280: 1fb1 4abe 14d0 aabd 397f d3bd 8dea cfbd
00000290: 37a9 2fbe a13d fcbd e0c0 983d 3054 64bd
000002a0: d5e3 49be 1618 32be f7e9 20bd 536a 58be
000002b0: b8cf 97bd b31a 86be 075a aebc 92da 0cbd
000002c0: 8f95 8d3d 7ab7 7abd b49c 123e 7a82 c0bd
000002d0: fc72 80bd a5df c23c 2703 d03d 44aa 7e3d
000002e0: 6742 133e 348f 48bc e251 503e 0bfe 2fbd
000002f0: de33 e53d 7e0e 79bd 363e 13bd 106c f13d
00000300: dbc6 f83d e8b4 73bc e7d4 033c da98 b43d
00000310: 94b1 33bc 7a6f 9fbc c5d0 a8bc a70a 8e3c
00000320: 8c14 7b3d 971c a0bc 4362 083d bcba a23d
00000330: cda1 a1bc 89ac bcbc ad2c a9bc c314 1bbd
00000340: 8396 b6bd 987f 9fbd b97c 14be 174f 79bd
00000350: 8052 03be 854a 06be b7af d4bd 0af2 e3bd
00000360: 03ef 1bbe 1cf7 d0bd 8a75 c3bd 2382 f8bd
00000370: 1b58 08be 76d0 c9bd c60d f6bd 3e59 ac3b
00000380: 8816 39bd b04b 27bd e8e7 343d 719b f3bd
00000390: 94be 20bd 2692 093d 42b7 02bd 5d39 3bbd
000003a0: b050 8bbc db40 01bd 4f9d a2bd 2164 60be
000003b0: 4353 49bd 8504 d13c 9027 2c3d 99bc 88bd
000003c0: 9f77 cb3a 02aa 133d 696e 3ebc f936 a13c
000003d0: f8a7 6abd 6a26 74bc b090 30bc 3166 8bbc
000003e0: 56aa 44be 1284 91be 7ecb d4bd e50f 9fbd
000003f0: e775 32ba c22a d1bd d407 24be 8851 cbbd

4.bias f4 [8]
-0.0604749 -0.21224882 -0.18226308 0.0060714902 -0.10520904 0.106333554 -0.015914964 -0.26382983
00000000: 87b4 77bd c157 59be 2ca3 3abe 5af3 c63b
00000010: d677 d7bd 68c5 d93d 1960 82bc b414 87be

7.weight f4 [64, 392]
0.0028939876 0.8719752 0.36852637 0.00029570906 0.00094209064 -0.0064082853 -0.3874893 0.0012851971
0.61594117 0.9163021 8.577182e-05 9.525764e-05 -0.6399098 -0.6860289 0.002014284 -0.0068219253
0.00029025952 0.00025959394 -0.43492085 -0.49019292 -0.6251248 -0.0028542245 -0.01427679 -0.002080452
-0.002728304 -0.0067766258 0.0021123667 0.0017075723 -0.009938204 -0.003111705 -0.0025912626 -0.0036687907
-0.002039297 -0.0043306504 0.011152821 -0.0028460957 -0.0011897716 -0.015831372 0.0023419878 -0.0036827968
0.000224455 0.05441394 -0.008921307 -0.0020740686 -0.005904234 -0.0031179362 0.0007370272 -0.004058683
1.6189815 -0.093041465 0.03293915 0.07409335 -0.0016884094 -0.037840117 -0.0660725 0.011715563
-0.05604639 -0.2281427 -0.016936565 -0.039647043 -0.012866671 -0.2186753 -0.01224993 0.00031347826
-0.07313047 0.024416428 -0.17747033 -0.25720322 -0.101693965 -0.0040119183 3.0345134e-08 -0.031465933
0.0781448 0.023283273 -0.110515 -0.15129514 0.018788286 -0.022310555 -0.086454876 0.024524236
0.045286253 -0.04795312 -0.13746355 0.06586042 0.09094118 0.026473137 0.00051867863 -0.019711157
0.0018682554 -0.0047627757 0.0070080743 -0.14351572 -0.047203414 -0.1442618 -0.03683712 -0.21135181
-0.071465306 -0.025061995 0.0008869856 0.00221155 0.000553697 0.0002558368 0.00043990335 -0.017363295
0.00021293212 0.00013503522 -0.0007159276 -0.0006841691 -0.0002009726 -0.002461409 -0.0023629174 0.0013452318
-0.0004558894 -0.000874119 -2.4172672e-05 -7.004392e-05 8.015642e-07 -0.028287804 0.0007300456 -0.0016075181
0.0010978264 6.78709e-05 0.0011759687 0.0007639016 3.9102895e-05 1.9966243e-05 0.002653218 0.0025642836
4.9196474e-06 0.0002816672 9.2175715e-06 -0.0015212095 -0.0009296392 -0.0013895095 0.00035468437 -0.0021626786
0.0021661525 7.08907e-05 0.00020056697 -3.2892025e-05 -0.0014746425 -0.0008342408 -0.0002752305 -0.0016205435
-0.00015968444 -0.0009433169 -0.00061411684 0.0006833537 0.0004568502 9.143815e-05 0.0007940059 0.0020066856
-0.0010436757 -0.00019932185 0.0038122882 -0.0014339326 -0.0038782624 -0.0025516278 -0.0018499208 0.0007813167
-0.0011970275 0.0010768472 -0.0024322215 -0.00224048 -0.0031135262 -0.0012340645 0.00012267014 0.0015066789
0.0013039116 8.6161606e-05 -0.0016621839 -0.0007461417 -0.0006789707 0.0009551091 7.538041e-05 8.75829e-05
0.0013888543 0.00046832973 0.0010211635 0.00047280258 0.0019653914 0.0022838537 0.0011503225 0.0020426577
9.650015e-05 0.00011407642 0.00014394036 0.0007923827 0.00045579765 0.0005035748 0.0014107891 -0.0016542036
0.00038000147 -0.010310994 -0.00013440276 3.787331e-05 -0.011034414 -0.0003124609 -0.0057849307 0.0072307107
5.518527e-05 0.0047114673 0.0017206756 -0.016321737 -0.0053401333 0.0024886222 -0.002225955 0.0033095533
0.0048844824 0.0012997705 0.0009259127 -0.00091348053 -0.0013161098 0.0016254188 0.0009845677 0.00057055446
-0.08172733 0.0009749841 -0.004227917 -0.010958099 0.014223644 9.1901944e-05 -0.00034623977 0.0026543108
0.0017281312 0.0009881989 0.011433017 -0.00028489935 -0.00065230345 0.005497678 0.0005700387 0.008047043
0.0035166217 0.00134257 9.3812574e-05 0.0021058281 0.0005453182 -0.012292364 -0.005766867 -0.0014803949
4.9308295e-05 -0.00063608517 -0.00018542941 -0.00041760443 -9.1289956e-05 0.8191152 0.11816212 0.0039064917
0.0011632963 0.0020902255 0.003011897 0.4720978 0.08844059 0.24030593 0.012953254 0.0010052804
00000000: 0ea9 3d3b c439 5f3f 7daf bc3e 6609 9b39
00000010: a2f6 763a 98fc d1bb ff64 c6be 0f74 a83a
00000020: 52ae 1d3f c692 6a3f 65e0 b338 0ec5 c738
00000030: 21d1 23bf 979f 2fbf 1402 043b 758a dfbb
00000040: f92d 9839 1c1a 8839 f2ad debe 91fa fabe
00000050: 2e08 20bf f10d 3bbb 33e9 69bc 3158 08bb
00000060: 58cd 32bb 750e debb a26f 0a3b 9ed0 df3a
00000070: d9d3 22bc bfed 4bbb 2cd2 29bb 1870 70bb
00000080: baa5 05bb 21e8 8dbb 52ba 363c 9085 3abb
00000090: 1cf2 9bba cbb0 81bc 097c 193b 145b 71bb
000000a0: ae5b 6b39 27e1 5e3d ac2a 12bc 19ed 07bb
000000b0: 4e78 c1bb 4a56 4cbb 0f35 413a b3fe 84bb
000000c0: c93a cf3f 868c bebd 34eb 063d 41be 973d
000000d0: 9e4d ddba 3dfe 1abd 0551 87bd a2f2 3f3c
000000e0: e690 65bd 3d9e 69be 8dbe 8abc f064 22bd
000000f0: bbce 52bc 6bec 5fbe eeb3 48bc 575a a439
00000100: 6ec5 95bd f604 c83c c8ba 35be 24b0 83be
00000110: ed44 d0bd 6976 83bb d454 0233 6ce2 00bd
00000120: 620a a03d 90bc be3c b055 e2bd 1ded 1abe
00000130: e4e9 993c a0c4 b6bc 410f b1bd 0de7 c83c
00000140: 147e 393d 7e6a 44bd 3fc3 0cbe d4e1 863d
00000150: 5f3f ba3d 31de d83c eff7 073a 4b79 a1bc
00000160: 40e0 f43a 0f11 9cbb fda3 e53b c9f5 12be
00000170: 5e58 41bd 5eb9 13be 85e2 16bd 9c6c 58be
00000180: 675c 92bd d04e cdbc 9984 683a a7ef 103b
00000190: fa25 113a d621 8639 d4a2 e639 783d 8ebc
000001a0: 8846 5f39 3e98 0d39 17ad 3bba d059 33ba
000001b0: 2cbc 52b9 974f 21bb 2ddb 1abb 7d52 b03a
000001c0: 7104 efb9 2225 65ba 6bc6 cab7 8be4 92b8
000001d0: 132b 5735 d3bb e7bc 8860 3f3a 5bb3 d2ba
000001e0: f1e4 8f3a e955 8e38 f622 9a3a 9240 483a
000001f0: 6a02 2438 2e7d a737 9de1 2d3b 8a0d 283b
00000200: 7313 a536 bbac 9339 2ba5 1a37 5263 c7ba
00000210: 08b3 73ba 3420 b6ba eef4 b939 babb 0dbb
00000220: 02f6 0d3b 28ab 9438 494f 5239 8bf5 09b8
00000230: cb48 c1ba f4b0 5aba d04c 90b9 6b68 d4ba
00000240: f770 27b9 ed48 77ba affc 20ba 1723 333a
00000250: 6585 ef39 7cc2 bf38 d524 503a 9982 033b
00000260: f2cb 88ba 0d01 51b9 95d7 793b cbf2 bbba
00000270: 722a 7ebb 3639 27bb 0b79 f2ba 47d1 4c3a
00000280: 94e5 9cba ff24 8d3a e865 1fbb 04d5 12bb
00000290: 4d0c 4cbb 55c0 a1ba 04a1 0039 c17b c53a
000002a0: 03e8 aa3a a9b1 b438 a3dd d9ba b998 43ba
000002b0: f4fc 31ba 4960 7a3a 8d15 9e38 b6ac b738
000002c0: 380a b63a 278a f539 90d8 853a 7de2 f739
000002d0: cccd 003b b5ac 153b 6bc6 963a 1cde 053b
000002e0: 2060 ca38 503c ef38 b2ee 1639 e7b7 4f3a
000002f0: 20f8 ee39 5502 043a 3aea b83a ddd1 d8ba
00000300: ef3a c739 72ef 28bc 77ee 0cb9 28da 1e38
00000310: b0c9 34bc cbd1 a3b9 848f bdbb 99ef ec3b
00000320: bc76 6738 a762 9a3b 4b88 e13a 2ab5 85bc
00000330: 49fc aebb 2718 233b 54e1 11bb 17e5 583b
00000340: 020e a03b 105d aa3a f3b8 723a a476 6fba
00000350: 5181 acba 010c d53a 9c0c 813a 4391 153a
00000360: a960 a7bd 1396 7f3a 578a 8abb 9989 33bc
00000370: 490a 693c 7bbb c038 8487 b5b9 f2f3 2d3b
00000380: 7682 e23a 7486 813a 8d51 3b3c 8b5e 95b9
00000390: 58ff 2aba de25 b43b a66e 153a bfd7 033c
000003a0: 1f77 663b 2cf9 af3a 3ebd c438 ef01 0a3b
000003b0: aff3 0e3a e965 49bc fdf7 bcbb cf09 c2ba
000003c0: 61d0 4e38 f4be 26ba d46f 42b9 ebf1 dab9
000003d0: ec72 bfb8 89b1 513f fbfe f13d 0702 803b
000003e0: bf79 983a 2afc 083b 3f63 453b ceb6 f13e
000003f0: 5720 b53d c212 763e e339 543c 9dc3 833a

7.bias f4 [64]
0.016549097 0.05004564 0.04588378 0.07997196 -0.04762295 -0.14224939 -0.00022700593 -0.055853456
0.10935215 0.0014896729 0.021149756 -0.3889176 0.02025258 0.007674035 -0.0001309563 0.004843042
-0.33702305 -0.13539664 -0.010411519 0.17173877 0.12014578 0.04246116 0.01856825 0.061922178
-0.26483813 -0.009424813 0.0838819 0.00010127505 -0.01378329 0.29194972 0.16879418 -0.22181493
0.00012884139 -0.009690532 -0.041753497 0.25277454 -0.20821133 -0.31718442 -0.088992774 0.01509183
0.13615583 0.11195245 0.03275766 0.26716188 0.3505591 -0.00026852323 0.028934052 -0.28166318
0.28461033 -0.3071637 0.13866994 0.07208077 -0.2054997 -0.10002136 0.026393266 0.013489179
-0.10388636 -0.116248496 -0.18619977 -0.21571998 0.00072275446 0.06937707 0.31669632 0.023704432
00000000: f991 873c a8fc 4c3d a1f0 3b3d 57c8 a33d
00000010: 4810 43bd d3a9 11be 7108 6eb9 98c6 64bd
00000020: 05f4 df3d 2141 c33a 4142 ad3c 3520 c7be
00000030: bde8 a53c 7976 fb3b 5051 09b9 62b2 9e3b
00000040: 498e acbe 6ba5 0abe 1395 2abc 4adc 2f3e
00000050: fe0e f63d c1eb 2d3d 711c 983c 1ca2 7d3d
00000060: dd98 87be 886a 1abc 46ca ab3d a163 d438
00000070: 4fd3 61bc 6f7a 953e 62d8 2c3e 7423 63be
00000080: 9919 0739 0ac5 1ebc b705 2bbd aa6b 813e
00000090: 5a35 55be ff65 a2be d841 b6bd b943 773c
000000a0: 6f6c 0b3e 5347 e53d e52c 063d 71c9 883e
000000b0: 7b7c b33e 94c8 8cb9 1b07 ed3c 2836 90be
000000c0: 72b8 913e 8f44 9dbe 7eff 0d3e 159f 933d
000000d0: 836e 52be 00d8 ccbd b136 d83c b801 5d3c
000000e0: 5fc2 d4bd b113 eebd 27ab 3ebe b3e5 5cbe
000000f0: 3b77 3d3a 9115 8e3d 0526 a23e cc2f c23c

8.weight f4 [10, 64]
-0.54849046 0.0011406919 -0.45658404 0.0007449618 -0.0011425084 0.0007762838 -9.5475974e-05 -0.0005900284
0.00023738471 -0.0001576627 0.00017663855 8.923071e-05 -0.0001350401 0.00053183414 -5.5704213e-06 0.5385681
-0.00019220145 -0.0013394275 5.920231e-05 0.00040022202 0.0015378058 -0.001396952 0.0033400683 -0.16187324
-2.0604026e-05 -0.0021990985 -0.00027403084 -4.6248286e-05 -0.0018559521 0.002573035 0.0011349767 0.00033283982
-1.9495796e-05 -0.19719696 -0.00036076645 -0.00016732817 0.00026850772 0.0006977631 0.28967282 0.0018326706
-0.0017807293 -0.00048066193 0.0018722253 0.00016961264 2.9113198e-05 2.503863e-06 -0.0008874116 0.0010668966
-0.0005881236 -0.00020664255 -0.5176945 -0.0007860544 -0.001990841 0.0007871071 -0.00050088635 0.0020728891
0.0007689497 -0.00072721514 -0.00050549227 -0.0011794079 0.0001426431 0.0018240424 -0.00019126068 0.0018168583
0.000804256 -0.0019091569 0.0010223375 -0.00043075022 0.0020039596 0.0011563862 2.3309753e-06 -0.00089723355
-0.00018895368 -0.00048297315 0.0021906253 -1.0339236 0.00062031986 -0.003092566 -4.215847e-05 -0.0010536197
-0.0014637634 -0.0052702087 -0.0029679537 0.0004059389 -0.0001240791 -0.00057394657 0.0005658139 0.000579493
-1.3555782 6.832986e-05 -0.0016893845 -2.5691863e-06 -0.001181573 0.0011537966 -1.7598899e-05 -0.002271917
2.3016477e-05 0.0001449156 0.0025035627 0.8295102 -0.0013258541 -0.002779766 -0.0014045279 -0.0012023678
0.0011215492 0.8095899 0.0010851023 0.0062821913 0.0018414522 -1.1424492e-05 -0.00071877876 -0.0038442342
0.002683013 -0.0025301545 0.0009092715 -0.0013811269 -9.887448e-05 0.0009769093 0.0019916291 0.000867466
-0.003813789 -0.0032305967 -0.0027654641 -0.004127059 4.2465996e-05 -0.0005405868 0.0025021774 0.00254161
0.0032410235 0.4255186 0.0036056384 -0.0040937616 -0.0004533456 3.5206376e-05 -1.5903359e-05 0.0030517734
5.5522247e-05 0.00072360825 -0.0033953642 0.0007287964 -6.7039604e-05 0.003454279 4.149232e-05 -0.0037407642
0.0024980917 0.021818439 0.18863635 -0.0032337308 -0.003808352 -0.000568699 -0.00055703433 0.0030578496
0.0002805993 -0.0001761447 -0.00033996848 1.2112783e-05 -0.004122095 -0.0031591568 -0.0016486591 0.0020294474
3.951535e-05 0.0032321298 0.0004207691 -0.00044984004 0.0026498875 0.47883043 -0.0032914227 0.0024376875
-0.69786745 -0.0020764663 -0.0038839604 -0.11171684 -0.0029724874 -4.112611e-05 0.0023852687 0.0035946923
-0.0030171426 0.0033408585 0.003426893 0.00034103065 0.00348809 0.00047444453 -0.003994306 -0.0010984781
0.004962105 0.0032147581 0.0030719247 0.0039645587 3.0956886e-05 -0.0031038015 0.00043686343 -0.008457438
0.00076543546 0.0002350164 0.0013969392 -0.0005911324 -1.7592525e-05 -0.52526194 5.8347425e-05 0.0015472055
9.13162e-05 0.00065819494 0.00013915762 0.00043209258 -0.0001606692 -0.0025039478 1.5994166e-05 -0.0009277279
0.00024483062 0.0011618432 -4.7899142e-05 3.704443e-05 -0.0010668448 0.009847816 7.304575e-05 0.0014738587
0.00092650315 0.0023444104 -7.124264e-05 1.390504e-05 0.008777625 0.00029662953 -0.00054101524 8.422584e-05
8.161473e-05 0.0014375857 -0.00019590982 -0.0002580604 0.00027867287 -0.00039225494 -0.00042830495 0.00068785786
-3.870598e-05 -0.0014213801 -0.0010255454 0.00020801321 0.00022736563 6.730573e-05 0.001228601 0.0019226293
-0.002376191 -0.00078947307 0.0018287234 0.7658867 0.0008217475 -0.0047228434 -0.0008043872 -0.00050852756
0.0031480829 -0.00014400277 -7.74221e-05 -0.0009253615 2.0858044e-05 -0.0014708275 -0.0003200768 -0.0005316582
00000000: df69 0cbf 4583 953a 62c5 e9be 8a49 433a
00000010: 38c0 95ba 867f 4b3a 463a c8b8 23ac 1aba
00000020: 79ea 7839 4252 25b9 0d38 3939 5f21 bb38
00000030: 8d99 0db9 c96a 0b3a 8ee9 bab6 99df 093f
00000040: af89 49b9 bb8f afba ff4f 7838 e4d4 d139
00000050: 3390 c93a ee19 b7ba 0ce5 5a3b 19c2 25be
00000060: cfd6 acb7 c01e 10bb ccab 8fb9 b8fa 41b8
00000070: 6b43 f3ba 5da0 283b 80c3 943a 0181 ae39
00000080: e78a a3b7 00ee 49be 4125 bdb9 d074 2fb9
00000090: 7fc6 8c39 17ea 363a ff4f 943e 3936 f03a
000000a0: 5c67 e9ba 5a01 fcb9 7565 f53a 0cda 3139
000000b0: 1e38 f437 0a08 2836 2fa1 68ba 1cd7 8b3a
000000c0: 4f2c 1aba 30ae 58b9 a087 04bf 380f 4eba
000000d0: c578 02bb dd55 4e3a ea4d 03ba 4fd9 073b
000000e0: 5793 493a 95a2 3eba 0383 04ba 5d96 9aba
000000f0: 7792 1539 b514 ef3a 268d 48b9 a623 ee3a
00000100: b5d4 523a ad3c faba f4ff 853a 51d6 e1b9
00000110: dd54 033b e291 973a da6d 1c36 5334 6bba
00000120: de21 46b9 8f37 fdb9 9890 0f3b 9c57 84bf
00000130: f69c 223a a6ac 4abb 50d3 30b8 9c19 8aba
00000140: c0db bfba b7b1 acbb 0082 42bb 32d4 d439
00000150: 3b1b 02b9 e774 16ba 2153 143a 1ee9 173a
00000160: 9683 adbf 504c 8f38 566e ddba 496a 2cb6
00000170: 03df 9aba fd3a 973a 59a1 93b7 71e4 14bb
00000180: 8213 c137 7cf4 1739 d012 243b c85a 543f
00000190: 48c8 adba bc2c 36bb 2318 b8ba c598 9dba
000001a0: f200 933a 4941 4f3f fe39 8e3a d7da cd3b
000001b0: e25c f13a d2ab 3fb7 6d6c 3cba 8cef 7bbb
000001c0: 7dd5 2f3b f3d0 25bb 2d5c 6e3a ee06 b5ba
000001d0: d55a cfb8 a30b 803a fe85 023b a866 633a
000001e0: c3f0 79bb 6bb8 53bb ca3c 35bb 483c 87bb
000001f0: 841d 3238 2bb6 0dba 92fb 233b 2491 263b
00000200: 5a67 543b 93dd d93e 934c 6c3b f624 86bb
00000210: 04af edb9 8faa 1338 3468 85b7 4300 483b
00000220: 8fe0 6838 87b0 3d3a c284 5ebb b30c 3f3a
00000230: 9d97 8cb8 2f61 623b 0a08 2e38 9c27 75bb
00000240: 06b7 233b 95bc b23c e329 413e 00ed 53bb
00000250: 8b95 79bb be14 15ba f105 12ba 3466 483b
00000260: 671d 9339 7cb3 38b9 cc3d b2b9 0238 4b37
00000270: a412 87bb db09 4fbb d217 d8ba 7a00 053b
00000280: 49bd 2538 24d2 533b ac9a dc39 82d8 ebb9
00000290: bca9 2d3b 4329 f53e e9b4 57bb 9cc1 1f3b
000002a0: 71a7 32bf 5315 08bb 0b8a 7ebb cccb e4bd
000002b0: 10ce 42bb d37e 2cb8 2b52 1c3b ee94 6b3b
000002c0: 41bb 45bb 4ef2 5a3b b995 603b 5ccc b239
000002d0: 7098 643b debe f839 abe2 82bb cffa 8fba
000002e0: 2799 a23b b1ae 523b 5852 493b 21e9 813b
000002f0: b4d7 0138 2669 4bbb d10a e539 1191 0abc
00000300: 81a7 483a bc6e 7639 8019 b73a 39f6 1aba
00000310: a993 93b7 9177 06bf 12ba 7438 9acb ca3a
00000320: 0381 bf38 b78a 2c3a d7ea 1139 7c8a e239
00000330: 4f79 28b9 4619 24bb 362b 8637 c432 73ba
00000340: 9c5c 8039 fd48 983a 50e7 48b8 2760 1b38
00000350: 5fd5 8bba bc58 213c 2330 9938 7e2e c13a
00000360: 93e0 723a aea4 193b 1a68 95b8 b149 6937
00000370: 07d0 0f3c f184 9b39 ebd2 0dba 67a2 b038
00000380: 9328 ab38 5f6d bc3a 246d 4db9 484c 87b9
00000390: d71a 9239 91a7 cdb9 1e8e e0b9 5c51 343a
000003a0: 3b58 22b8 9a4d baba 986b 86ba 1f1e 5a39
000003b0: ff68 6e39 7d26 8d38 0209 a13a bc00 fc3a
000003c0: dfb9 1bbb a4f4 4eba c6b1 ef3a 2711 443f
000003d0: 8b6a 573a 15c2 9abb 83dd 52ba b54e 05ba
000003e0: 1150 4e3b 73ff 16b9 ac5d a2b8 f693 72ba
000003f0: 4ff8 ae37 c8c8 c0ba fbcf a7b9 fa5e 0bba

8.bias f4 [10]
-0.18964109 0.12506823 0.01657504 0.04144124 -0.10439698 0.03908602 -0.20955756 0.052253164
0.035306904 0.24286197
00000000: 4631 42be e311 003e 61c8 873c 4abe 293d
00000010: 15ce d5bd aa18 203d 4296 56be 6a07 563d
00000020: f99d 103d cfb0 783e
