project_networks/cifar10_cnn_3layer_k3_w2_ibp.onnx (onnx, 553237 bytes, 10 tensors)

0.weight f4 [8, 3, 3, 3]
00000000: 193e 3e3a a75b 8b3b 38db 903b 324d 053e
00000010: 09c9 143f 7d1a b13b e78a 953d dd62 dd3e
00000020: 54ca e83d d11b 0bba 4783 f2ba 0311 e9bc
00000030: 192e 97ba a60b 2abb 46b5 25bf 3d9b 33bf
00000040: f18f 60bf a931 a8bd 4a8b 5eba 5555 8ebb
00000050: 2cb4 94ba 3d6f 20bb a035 85bb 8aec 65ba
00000060: 6b6f 5d3a 6fee b739 a9e5 97b8 6c14 d6be
00000070: 5657 9ebe 92a6 ae3d eaf4 d03d 14c8 1dbd
00000080: 84e3 f5bd db2d 8b3d e8f3 92bd 92d0 323d
00000090: 17fc b93d 668d 88be 732c 0fbe c437 303e
000000a0: b1b0 04be d847 42be 13be 24be add9 d03d
000000b0: b14a 803d 840b 95be 4ccb 113e fc45 b13d
000000c0: 5882 00be 9290 d63d 7436 4fbe 463e 89be
000000d0: cac6 38be c47b 17be 7720 0fbc ab04 98bb
000000e0: f772 3ebe d612 9bbd bac4 5abe a4e3 10bd
000000f0: 8348 c3bc ed6c 16bd 849c 153d 28d7 09bc
00000100: 8753 91bb ad8e 06be ccd6 c7bc 4dbb 61be
00000110: d733 11bd e9bb c9bc 16d5 11bc 305b 193b
00000120: 86ba 13bc 2f7d acbb 9d63 d2bd 4b7c 17be
00000130: 027e 86bc 7b20 14bd e2fe d5bc c17b 1ebd
00000140: ce0b 633e 397e a7b9 7d2d bd38 5818 3c39
00000150: 7612 693a cdd1 e639 4401 403a 8d17 e0b8
00000160: 0f64 83b9 ad57 063a 5f48 57b9 871d e3b8
00000170: 6885 113a cbc4 ea38 0cba a539 32ce 3a3a
00000180: 2609 93b9 bd18 333a 5702 ad38 eec1 b53b
00000190: d497 4e3f e5e5 ce3d 032a a93b a510 d03e
000001a0: 4849 c33b 5403 1a3b 6b26 353b 23ae 853a
000001b0: 5f85 aa3b 066c 243a e7a9 903a fecd 1d3c
000001c0: 3956 9a3a 36b2 3ebb bb23 a13b cfe3 963a
000001d0: c102 a23a 2ee9 f43b 5aec 3b3b 8f0e ac3a
000001e0: 3449 d53e 4e41 393b 182f 07bf 16e6 033b
000001f0: f73d 0f3b 156a cbb8 37d0 e33b c7df 0f3b
00000200: 36cc 9e3a ec1b f53b 3bc5 e23a 2c32 2db8
00000210: 3bf6 0c3b 43bb fb3a 66d2 6c3a 7b2a 5cbe
00000220: 2555 fa3b ab8c 7abe e458 8abe c958 133e
00000230: 10e7 a23c cce0 003e 802a 60be 4ab2 493d
00000240: f4b4 d43d 50d5 a83d a3a6 dcbd f7ec 83bc
00000250: 6a50 3cbe 7a38 88bd cbcc ed3d 747c b3bb
00000260: 5d6d b7bd d8bb 923c 2483 87be 6e19 b6bc
00000270: a5fd 5bbe aaad 81be 742d a93d 79e7 a1be
00000280: e670 3fbe 7718 ef3d 0893 8a3b 700c 8f3b
00000290: 2175 cb3b b5cc fd3c fe99 3d3d 756b 6d3d
000002a0: 4f2d a2bf 7717 73bf 0df7 9bbf c380 983b
000002b0: 8566 af3b a135 b93b 85f6 cc3c 36ee 593d
000002c0: aab6 103d 6593 88bf 4467 04bf ad8c 65bf
000002d0: 4409 893b bf12 a43b c856 ac3b 266f df3b
000002e0: 1f83 e53b f973 ed3b 6e3c 81bf 003c 44bf
000002f0: 8ab4 86bf a122 c1ba bd3a b3ba 9a16 67ba
00000300: 5cd0 75ba 9ed0 f5b8 8f05 2c3f 0b3c ccba
00000310: cad8 b1ba 9dd0 69ba c55d aaba 69be 91ba
00000320: c15f 873a 7d2d c3b9 87d2 be39 19ae 953e
00000330: 963c 6aba 41ff e8b9 5864 c1b9 6eeb 13bb
00000340: 5f25 c9ba 6ca3 82ba b21a 96ba 5adc 4cba
00000350: b3da 9339 6aeb e1ba ab3f c6ba 1877 a9ba
0.0007257178 0.004252869 0.004420664 0.13017729 0.58119255 0.005404769 0.07301884 0.4323949
0.11366716 -0.0005306574 -0.0018502258 -0.028450495 -0.0011534124 -0.0025946884 -0.64729726 -0.7015875
-0.8771964 -0.08212597 -0.00084893836 -0.0043436685 -0.0011345199 -0.0024480366 -0.0040652305 -0.0008770904
0.00084470835 0.00035082127 -7.2430186e-05 -0.41812456 -0.30926007 0.085278645 0.10202964 -0.038520887
-0.12006286 0.067958556 -0.07175428 0.04365594 0.090812854 -0.26670378 -0.139818 0.17208773
-0.12958027 -0.18972719 -0.16088133 0.10197768 0.06264246 -0.29110348 0.14237708 0.086559266
-0.12549722 0.10476793 -0.20235616 -0.26805323 -0.18044582 -0.14793307 -0.008735768 -0.0046392283
-0.18598543 -0.07571952 -0.21364108 -0.035373345 -0.023838287 -0.036724973 0.036526218 -0.008413114
-0.004435006 -0.13140364 -0.024394415 -0.22044106 -0.03544983 -0.024625735 -0.008900901 0.00234003
-0.009016639 -0.0052639465 -0.10272906 -0.14793508 -0.016417507 -0.03616379 -0.026122514 -0.03869224
0.22172472 -0.00031946765 9.020695e-05 0.00017938146 0.00088909955 0.00044025332 0.00073244073 -0.00010685539
-0.00025060817 0.0005124759 -0.00020530958 -0.000108297034 0.000555119 0.00011194645 0.00031609868 0.00071260624
-0.0002804484 0.00068319944 8.249719e-05 0.0055468 0.8070042 0.10102443 0.005162479 0.406377
0.0059596635 0.002350052 0.0027641307 0.0010198992 0.0052038874 0.00062722 0.0011036963 0.009631632
0.0011774964 -0.0029097921 0.0049175895 0.0011511984 0.001236044 0.0074740862 0.0028674812 0.0013126897
0.41657412 0.0028267684 -0.52806234 0.0020126156 0.0021857002 -9.6995536e-05 0.0069523114 0.002195345
0.0012115303 0.007480135 0.0017301211 -4.129314e-05 0.002150907 0.0019205589 0.00090340374 -0.2150058
0.0076395446 -0.24467723 -0.27020943 0.14389338 0.01988557 0.12585753 -0.21891212 0.049242295
0.103860766 0.08243811 -0.10773971 -0.016104205 -0.1839005 -0.06651397 0.11611327 -0.0054774825
-0.08956406 0.017911837 -0.2646724 -0.022228923 -0.21483476 -0.25327808 0.082606226 -0.31621912
-0.18695411 0.11674588 0.0042289533 0.0043654963 0.006209031 0.030981401 0.046289437 0.057963807
-1.2670077 -0.9495768 -1.2184769 0.0046540215 0.0053527975 0.005652145 0.025019893 0.05320569
0.035330452 -1.0669981 -0.5172007 -0.8966778 0.0041820128 0.0050071175 0.0052593686 0.00681867
0.0070041562 0.007246491 -1.0096567 -0.7665405 -1.0523846 -0.0014735052 -0.0013674122 -0.00088153186
-0.0009377056 -0.00011721368 0.6719598 -0.0015581859 -0.0013568636 -0.00089193304 -0.0012997916 -0.0011119369
0.001032822 -0.0003722719 0.0003639648 0.29234388 -0.00089354196 -0.00044440667 -0.0003688659 -0.0022570747
-0.001534622 -0.0009966916 -0.0011452048 -0.00078148174 0.00028200969 -0.0017236297 -0.0015125176 -0.001292917

0.bias f4 [8]
00000000: c4aa 8ebe 7e55 41be 2f3c 4abe 24c3 f6be
00000010: 0c17 873e 601b 0bbe b3c0 693b c6a6 56be
-0.2786466 -0.18880269 -0.1974952 -0.48195755 0.2638477 -0.13584661 0.0035667836 -0.20962057

2.weight f4 [16, 8, 3, 3]
00000000: cc62 2ebc 5ab2 41be 93de 69bd 8751 11be
00000010: 92eb 283e 1924 433d 3b4c 0f3e c829 2fbd
00000020: 25fe ebbc 882b 6bbe a415 8e3d c119 263c
00000030: 370e 1cbb 3b4b 783d d2e7 3cbd 9f31 853d
00000040: 5f18 a8ba 8bb4 56ba f9c2 90be b287 99be
00000050: d7ea 84be 2d86 03bd 7522 483e 6e74 433e
00000060: 6145 bcbc c23a a4bc 40c5 47be 74d3 6d3d
00000070: d0cb b8bd 6733 b8bd 6c21 11bd 59a8 9dbc
00000080: 53a7 753d f3d9 8dbd be1c 6dbd 1ba9 2dbe
00000090: b285 54be 26d8 5d3c 2729 3dbe 047d 98bc
000000a0: 1426 77bd 592a 03be de1c 873d 11fd 6ebe
000000b0: 69a5 81bc efd5 a93b c32d c2bc a853 56be
000000c0: 3360 8ebe e18f a03a ac7c 5a3d b1ab 3b3d
000000d0: 272e 823e 9542 823c ba57 273d 0c1d b93d
000000e0: 897e 60bc 01fb 04bd aba4 cfbc f818 4abe
000000f0: 545a 8dbe c26a 90be 98af babe 549d 063e
00000100: 2443 32bc 105f c4bb 388c 13be 2805 87be
00000110: 1631 4bbe e36c 2cbe d77d cfbc 27ee 693d
00000120: 4fb2 743f 440a d63f 694f cb3e c1bc 153f
00000130: 0618 2f3f 78f0 673d 475a ed39 1bb7 9b3b
00000140: 3971 c43a 2146 a539 9978 3438 edf3 b63d
00000150: b4a7 28ba 823a 18bc 8b7d c1b9 b157 a8bd
00000160: bb86 49be a715 b7bd bd94 9839 34ff 6c37
00000170: 0294 11bc fbaa 3336 9170 9cbb 52d5 31bb
00000180: aa16 9f3e 26ed 213e dbbf 063d ad87 efba
00000190: 210a c4ba 8c6b 02bb d314 01ba ca24 9fba
000001a0: e34f 46be 684f 66ba 42c7 7eba 4aa2 3cba
000001b0: c4cb 2139 7900 813a 5fca e3b7 d5d3 9e3a
000001c0: 859b 393a 493d 02ba ec27 ef39 5a53 4bb9
000001d0: dd57 d7b8 53ce 993c 9b4c afbd db16 8dbe
000001e0: 2dba bfbd 141e 97bd 7d9c 87b3 83da 5abd
000001f0: ae42 79bd 0c1e 413d 8b61 213c af25 9537
00000200: cc34 62b8 66fd eabd 3758 dfbd 5320 12bf
00000210: 81d8 85bb 7ab8 0bbd 6644 c0be 0123 fbba
00000220: 96f9 febe 0ebb 70be 9778 f2ba e6ee 00bb
00000230: 2139 73ba ad4f 4db9 c637 99b9 f26c 5fba
00000240: 9f1f a5bc a132 9c3c f3b2 253d 92c6 883d
00000250: 5cd5 9abc efaf 5c3d cdee cd3d 1df5 6a3c
00000260: f357 693c b53d 873e ee16 303e 5ea2 cf3e
00000270: f416 c83c 026d 403e 0c4d d03d ec1e 4f3e
00000280: 7308 643e 74cf 953e 113a b6be 7b4f 23be
00000290: 4313 9ebc 2569 9cbe eb87 5cbe e1a8 fabe
000002a0: 8a56 9c3c a9eb a83c c6dd ccbd b9eb d0bd
000002b0: aeb0 8cbd 57b2 2c3e 5a23 9fbb f432 13bc
000002c0: eaa5 cc3d 29be 38be 0212 5ebe 91a7 813c
000002d0: e9bc 05be 8637 3abe 73b7 cdbc 02dc 59be
000002e0: 1ccf 2dbe f7b6 48be 7c23 0bbe c66d 80be
000002f0: 633a bbbd f008 efbd a106 743d 48f1 d2b6
00000300: 147a 0d3e 0bcb e33b 9e5f f9bd 74db a5bd
00000310: 12de f33d ba05 d33d 7a4b 0dbd 5927 9cbd
00000320: b9af 123e e3f8 4d3d 0798 0bbe a47b 053c
00000330: 19e0 a5bd 0d34 d2ba dc0b 8cbb 2743 1dbe
00000340: 7742 2ebe 3b51 44be 26d2 2cbd c8fb c8bd
00000350: a83d 2abe 3d00 60bc 3624 14bd c0f5 31bd
00000360: 1597 cebb e8fb 08bc 6537 95bb d92b c8bc
00000370: b092 a5bb 6fe3 16ba d75a 74ba a665 7fbc
00000380: c564 a6bc dfa6 8db9 55e6 08bd bf01 d33d
00000390: ee3f 35be 35a9 90b9 0380 33bc 61e4 e63d
000003a0: 22e7 293e 7d7f 6dbe af21 0c38 96a8 7bb7
000003b0: 4bdc bdb8 682a 513d ccb2 86b8 4abc 9fbf
000003c0: 46f1 8239 ec59 debe d9e9 923b d0d7 55bf
000003d0: 93c6 e7bf 4734 18bb 71aa 46bf 820f 9a39
000003e0: d617 703b fdf3 b7ba e153 723b 1fe2 803e
000003f0: 6a19 f138 45c9 efb8 8013 07c0 37fb c539
-0.010643672 -0.18915692 -0.05709703 -0.14191256 0.16496113 0.047641847 0.13993923 -0.042764455
-0.028807709 -0.22965825 0.06937721 0.010137976 -0.0023812184 0.06061862 -0.04611952 0.06503605
-0.0012824646 -0.0008190355 -0.28273752 -0.2998634 -0.2596042 -0.032110382 0.19544394 0.19087383
-0.022982301 -0.02004755 -0.19508839 0.058062986 -0.09023249 -0.08994179 -0.035432264 -0.019245313
0.059974026 -0.06926336 -0.05788874 -0.1695904 -0.20754126 0.013540303 -0.1847273 -0.0186143
-0.06033905 -0.12809123 0.06597303 -0.23338725 -0.015825944 0.0051829736 -0.023703462 -0.2093035
-0.2780777 0.001224991 0.053341553 0.045818035 0.25425836 0.01590089 0.040855147 0.090387434
-0.013702043 -0.03246594 -0.025347074 -0.19736087 -0.27607977 -0.2820645 -0.36462092 0.13145953
-0.010880265 -0.0059927776 -0.14408958 -0.2637112 -0.19842944 -0.16838412 -0.02532856 0.057111885
0.9558458 1.6721883 0.39709023 0.5849114 0.6839603 0.056625813 0.00045271424 0.0047520525
0.0014987356 0.00031523503 4.302766e-05 0.08933244 -0.0006433681 -0.009291293 -0.00036905365 -0.08219851
-0.19680302 -0.08939677 0.00029102518 1.4126115e-05 -0.0088853855 2.6772602e-06 -0.004774161 -0.0027135205
0.3107198 0.15813121 0.03289781 -0.0018274687 -0.0014956632 -0.0019900529 -0.00049240625 -0.0012141701
-0.19366412 -0.0008785636 -0.0009719023 -0.0007195814 0.00015430065 0.000984206 -2.7154745e-05 0.0012117574
0.0007080364 -0.00049682386 0.00045615376 -0.0001939064 -0.00010268365 0.01877514 -0.08559533 -0.275565
-0.09361682 -0.07378784 -6.3148924e-08 -0.053431045 -0.060854606 0.047147796 0.009849916 1.7779732e-05
-5.393177e-05 -0.11474113 -0.109054975 -0.5708057 -0.004084647 -0.034111477 -0.37552184 -0.0019160212
-0.49799794 -0.23508856 -0.0018499073 -0.0019673645 -0.0009278227 -0.00019580005 -0.00029223989 -0.0008523009
-0.02015668 0.01906711 0.040453862 0.06678499 -0.018900566 0.05387872 0.10055313 0.014340666
0.01424216 0.26414266 0.17196247 0.40553564 0.024425007 0.18791583 0.101709455 0.2022664
0.22268848 0.29259837 -0.35591176 -0.15948288 -0.019296294 -0.3054897 -0.21536224 -0.4895697
0.019084234 0.020620184 -0.100032374 -0.102012105 -0.068696365 0.16864906 -0.004856509 -0.008984316
0.09992583 -0.1804129 -0.21686557 0.015826972 -0.13060345 -0.18185243 -0.02511189 -0.21275333
-0.16973537 -0.19601046 -0.13587755 -0.2508375 -0.09141996 -0.116716266 0.059576634 -6.2865765e-06
0.138161 0.006951695 -0.12176441 -0.08098498 0.11907591 0.10303827 -0.03449581 -0.076246925
0.14324845 0.050286185 -0.13632213 0.008147154 -0.08099384 -0.0016037241 -0.0042738747 -0.15357648
-0.17017542 -0.19171612 -0.0421926 -0.098136485 -0.16625082 -0.013671932 -0.036167346 -0.043447256
-0.0063046315 -0.00836084 -0.0045537227 -0.02443497 -0.005052887 -0.0005755936 -0.00093213975 -0.0155882
-0.020311723 -0.00027017944 -0.033422787 0.103030674 -0.17700168 -0.0002759189 -0.010955813 0.112740286
0.16592076 -0.23193164 3.340997e-05 -1.5000018e-05 -9.053255e-05 0.051065832 -6.4229214e-05 -1.2479336
0.00024975295 -0.4342798 0.004483443 -0.8353243 -1.8107475 -0.002322452 -0.7760382 0.00029384723
0.00366353 -0.0014034506 0.0036976265 0.25172517 0.00011496509 -0.000114338975 -2.1105652 0.00037761938

2.bias f4 [16]
00000000: 3c45 b6bd bbc7 8c3d eb87 10be 2598 a6bd
00000010: 857b e33d d877 9abe 9944 9cbe eed3 6b3d
00000020: 902d 39be 3e47 fbbc c9f0 26bd 3b5f 693e
00000030: b469 45be 4675 68bb 6f7a dc3d 8930 0dbe
-0.08899924 0.06874033 -0.14114349 -0.08134488 0.11107544 -0.3016956 -0.30521086 0.05757516
-0.18083787 -0.03067362 -0.040756974 0.22790234 -0.19278604 -0.003547029 0.1076554 -0.13788046

4.weight f4 [16, 16, 4, 4]
00000000: 442c bfbd e170 c5be 1839 8ebe 43fa d1be
00000010: bfd0 bdbe e70a 90be 5452 ffbe 077a 42be
00000020: eaf2 82be 9ff6 27be d437 22be 30da 3bbe
00000030: a7b6 9bbe 37a2 6cbe 2d23 2cbe 06ec 78be
00000040: d72c 29bd 0b78 6abd de8d 02be 5f2a 9c3c
00000050: 9d3e 42bc f57d bebd cb2d 86be 8801 0fbc
00000060: 84ee c2bd 01f9 f6bd 0bde f9bd 46ce 2ebd
00000070: 4220 ebbc e752 afbd 53f0 8abd 4e41 44bc
00000080: b5ba 5cbe 0066 7ebc b567 3abc cb74 32be
00000090: 0fe0 9bbe ed7c 0abd 14df 613d b3cd b53b
000000a0: 6fc4 06be 130d 1bb9 4281 0cbc b925 34bb
000000b0: 4adf 21be d332 373d 32d2 733b a184 f1bd
000000c0: 55e1 55bc 2899 32bd e7c3 183a c6a7 5b3d
000000d0: bc7a 94bd 1fa3 64bc b792 483c ed82 f93c
000000e0: 2421 8abd cba8 423c 3799 0dbc d05c 7bbd
000000f0: e244 e5bd 004a a73d fe33 c5bd 1845 27bb
00000100: bb90 8fbd cc5a 08bd f968 183c cef0 fc3c
00000110: 7063 93bc e57e 19bd 5118 bb3d 26a0 323d
00000120: 99f6 edbd b5f0 81bd 1c85 4abb a1a1 6a3d
00000130: 01ca 0dbe 8e45 17bc dbfb bcbc de7a 923c
00000140: 919a 57bc 70e6 02be 79b5 78bd 2459 acbd
00000150: bf2f 18bd f851 eebd 6f01 18bd c513 a3bd
00000160: 2c9c e8bc 397e 15bd a66b 58bd b35d 4dbd
00000170: c435 eb3d a7c3 48bb abd9 523c c058 ff3d
00000180: f110 bd3c 323c 7a3c 10a8 a83d 7da0 063e
00000190: a091 523d 6ca2 993d 35bf d83c be34 77bd
000001a0: 447d 0bbd 344e 7b3c 21c9 753c b0c2 c43b
000001b0: bb1a 7d3c 138f d5bc b1e4 b5bc 69e6 bdbc
000001c0: 0941 e4bc 6590 39bd ba92 5c3d dc16 4abd
000001d0: 3c62 05be 400b d8bd 35b4 9c3a 0fdc f03b
000001e0: 016b 28be bd82 f1bc 9422 cabd dd84 cebd
000001f0: ba98 00be ce1b 62bd 70f8 acbd 8cc1 c5bd
00000200: 01d2 2abc 192e 6d3d 8890 483d b880 4c3d
00000210: 19cc 3ebd 7bbf 81bc a786 3838 3947 ebbc
00000220: 31b9 cb3b dcc5 86bc 4c41 503d 709b 013d
00000230: 201b f6bc d42a c4bc 5eaf 02be 76a7 a7bc
00000240: e1df 3bbe 7c93 70be 3ab5 b6bc 87f3 413c
00000250: 7788 5abe a8a0 09bd 1f42 9dbc 8987 7ebd
00000260: 7ea9 88be f349 6dbe 528d c1bd 16a0 8dbc
00000270: cfa1 56be 8ff3 6cbd f4ec b3bd 7989 5bbc
00000280: 0df0 2cbe 76b6 453d dd6d 97bc 7202 aa3d
00000290: 48a9 7cbe 42fa 86bd 3c13 35bd 2f57 b93c
000002a0: 0b2a 53be fe2e 35bd 45e9 c7bc 361a c23c
000002b0: 6455 72be c709 e0bd e44e 07be bb52 cabd
000002c0: 33a8 43be 0088 f5bd 2960 99bd 80d8 f1bc
000002d0: 9685 b3bd 50af e7bd 5fc9 c4bd dd88 b8bd
000002e0: 4e8c 80bd 0b34 febd 4a6a 9cbd 461d 38bd
000002f0: 89c2 30bd 3f20 1ebd 537f 20bc 4a31 163c
00000300: de58 e23c d81f b4bd 7139 bebd b0f9 343d
00000310: 7fd1 01be 0417 27be db1d 0ebe bad2 ffbd
00000320: 880d 36bd cbc6 b4bc ce90 9fbd 29ee 21be
00000330: 1505 e1bd 6439 38bd 4810 49be 280b d1bd
00000340: e348 6c3d ac53 febc b930 8cbe 0690 5f3b
00000350: 9bfd 88bd f483 2ebb 3185 90bd 1cb2 d7bd
00000360: 4743 e03d 7789 58bc 9c05 4fbd aca4 e0bd
00000370: 3576 f03c 50f3 143e 8a81 6ebd f1fd 96bd
00000380: 8f8c 12be 208a 09be d1ea 60be e12f acbd
00000390: 2bda 82bd 3061 17be 63ee c2bd 073d c73b
000003a0: 656e 02bc 206d 1f3e cd26 b3bd d494 a0bd
000003b0: 963c 973d 64ea 31bd db8f 653c aaef edbd
000003c0: 136d 263c de6a 3dbe d675 32be b5ed 4abb
000003d0: 4895 96be 95ae 72be 55ca f9bd 47b7 82bc
000003e0: ea36 fdbe ff13 d5be cb79 68be 0e3c 44be
000003f0: ed9a 17be b7fa d8bd d475 31be e9b0 d7bd
-0.09334615 -0.38562682 -0.27777934 -0.41011247 -0.37073323 -0.28133318 -0.498675 -0.18991862
-0.25575954 -0.16402672 -0.15841609 -0.1834495 -0.3041279 -0.23108755 -0.16810293 -0.24308786
-0.04130253 -0.05724339 -0.1274943 0.019063173 -0.0118557485 -0.09301368 -0.26206812 -0.008728392
-0.095181495 -0.120592125 -0.122005545 -0.042677186 -0.028701905 -0.08560734 -0.067841195 -0.0119784605
-0.21555598 -0.015527248 -0.011377265 -0.17427365 -0.3044438 -0.033810545 0.055144385 0.005548203
-0.13160871 -0.00014786822 -0.008575739 -0.0027488305 -0.15807834 0.044726204 0.0037204144 -0.11792875
-0.013054212 -0.043603092 0.00058275316 0.053626798 -0.07249972 -0.013954907 0.012242011 0.030457938
-0.06744602 0.011881064 -0.008642486 -0.06136781 -0.11194779 0.08168411 -0.09629057 -0.002552336
-0.07010027 -0.033289716 0.009302371 0.030876543 -0.017991751 -0.03747453 0.09135497 0.04360976
-0.116193004 -0.06344739 -0.0030902093 0.057283048 -0.1384659 -0.009232892 -0.023069313 0.017880853
-0.01315941 -0.12783217 -0.06071994 -0.0841544 -0.03715491 -0.11636728 -0.037110742 -0.07962755
-0.028394781 -0.03649733 -0.052837037 -0.050138187 0.11484864 -0.0030634196 0.012869279 0.124680996
0.023079367 0.015273141 0.082351804 0.13147159 0.05140841 0.07501683 0.026458362 -0.060353033
-0.03405501 0.015338469 0.015001566 0.006004654 0.015448268 -0.0260692 -0.022203775 -0.023181157
-0.027863042 -0.04530372 0.053850867 -0.049338207 -0.13025755 -0.10549021 0.0011955561 0.007350452
-0.16447069 -0.029481286 -0.098698765 -0.100839354 -0.1255826 -0.055202298 -0.08445823 -0.09656057
-0.010426045 0.05790529 0.04896596 0.049927443 -0.04658136 -0.015838375 4.3994423e-05 -0.028720485
0.006217145 -0.016451769 0.050843522 0.031642377 -0.030042231 -0.023946203 -0.1276221 -0.020465594
-0.18347122 -0.23493761 -0.022303212 0.011837847 -0.2134112 -0.03360048 -0.019196568 -0.062140975
-0.26691812 -0.2317274 -0.09450783 -0.017288249 -0.20960163 -0.057849463 -0.087854296 -0.013399475
-0.16888447 0.04826971 -0.018485004 0.08301248 -0.2467395 -0.06590702 -0.044207796 0.02262458
-0.20621507 -0.04423427 -0.024403224 0.023694139 -0.23665386 -0.10939365 -0.13213688 -0.09879061
-0.19107132 -0.119888306 -0.07489044 -0.02952218 -0.08765714 -0.11312735 -0.09608721 -0.090104796
-0.06276761 -0.1241227 -0.076374605 -0.044949792 -0.043154273 -0.03860497 -0.009795981 0.009167025
0.027630266 -0.08795136 -0.092883 0.044183433 -0.12677573 -0.16317374 -0.13878576 -0.12491365
-0.0444465 -0.022067448 -0.07791291 -0.15813507 -0.109872974 -0.044976607 -0.19635117 -0.10207206
0.057686698 -0.031045757 -0.27380922 0.0034112944 -0.066889964 -0.0026628943 -0.07056654 -0.105320185
0.10950332 -0.013216368 -0.05054246 -0.10968909 0.02935324 0.14545941 -0.058229007 -0.07372654
-0.14311431 -0.13431597 -0.21964575 -0.0840757 -0.063892685 -0.14783168 -0.09518125 0.006080273
-0.00796089 0.15568972 -0.08747635 -0.07840887 0.07384603 -0.043436423 0.014011349 -0.11617978
0.010157841 -0.18497798 -0.17427763 -0.0030964438 -0.29410768 -0.2369941 -0.12196795 -0.015956534
-0.4945596 -0.41616818 -0.2270271 -0.19163534 -0.14805193 -0.10594695 -0.17330104 -0.1053179

4.bias f4 [16]
00000000: 139c 67bd d1e7 a1be 1d8f 343e 5336 d1be
00000010: 155b a5bd acfd 07be 3b9e 1cbd 9934 09bd
00000020: 337f 46bd 280e 9b3d f591 bdbc 7461 98bd
00000030: c7d6 bebc 7db4 08be 91b4 a03d 95d9 7ebd
-0.05654533 -0.31622174 0.17632718 -0.4086176 -0.08074013 -0.13280362 -0.038236838 -0.033497427
-0.04846115 0.075710595 -0.023140887 -0.07440463 -0.023295773 -0.13350101 0.0784694 -0.06221922

7.weight f4 [128, 1024]
00000000: 203e 313d 9f57 613d a85b 743c 0866 b8bd
00000010: 74b7 eebd 97c4 f73c 442d f8bb 5cb2 beba
00000020: d894 98bd 0556 c6bd a694 f0bd 8245 353d
00000030: c5f5 44bd 05c9 b63c bab2 05bd a5be 8ebb
00000040: 0184 c3bc da29 96b8 0778 9c3b 5161 ee3d
00000050: 0ee5 8c3c 60cc e8bc a166 8d3d 8d3c 00be
00000060: 9922 dbbd 44ec 843e 5c7c 0b3e ca7b ebbd
00000070: 531a 59bd 31a3 c6b6 ae08 dcbc d2e4 cfbd
00000080: 8a44 dc3c 5bd7 2d3e 28ad 0dbe 52fe 91b7
00000090: 7f3c aebc 1aad c03d fa86 cb3d d02f eabc
000000a0: 6c6c 243e 56f9 053e c64a b43d 5cc9 91bd
000000b0: cdbf 0bbe ea60 45bd 9afb a0b8 86f5 b0bd
000000c0: 0d34 c63d c6db 7ebd 535a 88bc 57d1 ccbd
000000d0: 7ba1 51bd 5300 bd3c d25d e63d cdde 0238
000000e0: 7c35 9a3d 78a4 c83d 7dec e5bd 71f3 bcbb
000000f0: 0e5a d636 108a b1bc b56d 7d3d d070 6e38
00000100: 82d8 c8ba 6eec 47ba 641b 633a 7112 8cba
00000110: 9f67 343b dd91 22bb 5b63 fe3b ef9b 513b
00000120: 19c0 573a 6c65 103b 67af 0e3a 201c 30ba
00000130: b4c5 193c 130e d8ba a161 fd3b d074 a63b
00000140: 0232 0f3c 6651 363c 3040 973a 9fae 743c
00000150: 9933 bc3b 8d69 6139 a4b1 1b3b d130 903a
00000160: 90e3 32b9 e305 a13b d254 4339 f230 1e3c
00000170: bef1 b039 cbce 873b 0ecd 383c 92c1 41b8
00000180: f16b 02bb d9df 5e37 6a50 733b 9c29 c4ba
00000190: eca6 2a39 6cdf 1cba 1e49 653b 11c6 9d39
000001a0: 577e 5d39 43f4 f839 b5c9 de39 9bf3 e9b9
000001b0: d997 f139 ab0d 6fbb a1e7 2339 657b d939
000001c0: 7310 c83b 6133 21ba ea9d 053b dfdd 20bb
000001d0: 6949 0dbb a88a 393b 1ea4 aaba fed4 4fbb
000001e0: 88fa 2f3b b255 243a 23a8 c83b d8d6 22ba
000001f0: 46f4 09ba f27e 1dba 6ca1 37bb 8f9a cb3b
00000200: b178 103c 8889 b23b 3652 463b 9270 2f3a
00000210: fd2a 683b 35d7 6b3b 78c8 223b 3655 d23b
00000220: 5d9b 883b a2b8 c83a 20d3 393b 07d1 903b
00000230: 6389 5f3a f050 41ba c362 443b 293e 263b
00000240: 4018 fd3a 5f3f b2b8 337a f1ba f7d3 10bb
00000250: 9c12 053a a132 163a 4813 443a d3dc bb3b
00000260: 4638 113b 3220 eb39 c90b a9ba 2745 70bf
00000270: 54be 0abf 483a 4ab9 fdea 083b 5327 9b3b
00000280: f436 db3a 17e5 6eb9 c337 b6ba fdec 25bd
00000290: 1a32 f9bc 0a78 8fb9 7634 963b 2caf 5939
000002a0: 8fc1 f63b ace8 713b 445f 1e3b 9dc1 a23b
000002b0: 6931 cf3a 85bf 843a 36bb 7e3b c257 933b
000002c0: 0837 dc3e b402 363c cac4 2f3c 8d8a 7f3b
000002d0: 7780 4d3b e5c7 9d3b 8f9d d93c 6ed3 c73b
000002e0: 4f7d 253c f376 173f 53b0 683b bb3b 353c
000002f0: c622 7b3c 76e9 2f3b af0c ce3d 541d e3ba
00000300: 18c9 173b 2100 58be be06 c73c 4c1b c8bb
00000310: 5d18 8e3b 9006 96bb b823 533c 828c 61bf
00000320: af08 dc3a d63f 9b3c 1078 813c 9187 b03b
00000330: 7c91 873c ceda 1b3c c5f1 883c 11a2 9abc
00000340: c7fa b1ba af76 a33b f604 353c 15d4 013d
00000350: df88 2b3c 3fc8 9cbb 5055 703c f4e9 12bc
00000360: 7a12 f8ba 2456 4b3c 673c 05bb 09e5 b53b
00000370: 26bd 3c3c 2ce7 13bb 2bc9 df3b 2909 adbb
00000380: cfae a23b ee67 863b 9a55 4b3c 0a1d d6bb
00000390: 763e dd3b 2346 463b c302 a43b 6114 debb
000003a0: ea18 22bc 6eaa 4bb8 1f51 2c3c 2bf7 82bb
000003b0: 8dc1 073b b2a2 023c e90f 1e3b cd09 053b
000003c0: 761a 593a d52b a03b 97fc 063c 075e 4ebb
000003d0: ca88 6bba f899 4b3c 30b3 c53b 654b 873b
000003e0: cd82 fd38 d807 333b 03e9 e73b 512b aaba
000003f0: 0e83 303e 892e 01bb 056c f03b e45d b63a
0.043272138 0.055015203 0.014914431 -0.09003836 -0.11656085 0.030245109 -0.0075737555 -0.0014549005
-0.07450265 -0.09684376 -0.117471024 0.04425574 -0.048085947 0.02231265 -0.03264115 -0.0043562227
-0.023866655 -7.160353e-05 0.0047750506 0.116396554 0.017199066 -0.028417766 0.069043405 -0.12523098
-0.10699958 0.25961506 0.13621658 -0.1149822 -0.05300362 -5.919858e-06 -0.026859608 -0.10151066
0.02688815 0.16976683 -0.13835585 -1.7403774e-05 -0.021269081 0.094080165 0.09937854 -0.028587252
0.16056985 0.13083395 0.088033244 -0.071184844 -0.13647385 -0.048188128 -7.676259e-05 -0.0864058
0.09677897 -0.06222131 -0.016644632 -0.10000866 -0.05117939 0.023071444 0.112483636 3.1201915e-05
0.075297326 0.09796995 -0.11226747 -0.005766325 6.3881807e-06 -0.021672279 0.061872203 5.6848687e-05
-0.0015323313 -0.00076264783 0.00086634443 -0.0010686648 0.0027527583 -0.002480618 0.007763309 0.0031983813
0.0008230224 0.0022033108 0.0005443007 -0.0006718058 0.009385515 -0.0016483687 0.0077325855 0.005079843
0.00873995 0.011127805 0.0011539515 0.014934211 0.0057434556 0.00021496993 0.0023757005 0.0011000877
-0.00017060176 0.004914032 0.00018628247 0.009655224 0.00033749448 0.0041445247 0.011279358 -4.6195062e-05
-0.0019900764 1.328435e-05 0.0037126788 -0.0014966014 0.00016274647 -0.000598422 0.0034986208 0.00030092945
0.00021123268 0.00047484235 0.00042493423 -0.00044622723 0.00046080237 -0.0036476653 0.0001563118 0.000414814
0.0061054765 -0.00061493187 0.0020388314 -0.0024546308 -0.0021558648 0.0028311405 -0.0013018881 -0.0031712647
0.002685221 0.0006268873 0.006123559 -0.0006211824 -0.0005262535 -0.0006007991 -0.00280198 0.006213493
0.008817838 0.005448524 0.0030261404 0.00066924945 0.0035426014 0.0035986428 0.0024838727 0.0064188493
0.0041689114 0.0015313814 0.00283546 0.0044194493 0.0008527247 -0.00073744263 0.0029966093 0.002536664
0.0019309595 -8.499505e-05 -0.0018423259 -0.0022098997 0.00050763204 0.000572959 0.000747968 0.0057331114
0.0022158786 0.0004484668 -0.0012897189 -0.9385552 -0.5419667 -0.00019285933 0.0020892017 0.0047349124
0.0016724751 -0.00022782791 -0.0013902116 -0.040509213 -0.030419398 -0.00027364522 0.0045838905 0.0002075999
0.007530398 0.0036912365 0.002416567 0.004966928 0.0015807572 0.0010127878 0.003886891 0.0044965455
0.43010736 0.011109043 0.0107280705 0.0038992495 0.0031357089 0.004815089 0.026564388 0.0060982024
0.010100677 0.5916588 0.0035505488 0.011061604 0.015328115 0.0026842034 0.10061013 -0.0017327466
0.0023160633 -0.21093799 0.024295207 -0.0061067697 0.0043364004 -0.004578419 0.012886934 -0.8810502
0.0016787256 0.018951338 0.01580432 0.0053872545 0.016548865 0.009512616 0.016716847 -0.018876107
-0.0013578766 0.0049885134 0.011048546 0.031696398 0.010469644 -0.0047846134 0.014668778 -0.008966912
-0.0018926405 0.012410674 -0.0020330192 0.0055509848 0.011519706 -0.002256821 0.006829401 -0.005280633
0.0049646865 0.004101745 0.012410546 -0.0065342234 0.0067518307 0.0030254207 0.005005212 -0.0067773317
-0.009893635 -4.8557697e-05 0.010517388 -0.00399675 0.002071473 0.00797336 0.002411837 0.0020300031
0.0008281836 0.0048880377 0.008238933 -0.003148915 -0.0008984922 0.012426846 0.0060333237 0.004128861
0.00012088344 0.0027317908 0.0070773377 -0.001298288 0.17237493 -0.0019711575 0.0073370957 0.001391348

7.bias f4 [128]
00000000: 4190 2b3e 942f 4839 7b9d c63d 9ae0 063a
00000010: 0acc 10be 6004 3ab9 b3b6 683e f9ca 6ab9
00000020: 0e93 ef3b 6964 dd3d b200 91bb 5af4 233b
00000030: fde5 38bd 47d1 2abc 98ed a93a 7c29 2839
00000040: a9b8 663d 34d6 e7bd 279d 1db8 7bec 043b
00000050: 87d1 043e 8a83 b63d 707d bcbe 85d1 1f3e
00000060: 7153 9438 b975 1cba 0320 a3b9 1e9b 81b9
00000070: cfc8 cabd eb00 a1be 7cfe efb8 0150 4e38
00000080: 1f15 943e 48c6 e4bd bf0a 713e df9b 2ebd
00000090: 1f7e a7ba 7406 ce39 171d 203b f48b 4bbb
000000a0: af90 5d3b cdc3 c9ba 5a81 0d3e d1e8 923b
000000b0: ea62 0abe 7d77 c33e 6618 0dbb 64e9 853d
000000c0: 5af2 cd3a 854f a43b 59ab abb7 0336 ccb8
000000d0: 2333 f7bd b8a6 b0b9 c4b2 013e 2c4d aeb9
000000e0: f6e6 4e3e 6fa5 5cbd 592b 723d 07f2 9f3d
000000f0: c3b8 3eb9 8679 903a 9d93 2abd e88c ce3e
00000100: 025b 80be 514c 86bd 4049 e33a bfb5 ce3d
00000110: d049 86ba 53bd f1bd a61c 01bc 5e9a 0cbe
00000120: 0f89 1fbe b0ff 0c3e d605 043c 657a c938
00000130: 87e3 2ebe d342 dbbe 1b50 8539 0c23 4abe
00000140: ad66 09be 6353 03be 0a7e d13a 3fff 863e
00000150: 3413 673c c87b a03c bc31 b0bb c614 dd3e
00000160: 4f8c 843d b4f8 c7be c82a eebd 41dd 9cbd
00000170: 787f b23e 9dac b53b f4fd a4bd b504 8e3b
00000180: 3a66 56bd c2da 72bc 19e4 49bd 8ed2 afbd
00000190: 84fa edba 8b71 6cbe f03f 303b 572b e63a
000001a0: 2840 4e3e 5d25 bfbd ed05 ffbc 2d77 dabd
000001b0: df93 8239 a4dd b2bc d865 683e 3435 41be
000001c0: 1987 9d3b 5442 0a39 b6bd 623b 9905 acbb
000001d0: abec 54bd a08f 50bd fc2c 093e 4e75 6abb
000001e0: 740b 3ebe cf1a 60bb e9d8 1cbe 1825 083a
000001f0: b843 273e 2810 4a37 9187 0bb9 199a 563d
0.16754247 0.0001909121 0.09698006 0.00051451626 -0.14140335 -0.00017739972 0.22725944 -0.00022391592
0.0073112315 0.10810167 -0.0044251317 0.002501747 -0.04514121 -0.010425872 0.0012964485 0.00016037183
0.05632845 -0.11320153 -3.7578076e-05 0.0020282555 0.12970553 0.08911808 -0.3681445 0.15607269
7.072732e-05 -0.000596847 -0.00031113633 -0.0002472037 -0.099015824 -0.31446013 -0.000114438095 4.9188737e-05
0.28922364 -0.11170632 0.23539256 -0.04262912 -0.0012778676 0.0003929619 0.0024431401 -0.003105876
0.0033808162 -0.0015393436 0.13818875 0.0044833203 -0.13514295 0.381771 -0.0021529435 0.06538656
0.0015712485 0.0050143623 -2.0464578e-05 -9.7375385e-05 -0.120703004 -0.0003369355 0.1266585 -0.00033245364
0.20205292 -0.053868707 0.05912337 0.07809835 -0.00018188641 0.0011022545 -0.04164468 0.40341878
-0.25069433 -0.06557525 0.0017340556 0.10093259 -0.0010245387 -0.11803689 -0.0078803655 -0.13730761
-0.15579627 0.13769412 0.008058032 9.607225e-05 -0.17078982 -0.4282442 0.0002542742 -0.19739932
-0.13418074 -0.12824778 0.0015982997 0.26366612 0.0141036995 0.019590273 -0.0053770225 0.4317991
0.06472074 -0.39056933 -0.116292536 -0.07659388 0.34862876 0.0055442587 -0.0805625 0.004334057
-0.052343585 -0.014822664 -0.049289797 -0.08585082 -0.0018156325 -0.23090188 0.0026893578 0.0017560524
0.20141661 -0.09333298 -0.031130755 -0.10667262 0.00024905705 -0.021834202 0.226951 -0.18867952
0.0048073647 0.00013185415 0.003459794 -0.0052496907 -0.051983517 -0.05091822 0.13396066 -0.0035775485
-0.18559057 -0.0034195667 -0.1531712 0.00051935157 0.16334426 1.20439e-05 -0.00013306575 0.052393053

8.weight f4 [10, 128]
00000000: 6fed 8f39 5076 b6b6 8dc4 e0b8 03d6 be39
00000010: 3af1 2939 a59a 6f39 1738 5dba 2f1a c839
00000020: 6b8f 26ba 88cd 0638 cad8 1eb9 24b6 a5b9
00000030: 7165 4838 8962 cbb8 fe6f 88ba 3cf4 4db6
00000040: f6db 8d39 be6f 0cba d28c 9536 f4ed d439
00000050: eb84 c4b9 c2ac 61ba ad7c 043f f84b c139
00000060: 77e5 45b8 c242 9fb8 37ba 1e3a e649 01ba
00000070: b2c2 043a e8c0 853e 7a40 8cb7 f8f1 c0b7
00000080: f831 b2be 8639 8cba abe8 ccb9 5df7 08ba
00000090: 1ce0 d6b7 2b17 f6b7 3dd4 02b8 f19b 103a
000000a0: 679c 05ba 9348 14b8 37f8 81ba c54b 9fb9
000000b0: 5c91 2cb9 00ad e0be 1d8d 1c39 6c0d b639
000000c0: e9c9 c3b9 09cb f6b9 8a3e 2db6 79c2 e637
000000d0: 53b5 09b9 391c 6637 54e1 21ba e7a9 8a38
000000e0: 6648 19b9 7e01 f5b9 a281 abb8 1d07 d5ba
000000f0: bc6c 3038 bf76 9239 26d3 8739 5fb7 25bf
00000100: 12d8 9d39 6c08 4ab9 8bf0 5ab9 1272 93ba
00000110: 24ea a039 24c9 0339 f562 883a 8e12 1f3a
00000120: 09d1 a639 8ddb 5039 8e8c 9239 7d01 19b7
00000130: 12ac b63a b170 bc3e f144 9837 acc8 b339
00000140: 9bb7 24b9 1720 2f3a cdce 0e3a 41de 84bd
00000150: bdc3 bbb8 6743 1f3a 9284 08ba f9de 0cba
00000160: 937a 64ba 100b b63e 097b 1b39 2a8d 573a
00000170: 0cb8 93ba 6cea 95ba 046a 8a39 cf3f ca39
00000180: 0cde 8d37 1919 3f3a 80a5 103a 0436 f9b7
00000190: 4bf2 5139 5022 b339 b432 8337 c123 cdb8
000001a0: 6fe6 e738 374c d139 b04c f6b9 7f3c 2239
000001b0: 34c0 4437 8d6f 97b9 2b12 e8b9 1eae 363a
000001c0: 17a3 b6ba ba7b 2cb9 e2b0 9bb8 4f52 0538
000001d0: 084f 2bb9 5469 813a 5d15 a6ba 4572 493a
000001e0: 7335 f3b8 8273 bd39 ee1c 913a 6ca1 de37
000001f0: 6e6f 06ba b9ea 9037 c7f1 b237 ce4a 7fb9
00000200: 90e6 a6ba 4e5e deb7 a791 bbba da1e 7a38
00000210: 310d 6438 bf65 ab39 ff21 8439 7eff bbb8
00000220: 1264 5eb8 e816 aeba 5885 28b9 767c 0438
00000230: 3a88 3435 9221 00ba d2a7 fc39 36b7 41b7
00000240: 5be2 c938 f4b0 383a 2558 2636 3942 dcb9
00000250: ee31 85ba 3d5d fdb9 afe7 fdb9 702d 8638
00000260: 3ddb a037 aea7 69b8 62ed c137 2959 f939
00000270: 4496 493a 94da d2b9 02e6 ad36 1c4d bb37
00000280: 1402 c639 9cbc ae39 5275 313a ce1a e73a
00000290: e133 b938 e96b 7fb7 3254 6139 27d3 9639
000002a0: 6f8a 323a d044 c835 79d2 86b9 404a 7139
000002b0: 3b99 973a d63c aa39 ba0d 72b7 ff5c 55ba
000002c0: 1348 c838 fc6c b93a b3ca 3e37 2e01 9ab7
000002d0: dfc9 88ba 9ce2 2137 51a1 203a b6fc ddb6
000002e0: 1b15 4f3a 1246 993a 4549 45ba d355 bab8
000002f0: aaa4 8d37 41c0 2ab9 6dfb 113a 2b3b 4539
00000300: b62d 8fbe 03d5 8fbe 038c 9439 de56 92b9
00000310: 0a7f 6ab9 35e3 993a e5b8 c6b9 3a7a 1e3b
00000320: a5f6 ddb9 8f23 a5ba 812d 4f3a 7eba cfb7
00000330: 8746 0238 208a 15b9 1406 67b7 4250 11bf
00000340: 7237 9ebe 47b5 08b9 1c92 3ab9 15c7 cfb6
00000350: ba87 f83a c6e2 9d39 050e a9b9 02a5 b339
00000360: af7d 46ba 1467 d1b9 7cc6 6ebe 7aca d6ba
00000370: 3a4b 2db8 f45a f339 c6f4 083a 8f74 22ba
00000380: dc05 473a f6c2 5eb9 695b ffb7 4809 bcba
00000390: 1b8e 3ab8 6c46 a3be acc7 7b39 7703 2c38
000003a0: 5000 3e3b 721a 7f3a 7e43 883a 8945 163a
000003b0: 4848 8b35 51f2 953a a315 0f3f b3f6 9339
000003c0: 5060 6438 8e0a 47b8 eb28 2c39 2663 d238
000003d0: cc81 b9b8 0607 36b7 6b32 8cb9 53e2 6db9
000003e0: b787 97be c984 a23e 4010 fa39 40d3 50b6
000003f0: b5ab a23e 6566 4fb7 c84d bb37 3aea b3ba
0.00027451987 -5.437796e-06 -0.00010717763 0.00036399075 0.0001620696 0.00022850426 -0.0008438839 0.0003816648
-0.00063537684 3.2139505e-05 -0.00015148814 -0.00031606958 4.777819e-05 -9.698148e-05 -0.0010409353 -3.0689544e-06
0.000270575 -0.0005357227 4.4569397e-06 0.0004061308 -0.00037483065 -0.0008608812 0.5175274 0.0003686843
-4.7182166e-05 -7.5941454e-05 0.000605497 -0.0004931971 0.0005064412 0.26123738 -1.6719325e-05 -2.3000859e-05
-0.34803748 -0.0010698296 -0.00039083263 -0.0005224848 -2.5615147e-05 -2.9336274e-05 -3.1192078e-05 0.0005516401
-0.0005096853 -3.535354e-05 -0.0009915893 -0.00030383296 -0.00016457349 -0.4388199 0.00014929888 0.00034723745
-0.00037343733 -0.0004707205 -2.5815411e-06 2.7508695e-05 -0.00013132887 1.3715639e-05 -0.0006175239 6.6119996e-05
-0.00014618188 -0.00046731153 -8.1780614e-05 -0.001625273 4.2062937e-05 0.00027935763 0.00025906524 -0.6473293
0.00030106358 -0.00019267359 -0.0002087971 -0.0011249206 0.00030692026 0.00012568064 0.0010405468 0.00060681335
0.0003181773 0.00019918215 0.0002795201 -9.119857e-06 0.0013936779 0.36804727 1.8151915e-05 0.00034291053
-0.00015708657 0.0006680502 0.0005447686 -0.06487704 -8.953314e-05 0.00060754124 -0.0005207743 -0.00053738017
-0.0008715775 0.35555315 0.00014827786 0.0008222634 -0.001127006 -0.0011437661 0.000264004 0.00038575983
1.6911908e-05 0.00072898116 0.00055178255 -2.9708266e-05 0.00020022054 0.00034167105 1.5640027e-05 -9.7818214e-05
0.0001105786 0.0003992037 -0.00046977913 0.0001547206 1.1727261e-05 -0.00028884076 -0.00044264024 0.00069686945
-0.0013934103 -0.0001644929 -7.423923e-05 3.1786327e-05 -0.00016337272 0.0009873309 -0.0012671162 0.0007684569
-0.00011597099 0.0003613495 0.0011071244 2.653963e-05 -0.00051282987 1.7275439e-05 2.133184e-05 -0.00024346562
-0.0012733508 -2.6508376e-05 -0.0014310376 5.9633378e-05 5.437172e-05 0.00032691468 0.0002520233 -8.964444e-05
-5.3022122e-05 -0.0013281973 -0.00016071403 3.1587166e-05 6.725346e-07 -0.0004887815 0.0004819022 -1.1546354e-05
9.626589e-05 0.0007045411 2.4787234e-06 -0.0004201101 -0.0010161975 -0.00048325388 -0.00048428538 6.398081e-05
1.9175577e-05 -5.5707693e-05 2.3117933e-05 0.0004755941 0.0007689933 -0.00040217175 5.182578e-06 2.2328044e-05
0.0003776705 0.0003332839 0.0006769496 0.001763189 8.8311506e-05 -1.5224309e-05 0.00021489037 0.0002876755
0.00068107893 1.4921188e-06 -0.00025715286 0.00023011211 0.0011566052 0.00032470253 -1.442752e-05 -0.00081391627
9.550168e-05 0.001414686 1.1372077e-05 -1.835878e-05 -0.0010436139 9.649109e-06 0.00061275536 -6.6157327e-06
0.00078995683 0.0011693856 -0.00075258716 -8.885157e-05 1.6885188e-05 -0.00016284084 0.00055687764 0.00018809426
-0.27964562 -0.28092203 0.00028333077 -0.0002791201 -0.00022363305 0.0011740687 -0.0003790326 0.002418174
-0.0004233617 -0.0012599098 0.0007903204 -2.4763165e-05 3.10601e-05 -0.00014261203 -1.3770088e-05 -0.5676309
-0.30901676 -0.00013037502 -0.00017792772 -6.192257e-06 0.0018961348 0.00030114333 -0.00032244637 0.0003426448
-0.0007571829 -0.00039940386 -0.23317903 -0.0016387247 -4.1316474e-05 0.00046416337 0.00052244624 -0.0006197178
0.00075921207 -0.00021244198 -3.0440935e-05 -0.0014346028 -4.44782e-05 -0.31889665 0.00024011609 4.1011222e-05
0.0028991885 0.00097314187 0.0010396091 0.00057324074 1.0377344e-06 0.0011440014 0.5589239 0.0002822183
5.4449134e-05 -4.7455127e-05 0.00016418441 0.00010032048 -8.845664e-05 -1.0849681e-05 -0.00026740445 -0.00022686394
-0.2959573 0.31741932 0.00047695823 -3.111738e-06 0.31771627 -1.2362002e-05 2.2328357e-05 -0.0013726421

8.bias f4 [10]
00000000: d378 b5be 87b4 143e 3f9d 873c 999b 243d
00000010: 6077 1b3e 3323 fd3c 3784 9c3d ed2d b8bd
00000020: 0338 30be 517c 973d
-0.35443744 0.1452199 0.016554473 0.040187452 0.15182257 0.030900573 0.076424055 -0.08993135
-0.17208867 0.07396758
