project_networks/cifar10_cnn_2layer_w2.onnx (onnx, 805923 bytes, 16 tensors)

0.weight f4 [8, 3, 4, 4]
-1.2928268e-05 -0.008057492 8.550439e-06 -0.0114986 0.0010178157 0.047930438 0.0030141824 0.084092624
-0.00079454907 -0.23809035 -0.001837617 -0.033412434 -0.0014830906 -0.09213341 -0.0059910836 -0.12354588
6.0693328e-05 -0.00094153476 0.0003153489 -0.000900648 0.0010119599 0.011890518 0.003274788 0.025928697
-0.00081955286 -0.11243553 -0.0014758025 -0.0011385116 -0.001947723 -0.02496704 -0.006125248 -0.034298934
0.0011585619 0.19892043 0.0040743733 0.27137414 0.0025931764 0.24073622 0.008268385 0.39764622
-0.00044654956 -0.081410006 -0.0012750808 -9.26261e-05 -0.0015859762 -0.22421312 -0.0070822826 -0.24990344
0.001297237 0.20307755 0.0015838076 0.02011034 0.0016355747 0.08203647 0.0017374529 0.0068940166
0.002482126 0.43447244 0.0023858612 0.06313426 0.0014400299 0.049755916 0.0011614657 0.0105779935
2.1389262e-05 0.019037569 0.00028445775 -0.00024511098 0.0003100713 0.0072183902 0.0004561955 -0.00013987717
0.00060470233 0.09165799 0.0004545287 -0.0005914149 0.0005752233 0.0038659035 0.00039080976 -0.00023321669
-0.0005602643 0.00069719146 -0.00035120937 -0.0005146207 -0.00054753793 0.002112877 -0.00037852064 -0.0009722835
-0.000322902 0.0002514294 -0.00045442124 -0.007240753 -0.000170436 7.235823e-05 -0.00028295917 -0.0010045662
0.00069345254 0.28384373 0.005164041 0.41819298 -0.00018015764 -0.00074905634 -0.00074393756 -0.019358236
-0.0010001175 -0.19286533 -0.006234803 -0.546825 -0.0006659539 -0.0010302688 -0.0013106551 -0.00079973874
0.000600418 0.11415456 0.003471519 0.20143768 -6.50665e-05 -0.00026002183 -0.0008832144 -0.008198531
-0.00038136542 -0.08350258 -0.0042166123 -0.2890109 -0.00041881014 -0.00031222284 -0.0010057163 0.00080941594
0.0006888828 0.16091068 0.0041448306 0.21596476 0.00022123096 -0.0016865218 -0.00081840303 -0.07574534
0.00025050188 -0.058914702 -0.0021029 -0.19236295 0.0005992773 0.022284495 0.000542772 0.05358015
-0.0022617516 -0.23352714 -0.004651373 -0.19198474 -0.0014526991 -0.00087741 -0.00067671447 0.00035441722
-4.2447165e-05 0.14183564 0.0024502936 0.16405094 -0.000117497795 0.025392318 0.0010312924 0.02625996
-0.0014225527 -0.1062378 -0.0026299902 -0.07691493 -0.001361886 -0.0007614519 -0.00033182983 0.0011600527
-0.0004065377 0.05420123 0.0019262279 0.10968259 -0.0003218521 0.004272841 0.0011276648 0.005097358
-0.0010401655 -0.10125645 -0.0021182196 -0.08737833 -0.0011181454 -0.031448834 -0.00042310273 -0.0012388395
-5.848418e-05 0.06479175 0.002807517 0.13314112 4.3660544e-05 0.01335592 0.0015730823 0.06264708
-0.00047779703 -0.016860362 -0.00023730932 -0.03893762 -0.00016362748 -0.0003622568 0.00011372439 -0.00057003513
-0.00028386654 -0.0016724868 -0.00012593092 -0.016898386 -0.00029294414 -0.007616873 -0.00010019962 -0.01192653
-0.00020264181 0.00046519877 7.747318e-05 -0.00064550265 0.00015891099 0.0025712273 0.0005943876 -4.4401822e-05
0.0002148823 0.040532306 0.0005895302 -0.00011178253 0.00021475715 0.00034767753 0.00031830074 -0.00034477707
0.0007291486 0.10062024 0.001491916 0.04072263 0.002279026 0.24627931 0.0044677737 0.14474095
0.003019678 0.48474637 0.005495604 0.27177748 0.0014433579 0.12634276 0.0021007638 0.049992654
-0.0011109693 -0.0014510137 -0.00037000008 0.057954803 -0.0018029052 -0.048471015 -0.00026350678 0.061622597
-0.0027269386 -0.39293548 5.7486213e-05 0.4405399 -0.0017321142 -0.041343316 -0.00028332835 0.053112205
00000000: 7de6 58b7 9203 04bc db73 0f37 a064 3cbc
00000010: 3a68 853a b552 443d 9789 453b c138 ac3d
00000020: 4949 50ba f5cd 73be 32dc f0ba 7adb 08bd
00000030: 4364 c2ba 71b0 bcbd da50 c4bb 9f05 fdbd
00000040: f790 7e38 54d1 76ba 6a55 a539 7719 6cba
00000050: bda3 843a 72d0 423c d39d 563b 6b68 d43c
00000060: 43d7 56ba 9944 e6bd b76f c1ba 1c3a 95ba
00000070: bd4a ffba ae87 ccbc 4eb6 c8bb 0a7d 0cbd
00000080: e3da 973a ccb1 4b3e 5282 853b 8df1 8a3e
00000090: 48f2 293b 8e83 763e 1f78 073c 4998 cb3e
000000a0: de1e eab9 4aba a6bd 9d20 a7ba 4240 c2b8
000000b0: 88e0 cfba 2098 65be 7e12 e8bb b0e6 7fbe
000000c0: 0d08 aa3a 90f3 4f3e c497 cf3a 71be a43c
000000d0: c860 d63a bd02 a83d 3fbb e33a 34e7 e13b
000000e0: 2aab 223b 2c73 de3e 1c5c 1c3b 894c 813d
000000f0: 63bf bc3a dccc 4b3d 523c 983a 524f 2d3c
00000100: 176d b337 adf4 9b3c 4623 9539 3d82 80b9
00000110: 1191 a239 3f88 ec3b 862d ef39 feab 12b9
00000120: e384 1e3a 2fb7 bb3d cf4d ee39 2f09 1bba
00000130: 95ca 163a 195b 7d3b 99e5 cc39 a18b 74b9
00000140: b3de 12ba bac3 363a 8622 b8b9 9ce7 06ba
00000150: a688 0fba 3278 0a3b 2e74 c6b9 d7e0 7eba
00000160: 2c4b a9b9 48d2 8339 633f eeb9 d743 edbb
00000170: 11b7 32b9 07bf 9738 235a 94b9 a6ab 83ba
00000180: d0c8 353a f753 913e 1e37 a93b 641d d63e
00000190: b3e8 3cb9 525c 44ba ce04 43ba 2a95 9ebc
000001a0: 6016 83ba 7d7e 45be 514d ccbb b9fc 0bbf
000001b0: 6993 2eba 160a 87ba 4aca abba 8fa5 51ba
000001c0: 5f65 1d3a dec9 e93d 6d82 633b ae45 4e3e
000001d0: 5074 88b8 8a53 88b9 8487 67ba 2253 06bc
000001e0: 00f2 c7b9 6703 abbd 822b 8abb 3df9 93be
000001f0: bf93 dbb9 d7b1 a3b9 3dd2 83ba fc2e 543a
00000200: 2496 343a c5c5 243e 5cd1 873b de25 5d3e
00000210: 3cfa 6739 480e ddba 198a 56ba 5f20 9bbd
00000220: cb55 8339 8b50 71bd cfd0 09bb cbfa 44be
00000230: d218 1d3a f98d b63c d048 0e3a dc76 5b3d
00000240: e539 14bb bd21 6fbe 8b6a 98bb a697 44be
00000250: 7e68 beba fd01 66ba 8a65 31ba 13d1 b939
00000260: 4c09 32b8 5d3d 113e 1b95 203b f8fc 273e
00000270: 2669 f6b8 8d03 d03c 6e2c 873a 211f d73c
00000280: f374 baba 3493 d9bd ea5b 2cbb 9385 9dbd
00000290: 5081 b2ba 2c9c 47ba 72f9 adb9 e90c 983a
000002a0: 9124 d5b9 1c02 5e3d 7c79 fc3a 44a1 e03d
000002b0: 42be a8b9 3003 8c3b 27ce 933a bd07 a73b
000002c0: 2a56 88ba 8b5f cfbd d4d1 0abb 69f3 b2bd
000002d0: bc8e 92ba 7ed0 00bd e3d3 ddb9 8e60 a2ba
000002e0: e94c 75b8 89b1 843d 52fe 373b 2556 083e
000002f0: 2720 3738 cad2 5a3c e22f ce3a 1d4d 803d
00000300: d580 fab9 be1e 8abc 3cd6 78b9 0e7d 1fbd
00000310: 6b93 2bb9 49ed bdb9 517f ee38 696e 15ba
00000320: ecd3 94b9 5837 dbba 530c 04b9 7c6e 8abc
00000330: 4c96 99b9 f696 f9bb 4322 d2b8 7e67 43bc
00000340: 3f7c 54b9 ece5 f339 1979 a238 f336 29ba
00000350: 58a1 2639 0982 283b add0 1b3a 183c 3ab8
00000360: 0752 6139 3405 263d b48a 1a3a ca6c eab8
00000370: 6f30 6139 7d48 b639 9ae1 a639 32c3 b4b9
00000380: 5624 3f3a fc11 ce3d 658c c33a c6cc 263d
00000390: b65b 153b a530 7c3e 6766 923b f936 143e
000003a0: cae5 453b ad30 f83e 7814 b43b 6b26 8b3e
000003b0: 0e2f bd3a ff5f 013e f8ac 093b 19c5 4c3d
000003c0: f29d 91ba f12f beba 92fc c1b9 0462 6d3d
000003d0: 764f ecba 8b89 46bd 4827 8ab9 fa67 7c3d
000003e0: 70b6 32bb d72e c9be 5a1d 7138 728e e13e
000003f0: 1c08 e3ba 9c57 29bd b08b 94b9 2f8c 593d

0.bias f4 [8]
-0.07020889 -0.251739 -0.10801294 -0.064727366 -0.3765599 -0.06956447 -0.15223388 -0.1304571
00000000: aec9 8fbd efe3 80be e335 ddbd c88f 84bd
00000010: 76cc c0be d177 8ebd 33e3 1bbe 8c96 05be

2.weight f4 [16, 8, 4, 4]
0.003983632 6.374898e-05 -7.059995e-06 -0.0014198766 0.0039240043 0.025185853 0.016414834 -0.0009020674
0.030140083 0.09331127 0.08492086 0.033867218 0.016443878 0.058133215 0.050946463 0.029591432
-0.023306156 -0.020300709 -0.009178607 -0.009070528 -0.18246713 -0.24885386 -0.26694265 -0.21122032
0.0022232188 -0.07139031 -0.10729656 -0.08349241 0.08124913 0.059151724 0.1195193 0.08348248
0.0026582205 0.0032288188 -0.006663823 0.0037820153 0.009594639 0.0038947286 0.0027849292 0.010509005
0.042785216 0.0595171 0.044717323 0.0017811336 0.09193884 0.08670796 0.009260123 0.01804795
-0.012324095 -0.020517943 0.0052146623 0.0018217008 -0.017907558 -0.06007187 -0.049792875 -0.01568265
0.16631222 0.19579828 0.123786025 0.13287134 0.2002846 0.2982763 0.21482007 0.15655734
0.01582844 0.06443247 0.09078836 0.038270228 -0.045747966 -0.063267805 -0.0003452367 0.0007106574
0.005846787 0.0024507686 0.0029990424 0.015057912 0.10405915 0.118116364 0.14364544 0.13840294
0.0034620888 -0.030160347 -0.04987724 -0.012605185 -0.005903678 -0.08751491 -0.08336736 -0.016111014
-0.05034842 -0.13618417 -0.1652958 -0.058850985 -0.002967526 -0.10817267 -0.20508493 -0.07468413
-0.14294153 -0.01873256 -0.02697981 -0.041257504 0.06968358 0.2252726 0.14872102 0.0047135265
0.4117501 0.64825565 0.6321654 0.23778403 0.115163036 0.2513344 0.31177634 0.08266087
0.0003053737 -0.0025207137 5.7498983e-05 -0.007390457 0.0014151401 9.349286e-05 0.0021616868 -0.03465528
-0.049044576 -0.05526255 0.0018880077 -0.08308297 0.07604711 0.0042835753 0.040174168 0.027725425
0.0006990765 0.005106834 0.00552815 -0.0045279646 0.03746671 -0.0020397932 -0.0057642586 -0.0038305295
0.09090987 0.15494639 0.06880786 0.019000625 0.102957055 0.24908303 0.20382851 0.095908515
0.00088000466 -0.008273496 -0.06576016 -0.07556739 0.039369226 0.0032829696 0.0026050212 -0.0022669
0.024685036 0.11370548 0.243956 0.116705626 -0.13195817 -0.1686575 -0.046735164 -0.0016503973
0.017369369 0.025707627 0.03682636 0.007889734 -0.025841383 -0.044417214 -0.0025304395 -0.0045845355
0.0083301 0.0008468693 0.00066318305 -0.00076567184 0.124539606 0.20726074 0.16555825 0.13284132
0.009848528 0.0025640903 0.008509486 0.014124116 0.026064284 0.024806987 -0.0031202992 -0.00805245
0.034187976 0.107409805 0.16164337 0.14009637 -0.028926553 -0.23867442 -0.09520055 -0.048018727
0.022089457 0.0020083517 0.00039764497 -7.323015e-05 0.08069324 0.052348264 0.005271622 0.0010199356
0.0010092519 0.08217806 0.117285445 0.086244866 -0.2017001 -0.30810785 -0.18368703 -0.07867456
-0.017304692 -0.023722148 0.0011453313 0.005869328 -0.0092375325 -0.08220974 -0.040200688 -0.0052777017
0.0032367166 -0.055260144 -0.14270765 -0.086021975 -0.0024591482 -0.0041977726 -0.0015718855 -0.008911672
-0.040574983 -0.0077873315 -0.006556858 -0.0059380135 -0.04842247 -0.057320148 -0.091128364 -0.069938324
-0.008111255 -0.03851434 -0.042419624 -0.008627279 0.08653976 0.03667231 0.05953729 0.08359447
-0.009625443 -0.023582567 -0.02655969 -0.0027535476 0.0015505329 0.001252872 -0.016736893 -0.00014877823
0.08980191 0.008064208 0.0016866227 0.004069467 0.043369785 0.02823578 0.057247497 0.1217114
00000000: 2189 823b f9b0 8538 e5e4 ecb6 271b baba
00000010: ef94 803b 9052 ce3c 6778 863c b878 6cba
00000020: 56e8 f63c fb19 bf3d fdea ad3d 5ab8 0a3d
00000030: 50b5 863c 181d 6e3d 3dad 503d bb69 f23c
00000040: 8dec bebc ac4d a6bc de61 16bc 8d9c 14bc
00000050: aad8 3abe 8cd3 7ebe b5ac 88be 244a 58be
00000060: 6cb3 113b 1535 92bd 4dbe dbbd 12fe aabd
00000070: f265 a63d 1449 723d 89c6 f43d ddf8 aa3d
00000080: 8a35 2e3b 979a 533b 335c dabb b0db 773b
00000090: d532 1d3c b43e 7f3b 5c83 363b f62d 2c3c
000000a0: 8d3f 2f3d 34c8 733d 8329 373d ed74 e93a
000000b0: 6e4a bc3d f193 b13d c5b7 173c 4bd9 933c
000000c0: 00eb 49bc 3f15 a8bc c2df aa3b 23c6 ee3a
000000d0: dfb2 92bc ec0d 76bd 9df3 4bbd e778 80bc
000000e0: c04d 2a3e 587f 483e 8783 fd3d 6d0f 083e
000000f0: 6817 4d3e acb7 983e cbf9 5b3e 9150 203e
00000100: a5aa 813c 2cf5 833d 3fef b93d 3ec1 1c3d
00000110: 3862 3bbd 8d92 81bd e300 b5b9 694b 3a3a
00000120: 6796 bf3b 139d 203b 958b 443b 76b5 763c
00000130: f71c d53d fee6 f13d ca17 133e 80b9 0d3e
00000140: 36e4 623b d512 f7bc 144c 4cbd fa85 4ebc
00000150: a473 c1bb 043b b3bd 82bc aabd 3ffb 83bc
00000160: 253a 4ebd dd73 0bbe 4d43 29be bb0d 71bd
00000170: d37a 42bb a289 ddbd c901 52be fef3 98bd
00000180: 445f 12be 0775 99bc c304 ddbc a1fd 28bd
00000190: 44b6 8e3d dcad 663e 534a 183e ed73 9a3b
000001a0: e9d0 d23e 15f4 253f 97d5 213f a87d 733e
000001b0: 99da eb3d e7ae 803e 26a1 9f3e 1a4a a93d
000001c0: 901a a039 8f32 25bb 102b 7138 a62b f2bb
000001d0: 397c b93a 9911 c438 16ab 0d3b b2f2 0dbd
000001e0: f7e2 48bd fc5a 62bd 0777 f73a 6727 aabd
000001f0: 96be 9b3d 3c5d 8c3b ab8d 243d 6e20 e33c
00000200: 3b42 373a 3b57 a73b 7c25 b53b 525f 94bb
00000210: b176 193d 0dae 05bb 1be2 bcbb 9f09 7bbb
00000220: f42e ba3d 44aa 1e3e 23eb 8c3d 33a7 9b3c
00000230: 26db d23d 9f0f 7f3e 6cb8 503e af6b c43d
00000240: 1db0 663a 8f8d 07bc 43ad 86bd 13c3 9abd
00000250: a041 213d 1727 573b 01b9 2a3b 4590 14bb
00000260: 4638 ca3c 6bde e83d 9acf 793e 5c03 ef3d
00000270: 0b20 07be 8db4 2cbe 5f6d 3fbd 2552 d8ba
00000280: 354a 8e3c cd98 d23c 3dd7 163d f143 013c
00000290: 4fb1 d3bc d3ee 35bd bbd5 25bb df39 96bb
000002a0: f97a 083c 7000 5e3a 76d9 2d3a 5eb7 48ba
000002b0: 9f0e ff3d 293c 543e 1a88 293e 8e07 083e
000002c0: b85b 213c 4c0a 283b 5f6b 0b3c d668 673c
000002d0: c484 d53c 0638 cb3c ef7d 4cbb 6cee 03bc
000002e0: b108 0c3d acf9 db3d d785 253e 6c75 0f3e
000002f0: 61f7 ecbc 1167 74be 82f8 c2bd 49af 44bd
00000300: f3f4 b43c 8d9e 033b 017b d039 2393 99b8
00000310: 7f42 a53d 226b 563d 92bd ac3b 5caf 853a
00000320: e048 843a f94c a83d 5a33 f03d 26a1 b03d
00000330: 798a 4ebe 50c0 9dbe 7418 3cbe 2120 a1bd
00000340: 92c2 8dbc f354 c2bc f11e 963a 7e53 c03b
00000350: 0559 17bc 955d a8bd 7aa9 24bd 92f0 acbb
00000360: 181f 543b 7658 62bd f421 12be 4a2c b0bd
00000370: a929 21bb 788d 89bb ba07 ceba 4302 12bc
00000380: f431 26bd df2c ffbb e9da d6bb ab93 c2bb
00000390: a456 46bd 88c8 6abd 82a1 babd d33b 8fbd
000003a0: 12e5 04bc 36c1 1dbd 33c0 2dbd 6e59 0dbc
000003b0: c23b b13d b435 163d 60dd 733d 9433 ab3d
000003c0: 09b4 1dbc 3a30 c1bc b593 d9bc dd74 34bb
000003d0: 403b cb3a 6937 a43a cf1b 89bc 5a01 1cb9
000003e0: 10ea b73d bd1f 043c ab11 dd3a 2a59 853b
000003f0: 84a4 313d b94e e73c 5a7c 6a3d d443 f93d

2.bias f4 [16]
-0.031153742 -0.105627336 0.39315525 -0.042351488 -0.01022196 0.07326949 0.017120007 -0.0470428
-0.07544204 -0.030388381 -0.06822843 -0.44985312 -0.061231554 -0.07488277 0.11769047 -0.05769513
00000000: 2236 ffbc 2553 d8bd a54b c93e c178 2dbd
00000010: 027a 27bc 500e 963d 423f 8c3c f3af 40bd
00000020: 5b81 9abd 0ef1 f8bc 59bb 8bbd 2653 e6be
00000030: f0cd 7abd 235c 99bd b307 f13d bb51 6cbd

5.weight f4 [128, 1024]
-0.015867855 -0.05686915 -0.13402592 0.03301233 -0.30818754 -0.0819336 -0.038039632 -0.04521494
0.15882638 -0.10694172 -0.16426776 -0.2600366 -0.3597552 -0.22492956 -0.030740857 0.0099014165
-0.025252655 -0.056905277 -0.21495369 -0.24242324 -0.29065588 -0.11853744 0.0718819 0.3183915
-0.04893356 0.10811949 -0.1184938 0.09227848 0.041451894 0.062003408 0.027003089 -0.032200806
0.1583914 -0.15657802 0.060096614 0.15586612 0.010509257 0.23451793 0.026392596 0.18919447
0.06187119 -0.0992143 0.11277021 0.033813886 0.12775925 0.029334184 0.16785352 -0.003431304
0.027110502 -0.022807872 -0.11829781 0.07985867 -0.15938628 -0.19261073 0.18848339 0.09343883
0.04621147 0.008046821 -0.16655718 0.011425782 -0.16492407 -0.056574956 0.17351876 0.324134
0.069765925 0.044844083 0.066588774 0.17527036 0.19750853 0.083976135 -0.19891371 0.064851046
-0.05081994 0.0058693103 0.030342698 -0.042902976 0.124830455 0.12768546 0.0036726547 -0.14473721
-0.27008975 0.03069448 0.30794504 0.20802075 0.12894449 -0.006181109 -0.05805807 -0.23777395
0.055973608 -0.03589627 0.20000987 0.20982239 -0.041166306 0.08814873 -0.20322856 0.098201096
-0.20517518 -0.16528603 0.1904091 0.43981293 -0.26205245 -0.12293592 -0.28844675 -0.5221505
0.3426459 -0.008344675 0.07846607 0.06488439 -0.29635614 -0.08299484 0.007943515 -0.26058972
-0.2480564 0.28907943 -0.18709551 -0.010550686 0.039101016 -0.27033728 0.25624162 -0.35768172
0.417559 -0.02631639 0.108936355 0.16383958 0.13328439 0.12200135 0.08137841 0.12915768
0.029043281 -0.011447469 -0.17775196 -0.16897038 0.023341043 -0.061737876 -0.14824677 -0.08067723
0.09592666 0.1353225 0.09839505 -0.33604607 -0.076096 -0.13745748 -0.20500608 0.028032867
-0.064474 0.03142683 -0.07706161 0.05394385 -0.1598676 0.27900153 0.2915374 0.21913265
0.03281389 0.21525492 0.09786386 0.1483027 0.17502907 0.09844845 0.2507251 0.015789356
0.16851538 0.25344694 0.1477966 0.37685722 -0.14952154 0.20425941 0.051656514 -0.075894475
0.24829979 0.3377639 0.22423126 0.35455814 -0.00020804674 0.065500066 0.16137467 0.011233395
-0.0064254813 0.025558783 -0.07775492 -0.0997339 -0.15339714 -0.30738866 0.0388997 -0.10847259
-0.20466329 0.027665824 -0.10782537 -0.2721818 -0.06229994 -0.1583841 -0.24987175 -0.086039506
0.005458149 0.34219393 0.12830861 0.060827706 -0.46257916 -0.51546305 -0.022103123 -0.12724653
0.0065373033 0.11217824 0.018743826 -0.15220897 -0.0059957015 -0.16035427 -0.17039041 0.009318462
-0.051481638 -0.07173366 -0.2636856 -0.34190246 0.09557125 0.17859744 0.05515712 -2.2815451e-05
-0.02583458 -0.22956447 -0.18460393 -0.25263014 0.03898566 -0.029666007 0.08892534 -0.2272954
0.20602044 -0.16651577 -0.2026562 0.08682609 -0.25940076 -0.39828807 -0.27934676 0.12297777
0.027017737 0.02001785 -0.3472432 0.081327856 -0.30215502 -0.48766208 -0.09773652 0.06363284
0.028444674 -0.27559453 -0.30908945 -0.4818187 -0.42491394 -0.18776244 -0.20385192 -0.69202703
-0.0060560834 -0.32866266 -0.7888793 -0.8482421 -0.35555688 -0.73697937 -0.54847634 -0.3103325
00000000: 4efd 81bc a0ef 68bd 173e 09be f037 073d
00000010: c2ca 9dbe cecc a7bd 72cf 1bbd 4d33 39bd
00000020: 62a3 223e 4304 dbbd cf35 28be 8423 85be
00000030: d531 b8be ef53 66be 40d4 fbbc 8d39 223c
00000040: a8de cebc 8215 69bd d21c 5cbe cc3d 78be
00000050: d9d0 94be c2c3 f2bd d136 933d 3604 a33e
00000060: 8e6e 48bd c06d dd3d e1ac f2bd 80fc bc3d
00000070: 76c9 293d 49f7 7d3d 9535 dd3c fee4 03bd
00000080: 5b31 223e fd55 20be de27 763d 5e9b 1f3e
00000090: 052f 2c3c 7825 703e 4935 d83c 32bc 413e
000000a0: a56c 7d3d de30 cbbd 11f4 e63d 6e80 0a3d
000000b0: 52d3 023e 3e4e f03c cbe1 2b3e badf 60bb
000000c0: d816 de3c 93d7 babc 1f46 f2bd f18c a33d
000000d0: 2836 23be bf3b 45be ca01 413e db5c bf3d
000000e0: 3d48 3d3d d0d6 033c f78d 2abe 3433 3b3c
000000f0: dbe1 28be 24bb 67bd e7ae 313e e4f4 a53e
00000100: 70e1 8e3d 6eae 373d b25f 883d 137a 333e
00000110: ad3f 4a3e aefb ab3d 09b0 4bbe a0d0 843d
00000120: 9228 50bd 5853 c03b 4091 f83c 08bb 2fbd
00000130: 1ca7 ff3d fabf 023e ecb0 703b fe35 14be
00000140: 3449 8abe fd72 fb3c f9aa 9d3e 6403 553e
00000150: 060a 043e e78a cabb 4cce 6dbd 047b 73be
00000160: 9544 653d f807 13bd 63cf 4c3e aedb 563e
00000170: 009e 28bd 5287 b43d 261b 50be a81d c93d
00000180: 7119 52be be40 29be 9afa 423e 292f e13e
00000190: bd2b 86be d4c5 fbbd 4baf 93be a8ab 05bf
000001a0: 496f af3e 1bb8 08bc d2b2 a03d 1be2 843d
000001b0: febb 97be 33f9 a9bd 8425 023c 046c 85be
000001c0: 7f02 7ebe 3802 943e f795 3fbe c9dc 2cbc
000001d0: 6328 203d a669 8abe 1a32 833e 0f22 b7be
000001e0: 4bca d53e 7895 d7bc 061a df3d 90c5 273e
000001f0: b47b 083e d8db f93d b9a9 a63d e941 043e
00000200: 2dec ed3c 2a8e 3bbc 9c04 36be 9206 2dbe
00000210: b735 bf3c dbe0 7cbd 00ce 17be 1b3a a5bd
00000220: 3275 c43d fb91 0a3e 5883 c93d 3b0e acbe
00000230: 38d8 9bbd a7c1 0cbe 1ded 51be 2fa5 e53c
00000240: f20a 84bd 6bb9 003d 7ad2 9dbd 3af4 5c3d
00000250: 55b4 23be 4ad9 8e3e 6444 953e 4f64 603e
00000260: dc67 063d c96b 5c3e d96c c83d aadc 173e
00000270: d23a 333e 579f c93d 0a5f 803e ae58 813c
00000280: 4c8f 2c3e ccc3 813e fe57 173e 6ef3 c03e
00000290: 2d1c 19be 6129 513e c895 533d 906e 9bbd
000002a0: 4d42 7e3e 64ef ac3e e19c 653e a588 b53e
000002b0: 1f27 5ab9 e624 863d 673f 253e 460c 383c
000002c0: d88c d2bb a760 d13c f93d 9fbd 4941 ccbd
000002d0: 2414 1dbe 0c62 9dbe 4b55 1f3d e126 debd
000002e0: 4193 51be 70a3 e23c 8cd3 dcbd 6a5b 8bbe
000002f0: 392e 7fbd 712f 22be 61de 7fbe 7b35 b0bd
00000300: 46da b23b 0b34 af3e 5563 033e 7926 793d
00000310: 2dd7 ecbe 63f5 03bf 9c11 b5bc ea4c 02be
00000320: e036 d63b b5bd e53d a78c 993c abdc 1bbe
00000330: 9777 c4bb e933 24be d37a 2ebe 76ac 183c
00000340: 69de 52bd 19e9 92bd cd01 87be d70d afbe
00000350: dcba c33d 3fe2 363e 6fec 613d cf63 bfb7
00000360: 0ba3 d3bc f312 6bbe d008 3dbe bd58 81be
00000370: 6daf 1f3d 2006 f3bc 7d1e b63d 20c0 68be
00000380: 06f7 523e 1c83 2abe 1b85 4fbe e1d1 b13d
00000390: 2dd0 84be 6aec cbbe 8a06 8fbe c5db fb3d
000003a0: 4d54 dd3c 79fc a33c dcc9 b1be 388f a63d
000003b0: 10b4 9abe d8ae f9be 162a c8bd ef51 823d
000003c0: ce04 e93c ba1a 8dbe f940 9ebe f1b0 f6be
000003d0: 528e d9be cc44 40be 8fbe 50be af28 31bf
000003e0: 1c72 c6bb 7946 a8be fef3 49bf 6526 59bf
000003f0: 8d0b b6be aeaa 3cbf f268 0cbf e7e3 9ebe

5.bias f4 [128]
0.24227732 -0.05147351 -0.17680699 -0.49180886 -0.02019343 0.03414787 0.13507372 -0.07632692
-0.035134178 -0.256196 -0.044017524 -0.04446291 0.08279432 -0.059974067 -0.5979816 -0.017984673
-0.043132763 -0.097165756 0.46460178 0.35707387 0.35894415 1.034168 -0.05386639 -0.047269993
0.051273793 0.087825805 0.078239076 0.000508445 -0.047393274 0.36288515 0.023148272 0.09562439
-0.17717995 0.1404983 -0.025949277 -0.148518 -0.04355462 -0.039563984 -0.33023545 0.054030776
-0.2989571 -0.03604124 0.10769789 0.28211892 -0.04483128 -0.04674858 0.21731028 -0.08050977
0.026827365 0.40094462 -0.11430805 0.21733142 -0.051890943 -0.052780125 0.9153729 0.13032389
0.043449096 -0.27869868 -0.015114562 -0.022536712 -0.06692979 -0.10202116 -0.1202688 -0.06104491
-0.2620483 -0.08633757 -0.106235586 -0.052112784 -0.03914902 0.14701384 -0.44310844 0.3637205
0.07166126 -0.27525732 -0.11617605 -0.044658314 -0.4095269 -0.35493386 -0.0072317254 -0.020626731
-0.044849776 -0.29367247 0.26459926 -0.2539902 -0.030269928 0.00024305719 -0.6220047 -0.07538292
0.25891796 1.0081238 -0.18674338 0.24620013 -0.20485319 -0.11378491 0.29578125 -0.042739958
0.07309024 -0.032764215 0.25613248 -0.10160974 0.12237649 -0.13742073 0.47715592 0.29900283
0.59415036 0.15044609 -0.3240163 -0.23361905 -0.5538851 0.44947526 -0.036782313 0.07639399
0.35682002 -0.4335477 -0.024913928 -0.03941973 -0.25718263 0.21919978 -0.36737764 0.30366862
-0.25082958 0.03339857 0.36477444 0.06385062 0.17453893 -0.22113346 0.42358917 -0.046453144
00000000: 8c17 783e e3d5 52bd e40c 35be 5fce fbbe
00000010: b16c a5bc a3de 0b3d c450 0a3e 4a51 9cbd
00000020: dbe8 0fbd 1f2c 83be b84b 34bd be1e 36bd
00000030: 1290 a93d 5ea7 75bd 5215 19bf 9854 93bc
00000040: fbab 30bd d7fe c6bd 49e0 ed3e 63d2 b63e
00000050: 87c7 b73e 9e5f 843f 01a3 5cbd 2e9e 41bd
00000060: 7804 523d 04de b33d cf3b a03d 2b49 053a
00000070: 731f 42bd 15cc b93e 72a1 bd3c b8d6 c33d
00000080: a96e 35be c9de 0f3e 9493 d4bc 1a15 18be
00000090: 5466 32bd d80d 22bd 9f14 a9be 604f 5d3d
000000a0: e810 99be fb9f 13bd b690 dc3d e471 903e
000000b0: 01a1 37bd 707b 3fbd 9686 5e3e 4ee2 a4bd
000000c0: 10c5 db3c 9d48 cd3e 571a eabd 218c 5e3e
000000d0: 998b 54bd f92f 58bd e155 6a3f a073 053e
000000e0: aef7 313d 98b1 8ebe 11a3 77bc e99e b8bc
000000f0: 7c12 89bd 78f0 d0bd 7d4f f6bd 3a0a 7abd
00000100: 322b 86be c0d1 b0bd 0b92 d9bd 3774 55bd
00000110: b95a 20bd cc8a 163e 1cdf e2be 9339 ba3e
00000120: 24c3 923d 87ee 8cbe b5ed edbd a3eb 36bd
00000130: 83ad d1be e4b9 b5be 1cf8 ecbb 64f9 a8bc
00000140: 66b4 37bd 3d5c 96be 8e79 873e 010b 82be
00000150: a4f8 f7bc 2bdd 7e39 b33b 1fbf 5c62 9abd
00000160: e590 843e 330a 813f a839 3fbe e31b 7c3e
00000170: 09c5 51be 1008 e9bd a470 973e 1810 2fbd
00000180: 56b0 953d c533 06bd cc23 833e c418 d0bd
00000190: 86a0 fa3d 05b8 0cbe c84d f43e e616 993e
000001a0: 3d1a 183f 8a0e 1a3e 77e5 a5be d539 6fbe
000001b0: 6acb 0dbf 9f21 e63e 0da9 16bd 7474 9c3d
000001c0: 1db1 b63e f7f9 ddbe 4b18 ccbc 9576 21bd
000001d0: 71ad 83be e875 603e ec18 bcbe 747a 9b3e
000001e0: bc6c 80be f0cc 083d b7c3 ba3e 1dc4 823d
000001f0: 55ba 323e cf70 62be aee0 d83e a745 3ebd

7.weight f4 [128, 128]
-0.06730428 -0.006482115 -0.43697932 0.20763472 0.093039416 -0.16156277 0.06665246 -0.16878107
0.042336863 0.20492212 0.16083781 -0.015831834 -0.03659102 0.026749494 -0.20196894 0.028718285
0.19153494 0.46721172 0.122561365 0.039002188 0.19851427 -0.53517497 0.060110606 -0.037668426
-0.050550297 0.036183447 -0.0092090005 -0.10776005 -0.03060194 0.01977489 0.26007453 -0.1186232
0.22262757 -0.07115667 0.12381632 0.09611492 -0.12199531 -0.22821806 -0.21267244 -0.047556296
-0.5255271 0.056433786 0.019304767 -0.0052181603 -0.069859356 -0.08898266 0.2516851 0.120740585
0.121906355 -0.05665307 -0.0811267 0.12336058 0.37201342 0.08442977 -0.07566625 0.3108314
-0.015461032 0.19000284 -0.19212963 0.051204488 -0.10553171 0.08506041 -0.13048567 0.10651004
0.13381375 0.038634352 -0.08665284 -0.07594747 -0.024911717 -0.47732934 -0.14243828 0.22695267
-0.21946423 -0.024999019 -0.10270072 0.0829847 -0.11130392 0.13346845 -0.038393367 0.12510973
0.09090574 0.12679751 0.030294571 0.008287108 -0.070330314 -0.1415004 -0.18291509 0.2956573
0.013647459 -0.21919125 0.33042657 -0.21503782 -0.16575564 0.039119374 -0.017444685 -0.12214804
-0.29815382 0.09406334 0.033269536 -0.073323816 -0.024771618 -0.103859514 -0.14097258 -0.16427206
0.006844883 -0.13824455 -0.047172543 0.12392922 -0.08666444 0.09272096 -0.08983074 -0.04810517
-0.18320875 -0.018544218 0.10626165 -0.0153179085 -0.041774333 -0.15942246 0.3385372 0.033453822
-0.02646382 0.15687393 -0.31309634 0.054052945 0.22797069 0.033362485 -0.03237544 0.075403266
0.1303748 -0.018240478 -0.15154798 0.13222796 -0.091546945 0.25646332 -0.25976786 -0.09316737
-0.05895912 -0.20338297 0.12640841 0.13530765 0.32686508 -0.097007796 0.103530325 0.058944747
-0.10462781 0.20427166 0.20851299 0.14096901 -0.25609758 0.28180617 0.12596671 0.04385491
-0.016779408 -0.16676484 0.2701695 -0.105115555 -0.16595308 -0.13452563 -0.41449824 -0.19241984
-0.08940104 -0.20862499 0.1149204 -0.10390236 0.15864024 -0.23187387 -0.20762345 0.16966362
0.056016605 0.09614891 -0.14445594 -0.18020187 -0.099152915 0.11749163 -0.085376754 -0.021692412
-0.10885192 -0.023948388 0.10213156 0.14018421 0.38828382 -0.15037479 -0.04606418 -0.14579695
0.33212405 -0.052560966 0.013143373 -0.08643623 -0.104543984 0.004659797 0.073157206 -0.06687101
0.03522335 0.15790378 -0.26424932 -0.012367555 0.06647852 0.15969416 -0.32644516 0.07767607
-0.044163402 0.0649005 -0.23263587 -0.074100375 -0.2925309 0.098461024 -0.025461068 0.14681457
-0.029765822 0.043548636 -0.16005448 -0.036018237 -0.05576026 0.10738959 0.030260826 0.21871462
-0.12832649 0.068431154 -0.13071784 -0.34081593 -0.11665406 0.17613217 -0.009026497 0.085539825
-0.36882696 -0.11436661 0.12125136 -0.013947001 -0.019267194 -0.011803285 0.103441715 -0.005438875
-0.24205583 -0.053029593 -0.020694904 0.103435725 -0.2293632 -0.15304284 0.11143641 0.34077847
0.06853383 0.3490504 -0.10036392 0.016856017 -0.05156853 0.062819384 -0.07519755 -0.080898136
-0.31639075 0.021545626 -0.05130761 -0.23268762 -0.24396278 0.21374561 0.012305614 -0.07831572
00000000: d4d6 89bd ec67 d4bb c1bb dfbe 329e 543e
00000010: 738b be3d b670 25be 1681 883d f2d4 2cbe
00000020: 6b69 2d3d 1bd7 513e abb2 243e c3b1 81bc
00000030: 77e0 15bd c121 db3c f2d0 4ebe 9c42 eb3c
00000040: bc21 443e 6036 ef3e 7401 fb3d c2c0 1f3d
00000050: 5347 4b3e 3a01 09bf 8a36 763d 354a 1abd
00000060: d40d 4fbd 1835 143d 59e1 16bc 4db1 dcbd
00000070: ebb0 fabc f3fe a13c 7d28 853e b8f0 f2bd
00000080: 7bf8 633e 97ba 91bd 6993 fd3d e6d7 c43d
00000090: add8 f9bd ffb1 69be cec6 59be 64ca 42bd
000000a0: f288 06bf 1d27 673d 0825 9e3c 1afd aabb
000000b0: 6c12 8fbd 8a3c b6bd dfdc 803e d746 f73d
000000c0: 0aaa f93d 0d0d 68bd c125 a6bd 79a4 fc3d
000000d0: 8b78 be3e 84e9 ac3d e8f6 9abd 4b25 9f3e
000000e0: 4550 7dbc 1b90 423e a1bd 44be ccbb 513d
000000f0: 0221 d8bd 2734 ae3d 099e 05be f021 da3d
00000100: 7906 093e 0e3f 1e3d 0b77 b1bd 598a 9bbd
00000110: a813 ccbc 8364 f4be 57db 11be 4866 683e
00000120: 3bbb 60be beca ccbc c154 d2bd e2f3 a93d
00000130: 4ff3 e3bd f4ab 083e 5d42 1dbd c41c 003e
00000140: ca2c ba3d 35d7 013e 522c f83c a6c6 073c
00000150: 5709 90bd 7be5 10be 184e 3bbe 6560 973e
00000160: 9899 5f3c ac73 60be ac2d a93e e032 5cbe
00000170: d9bb 29be a33b 203d 28e8 8ebc c028 fabd
00000180: 9ea7 98be 48a4 c03d a345 083d cc2a 96bd
00000190: d9ed cabc 4cb4 d4bd 1e5b 10be ef36 28be
000001a0: 0a4b e03b fb8f 0dbe ff37 41bd 9ace fd3d
000001b0: 207d b1bd 7de4 bd3d 2ef9 b7bd ed09 45bd
000001c0: 139b 3bbe 0bea 97bc b59f d93d f7f7 7abc
000001d0: 901b 2bbd a43f 23be bf54 ad3e e006 093d
000001e0: a7ca d8bc 8fa3 203e 2a4e a0be 9f66 5d3d
000001f0: 2671 693e 1aa7 083d 1c9c 04bd 076d 9a3d
00000200: f980 053e 0e6d 95bc 652f 1bbe c466 073e
00000210: f77c bbbd 294f 833e 4b00 85be 89ce bebd
00000220: 1e7f 71bd a043 50be 3571 013e 178e 0a3e
00000230: dc5a a73e 06ac c6bd b507 d43d 0c70 713d
00000240: 1b47 d6bd 972c 513e 6e84 553e 2e5a 103e
00000250: 391f 83be e648 903e 6bfd 003e 35a1 333d
00000260: f874 89bc 67c4 2abe a853 8a3e d346 d7bd
00000270: 9bef 29be 16c1 09be 1d39 d4be b509 45be
00000280: e417 b7bd caa1 55be 635b eb3d c3ca d4bd
00000290: 9672 223e 5870 6dbe 3e9b 54be 4dbc 2d3e
000002a0: ab71 653d b8e9 c43d 42ec 13be d786 38be
000002b0: af10 cbbd 749f f03d 02da aebd 49b4 b1bc
000002c0: c1ed debd 692f c4bc 5a2a d13d 738c 0f3e
000002d0: 23cd c63e d9fb 19be cbad 3cbd cc4b 15be
000002e0: 2a0c aa3e 2b4a 57bd 4d57 573c 7a05 b1bd
000002f0: 281b d6bd 36b1 983b 72d3 953d abf3 88bd
00000300: 5c46 103d 87b1 213e b04b 87be 49a1 4abc
00000310: e425 883d de86 233e d223 a7be a214 9f3d
00000320: afe4 34bd 8eea 843d 1938 6ebe f0c1 97bd
00000330: 9cc6 95be efa5 c93d bb93 d0bc 8f56 163e
00000340: 74d7 f3bc 0e60 323d 52e5 23be dc87 13bd
00000350: df64 64bd 13ef db3d 8de5 f73c baf6 5f3e
00000360: 0568 03be a225 8c3d e6da 05be 6d7f aebe
00000370: 53e8 eebd fe5b 343e dfe3 13bc 812f af3d
00000380: e3d6 bcbe 0b39 eabd a252 f83d f681 64bc
00000390: 3cd6 9dbc 9162 41bc 40d9 d33d 9738 b2bb
000003a0: 7cdd 77be 8f35 59bd 5c88 a9bc 1cd6 d33d
000003b0: 30de 6abe 43b7 1cbe c638 e43d 847a ae3e
000003c0: 775b 8c3d bcb6 b23e 998b cdbd a115 8a3c
000003d0: 8639 53bd 73a7 803d 2c01 9abd ecad a5bd
000003e0: f8fd a1be 7480 b03c ee27 52bd aa45 6ebe
000003f0: 61d1 79be 21e0 5a3e 7c9d 493c fe63 a0bd

7.bias f4 [128]
-0.0043354235 -0.24524562 0.30243024 -0.27806565 -0.45917237 -0.5997626 -0.2534711 -0.41529623
-0.07938957 -0.025604067 -0.39686197 0.25432265 -0.4602161 -0.08572703 0.15067841 -0.21342838
-0.47534427 -0.10805611 0.124494456 -0.42320937 0.026409859 -0.4505678 0.081122 -0.6340815
-0.03278764 0.06954106 -0.24589851 -0.19319168 -0.018472947 0.4055475 -0.4462398 0.12786886
-0.46053052 1.213596 -0.1393039 0.15814653 -0.5485526 -0.43752977 -0.26144037 0.42064872
0.34524417 -0.049673658 -0.44025144 0.059211746 0.49732605 0.004435226 -0.34736705 0.2406434
-0.32108596 0.013787316 -0.16816913 -0.16957472 0.18410161 0.021919956 0.5661526 -0.07781572
-0.24541205 -0.36015972 -0.22418867 0.022654705 0.23181109 -0.23713581 -0.22946686 -0.17611137
-0.62415105 -0.032085005 -0.23329987 0.3607893 0.20465283 -0.15282947 -0.107112266 0.24921334
-0.027115054 0.22676165 -0.16291484 0.113752745 0.15379235 -0.6176154 -0.38539106 -0.06417053
0.43850946 -0.0073750243 1.1973915 0.008585725 -0.04257191 0.17415363 -0.43648222 0.46281737
-0.1822597 0.37185374 -0.25898987 -0.07420432 0.18203585 -0.22643265 -0.060804516 0.03571408
0.05976837 0.426196 -0.14185517 0.1901699 0.015478443 0.108129404 -0.09137936 0.17381409
-0.21096058 -0.042966787 -0.15290904 -0.24532017 -0.53335756 0.2173566 0.43534732 0.35262176
-0.56422055 -0.09479016 0.0016604216 0.11325278 0.66309303 -0.057830136 -0.29953817 0.078382514
-0.48808837 0.08711678 0.3609087 0.647721 0.26227385 -0.20422913 -0.4137582 -0.53509283
00000000: 2b10 8ebb ab21 7bbe 23d8 9a3e 9f5e 8ebe
00000010: a418 ebbe 0b8a 19bf f7c6 81be b5a1 d4be
00000020: 0097 a2bd 9fbf d1bc 7e31 cbbe 9436 823e
00000030: 72a1 ebbe a791 afbd 714b 1a3e f88c 5abe
00000040: 5360 f3be 864c ddbd f3f6 fe3d e6ae d8be
00000050: 7d59 d83c d3b0 e6be 4b23 a63d 2a53 22bf
00000060: 554c 06bd 8b6b 8e3d d2cc 7bbe 0ad4 45be
00000070: 9454 97bc eca3 cf3e 8b79 e4be 0ef0 023e
00000080: a8ca ebbe 1d57 9b3f aea5 0ebe 2af1 213e
00000090: f16d 0cbf e703 e0be 83db 85be 455f d73e
000000a0: d8c3 b03e 9b76 4bbd a368 e1be 0488 723d
000000b0: 85a1 fe3e 5f55 913b 18da b1be 396b 763e
000000c0: 6165 a4be 32e4 613c 8734 2cbe ffa4 2dbe
000000d0: 2285 3c3e 7b91 b33c 60ef 103f d95d 9fbd
000000e0: 4c4d 7bbe db66 b8be b791 65be 5c96 b93c
000000f0: e35f 6d3e bbd3 72be 5cf9 6abe 8a56 34be
00000100: 5dc8 1fbf 916b 03bd 29e6 6ebe 60b9 b83e
00000110: 8390 513e 547f 1cbe ad5d dbbd c831 7f3e
00000120: 6420 debc 3534 683e 26d3 26be 33f7 e83d
00000130: be7b 1d3e 0b1c 1ebf fa51 c5be d76b 83bd
00000140: 5084 e03e 30aa f1bb 2044 993f 24ab 0c3c
00000150: e25f 2ebd 5455 323e 997a dfbe 66f6 ec3e
00000160: 49a2 3abe 9d63 be3e 529a 84be 6ff8 97bd
00000170: 9b67 3a3e f6dd 67be 280e 79bd ed48 123d
00000180: aecf 743d 5d36 da3e 7b42 11be e6bb 423e
00000190: 4c99 7d3c f372 dd3d 1a25 bbbd 52fc 313e
000001a0: 0d06 58be f1fd 2fbd 3094 1cbe 3635 7bbe
000001b0: 1f8a 08bf bb92 5e3e d8e5 de3e d78a b43e
000001c0: c270 10bf 5821 c2bd 81a2 d93a 13f1 e73d
000001d0: 77c0 293f 4bdf 6cbd 115d 99be 0387 a03d
000001e0: b8e6 f9be 486a b23d 06c9 b83e 0bd1 253f
000001f0: c248 863e 7121 51be 1dd8 d3be d8fb 08bf

9.weight f4 [128, 128]
-0.029896637 -0.06855185 0.05760307 -0.1940454 -0.016763136 0.26845893 -0.037138708 -0.020493213
-0.19315985 0.036884867 0.30128214 0.07000152 0.2977123 -0.065693974 -0.16122225 0.0027937882
0.1576174 -0.24801372 -0.24607077 0.11789015 0.0029730524 0.16078283 -0.18409151 0.21301778
-0.11402961 -0.13032272 0.41179758 -0.08437936 -0.25453833 -0.03500834 0.09267667 0.061116766
0.1765573 -0.112725504 0.08717982 -0.16681005 0.09940025 0.087230034 0.042883806 0.025157925
0.08932788 -0.2182389 0.28997084 0.13584518 0.0047687045 0.034055393 0.044420388 -0.09912261
0.1778419 0.20076066 -0.045230493 0.024397619 -0.05174767 -0.30455163 -0.08491805 0.055851072
0.0030955262 -0.17285071 -0.047841474 0.28155518 -0.37171543 -0.005632099 -0.066367604 0.078521706
0.2095305 -0.20127028 -0.06741041 0.054975465 -0.043954916 -0.07066797 0.046224207 -0.08599269
0.027781503 -0.15575849 -0.112738274 0.27062517 -0.043375522 -0.021168139 0.04604154 -0.0774811
0.16462317 0.036530845 -0.029750202 -0.13362874 -0.03671227 -0.03572644 -0.090469055 0.12327326
-0.08283678 -0.06952174 -0.21059954 -0.1275493 0.10688418 -0.04158171 0.012240394 -0.09095404
-0.021492358 -0.061816487 0.56243247 0.22005928 -0.0058696885 0.102912165 0.012112985 0.07278561
-0.1684761 -0.115928404 0.0305554 0.08664799 -0.09122814 -0.118926935 -0.102675915 0.023272192
0.026246773 -0.050162207 0.018309103 0.026023924 -0.08817775 0.15108804 0.04252696 -0.25504127
-0.012130814 0.18641746 0.34410298 8.976926e-05 -0.18473904 -0.12395862 -0.16044341 -0.41926846
0.27979663 -0.08648948 0.0337463 -0.029705947 -0.087090366 0.029468022 -0.11399699 0.053393275
-0.050880007 -0.1401151 -0.07539078 -0.13318995 -0.18176036 -0.08718132 -0.038799286 -0.062203642
-0.048717834 0.061371088 0.007209507 0.26242176 -0.04960811 -0.18918794 -0.17479339 -0.2267359
0.12158607 -0.13560113 0.027391775 -0.06430692 -0.44688502 0.19803558 0.05929203 -0.0067615905
-0.14779976 -0.1517593 -0.00025035578 0.0510756 0.09032484 -0.041841835 0.041629337 -0.2139621
0.10094079 -0.07531735 -0.062061056 -0.053583093 0.012989407 0.02647059 -0.115040705 -0.16868623
-0.023228887 -0.09232265 0.25118494 -0.1344217 -0.019214481 -0.06838272 0.15647891 0.051689748
0.21089393 -0.02805345 0.37915918 -0.14723071 -0.18959334 -0.0141720185 -0.062483896 -0.020008927
0.0031320336 -0.10279516 0.09802173 -0.06896852 0.05632384 -0.09592719 -0.09784413 -0.050353684
-0.024523407 -0.059839174 0.058231007 -0.07385996 -0.16867924 -0.2697962 0.08598735 0.03893615
-0.06436156 -0.088048615 -0.010052437 -0.03170741 -0.11791578 0.16635847 0.004984924 0.030093947
-0.15111782 -0.0759551 0.23307174 0.121545054 -0.030430587 0.29059872 -0.1575638 -0.023716012
0.31942925 -0.060975038 -0.045668527 -0.14315735 0.24174654 -0.03268003 -0.0013419631 -0.077342995
0.228573 -0.016958935 -0.10323996 0.13709413 0.08771354 -0.045304567 0.12237766 -0.026469244
-0.14688304 -0.11623345 0.032489073 -0.09588141 0.099910274 -0.11033909 -0.18384641 -0.19605999
-0.094828576 -0.21033436 0.01610383 0.018712899 0.042812224 -0.04278483 0.029340133 -0.2185267
00000000: cbe9 f4bc ea64 8cbd 32f1 6b3d d6b3 46be
00000010: d852 89bc 7373 893e c21e 18bd 62e1 a7bc
00000020: b2cb 45be 9614 173d a741 9a3e f55c 8f3d
00000030: bf6d 983e 908a 86bd 7217 25be fd17 373b
00000040: 7566 213e 4ff7 7dbe faf9 7bbe 6470 f13d
00000050: 8bd7 423b 41a4 243e 7c82 3cbe 5521 5a3e
00000060: 5b88 e9bd 5273 05be 22d7 d23e 16cf acbd
00000070: d952 82be e864 0fbd 44cd bd3d 9355 7a3d
00000080: 70cb 343e a1dc e6bd 558b b23d 41d0 2abe
00000090: 5c92 cb3d a9a5 b23d eea6 2f3d fe17 ce3c
000000a0: 89f1 b63d 057a 5fbe 0f77 943e 001b 0b3e
000000b0: cb42 9c3b ab7d 0b3d 27f2 353d cc00 cbbd
000000c0: 301c 363e 3494 4d3e 9c43 39bd 84dd c73c
000000d0: 5df5 53bd 31ee 9bbe 84e9 adbd 18c4 643d
000000e0: 50de 4a3b c7ff 30be 6cf5 43bd 0028 903e
000000f0: 7c51 bebe 798d b8bb bdeb 87bd fdcf a03d
00000100: 2a8f 563e cc19 4ebe 780e 8abd f42d 613d
00000110: 120a 34bd 5eba 90bd 9855 3d3d ef1c b0bd
00000120: 0996 e33c 277f 1fbe 53e3 e6bd 628f 8a3e
00000130: 88aa 31bd ce68 adbc 0e96 3c3d 69ae 9ebd
00000140: fa92 283e 5ea1 153d b2b6 f3bc f9d5 08be
00000150: 9b5f 16bd e355 12bd d747 b9bd b176 fc3d
00000160: 54a6 a9bd 6a61 8ebd 68a7 57be 499c 02be
00000170: 18e6 da3d 9551 2abd ef8b 483c 1d46 babd
00000180: be10 b0bc 4933 7dbd 93fb 0f3f 3857 613e
00000190: 8456 c0bb 9dc3 d23d 8b75 463c 9f10 953d
000001a0: 0085 2cbe df6b edbd 514f fa3c 8074 b13d
000001b0: d2d5 babd f78f f3bd c047 d2bd 53a5 be3c
000001c0: 7903 d73c e376 4dbd f9fc 953c 2030 d53c
000001d0: 8996 b4bd d3b6 1a3e c030 2e3d c594 82be
000001e0: 52c0 46bc 38e4 3e3e 442e b03e 8142 bc38
000001f0: 3b2c 3dbe 04de fdbd 474b 24be 5baa d6be
00000200: 8141 8f3e 6621 b1bd 8f39 0a3d e359 f3bc
00000210: 6f5c b2bd ec66 f13c 4177 e9bd e8b2 5a3d
00000220: 8e67 50bd 557a 0fbe 7b66 9abd f262 08be
00000230: 631f 3abe 1f8c b2bd 00ec 1ebd 3fc9 7ebd
00000240: 5a8c 47bd 4060 7b3d ba3d ec3b 255c 863e
00000250: e031 4bbd 7cba 41be 0afd 32be 752d 68be
00000260: 1e02 f93d 06db 0abe b764 e03c 59b3 83bd
00000270: 1dce e4be d7c9 4a3e 33dc 723d 5590 ddbb
00000280: d258 17be ca66 1bbe 2f42 83b9 a634 513d
00000290: 3bfc b83d 5862 2bbd 8683 2a3d e118 5bbe
000002a0: 0bba ce3d fc3f 9abd bc33 7ebd f279 5bbd
000002b0: 86d1 543c dad8 d83c 769a ebbd 15bc 2cbe
000002c0: 824a bebc a813 bdbd 509b 803e d8a5 09be
000002d0: b067 9dbc 3d0c 8cbd 023c 203e a1b8 533d
000002e0: 94f4 573e 59d0 e5bc 2721 c23e a6c3 16be
000002f0: c224 42be c131 68bc 1def 7fbd c3e9 a3bc
00000300: ce42 4d3b 4586 d2bd 9ebf c83d 5e3f 8dbd
00000310: d4b3 663d 7975 c4bd 8162 c8bd aa3f 4ebd
00000320: 50e5 c8bc ec19 75bd a383 6e3d e443 97bd
00000330: 40ba 2cbe ba22 8abe 231a b03d 837b 1f3d
00000340: fecf 83bd d552 b4bd fab2 24bc a1df 01bd
00000350: d47d f1bd e059 2a3e 9358 a33b 9587 f63c
00000360: a1be 1abe 598e 9bbd 5caa 6e3e 9dec f83d
00000370: 9149 f9bc 5bc9 943e 6858 21be 1548 c2bc
00000380: 3b8c a33e f6c0 79bd ec0e 3bbd d797 12be
00000390: 688c 773e 7fdb 05bd cfe4 afba 0166 9ebd
000003a0: 0a0f 6a3e 77ed 8abc 796f d3bd 6762 0c3e
000003b0: 28a3 b33d 4891 39bd 23a1 fa3d 07d6 d8bc
000003c0: 8268 16be ce0b eebd 4313 053d 795d c4bd
000003d0: c29d cc3d 76f9 e1bd 3c42 3cbe f3c3 48be
000003e0: 7c35 c2bd e461 57be 2eec 833c cb4b 993c
000003f0: df5b 2f3d 253f 2fbd b85a f03c 77c5 5fbe

9.bias f4 [128]
-0.4462574 0.29089332 0.05323332 0.3616127 -0.23513232 -0.16883022 -0.16060814 -0.04598206
0.0434118 0.32800213 0.023959666 -0.04038801 0.22757325 0.030228196 -0.24521078 0.40881452
-0.60679644 -0.1406695 0.35456967 -0.20033851 -0.20523463 -0.4186539 0.10685191 1.0505571
0.19814213 0.15565984 -0.27498603 -0.23818098 -0.20389761 -0.05610483 -0.11247259 -0.015323578
-0.40864462 0.40475515 -0.043476745 -0.09363937 -0.20651284 0.14957727 -0.4102857 -0.20314921
-0.09051973 -0.18458834 -0.10885229 0.009662666 0.2483557 0.57229906 -0.70724165 0.87089264
-0.3292221 0.27086276 -0.16914117 -0.16937423 -0.008935001 -0.16238366 0.6334767 -0.1889001
-0.35701966 -0.4609128 0.49817088 -0.28783157 0.055210445 0.27945822 -0.2118554 -0.10850877
-0.026221467 0.42872733 0.12683418 -0.444454 -0.13602361 -0.0907174 -0.1379332 0.24141379
-0.16723542 0.4912521 0.012032684 -0.13327542 -0.5325239 -0.061906602 -0.37825686 -0.6039139
-0.19015391 -0.1776758 0.13698235 0.13681294 0.8441577 -0.33142415 -0.22331136 -0.33486143
-0.20526001 -0.07724351 0.059201613 -0.17826633 -0.47130942 -0.14504194 -0.2753963 -0.13836613
-0.49313843 -0.31332144 -0.436127 0.12583913 0.21802242 0.28140324 0.03514501 -0.42558146
-0.095903285 -0.076660365 -0.065190695 0.5369217 -0.09240549 0.420564 -0.14817704 0.65636575
-0.113102145 -0.17380476 0.056091055 -0.15624201 -0.14327441 -0.026673691 0.061119445 1.016387
-0.20385677 -0.28312463 -0.0876689 0.4085995 -0.37602147 -0.14269087 -0.04237275 -0.27604723
00000000: da7b e4be f8ef 943e 2f0b 5a3d 4d25 b93e
00000010: 87c6 70be d4e1 2cbe 7676 24be af57 3cbd
00000020: 92d0 313d e5ef a73e 1047 c43c e66d 25bd
00000030: f608 693e 1fa1 f73c 8918 7bbe 2350 d13e
00000040: 0357 1bbf aa0b 10be 288a b53e 8a25 4dbe
00000050: 0729 52be ce59 d6be 2dd5 da3d a878 863f
00000060: c5e5 4a3e 4b65 1f3e f8ca 8cbe b7e5 73be
00000070: 89ca 50be 2ece 65bd 0758 e6bd bf0f 7bbc
00000080: de39 d1be 113c cf3e ac14 32bd ffc5 bfbd
00000090: 1a78 53be c92a 193e f810 d2be 5906 50be
000000a0: 6862 b9bd ba04 3dbe f3ed debd 2950 1e3c
000000b0: f550 7e3e 3182 123f ca0d 35bf d2f2 5e3f
000000c0: cd8f a8be 86ae 8a3e 5833 2dbe 7070 2dbe
000000d0: 1c64 12bc e747 26be 872b 223f 076f 41be
000000e0: 48cb b6be c3fc ebbe 4110 ff3e a95e 93be
000000f0: 5924 623d 2615 8f3e 9ff0 58be d939 debd
00000100: 67ce d6bc 2682 db3e d2e0 013e 7a8f e3be
00000110: c649 0bbe 0bca b9bd 5c3e 0dbe 2d35 773e
00000120: c33f 2bbe 6585 fb3e bc24 453c 5a79 08be
00000130: 7c53 08bf c791 7dbd e2aa c1be 1a9a 1abf
00000140: b5b7 42be a5f0 35be 1a45 0c3e b118 0c3e
00000150: b81a 583f 6db0 a9be bcab 64be f572 abbe
00000160: ae2f 52be d831 9ebd 647d 723d 738b 36be
00000170: 784f f1be e085 14be be00 8dbe daaf 0dbe
00000180: a47c fcbe ab6b a0be 0a4c dfbe f9db 003e
00000190: 4541 5f3e 1614 903e 37f4 0f3d d0e5 d9be
000001a0: f168 c4bd 1c00 9dbd b382 85bd b373 093f
000001b0: 173f bdbd 2a54 d73e b9bb 17be 9607 283f
000001c0: 19a2 e7bd e0f9 31be bcbf 653d e8fd 1fbe
000001d0: 87b6 12be c982 dabc 6258 7a3d f818 823f
000001e0: d4bf 50be b6f5 90be c18b b3bd f433 d13e
000001f0: e385 c0be 8e1d 12be 0c8f 2dbd 1056 8dbe

11.weight f4 [128, 128]
-0.010680561 -0.00013783309 -0.0052119014 -0.0020805688 -0.00094388064 -0.0043173186 -0.0002660274 -0.012343988
-0.004867641 -0.0034214684 -0.013556656 -0.008886887 -0.005461878 -0.0024020518 -0.12983426 -0.003176283
-0.00552954 -0.0548616 -0.00070888357 -0.01181118 -0.0013677311 -0.00756549 -0.0027130218 -0.00016541162
-0.0027944357 -0.0012124585 -0.01839921 -0.0018224145 -0.006414137 -0.0012492778 -0.037818342 -0.006705119
-0.0009038226 -0.0035706006 -0.14906976 -0.06448268 -0.00011999494 -0.003788263 -0.005411278 -0.0029776278
-0.25914127 -0.033144284 -0.0072810883 -0.002505607 -1.8645509e-05 -0.0007272062 -0.0024563214 -0.0004425908
-0.002724804 -0.0003517072 -0.001154815 -0.011644167 -0.000697755 -0.0037595397 -0.001104477 -4.8748152e-05
-0.0042061578 -0.008528703 -0.000821029 -0.0144376485 -0.030613873 -0.0015329812 -0.010475526 -0.0048561553
-0.010298773 -0.00414642 -0.0025541137 -0.0075784344 0.040242437 -0.016236702 -0.0021717458 -0.0014269823
-0.022616562 -0.00027176156 -0.0029101863 -0.029940162 -0.0062379926 0.028767489 -0.0024818445 -0.003233723
-0.0070658703 -3.2663207e-05 -0.0010712916 -0.009067678 -7.877688e-05 -0.007057591 -0.2316305 -0.00080595154
-0.0007010935 0.008354411 -0.008615754 -0.0029692147 -0.0051599205 -0.091774434 -0.010643766 -0.00134745
-0.0095775835 -0.0057717366 -0.015168548 -0.0030549301 -0.0031429152 -0.0008298082 -0.0032485733 -0.0073619587
-9.622135e-05 -0.17890325 -0.00024315414 -0.0045516547 -0.0064152777 -0.00051760976 -0.099577494 -0.0009253078
-0.065088004 -0.0065711644 -0.019770145 0.049748357 -0.028437363 -0.0047554984 -0.0010448296 -0.0010850393
-0.119127266 -0.005187162 -0.0037620591 -0.005228334 -0.019710775 -0.006764916 -0.0020589093 -0.031750955
-0.012561209 -0.025301097 -0.029990265 -0.13752314 -0.014381117 -0.04032727 -0.00069605117 -0.039972622
-0.014574086 -0.0009797275 -0.102147155 -0.12950756 -0.067548834 -0.13635875 -0.0062777544 -0.030014683
-0.072237715 -0.03406704 -0.12002466 -0.22240461 -0.03444646 -0.039509527 -0.034044832 -0.15511125
-0.15618747 -0.09415097 -0.0021461577 -0.00511276 -0.00019522234 -0.0401648 -0.07868716 -0.21481583
-0.25015318 -0.085174285 -0.14252736 -0.03638031 -0.10521004 -0.047141314 -0.054997265 -0.019377887
-0.032598943 -0.08148119 -0.19454615 -0.017959027 -0.07065029 -0.22784872 -0.21821682 -0.039724957
-0.17707726 -0.23737371 -0.044864584 -0.25888294 -0.14754952 0.069531865 -0.006886748 -0.051286086
-0.15069178 -0.03013704 -0.05105905 -0.09624705 -0.047750358 -0.27604792 -0.16103187 -0.19123912
-0.06955414 -0.019853707 -0.0004949175 -0.003504922 -0.042838182 -0.17032057 -0.124479234 -0.07085212
-0.02206813 -0.2704224 -0.040941976 -0.10427352 -0.1429615 -0.18035164 -0.16013314 -0.043214325
-0.02619349 -0.008902181 -0.065838255 -0.04807533 -0.079461314 -0.018694593 -0.0965917 -0.17395131
-0.02194626 -0.0398157 -0.048712004 -0.1552486 -0.02968687 -0.05808121 -0.1535901 -0.011784704
-0.07457782 -0.22823837 -0.027714672 -0.14934947 -0.03857209 -0.14537661 -0.15595557 -0.038306605
-0.17141233 -0.066777386 -0.20196311 -0.29147893 -0.17509553 -0.20524283 -0.02632574 -0.23691802
-0.069550745 -0.05066004 -0.0014534489 0.035407208 -0.055544645 -0.2621799 -0.05029979 -0.1403175
-0.034784097 -0.10293911 -0.0345333 -0.1600881 -0.000932998 -0.0901205 -0.015935136 -0.04788081
00000000: 85fd 2ebc 4a87 10b9 99c8 aabb 275a 08bb
00000010: c26e 77ba 4b78 8dbb 9879 8bb9 703e 4abc
00000020: bb80 9fbb b73a 60bb bd1c 5ebc 4e9a 11bc
00000030: 8ef9 b2bb be6b 1dbb 46f3 04be 3029 50bb
00000040: 2531 b5bb 8fb6 60bd 5fd4 39ba ae83 41bc
00000050: 7145 b3ba eee7 f7bb f4cc 31bb 5872 2db9
00000060: da22 37bb 5beb 9eba f1b9 96bc 15de eeba
00000070: ae2d d2bb cfbe a3ba 68e7 1abd 9db6 dbbb
00000080: 82ee 6cba bd00 6abb bea5 18be 7f0f 84bd
00000090: cba5 fbb8 8244 78bb 1751 b1bb 4e24 43bb
000000a0: 2aae 84be 4dc2 07bd 3296 eebb 1c35 24bb
000000b0: ed68 9cb7 fba1 3eba 3cfa 20bb 880b e8b9
000000c0: a092 32bb 5765 b8b9 295d 97ba 2dc7 3ebc
000000d0: 8ce9 36ba 9c62 76bb 19c4 90ba ee76 4cb8
000000e0: cfd3 89bb f9bb 0bbc 533a 57ba e38b 6cbc
000000f0: f2c9 fabc 50ee c8ba 8aa1 2bbc 6220 9fbb
00000100: 2fbc 28bc b1de 87bb eb62 27bb 8454 f8bb
00000110: 41d5 243d d502 85bc d953 0ebb 9509 bbba
00000120: 5e46 b9bc 387b 8eb9 d3b8 3ebb 1245 f5bc
00000130: 1368 ccbb cca9 eb3c 71a6 22bb dfec 53bb
00000140: d188 e7bb daff 08b8 956a 8cba 9990 14bc
00000150: 0435 a5b8 5d43 e7bb 8c30 6dbe 7e46 53ba
00000160: 97c9 37ba f1e0 083c 1729 0dbc 2897 42bb
00000170: 8d14 a9bb 3cf4 bbbd 3163 2ebc eb9c b0ba
00000180: 4ceb 1cbc d620 bdbb 8085 78bc 3935 48bb
00000190: 5ef9 4dbb 7c87 59ba 04e6 54bb 963c f1bb
000001a0: 72ca c9b8 6a32 37be 31f7 7eb9 0c26 95bb
000001b0: 4037 d2bb 34b0 07ba 49ef cbbd 5b90 72ba
000001c0: dc4c 85bd ec52 d7bb 00f5 a1bc efc4 4b3d
000001d0: 79f5 e8bc 03d4 9bbb aaf2 88ba e137 8eba
000001e0: fff8 f3bd 12f9 a9bb e18c 76bb 7252 abbb
000001f0: 7e78 a1bc 3aac ddbb c4ee 06bb 4a0d 02bd
00000200: 87cd 4dbc 3f44 cfbc 25ae f5bc ded2 0cbe
00000210: c79e 6bbc 352e 25bd 3477 36ba 55ba 23bd
00000220: 26c8 6ebc 336a 80ba 8732 d1bd a19d 04be
00000230: 0b57 8abd a1a1 0bbe 9fb5 cdbb 5ae1 f5bc
00000240: 5ef1 93bd e189 0bbd 7dcf f5bd 09be 63be
00000250: bb17 0dbd bed4 21bd 9872 0bbd 7cd5 1ebe
00000260: 9cef 1fbe 39d2 c0bd 8da6 0cbb f088 a7bb
00000270: 99b4 4cb9 d883 24bd bc26 a1bd aef8 5bbe
00000280: 1414 80be db6f aebd b1f2 11be 8503 15bd
00000290: 5d78 d7bd 4017 41bd d044 61bd 60be 9ebc
000002a0: 7886 05bd 9cdf a6bd 1b37 47be cf1e 93bc
000002b0: 19b1 90bd 2d51 69be 3b74 5fbe a3b6 22bd
000002c0: be53 35be 1812 73be edc3 37bd 4e8c 84be
000002d0: 3917 17be b966 8e3d 3baa e1bb 5c11 52bd
000002e0: f24e 1abe f4e1 f6bc 4b23 51bd 2c1d c5bd
000002f0: e195 43bd 2756 8dbe 8ae5 24be 30d4 43be
00000300: 6772 8ebd 3ea4 a2bc 5abd 01ba d5b2 65bb
00000310: 1777 2fbd 8468 2ebe f8ee febd eb1a 91bd
00000320: 39c8 b4bc ce74 8abe c6b2 27bd 5b8d d5bd
00000330: 8064 12be 1aae 38be f1f9 23be 8101 31bd
00000340: bb93 d6bc 74da 11bc 35d6 86bd a3ea 44bd
00000350: 9dbc a2bd 6725 99bc dfd1 c5bd 4b20 32be
00000360: a5c8 b3bc ca15 23bd 3d86 47bd 7df9 1ebe
00000370: e131 f3bc 90e6 6dbd b946 1dbe a214 41bc
00000380: 42bc 98bd 52b7 69be e109 e3bc 11ef 18be
00000390: c5fd 1dbd 9bdd 14be d1b2 1fbe 63e7 1cbd
000003a0: b786 2fbe 95c2 88bd 6bcf 4ebe ba3c 95be
000003b0: 3e4c 33be 2d2b 52be 14a9 d7bc a39a 72be
000003c0: 9f70 8ebd e780 4fbd a781 beba 2607 113d
000003d0: c882 63bd 723c 86be 2707 4ebd 64af 0fbe
000003e0: c579 0ebd bdd1 d2bd ca72 0dbd 23ee 23be
000003f0: 7094 74ba 1991 b8bd 678a 82bc ab1e 44bd
