project_networks/cifar10_cnn_3layer_k5_w2_ibp.onnx (onnx, 440085 bytes, 10 tensors)

0.weight f4 [8, 3, 5, 5]
-0.009986327 -0.010652717 -0.012481505 -0.013471889 -0.013906351 -0.00902426 -0.007826142 -0.010983059
-0.014546066 -0.01635922 -0.01826596 -0.016991135 -0.0132321 -0.027615655 -0.024823425 -0.10761959
-0.20872016 -0.01813414 -0.04254032 -0.033463202 -0.019101582 -0.035295334 -0.015633557 -0.029133262
-0.026065275 -0.014615059 -0.011783808 -0.013316196 -0.014625919 -0.014947352 -0.015874507 -0.012124841
-0.012227726 -0.01612353 -0.017225364 -0.02343732 -0.019205388 -0.014466545 -0.030688144 -0.02769213
-0.021811483 -0.037807442 -0.019200878 0.4672769 -0.037090316 -0.022236163 -0.037025485 -0.01655338
-0.030832196 -0.028649397 -0.009915214 -0.009242577 -0.011694944 -0.012707875 -0.013072422 -0.012192892
-0.008386995 -0.0106941555 -0.014017512 -0.014899211 -0.01963691 -0.01480685 -0.012254127 -0.02525611
-0.022674335 -0.017083082 -0.030356292 -0.016243806 -0.03899205 -0.030677162 -0.01655278 -0.030911218
-0.014293148 -0.026384255 -0.023689022 0.001473064 0.0006733369 -0.00018570476 -0.0012517512 -0.0019048438
0.0015629809 0.0010163953 -0.00019595322 -0.0018801884 -0.0026795126 0.0019956303 0.0031607277 0.0025482639
0.0011267082 -2.9053579e-05 0.0023908168 0.0037982026 0.63149583 0.0020715361 0.0025275873 0.0027549115
0.0038978155 0.0029217633 0.0039158864 0.0026074578 0.0010438269 0.00014237409 -0.0009237801 -0.0016800652
-0.0023626678 0.00092367287 0.00030500445 -0.0010566763 -0.002526164 -0.002735116 0.0016118403 0.001839505
0.001844279 0.00043556336 -0.0010437033 0.0022140588 0.0029115984 0.5705429 0.0024533353 0.002001534
0.0028601768 0.0038932585 0.002101108 0.0010772204 0.002064811 0.0010899969 -2.5600242e-05 -0.0011181461
-0.0019577502 -0.0028141828 0.0007914714 0.00016208163 -0.0015783801 -0.0025705227 -0.003148933 0.0011052286
0.001157839 0.0006897006 -0.0006320089 -0.0014190435 0.0017225848 0.0025404633 0.003716798 0.0023551679
0.0014923739 0.0018783794 0.0024659527 0.0026175152 0.0030265185 0.0019152989 -0.1820916 -0.08353007
-0.1030601 -0.0291434 0.0046581333 -0.033396836 -0.049358107 0.09809622 -0.124464154 -0.050414726
-0.004226689 0.014943706 -0.082378194 -0.03199663 -0.06101158 -0.16982202 -0.074295156 0.098115906
-0.12869735 0.059950538 0.021745034 -0.053101607 -0.16755061 0.06772101 -0.08375316 -0.05547362
-0.044766836 -0.19255444 -0.047579378 -0.04185985 -0.18340825 0.06574679 -0.0047583506 0.014597976
-0.076005675 0.06731196 0.05318151 -0.11681606 -0.09629737 -0.14355919 0.02910707 -0.029890068
0.06367518 -0.19166395 -0.16847292 0.018544594 -0.049299944 -0.2150844 0.0058241286 0.065189324
-0.04530717 -0.084307365 0.00017608871 0.08717832 -0.10458248 -0.12954709 0.045745656 0.047709357
-0.03006453 -0.09436556 -0.022833912 0.072615184 0.07498839 -0.19748837 -0.00014490906 -0.11484515
0.061744943 -0.109891675 -0.002353168 -0.13252594 -0.09810803 -0.16255742 -0.13924809 -0.094393775
-0.08414366 0.0002851282 0.0007034 0.00044386578 0.00017758572 0.0003084853 0.0007553755 0.00092414743
0.0005762311 0.00012687378 0.00015230813 0.0005839671 0.00027874977 4.7822934e-05 0.00046373424 0.0009832946
0.00036112085 0.0004950628 0.00025111355 0.00058192894 2.78618e-05 0.0012281823 0.0004105486 0.0002668871
0.00041088118 -3.0974166e-05 0.00012669465 0.00022514985 0.0005392255 0.00053117727 0.0003553872 0.00022296283
00000000: b19d 23bc bc88 2ebc 3a7f 4cbc 33b9 5cbc
00000010: 77d7 63bc 7dda 13bc 3839 00bc 4af2 33bc
00000020: 9f52 6ebc c503 86bc 7fa2 95bc fe30 8bbc
00000030: 73cb 58bc 3a3a e2bc 7f5a cbbc a967 dcbd
00000040: bdba 55be 0c8e 94bc c23e 2ebd b610 09bd
00000050: ec7a 9cbc d791 10bd f211 80bc e1a8 eebc
00000060: d886 d5bc 0074 6fbc df10 41bc 2d2c 5abc
00000070: 8da1 6fbc bde5 74bc 410b 82bc 45a7 46bc
00000080: cd56 48bc 7e15 84bc 351c 8dbc 9fff bfbc
00000090: 9e54 9dbc 1605 6dbc b465 fbbc 9bda e2bc
000000a0: ffad b2bc fadb 1abd 294b 9dbc eb3e ef3e
000000b0: 04ec 17bd 9d28 b6bc 09a8 17bd f49a 87bc
000000c0: cd93 fcbc 24b2 eabc 6c73 22bc 2d6e 17bc
000000d0: 279c 3fbc b134 50bc b62d 56bc b2c4 47bc
000000e0: 9b69 09bc 8a36 2fbc b5a9 65bc d21b 74bc
000000f0: 96dd a0bc 6e98 72bc 89c5 48bc e7e5 cebc
00000100: 87bf b9bc d2f1 8bbc c2ad f8bc bb11 85bc
00000110: 21b6 1fbd ac4e fbbc b299 87bc 8639 fdbc
00000120: cf2d 6abc cb23 d8bc 7b0f c2bc d313 c13a
00000130: e082 303a beb9 42b9 cd11 a4ba f4ab f9ba
00000140: f0dc cc3a 9138 853a cb78 4db9 a770 f6ba
00000150: c39a 2fbb 1fc9 023b 3624 4f3b c600 273b
00000160: 0eae 933a 16b8 f3b7 40af 1c3b 44eb 783b
00000170: b6a9 213f 9cc2 073b e1a5 253b bf8b 343b
00000180: 7e72 7f3b 0e7b 3f3b d650 803b e2e1 2a3b
00000190: 05d1 883a 414a 1539 d529 72ba a235 dcba
000001a0: fdd6 1abb a322 723a 01e9 9f39 2c80 8aba
000001b0: 008e 25bb a23f 33bb 6344 d33a 8c1b f13a
000001c0: bcbb f13a 535c e439 dfcc 88ba be19 113b
000001d0: 84d0 3e3b 190f 123f 23c8 203b 2b2c 033b
000001e0: ce71 3b3b 0a26 7f3b beb2 093b 8531 8d3a
000001f0: c851 073b 3ade 8e3a 1ac0 d6b7 c28e 92ba
00000200: 994d 00bb 276e 38bb bf7a 4f3a 75f4 2939
00000210: a6e1 ceba 3776 28bb 545e 4ebb 51dd 903a
00000220: a1c2 973a 06cd 343a 66ad 25ba 33ff b9ba
00000230: 5bc8 e13a e77d 263b 8695 733b 2959 1a3b
00000240: c29b c33a f433 f63a d29b 213b 9e8a 2b3b
00000250: 8e58 463b c40a fb3a 3876 3abe d011 abbd
00000260: 2c11 d3bd 24be eebc 41a3 983b 1fcb 08bd
00000270: ba2b 4abd ace6 c83d 10e7 febd ac7f 4ebd
00000280: 0a80 8abb 72d6 743c e6b5 a8bd e60e 03bd
00000290: 47e7 79bd d3e5 2dbe 0f28 98bd fef0 c83d
000002a0: 3dc9 03be b28e 753d a422 b23c 1281 59bd
000002b0: 6392 2bbe 50b1 8a3d c786 abbd 4e38 63bd
000002c0: 6e5d 37bd fe2c 45be 98e2 42bd 3c75 2bbd
000002d0: 5fcf 3bbe 41a6 863d f0eb 9bbb 592c 6f3c
000002e0: dda8 9bbd dada 893d dbd4 593d 423d efbd
000002f0: 8e37 c5bd 2e01 13be f371 ee3c 04dc f4bc
00000300: 2268 823d 8e43 44be 2a84 2cbe d5ea 973c
00000310: bdee 49bd 163f 5cbe 55d8 be3b fb81 853d
00000320: 0394 39bd 57a9 acbd 74a4 3839 8c8a b23d
00000330: 572f d6bd fea7 04be cc5f 3b3d e36a 433d
00000340: e449 f6bc bb42 c1bd 2f0e bbbc 45b7 943d
00000350: 8393 993d 643a 4abe bbf2 17b9 ef33 ebbd
00000360: 44e8 7c3d e30e e1bd 9c37 1abb e1b4 07be
00000370: ddec c8bd 7475 26be 0d97 0ebe 8651 c1bd
00000380: 8353 acbd 427d 9539 6064 383a a8b6 e839
00000390: 4e36 3a39 32bc a139 6404 463a 7c42 723a
000003a0: 370e 173a 6c09 0539 e7b4 1f39 5e15 193a
000003b0: 2925 9239 7c95 4838 5b21 f339 e4e1 803a
000003c0: d254 bd39 1ac7 013a e4a7 8339 978c 183a
000003d0: c3b8 e937 f6fa a03a e63e d739 fbec 8b39
000003e0: 8a6b d739 42ea 01b8 56d9 0439 3416 6c39
000003f0: d05a 0d3a b43e 0b3a 4353 ba39 21cb 6939

0.bias f4 [8]
-0.098591976 -0.3205282 -0.10478788 0.7399713 -0.8417342 -0.19746542 0.071364634 -0.49475044
00000000: 97ea c9bd 461c a4be 079b d6bd c26e 3d3f
00000010: e47b 57bf 6034 4abe 9f27 923d ee4f fdbe

2.weight f4 [16, 8, 5, 5]
-0.0020488703 -0.03037033 -0.07110019 -0.03786885 -0.017357038 -0.12446863 0.0005292955 -0.14143123
-0.099239305 -0.011779071 -0.1694642 -0.10607634 -0.15980892 -0.051438693 0.1301932 -0.17654687
-0.053826727 -0.25457337 -0.13674398 -0.014614787 -0.1711579 -0.12257836 -0.065942645 -0.15321986
0.033973288 -0.067201145 -0.0910487 -0.03236868 -0.18678139 -0.045587722 0.06315379 -0.0370417
-0.057385568 -0.040983077 -0.032486435 -0.11593597 -0.039778646 -0.008082898 -0.10795595 -0.008418742
-0.07154429 -0.04594806 -0.111820735 -0.08951817 -0.05844273 -0.1451723 -0.046659436 -0.15557006
-0.05497486 -0.025272345 -0.04637902 -0.05548355 -0.10666837 -0.09363712 -0.11290566 0.13019413
0.044019945 0.01741614 -0.0590731 -0.109529525 -0.05507822 0.07117329 0.054983966 -0.037129488
0.06841477 -0.018236417 -0.010807782 -0.105370216 -0.056921184 0.066777475 -0.043695584 -0.07466042
-0.015504851 0.05091171 0.111625455 -0.13295083 -0.041238505 -0.00077867584 -0.037146226 -0.05292559
-0.16539113 -0.15074848 -0.08408537 -0.15653062 -0.036840286 -0.11450138 0.0052760374 -0.025160663
-0.029769646 0.017787775 -0.21086761 -0.049717363 0.030567229 -0.0943619 -0.05482777 -0.021641359
-0.035493597 -0.04705016 -0.2854276 -0.082933694 -0.016024278 -0.039140742 -0.15726411 0.024960047
-0.10874178 0.05762461 0.0060867886 -0.08300889 -0.08378059 -0.022998624 0.036923192 -0.032777086
-0.00955302 -0.051882196 -0.0006552837 -0.02456242 0.079822615 -0.013769807 0.0791191 -0.07570909
-0.0960108 -0.047319673 -0.05785338 -0.0073274546 -0.14388357 0.15915257 0.18509638 0.062205613
0.08192026 -0.004188307 -0.0035054055 0.039952517 -0.06074089 -0.013018723 -0.008046712 -0.085538104
-0.004425953 -0.046931863 0.10948283 0.18189764 -0.07892936 -0.018636037 0.0077908025 0.109146036
0.044114772 -0.5047036 -0.41644844 -0.44739416 -0.10758108 -0.17343995 -0.08753314 0.0768086
-0.041848317 -0.16126023 -0.2527752 -0.014165314 0.040448148 0.017780177 -0.11459394 -0.13415109
-0.0577671 -0.041227028 0.0060433308 0.063665606 -0.059196964 -0.13960685 -0.065753885 0.08068219
-0.009551254 -0.0121563785 -0.27297738 -0.12110469 -0.03947736 -0.05827833 -0.0885448 0.0859687
-0.046569396 -0.10188175 0.04678565 0.022411749 -0.010875328 -0.058352314 -0.024254281 -0.005038517
0.050709542 -0.07367302 -0.2298077 -0.17344983 0.09988559 0.017570673 -0.3982487 -0.3912675
-0.22807853 -0.05468433 -0.07810332 -0.11222024 -0.1466709 -0.36887637 -0.1821533 -0.045919955
-6.8354e-05 -0.0003144964 -0.00025175454 -0.635068 -0.0032964945 -0.00035335493 -0.0028924749 -1.0127587
-0.004385254 -0.0003813084 -0.00029985877 -0.8811393 0.00025408593 -0.000705611 -1.4152104e-05 -0.003591846
-0.0002392848 -0.0008145773 -0.00044977304 -8.218385e-05 -0.0005039953 -4.861238e-06 -0.00034412494 -0.0007321249
0.00012629312 0.0065982523 0.20404164 0.0065171854 0.00011469537 -0.39136896 0.20413907 0.0031922108
-0.0027209688 -0.89225435 -0.17677134 0.0028198524 -0.0020436824 -1.5677242 -0.3975749 -0.11191033
0.00050830125 -1.286451 -0.56216294 -0.65743154 -0.24967358 -0.5447688 -0.5910048 -0.4706967
-0.60834014 -0.25888422 -0.103042 -0.14452146 -0.11001408 0.14228983 0.043544706 -0.18551746
00000000: 5746 06bb 33cb f8bc fa9c 91bd 5e1c 1bbd
00000010: 5930 8ebc 69e9 febd 6bc0 0a3a 59d3 10be
00000020: fa3d cbbd 01fd 40bc 0688 2dbe 8d3e d9bd
00000030: f3a4 23be 61b1 52bd 5e51 053e b4c8 34be
00000040: 6a79 5cbd 7157 82be 9d06 0cbe dc72 6fbc
00000050: 0444 2fbe 5d0a fbbd f00c 87bd abe5 1cbe
00000060: 9327 0b3d c1a0 89bd be77 babd 0595 04bd
00000070: 9f43 3fbe 31ba 3abd c656 813d 0ab9 17bd
00000080: 210d 6bbd dfdd 27bd 7f10 05bd d66f edbd
00000090: efee 22bd 226e 04bc 0218 ddbd c3ee 09bc
000000a0: d085 92bd 0834 3cbd 4502 e5bd 4d55 b7bd
000000b0: a561 6fbd 0ca8 14be f71d 3fbd c24d 1fbe
000000c0: 522d 61bd f307 cfbc edf7 3dbd b842 63bd
000000d0: f274 dabd d2c4 bfbd 153b e7bd 9c51 053e
000000e0: 424e 343d 4bac 8e3c a3f6 71bd 0451 e0bd
000000f0: b399 61bd 4dc3 913d de36 613d 1715 18bd
00000100: 0b1d 8c3d 8a64 95bc 2013 31bc 57cc d7bd
00000110: 3026 69bd a1c2 883d 24fa 32bd 90e7 98bd
00000120: 0f08 7ebc cc88 503d e39b e43d 4324 08be
00000130: b5e9 28bd 0d20 4cba a426 18bd 81c8 58bd
00000140: 4b5c 29be cf5d 1abe f334 acbd 9049 20be
00000150: d7e5 16bd b37f eabd 9ce2 ac3b bc1d cebc
00000160: 79df f3bc abb7 913c aeed 57be 6fa4 4bbd
00000170: 2068 fa3c d040 c1bd 1593 60bd 3849 b1bc
00000180: bc61 11bd abb7 40bd 9123 92be 24d9 a9bd
00000190: 5945 83bc 0b52 20bd d809 21be 0379 cc3c
000001a0: 03b4 debd c807 6c3d af73 c73b 9100 aabd
000001b0: 2895 abbd 9c67 bcbc c63c 173d 4441 06bd
000001c0: 4584 1cbc 6d82 54bd 58c7 2bba 2137 c9bc
000001d0: 0a7a a33d c29a 61bc 3209 a23d 5e0d 9bbd
000001e0: 4fa1 c4bd 46d2 41bd aaf7 6cbd 251b f0bb
000001f0: 3756 13be e4f8 223e e889 3d3e 50cb 7e3d
00000200: cfc5 a73d 113e 89bb f2ba 65bb 40a5 233d
00000210: 71cb 78bd 7b4c 55bc 5bd6 03bc 9a2e afbd
00000220: 9607 91bb a03b 40bd 8938 e03d 6043 3a3e
00000230: b7a5 a1bd 9aaa 98bc fd49 ff3b f587 df3d
00000240: b1b1 343d 4134 01bf bb38 d5be d910 e5be
00000250: 7853 dcbd 3e9a 31be 9344 b3bd d44d 9d3d
00000260: 2469 2bbd 6721 25be c06b 81be a215 68bc
00000270: f5ac 253d bca7 913c 3ab0 eabd e75e 09be
00000280: 329d 6cbd acdd 28bd 2207 c63b 1d63 823d
00000290: 8478 72bd 19f5 0ebe f9a9 86bd b43c a53d
000002a0: dd7c 1cbc 8c2b 47bc b1c3 8bbe bc05 f8bd
000002b0: 03b3 21bd 42b5 6ebd fa56 b5bd 5c10 b03d
000002c0: 8dbf 3ebd 61a7 d0bd 4fa2 3f3d d898 b73c
000002d0: 6f2e 32bc d602 6fbd eab0 c6bc 251a a5bb
000002e0: cfb4 4f3d e1e1 96bd b652 6bbe d59c 31be
000002f0: d190 cc3d 5ff0 8f3c 41e7 cbbe 3754 c8be
00000300: 6b8d 69be adfc 5fbd a2f4 9fbd bad3 e5bd
00000310: e530 16be 5ddd bcbe 6586 3abe 9016 3cbd
00000320: 4659 8fb8 fee2 a4b9 ecfd 83b9 d193 22bf
00000330: 000a 58bb 7f42 b9b9 ad8f 3dbb 14a2 81bf
00000340: 2db2 8fbb 59ea c7b9 5d36 9db9 5892 61bf
00000350: d636 8539 c1f8 38ba d36e 6db7 2d65 6bbb
00000360: 86e8 7ab9 5b89 55ba 84cf ebb9 1e5a acb8
00000370: 8d1e 04ba b71d a3b6 ab6b b4b9 12ec 3fba
00000380: 8d6d 0439 2736 d83b 4bf0 503e 1d8e d53b
00000390: 9c88 f038 8361 c8be d509 513e 6934 513b
000003a0: 4852 32bb c86a 64bf 8c03 35be 46cd 383b
000003b0: 4def 05bb 30ab c8bf f08e cbbe 3e31 e5bd
000003c0: 853f 053a 6daa a4bf e9e9 0fbf 6f4d 28bf
000003d0: 6eaa 7fbe f875 0bbf 174c 17bf 28ff f0be
000003e0: 2ebc 1bbf 798c 84be af07 d3bd 6ffd 13be
000003f0: 104f e1bd 6db4 113e ef5b 323d 4af8 3dbe

2.bias f4 [16]
-0.05923223 -0.05601321 -0.31744733 -0.030901426 -0.19366498 0.122882456 0.37581158 -0.024936322
-0.10307196 -0.2794908 -0.026256261 -0.027040541 -0.2394768 -0.19812557 -0.024001416 -0.1249118
00000000: 7f9d 72bd 1c6e 65bd 7588 a2be fd24 fdbc
00000010: 1d50 46be cca9 fb3d 606a c03e 4247 ccbc
00000020: 6417 d3bd 6b19 8fbe 5f17 d7bc 2084 ddbc
00000030: 6839 75be 6ee1 4abe 9e9e c4bc c2d1 ffbd

4.weight f4 [16, 16, 4, 4]
0.16806208 0.05962412 0.025281304 0.018194826 0.048560537 -0.04768459 -0.04261447 -0.08549914
0.1261184 0.05837843 0.04223105 -0.03463921 0.054600887 0.10185012 -0.0003882467 -0.0034938778
-0.27347785 -0.06689942 -0.022932982 -0.05460868 -0.034401957 -0.0026308773 -0.14177886 -0.24912038
-0.1428052 -0.2430444 -0.20059356 -0.097717136 0.010076381 0.006368189 -0.009400678 -0.20045495
-0.00032919587 -0.56382924 -0.07991816 0.013476689 -0.041967634 -0.85923237 -0.0036220106 -0.11133444
-0.030581279 -0.010960798 -0.00657745 -0.0477553 -0.024124512 -0.007866887 -0.0008353804 0.019512288
-0.04522291 -0.096071675 0.04629665 -0.0035561486 0.066137984 -0.06482489 0.11081376 -0.036879938
-0.034853935 -0.06478441 -0.009984611 0.044665284 0.051790956 -0.15765047 -0.098514386 -0.056643747
-0.23949116 -0.25990286 -0.17187308 -0.0781288 -0.0021676281 -0.00672009 -0.008054415 0.14760764
-0.16673905 -0.053982556 -0.008526399 0.034351457 -0.116808295 -0.039409734 -0.12037179 -0.07338093
-0.013460082 -0.00028761674 -0.0013110371 -0.013669545 0.0020022118 -0.011965737 -0.13560843 -0.2703359
-0.004454346 -0.01463588 0.00013287133 0.009050049 -0.0025189724 -0.0070355833 -0.045039188 -0.01713026
0.0007803701 0.0011723626 0.0056964587 0.00089177507 -0.13115172 -0.09879583 -0.08912146 -0.11134035
-0.07888281 -0.044028357 -0.108528554 -0.12305206 -0.030709151 -0.02720656 -0.005004362 -0.021549297
0.039305124 -0.036592364 0.066790536 0.019210067 -0.11584408 -0.028822439 -0.041340344 -0.009645337
-0.044428598 0.086389646 0.012268856 -0.058557723 -0.23635441 0.002496713 0.06616808 0.06913701
-0.011113405 0.013491335 -0.01722684 0.006861897 0.10560078 0.11887863 0.19233507 -0.0030526826
-0.022290086 0.07476498 0.13406971 0.08004041 0.025813607 0.21733946 0.12358461 0.10610756
-0.0003239016 -1.2696745e-05 -0.085483834 0.1174255 -0.0053085736 -0.085245945 -0.008111529 -0.1016207
0.12161975 -0.018071504 -0.10452757 -0.028027842 0.010302089 0.025027748 -0.01572108 -0.124829024
-0.022757187 -0.0903113 -0.0054828958 -0.007823988 -0.08234671 -0.059421457 -0.008876382 0.075294815
-0.20774308 -0.033712473 -0.007976557 0.097321615 -0.0055367374 -0.25493756 -0.0049549653 0.38915974
0.107137844 0.032015204 0.06427588 0.06277229 0.027889369 -0.085365 -0.060176276 -0.068538725
0.044961926 0.06714955 -0.029622788 0.0058589634 0.099316224 0.015300525 -0.017599206 0.02438168
-0.06660794 -0.029339468 -0.029416796 -0.004826607 -0.043004144 -0.0036039317 -1.50896785e-05 -0.010741178
-0.016040452 -0.0042403163 -0.048947178 -0.005316555 -0.00096973946 -0.003682722 -0.0062488685 0.012075572
0.50097877 0.0064036176 0.0007383641 -0.011748117 0.1873122 0.7216419 0.01329546 0.0029116503
0.0053636422 0.031587437 0.67538303 0.0031703066 -0.017282045 0.0046667135 0.014473161 1.1579039
-0.000839158 -0.00065450615 -0.0017218466 -0.001363873 0.00031050926 -8.834798e-05 0.0003958738 0.00064418395
0.00010276106 0.0026308207 0.001426446 0.000364566 -0.0103618195 -0.00026939824 0.0006919505 7.931033e-05
-0.0033652505 -0.2305539 -0.0010819177 -0.0041290154 -0.0018764826 -0.21781129 -0.49140817 -0.060836144
0.0062507843 -0.4208127 -0.44307 -0.5275843 0.0032190965 -0.077859834 -0.5377886 -0.4181858
00000000: 7718 2c3e 6c38 743d bd1a cf3c 510d 953c
00000010: 6ae7 463d eb50 43bd 838c 2ebd 2c1a afbd
00000020: 2f25 013e 381e 6f3d 77fa 2c3d d8e1 0dbd
00000030: 2ea5 5f3d cc96 d03d 978d cbb9 8bf9 64bb
00000040: 4a05 8cbe 9002 89bd f3dd bbbc 5aad 5fbd
00000050: 11e9 0cbd cc6a 2cbb 7a2e 11be 6a19 7fbe
00000060: 873b 12be a2e0 78be 6668 4dbe ec1f c8bd
00000070: 6817 253c 3eac d03b 4d05 1abc 1044 4dbe
00000080: ec97 acb9 1d57 10bf 22ac a3bd 55cd 5c3c
00000090: 41e6 2bbd a7f6 5bbf 415f 6dbb 5003 e4bd
000000a0: 9785 fabc eb94 33bc a687 d7bb 109b 43bd
000000b0: c5a0 c5bc 1ee4 00bc 6efd 5aba 3cd8 9f3c
000000c0: a83b 39bd 3ac1 c4bd 8ea1 3d3d 460e 69bb
000000d0: 5a73 873d e9c2 84bd 53f2 e23d 6b0f 17bd
000000e0: 00c3 0ebd b0ad 84bd 7e96 23bc f2f2 363d
000000f0: c122 543d 206f 21be e9c1 c9bd 4603 68bd
00000100: 2c3d 75be fd11 85be 7fff 2fbe fe01 a0bd
00000110: c40e 0ebb 3334 dcbb aaf6 03bc 7526 173e
00000120: a4bd 2abe d01c 5dbd 4fb2 0bbc 1db4 0c3d
00000130: 3039 efbd 1a6c 21bd 7c85 f6bd be48 96bd
00000140: ad87 5cbc 44cb 96b9 1bd7 abba 3af6 5fbc
00000150: 8a37 033b f00b 44bc f0dc 0abe 7869 8abe
00000160: c3f5 91bb 54cb 6fbc 6053 0b39 a846 143c
00000170: 5815 25bb c08a e6bb 037b 38bd c254 8cbc
00000180: c091 4c3a f6a9 993a 5ca9 ba3b 03c6 693a
00000190: a34c 06be 7855 cabd 5085 b6bd 6906 e4bd
000001a0: 508d a1bd 1457 34bd 3844 debd b802 fcbd
000001b0: c291 fbbc 4be0 debc a2fb a3bb 2788 b0bc
000001c0: 69fe 203d e0e1 15bd 7ac9 883d 6e5e 9d3c
000001d0: a93f edbd 091d ecbc 7e54 29bd 7a07 1ebc
000001e0: c3fa 35bd 0eed b03d 5003 493c 39da 6fbd
000001f0: e406 72be e59f 233b 2183 873d b497 8d3d
00000200: 0015 36bc c30a 5d3c 4d1f 8dbc c4d9 e03b
00000210: 3945 d83d a476 f33d 7cf3 443e 840f 48bb
00000220: b399 b6bc 621e 993d 9249 093e 3aec a33d
00000230: 0f77 d33c 3c8e 5e3e ee19 fd3d ec4e d93d
00000240: 56d1 a9b9 1b04 55b7 2612 afbd c87c f03d
00000250: 8bf3 adbb 6d95 aebd 38e6 04bc 831e d0bd
00000260: c713 f93d b10a 94bc 8d12 d6bd a59a e5bc
00000270: 18ca 283c fe06 cd3c 7fc9 80bc 5ca6 ffbd
00000280: 486d babc 21f5 b8bd dda9 b3bb 2f30 00bc
00000290: 64a5 a8bd ea63 73bd 3f6e 11bc 2b34 9a3d
000002a0: 9aba 54be 1716 0abd 1bb0 02bc 8e50 c73d
000002b0: 856d b5bb 2d87 82be 435d a2bb f23f c73e
000002c0: 166b db3d 6022 033d 13a3 833d c28e 803d
000002d0: 3f78 e43c d8d3 aebd 667b 76bd 085e 8cbd
000002e0: ff29 383d b485 893d 7dab f2bc 8cfc bf3b
000002f0: 4e66 cb3d 0eaf 7a3c 362c 90bc 17bc c73c
00000300: be69 88bd 5359 f0bc 7efb f0bc 8428 9ebb
00000310: 1d25 30bd f12f 6cbb ad29 7db7 c4fb 2fbc
00000320: 4467 83bc 5af2 8abb d67c 48bd 7f36 aebb
00000330: 1d36 7eba d359 71bb 4fc3 ccbb 9fd8 453c
00000340: 2540 003f 70d5 d13b c78e 413a 2d7b 40bc
00000350: c5ce 3f3e 86bd 383f 33d5 593c 63d1 3e3b
00000360: 7ec1 af3b d461 013d e7e5 2c3f ebc4 4f3b
00000370: 1393 8dbc 3beb 983b d620 6d3c 3236 943f
00000380: f1fa 5bba 2a93 2bba 96af e1ba fcc3 b2ba
00000390: d9cb a239 7647 b9b8 488d cf39 74de 283a
000003a0: 6d81 d738 d969 2c3b 96f7 ba3a 3823 bf39
000003b0: 9fc4 29bc 053e 8db9 0364 353a 6953 a638
000003c0: 898b 5cbb 5216 6cbe 22cf 8dba b14c 87bb
000003d0: 4ff4 f5ba ec09 5fbe da99 fbbe 522f 79bd
000003e0: 61d3 cc3b c374 d7be 12da e2be c40f 07bf
000003f0: 7af7 523b fa74 9fbd 84ac 09bf 731c d6be

4.bias f4 [16]
-0.41501734 -0.017728673 -0.09518016 -0.2640669 -0.15975016 -0.13540663 -0.012458169 -0.03872996
0.08737782 0.023395462 -0.13563028 -0.2027006 -0.104911126 -0.013744871 -0.37021634 -0.15622321
00000000: 277d d4be b93b 91bc d1ed c2bd c733 87be
00000010: 8c95 23be 09a8 0abe 591d 4cbc 4ea3 1ebd
00000020: 24f3 b23d d7a7 bf3c aae2 0abe bf90 4fbe
00000030: a5db d6bd 2b32 61bc ff8c bdbe faf8 1fbe

7.weight f4 [128, 784]
-0.0023124504 -0.09445807 -0.00090554997 0.009242201 0.0020084728 0.009966341 0.0019307246 -0.0013181879
-0.0019269421 -0.0031606054 -0.0009923487 -0.0036749053 0.0026719838 0.009078647 -0.00827227 0.0010192775
-0.0029594416 0.0046944832 0.0035612648 0.009776343 -0.008481141 -0.00047618683 -0.002056001 -0.0019324337
0.0074913395 -2.5264393e-07 0.004964337 0.0016757918 0.00020689229 0.0046977005 0.00038806826 -0.004551829
0.007929612 -0.0024612048 -0.0039628795 0.0004114483 -0.0014651134 -0.002821716 0.00027665336 5.9699204e-07
-0.0066188504 0.00048165442 -0.0002781052 -0.00048507695 -0.0010809151 -0.0006363476 -0.0018780059 0.06817084
0.13950585 -0.0022214388 -0.0005812762 -0.0015614459 -0.00087204715 0.00012213782 -0.00039615424 -0.0018603748
-0.0003466564 -0.0008728806 -0.00064597494 -0.00011256178 0.00068223325 0.0009677908 0.00045918667 -0.00036267523
-0.00033949595 -0.0014612642 -0.0010365432 -0.00048735645 -0.0010481438 -0.001130792 -0.0006797529 0.00024194675
-0.004604615 -0.0029189112 -0.0008377989 -0.005731186 -9.296805e-05 -0.00046062414 -0.0013712939 -1.3475342
-0.0012148486 -0.7418571 -0.7316091 -0.004217904 0.00035313054 0.00048011716 -0.0008051819 -0.0006275726
-0.074125394 -0.3221966 -0.0033191994 -0.0015745081 0.00016564614 -0.0020627452 -0.004301882 -0.0020967007
0.00044960107 -0.00019215854 0.0007416331 -0.001627327 0.00066166953 0.001268034 -0.00029528508 -0.0011893486
-0.0014479546 0.0019846905 -0.0038985652 0.0016605853 0.0069100824 -0.00025458797 0.0014656661 0.0016324229
0.00046313574 -0.00024935568 0.0034133259 -0.001075994 0.0018798934 0.0007053757 -0.0010048589 0.00015649512
-0.0008391477 -0.0015265687 0.0010209368 0.0024657538 0.0004348735 0.0012709538 0.0016179145 -0.00025166542
-0.00022109026 -0.00056924234 0.0068305936 0.003493171 0.0017201575 -0.00025885692 0.0044623828 -0.0006508672
0.00069329713 0.00030773098 0.0007968654 0.00092052796 -0.00097074383 -0.00086832774 -0.0007047718 -0.00220044
6.197061e-05 0.0043366076 0.51989263 0.00066059874 0.001086352 -0.0003633631 -0.0005132161 0.00028327288
0.00045352403 -7.682781e-06 0.0009039652 0.00030596016 -0.074343964 4.8433714e-05 0.0011456884 -0.00062461296
-0.00016523762 0.001615795 -0.00021550237 0.00079481036 -0.00021822311 -0.00014669879 -0.000409134 0.00031015082
0.00024202357 0.0012229036 -0.0008918648 -2.613532e-05 0.00014040168 0.00078743725 -0.00014645667 0.00034982708
-9.66236e-05 0.00019162703 0.0011317 -0.00016249502 0.0007479143 0.00019671599 0.00073894847 3.9761486e-05
0.0006619062 0.0011518594 -0.0003796985 -0.0009780681 -0.00056826073 0.00059716887 -0.00027199672 0.0025158173
0.00046607724 0.0016191 -0.0006995912 -0.001528096 0.000990162 0.0034651158 0.004370282 0.00027009723
0.0005010702 0.003131307 0.19589652 -0.00028387582 0.0070584333 -0.0004519243 -0.00041342987 0.0015725801
0.00091196084 0.005651025 0.00081889075 1.6640653e-05 -0.00033408412 -0.0002334965 -0.00064320123 0.0003493913
-0.00016585042 0.00021421963 -5.34284e-05 -7.964275e-05 0.0006827176 0.00096597715 7.248462e-05 0.0006672022
-6.043326e-05 -0.00039075964 -0.0025955895 -5.682948e-05 -0.0032262586 8.537626e-06 -4.4670058e-05 -0.00035418244
0.0023491897 0.0012354585 -0.00026572193 -0.006844805 -0.00021930717 3.16115e-06 0.000110086934 -0.0005992886
-6.732436e-05 -0.0012818004 0.002219775 -0.00034361516 -0.00039350882 0.0040573855 -0.00047447046 0.005120474
-0.0013545493 -0.00051830534 -0.0009976465 -0.00032374423 -0.00040904552 0.0035223616 -0.00205766 -0.0020642225
00000000: 7b8c 17bb 3c73 c1bd 6e62 6dba 9a6c 173c
00000010: 95a0 033b dd49 233c 5e10 fd3a 0cc7 acba
00000020: 7391 fcba 2922 4fbb b211 82ba aed6 70bb
00000030: 731c 2f3b 9bbe 143c 6a88 07bc 4799 853a
00000040: 31f3 41bb 2ed4 993b 1c64 693b f42c 203c
00000050: 7cf4 0abc b7a8 f9b9 f9bd 06bb b749 fdba
00000060: e979 f53b 1ea3 87b4 e1ab a23b 3ea6 db3a
00000070: 3af1 5839 2bef 993b a475 cb39 8227 95bb
00000080: 34eb 013c 2a4c 21bb 0bdb 81bb a8b7 d739
00000090: 0c09 c0ba 8aec 38bb c90b 9139 fb40 2035
000000a0: f1e2 d8bb 9086 fc39 a6ce 91b9 ed51 feb9
000000b0: 7ead 8dba 91d0 26ba 6c27 f6ba 279d 8b3d
000000c0: 9fda 0e3e 8f95 11bb c960 18ba 6ea9 ccba
000000d0: 189a 64ba 1f12 0039 ecb2 cfb9 d2d7 f3ba
000000e0: 6fbf b5b9 07d2 64ba a556 29ba 250f ecb8
000000f0: e6d7 323a 57b3 7d3a febe f039 7225 beb9
00000100: 60fe b1b9 e487 bfba 9edc 87ba e083 ffb9
00000110: df61 89ba 1537 94ba 7231 32ba 16b3 7d39
00000120: 4fe2 96bb 344b 3fbb bc9f 5bba accc bbbb
00000130: d7f7 c2b8 ed7f f1b9 fdbc b3ba 007c acbf
00000140: 8e3b 9fba 59ea 3dbf bc4a 3bbf 5836 8abb
00000150: 6124 b939 3cb8 fb39 d812 53ba af83 24ba
00000160: 0ecf 97bd f4f6 a4be ed86 59bb ba5f ceba
00000170: 4cb1 2d39 1f2f 07bb cdf6 8cbb cd68 09bb
00000180: 6fb8 eb39 2a7e 49b9 286a 423a 084c d5ba
00000190: e473 2d3a 2934 a63a 7ed0 9ab9 ebe3 9bba
000001a0: 4bc9 bdba 9511 023b 127f 7fbb ffa7 d93a
000001b0: f96d e23b 387a 85b9 981b c03a 06f7 d53a
000001c0: 07d1 f239 f4bb 82b9 1bb2 5f3b 5e08 8dba
000001d0: c166 f63a f6e8 383a 78b5 83ba d718 2439
000001e0: 40fa 5bba 2517 c8ba f4d0 853a 7c98 213b
000001f0: bcff e339 2296 a63a 3410 d43a f6f1 83b9
00000200: 77d4 67b9 3539 15ba 2cd3 df3b afed 643b
00000210: e876 e13a 30b7 87b9 2e39 923b f59e 2aba
00000220: 62be 353a f456 a139 bbe4 503a 964f 713a
00000230: 8479 7eba 7da0 63ba 6fc0 38ba 4235 10bb
00000240: 38f6 8138 1a1a 8e3b af17 053f 082c 2d3a
00000250: ed63 8e3a c581 beb9 5989 06ba 3e84 9439
00000260: f7c6 ed39 4be5 00b7 14f8 6c3a 4769 a039
00000270: a641 98bd 4e25 4b38 ec2a 963a 11bd 23ba
00000280: a343 2db9 15c9 d33a 7af8 61b9 d25a 503a
00000290: d2d2 64b9 28d3 19b9 0981 d6b9 bd9b a239
000002a0: b5c7 7d39 d649 a03a 09cc 69ba 2c3d dbb7
000002b0: ca38 1339 056c 4e3a 2a92 19b9 ff68 b739
000002c0: 66a2 cab8 7def 4839 8d55 943a 6d63 2ab9
000002d0: ae0f 443a 8c45 4e39 feb5 413a 92c5 2638
000002e0: c683 2d3a fdf9 963a 4512 c7b9 8532 80ba
000002f0: 55f7 14ba 538b 1c3a c89a 8eb9 69e0 243b
00000300: d45b f439 fb37 d43a c564 37ba 654a c8ba
00000310: 53c8 813a ff16 633b 9534 8f3b d69b 8d39
00000320: 405a 033a 9d36 4d3b 1999 483e 2bd5 94b9
00000330: 6e4a e73b 41f0 ecb9 9ec1 d8b9 081f ce3a
00000340: a810 6f3a 3c2c b93b d4aa 563a 8897 8b37
00000350: 0328 afb9 bdd6 74b9 819c 28ba 822e b739
00000360: 22e8 2db9 25a0 6039 4f18 60b8 e005 a7b8
00000370: 67f8 323a a139 7d3a e202 9838 2fe7 2e3a
00000380: b879 7db8 dfde ccb9 c41a 2abb 315c 6eb8
00000390: a36f 53bb d33c 0f37 1c5c 3bb8 90b1 b9b9
000003a0: ddf4 193b 1cef a13a 9850 8bb9 634a e0bb
000003b0: d2f5 65b9 2524 5436 79de e638 9419 1dba
000003c0: 7e30 8db8 1602 a8ba a579 113b 3f27 b4b9
000003d0: dc4f ceb9 d1f3 843b 59c2 f8b9 a6c9 a73b
000003e0: 228b b1ba e2de 07ba 76c3 82ba 37bc a9b9
000003f0: 2975 d6b9 6cd7 663b ced9 06bb e847 07bb

7.bias f4 [128]
0.02243114 -5.6934296e-05 -8.381212e-05 -0.19687264 -0.16333492 -6.105358e-05 0.17063008 0.00086103176
-0.38257658 -0.1232201 0.033076953 0.19554873 0.0009445951 0.09653939 0.00018055883 0.24138466
0.0009147459 -0.25724673 0.24591962 -0.0007845574 -0.35475168 0.04536505 0.20793422 0.045351077
0.4012875 0.20993395 -0.27003133 -0.09423965 0.23193364 0.23403779 -0.333545 0.28623143
-0.2715939 -0.00017181976 0.22884026 -0.24069698 0.14005809 1.8714078e-05 -0.00082985056 5.4460048e-05
-0.24059044 0.0001377946 0.20618835 7.465115e-06 0.08871987 0.26795605 -0.018789656 -0.10720286
-0.2133496 0.21674964 -0.0069599245 0.21541291 0.15857133 0.23783582 0.1606397 0.0059187086
0.27913755 0.00018647368 0.21410614 0.0008010384 0.17982315 -0.0023841115 -0.00010250801 -0.061438613
0.01858574 -0.12558526 0.111676775 0.13069113 -0.2662697 -0.004798986 0.20704377 0.142659
-0.18484025 -0.16148782 -0.00016854404 0.00032172358 0.0003935056 -0.14311293 -0.0002595624 -0.26481503
0.00029064197 -0.0002578039 6.291847e-05 0.3518378 -0.09656461 -0.006413615 0.12511341 3.467536e-05
0.10379057 6.984296e-05 0.4349379 0.18081984 0.033875596 -0.00035944252 -0.50586975 0.00010232667
0.10598257 -0.29121804 -0.28613356 0.20479625 -0.0001915393 -0.05990197 -0.075991094 0.15701741
0.0002562456 -0.0010436327 8.116457e-06 -0.00018338366 0.06569345 -0.0008173641 6.407465e-05 0.26446483
0.00058876746 0.085948795 0.0009601945 0.08109127 0.0020515323 0.1489805 -0.22705549 -0.00031779316
0.050485063 -0.00011143089 0.00011076606 -0.27181274 0.2828771 -0.00020618209 0.16055131 -0.00017189645
00000000: 83c1 b73c bccc 6eb8 4ac4 afb8 fb98 49be
00000010: 4541 27be e409 80b8 a7b9 2e3e ddb6 613a
00000020: 14e1 c3be d25a fcbd b37b 073d ed3d 483e
00000030: b49e 773a 72b6 c53d 6454 3d39 8a2d 773e
00000040: 8fcb 6f3a d8b5 83be 5ad2 7b3e c1aa 4dba
00000050: 03a2 b5be b4d0 393d b5ec 543e 0dc2 393d
00000060: 8e75 cd3e edf8 563e 8c41 8abe b800 c1bd
00000070: 0380 6d3e 9aa7 6f3e 69c6 aabe ed8c 923e
00000080: 5b0e 8bbe 842a 34b9 1a55 6a3e 4579 76be
00000090: 636b 0f3e 2dfc 9c37 548a 59ba 086c 6438
000000a0: 575d 76be f57c 1039 0a23 533e d97c fa36
000000b0: c3b2 b53d 8931 893e c4ec 99bc 2c8d dbbd
000000c0: 5178 5abe 9ef3 5d3e 1410 e4bb 3495 5c3e
000000d0: 8660 223e 3c8b 733e bc7e 243e baf1 c13b
000000e0: 1eeb 8e3e 2688 4339 a43e 5b3e c7fc 513a
000000f0: 8f23 383e c13e 1cbb 92f9 d6b8 0ea7 7bbd
00000100: 1f41 983c 6c99 00be cbb6 e43d e5d3 053e
00000110: 8154 88be d040 9dbb 4803 543e 3315 123e
00000120: c346 3dbe 105d 25be 32bb 30b9 02ad a839
00000130: 6d4f ce39 328c 12be e015 88b9 d695 87be
00000140: 4e61 9839 db29 87b9 19f3 8338 1624 b43e
00000150: abc3 c5bd 4d29 d2bb bb1d 003e 6270 1138
00000160: 2690 d43d a778 9238 2eb0 de3e d628 393e
00000170: 23c1 0a3d 8f73 bcb9 ae80 01bf 3698 d638
00000180: 640d d93d 881a 95be 1980 92be 1cb6 513e
00000190: f0d7 48b9 c55b 75bd 38a1 9bbd 2cc9 203e
000001a0: b458 8639 81ca 88ba eb2b 0837 ad4a 40b9
000001b0: 4a8a 863d 6044 56ba d15f 8638 ef67 873e
000001c0: 8457 1a3a ec05 b03d 90b5 7b3a 2e13 a63d
000001d0: 0073 063b 588e 183e 3c81 68be 7a9d a6b9
000001e0: 6dc9 4e3d 01b0 e9b8 134b e838 0a2b 8bbe
000001f0: 44d5 903e 9532 58b9 9067 243e 1a3f 34b9

8.weight f4 [10, 128]
0.00010687824 -2.6360758e-05 6.137265e-06 -0.001121689 -0.00019594381 4.1585467e-06 0.0011119894 0.00021900187
-3.8421516e-05 0.00086922315 0.0005957082 -0.2607384 -1.9347552e-05 -0.0003216515 5.58697e-06 -0.00020077624
1.8839824e-05 -0.00026528432 -0.07393079 -7.024048e-05 -0.00070303876 -0.00045371588 0.00051745865 -0.00049197965
0.00043744346 0.00061194325 0.42090088 0.0020980875 0.00032662536 1.456667e-05 0.25260603 0.00029704123
-0.0004044509 0.00026831112 -0.0022801126 -0.0011734527 -0.35199854 6.046204e-05 -0.00046320265 -0.00017256236
-0.0014428982 0.000113231756 -0.00156302 9.276014e-06 8.839281e-05 0.00069090235 -0.00032650222 7.198703e-05
0.0026545185 0.0001428097 0.0001456864 0.00024761455 -0.001529406 1.0520217e-05 -0.100094154 -0.0007869515
-0.19486366 -2.0136846e-05 -0.00035829382 5.309127e-05 0.0005704258 -0.00085873005 -6.4961023e-06 0.00089516427
-7.908444e-06 -0.002655688 -0.22668053 0.0004428408 -0.00052559224 0.00062977785 0.00067283685 -0.00293819
0.0016972225 0.0018424466 5.8061465e-05 0.00010622039 3.2071137e-05 -0.00014317613 -3.733623e-05 -0.0002342769
-5.8242713e-05 -1.2018671e-05 -8.6559325e-05 0.0009519473 -0.00014437744 -0.00010003003 -0.0022132008 -2.4471214e-05
-0.000505564 -3.5836245e-05 -4.864212e-05 9.828744e-05 -0.001894341 -2.720972e-05 0.00031740358 0.00013497681
-0.0004449395 -0.00075285736 5.1810417e-05 -5.8949892e-05 -0.0008524523 0.0017654994 1.42922645e-05 -0.00039815967
2.8157183e-05 -0.00035008896 -1.5688029e-05 -8.843012e-06 -0.00033290611 -2.3558307e-05 7.6317905e-05 0.00037881383
-3.248162e-05 0.0063118376 4.466751e-05 -0.000110946945 6.2905354e-05 -0.16911429 0.40028158 -0.00017205354
-0.0003557177 1.8001418e-05 -1.340969e-06 0.00014984129 5.7368948e-06 -7.274108e-06 -0.00038528928 -1.2838389e-05
-0.00014073087 2.0585245e-05 -1.9779434e-05 -0.00035470654 0.0006467308 -2.2774462e-05 -2.0443778e-05 -4.822535e-05
-0.00030610448 0.00014507308 0.0020570208 7.097719e-05 -0.00014256629 -0.00023269975 -2.0678344e-05 -0.00076655287
1.7205879e-06 -0.0034743918 -0.00024221976 5.555291e-06 -0.089982525 -0.001600674 0.0001688183 -0.00034136113
0.16991386 0.00030972835 -0.000551071 -1.97215e-05 0.0006129655 -0.00022306456 -0.0003298427 7.671424e-06
5.3749078e-05 0.00025219095 0.0004814278 -0.00034385626 0.00029903807 8.8839326e-05 0.00054584065 5.8321308e-05
-0.001531014 -1.2710378e-05 -0.00079123786 3.0154297e-05 0.0004812064 -0.00013813269 0.00063748175 6.554562e-05
-0.00026645852 -0.00017175083 0.00037719143 -5.0724433e-05 0.00023639938 0.9685773 0.0001094145 -0.0005920361
-0.00019027902 5.2340542e-06 -0.00015018237 -7.6252654e-05 -0.00043380514 0.00047222892 1.67466e-05 0.001172602
-0.0004304095 -0.0033954068 7.675534e-05 0.00027250484 0.00014992828 0.00057678926 0.110662065 0.00031392337
0.00060538645 -0.0002888245 1.6819511e-05 -4.10623e-05 -0.00026841444 4.7743724e-05 3.781816e-05 0.0005173128
-0.00021135315 -9.262663e-05 -8.4282234e-05 -0.00027975658 -0.00034070516 4.6400248e-05 0.00053990114 9.3648873e-07
-0.00066617195 -2.7057438e-05 0.56605977 0.0005653253 -0.00042516046 6.175164e-05 -0.44865257 -3.2723226e-05
0.00026312683 -0.06263163 -0.0017603458 6.769989e-05 0.0024056153 -0.00035471993 -0.0006885947 -0.0003095243
-3.7817335e-05 3.3186814e-05 -0.00018076236 3.1041604e-05 -0.00072209025 0.0005072209 -5.1152765e-05 0.000449374
-9.733194e-06 0.004391426 0.0018983035 0.0001260854 -0.00038797097 -2.4685529e-05 0.000118724936 0.0002168552
-0.00054449635 -0.00013594107 -3.343566e-05 -0.00056059787 0.7386595 3.9627455e-05 0.0003381399 1.5686768e-05
00000000: d123 e038 4c21 ddb7 b4ee cd36 a305 93ba
00000010: 4476 4db9 a589 8b36 2cc0 913a dea3 6539
00000020: ca26 21b8 94dc 633a 4d29 1c3a 817f 85be
00000030: 8d4c a2b7 55a3 a8b9 b577 bb36 7687 52b9
00000040: 370a 9e37 dc15 8bb9 0769 97bd 124e 93b8
00000050: 224c 38ba b7e0 edb9 10a6 073a 32f8 00ba
00000060: ab58 e539 d16a 203a 5280 d73e 1180 093b
00000070: ea3e ab39 5f63 7437 9455 813e 33bc 9b39
00000080: 7b0c d4b9 1cac 8c39 f16d 15bb 8ace 99ba
00000090: 2739 b4be 9f98 7d38 02da f2b9 dbf1 34b9
000000a0: a11f bdba d676 ed38 40de ccba 2da0 1b37
000000b0: 875f b938 ac1d 353a 632e abb9 bef7 9638
000000c0: 6ef7 2d3b 30bf 1539 65c3 1839 43d2 8139
000000d0: 5a76 c8ba fd7f 3037 2afe ccbd 6c4b 4eba
000000e0: 578a 47be 8ceb a8b7 62d9 bbb9 51ae 5e38
000000f0: a188 153a 661c 61ba 18f9 d9b6 75a9 6a3a
00000100: 82ae 04b7 0d0b 2ebb f11e 68be 162d e839
00000110: e6c7 09ba ad17 253a 5161 303a a68e 40bb
00000120: 5675 de3a 407e f13a 0687 7338 a3c2 de38
00000130: 1f84 0638 8d21 16b9 7999 1cb8 3aa8 75b9
00000140: a349 74b8 cda3 49b7 2f87 b5b8 1a8c 793a
00000150: 0664 17b9 37c7 d1b8 590b 11bb 8847 cdb7
00000160: d387 04ba e04e 16b8 1405 4cb8 ab1f ce38
00000170: 894b f8ba 6e40 e4b7 3069 a639 9088 0d39
00000180: c546 e9b9 675b 45ba 034f 5938 f740 77b8
00000190: 1b77 5fba 5468 e73a cfc8 6f37 16c0 d0b9
000001a0: 1733 ec37 258c b7b9 c999 83b7 735c 14b7
000001b0: e789 aeb9 149f c5b7 dd0c a038 889b c639
000001c0: e03c 08b8 88d3 ce3b 6059 3b38 30ac e8b8
000001d0: 0eec 8338 4c2c 2dbe b5f1 cc3e 4569 34b9
000001e0: 9f7f bab9 c001 9737 58fb b3b5 b71e 1d39
000001f0: 8d7f c036 1d14 f4b6 a700 cab9 7664 57b7
00000200: 2891 13b9 7aae ac37 03ec a5b7 e8f7 b9b9
00000210: 5f89 293a c90b bfb7 ae7e abb7 9345 4ab8
00000220: a67c a0b9 c21e 1839 15cf 063b 97d9 9438
00000230: d97d 15b9 dd00 74b9 6876 adb7 7ef2 48ba
00000240: f3ee e635 9fb2 63bb 5ffc 7db9 9667 ba36
00000250: c248 b8bd b5cd d1ba d104 3139 b7f8 b2b9
00000260: e6fd 2d3e 0963 a239 c075 10ba 996f a5b7
00000270: 6baf 203a 70e6 69b9 bdee acb9 84b4 0037
00000280: a270 6138 7f38 8439 2568 fc39 9b47 b4b9
00000290: 36c8 9c39 404f ba38 bf16 0f3a 079e 7438
000002a0: 4eac c8ba a83e 55b7 136b 4fba dcf3 fc37
000002b0: 6e4a fc39 b6d7 10b9 ad1c 273a 8975 8938
000002c0: 75b3 8bb9 0318 34b9 c7c1 c539 f2c0 54b8
000002d0: fae1 7739 aff4 773f 7675 e538 df32 1bba
000002e0: a385 47b9 2fa0 af36 467a 1db9 d5e9 9fb8
000002f0: 5770 e3b9 7e95 f739 0d7b 8c37 feb1 993a
00000300: 96a8 e1b9 7985 5ebb b6f7 a038 fbde 8e39
00000310: 1136 1d39 ac33 173a cba2 e23d 1596 a439
00000320: ccb2 1e3a 5e6d 97b9 a017 8d37 4f3a 2cb8
00000330: fab9 8cb9 6f40 4838 f19e 1e38 469c 073a
00000340: ae9e 5db9 8b40 c2b8 aec0 b0b8 4bac 92b9
00000350: aca0 b2b9 e39d 4238 2788 0d3a 0463 7b35
00000360: 0ba2 2eba 68f9 e2b7 4be9 103f 5732 143a
00000370: 12e8 deb9 a980 8138 cab5 e5be 4c40 09b8
00000380: 49f4 8939 0345 80bd 67bb e6ba 1afa 8d38
00000390: 87a7 1d3b b4f9 b9b9 cf82 34ba a647 a2b9
000003a0: 0e9e 1eb8 1232 0b38 078b 3db9 ab32 0238
000003b0: a84a 3dba 05f7 043a dd8c 56b8 f599 eb39
000003c0: c04b 23b7 f4e5 8f3b 7fd0 f83a cb35 0439
000003d0: 9568 cbb9 c513 cfb7 f7fb f838 a063 6339
000003e0: 88bc 0eba 678b 0eb9 443d 0cb8 16f5 12ba
000003f0: ca18 3d3f a835 2638 5e48 b139 1497 8337

8.bias f4 [10]
-0.27455288 0.20072766 -0.08183525 0.18733397 -0.108958535 0.09397833 -0.23635477 0.10161184
-0.13229424 0.28042468
00000000: 3292 8cbe 8d8b 4d3e 3d99 a7bd 7ad4 3f3e
00000010: a725 dfbd b677 c03d fc06 72be de19 d03d
00000020: 2478 07be d393 8f3e
