project_networks/cifar10_cnn_2layer_w1_ibp.onnx (onnx, 536819 bytes, 16 tensors)

0.weight f4 [4, 3, 4, 4]
0	0x3da9c2dd	0.0828912
1	0xbd508025	-0.05090346
2	0xbdfa82e4	-0.12231997
3	0xbce18f30	-0.027534097
4	0xbc21918f	-0.009861364
5	0x3db69a51	0.08916152
6	0x3db3fe20	0.08788705
7	0xbd764a23	-0.060129296
8	0xbda53662	-0.08067013
9	0x3ddc248f	0.107491605
10	0x3dc47c1d	0.09593985
11	0x3d489b3b	0.048976164
12	0xbe278efc	-0.16363138
13	0x3e1baadc	0.15201896
14	0xb9e6098e	-0.00043876137
15	0xbdbd543b	-0.09244581
16	0xbd058c66	-0.032604598
17	0xbcfe1120	-0.031014025
18	0xbe57442e	-0.21022102
19	0x385c3df4	5.2509786e-05
20	0xbd105241	-0.035234693
21	0xbe705944	-0.23471552
22	0xbe243c33	-0.16038589
23	0xbde409e2	-0.111346975
24	0xbd0c5b92	-0.034267016
25	0xbd00203a	-0.031280734
26	0x3d2bae58	0.041914314
27	0x3ce27bc8	0.027646914
28	0xbc990e4b	-0.018683573
29	0xbda5b4c3	-0.08091118
30	0xbd0f65b9	-0.03500912
31	0xbd3c41d3	-0.045961212
32	0x3e0d4ca7	0.13798772
33	0xbdbc524d	-0.09195385
34	0x3c4f29d6	0.012644252
35	0xbd5c751e	-0.05382263
36	0xbdc5e00d	-0.09661875
37	0xbe1c80f6	-0.1528357
38	0xbe353006	-0.176941
39	0xbcccdc7c	-0.025007479
40	0xbe00d49a	-0.12581101
41	0xbcbd7553	-0.023127234
42	0xbd28b981	-0.041192535
43	0xbdd5de41	-0.10442782
44	0xbd4c435f	-0.049868938
45	0x3e19aa6f	0.15006422
46	0x3d5e628e	0.054293208
47	0xbd00d084	-0.031448856
48	0xba9a122d	-0.0011754684
49	0xba6b3c45	-0.00089735194
50	0xba657ba7	-0.00087540824
51	0xba85b905	-0.0010202235
52	0xba907001	-0.0011019708
53	0xb9f4b0f0	-0.00046671135
54	0xba61d365	-0.0008614569
55	0xba43d6f5	-0.0007470691
56	0xba4d9825	-0.00078428007
57	0xba09a372	-0.00052504905
58	0xba8a0ef0	-0.0010533016
59	0xba2ae680	-0.00065193325
60	0xb92ed718	-0.00016674062
61	0xba0fd2e0	-0.000548644
62	0xba98bd7d	-0.0011653152
63	0xba4e1d91	-0.0007862682
64	0x3a41503b	0.0007374321
65	0x393891f5	0.0001760198
66	0x3a6cb471	0.00090295734
67	0x3ab29295	0.0013624007
68	0xb81a1d54	-3.6743775e-05
69	0xb98b4650	-0.00026564533
70	0x394abb93	0.00019334098
71	0xb99dcf1d	-0.00030099685
72	0xb9e6d817	-0.00044030018
73	0xb9b6b788	-0.00034850487
74	0xba1fb771	-0.00060927036
75	0xb8ae1717	-8.3012674e-05
76	0x39973edd	0.000288478
77	0x39a376d3	0.00031178314
78	0x398844a5	0.00025991086
79	0x38f47c44	0.00011657973
80	0x3bf1458f	0.0073630284
81	0x3bfe859e	0.0077673933
82	0x3b84cf45	0.0040530288
83	0x3bee1b36	0.0072664274
84	0x3e076782	0.13223079
85	0x3f070d59	0.5275474
86	0x3ea28b27	0.3174679
87	0x3ee2ee84	0.44322598
88	0x3e82910d	0.2550129
89	0x3e8f9e90	0.2805066
90	0x3efab6df	0.48967645
91	0x3ea272b7	0.31728145
92	0x3c14e1e6	0.0090870615
93	0x3bd3331b	0.006445301
94	0x3bc2a05b	0.005939526
95	0x3dc84e4b	0.09780558
96	0xbe17a800	-0.1481018
97	0xbe1e86ce	-0.15481111
98	0xbe1880f4	-0.14892942
99	0xbc907e6a	-0.017638404
100	0xbe802cfb	-0.25034317
101	0xbe432e0f	-0.19060539
102	0xbda48043	-0.080322765
103	0xbdd10195	-0.1020538
104	0xbeb1c86f	-0.3472323
105	0x3c1e3739	0.009656721
106	0x3d8dd98c	0.069262594
107	0x3de0422b	0.109501205
108	0xbe5f29b1	-0.21793248
109	0xbe5f5839	-0.21810998
110	0x3d2c23e0	0.0420264
111	0xbc118d54	-0.008883793
112	0xbe21929e	-0.15778586
113	0x3b4e6428	0.0031492803
114	0xbc99e1f1	-0.018784495
115	0x3df9ca4f	0.121967904
116	0xbdc56eb5	-0.09640256
117	0x3df3f513	0.119119786
118	0x3e097e8d	0.13427182
119	0xbe49d2c3	-0.19709305
120	0xbe49df06	-0.19713983
121	0x3c33ad9a	0.010966683
122	0x3e04a0e3	0.12951998
123	0xbe22141e	-0.15827987
124	0xbdb8b116	-0.090181515
125	0x3dcc2da6	0.09969644
126	0x3be6eb43	0.0070470884
127	0xbe0bf70d	-0.13668461
128	0xbe652809	-0.22378553
129	0x3dcbf005	0.099578895
130	0x3dae6315	0.08514992
131	0xbea547b8	-0.3228128
132	0xbe053847	-0.1300975
133	0x3bf85774	0.0075787846
134	0xbd675e9d	-0.056486715
135	0xbe5e59aa	-0.21713892
136	0xbe43889b	-0.1909508
137	0xbe9481b9	-0.2900522
138	0x3de3dfcd	0.11126671
139	0x3d5fc9c6	0.054635786
140	0x3d63b075	0.055588204
141	0xbe2dcfcc	-0.169738
142	0xbda4f8ca	-0.08055265
143	0xbe68737e	-0.22700307
144	0xbe8c4060	-0.27392864
145	0x3daa94ff	0.083292
146	0xbe1d3dd9	-0.15355624
147	0xbe8287a1	-0.25494102
148	0xbe517b9d	-0.20457311
149	0xbd74caf2	-0.059763856
150	0x3e146fc8	0.14495766
151	0xbca04cab	-0.019567808
152	0xbe8826e0	-0.2659216
153	0xbe2211d1	-0.15827109
154	0x3e2bbc52	0.16771057
155	0xbe22a13b	-0.15881817
156	0xbddcf807	-0.10789495
157	0xbb770596	-0.0037692538
158	0xbe79d9ad	-0.24399443
159	0x3deb1a3c	0.11479613
160	0x3d9fde5f	0.07806086
161	0x3c8e267e	0.017352339
162	0xbe8231ec	-0.25428712
163	0x3d3a7ed7	0.04553112
164	0xbdebfeea	-0.115232304
165	0xbd75ba50	-0.059992135
166	0xbe5e087a	-0.21682921
167	0x3d566025	0.052337784
168	0x3dece648	0.1156736
169	0x3dcfc6a7	0.10145312
170	0x3dd919cb	0.10600623
171	0x3cb26713	0.021777665
172	0xbea35564	-0.31901085
173	0xbea5649b	-0.32303318
174	0xbea4fdd1	-0.32224897
175	0xbe831d0b	-0.25608096
176	0x3d7723ad	0.060336757
177	0xbe3f3340	-0.18671894
178	0xbe07fcf8	-0.13280094
179	0x3db2a9ac	0.087237686
180	0xbe0c1888	-0.13681233
181	0x3e4a1a71	0.19736649
182	0xbd5fa3d3	-0.054599594
183	0x3dc2762f	0.09495198
184	0xbcff7caf	-0.031187383
185	0x3dd78068	0.105225384
186	0xbdd1eb25	-0.102499284
187	0xbbde4c83	-0.0067840233
188	0x3cd66fa2	0.026176278
189	0x3d1e70fd	0.038681973
190	0x3ca2f2b3	0.019891119
191	0xbe8738e9	-0.26410607

0.bias f4 [4]
0	0xbe6e2f7f	-0.23260306
1	0xbf0ccfaa	-0.5500437
2	0xbdbf809b	-0.093507014
3	0xbe194cb3	-0.14970665

2.weight f4 [8, 4, 4, 4]
0	0xbe40374f	-0.18771099
1	0x3cdf000d	0.027221704
2	0x3dde585d	0.10856698
3	0xbdc942e6	-0.09827213
4	0xbe678182	-0.22607997
5	0x3d2fa7ad	0.042884517
6	0xbdc858ae	-0.09782539
7	0xbbc94cbf	-0.006143182
8	0x3dd2057e	0.10254954
9	0xbca6481a	-0.020298053
10	0xbe16bbf8	-0.14720142
11	0xbe198c0c	-0.1499483
12	0xbde28094	-0.110596806
13	0x3dc651a9	0.09683544
14	0x3e4fdef6	0.20299897
15	0xbe3a24e5	-0.18178137
16	0xbdc5487e	-0.096329674
17	0xbe5beefc	-0.21477884
18	0xbd9b57d2	-0.0758511
19	0x3c943912	0.01809362
20	0xbd1cfbf8	-0.038326234
21	0xbdd56e02	-0.10421373
22	0x3d91cb50	0.07118857
23	0x3ccd2030	0.025039762
24	0xbe654729	-0.22390427
25	0x3d286fd5	0.041122276
26	0xbe0bd9d9	-0.13657321
27	0xbe0c845a	-0.13722363
28	0xbdcb2ac0	-0.09920263
29	0xbc8c804c	-0.01715102
30	0x3d3f4ffd	0.046707142
31	0xbd261ddb	-0.040555816
32	0xbe763853	-0.24044923
33	0xbe8db964	-0.27680504
34	0xbde3ffab	-0.11132749
35	0xbc24f322	-0.010067733
36	0xbe826bfe	-0.25473017
37	0xbe070b7c	-0.13187975
38	0xbdf382d2	-0.11890186
39	0xbe9c5152	-0.30530792
40	0x3c8fb3b4	0.017541744
41	0xbe94e616	-0.29081792
42	0xbe18521a	-0.1487507
43	0xbe98c957	-0.2984111
44	0xbda21bf1	-0.07915486
45	0xbe67c0fa	-0.22632208
46	0xbd0c4be0	-0.034252048
47	0xbc8ba4a3	-0.017046278
48	0xbe5c121c	-0.21491283
49	0x3c17504a	0.009235451
50	0x3deddd98	0.11614531
51	0xbd1208d6	-0.035652958
52	0x3d044b88	0.032298595
53	0x3d9e3d54	0.07726541
54	0x3dd4e096	0.10394399
55	0x3dc3ff3d	0.09570167
56	0xbe161a5c	-0.14658493
57	0x3da6c40b	0.08142861
58	0xbcc0dfcb	-0.023544213
59	0x3d96f5c2	0.07371093
60	0xbe81c691	-0.25346807
61	0xbdaaf706	-0.08347897
62	0xbc1bfa83	-0.009520176
63	0xbdbd5dee	-0.09246431
64	0xbd746542	-0.05966688
65	0xbdee3664	-0.11631468
66	0x3dc0e67e	0.09418963
67	0xbb019bf0	-0.0019776784
68	0xbdd2bae1	-0.102895506
69	0xbe2d3387	-0.16914187
70	0xbc31a557	-0.010842643
71	0x3e050fb6	0.12994274
72	0x3e57208c	0.2100851
73	0x3e07bc6c	0.13255471
74	0x3e1d87a5	0.15383776
75	0x3c0a538e	0.008442773
76	0xbe0fc8e9	-0.14041485
77	0xbe990f43	-0.29894456
78	0xbea6e4d7	-0.32596466
79	0xbe9a359d	-0.3011903
80	0xbd257d52	-0.040402718
81	0x3d1989a3	0.037484776
82	0xbd21a019	-0.03945932
83	0xbde74bcb	-0.11293753
84	0xbe2a0970	-0.16605163
85	0xbdb5e1d7	-0.08880966
86	0xbe3af370	-0.18256927
87	0xbdae904c	-0.08523616
88	0x3c2f1f57	0.010688624
89	0xbd08ab4e	-0.033366494
90	0xbe4d6cbe	-0.20061013
91	0xbe4a08b6	-0.19729885
92	0xbe2fb224	-0.17157799
93	0xbb2ed286	-0.0026675775
94	0x3c87abbe	0.016561385
95	0xbe1cec4f	-0.1532452
96	0x3df7a713	0.12092414
97	0x3c0da268	0.008644678
98	0xbe2a48c8	-0.16629326
99	0xbca2babd	-0.019864434
100	0x3d913a1a	0.0709116
101	0x3da714cb	0.08158263
102	0xbe01b303	-0.12665944
103	0xbe21c7f7	-0.15798937
104	0x3db0d289	0.086339064
105	0xbe17dafc	-0.1482963
106	0xbdfa0757	-0.12208431
107	0x3e502428	0.20326293
108	0xbd1609f7	-0.036630597
109	0x3e039838	0.12851036
110	0xbc796586	-0.015221959
111	0xbd466ab4	-0.048441604
112	0xbd57cb08	-0.05268386
113	0xbe20ff34	-0.15722352
114	0x3e0af641	0.13570501
115	0x3dec377d	0.11534021
116	0x3ddf2338	0.10895389
117	0xbe87b075	-0.26501814
118	0x3d1d95a7	0.038472798
119	0xbdb8c3ac	-0.090216964
120	0x3e1c109e	0.15240714
121	0xbe74c8fc	-0.23904794
122	0xbd4dda64	-0.0502571
123	0xbe733865	-0.23751982
124	0xbe34e6d7	-0.17666183
125	0x3e43ab24	0.19108254
126	0x3da44e42	0.08022739
127	0x3e0d7f0e	0.13817999
128	0xbd814139	-0.06311268
129	0xbbbaf226	-0.005705136
130	0x3d5a7a6e	0.053339414
131	0xbe2fb1ae	-0.17157623
132	0xbe149d70	-0.14513183
133	0xbcc00d64	-0.023443885
134	0x3dd960cd	0.106141664
135	0x3e28ecaf	0.16496538
136	0xbcdb6ca1	-0.026785197
137	0xbc03e4bd	-0.008050141
138	0xbe4460b4	-0.19177514
139	0x3cd3d2b3	0.025857305
140	0xbe3bc7e8	-0.18337977
141	0xbe43309d	-0.19061513
142	0x3de25336	0.110510275
143	0x3cbd232d	0.023088062
144	0xbe0c0135	-0.13672335
145	0x3d17c08f	0.037048873
146	0xbd4b27e0	-0.049598575
147	0xbe27d67e	-0.16390416
148	0x3c16d1ec	0.009205323
149	0xbe103079	-0.14080991
150	0xbeab8a0c	-0.3350376
151	0xbe39e69c	-0.18154377
152	0xbe244f65	-0.16045912
153	0xbe886c77	-0.26645252
154	0xbe3b8021	-0.18310596
155	0xbdc520e7	-0.09625416
156	0x3bc81769	0.0061063063
157	0x3c1bbe3d	0.009505806
158	0xbe96c98b	-0.2945064
159	0x3cee0d23	0.029058998
160	0x3cebad24	0.028769083
161	0x3d2a0bf1	0.041515294
162	0xbcb97779	-0.022639977
163	0x3d907c60	0.07054973
164	0x3df85cea	0.12127097
165	0x3c2d5d81	0.010581375
166	0x3eacee90	0.3377576
167	0x3ea75a73	0.32686195
168	0x3dbf8090	0.09350693
169	0xbda13a11	-0.078724034
170	0x3d984b6e	0.07436262
171	0x3e8f0575	0.2793385
172	0xbe318f68	-0.17339861
173	0xbe1b89f1	-0.15189339
174	0xbddbd028	-0.10733062
175	0xbe37a028	-0.17932189
176	0x3d5869a7	0.052835133
177	0x3e328644	0.17434031
178	0xbde6b9d5	-0.112659134
179	0xbe0b0819	-0.13577308
180	0x3e7a8392	0.24464253
181	0xbd28f693	-0.041250776
182	0xbd963693	-0.07334628
183	0x3da32fe9	0.079681225
184	0xbd08d417	-0.03340539
185	0x3ca5faef	0.020261256
186	0xbe186baf	-0.14884828
187	0xbcf4ae6d	-0.029868329
188	0xbcbe2080	-0.023208857
189	0xbe84506d	-0.2584261
190	0xbe495f9b	-0.19665377
191	0x3e1dae35	0.15398486
192	0x3df358d1	0.11882175
193	0x3d8a46b7	0.06751769
194	0xbe443d09	-0.19163908
195	0xbe460b07	-0.19340144
196	0x3d5b699d	0.053567518
197	0x3e785a7f	0.24253272
198	0x3d5eced4	0.054396465
199	0xbcec58ad	-0.028850878
200	0xbe0bab87	-0.13639651
201	0xbe8d0080	-0.27539444
202	0xbe4bbfbe	-0.19897363
203	0xbd571e10	-0.052518904
204	0xbe45902b	-0.19293277
205	0xbeab3283	-0.33436975
206	0x3d1f9455	0.03895982
207	0xbd46c2f1	-0.048525754
208	0xbe715244	-0.23566538
209	0xbd99bd11	-0.07506765
210	0x3d81c86c	0.063370556
211	0xbd8bc74c	-0.06825122
212	0xbdcc136d	-0.09964643
213	0x3cbeb108	0.023277774
214	0xbe207cf3	-0.15672664
215	0xba9783dc	-0.0011559683
216	0xbd19d463	-0.037556063
217	0xbb7242cb	-0.0036966081
218	0x3d544fad	0.051833797
219	0xbe020a49	-0.12699236
220	0xbe51a16c	-0.20471734
221	0xbcfcbe59	-0.030852484
222	0xbc177348	-0.009243794
223	0xbd27168b	-0.040792983
224	0xbdaab46c	-0.08335194
225	0xbe64b425	-0.22334345
226	0xbcae1251	-0.021248968
227	0x3debe478	0.11518186
228	0xbd824019	-0.06359882
229	0xbdcd97cf	-0.10038721
230	0xbedfb555	-0.43693033
231	0xbe82bbfc	-0.25534046
232	0xbe9105c8	-0.28324723
233	0xbe7a11d0	-0.24420857
234	0xbdff0a53	-0.12453141
235	0xbe5b37f8	-0.21408069
236	0xbe369f51	-0.17834212
237	0xbd1eb51b	-0.038746934
238	0xb9b06ad5	-0.00033648932
239	0x3daf9c0e	0.08574687
240	0xbdfcc58f	-0.12342369
241	0xbd9323d5	-0.07184569
242	0xbdc65b22	-0.09685351
243	0x3dcbdbd0	0.09954035
244	0x3dd09e95	0.10186497
245	0xbc67c3cf	-0.0141458055
246	0xbe17137a	-0.14753523
247	0xbe378688	-0.17922413
248	0xbe717fdf	-0.23583935
249	0x3d0c6a7b	0.034281235
250	0x3915bfbf	0.00014281178
251	0xbe5b8b85	-0.21439941
252	0xbbed7c55	-0.0072474875
253	0xbdb9e010	-0.0907594
254	0xbd8225fe	-0.06354903
255	0xbaac29ea	-0.001313505

2.bias f4 [8]
0	0xbe587f73	-0.21142368
1	0xbd854082	-0.065064445
2	0xbd76de16	-0.06027039
3	0xbd8fc79e	-0.07020496
4	0xbf2c5fee	-0.6733388
5	0xbd97eb67	-0.07417946
6	0xbdd92006	-0.10601811
7	0xbdb22bd6	-0.08699767

5.weight f4 [128, 512]
0	0xbdd3cedc	-0.1034219
1	0x3d9faf2b	0.077970825
2	0x3ba17882	0.0049276957
3	0xbdc060f3	-0.093934916
4	0xbca0e830	-0.019641966
5	0xbd766c63	-0.06016196
6	0xbdffd987	-0.12492662
7	0x3dc085bd	0.094005086
8	0x3d8bb234	0.06821099
9	0xbdc329f6	-0.09529488
10	0x3d7f54d1	0.062336747
11	0x3e222331	0.15833737
12	0xbcf23092	-0.029564176
13	0xbe101cf1	-0.1407354
14	0xbbce5e1d	-0.0062978403
15	0xbe9a8778	-0.3018148
16	0xbe55d195	-0.2088073
17	0xbe4056c5	-0.187831
18	0xbab6c7cf	-0.0013945046
19	0xbd82baa7	-0.06383257
20	0xbd8088e4	-0.0627611
21	0xbcf6de46	-0.030135285
22	0xbdd9c81b	-0.1063387
23	0xbe7c6293	-0.24646978
24	0xbd0e0884	-0.03467609
25	0xbdf13c8a	-0.11779125
26	0xbdf46d70	-0.11934936
27	0xbe19876d	-0.14993067
28	0xbc4527e3	-0.0120334355
29	0xbd525066	-0.051346205
30	0xbcf0f715	-0.029414693
31	0x3ccff5f8	0.025385842
32	0xbd9dbb95	-0.07701794
33	0x3d70816e	0.058717184
34	0xbd609258	-0.054827064
35	0xbd345213	-0.044023585
36	0xbd3a1883	-0.045433532
37	0xbdadf179	-0.08493323
38	0xbd8f3186	-0.06991868
39	0x3d09079e	0.03345453
40	0xbe7391fd	-0.23786159
41	0x3d7a182d	0.061058212
42	0x3e43788b	0.19088952
43	0x3e32cfe6	0.1746212
44	0xbd87f0a4	-0.066376954
45	0x3d18761e	0.03722202
46	0x3d9ca346	0.076483294
47	0xbcba6dc3	-0.022757417
48	0xbd55e42e	-0.052219562
49	0x3d7ffa48	0.062494546
50	0x3db5a637	0.088695936
51	0x3ba2eb94	0.0049719308
52	0xbbd3906d	-0.006456426
53	0x3d20a00c	0.039215133
54	0x3e0ecaf4	0.13944608
55	0xbdbbf683	-0.09177878
56	0x3db2af82	0.08724882
57	0x3e3b5b15	0.18296464
58	0xbaca4ba5	-0.0015433921
59	0x3d99b067	0.07504349
60	0x3d39ba46	0.04534366
61	0xbbf7722e	-0.007551453
62	0x3d673b98	0.056453317
63	0xbdc15ff4	-0.0944213
64	0x3daf6dc2	0.085658565
65	0x3b740eda	0.0037240298
66	0x3ca3fa92	0.020016942
67	0x3e1bd3bb	0.15217488
68	0x3d040841	0.032234434
69	0xbe8a4202	-0.27003485
70	0xbeb182bf	-0.34670064
71	0xbec4ac5f	-0.3841276
72	0xbd716cda	-0.0589417
73	0xbdbec5a2	-0.09315039
74	0x3cdec215	0.027192155
75	0x3e64cfb6	0.2234486
76	0xbcc3aa63	-0.023884958
77	0xbdd24b4b	-0.10268267
78	0xbdd458f3	-0.10368528
79	0xbd943d65	-0.072382726
80	0x3eaba224	0.3352214
81	0xbd05578e	-0.0325542
82	0xbd677013	-0.056503367
83	0xbe28509e	-0.16437003
84	0xbe8a07c2	-0.26959044
85	0xbe052043	-0.13000588
86	0xbd2be1d5	-0.041963417
87	0xbc981569	-0.018564897
88	0xbdd92a94	-0.10603824
89	0x3e3873e8	0.18012965
90	0xbea71059	-0.3262966
91	0xbe6de5b7	-0.2323216
92	0xbe49b16f	-0.19696592
93	0x3c228ff4	0.009922016
94	0x3de29856	0.11064212
95	0xbce919c3	-0.028454667
96	0xbe0d84a4	-0.1382013
97	0xbe304439	-0.17213525
98	0xbe00dee6	-0.12585029
99	0xbca09f0c	-0.01960709
100	0x3b96d06d	0.004602483
101	0xbcacb869	-0.021084027
102	0xbe0f125e	-0.1397185
103	0xbe8a4404	-0.27005017
104	0xbd407813	-0.04698951
105	0xbcc3abfe	-0.023885723
106	0x3d3ca91f	0.046059724
107	0xbe97dacd	-0.2965912
108	0xbe226e62	-0.1586242
109	0x3dc920d1	0.09820712
110	0xbd480119	-0.04882917
111	0xbd85c02b	-0.06530794
112	0xbcce8f8a	-0.02521493
113	0xbe6edb4b	-0.23325841
114	0xbdcd6b70	-0.10030258
115	0xbe7e3ad8	-0.24827135
116	0xbd391c5a	-0.045193054
117	0xbcf9224e	-0.030411866
118	0xbca83376	-0.020532351
119	0x3da26f5c	0.07931396
120	0xbe81be1b	-0.2534035
121	0x3cff52ce	0.031167414
122	0x3d3e8c68	0.04652062
123	0xbd5b0b29	-0.05347744
124	0x3d7e8b81	0.06214476
125	0xbd8a5ae7	-0.067556195
126	0xbcfb06f6	-0.030642968
127	0xbe4ec77d	-0.20193286
128	0xbe0940f8	-0.1340369
129	0x3df004cf	0.11719667
130	0x3e0050bb	0.12530796
131	0x3dcd4d57	0.10024517
132	0x3dab0d79	0.08352179
133	0x3e0cb464	0.13740689
134	0x3db9f466	0.090798184
135	0x3d9411b9	0.07229943
136	0xbd6dfb01	-0.058100704
137	0xbcc25aa7	-0.023724867
138	0xbe1cd8f4	-0.15317136
139	0xbe7f4f6c	-0.24932641
140	0x3c9b41f2	0.018952344
141	0x3da8c84c	0.082413286
142	0x3e505b49	0.20347323
143	0x3ca29bd9	0.019849705
144	0x3d9ba5cf	0.07599985
145	0xbe7de9a8	-0.24796164
146	0x3d4edd27	0.050503876
147	0x3cac08d6	0.021000307
148	0xbd9800da	-0.074220374
149	0xbcc974f4	-0.0245919
150	0xbcc52ef5	-0.024070242
151	0xbd9b5ad1	-0.07585681
152	0x3d8ebe9a	0.06969948
153	0xbe034234	-0.12818223
154	0x3da89f7e	0.08233546
155	0xbd47c890	-0.048775256
156	0xbe4de6d6	-0.20107588
157	0xbe0c8823	-0.13723807
158	0xbc322274	-0.010872472
159	0xbdafb93a	-0.08580251
160	0x3db2fdef	0.0873984
161	0x3e3e0b7b	0.18559067
162	0xbe334d16	-0.17509875
163	0xbe4fdd7a	-0.2029933
164	0xbe3a0ea3	-0.18169646
165	0xbd25b297	-0.04045352
166	0xbe48075d	-0.19534059
167	0xbe831d97	-0.25608513
168	0xb9ba2268	-0.0003550232
169	0xbc77bb50	-0.015120342
170	0x3d93bb6d	0.07213483
171	0xbdaca554	-0.08429971
172	0x3c94dd01	0.01817179
173	0xbe06f20f	-0.13178276
174	0xbca1fcda	-0.01977389
175	0xbd8fe70f	-0.07026493
176	0xbe009e07	-0.12560283
177	0xbcc21bcb	-0.023694893
178	0xbe313da0	-0.17308664
179	0x3c8d87dc	0.017276697
180	0xbc8d1b07	-0.017224802
181	0xbe78d5c6	-0.24300298
182	0xbd479ee6	-0.04873552
183	0xbe08f24f	-0.13373683
184	0x3e360ccf	0.17778324
185	0xbd688fd3	-0.056777786
186	0x3e050734	0.12991029
187	0xbdaf9baa	-0.085746124
188	0xbe06bd60	-0.13158178
189	0xbdb65309	-0.089025564
190	0xbe029b79	-0.1275462
191	0xbde8fd3c	-0.113764256
192	0x3dcedd31	0.10100783
193	0x3e0452e1	0.12922241
194	0x3d556dd2	0.052106686
195	0xbdad118f	-0.08450615
196	0xbb92e1f2	-0.004482501
197	0x3dd3a3cc	0.10333976
198	0x3d8af52a	0.067850426
199	0xbb3d71ab	-0.0028906863
200	0xbdf51499	-0.11966819
201	0x3d39e172	0.045381017
202	0x3d02d523	0.031941544
203	0x3bc3d2d8	0.0059760623
204	0xbdba6a6f	-0.09102332
205	0x3e20d185	0.15704925
206	0xbd35b194	-0.044358805
207	0x3d8a3c17	0.067497425
208	0xbda724ba	-0.08161302
209	0x3d21b8bc	0.039482817
210	0xbe49a2d5	-0.19691022
211	0xbb8506d8	-0.0040596537
212	0xbd45da58	-0.048303932
213	0x3d373bd0	0.044734776
214	0x3cee80cb	0.029114148
215	0xbcd71c95	-0.026258746
216	0x3dbc0a1e	0.09181617
217	0x3d3d40ea	0.046204485
218	0x3e3b290e	0.1827738
219	0xbe174346	-0.14771757
220	0xbe04a0d7	-0.1295198
221	0xbc39ffa1	-0.011352451
222	0x3db27fa3	0.08715751
223	0xbd17872a	-0.036994137
224	0xbd7fa628	-0.06241432
225	0xbe9d48d5	-0.3071963
226	0xbd100c6e	-0.035168104
227	0xbed8a649	-0.42314366
228	0x3d263c4d	0.04058485
229	0x3d0c42b2	0.034243293
230	0xbc3a0fff	-0.011356353
231	0x3d8e3372	0.06943406
232	0xbee104c4	-0.43948948
233	0xbd64076b	-0.055671137
234	0xbeaf2279	-0.34205988
235	0x3cdcd0b6	0.02695499
236	0xbd824b18	-0.06361979
237	0xbdee18c8	-0.116258204
238	0xbd67cfd3	-0.05659468
239	0x3d991c95	0.07476155
240	0xbea460c7	-0.32105085
241	0xbd9fd0bd	-0.078034855
242	0xbe019634	-0.12654954
243	0xbcbc4259	-0.022980856
244	0x3d6b5b66	0.05746021
245	0x3d8f1d05	0.06987957
246	0xbe070d5f	-0.13188694
247	0x3e0eed5f	0.13957737
248	0xbdade8e1	-0.08491684
249	0xbcbae80d	-0.022815729
250	0xbe294ad1	-0.16532446
251	0xbba9d7ad	-0.0051831813
252	0xbe23cead	-0.1599681
253	0x3bef0a7b	0.0072949505
254	0xbaf14b74	-0.0018409328
255	0x39d305c6	0.00040249358

5.bias f4 [128]
0	0xbddf0a57	-0.10890644
1	0xbe82895d	-0.25495425
2	0xbdfdaf8d	-0.12386999
3	0xbddc6ab6	-0.10762541
4	0xbe3a0bfe	-0.18168637
5	0xbe564860	-0.20926046
6	0xbdaa64f1	-0.08320034
7	0xbe170234	-0.14746934
8	0xbdfa069c	-0.12208292
9	0xbdd0d3fb	-0.10196682
10	0xbd128cb6	-0.035778724
11	0xbd922574	-0.0713605
12	0xbe508782	-0.20364192
13	0xbe1e78b6	-0.15475735
14	0xbe4841f4	-0.19556409
15	0xbdd54e78	-0.10415357
16	0xbdaed1a3	-0.08536079
17	0xbdef3b00	-0.11681175
18	0xbde393a1	-0.11112142
19	0xbdff5d16	-0.124689266
20	0xbe0387fd	-0.12844844
21	0xbd6db8cb	-0.05803756
22	0xbd325a44	-0.043543115
23	0xbdb7e077	-0.0897836
24	0xbe0a937d	-0.13532825
25	0xbe1c8aa2	-0.15287259
26	0xbd731ac3	-0.059351694
27	0xbdcfbd63	-0.101435445
28	0xbe51a6d2	-0.20473793
29	0xbc98eb8e	-0.018667009
30	0xbd5788e6	-0.05262079
31	0xbe80d0f3	-0.25159416
32	0xbe0b9b7d	-0.13633533
33	0x3e1e4d67	0.15459214
34	0xbe1619db	-0.146583
35	0xbdb3c4b7	-0.08777755
36	0xbe3ad454	-0.18245059
37	0xbdcce501	-0.100046165
38	0xbdfb97a0	-0.122847795
39	0xbe2bfa49	-0.16794695
40	0xbdda3d03	-0.10656168
41	0xbddc6a0e	-0.10762416
42	0xbd92d1d4	-0.07168928
43	0xbe218cda	-0.15776387
44	0xbdc55c0c	-0.09636697
45	0xbe6826fc	-0.22671121
46	0xbd52f6b6	-0.051504813
47	0xbd87a6e9	-0.066236325
48	0xbda7e9fe	-0.08198927
49	0xbda4e255	-0.08050982
50	0xbd983111	-0.07431234
51	0xbdce133f	-0.10062265
52	0xbe20f871	-0.15719773
53	0xbe4605b9	-0.1933812
54	0xbe1bc75a	-0.15212765
55	0xbd94901e	-0.07254051
56	0xbe3f2819	-0.1866764
57	0xbe49f247	-0.19721328
58	0xbe04575c	-0.1292395
59	0xbd3e1f9f	-0.046416875
60	0xbe11ad2d	-0.14226218
61	0xbe2ae0f4	-0.16687375
62	0xbdfa49cf	-0.12221109
63	0xbe080148	-0.13281739
64	0xbe054198	-0.13013303
65	0xbda01bbc	-0.0781779
66	0xbd268e62	-0.04066313
67	0xbdb231e4	-0.08700922
68	0xbe160922	-0.14651921
69	0xbdc9ebfb	-0.09859463
70	0xbe02e21a	-0.12781563
71	0xbde5e281	-0.11224843
72	0xbe17cf3f	-0.14825152
73	0xbdd779ff	-0.10521316
74	0xbdc39699	-0.095502086
75	0xbe22515f	-0.15851353
76	0xbd889c96	-0.066704914
77	0xbe5b1ffb	-0.21398918
78	0xbda5f484	-0.08103278
79	0xbddefd06	-0.10888104
80	0xbe38c4ba	-0.18043795
81	0xbe0e1c6d	-0.13878031
82	0xbd9f1817	-0.07768267
83	0xbc834dc4	-0.016028292
84	0xbd8211e8	-0.063510716
85	0xbe521907	-0.2051736
86	0xbdede52a	-0.11615975
87	0xbd9e6133	-0.07733383
88	0xbc9707fd	-0.018436426
89	0xbdb1c289	-0.08679683
90	0xbe171b5e	-0.14756534
91	0xbe26d9da	-0.16294041
92	0xbe066705	-0.13125236
93	0xbe447f82	-0.19189265
94	0xbd7a85ee	-0.06116288
95	0xbdb8ab5b	-0.090170585
96	0xbd4776a1	-0.048697118
97	0xbdf2b31b	-0.11850568
98	0xbe35dd77	-0.17760263
99	0xbe2ef442	-0.17085364
100	0x3ec84925	0.39118305
101	0xbdbc0e45	-0.09182409
102	0xbdfc9997	-0.123339824
103	0xbde54b1b	-0.11195966
104	0xbdb594d3	-0.088662766
105	0xbe15e723	-0.14638953
106	0xbe1e672e	-0.15469047
107	0xbd95b68a	-0.07310207
108	0xbd9412c8	-0.07230145
109	0xbde71bde	-0.11284612
110	0xbe133207	-0.14374553
111	0xbdca5d83	-0.09881117
112	0xbd762154	-0.060090378
113	0xbe462a5c	-0.19352096
114	0xbdcbc111	-0.09948934
115	0xbd0a9dbe	-0.03384184
116	0xbe51a2dd	-0.20472284
117	0xbda4099f	-0.080096476
118	0xbdba536c	-0.09097943
119	0xbe06c0ed	-0.13159533
120	0xbe278cda	-0.16362324
121	0xbdab3118	-0.08358973
122	0xbe572b38	-0.2101258
123	0xbd80aef4	-0.0628337
124	0xbd0ebf0d	-0.03485017
125	0xbcc28a7a	-0.023747671
126	0xbdb49d09	-0.088190146
127	0xbdd84ebd	-0.10561893

7.weight f4 [128, 128]
0	0x3e1d53c4	0.15363985
1	0xbe051612	-0.129967
2	0x3c2d0cbe	0.01056212
3	0x3d487e5b	0.048948627
4	0x3d2a6e9d	0.041609395
5	0xbcb2aff3	-0.021812415
6	0x3d8c479f	0.06849598
7	0xbbebd86c	-0.0071974304
8	0xbe165de6	-0.14684257
9	0xbdf37129	-0.11886818
10	0xbc05f05a	-0.00817498
11	0xbd842f7f	-0.06454372
12	0x3dd9a94d	0.10627995
13	0x3e1428e0	0.14468718
14	0x3d7cb2d6	0.06169399
15	0xbe329a10	-0.17441583
16	0xbc9f0455	-0.019411245
17	0x3d0d5d65	0.034512896
18	0xbce246d5	-0.027621666
19	0xbe8f672d	-0.28008404
20	0xbe87e044	-0.2653829
21	0x3d3569ce	0.044290356
22	0x3da92059	0.08258123
23	0x3dc1ccb4	0.09462872
24	0xbd4bff11	-0.049803797
25	0xbd26ca8e	-0.040720515
26	0x3dca1901	0.0986805
27	0xbdd95fec	-0.10613999
28	0x3d0c3e7a	0.03423927
29	0xbe379048	-0.17926133
30	0x3c8d492a	0.017246801
31	0xbcaff044	-0.021476872
32	0x3dc59c56	0.09648959
33	0xbe4e5264	-0.20148617
34	0x3e03f857	0.12887703
35	0xbe0c811d	-0.13721128
36	0xbd09d23b	-0.033647757
37	0xbe75804b	-0.23974721
38	0xbda43a90	-0.080189824
39	0xbdf4fc09	-0.119621344
40	0x3dab9ea8	0.08379871
41	0xbc94d333	-0.018167114
42	0x3e1b0945	0.15140255
43	0xbe24bd46	-0.16087827
44	0xbda35378	-0.07974905
45	0xbe2f55eb	-0.17122619
46	0xbc7c009c	-0.015381005
47	0xbe7992ad	-0.24372359
48	0xbea7cd5a	-0.32773858
49	0x3e09fe8a	0.13476005
50	0xbcde94f9	-0.027170645
51	0xbe95f326	-0.2928707
52	0xbd4ddba1	-0.050258283
53	0xbde636a2	-0.11240889
54	0xbe5d815b	-0.21631376
55	0xbcdec0d5	-0.027191559
56	0xbdcd2da3	-0.1001847
57	0xbeac1815	-0.33612123
58	0xbd77422e	-0.06036585
59	0x3db52742	0.088453785
60	0xbcd20a94	-0.02563981
61	0x3ca5648d	0.020189548
62	0xbe263c73	-0.16233997
63	0x3e8181ac	0.25294244
64	0xbbf1d9dd	-0.0073807077
65	0xbe02d66d	-0.1277711
66	0x3e20e2de	0.15711543
67	0x3d99d35e	0.07511018
68	0xbe941770	-0.2892413
69	0x3d88a790	0.06672585
70	0xbc42235b	-0.01184925
71	0xbe8b49d1	-0.27204755
72	0xbd41359b	-0.047170263
73	0xbbb498e7	-0.0055113914
74	0xbcb58a12	-0.022160564
75	0xbe2b125c	-0.16706222
76	0xbcd9e396	-0.02659778
77	0xbe34a671	-0.17641617
78	0xbe7d6977	-0.24747263
79	0xbd822e20	-0.06356454
80	0xbd24b08e	-0.04020744
81	0x3d86f9a3	0.06590583
82	0xbcfac51d	-0.030611569
83	0xbda0d58e	-0.07853232
84	0xbd20ddbf	-0.039273974
85	0xbdb5b1c5	-0.088717975
86	0xbe707afb	-0.23484413
87	0xbc274206	-0.010208612
88	0x3e2a59df	0.16635846
89	0xbdb68949	-0.08912904
90	0xbcbf1c11	-0.023328813
91	0xbe87bfc8	-0.26513505
92	0x3d82bbad	0.063834526
93	0xbd4ed894	-0.050499514
94	0xbc31f5e4	-0.010861848
95	0x3e062acb	0.13102262
96	0xbdbfebf6	-0.09371178
97	0xbd86cd59	-0.06582136
98	0xbe2776ef	-0.16353963
99	0x3db2dbce	0.08733331
100	0x3e2b6555	0.16737874
101	0xbe452aa6	-0.1925455
102	0x3da1d796	0.07902448
103	0xbc31d363	-0.010853621
104	0xbca6c3d7	-0.020357056
105	0xbdba11fb	-0.09085461
106	0xbe1c60b3	-0.15271263
107	0x3dd903cc	0.10596427
108	0xbc96a232	-0.018387888
109	0xbc39edbb	-0.011348183
110	0xbc749ab2	-0.01492946
111	0xbef55bbd	-0.47921553
112	0x3dcb7389	0.09934146
113	0xbcdac2c4	-0.0267042
114	0x3d0d0b2c	0.034434482
115	0x3e3c044f	0.18361019
116	0xbd5d6e3e	-0.054060213
117	0xbed39205	-0.41322342
118	0xbe05d934	-0.13071138
119	0x3d96880c	0.07350168
120	0xbc99a673	-0.018756127
121	0xbd250d5f	-0.040295955
122	0xbe8ed210	-0.2789464
123	0xbcd4d1d7	-0.025978966
124	0x3d964a6d	0.07338414
125	0xbb77734e	-0.0037757936
126	0xbdce8766	-0.10084419
127	0xbdc396f7	-0.09550279
128	0xbe2e7b0c	-0.17039126
129	0x3e087df8	0.13329303
130	0xbbf66efd	-0.007520555
131	0x3e79901b	0.24371378
132	0xbe1a5d26	-0.15074596
133	0xbe25f086	-0.16205034
134	0xbea6ab17	-0.32552406
135	0xbd840442	-0.064461246
136	0xbdf470f1	-0.11935604
137	0x3cc15192	0.023598466
138	0xbaa1f6a7	-0.0012356833
139	0xbcaf3a59	-0.021390127
140	0xbce87a8e	-0.028378751
141	0x3906c273	0.00012851674
142	0xbdfcbd8c	-0.12340841
143	0x3d4b9928	0.049706608
144	0x3e2b5cf9	0.16734685
145	0xbcf99583	-0.0304668
146	0xbd541c7c	-0.051784977
147	0xbebb4843	-0.3657857
148	0x3b5f7a98	0.0034100171
149	0xbdb38b6b	-0.08766826
150	0xbe8cee52	-0.27525574
151	0x3c707dec	0.01467846
152	0x3cadc9c7	0.021214379
153	0x3d29622a	0.041353382
154	0x3dd95efd	0.10613821
155	0xbe70b934	-0.2350815
156	0xbd03b935	-0.03215905
157	0xbdb23609	-0.08701713
158	0xb9e8fe73	-0.00044440068
159	0x3e01b969	0.12668385
160	0xbd98b911	-0.074571736
161	0xbe58e3ab	-0.21180598
162	0x3d26bb62	0.040706046
163	0x3d9e0336	0.07715456
164	0xbd30574c	-0.043052003
165	0xbe81722c	-0.2528242
166	0x3e159308	0.14606869
167	0x3e21e3bc	0.1580953
168	0xbbab8927	-0.0052348557
169	0x3e0dcf5b	0.13848631
170	0x3c52e97e	0.012873052
171	0xbe1e7a82	-0.1547642
172	0xbd7c592b	-0.061608475
173	0xbcf9a8ad	-0.030475939
174	0x3df18450	0.11792815
175	0xbc38d473	-0.011281121
176	0x3de76d37	0.11300128
177	0xbde2d907	-0.11076551
178	0x3d9b2c93	0.07576861
179	0xbdf32781	-0.11872769
180	0x3dd8e0df	0.10589766
181	0x3e34994e	0.17636606
182	0x3e530044	0.2060557
183	0x3db8157f	0.08988475
184	0xbd21564e	-0.039388947
185	0xbe2aecc5	-0.16691883
186	0xbdfce827	-0.12348967
187	0xbb3ec2dd	-0.0029107847
188	0xbe67e240	-0.22644901
189	0x3da5f9ab	0.08104261
190	0xbd8b55a3	-0.06803443
191	0xbc9d59d4	-0.019207872
192	0x3a80a600	0.0009815097
193	0x3da342f6	0.07971756
194	0xbe60bb95	-0.21946557
195	0x3d9a72ab	0.075414024
196	0xbe6319fa	-0.22177878
197	0xbce29ae2	-0.027661745
198	0xbcab2088	-0.020889536
199	0x3e2dfd63	0.1699119
200	0xbc3bd5e9	-0.011464574
201	0xbe85e23c	-0.26149166
202	0xbb16059f	-0.0022891534
203	0xbbc52645	-0.006016525
204	0x3e04bf4c	0.12963599
205	0xbe246028	-0.16052306
206	0xbe88f7d6	-0.26751584
207	0xbe9a11ea	-0.30091792
208	0x3cfb03a7	0.03064139
209	0x3d2f3e5b	0.042784076
210	0xbe3064e4	-0.17225987
211	0xbea3159e	-0.3185243
212	0xbe73611c	-0.23767513
213	0x3e2264e9	0.15858807
214	0xbd5c9654	-0.0538543
215	0xbca60589	-0.020266311
216	0xbcfd30e7	-0.030907108
217	0xbd0b21f2	-0.03396792
218	0xbe5924b3	-0.21205406
219	0x3d6f93d3	0.058490586
220	0x3d4d57e5	0.05013265
221	0xbcecbb73	-0.028897977
222	0xbe633dc6	-0.22191533
223	0x3d705e4f	0.05868369
224	0xbe8cb624	-0.27482712
225	0xbe06d576	-0.13167366
226	0xbdd02825	-0.10163907
227	0xbcb59a79	-0.022168385
228	0xba1381d9	-0.0005626954
229	0xbe0581ae	-0.1303775
230	0x3db96cb4	0.090539366
231	0xbe306cfb	-0.17229073
232	0x3e5cfb94	0.21580344
233	0xbd9c733e	-0.07639168
234	0xbe632443	-0.22181801
235	0xbe337d6f	-0.17528318
236	0xbda842a6	-0.08215837
237	0x3d153b87	0.036433723
238	0xbdc6662e	-0.09687458
239	0xbe31da0e	-0.17368338
240	0x3de44fe9	0.11148054
241	0xbd6406f9	-0.055670712
242	0x3cded3b6	0.027200561
243	0x3d247aa3	0.040156018
244	0xbd9068fc	-0.07051274
245	0xbc32cc9a	-0.010913039
246	0xbccba68c	-0.02485969
247	0x3d7aeacc	0.061259076
248	0xbd80f6da	-0.06297083
249	0xbd473386	-0.04863312
250	0xbc3142fe	-0.010819195
251	0xbdbb7cf8	-0.09154695
252	0xbc60f725	-0.013730799
253	0xbd55da1b	-0.052209955
254	0xbe3ca4b3	-0.18422203
255	0x3e3fe0ef	0.18738149

7.bias f4 [128]
0	0xbe9a0fe3	-0.30090246
1	0xb9543f26	-0.0002024142
2	0xbddc1591	-0.10746301
3	0xbe476ed4	-0.19475871
4	0xbccf3721	-0.025294842
5	0x3e056ec7	0.1303054
6	0xbe1f74c2	-0.15571883
7	0xbdcdb70b	-0.10044678
8	0xbdc3e252	-0.095646515
9	0xbe29a9bf	-0.16568659
10	0xbe07ec38	-0.13273704
11	0xbe0f3e0d	-0.13988514
12	0xbe14690a	-0.14493194
13	0xbe1945fb	-0.14968102
14	0xbdc2c031	-0.09509314
15	0xbe0f9b6e	-0.14024135
16	0xbe8f4783	-0.27984247
17	0xbe16b9cc	-0.14719313
18	0xbd3f4ca0	-0.046703935
19	0xbe084de8	-0.13310969
20	0xbe53df27	-0.20690595
21	0xbdda2e9e	-0.10653423
22	0xbe0f8a13	-0.14017515
23	0xbe162261	-0.14661552
24	0xbe030554	-0.12795001
25	0xbdae8e71	-0.08523262
26	0xbd9526f3	-0.072828196
27	0xbdef247f	-0.11676883
28	0xbe3c4824	-0.18386894
29	0xbe12365d	-0.1427855
30	0xbdfd65d3	-0.12372937
31	0xbdd58245	-0.104252376
32	0xbdd1baab	-0.10240682
33	0xbe0b2b6f	-0.13590787
34	0xbdef5ad3	-0.11687245
35	0xbddcc4a5	-0.107796945
36	0xbe25e3d1	-0.16200186
37	0xbe072a63	-0.13199763
38	0xbdbfc0d1	-0.09362949
39	0xbdbdbfe5	-0.092651166
40	0xbe415fa4	-0.1888414
41	0xbdd43a5b	-0.10362693
42	0xbc8d7f42	-0.017272595
43	0xbdf8def4	-0.121519
44	0x3e3a4063	0.18188624
45	0xbdaef829	-0.085434265
46	0x3d190b41	0.03736425
47	0xbe035ec2	-0.12829116
48	0xbe93bcca	-0.28854972
49	0xbdf314a8	-0.11869174
50	0xbe2e3675	-0.17012961
51	0xbdf4b41f	-0.11948418
52	0xbe0c3fb1	-0.13696171
53	0xbdaa2018	-0.08306903
54	0xbe06d020	-0.13165331
55	0xbdd8e995	-0.10591427
56	0xbe54b818	-0.20773351
57	0xbe39c25f	-0.18140553
58	0xbe1c224d	-0.1524746
59	0xbdf8b6b8	-0.12144226
60	0xbdce8367	-0.10083657
61	0xbddb50ae	-0.10708748
62	0xbdb26b34	-0.087118536
63	0xbe470bfa	-0.19438162
64	0x3ee51c0f	0.4474797
65	0xbe1d67d0	-0.15371633
66	0xbe025544	-0.12727839
67	0xbe09cd39	-0.13457192
68	0xbdae5018	-0.085113704
69	0xbdb827bd	-0.089919545
70	0xbd233e9d	-0.039854635
71	0xbc971ca2	-0.01844627
72	0xbe8c3902	-0.27387244
73	0xbdae3929	-0.08506996
74	0xbe1bc9f0	-0.15213752
75	0xbe15d827	-0.14633237
76	0xbe025687	-0.1272832
77	0xbdf77e32	-0.12084617
78	0xbdc50786	-0.096205756
79	0xbe919a02	-0.2843781
80	0xbddcfcbb	-0.10790392
81	0xbdd33d79	-0.10314459
82	0xbe1a4f6d	-0.15069361
83	0xbe04a927	-0.12955151
84	0xbdc6f5db	-0.09714862
85	0xbe06abcf	-0.13151477
86	0xbe75daf9	-0.24009313
87	0xbe01348d	-0.12617703
88	0xbea01583	-0.31266412
89	0xbdbd39ab	-0.09239515
90	0x3e1efb29	0.15525497
91	0xbe23c40e	-0.15992758
92	0xbdcf58db	-0.1012437
93	0x3d64342e	0.055713825
94	0xbdc4e897	-0.096146755
95	0xbe4ef55f	-0.20210789
96	0xbddd031d	-0.107916094
97	0xbdf00827	-0.11720305
98	0xbdd8d8fa	-0.1058826
99	0xbdf4507a	-0.11929412
100	0xbe012b3b	-0.12614147
101	0xbdfcca21	-0.123432405
102	0xbddc7734	-0.10764924
103	0xbdc993d4	-0.09842649
104	0xbdffa327	-0.12482291
105	0xbde6be6e	-0.1126679
106	0xbe1b4fbf	-0.1516714
107	0xbe11bb0d	-0.1423151
108	0xbdde3267	-0.10849457
109	0xbe00cc21	-0.12577869
110	0xbe145cc5	-0.14488514
111	0xbde81e85	-0.11333946
112	0xbe05b4dc	-0.13057274
113	0xbdebaf62	-0.11508061
114	0xbd3d4a8e	-0.04621368
115	0xbe1ea4b9	-0.15492524
116	0xbde29549	-0.1106363
117	0xbe50ea3b	-0.20401852
118	0xbdc22cbc	-0.09481189
119	0xbde51304	-0.111852676
120	0xbd404a02	-0.04694558
121	0xbe1efa17	-0.15525089
122	0xbde075f6	-0.10959999
123	0xbe3361ac	-0.17517728
124	0xbe08367d	-0.13302036
125	0xbe0e0e86	-0.13872728
126	0xbde12d1d	-0.10994933
127	0xbe46d83c	-0.19418424

9.weight f4 [128, 128]
0	0x3761b753	1.3453729e-05
1	0xb754837c	-1.2666798e-05
2	0xbd8ddd3b	-0.06926962
3	0x3e63a297	0.22229992
4	0xbe151c17	-0.14561497
5	0x3ee0b537	0.43888256
6	0xb6930cbf	-4.3824252e-06
7	0xbeae66fb	-0.34062943
8	0xbca7107a	-0.020393599
9	0x3e26cb7e	0.16288564
10	0xbe9eddd5	-0.3102862
11	0xbe127bf5	-0.14305098
12	0x3e0ac79b	0.13552706
13	0xbc3a5168	-0.011371948
14	0xbe085285	-0.13312729
15	0x39782a8c	0.00023666973
16	0x3b0b3750	0.0021242686
17	0xbbcb7b7e	-0.00620979
18	0x3c0b4abc	0.008501705
19	0xbe330b94	-0.17484885
20	0xbcf277bb	-0.029598108
21	0x3defbe60	0.11706233
22	0xbe849337	-0.25893566
23	0xbdee843e	-0.11646317
24	0x3b6decd0	0.0036304481
25	0xbe1d30d7	-0.15350662
26	0xbdd6e84d	-0.104935266
27	0x3d696a61	0.056986216
28	0xbc53f5a5	-0.012936984
29	0x3e22a1d7	0.1588205
30	0x3d4451f9	0.047929738
31	0xbe55820f	-0.20850395
32	0x3e1ae3a4	0.151259
33	0xbdf3c8bc	-0.119035214
34	0xbe05261c	-0.13002819
35	0xbe1a5530	-0.15071559
36	0xbe5256ba	-0.20540896
37	0x3dcb94a7	0.099404626
38	0xbe808f7e	-0.25109476
39	0xbd10151b	-0.035176378
40	0x35004fac	4.7799654e-07
41	0xbe1ce1ab	-0.1532046
42	0xbc4e7a22	-0.012602361
43	0x3e2428ee	0.16031238
44	0x3e2b53d3	0.16731195
45	0xbe70c987	-0.23514377
46	0x3a87eddb	0.0010370569
47	0xbcc9992d	-0.024609173
48	0x37be7422	2.2703844e-05
49	0x3e25ad6f	0.16179441
50	0x3e777539	0.2416581
51	0x3dcf7808	0.10130316
52	0xbcc27602	-0.023737911
53	0xbe74d08c	-0.2390768
54	0xbe244c49	-0.16044725
55	0x3c3ce9da	0.011530364
56	0xbc28c2af	-0.010300322
57	0xbdaf05db	-0.08546039
58	0xbd9bf014	-0.07614151
59	0x3c5ee13a	0.013603503
60	0xbd342881	-0.04398394
61	0xbce998cf	-0.028515248
62	0xbcb66130	-0.02226314
63	0x380ec5ce	3.403966e-05
64	0x3eaec0c2	0.34131438
65	0xbe1ddc6f	-0.1541612
66	0xbe9adaf1	-0.30245164
67	0xbe5e4e60	-0.21709585
68	0xbeb03934	-0.34418643
69	0x3d66d606	0.056356452
70	0xbb33672c	-0.0027374728
71	0xbac463c1	-0.0014983342
72	0x3db5cb2e	0.08876644
73	0xbc4bf6d1	-0.012448982
74	0xbe58de7a	-0.21178618
75	0x3d96e9d6	0.073688194
76	0xbd74f530	-0.05980414
77	0x3e37aa82	0.17936137
78	0xbdc17279	-0.09445662
79	0x3620390d	2.3875066e-06
80	0xbde48406	-0.11157994
81	0xbe3ad26a	-0.18244329
82	0xbe09a6dc	-0.13442558
83	0xbe444769	-0.19167866
84	0x3cc5b28c	0.02413299
85	0x3dff7db0	0.12475145
86	0x3e290d20	0.16508913
87	0xb98467ab	-0.0002525424
88	0x3717ed3a	9.055535e-06
89	0xb72bdd76	-1.0243957e-05
90	0x3e6a6eed	0.22893877
91	0xbe3eef7d	-0.18646045
92	0xbd8d60d3	-0.069032334
93	0x3f0aeb39	0.5426517
94	0xbe6c8119	-0.23096122
95	0x3e51a0f5	0.20471556
96	0xbe20bc95	-0.15696938
97	0x3e50f7ff	0.20407103
98	0x3d85a19c	0.06524965
99	0xb5e5a92b	-1.7111064e-06
100	0x3bf64755	0.0075158277
101	0xb896d0f2	-7.1914765e-05
102	0xbe08d33d	-0.13361831
103	0x391925be	0.00014605277
104	0x3c064ee4	0.00819752
105	0xbcc8940b	-0.024484655
106	0x3bd63296	0.006536792
107	0xbcfda550	-0.030962616
108	0x3db2c03b	0.08728071
109	0xbd44f147	-0.048081663
110	0x3d481268	0.04884568
111	0xbcefd341	-0.029275538
112	0x3e0e1c9c	0.13878101
113	0x3d3e311c	0.046433553
114	0xbc5c8f41	-0.013461889
115	0x3e124117	0.14282642
116	0xbdc64923	-0.096819185
117	0xbda9f95e	-0.08299516
118	0xbc83f1f0	-0.016106576
119	0xbe4c119f	-0.19928597
120	0xb8f2a784	-0.000115706614
121	0xbe694b58	-0.22782648
122	0x39a67f71	0.0003175694
123	0x3cf216ed	0.029551947
124	0xbc8bb454	-0.01705376
125	0xb8ede6db	-0.00011344041
126	0x3dcb36fe	0.09922598
127	0xbd23cd51	-0.039990727
128	0xbda0de24	-0.0785487
129	0x3de39816	0.111129925
130	0xbcc610f2	-0.024178002
131	0x3cc92cce	0.024557497
132	0xbd395ee8	-0.045256525
133	0xbe0ee25b	-0.13953535
134	0xbe6026b4	-0.21889764
135	0xbcb9a509	-0.022661703
136	0x3ca0d50f	0.019632844
137	0x3d0cf90e	0.034417205
138	0xbceedf07	-0.029159082
139	0xbd92aa5b	-0.07161399
140	0x3dfc46d6	0.123181984
141	0xbcef2455	-0.02919213
142	0xbcc3ff89	-0.02392556
143	0x3c745e6e	0.014915092
144	0xbc5402fd	-0.012940166
145	0xbcca53a4	-0.024698086
146	0xbc5f5fd7	-0.01363369
147	0xbd6a93b9	-0.057269786
148	0x3d01fa9d	0.031733144
149	0x3d752436	0.059848987
150	0xbba5d209	-0.0050604385
151	0xbe39926b	-0.1812226
152	0xbe777a53	-0.24167757
153	0x3e55d93a	0.20883647
154	0xbd7deb05	-0.06199171
155	0xbd4ed3f8	-0.050495118
156	0xbe6297b7	-0.22128187
157	0xbc01c0d5	-0.00791951
158	0xbc729a5c	-0.01480731
159	0x3dad5e5d	0.08465264
160	0xbd70dbb9	-0.058803294
161	0xba9a0f23	-0.0011753779
162	0xbae49676	-0.001743986
163	0x3da76e03	0.0817528
164	0xbc2057d9	-0.0097865695
165	0xbeaaf91c	-0.3339318
166	0xbe9ac6ea	-0.30229884
167	0xbd6a8446	-0.057255052
168	0xbddf6f6f	-0.10909926
169	0xbcfef6d7	-0.031123562
170	0xbddc00d6	-0.10742347
171	0x3dff9d84	0.124812156
172	0xbe56ddd0	-0.20983052
173	0xbde2e51b	-0.11078855
174	0xbe61068a	-0.2197515
175	0x3d49fd47	0.04931381
176	0xbe0f4a05	-0.1399308
177	0xbe8b4ef8	-0.27208686
178	0xbd11da9d	-0.035608876
179	0xbe77da09	-0.24204268
180	0xbda4adfc	-0.080409974
181	0x3e23befa	0.1599082
182	0xbd9b9c66	-0.0759819
183	0xbe5685c1	-0.2094946
184	0x3e24bd0d	0.16087742
185	0x3ca80448	0.020509854
186	0x3d094a33	0.033518028
187	0xbe23f8d1	-0.16012885
188	0xbaabbae7	-0.0013101966
189	0xbd6148e9	-0.055001173
190	0xbb5cc34e	-0.0033685747
191	0x3c6f3265	0.014599417
192	0xbe11581d	-0.14193769
193	0xbdd1a505	-0.10236553
194	0xbe3f0bad	-0.18656798
195	0xbda147a2	-0.07874991
196	0xbac4a254	-0.0015001991
197	0x3e208362	0.15675119
198	0x3e15278f	0.14565872
199	0xbc7a96a8	-0.015294708
200	0xbe011a84	-0.12607771
201	0x3da488a2	0.08033873
202	0x3c781cd4	0.015143592
203	0xba692a37	-0.0008894535
204	0x3d9ef009	0.07760627
205	0xbe73b652	-0.23800018
206	0x3e006afe	0.12540814
207	0xbd9e37d1	-0.0772549
208	0xbe28f672	-0.16500261
209	0xbe0328a3	-0.1280847
210	0xbe9b6a8c	-0.30354726
211	0x3dc72c49	0.097252436
212	0xbe01f642	-0.12691596
213	0xbcaa3a48	-0.020779744
214	0x3bd9310e	0.006628162
215	0xbc5d8599	-0.013520622
216	0xbe428f3c	-0.18999952
217	0x3dbfff4e	0.093748674
218	0xbe488c2b	-0.1958472
219	0xbde75b81	-0.1129675
220	0xbc0c1b2a	-0.008551398
221	0xbdaf5d45	-0.085627116
222	0xbd68f308	-0.056872398
223	0xb8949094	-7.08412e-05
224	0x3c7f749c	0.015591767
225	0xbd80ebbc	-0.06294963
226	0xbbf93d9d	-0.007606222
227	0xbd827bec	-0.063712925
228	0xbe4c7eab	-0.19970195
229	0xbbf35643	-0.0074260547
230	0x3ba4be69	0.0050275815
231	0x3e2df94c	0.1698963
232	0xbd969739	-0.07353062
233	0x3dab6b43	0.08370068
234	0xbdc65742	-0.09684612
235	0x3dfca926	0.1233695
236	0xbe7176c5	-0.23580463
237	0xbd356c8f	-0.044292983
238	0xbe124754	-0.14285022
239	0xbe259dc1	-0.1617346
240	0xbdcf4b50	-0.101217866
241	0xbe9d7384	-0.30752194
242	0x3e0fc1c3	0.14038758
243	0x3d1f7e4d	0.03893881
244	0xbddd9837	-0.10820048
245	0xbdc4f389	-0.09616763
246	0xbd56ad4e	-0.05241137
247	0xbb94e509	-0.0045439047
248	0xbdc35b83	-0.09538939
249	0xbbadfe77	-0.0053098756
250	0x3c87b461	0.016565504
251	0x3c4af291	0.012386934
252	0xbeb987cd	-0.3623642
253	0x3dab7b12	0.08373083
254	0xbd108320	-0.0352813
255	0x3e87fe52	0.26561219

9.bias f4 [128]
0	0x3d039bb3	0.03213091
1	0xbe020120	-0.12695742
2	0xbde5f2dd	-0.11227963
3	0xbdb42f36	-0.08798067
4	0xbe0a4969	-0.13504566
5	0xbdea93a1	-0.11453939
6	0xbd8e1640	-0.069378376
7	0xbdd349e7	-0.1031683
8	0xbdeea146	-0.11651854
9	0xbdab6691	-0.08369172
10	0xbe5997c3	-0.21249299
11	0xbdb96e4e	-0.09054242
12	0xbe338da6	-0.17534503
13	0xbd8016f6	-0.062543795
14	0xbe2fd831	-0.17172314
15	0xbe4674dc	-0.19380516
16	0xbde86e77	-0.113491945
17	0xbe501de8	-0.20323908
18	0xbd9a5a95	-0.075368084
19	0xbded31cb	-0.11581763
20	0xbe0427bc	-0.12905782
21	0xbdcf2f38	-0.10116428
22	0xbdb9acef	-0.090661876
23	0xbe26bb08	-0.16282284
24	0xbe415bcc	-0.18882674
25	0xbdce4158	-0.10071057
26	0xbde4ab43	-0.11165478
27	0xbe030c88	-0.12797749
28	0xbdd58a07	-0.10426717
29	0xbdc7bb60	-0.09752536
30	0xbdba5205	-0.09097675
31	0xbdbf6195	-0.09344784
32	0xbde4b05d	-0.11166451
33	0xbdcdd7e1	-0.10050941
34	0xbd9e581f	-0.077316515
35	0xbda6043a	-0.08106275
36	0xbe10b7ad	-0.14132567
37	0xbdfe739b	-0.12424394
38	0xbdd514e2	-0.10404374
39	0xbdeccbeb	-0.11562332
40	0xbdef994a	-0.116991594
41	0xbde42799	-0.11140365
42	0xbd714181	-0.05890036
43	0xbe1e7269	-0.15473332
44	0xbdbfd810	-0.093673825
45	0xbde1a1bd	-0.11017177
46	0xbe346b33	-0.17619018
47	0xbda997da	-0.082809165
48	0xbe079ee7	-0.1324421
49	0xbdab51d8	-0.0836522
50	0xbd8d4dd7	-0.068996124
51	0xbde8a135	-0.11358873
52	0xbe54de9d	-0.20788045
53	0xbe70f323	-0.2353025
54	0xbd1de5f8	-0.038549393
55	0xbe0092ec	-0.12556046
56	0xbdc58b0d	-0.096456625
57	0xbe1e8f3f	-0.15484332
58	0xbe1a5f37	-0.15075384
59	0xbe1117c1	-0.14169218
60	0xbe1678e3	-0.14694552
61	0xbe696711	-0.22793223
62	0xbdbeba5d	-0.0931289
63	0xbe431e1f	-0.19054459
64	0xbdbc126c	-0.09183201
65	0xbde172b6	-0.110082075
66	0xbdcd67b6	-0.10029547
67	0xbd6a3eeb	-0.05718891
68	0xbea85ba3	-0.32882413
69	0xbe30ad4a	-0.17253605
70	0xbd841ab1	-0.064504035
71	0xbdf970a6	-0.12179689
72	0xbddbdc18	-0.10735339
73	0xbe2f7db2	-0.17137793
74	0xbdc08fda	-0.094024375
75	0xbdea4f0e	-0.1144086
76	0xbe00d24e	-0.12580225
77	0xbded0eb1	-0.11575068
78	0xbddbd788	-0.10734469
79	0xbe344abb	-0.17606632
80	0xbd787719	-0.060660455
81	0xbdae7aba	-0.08519502
82	0xbddd6ec5	-0.10812143
83	0xbe1a6533	-0.15077667
84	0xbe177680	-0.14791298
85	0xbe1f7bd5	-0.15574582
86	0xbdfb5f4b	-0.12274035
87	0xbe0c5cb2	-0.13707235
88	0xbdd32361	-0.10309482
89	0xbe34df9d	-0.17663427
90	0xbe14049d	-0.14454885
91	0xbdc512a5	-0.09622697
92	0xbdce6322	-0.10077502
93	0xbda4fc3c	-0.080559224
94	0xbe0962b4	-0.13416559
95	0xbdf10eed	-0.11770425
96	0xbd2e5e9d	-0.0425707
97	0xbdf0bc35	-0.11754648
98	0xbdd2c407	-0.102912955
99	0xbde4c0f6	-0.11169617
100	0xbdfe077f	-0.124037735
101	0xbe0c8ceb	-0.13725631
102	0xbe1908c2	-0.14944747
103	0xbe137d72	-0.14403322
104	0xbe043b81	-0.12913324
105	0xbe1d77dd	-0.15377755
106	0xbdd9cdfe	-0.10634993
107	0xbe179ca1	-0.14805843
108	0xbdbd2516	-0.09235589
109	0xbdd1b6c6	-0.102399394
110	0xbdd736cb	-0.10508498
111	0xbda5f4e4	-0.0810335
112	0xbdc7b99a	-0.097521976
113	0xbe34f38f	-0.17671035
114	0xbe0e4da7	-0.1389681
115	0xbdbb149b	-0.091347896
116	0xbe273b7c	-0.16331285
117	0xbda01093	-0.07815661
118	0xbe0aeea4	-0.13567597
119	0xbd1f3b92	-0.03887517
120	0xbdbae428	-0.091255486
121	0xbe080867	-0.13284455
122	0xbe2409a5	-0.16019304
123	0xbe82524f	-0.2545342
124	0xbd97b789	-0.074080534
125	0xbdf45728	-0.11930686
126	0xbe1f565a	-0.15560284
127	0xbe15b6aa	-0.14620462

11.weight f4 [128, 128]
0	0xbd84f5e6	-0.06492214
1	0xbbbd5057	-0.0057773995
2	0xbc0010ba	-0.007816488
3	0x3c78dfb1	0.015190051
4	0xbbbab431	-0.00569775
5	0xbba75a89	-0.005107228
6	0xbdc0cf2c	-0.09414515
7	0xbde815c3	-0.11332276
8	0xbda1f912	-0.079088345
9	0xbe12b19e	-0.14325568
10	0xbd20cd43	-0.039258253
11	0xbb3bc77d	-0.002865284
12	0xbd8cebf8	-0.06880945
13	0xbcee5bd2	-0.029096518
14	0xbe33b362	-0.17548898
15	0xbc9a9ee2	-0.01887459
16	0xbd23b0fd	-0.03996371
17	0xbd8edf0d	-0.06976137
18	0x3da85f9c	0.08221361
19	0x3d00f5cf	0.03148442
20	0x3d06bc70	0.03289455
21	0xbe31b960	-0.17355871
22	0xbe066b3a	-0.13126841
23	0x3c64c21a	0.013962293
24	0xbd3647f1	-0.044502202
25	0xbe17961d	-0.14803357
26	0xbe5a34e8	-0.21309245
27	0xbe286d63	-0.16447978
28	0xbe00b24f	-0.1256802
29	0xbe33f748	-0.17574799
30	0xbdf520c6	-0.11969142
31	0xbd18d905	-0.03731634
32	0xbdc94c48	-0.098290026
33	0xbcb673f3	-0.022272086
34	0xbdeca8c9	-0.11555631
35	0xbc5b3885	-0.0133801745
36	0xbe84f27c	-0.2596625
37	0xbd567f04	-0.052367225
38	0xbdef2ef9	-0.11678881
39	0xbdf1c5d9	-0.118053146
40	0xbe8174b3	-0.25284347
41	0xbe776aa3	-0.24161772
42	0xbdd18088	-0.102295935
43	0xbd8b5cba	-0.068047956
44	0x3cd75c52	0.026289139
45	0xbcc0b6e5	-0.02352471
46	0xbaa51a5d	-0.0012596358
47	0xbe3bf676	-0.18355736
48	0xbd15091a	-0.036385633
49	0xbc9e12f9	-0.019296156
50	0x3d83fd01	0.06444741
51	0xbe435fbe	-0.19079491
52	0xb98708d9	-0.000257558
53	0xbcf69d73	-0.030104375
54	0xbdebd8c4	-0.11515954
55	0x3b9fc34e	0.004875577
56	0xbe346faf	-0.17620729
57	0xbd8abdd8	-0.06774491
58	0xbe3ac264	-0.18238217
59	0xbd0e8846	-0.03479793
60	0x3caf4965	0.021397302
61	0x3d058541	0.032597784
62	0xbe597a3e	-0.21238038
63	0xbd0ac14f	-0.03387576
64	0xbd0a8f7f	-0.033828255
65	0xbde0a46b	-0.1096886
66	0xbd749a6e	-0.059717588
67	0xbcb40a84	-0.02197767
68	0xbc76bbc5	-0.015059416
69	0xbcf33599	-0.029688643
70	0xbc7e8849	-0.015535423
71	0x3bb7920a	0.005602126
72	0xbe469011	-0.19390894
73	0x3c9317a4	0.017955609
74	0xbdfa2e56	-0.12215869
75	0xbdbd09b0	-0.09230363
76	0xbd11d431	-0.035602752
77	0x3d65fe32	0.056150623
78	0xbce68948	-0.028141633
79	0xbbb25aa3	-0.0054429336
80	0xbe4d6aaa	-0.2006022
81	0xbe16c5d1	-0.14723898
82	0xbd1562e6	-0.03647127
83	0x3e17058a	0.14748207
84	0xbccf3425	-0.02529342
85	0xbe40eae4	-0.18839604
86	0xbe398f41	-0.18121053
87	0xbde680e3	-0.11255052
88	0xbd81c3db	-0.063361846
89	0xb9309a65	-0.00016842184
90	0xb9a0560f	-0.00030581697
91	0x3d3facb8	0.046795577
92	0xbd6694dc	-0.056294307
93	0x3bee3ebd	0.0072706626
94	0xbe4b5503	-0.19856648
95	0xbc997349	-0.01873173
96	0xbd1c5421	-0.03816617
97	0xbd2c8c3d	-0.04212593
98	0xbd167012	-0.036727972
99	0xbe068949	-0.13138308
100	0xbd2b98fb	-0.04189394
101	0xbe8c414b	-0.27393565
102	0x3d8f619e	0.07001041
103	0x3d009861	0.03139532
104	0xbdbcac07	-0.09212499
105	0xbe314ab1	-0.17313649
106	0xb93bca9d	-0.00017909189
107	0xbcd756f5	-0.026286582
108	0xbe7a70f8	-0.24457157
109	0x3d33da34	0.043909267
110	0xbd1593e0	-0.036517978
111	0xbd2a7e97	-0.04162463
112	0xbe4707b7	-0.19436537
113	0xbdc1fc51	-0.09471954
114	0xbda5dd75	-0.0809888
115	0xbd1318eb	-0.035912436
116	0xbe690300	-0.2275505
117	0xbce59392	-0.028024469
118	0xbd99517b	-0.07486244
119	0xbdc438cf	-0.09581148
120	0xbe0aabda	-0.13542119
121	0xbde75ac2	-0.112966076
122	0xbe09e33f	-0.13465594
123	0xbdab322e	-0.083591804
124	0xbd8aed08	-0.067834914
125	0xbe2ccacd	-0.16874237
126	0xbd8743a9	-0.06604702
127	0xbe2613dc	-0.16218513
128	0xbe7bba1c	-0.24582714
129	0xbd0a2a93	-0.03373201
130	0xbdc5c70b	-0.09657105
131	0xbaac74ce	-0.0013157369
132	0xbd2211e0	-0.03956783
133	0xbdaf94a2	-0.08573271
134	0x3d2ca923	0.04215349
135	0xbe801367	-0.25014803
136	0xbd02c94a	-0.031930245
137	0x3e12e66e	0.14345714
138	0x3e6e93a7	0.23298512
139	0xbce0f6a5	-0.02746136
140	0xbeba7090	-0.36414003
141	0xbe3fb651	-0.18721892
142	0xbd06892c	-0.03284566
143	0xbebdeca4	-0.37094605
144	0xbc3a288b	-0.011362205
145	0xbc9b1480	-0.018930674
146	0xbe2b4626	-0.16725978
147	0x3d4bc477	0.04974791
148	0xbc724353	-0.014786559
149	0xbc521aaf	-0.012823745
150	0x3dcc4f0a	0.09976013
151	0x3e387ce8	0.18016398
152	0x3e425f51	0.18981673
153	0xbb27e152	-0.002561648
154	0xbabd27ca	-0.0014431414
155	0xbe2f1296	-0.17096934
156	0xbd2768c1	-0.040871385
157	0xbdc4f61c	-0.09617254
158	0xbd933516	-0.0718786
159	0x3df8d0fe	0.12149237
160	0xbdc44c81	-0.095849045
161	0xbebd5204	-0.36976635
162	0xbc577b2b	-0.013151924
163	0xbc7905fd	-0.015199182
164	0x3e6b204b	0.22961538
165	0x3e067433	0.13130264
166	0xbc070c0e	-0.00824262
167	0xbed0246b	-0.40652785
168	0xbdd7505f	-0.105133764
169	0x3d65a949	0.056069646
170	0xbd1dea6e	-0.038553648
171	0xbc900512	-0.017580543
172	0xbd85cd6b	-0.06533321
173	0xb95ba019	-0.00020945109
174	0x3dc40e09	0.095729895
175	0xbcec75d3	-0.028864777
176	0xbce279d8	-0.02764599
177	0xbc895fdf	-0.016769348
178	0xbe4fd8d8	-0.20297563
179	0x3d88c47b	0.06678101
180	0x3d81c60a	0.06336601
181	0x3c955f8b	0.018234035
182	0xbde4c22e	-0.11169849
183	0x3d8b32f5	0.06796829
184	0xbc177079	-0.009243124
185	0x3dff4dae	0.12465988
186	0xbdf675c2	-0.12034179
187	0xbc1cac8e	-0.009562625
188	0xbe371ffb	-0.17883293
189	0x3cce3a7e	0.025174376
190	0xbd6558cc	-0.055992886
191	0xbe07afe2	-0.13250688
192	0xbd5a7b61	-0.05334032
193	0xbe1d6cd1	-0.15373541
194	0x3e02a797	0.12759243
195	0xbcd811bf	-0.02637565
196	0xbc5e0bba	-0.0135526005
197	0xbde4b501	-0.11167336
198	0xbc83fbac	-0.016111217
199	0x3d056492	0.032566614
200	0x3def7567	0.116923146
201	0xbc0a9393	-0.008458036
202	0xbc3dbb3a	-0.011580283
203	0xbd14979d	-0.036277402
204	0xbc89e453	-0.016832506
205	0xbd145fb1	-0.03622407
206	0x3dd4edcf	0.10396921
207	0x3e81183a	0.25213796
208	0xbdf78534	-0.12085953
209	0x3e1cde68	0.15319216
210	0x3e489f2e	0.19591972
211	0xbe188681	-0.14895059
212	0xbcd5a3d3	-0.026079094
213	0xbdf693a3	-0.12039878
214	0xbe65bf1f	-0.22436188
215	0x3e07ea7c	0.13273042
216	0xbdb2a1dc	-0.087222785
217	0xbe16a3a1	-0.14710857
218	0xbd49e3c3	-0.049289476
219	0x3d910079	0.07080168
220	0xbe0fa463	-0.14027552
221	0x3dbb8457	0.09156101
222	0xbddb4a35	-0.10707513
223	0xbe2dc581	-0.16969873
224	0x3e173ebd	0.14770027
225	0xbd8d143f	-0.06888627
226	0xbdcc9ea8	-0.09991199
227	0xbeb23f1a	-0.34813768
228	0xbda13ebc	-0.07873294
229	0xbe5b79f8	-0.21433246
230	0xbd68ab68	-0.05680409
231	0xbb622f24	-0.0034512961
232	0x3cda2917	0.026630921
233	0x3e6c65b2	0.23085669
234	0x3d6e8ad0	0.05823785
235	0xbdc2d372	-0.09512986
236	0x3889ce96	6.571149e-05
237	0xbeac42eb	-0.33644804
238	0xbde76a99	-0.11299629
239	0x3de1d926	0.11027746
240	0xbce94f49	-0.028480189
241	0xbe0c387a	-0.13693419
242	0xbd035b63	-0.032069575
243	0xbd937197	-0.071994
244	0xbe07cb2c	-0.13261098
245	0xbca3e803	-0.020008093
246	0x3dbf9b86	0.093558356
247	0xbeca8e3d	-0.39561644
248	0x3e5035af	0.20332979
249	0x3d710ab8	0.058848113
250	0x3d3bd07f	0.045853134
251	0xbd9a7833	-0.075424574
252	0xbc644755	-0.0139330225
253	0x3e55277b	0.20815842
254	0xbd8cb4fb	-0.06870457
255	0xbe1b3718	-0.15157735
