project_networks/cifar10_cnn_3layer_k5_w2.onnx (onnx, 440085 bytes, 10 tensors)

0.weight f4 [8, 3, 5, 5]
0.0050592455 0.0049398225 0.0018135655 0.0017462893 0.017076815 0.00255017 0.023556367 0.035604566
0.043497514 0.021304928 0.0010118787 0.013356032 0.14707501 0.107215814 0.0002863161 0.0006588234
0.0014823473 0.22864872 0.056996383 0.00060142396 0.0006765664 0.005022362 0.02914396 0.051756058
0.0014262507 0.0005789507 0.0007126378 0.00066160475 0.00087692885 0.0005529939 0.0008788543 0.000536527
0.0032482534 0.012427815 0.00018702228 0.00021954312 0.00032166284 0.031685717 0.007168853 -6.5052285e-05
0.00013804644 0.00019621626 0.025841769 0.0005028949 6.1298684e-05 -1.3565985e-05 0.00019765834 0.0003231337
0.0004705923 0.00017447528 0.0006012799 0.00073107745 0.00071740255 0.0004676307 0.00085186644 0.0004613877
0.00038666758 0.0004404523 0.00040913883 0.0005079207 0.00013007062 0.00025035208 0.00029334388 0.00037021967
0.00017339652 -3.483648e-05 0.0002199316 0.00033284238 0.00038926437 0.0001417394 0.00016983761 0.00037267027
0.0005249692 0.00042705156 0.00029342846 0.0005951743 0.0012972406 0.020056674 0.0005168183 0.00024422965
-0.0003621111 0.0008152407 0.13306533 0.29878736 0.18209171 -0.001595237 -0.03579604 -0.0001972258
0.0006879226 0.0018717081 -0.016731368 -0.11079903 -0.43436635 -0.19917195 -0.00094231806 -0.00033685527
1.43727e-05 2.2310885e-05 -0.0011627555 -0.0012255883 -6.741525e-05 0.0005949576 0.0005781125 0.00018220392
0.000121204954 -0.0009197696 0.000246599 0.047056317 0.09884723 0.047004096 -0.0016724225 -0.0010376974
8.174125e-05 0.0006189658 0.0008971135 -0.0103124045 -0.030937914 -0.2147376 -0.071583025 -0.0013901554
-0.0015545796 -0.0006725218 -0.0007589745 -0.0017168494 -0.0019936047 -0.0005194896 0.00011837648 0.020559717
0.00018372726 0.00015342481 -0.0012642873 -5.2469823e-05 0.11402223 0.3446675 0.21401028 -0.0020969168
-0.03252001 -0.0012172123 -0.00016899487 -8.833523e-05 -0.013496749 -0.018658517 -0.22033624 -0.13691863
-0.0018473801 -0.0012909931 -0.000563433 -0.0005943864 -0.0016602094 -0.0023700953 0.0017153323 0.026961945
0.003918292 -0.0003749379 -0.00018296605 0.01103173 0.026828451 -0.00055966765 -0.0007175539 -0.00046989458
0.12164629 0.19338955 0.05220595 -0.00070404465 -0.00050354755 0.09803099 0.14854288 9.7483375e-05
-0.0010249774 -0.00051468966 -0.0018319098 -0.009970775 -0.25036785 -0.43372765 -0.052785832 -0.00049522583
0.0017442312 -0.00055177795 -0.00086429395 -0.00061236805 2.3541576e-05 0.0053663496 -0.0007805906 -0.0010521349
-0.0011672084 0.027322855 0.059718706 0.00079180056 -0.0014079806 -0.0018041724 0.006466759 0.039880704
-0.0012105169 -0.0020917153 -0.002097314 -0.0023603195 -0.0024389243 -0.100023165 -0.2271975 -0.0029929222
-0.000597327 -0.0004085412 -0.0010156584 -0.0011115696 -0.0006421224 0.00376594 0.03775256 -0.00081257353
-0.0011571682 -0.0010002371 0.086116694 0.16182314 -0.00056914164 -0.0013828409 -0.0018010231 0.00081320043
0.037275102 -0.0014096302 -0.0038415238 -0.0028141136 -0.00186744 -0.002109289 -0.09997515 -0.16854997
-0.0023432507 -0.0001223192 -0.0002389863 -0.00042116226 -0.048004817 0.0006002488 -0.0004912668 -0.03878376
-0.026099583 -0.0011392211 -3.4602574e-05 -0.053593818 -0.015470836 -0.08073898 -0.020293977 -0.0006145187
-0.0015027666 -0.025833508 -0.060061 -0.09493246 -0.00017116842 -0.00014583461 -0.005335247 -0.05659851
-0.02070042 0.00026994263 0.026227001 0.027227677 0.007501313 0.004245264 0.02444593 0.07503657
00000000: 07c8 a53b 3cde a13b 29b5 ed3a bfe3 e43a
00000010: ade4 8b3c c120 273b 48f9 c03c 18d6 113d
00000020: 732a 323d ac87 ae3c 04a1 843a 42d3 5a3c
00000030: d59a 163e f793 db3d b21c 9639 e4b4 2c3a
00000040: 524b c23a e422 6a3e 0a75 693d e1a8 1d3a
00000050: 9a5b 313a a092 a43b 50bf ee3c 29fe 533d
00000060: 08f1 ba3a b9c4 173a 50d0 3a3a 8b6f 2d3a
00000070: b3e1 653a cbf6 103a ea62 663a b8a5 0c3a
00000080: a6e0 543b 099e 4b3c 691b 4439 2835 6639
00000090: dba4 a839 e2c8 013d b3e8 ea3b ae6c 88b8
000000a0: 8fc0 1039 67bf 4d39 1eb2 d33c b5d4 033a
000000b0: 7b8d 8038 7699 63b7 8242 4f39 456a a939
000000c0: d4b9 f639 5af3 3639 369f 1d3a c7a5 3f3a
000000d0: 1210 3c3a 552c f539 ca4f 5f3a 69e6 f139
000000e0: a5b9 ca39 82ec e639 af81 d639 fb25 053a
000000f0: 9163 0839 b041 8339 f3cb 9939 0b1a c239
00000100: c6d1 3539 631d 12b8 709d 6639 5981 ae39
00000110: 2e16 cc39 e19f 1439 7016 3239 f562 c339
00000120: 169e 093a e4e5 df39 4dd7 9939 7905 1c3a
00000130: 2c08 aa3a e54d a43c 177b 073a f30b 8039
00000140: bbd9 bdb9 e1b5 553a 4742 083e a8fa 983e
00000150: 4076 3a3e 4517 d1ba de9e 12bd 66ce 4eb9
00000160: b455 343a 1a54 f53a 3910 89bc 9aea e2bd
00000170: 4465 debe bbf3 4bbe e505 77ba f39b b0b9
00000180: 4722 7137 4328 bb37 9a67 98ba eba3 a0ba
00000190: 4961 8db8 eef6 1b3a 798c 173a fe0d 3f39
000001a0: 6a2f fe38 b11c 71ba f549 8139 20be 403d
000001b0: 6b70 ca3d 5e87 403d 3035 dbba 5903 88ba
000001c0: 806c ab38 1742 223a 452c 6b3a 5cf5 28bc
000001d0: 8271 fdbc 2ce4 5bbe 1f9a 92bd e035 b6ba
000001e0: 09c3 cbba 2d4c 30ba ebf5 46ba e807 e1ba
000001f0: 23a7 02bb 5b2e 08ba e440 f838 da6c a83c
00000200: e9a6 4039 a9e0 2039 71b6 a5ba 0b13 5cb8
00000210: 7d84 e93d 4278 b03e 8325 5b3e 6d6c 09bb
00000220: b433 05bd de8a 9fba 3734 31b9 9e40 b9b8
00000230: 7821 5dbc bfd9 98bc d39f 61be 6634 0cbe
00000240: ca23 f2ba 8a36 a9ba 59b3 13ba 99d0 1bba
00000250: 629b d9ba 9a53 1bbb 00d5 e03a 4cdf dc3c
00000260: 0465 803b 5093 c4b9 93da 3fb9 6ebe 343c
00000270: 57c7 db3c a9b6 12ba 3a1a 3cba 2f5c f6b9
00000280: b121 f93d e907 463e e8d5 553d a38f 38ba
00000290: 8100 04ba 79c4 c83d a01b 183e fd6f cc38
000002a0: 8958 86ba 3dec 06ba b11c f0ba 765c 23bc
000002b0: 3730 80be 8d11 debe f535 58bd 0bd2 01ba
000002c0: b09e e43a 31a5 10ba c991 62ba 5387 20ba
000002d0: 267b c537 34d8 af3b 8ca0 4cba cae7 89ba
000002e0: 04fd 98ba 2ed4 df3c 9a9b 743d d690 4f3a
000002f0: fd8b b8ba fb79 ecba 1be7 d33b f359 233d
00000300: 35aa 9eba 2915 09bb 1773 09bb 97af 1abb
00000310: 5cd6 1fbb f2d8 ccbd 76a6 68be e724 44bb
00000320: f095 1cba 7931 d6b9 d71f 85ba 16b2 91ba
00000330: 1b54 28ba fdcd 763b 6ea2 1a3d e302 55ba
00000340: 1fac 97ba 631a 83ba f35d b03d f7b4 253e
00000350: 7332 15ba 7140 b5ba 4f10 ecba f52c 553a
00000360: c7ad 183d 57c3 b8ba 13c2 7bbb fe6c 38bb
00000370: e3c4 f4ba ff3b 0abb c5bf ccbd 5d98 2cbe
00000380: 3991 19bb cf42 00b9 6598 7ab9 71cf dcb9
00000390: b3a0 44bd 045a 1d3a 5bc8 00ba b8db 1ebd
000003a0: cbce d5bc eb51 95ba 3b22 11b8 3185 5bbd
000003b0: 6479 7dbc 7a5a a5bd 8e3f a6bc a717 21ba
000003c0: 7bf8 c4ba cba0 d3bc 8602 76bd f36b c2bd
000003d0: ac7b 33b9 2eeb 18b9 4cd3 aebb d7d3 67bd
000003e0: ed93 a9bc 1687 8d39 02da d63c 940c df3c
000003f0: 93cd f53b db1b 8b3b d542 c83c c6ac 993d

0.bias f4 [8]
-0.1893031 -0.14481093 -0.048979215 -0.08560423 -0.46128985 0.29427713 -0.154889 -0.1829769
00000000: acd8 41be 5149 14be 6e9e 48bd 4551 afbd
00000010: 2f2e ecbe 7eab 963e 399b 1ebe 4c5e 3bbe

2.weight f4 [16, 8, 5, 5]
0.036766104 -0.21115059 0.00022451246 0.115469165 0.010920786 0.17615901 -0.466069 -0.00014751876
0.26466244 0.023835583 0.2963813 -0.42679313 -0.0005551395 0.23957323 0.083117664 0.07654334
-0.37323377 -0.0007312553 0.08120002 0.09285592 2.2819639e-05 -0.17570181 -0.00054684083 0.0012203751
0.13320273 -0.0015140816 -0.00024784845 -0.00097573583 -0.0017084744 -0.0011223401 -0.0038917053 0.00022135461
-0.0013688618 -0.0034235443 -0.0031022169 -0.063089 -0.0015427836 -0.0011332704 -0.0025232267 -0.05034609
-0.1760922 -0.00079215755 0.0005693611 -0.0010977313 -0.013639296 -0.04348148 0.001220465 0.0018641655
-0.00034741493 -0.0036346263 2.7397418e-05 0.00052552036 -0.00048782438 -0.00086621125 0.0049701887 0.000508753
0.00087455515 -0.00016876168 -0.0007661527 0.030467324 0.0013863604 0.0022880684 0.0009319134 0.0005494324
0.015018685 0.0011278804 0.0036425318 0.0011770745 -0.0011656885 0.00060943794 0.0012654931 0.001415244
0.00079345406 -0.0042273183 -0.029516986 0.00031313067 -0.016792502 -0.027659005 0.00020528527 0.00027089892
0.00016671608 -0.008354672 -0.02421122 0.0005380508 0.005229601 0.00027916612 -0.008799461 -0.1181606
0.0016326861 0.038346365 0.00046261217 -0.005000708 -0.016240705 0.0017285415 0.0630484 0.0013718194
-0.00392641 -0.07374863 0.0014113949 0.0035018707 -0.0020849602 -0.01909199 -0.0012279744 0.00026183325
0.0033275373 0.0014604711 -0.22357626 -0.00058525446 0.100459926 0.019517252 0.30051824 -0.62147504
-0.00045649303 0.31810322 0.0007467144 0.29470775 -0.5812428 -0.0007760245 0.222119 0.0004290828
0.102980115 -0.48773426 -0.0017207167 0.13554133 0.08207074 -0.0005164801 -0.00028326182 0.011289008
0.0031373382 -0.00019352212 -0.0023212736 -0.0015084157 0.023972144 0.0011112413 -0.0021356377 -0.013361308
-0.0016293717 0.036168363 0.0017034438 -0.02747317 -0.0014120203 -0.00072518986 0.042769432 0.0015674762
-0.002833435 0.0007048453 0.0016596408 0.020449148 0.0029030612 -0.0009846024 0.074559614 0.00058369245
0.02104339 -0.007853641 -0.019481573 -0.0005990663 0.016422594 0.04535807 -0.0951838 -0.00060377794
-0.00084878324 0.11296694 0.20563607 -0.12023929 0.045618836 -0.0007048203 0.10638656 0.13261616
-0.0044439943 0.0005097622 0.046554312 0.027968155 0.14816147 -0.0018785382 -0.0020844955 -0.0027858277
-0.104657345 -0.001256515 0.008818564 0.0388211 -0.0040202234 -0.14583509 -0.0021104917 -0.0020999059
-0.0017527584 -0.004612226 -0.0056146365 -0.0055305767 -0.0049081733 -0.0036264402 -0.004615504 -0.003674103
-0.017970197 -0.008416186 -0.0025191263 -0.0017712495 -0.00087805797 -0.002238453 -0.002727627 -0.0012706425
-0.1707563 -0.00020311664 0.00028675568 0.00029102928 0.28041875 -0.1857246 0.00025342137 0.00048819216
0.00068159867 0.24307583 -0.1947564 0.0003916424 0.0005349241 0.00075516326 0.1699809 -0.128656
0.000525253 0.00062862603 0.00084935635 0.07843 -0.031199515 0.00060286047 0.00074867875 0.0009130229
0.049447037 0.059508435 0.0029830614 0.00013938936 -0.0018711856 -0.09515681 0.10694771 0.0009691259
-0.00033571335 -0.0025155507 -0.0035895112 0.00046104475 7.643256e-05 -0.0004388018 -0.001658162 -0.002077556
0.0006815847 0.0006194223 2.8118597e-05 -0.00072325504 0.005696414 -0.00085437106 0.00015232996 -0.00023728184
-0.00093413517 -0.000946264 -0.0026818495 -0.0026886489 -0.0024491036 -0.0071881525 -0.4354348 -0.011583094
00000000: 0e98 163d dc37 58be 1b6b 6b39 197b ec3d
00000010: 19ed 323c 0763 343e 99a0 eebe 44af 1ab9
00000020: d681 873e d742 c33c 4abf 973e a184 dabe
00000030: c886 11ba af52 753e 9839 aa3d c1c2 9c3d
00000040: 7f18 bfbe b6b1 3fba 324c a63d 3f2b be3d
00000050: cd6c bf37 2deb 33be de59 0fba fef4 9f3a
00000060: 4c66 083e 2674 c6ba a8f1 81b9 86c8 7fba
00000070: e3ee dfba 7c1b 93ba fb0b 7fbb 6d1b 6839
00000080: 616b b3ba 8b5d 60bb 904e 4bbb ce34 81bd
00000090: 3a37 caba 3f8a 94ba b85c 25bb b437 4ebd
000000a0: 8451 34be cba8 4fba 2d41 153a c0e1 8fba
000000b0: 5b77 5fbc a319 32bd 03f8 9f3a 0457 f43a
000000c0: 3e25 b6b9 e932 6ebb 82d3 e537 13c3 093a
000000d0: aec2 ffb9 7412 63ba f7dc a23b d65d 053a
000000e0: 6742 653a 9ef5 30b9 a3d7 48ba 9c96 f93c
000000f0: 89b6 b53a 6bf3 153b a64b 743a c907 103a
00000100: ee10 763c 63d5 933a 8bb7 6e3b 1148 9a3a
00000110: 04ca 98ba b0c2 1f3a e7de a53a b57f b93a
00000120: cdff 4f3a 5185 8abb 9bcd f1bc b02b a439
00000130: 6e90 89bc 2395 e2bc d841 5739 7007 8e39
00000140: 82d0 2e39 09e2 08bc 9c56 c6bc fa0b 0d3a
00000150: 135d ab3b 0b5d 9239 9d2b 10bc 2ffe f1bd
00000160: dbff d53a 1411 1d3d c18a f239 fbdc a3bb
00000170: 3a0b 85bc 3a90 e23a 851f 813d 9fce b33a
00000180: 1da9 80bb 8609 97bd 8efe b83a a47f 653b
00000190: d4a3 08bb ce66 9cbc fcf3 a0ba aa46 8939
000001a0: d012 5a3b 476d bf3a 2df1 64be c36b 19ba
000001b0: efbd cd3d a5e2 9f3c 87dd 993e fd18 1fbf
000001c0: 7555 efb9 6dde a23e 28bf 433a efe3 963e
000001d0: 54cc 14bf 1f6e 4bba 2a73 633e 85f6 e039
000001e0: 3de7 d23d 4eb8 f9be ac89 e1ba 59cb 0a3e
000001f0: b414 a83d 6564 07ba c282 94b9 88f5 383c
00000200: cd9b 4d3b 33ec 4ab9 8220 18bb 08b6 c5ba
00000210: 3b61 c43c 12a7 913a 0ef6 0bbb 63e9 5abc
00000220: a490 d5ba 4725 143d 1746 df3a 6a0f e1bc
00000230: 8a13 b9ba ab1a 3eba 002f 2f3d c673 cd3a
00000240: 27b1 39bb 5ec5 383a 4e88 d93a f984 a73c
00000250: 4941 3e3b c60d 81ba b6b2 983d f002 193a
00000260: 3063 ac3c 8fac 00bc d297 9fbc a90a 1dba
00000270: ad88 863c 62c9 393d b9ef c2bd da46 1eba
00000280: e180 5eba 365b e73d 4392 523e 0440 f6bd
00000290: d1da 3a3d b1c3 38ba 32e1 d93d 88cc 073e
000002a0: ed9e 91bb 90a1 053a bcaf 3e3d 791d e53c
000002b0: a4b7 173e 4839 f6ba 089c 08bb 6f92 36bb
000002c0: 9756 d6bd a6b1 a4ba bd7b 103c e002 1f3d
000002d0: 14bc 83bb cb55 15be 2d50 0abb 939e 09bb
000002e0: d0bc e5ba 2822 97bb fcfa b7bb d739 b5bb
000002f0: bed4 a0bb 92a9 6dbb a73d 97bb 38c9 70bb
00000300: 3c36 93bc 0be4 09bc ed17 25bb 4529 e8ba
00000310: 792d 66ba 02b3 12bb fdc1 32bb b08b a6ba
00000320: bdda 2ebe b5fb 54b9 b257 9639 4a95 9839
00000330: 0c93 8f3e 972e 3ebe a4dd 8439 0bf4 ff39
00000340: 50ad 323a dfe8 783e 396e 47be 5a55 cd39
00000350: 263a 0c3a 26f6 453a 790f 2e3e 66be 03be
00000360: 22b1 093a 61ca 243a 57a7 5e3a e89f a03d
00000370: 2096 ffbc 4809 1e3a fb42 443a ee57 6f3a
00000380: fa88 4a3d 1ebf 733d 777f 433b 0c29 1239
00000390: 9242 f5ba 93e1 c2bd 6707 db3d f00c 7e3a
000003a0: af02 b0b9 f0db 24bb 013e 6bbb 61b8 f139
000003b0: 6b4a a038 fb0e e6b9 af56 d9ba 9b27 08bb
000003c0: 60ac 323a ba60 223a 3ae0 eb37 d398 3dba
000003d0: fca8 ba3b dff7 5fba c3ba 1f39 dcce 78b9
000003e0: c0e0 74ba b40e 78ba f8c1 2fbb 0b34 30bb
000003f0: 2481 20bb 988a ebbb 4ff1 debe 04c7 3dbc

2.bias f4 [16]
-0.06164809 -0.06421913 0.22011429 -0.066287495 0.16751967 -0.01444965 -0.52954197 -0.050222315
-0.21998718 0.08190719 -0.20649518 -0.20777142 -0.009312921 -0.07356531 0.17065415 -0.34490287
00000000: b582 7cbd 5285 83bd a465 613e bdc1 87bd
00000010: 478a 2b3e 3abe 6cbc 1090 07bf eab5 4dbd
00000020: 5244 61be f5be a73d 7973 53be 08c2 54be
00000030: 3995 18bc 69a9 96bd f6bf 2e3e 1c97 b0be

4.weight f4 [16, 16, 4, 4]
-0.0008744539 0.00020949023 0.0030574496 5.2306998e-05 -0.0011980967 0.00017273796 0.00084998057 1.39282665e-05
-0.0007225199 -0.001235671 -0.00093599356 -0.008235631 -0.0015402755 -0.0011476169 -0.004309572 -0.012195528
-0.004102921 -0.0006324374 -0.0003968123 -0.00028631103 -0.0051816185 -0.0015906342 -0.000845891 -0.0006977908
-0.0037392746 -0.0021151046 -0.0014775785 -0.0030599704 -0.0034901635 -0.005358329 -0.0041201967 -0.013207383
-0.008578098 -0.006445783 -0.0048555657 -0.0034566957 -0.006326433 -0.004479876 -0.0022188807 -0.002444168
-0.0044857603 -0.0017805583 -0.0015288581 -0.0014102862 -0.0011117691 -0.0009263558 0.00034479515 0.0008086652
-0.000268498 0.00072448706 0.0013118937 0.0016805145 0.0039567277 0.004926862 0.0049298853 0.004942528
0.0041281627 0.0050762026 0.0054632877 0.0048256367 0.082081795 0.029815787 0.0077306703 0.0009615567
-0.0005704845 -0.0010233689 -0.0011425314 -0.0009471045 0.0028139132 0.002535387 0.00055377313 0.0022977027
0.10674739 0.044018075 0.054767355 0.059285466 0.0063334256 0.021769809 0.024636114 0.057013653
-0.00083837606 -0.0006896181 -0.00057812326 -0.0008163552 -0.002049797 -0.001139706 -0.0016122615 -0.0018116777
-0.0029363914 -0.0020052218 -0.0020361955 -0.0032907166 -0.016602797 -0.016055426 -0.036502406 -0.016869582
-0.16963154 -0.002443592 -0.0018285793 -0.00068534026 -0.03767709 -0.00017048225 0.00010760183 0.0011433453
-0.0023941726 -0.0005573618 -6.0448303e-05 0.0023796284 -0.2107065 -0.056291178 -0.04548352 -0.025556514
-0.001544548 -0.0005579189 0.0003946895 0.00040383084 -0.0021498175 0.0003484288 0.0010011311 0.00078455685
-0.036388393 -0.005583128 -0.005832447 -0.0056493892 -0.014985905 -0.006595123 -0.006911515 -0.010699736
-0.0021250632 -0.004160561 -0.015003172 -0.053712063 -0.0010251399 -0.0012162527 -0.0034364741 -0.0786067
-0.0053351503 -0.10307774 -0.1545123 -0.24959645 0.14881548 0.15348552 0.14872566 0.17534786
0.0017632222 0.0023853648 -0.0014195704 -0.0073485784 -0.00024288235 0.0038580939 0.0021511668 -0.0020902983
0.0019392321 0.005303676 0.0056770863 0.00048042377 -0.016074412 -0.008289508 -0.009247282 -0.022812108
-5.7247013e-05 -0.0003155661 -0.00042081898 -0.0004452464 0.0045243916 0.07228572 0.034541517 0.050084893
0.018473787 0.042849462 0.0114978105 0.017848527 0.0012416722 0.009648188 0.001989054 0.0044031977
0.009110813 0.00090581493 -0.0011172967 0.004335894 0.0046437527 0.0098557705 0.0008675029 -0.0014730988
-0.00256761 -0.00078842597 0.0034767203 0.003547836 -0.0064160842 -0.027921682 -0.0025903662 0.0025665697
0.0051178373 0.002004202 -0.000100607336 0.00016836467 0.0005494513 0.00032591904 0.00042128624 -0.0003727231
-0.0034017945 -0.0015603263 0.000240555 -0.00032558446 -0.08589794 -0.011710131 -0.019215208 -0.061380506
-0.10466996 -0.06635907 -0.029068211 -0.055034515 -0.0043777144 -0.0061419113 -0.0049353275 -0.0046760957
-0.02519497 -0.05217411 -0.037290856 -0.082760684 -0.007540667 -0.008454974 -0.011108635 -0.0534104
-0.0041731116 -0.0040774844 -0.0040603485 -0.0042635393 -0.007156761 -0.0064813807 -0.0059121535 -0.0053217807
-0.025871463 -0.013352654 -0.025512757 -0.021239426 -0.008709108 -0.027323253 -0.036845546 -0.01219263
0.22351313 0.18435271 0.16018048 0.17608516 0.19381683 0.13217139 0.1321879 0.121506184
0.16272965 0.14977811 0.13425197 0.1266339 0.26151663 0.19313005 0.19076878 0.25182572
00000000: 9c3b 65ba 9baa 5b39 7e5f 483b 3664 5b38
00000010: 7409 9dba fe20 3539 3bd1 5e3a 73ad 6937
00000020: 7d67 3dba 3df6 a1ba 775d 75ba bdee 06bc
00000030: 12e3 c9ba a26b 96ba 4f37 8dbb c0cf 47bc
00000040: cc71 86bb 28ca 25ba 3f0b d0b9 041c 96b9
00000050: 91ca a9bb d47c d0ba c9be 5dba f3eb 36ba
00000060: 9e0e 75bb 919d 0abb 4fab c1ba c989 48bb
00000070: 3abb 64bb ec94 afbb b702 87bb c863 58bc
00000080: 278b 0cbc 2637 d3bb 701b 9fbb bb89 62bb
00000090: f74d cfbb eccb 92bb a46a 11bb 562e 20bb
000000a0: 49fd 92bb 9f61 e9ba f763 c8ba 5ad9 b8ba
000000b0: c8b8 91ba afd6 72ba 9fc5 b439 9afc 533a
000000c0: 31c5 8cb9 81eb 3d3a d9f3 ab3a b644 dc3a
000000d0: 70a7 813b 8471 a13b e08a a13b eef4 a13b
000000e0: 8a45 873b 4656 a63b 6105 b33b 6020 9e3b
000000f0: 801a a83d 3d40 f43c 9051 fd3b fa10 7c3a
00000100: 918c 15ba 9022 86ba fec0 95ba 1b47 78ba
00000110: a169 383b bc28 263b 162b 113a 0e95 163b
00000120: 609e da3d 4c4c 343d bc53 603d 51d5 723d
00000130: a088 cf3b 9956 b23c add1 c93c 2687 693d
00000140: 77c6 5bba 7dc7 34ba 328d 17ba ac00 56ba
00000150: e355 06bb 3062 95ba 8552 d3ba d175 edba
00000160: 7970 40bb 0a6a 03bb b171 05bb 10a9 57bb
00000170: 9702 88bc ab86 83bc 8c83 15bd 1432 8abc
00000180: e4b3 2dbe ac24 20bb f1ac efba 68a8 33ba
00000190: 4b53 1abd 7bc3 32b9 4ba8 e138 4ddc 953a
000001a0: 8de7 1cbb eb1b 12ba df89 7db8 8af3 1b3b
000001b0: 72c3 57be 9491 66bd ed4c 3abd e55b d1bc
000001c0: 6e72 caba 4e41 12ba 54ee ce39 42b9 d339
000001d0: f4e3 0cbb 52ad b639 6338 833a b8aa 4d3a
000001e0: ff0b 15bd acf2 b6bb 1d1e bfbb 831e b9bb
000001f0: 7187 75bc e71b d8bb fd79 e2bb f24d 2fbc
00000200: a544 0bbb 5155 88bb ddcf 75bc 2e01 5cbd
00000210: fd5d 86ba ab6a 9fba 7836 61bb 8dfc a0bd
00000220: 7cd2 aebb 6c1a d3bd 7938 1ebe 3696 7fbe
00000230: 1663 183e 4f2b 1d3e 8a4b 183e 648e 333e
00000240: eb1b e73a c853 1c3b e110 baba 58cc f0bb
00000250: 3cae 7eb9 13d8 7c3b 97fa 0c3b 63fd 08bb
00000260: d52d fe3a 75ca ad3b da06 ba3b 63e1 fb39
00000270: 7cae 83bc b7d0 07bc e981 17bc 75e0 babc
00000280: 831c 70b8 9172 a5b9 5ea1 dcb9 f66f e9b9
00000290: 5941 943b 890a 943d 687b 0d3d d125 4d3d
000002a0: 5756 973c eb82 2f3d 5061 3c3c 1337 923c
000002b0: 9bbf a23a 6f13 1e3c ca5a 023b b348 903b
000002c0: 8545 153c 3674 6d3a 4272 92ba 1d14 8e3b
000002d0: 9f2a 983b 197a 213c 2269 633a fe14 c1ba
000002e0: 5945 28bb 5fae 4eba b0d9 633b d082 683b
000002f0: 043e d2bb 03bc e4bc 22c3 29bb e533 283b
00000300: 88b3 a73b ee58 033b 27fd d2b8 0c8b 3039
00000310: 0d09 103a 1de0 aa39 15e0 dc39 0c6a c3b9
00000320: a4f0 5ebb dd83 ccba 7e3d 7c39 35b3 aab9
00000330: 42eb afbd d9db 3fbc 3669 9dbc 206a 7bbd
00000340: 345d d6bd 44e7 87bd 7520 eebc df6b 61bd
00000350: ee72 8fbb 1642 c9bb 87b8 a1bb ef39 99bb
00000360: af65 cebc 85b4 55bd 4cbe 18bd 6f7e a9bd
00000370: b317 f7bb bb86 0abc fe00 36bc ddc4 5abd
00000380: 99be 88bb 6b9c 85bb ac0c 85bb 29b5 8bbb
00000390: 4383 eabb c361 d4bb bdba c1bb 5562 aebb
000003a0: 64f0 d3bc 17c5 5abc 2100 d1bc 4efe adbc
000003b0: a6b0 0ebc 04d5 dfbc 5beb 16bd 99c3 47bc
000003c0: a0e0 643e f5c6 3c3e 5a06 243e ab4f 343e
000003d0: eb77 463e f057 073e 445c 073e 3cd8 f83d
000003e0: 9aa2 263e 6f5f 193e 5979 093e 51ac 013e
000003f0: 82e5 853e e2c3 453e e458 433e 4def 803e

4.bias f4 [16]
-0.08309067 -0.041219693 0.19383222 -0.044220075 -0.0022088564 -0.014313635 -0.1285085 0.008035377
0.07746721 0.30800626 -0.05404937 -0.11277566 0.11952933 0.046989 0.35437337 0.41977555
00000000: 712b aabd fbd5 28bd f47b 463e 1c20 35bd
00000010: 76c2 10bb bd83 6abc bb97 03be d0a6 033c
00000020: 21a7 9e3d ffb2 9d3e df62 5dbd edf6 e6bd
00000030: cbcb f43d 8a77 403d 6d70 b53e d2ec d63e

7.weight f4 [128, 784]
0.0006075576 -0.0053067 -0.0075653777 -0.002196839 -0.0033407032 0.007053239 0.0059033437 0.005895372
-0.00732351 0.0014572788 -0.009694039 -0.008548556 -0.010204697 0.0033470073 0.015365464 0.00017051634
0.0038890056 -0.012103001 -0.030443668 -0.0058561494 0.0014765008 0.0031443764 0.0014606694 0.004055102
0.004562416 -0.012373092 0.0013660123 0.0074571464 0.01308384 0.026783051 0.019109437 0.013162469
0.00043976237 -0.004135366 0.0030244822 0.01665348 0.02748447 0.024858586 0.004996167 0.0019569462
0.0013226601 0.004736488 0.001221586 0.0010853263 0.0038882617 0.0025967315 0.0030946003 0.0052474597
0.005501796 -0.0026041109 0.0034158838 0.0067205513 0.0064250682 0.0024277072 -0.0025739053 -0.00338021
0.004979012 0.010591514 0.012193461 0.0005050801 0.0008144689 -0.0013290397 -0.004621807 0.008044185
0.005991156 0.0040487675 0.0049547725 0.0006223746 0.0010376332 0.009370483 -0.01760638 -0.024099506
-0.0072114035 -0.0001735393 -0.002722356 0.001188638 0.0117118815 0.0031029878 -0.001379368 0.02523114
0.023552524 0.0022922403 0.009448493 0.005244462 -0.008198668 0.00063942594 0.0057793916 0.0032296823
0.007666562 0.008965854 0.0036862113 -0.0055604456 -0.009820336 -0.00033537956 0.004346355 0.011324977
0.012591583 0.011869604 0.010491848 0.0017531564 -0.0011667295 0.0021161279 0.008420258 0.009570176
0.010034258 0.007333219 0.0087630255 0.0016444953 0.0035803586 0.008035353 0.008656838 0.011958799
-0.0031447015 0.0085031465 0.005883536 0.0040892004 0.0025573997 0.00084938004 0.00085521495 0.006303314
0.004416017 0.008442232 0.013689839 0.0053680995 0.008466955 0.0004968847 0.008200566 0.006987123
0.0062632677 0.01126186 0.0111615015 0.007964893 0.005153053 0.007448141 -0.0025472871 0.004728425
0.006884363 0.005621656 0.003927041 0.00400842 0.007035208 0.0067241252 0.0009545725 0.005101558
0.0031736027 0.0011976396 0.0012677315 0.007859305 -0.011013831 -0.004433693 0.0015226429 0.006167855
0.0020827434 0.004689487 0.017974582 -0.0043499316 -0.00016203921 0.006895526 0.018064322 0.013601848
0.014375149 0.00094463193 0.0076499484 0.0139563475 0.0065690274 0.0021561927 -0.0049023023 -0.0029728205
-0.0063946745 0.0044512856 0.0107497955 0.0015079792 0.0019395886 -0.007251944 -0.0016203403 -0.019073287
-0.0008302076 -0.00075786666 0.0027749906 0.0054435534 0.010450947 -0.0029036517 -0.0008581772 -0.011991246
-0.00084828545 0.0030154746 0.0011080283 4.210549e-05 -0.0076338667 -0.0043296227 0.0052599497 0.0093789445
0.0022836027 -0.014317532 -0.009452937 -0.018537754 0.0070233284 0.010752485 -0.010532029 -0.0062087574
-0.026430208 0.009697388 -0.003134193 0.00251959 -0.025865844 -0.007478469 -0.0065662507 0.000144072
0.0072958698 -0.012694257 -0.0010390092 -0.026159082 0.0031627766 0.0023333 -0.0011735371 0.015495756
-0.007556175 -0.009136912 -0.0026626878 -0.014111459 0.008556817 0.00688119 0.007587183 0.004931625
0.0058591645 0.0011675159 -0.020303369 -0.006080912 -0.004297144 0.0054552564 0.0013344337 0.008859299
0.0065376456 -0.036036413 0.009582842 -0.0040144417 -0.0029046403 0.015071192 -0.010093876 0.006967892
-0.006562357 0.0026105691 0.009052718 0.00504874 0.0058821263 0.030352509 0.00031968806 -0.008643638
0.0036790236 0.010600983 0.012019123 0.008810233 0.0059854034 -0.03290339 0.005848767 0.026653238
00000000: 8044 1f3a d3e3 adbb fde6 f7bb d8f8 0fbb
00000010: b3ef 5abb db1e e73b d670 c13b f72d c13b
00000020: 0efa efbb 2a02 bf3a bfd3 1ebc 3e0f 0cbc
00000030: 9a31 27bc 7759 5b3b 6dbf 7b3c a2cc 3239
00000040: b0de 7e3b aa4b 46bc 0065 f9bc f1e4 bfbb
00000050: 2587 c13a e211 4e3b ef73 bf3a a9e0 843b
00000060: 5280 953b 82b8 4abc c40b b33a 145b f43b
00000070: 9a5d 563c 2168 db3c 658b 9c3c 65a7 573c
00000080: e88f e639 f781 87bb 6436 463b e16c 883c
00000090: 1c27 e13c 3ca4 cb3c e3b6 a33b 1c40 003b
000000a0: 1c5d ad3a 8b34 9b3b a01d a03a 8241 8e3a
000000b0: 35d2 7e3b ed2d 2a3b c7ce 4a3b e2f2 ab3b
000000c0: 6948 b43b bba9 2abb 05dd 5f3b 1238 dc3b
000000d0: 6189 d23b 2b1a 1f3b f7ae 28bb 8386 5dbb
000000e0: fb26 a33b 0888 2d3c 15c7 473c 5a67 043a
000000f0: 1582 553a 2c33 aeba 8772 97bb c2cb 033c
00000100: 7651 c43b 86ab 843b a55b a23b da26 233a
00000110: 3101 883a a886 193c 413b 90bc 546c c5bc
00000120: a34d ecbb 1af8 35b9 8e69 32bb 13cc 9b3a
00000130: 31e3 3f3c 7f5b 4b3b e9cb b4ba 89b1 ce3c
00000140: 39f1 c03c 6939 163b dacd 1a3c bcd9 ab3b
00000150: b553 06bc 269f 273a 0d61 bd3b 14a9 533b
00000160: c937 fb3b 84e5 123c 5d94 713b 6634 b6bb
00000170: 79e5 20bc e2d5 afb9 de6b 8e3b 658c 393c
00000180: ed4c 4e3c ba78 423c 00e6 2b3c 2bca e53a
00000190: f2ec 98ba bcae 0a3b 1ff5 093c 3acc 1c3c
000001a0: ba66 243c 804b f03b cb92 0f3c 1b8c d73a
000001b0: 73a4 6a3b b7a6 033c 69d5 0d3c d7ee 433c
000001c0: 5617 4ebb c850 0b3c adca c03b b3fe 853b
000001d0: 0c9a 273b eea8 5e3a 8130 603a 088c ce3b
000001e0: 3cb4 903b 4a51 0a3c 594b 603c e2e6 af3b
000001f0: fcb8 0a3c 5e41 023a ab5b 063c 3cf4 e43b
00000200: 193c cd3b aa83 383c bbde 363c 2f7f 023c
00000210: f1da a83b 890f f43b 63f0 26bb e7f0 9a3b
00000220: 3996 e13b de35 b83b 68ae 803b 1059 833b
00000230: 9a87 e63b 0d56 dc3b 473c 7a3a f82a a73b
00000240: 38fc 4f3b 1efa 9c3a 032a a63a 50c4 003c
00000250: 5b73 34bc 8348 91bb 6b93 c73a b81b ca3b
00000260: a37e 083b 45aa 993b 6e3f 933c df89 8ebb
00000270: 12e9 29b9 ddf3 e13b a1fb 933c 49da 5e3c
00000280: bf85 6b3c 2da1 773a 6bac fa3b 2aa9 643c
00000290: ff40 d73b e94e 0d3b 7ea3 a0bb a7d3 42bb
000002a0: 6b8a d1bb 17dc 913b e91f 303c 63a7 c53a
000002b0: cb39 fe3a b7a1 edbb 9961 d4ba 953f 9cbc
000002c0: 4aa2 59ba 92ab 46ba 9edc 353b d65f b23b
000002d0: 733a 2b3c 314b 3ebb 4cf7 60ba ee76 44bc
000002e0: 795f 5eba 459f 453b 433b 913a 6d9a 3038
000002f0: 8425 fabb 82df 8dbb a85b ac3b 25aa 193c
00000300: 7fa8 153b 1594 6abc 7ee0 1abc 7ddc 97bc
00000310: f323 e63b 312b 303c 888e 2cbc d572 cbbb
00000320: 2a84 d8bc cbe1 1e3c 0867 4dbb b51f 253b
00000330: 9be4 d3bc f20d f5bb b429 d7bb 0812 1739
00000340: 3112 ef3b 93fb 4fbc 5d2f 88ba 924b d6bc
00000350: 9646 4f3b 47ea 183b 5fd1 99ba e9e1 7d3c
00000360: ca99 f7bb fdb2 15bc 7d80 2ebb c033 67bc
00000370: e431 0c3c 9b7b e13b e79d f83b 7899 a13b
00000380: 3cfe bf3b 5507 993a 4053 a6bc 6342 c7bb
00000390: 0ecf 8cbb 02c2 b23b 2ae8 ae3a 9826 113c
000003a0: bf39 d63b eb9a 13bd 5a01 1d3c 948b 83bb
000003b0: c75b 3ebb 29ed 763c c960 25bc ea52 e43b
000003c0: 0a09 d7bb 1516 2b3b da51 143c e76f a53b
000003d0: dabe c03b d3a5 f83c ce9b a739 0c9e 0dbc
000003e0: c61b 713b bfaf 2d3c dbeb 443c cc58 103c
000003f0: 3421 c43b b4c5 06bd 03a7 bf3b e457 da3c

7.bias f4 [128]
0.057256036 0.061639838 -0.053526025 -0.10154933 0.033643693 -0.14332882 0.10025822 0.06104217
-0.2591344 0.041116115 -0.015292039 -0.3818525 -0.019094774 0.08102498 0.03568535 0.010750189
0.011933221 -0.13996246 0.053402387 0.03633469 0.10092164 0.054451924 -0.0038598888 -0.10632604
0.018979805 -0.0127739515 -0.18686612 -0.1936467 0.023740895 -0.25242624 -0.009379208 0.077857986
0.013595386 0.1244512 0.059644222 0.026955485 0.06149079 0.065758236 -0.010795964 0.04594815
-0.40132776 0.20146263 0.0022957553 0.009412511 0.14447963 0.552836 -0.09218733 -0.03737153
0.0035423704 -0.016793096 -0.03109265 -0.024396816 0.012244765 0.08781607 0.0017495379 -0.06013289
0.12515351 -0.088217214 0.047587343 -0.018348012 -0.23740543 0.3101509 -0.0071388497 0.093659565
0.04566427 -0.066529766 0.02491018 0.04037402 -0.09755279 -0.64611554 -0.29091954 0.00521547
-0.10750567 0.036390126 0.5976895 -0.061809145 0.20859763 0.12274854 0.05434204 0.063494444
0.18486868 0.018513182 0.052859675 0.05014857 -0.024032177 -0.026086174 0.019640923 -0.04348533
0.032813452 -0.05296482 0.026420023 0.015468066 -0.011576363 0.027522614 -0.027931424 -0.06064523
0.011092242 0.021875184 0.3535 0.42716804 -0.37502563 -0.27560595 -0.09652566 -0.57885
-0.0044670957 0.18416789 0.012938999 -0.016264169 0.08154599 0.2977074 -0.11264139 0.11612139
-0.3650796 -0.2662067 0.45882514 0.051721055 -0.36900562 0.12232322 -0.45271105 0.035210572
-0.2355849 -0.123494655 -0.028369902 -0.05984785 -0.13174509 0.11749616 0.09733053 -0.08223669
00000000: 4e85 6a3d 0e7a 7c3d 1b3e 5bbd 18f9 cfbd
00000010: f8cd 093d cac4 12be 2f54 cd3d 5b07 7a3d
00000020: 44ad 84be 5f69 283d 768b 7abc 2c82 c3be
00000030: a56c 9cbc 6df0 a53d cd2a 123d 9021 303c
00000040: 8e83 433c 5252 0fbe 76bc 5a3d afd3 143d
00000050: 01b0 ce3d fb08 5f3d 30f6 7cbb 78c1 d9bd
00000060: 897b 9b3c d649 51bc d559 3fbe 524b 46be
00000070: 447c c23c 033e 81be 40ab 19bc 0274 9f3d
00000080: 2fbf 5e3c 45e0 fe3d 804d 743d c0d1 dc3c
00000090: c4dd 7b3d 41ac 863d 8ee1 30bc 2134 3c3d
000000a0: d57a cdbe 384c 4e3e 6274 163b ef36 1a3c
000000b0: 78f2 133e a986 0d3f b6cc bcbd e412 19bd
000000c0: 1d27 683b ad91 89bc 03b6 febc d5db c7bc
000000d0: 449e 483c e9d8 b33d c050 e53a e84d 76bd
000000e0: 3e28 003e 3aab b4bd f2ea 423d 924e 96bc
000000f0: 691a 73be 19cc 9e3e 03ed e9bb 96d0 bf3d
00000100: 750a 3b3d c240 88bd 6f10 cc3c 3a5f 253d
00000110: c2c9 c7bd d467 25bf 68f3 94be 89e6 aa3b
00000120: ef2b dcbd d00d 153d 2e02 193f 962b 7dbd
00000130: 9e9a 553e 9663 fb3d c295 5e3d 6009 823d
00000140: 374e 3d3e f5a8 973c 6383 583d 9668 4d3d
00000150: 21df c4bc acb2 d5bc 00e6 a03c ac1d 32bd
00000160: 6667 063d a4f1 58bd ce6e d83c c56d 7d3c
00000170: c9aa 3dbc 1b77 e13c 71d0 e4bc 2267 78bd
00000180: 3cbc 353c 9633 b33c f4fd b43e c5b5 da3e
00000190: 5c03 c0be 391c 8dbe 3faf c5bd 832f 14bf
000001a0: b760 92bb 8296 3c3e 18fe 533c 6f3c 85bc
000001b0: 9601 a73d 1b6d 983e 87b0 e6bd 0dd1 ed3d
000001c0: b7eb babe 3f4c 88be 21eb ea3e 75d9 533d
000001d0: 4eee bcbe 9984 fa3d bec9 e7be f638 103d
000001e0: 2b3d 71be c4ea fcbd ff67 e8bc 0523 75bd
000001f0: 2fe8 06be d4a1 f03d 3b55 c73d b66b a8bd

8.weight f4 [10, 128]
0.0032809584 -0.0013106979 0.0033532418 -0.00018658872 -0.0025029245 -0.005215434 0.0011344558 0.0017464968
-0.00019031888 -0.0023496484 -0.0019845387 -5.928151e-05 -0.0007580006 0.0029385276 0.002009402 0.0035494438
5.062771e-05 0.002721053 -0.0004324845 0.001984903 -0.00025202046 -0.0019425099 -0.0007382737 -0.002409888
0.00014003934 -0.0007664545 0.0005515391 0.004902492 0.0014277197 -0.00079099025 0.0005931351 -0.0013457944
0.002163998 -0.001322214 -0.0005394404 -0.0006743701 -0.0016237571 -0.00196032 0.0046940334 -0.0008326543
0.004255011 -0.0011999011 -0.004557738 -0.00028272523 -0.124778286 -0.00016184956 -0.00047968424 0.003883435
-0.00074866303 -0.0015503055 0.00032911845 -0.002380985 -0.0009747967 0.00027122506 0.0034995768 0.005003679
0.0003231825 -0.0015918124 -0.002091155 -0.002689577 -0.00050734816 0.0016530247 0.0026638997 -0.0030865935
0.0021608907 0.0010360185 0.0017509336 0.0010737387 0.0005951709 -0.00034041435 -0.002739743 -0.0011975487
0.00047193942 -0.0021121947 -0.0004248804 0.15775429 0.0024520413 -0.003146061 -0.0014718239 -0.0004471364
-0.0035030558 -0.0019445014 -0.0013589426 -0.0028119006 0.0011697179 0.0012554546 0.0030400376 -0.0020773935
-0.002058565 -0.0006178641 -0.0004905067 -0.0020528387 -0.00038129615 0.0012281411 0.0033385851 0.003222468
-0.0021571151 -0.0018181024 -0.00035873696 -0.0018671195 0.0034222438 -0.0035963359 -0.0019637258 -0.0011667841
-0.0012222998 0.00054723735 -0.0023910962 0.0010196817 -0.0006869493 -0.0017352575 -0.00013080338 0.0007089546
0.003379526 -0.0003516529 -0.0005021617 -0.00028078322 -0.09188757 0.15245517 -0.0015282662 0.00050039444
0.0014056199 0.14180113 -0.0016538599 0.0030297863 -0.00097599777 -1.770477e-06 -0.0014899699 0.0007291605
-0.002690622 0.003050803 0.0005915741 -0.0012770495 0.0032029352 0.003541345 0.0008207627 0.0014317133
-0.002454353 0.003421945 0.0039023377 -0.076139085 0.0027016033 -0.0040671225 -0.002673587 -0.002954886
-0.001149023 0.0041298717 0.00017423759 -0.0032284227 0.0031463758 0.00443941 0.002146091 0.004520692
0.00017589686 0.0017924478 -0.002002437 -0.004352447 -0.0019765133 0.00094196777 -0.00085276994 0.005178925
-0.0022502441 -0.002251669 -0.0006140292 0.0036954656 0.0017224085 0.00471896 -0.0023848382 0.0005667373
0.0005994721 0.0023739473 0.0036985155 -0.004853896 -0.0007393879 0.0012734683 -0.0007322076 -0.0043295375
0.0003067117 0.0042977054 -0.00057368167 0.0016901337 0.001756493 -0.00062761706 -0.0028272273 0.18203646
-0.00015577475 0.0053192033 0.0015048141 0.003122624 -0.15586095 0.0015927452 -0.0031241185 0.0034955053
-0.00411836 -0.0011467176 0.0009616008 -0.0029609697 0.0042797155 -0.0017897892 0.00034383824 -0.0007033838
-0.00013913028 0.0031297167 0.0012743871 0.00089030014 0.27510843 0.0017076869 0.0038984308 0.0005912948
0.004882057 0.004152324 0.0040551974 0.002234798 0.002459249 0.004486025 -0.0028956714 0.0004754542
0.003231576 0.0017218108 -0.001942639 0.004016408 -0.00023300949 -0.00086226873 -0.002024186 -0.0018598267
0.004783252 0.0049368623 -0.0005136823 0.0015104038 -0.0065066493 -0.13386784 0.0048368913 -0.0011001403
-0.0043144673 0.00068285136 0.0033214176 0.003614807 0.001592793 -0.00069461705 0.0013888045 -0.00016358438
0.0019203873 -0.00051492115 -0.00026722028 -0.00045753666 -0.00076562597 0.00017468014 -0.0013149378 -3.5993133e-05
0.0029345637 0.0005299187 0.0034300634 -0.003226953 0.0013641517 -2.3231114e-05 -0.0002997341 0.0037320838
00000000: 5905 573b b9cb abba 10c2 5b3b 07a7 43b9
00000010: 1b08 24bb 3be6 aabb 05b2 943a b5ea e43a
00000020: 5690 47b9 8ffc 19bb 090f 02bb 09a5 78b8
00000030: 8fb4 46ba 5094 403b 2cb0 033b c99d 683b
00000040: 1759 5438 b253 323b 16bf e2b9 2515 023b
00000050: 9d21 84b9 d19b feba b688 41ba 36ef 1dbb
00000060: 86d7 1239 e4eb 48ba 2a95 103a 15a5 a03b
00000070: 5322 bb3a 755a 4fba 9f7c 1b3a 5e65 b0ba
00000080: ddd1 0d3b 244e adba 3c69 0dba 36c8 30ba
00000090: 3fd4 d4ba b678 00bb 68d0 993b 7c46 5aba
000000a0: 9f6d 8b3b 0046 9dba 1459 95bb bd3a 94b9
000000b0: c28b ffbd 29b6 29b9 217e fbb9 3a81 7e3b
000000c0: ed41 44ba 9f33 cbba 888d ac39 4d0a 1cbb
000000d0: 8089 7fba 3633 8e39 2859 653b e7f5 a33b
000000e0: d270 a939 5ca4 d0ba c20b 09bb 9d43 30bb
000000f0: 8fff 04ba 4eaa d83a d294 2e3b 7248 4abb
00000100: bb9d 0d3b 03cb 873a 957f e53a b1bc 8c3a
00000110: 3e05 1c3a a479 b2b9 438d 33bb 11f7 9cba
00000120: a36e f739 bf6c 0abb 7bc2 deb9 578a 213e
00000130: 6db2 203b 252e 4ebb 37ea c0ba a26d eab9
00000140: 8693 65bb a4de feba 8c1e b2ba dd47 38bb
00000150: 3851 993a 118e a43a 5e3b 473b e124 08bb
00000160: fde8 06bb 28f8 21ba 5995 00ba eb88 06bb
00000170: b4e8 c7b9 94f9 a03a 2acc 5a3b 0b30 533b
00000180: 635e 0dbb 654d eeba dc14 bcb9 22ba f4ba
00000190: b947 603b 81b0 6bbb dab1 00bb c7ee 98ba
000001a0: 9335 a0ba 7a74 0f3a f0b3 1cbb d7a6 853a
000001b0: 6314 34ba 9471 e3ba 4428 09b9 23d9 393a
000001c0: 0a7b 5d3b 0e5e b8b9 80a3 03ba 1636 93b9
000001d0: 8d2f bcbd 351d 1c3e 1b50 c8ba e72c 033a
000001e0: c73c b83a 5134 113e 54c6 d8ba 618f 463b
000001f0: 1ada 7fba 20a1 edb5 184b c3ba 2225 3f3a
00000200: 2555 30bb fbef 473b de13 1b3a ac62 a7ba
00000210: 56e8 513b e915 683b 7428 573a 54a8 bb3a
00000220: 36d9 20bb b642 603b 5dbe 7f3b cfee 9bbd
00000230: 620d 313b 7f45 85bb 5937 2fbb c3a6 41bb
00000240: d09a 96ba e053 873b 8cb3 3639 f293 53bb
00000250: 6d33 4e3b 7878 913b 6fa5 0c3b 5022 943b
00000260: f470 3839 91f0 ea3a 513b 03bb f99e 8ebb
00000270: 6488 01bb 63ee 763a 6c8c 5fba f9b3 a93b
00000280: d578 13bb bd90 13bb cdf6 20ba a02f 723b
00000290: 70c2 e13a 81a1 9a3b f24a 1cbb 1991 143a
000002a0: e425 1d3a 3a94 1b3b cb62 723b 6e0d 9fbb
000002b0: 7bd3 41ba 81ea a63a 9ff1 3fba cbde 8dbb
000002c0: 26ce a039 c4d3 8c3b 2063 16ba 7a87 dd3a
000002d0: 203a e63a ab86 24ba 0149 39bb c467 3a3e
000002e0: 7757 23b9 b64c ae3b 2f3d c53a f0a4 4c3b
000002f0: 039a 1fbe a9c3 d03a 03be 4cbb d914 653b
00000300: 4ff3 86bb 754d 96ba f013 7c3a d40c 42bb
00000310: db3c 8c3b 5c97 eaba 3045 b439 4a63 38ba
00000320: 80e3 11b9 ef1b 4d3b 5609 a73a 0863 693a
00000330: 03db 8c3e 77d4 df3a d17c 7f3b 1f01 1b3a
00000340: aaf9 9f3b 3810 883b 76e1 843b b075 123b
00000350: 5a2b 213b 81ff 923b 4ec5 3dbb 6246 f939
00000360: d9c8 533b 62ae e13a 26a0 feba 139c 833b
00000370: 0254 74b9 e009 62ba 35a8 04bb 6ec5 f3ba
00000380: d3bc 9c3b 67c5 a13b a3a8 06ba bef8 c53a
00000390: bb35 d5bb a714 09be c97e 9e3b 9532 90ba
000003a0: 6060 8dbb 6101 333a 24ac 593b 66e6 6c3b
000003b0: 44c5 d03a f616 36ba 8c08 b63a d987 2bb9
000003c0: 81b5 fb3a c6fb 06ba b319 8cb9 88e1 efb9
000003d0: 4ab4 48ba 582a 3739 fe59 acba 55f7 16b8
000003e0: cf51 403b 3eea 0a3a eaca 603b 4a7b 53bb
000003f0: 56cd b23a 70e0 c2b7 a125 9db9 fa95 743b

8.bias f4 [10]
-0.20528112 -0.049007032 -0.27041975 0.33662418 -0.0077206623 0.18650042 -0.024434797 -0.23919784
0.30605856 -0.0767496
00000000: 3735 52be 99bb 48bd 7574 8abe 015a ac3e
00000010: 9cfd fcbb f7f9 3e3e 7c2b c8bc 47f0 74be
00000020: b5b3 9c3e e52e 9dbd
