project_networks/mnist_cnn_3layer_k5_w1_ibp.onnx (onnx, 85616 bytes, 10 tensors)

0.weight f4 [4, 1, 5, 5]
000000 30 0d b8 bb fa d4 9d bb a6 c4 af bb a0 81 a2 bb
       -0.0056168064 -0.0048166486 -0.0053640185 -0.0049593
000010 8e 70 bc bb 15 49 9f bb 3a c1 c8 bb 70 c1 96 bb
       -0.0057507223 -0.004861007 -0.00612655 -0.0046006963
000020 e6 c8 c6 bb ab 56 09 bc 9c 20 83 bb f5 ce de bb
       -0.0060664294 -0.00838248 -0.00400169 -0.0067995735
000030 15 4a eb bb a8 9b 4f bc b1 bb 62 bc d8 f0 d4 bd
       -0.007180462 -0.012671389 -0.013838694 -0.103975
000040 cf ef ab bc 6e 44 44 bc 18 cc e4 3d 91 70 62 bc
       -0.020988373 -0.0119792055 0.1117174 -0.013820783
000050 4c 96 9c bc e1 69 2e bc c2 c7 44 bc 6c a9 79 bc
       -0.019114636 -0.010645361 -0.012010517 -0.015238147
000060 b1 71 03 bc 68 e0 56 38 9b 4b 5d 3a 97 cb 43 3a
       -0.008022712 5.123057e-05 0.0008441747 0.0007468997
000070 4a 24 f2 39 fc a8 4d 3f b4 83 21 3a 9e 2f ba 3a
       0.00046184874 0.80335975 0.0006161288 0.0014204865
000080 bb cf 75 3a 4a bc a0 3a c2 3b 4e 3a 03 e2 b4 39
       0.00093769626 0.0012263146 0.0007867181 0.00034500667
000090 65 8b 24 3a 07 29 94 38 26 b4 3d 39 60 a4 df b7
       0.0006276875 7.064832e-05 0.00018091555 -2.6660215e-05
0000a0 38 78 c6 39 56 0a 12 39 ee 11 3a b7 ea fa bb 38
       0.00037855073 0.00013927495 -1.10906385e-05 8.963591e-05
0000b0 18 ce 93 39 22 66 87 39 27 3e ca 38 1f d9 48 b9
       0.00028191577 0.000258253 9.6436874e-05 -0.0001915437
0000c0 2a 8d 37 b9 4d ed f8 37 f1 c9 dd 38 84 3d 8f ba
       -0.00017504828 2.9674406e-05 0.00010575716 -0.0010928367
0000d0 33 c2 6a 39 68 9a 89 39 7f 6b b9 b8 93 be 28 b9
       0.00022388324 0.00026245718 -8.84151e-05 -0.00016092723
0000e0 24 b3 39 38 07 12 20 38 db 79 53 b8 c0 46 7e 35
       4.4274275e-05 3.8163762e-05 -5.0419807e-05 9.472533e-07
0000f0 6f c6 04 ba 17 7a bc 37 83 19 3e ba 4e 32 c2 b7
       -0.00050649693 2.2468199e-05 -0.00072517263 -2.3150027e-05
000100 db 0f 28 b9 e6 e0 87 b8 4d f2 74 b9 c3 c0 93 38
       -0.00016027635 -6.479192e-05 -0.00023359917 7.045411e-05
000110 fa 20 3a 3a ca ef bb 38 3c 12 40 39 e1 7b 1b 39
       0.0007100251 8.961519e-05 0.0001831734 0.000148281
000120 46 83 32 3a 2f b9 04 40 03 17 19 b9 df 33 c4 bc
       0.00068097224 2.0738027 -0.0001459979 -0.023950515
000130 73 7e a5 bc 09 99 95 bc 7d 0e 59 bc dc bd 06 bc
       -0.020201897 -0.01826145 -0.013248083 -0.008223977
000140 05 83 c9 bc e9 1d a5 bc 38 8d c5 bc a4 cc b1 bc
       -0.024598608 -0.020155864 -0.02411519 -0.021704026
000150 9d 5c 2a bc 0a 20 a2 bc 35 60 a0 bc 51 79 07 bd
       -0.010398057 -0.019790668 -0.019577125 -0.03307468
000160 31 e5 97 3e 34 40 f6 bc 5e 63 53 bc c1 2f 80 bc
       0.29667047 -0.030059911 -0.012902109 -0.01564777
000170 89 ea 07 bd 81 24 f8 bc 01 83 8b bc 78 73 88 bb
       -0.033182655 -0.030290844 -0.017030241 -0.0041641556
000180 81 a4 73 be 57 71 cc bc 15 5f a5 bc e2 0e 41 bc
       -0.23793222 -0.024956388 -0.02018694 -0.0117833335

0.bias f4 [4]
000000 df 32 e5 bd 0a ae 87 be 60 3f 2e bf a0 e0 9c be
       -0.111913435 -0.2649997 -0.6806545 -0.30640125

2.weight f4 [8, 4, 5, 5]
000000 d9 fc bc 38 b6 e5 1e b8 3c e2 21 3b c9 76 d7 b7
       9.011635e-05 -3.788407e-05 0.0024701497 -2.568531e-05
000010 a8 4d ab b7 b8 cd 19 39 15 a1 4d b8 00 52 5b ba
       -2.042095e-05 0.00014667853 -4.9025828e-05 -0.0008366406
000020 72 32 ec 39 53 a2 67 37 69 3e c7 3a d5 68 12 3a
       0.00045051012 1.3806467e-05 0.0015201095 0.0005585079
000030 d7 31 52 b9 c0 ee d0 39 7d 36 5e b8 f1 68 8a 37
       -0.00020045727 0.00039850734 -5.297967e-05 1.649975e-05
000040 f0 28 9c 39 1e 64 dd 3a e1 9e ad 39 3a 9b 49 38
       0.0002978514 0.0016890799 0.00033115505 4.80667e-05
000050 1e bf c3 b8 0b 6c 74 37 82 b2 5c 31 a4 fe 28 39
       -9.333923e-05 1.4568689e-05 3.2115683e-09 0.0001611659
000060 38 8e 16 38 96 27 94 b9 1c a0 10 ba ef 4e 81 b9
       3.589524e-05 -0.00028258254 -0.0005517022 -0.00024663607
000070 b1 8a 08 b9 97 91 c7 38 43 d5 f6 bd d0 de ab bb
       -0.00013021637 9.516178e-05 -0.12052395 -0.005245067
000080 32 b0 82 ba d3 00 b9 b9 22 e0 17 3a c1 70 07 be
       -0.0009970723 -0.00035286564 0.0005793591 -0.13226606
000090 98 2b 9b bd 9d bb 0b bb b3 96 da b9 13 07 fe b9
       -0.07576674 -0.0021321543 -0.0004169248 -0.00048451926
0000a0 56 ca 10 be f6 c2 a1 bc 2f be c1 bd 20 48 d9 b9
       -0.14139685 -0.019746285 -0.09460103 -0.00041443203
0000b0 4c 18 13 ba 6f 80 5c bd 5e f2 ed bb c9 f7 43 bc
       -0.00056112255 -0.05383342 -0.0072615584 -0.011960932
0000c0 22 55 15 b9 6a 8b 65 b9 0d e1 8a b9 fb f2 ac bc
       -0.00014241462 -0.00021891078 -0.00026489087 -0.021111956
0000d0 fa 55 bb bb 6b 7b f8 bc dd 06 e4 b8 84 c2 82 38
       -0.0057170363 -0.030332288 -0.000108731656 6.2351144e-05
0000e0 49 fb 64 b8 d5 1c f2 bc b9 2f 20 bb c0 72 31 b9
       -5.4593464e-05 -0.029554764 -0.0024442507 -0.00016922783
0000f0 e8 f0 f9 39 83 11 a4 39 e4 a9 03 bb 16 3e d3 ba
       0.0004767247 0.00031293565 -0.0020090276 -0.0016116526
000100 08 f6 ab b9 01 be 2c 3a 79 2b 54 3a ff 86 1d 3a
       -0.0003279897 0.0006589592 0.0008093636 0.00060091907
000110 32 b6 16 3b 0b c7 03 39 3f fe a7 3b 48 13 d4 3f
       0.002299678 0.00012567283 0.005126744 1.6568384
000120 20 4b b5 3f 9f 9c 57 3a 9f 2d b9 b9 ab 17 8f b7
       1.4163551 0.00082249375 -0.0003531994 -1.705795e-05
000130 aa d2 86 ba 1e 8f c9 b9 a7 0c cc 39 d8 40 ae 38
       -0.0010286171 -0.00038444338 0.0003891934 8.309045e-05
000140 99 a7 73 37 86 aa 1f b9 6c e3 69 3a 55 70 92 b8
       1.4522951e-05 -0.00015226947 0.0008922133 -6.982746e-05
000150 bd 3b 81 38 f0 67 b0 b3 56 4c 0b b9 b0 8b 0f b8
       6.1623265e-05 -8.214545e-08 -0.0001328451 -3.422395e-05
000160 1e d0 23 38 1b d7 eb 36 6a 19 eb 39 21 5c 8d 3a
       3.9056053e-05 7.0285873e-06 0.00044841628 0.0010784903
000170 ef f2 78 b5 77 84 6c 3a de 7c fd 38 a3 a5 44 b8
       -9.2740714e-07 0.00090224243 0.000120872384 -4.6884303e-05
000180 91 8f a2 38 bf 08 cf 39 1a 3e 32 39 ea 66 9e b7
       7.751503e-05 0.00039488633 0.00016998537 -1.888299e-05
000190 f0 cd e3 b6 73 ae 9f b4 1b 83 b3 b5 c9 58 78 b6
       -6.7891015e-06 -2.9742986e-07 -1.3374696e-06 -3.700656e-06
0001a0 39 03 48 b8 1f b5 17 b5 b8 fa 5b b3 af 22 3d 38
       -4.7686717e-05 -5.651545e-07 -5.121794e-08 4.5093413e-05
0001b0 a3 d5 c3 b7 37 e5 43 b9 33 4b 11 3a 94 df 19 b7
       -2.3345294e-05 -0.00018682038 0.00055425166 -9.1715665e-06
0001c0 43 60 17 b8 b9 1d af 37 a5 c9 b1 37 22 4e 83 b6
       -3.6090856e-05 2.0875466e-05 2.1193942e-05 -3.9132e-06
0001d0 03 b5 d2 b6 30 08 a4 37 99 28 3f 39 7e 21 8f b7
       -6.2795602e-06 1.9554136e-05 0.00018230303 -1.7062524e-05
0001e0 4a e7 10 b8 9d db 66 b9 50 f9 18 b8 03 56 e6 38
       -3.454768e-05 -0.00022016322 -3.6471814e-05 0.000109832756
0001f0 bc 11 47 b7 b4 2f 97 bb a6 4e 40 38 0f ac 75 bb
       -1.1865453e-05 -0.004613841 4.5849614e-05 -0.0037486588
000200 8e 5f 96 3a 14 46 50 39 cb ca 67 ba 1e 4b 95 bb
       0.0011472569 0.00019862532 -0.0008842169 -0.004556074
000210 98 06 5d 3a b8 df f3 39 da ec 13 39 b7 1f b0 bb
       0.00084314635 0.00046515255 0.00014107247 -0.0053748745
000220 c0 34 91 ba fd 8f fd 39 3c 1c 7b 3a 1d d9 70 bb
       -0.0011078343 0.000483632 0.00095790974 -0.0036750503
000230 e9 5f 31 bb a2 7e c4 ba 57 5b 94 bb 7a c9 11 ba
       -0.0027065224 -0.0014991353 -0.00452749 -0.00055613334
000240 63 ef 0d 38 4a 1f 0d bb 27 a4 0d b8 1f 47 7e ba
       3.3839966e-05 -0.0021533542 -3.37699e-05 -0.0009699929
000250 83 d5 bc 3a 10 6f ce b9 83 65 8a ba 21 90 e4 ba
       0.0014406893 -0.0003937413 -0.0010558817 -0.0017437973
000260 03 78 a4 ba a0 ac c1 ba 25 b0 53 3b e9 43 1a bb
       -0.0012547973 -0.0014776178 0.0032301035 -0.0023539013
000270 84 74 b5 ba b8 03 96 3a 25 92 b7 3e c0 90 bb 3d
       -0.0013843928 0.00114452 0.35853687 0.09158468
000280 f3 f6 30 bb 06 54 98 3a 9c cc 29 3b 2c 88 dc 3a
       -0.0027002662 0.0011621721 0.002590931 0.001682525
000290 ca 10 3c 39 f2 8d 0a c0 57 8b 2b bb e1 72 fc b8
       0.00017935332 -2.1649137 -0.0026175582 -0.00012037694
0002a0 f7 09 40 3b 3a 75 34 b9 17 53 06 c0 f5 23 46 c0
       0.0029302815 -0.00017209808 -2.0988214 -3.0959446
0002b0 eb bd 47 c0 6e 26 5e c0 36 bc 8a c0 85 09 5b 39
       -3.1209667 -3.4710956 -4.335475 0.00020889014
0002c0 2d 0a 78 b5 6d d5 56 38 63 b0 89 b6 d4 27 90 b7
       -9.2402007e-07 5.1220344e-05 -4.1034523e-06 -1.7184684e-05
0002d0 9f 25 1c b8 cd 62 c5 b6 f9 7c 76 38 3c b9 81 b8
       -3.7228336e-05 -5.8825594e-06 5.876736e-05 -6.185702e-05
0002e0 db 96 9a b8 ed 72 8d b7 e7 9a 29 b9 3f 79 68 ba
       -7.371391e-05 -1.6862026e-05 -0.00016174802 -0.0008868165
0002f0 c1 9b 92 b6 8c 90 14 ba 40 61 de b2 34 87 68 b7
       -4.369271e-06 -0.0005667291 -2.5888426e-08 -1.3859757e-05
000300 ba 6f ac b8 52 8a db 39 09 e4 ba 38 bb 25 6e b1
       -8.22241e-05 0.00041873992 8.911646e-05 -3.4655006e-09
000310 7d a7 04 b7 c9 9d 9a 39 e0 c9 37 b8 07 a5 44 b7
       -7.9068095e-06 0.00029490728 -4.381861e-05 -1.1720934e-05
000320 49 ae c2 36 ce 9f d0 b5 b2 1c 3d b7 70 5e a4 b4
       5.80194e-06 -1.5543717e-06 -1.1271959e-05 -3.0616093e-07
000330 46 30 3a bf 11 2e bd b8 da 33 fe b5 b9 f9 50 b4
       -0.7272991 -9.020803e-05 -1.8939566e-06 -1.9462358e-07
000340 46 a6 d1 b7 3f ef 6b bf f7 0a 11 3e 2b 41 a5 b6
       -2.4992169e-05 -0.92161936 0.14164339 -4.9249697e-06
000350 84 b0 f3 b5 0e 67 30 bf ff 91 24 bf 0a e1 a1 b5
       -1.8156284e-06 -0.6890725 -0.6428527 -1.206093e-06
000360 0e 4d 81 b4 3d dc 69 b9 c9 83 72 bf 9c 7f 0e be
       -2.4084187e-07 -0.00022302657 -0.9473234 -0.13915867
000370 8b 07 c6 b6 8e ff f7 b5 80 21 37 b6 4c 29 b3 b4
       -5.901738e-06 -1.847731e-06 -2.7288625e-06 -3.3371396e-07
000380 d3 8b af 37 3f b3 81 ba a4 9f 6f ba c8 47 1e bb
       2.0926736e-05 -0.0009895338 -0.0009140915 -0.0024151672
000390 e0 3f db bb 75 1e e7 bb 3e 20 24 b9 8f 9c 64 ba
       -0.006690964 -0.0070531913 -0.0001565227 -0.0008720839
0003a0 d3 6e 73 39 81 1b d6 ba 06 05 b8 ba cd f4 12 36
       0.00023215571 -0.0016335101 -0.0014039583 2.1898188e-06
0003b0 98 5c 2c 38 17 61 11 39 ce cd 46 ba 04 3f 0d ba
       4.109423e-05 0.00013864446 -0.0007583768 -0.0005388113
0003c0 21 e2 8f b9 a4 0a 04 b9 b8 b7 00 b9 87 89 5d b9
       -0.00027443565 -0.00012592465 -0.00012275472 -0.00021127435
0003d0 d0 c5 ec 3a 1f d0 95 b9 db 56 ae b8 c0 9b 6f b9
       0.0018064324 -0.00028574557 -8.313145e-05 -0.00022850838
0003e0 ce 8f bd bf 1f a4 7c c0 c4 ce d8 39 88 45 af 3a
       -1.4809511 -3.9475172 0.00041352783 0.0013372162
0003f0 57 31 ac 38 6b f9 b0 3a 38 c6 9f bf 95 41 79 3f
       8.2107894e-05 0.0013502067 -1.2482367 0.97365695

2.bias f4 [8]
000000 46 62 b3 3c 5f 27 0c bc 14 46 24 bc 13 98 5d bb
       0.021897446 -0.008554309 -0.010026474 -0.0033812567
000010 ed ed f4 bb bf c0 7f bc 58 f4 e5 ba fb 44 51 3e
       -0.007474652 -0.015609919 -0.0017544134 0.2043647

4.weight f4 [8, 8, 4, 4]
000000 44 49 65 b9 72 70 13 b9 40 f0 d1 b8 cf dd 41 39
       -0.00021866435 -0.00014060902 -0.00010010647 0.00018488544
000010 f4 9c 5d b8 2b e3 73 37 b0 8a 1c ba 68 0e 34 b9
       -5.283668e-05 1.453682e-05 -0.0005971594 -0.00017171504
000020 2e 7d ff b8 ee 14 48 37 10 0d e0 38 ce be 69 b9
       -0.00012182664 1.1925802e-05 0.000106835854 -0.00022291692
000030 a7 59 82 37 0f d2 d7 b9 0e 49 f3 b8 75 61 a1 39
       1.5538955e-05 -0.000411645 -0.000116007504 0.00030780924
000040 2e b6 84 bf 8c 3a 65 bc 6a 6e c5 bf bd 22 c6 c0
       -1.0368097 -0.013991009 -1.5424321 -6.1917405
000050 93 d4 50 bc 4d 5c d9 bb a0 bc 64 c0 c4 74 ab c0
       -0.012745994 -0.0066333176 -3.5740128 -5.3580036
000060 48 9f 82 bf 7f 2a d8 be 60 34 66 bf 30 d6 9c c0
       -1.0204859 -0.42219922 -0.8992367 -4.901146
000070 de 44 ac ba 7d 91 f7 b9 59 67 7d ba c1 0b 8f c0
       -0.0013143083 -0.00047219908 -0.0009666584 -4.470185
000080 05 68 00 ba 3a 20 74 b9 06 97 4d b9 40 27 b9 b8
       -0.00048983126 -0.00023281659 -0.00019606584 -8.828798e-05
000090 c1 c6 02 b9 95 24 92 39 2f 57 0a b6 b6 7a 94 b8
       -0.00012471808 0.00027874546 -2.061435e-06 -7.0800466e-05
0000a0 72 6d 11 ba 80 08 3a b9 c4 bb 74 b8 69 3b 94 38
       -0.00055476197 -0.00017741509 -5.8349004e-05 7.068256e-05
0000b0 aa 18 01 b7 bd e1 c8 37 4c e2 70 b8 41 ec 1d 38
       -7.694742e-06 2.3946975e-05 -5.7431214e-05 3.7651746e-05
0000c0 de cd a8 b9 a2 35 c0 bd 2f 20 2f c0 3b 2e c9 c0
       -0.0003219684 -0.0938523 -2.7363393 -6.2868934
0000d0 28 69 63 c0 37 ff 26 c0 1b f2 75 c0 f0 70 e0 c0
       -3.5532932 -2.609327 -3.842902 -7.0137863
0000e0 49 0f 6e c0 dc 01 fa bf 8e 62 56 c0 f8 3d f3 39
       -3.719683 -1.9531817 -3.3497653 0.00046394742
0000f0 b6 c2 47 c0 dd c6 85 bf 09 1a dd 38 fd 2d a3 ba
       -3.1212592 -1.0451313 0.000105429506 -0.0012449619
000100 bb 7f 82 39 9a 82 55 ba 5a 30 63 ba cc 12 7e ba
       0.000248907 -0.00081447663 -0.0008666568 -0.0009692132
000110 28 98 a9 b9 bb 6b 93 b9 51 96 ea b9 18 a0 b2 38
       -0.00032347557 -0.0002811829 -0.00044743952 8.517521e-05
000120 42 00 02 39 95 be e8 38 ca fa e9 b9 9b c2 83 b7
       0.00012397862 0.00011098121 -0.00044628076 -1.5707037e-05
000130 93 e0 07 ba e7 f7 ac b9 40 70 e5 b9 78 17 13 39
       -0.00051833055 -0.00032991098 -0.00043761916 0.00014027755
000140 0c 7b 21 bc 9e 29 92 ba cb 54 30 b9 5c b0 93 b9
       -0.009855997 -0.0011151319 -0.00016816256 -0.00028169423
000150 4c c9 19 c0 1a 6a d6 b9 2d 73 30 ba 00 d1 e9 35
       -2.4029112 -0.00040896313 -0.000673103 1.742068e-06
000160 ae 22 0f c0 1e 96 1b ba 06 04 ac 38 72 a6 73 39
       -2.2364917 -0.000593515 8.2023485e-05 0.00023236292
000170 61 45 2e c0 8c 53 fe bd 26 39 91 b8 ed 59 fa b9
       -2.7229846 -0.12418279 -6.9247835e-05 -0.00047750716
000180 10 c6 4b b9 11 76 40 ba 17 39 7e b9 b2 ec a3 39
       -0.00019433373 -0.0007341812 -0.00024244595 0.00031266134
000190 1b 25 04 39 19 cb 77 39 bc bf 65 38 ab 3e 62 39
       0.00012602324 0.00023631415 5.477642e-05 0.00021576385
0001a0 28 af 1e 39 a2 1d 12 b9 ba 7d 05 3a 54 1f 3e b8
       0.00015133305 -0.00013934684 0.0005092282 -4.5328707e-05
0001b0 ce f3 01 39 b3 af 35 b9 7b 91 ca 39 75 f8 c5 39
       0.00012393223 -0.00017326958 0.00038636834 0.00037759883
0001c0 29 c7 e0 39 0a 4e 84 3a 25 f0 a2 39 5c 4f a3 39
       0.00042872995 0.0010094058 0.0003107797 0.0003114891
0001d0 99 86 46 ba 4f 17 83 b9 8b 49 aa ba 99 af 3e 3a
       -0.0007573157 -0.00025003633 -0.0012991888 0.0007274091
0001e0 b8 a6 f8 39 dd 01 61 ba f2 3f 15 bb c0 2b c6 b9
       0.0004742646 -0.00085833465 -0.002277371 -0.000377981
0001f0 e0 b3 80 3a e9 d4 53 ba 3e 89 c2 39 c9 45 10 3a
       0.0009819232 -0.00080807373 0.00037104817 0.0005503563
000200 a0 c0 75 b9 fa ca 74 b8 83 ab eb b9 a9 9e e5 be
       -0.00023436779 -5.836317e-05 -0.0004495048 -0.4484761
000210 e7 e5 a1 b9 99 bf 2a ba c8 97 a2 bf 8c 96 a8 be
       -0.00030879604 -0.00065135356 -1.270257 -0.32927358
000220 d4 9c 83 ba 7e 88 00 c0 7c 8d e7 be fd a8 0b bb
       -0.0010041245 -2.0083308 -0.45225132 -0.0021310442
000230 da 3c c9 37 ec 7a 1b bf 82 8f 4a bb af f1 88 ba
       2.3989403e-05 -0.6073444 -0.0030908291 -0.0010448004
000240 31 ba 47 b8 bc 9b ff b8 ce 6b 76 b9 69 ee 86 ba
       -4.76187e-05 -0.00012188355 -0.00023500549 -0.001029444
000250 f6 3f dc 39 e8 00 ce 38 1a 62 eb b9 cb 2d 04 bf
       0.00042009325 9.823014e-05 -0.00044895784 -0.51632375
000260 39 20 aa 38 0e ef b3 34 d7 47 02 ba 6a a2 ea b8
       8.1122336e-05 3.3515283e-07 -0.00049698114 -0.000111882415
000270 60 e8 90 b9 0c 0f 97 bf 7e 1e 38 be 66 a0 01 bc
       -0.00027638953 -1.1801467 -0.17980382 -0.007911777
000280 92 91 4a 3a 58 50 f1 38 ab 55 32 3a 50 d5 ea 39
       0.000772738 0.00011506741 0.00068029267 0.00044790888
000290 2d 42 7a b8 f4 d5 94 39 e2 86 0a 3a 91 aa c8 b7
       -5.9666276e-05 0.00028388167 0.00052843813 -2.3921284e-05
0002a0 dd 9b 93 b7 ab 05 55 39 c3 b7 37 b9 88 b6 1c ba
       -1.7596345e-05 0.00020315374 -0.00017520697 -0.0005978127
0002b0 81 c5 0a b9 45 ab 5f b8 a2 70 df b8 8b c0 c1 ba
       -0.00013234282 -5.332685e-05 -0.00010654448 -0.0014782114
0002c0 7b d2 32 39 2f b5 a6 39 a4 3e 15 3a 81 fd c2 38
       0.00017053813 0.0003179698 0.0005693233 9.29786e-05
0002d0 56 f8 0f 3a b1 52 23 38 b5 30 58 b9 18 6f 71 39
       0.0005492022 3.893924e-05 -0.0002061751 0.00023024937
0002e0 1d 7c d5 37 98 24 e1 39 90 8f c2 39 b1 d5 70 38
       2.5449373e-05 0.0004294261 0.00037109526 5.7419475e-05
0002f0 45 79 ca 39 52 de fb 39 d4 01 89 39 c3 69 8a b9
       0.00038618795 0.00048040092 0.00026132038 -0.0002640021
000300 0d 54 52 3a b4 ab 05 39 1c 21 02 38 ec 50 74 39
       0.0008023389 0.00012747833 3.102525e-05 0.00023299799
000310 4f 1c 99 39 62 33 97 39 ab fb ab 38 bf 4d 42 be
       0.00029203526 0.00028839248 8.200792e-05 -0.1897497
000320 85 f7 0f 39 7c 89 c4 b8 8d cd 96 ba c6 32 63 bf
       0.00013729751 -9.371617e-05 -0.0011505351 -0.8874935
000330 85 4b 79 ba 25 e1 c2 ba e9 47 08 c0 f3 d3 13 bb
       -0.00095098495 -0.0014868124 -2.129389 -0.0022556752
000340 b7 cc 7d 37 45 e8 fc 38 8c 44 36 3a 06 cb 01 bc
       1.5127639e-05 0.0001205956 0.00069529633 -0.00792194
000350 1e 63 36 3a f7 73 6b 3a a6 02 fe bb d4 26 67 be
       0.00069575186 0.00089818187 -0.0077517806 -0.22573406
000360 af e2 0e bc ad 89 13 bd 5f 04 b1 bc 53 c4 26 bd
       -0.008721038 -0.03601997 -0.02160853 -0.040714573
000370 b7 2d 89 b7 95 36 00 bd ef e3 36 bf bf 53 d8 bd
       -1.635296e-05 -0.031302053 -0.7144155 -0.10562848
000380 64 71 01 ba 95 68 9c ba 4e 3d 89 be 02 c3 c4 bc
       -0.0004937856 -0.0011933023 -0.26804584 -0.024018768
000390 4f 06 a4 ba f8 c0 00 bc cd 72 38 bc 10 53 f8 bd
       -0.0012514087 -0.007858507 -0.011257839 -0.12125218
0003a0 73 17 08 bf 82 d2 be bc 73 25 8e be 60 de 07 bb
       -0.5316078 -0.023293737 -0.27762946 -0.002073191
0003b0 be 0b 08 bc 55 45 a3 bb 89 9e 93 bb 1f 0a e6 b9
       -0.008303581 -0.0049826303 -0.004504983 -0.0004387656
0003c0 53 6f 6a bf 93 4b e0 be 05 2b 9e 39 cb 1e 8e 3a
       -0.9157612 -0.4380766 0.0003016816 0.0010842917
0003d0 78 88 b1 ba d9 cf de b8 04 9e 06 b8 25 bb 18 3b
       -0.0013544699 -0.000106244996 -3.2095253e-05 0.0023304906
0003e0 e6 6f a9 b9 ba fa ff 39 45 bf d3 3a 55 dd 19 3b
       -0.00032317563 0.00048824196 0.0016155025 0.0023477871
0003f0 a4 6e b5 39 0c 42 fa 39 f0 8d 95 3b 01 86 80 3f
       0.00034605444 0.00047732925 0.0045640394 1.0040895

4.bias f4 [8]
000000 20 41 82 3e cf 58 26 3e 2b 9b 53 be 9b fd b9 3e
       0.2544031 0.16244815 -0.2066466 0.36326298
000010 f2 31 81 3e a6 49 af 3e 53 77 45 bd 63 9f d6 3e
       0.25233418 0.34235877 -0.0482095 0.41918477

7.weight f4 [64, 288]
000000 5d de f3 b9 71 83 37 3a a9 45 9e 39 97 f3 0e ba
       -0.00046514245 0.00070004823 0.0003018801 -0.0005453168
000010 58 eb e6 b7 d8 cd bd ba dc 3f 40 ba 76 81 6b b8
       -2.7527727e-05 -0.0014480902 -0.00073337345 -5.6148936e-05
000020 6a 39 a4 39 3d 57 a0 be 21 c0 dd bd 58 2c 96 bb
       0.00031323294 -0.31316558 -0.10827661 -0.004582923
000030 b5 34 d7 ba 79 c1 ec 38 0c 57 61 ba 61 da 81 bc
       -0.0016418906 0.00011289394 -0.000859604 -0.015851201
000040 3c 18 c3 39 05 1e 5b bb 10 2f dc b8 77 c8 c2 be
       0.00037211354 -0.003343464 -0.000104991836 -0.38043568
000050 8a 84 bc be 08 25 91 38 5f df 0e 3a 59 6e 45 ba
       -0.3681987 6.9210364e-05 0.0005450155 -0.00075313967
000060 04 aa c3 ba 7f f9 17 39 81 25 e2 b9 2f 53 a3 38
       -0.0014927988 0.00014493427 -0.00043134022 7.78794e-05
000070 c8 88 15 b9 41 64 31 ba c3 eb 49 be df 5b e3 be
       -0.00014260702 -0.0006766953 -0.19718842 -0.4440603
000080 7d 55 1f bb 47 2e 47 bb bf 40 fc b9 9c 3a e4 ba
       -0.002431243 -0.0030392574 -0.00048113425 -0.0017412486
000090 dc 6c 29 ba 77 9f 88 bf 80 92 10 3b ed e0 80 ba
       -0.00064630597 -1.0673665 0.0022059977 -0.0009832658
0000a0 6b bc 56 3a bf 79 4f 3a 0d 1f ec be e1 74 74 be
       0.00081915286 0.0007914565 -0.4611744 -0.23872711
0000b0 95 8b 92 bb 4c 32 a2 ba 47 87 48 39 62 48 20 39
       -0.004472206 -0.0012374609 0.00019123881 0.00015285754
0000c0 e8 b4 b2 bf d9 dd 45 be ed e4 88 ba 66 2c ee b9
       -1.3961458 -0.1932291 -0.0010444202 -0.00045427977
0000d0 22 e3 91 ba c9 52 32 38 f9 4a 19 bb 1a d2 0c b9
       -0.0011130313 4.2515607e-05 -0.0023390634 -0.0001342971
0000e0 16 17 fb 3a 93 18 ae ba 27 9b 2e 39 90 3e 9f 3a
       0.001915666 -0.001328247 0.00016651732 0.0012149382
0000f0 bd 6f af ba 69 7b 9a b9 dd 1a 0f ba 98 5e dc 39
       -0.0013384741 -0.00029465117 -0.000545902 0.00042032148
000100 a3 3d 38 3a 72 97 02 3b fc 25 89 39 bf f5 62 3a
       0.00070282276 0.0019926694 0.00026158977 0.0008657835
000110 9c 00 73 b8 cd 93 54 3a 01 eb 7e ba de 1e ca 3a
       -5.7936282e-05 0.0008109182 -0.00097243494 0.0015420576
000120 cd a8 6b be 52 1b b3 bd 1d ba a1 bd 3f 18 11 3b
       -0.23013611 -0.08745445 -0.078968264 0.0022139696
000130 d0 40 0b 3d fd 2a 3a bd 30 f7 62 3d 1d b9 07 bd
       0.033997357 -0.045451153 0.055411518 -0.033135522
000140 33 3a 26 bb a6 95 ad 3d 28 29 be 3d 4e f3 84 3c
       -0.002536428 0.08475809 0.09285194 0.016229298
000150 5c aa 87 3c 86 c4 63 3d 0d 7b 98 3d a0 c9 3a 38
       0.016560726 0.05560734 0.07445345 4.4533634e-05
000160 2c 37 18 be e7 ea e9 3c dc ae d0 3b 84 a0 07 3e
       -0.14864796 0.028554393 0.006368501 0.13244826
000170 85 c3 8f 3d 0d 96 8a be 5f 3f 40 bd e9 02 30 3c
       0.07019714 -0.27067605 -0.046935435 0.010742881
000180 a5 93 d4 bd 2f 09 bd 3d 2a 1c c5 bd ca ee 83 3d
       -0.103797235 0.09230267 -0.096245125 0.0644203
000190 7f a2 d4 3c 9a c5 13 3e d9 66 b8 3d e8 3f 06 3c
       0.02595639 0.14430848 0.09003992 0.008193947
0001a0 4b 42 bc bd 6d 32 fe bd 92 2b 06 3e e7 10 d9 3d
       -0.09192332 -0.12411962 0.13102558 0.10598927
0001b0 12 17 2f b9 0f f9 c8 bc ac af 0e bf f1 e9 9e b9
       -0.00016697895 -0.024532823 -0.55736804 -0.00030310408
0001c0 92 b5 14 ba 88 e1 a5 bc 7e 0b 9c 39 fb 1d e4 ba
       -0.0005672808 -0.020249143 0.000297632 -0.0017403954
0001d0 60 6d 9c bb fe 19 df be c8 9d 32 bd 6f 0b ef bb
       -0.0047737807 -0.43574518 -0.043607503 -0.007295064
0001e0 05 08 7b 3a 0e 93 b5 b8 5c 6b 96 38 2d 8c d8 3a
       0.0009576085 -8.6581436e-05 7.1725546e-05 0.0016521268
0001f0 a7 a1 78 bb 1c a5 97 be 6e a0 6d 3a 4b 43 d0 bb
       -0.003793815 -0.29618156 0.00090647384 -0.006355678
000200 1d 1e f8 38 ae 49 0b b8 cc 6d 7a 3a 98 74 90 bb
       0.000118311706 -3.3208802e-05 0.0009553104 -0.0044084303
000210 db d1 43 3a 68 cc 13 39 e4 19 a8 be 98 24 55 be
       0.00074699306 0.0001409516 -0.32832253 -0.2081474
000220 96 6d 35 bc 7d b0 b5 3c 71 45 42 3b 5e 7c f1 3b
       -0.011073491 0.022178883 0.002964344 0.007369562
000230 c3 f5 1b b9 24 cc 59 bb b1 46 18 be 09 71 a1 b9
       -0.00014873505 -0.003323325 -0.14870717 -0.0003079253
000240 15 7b ff bc f3 a9 88 bf e3 b2 c8 bb 4c 9f 02 3a
       -0.03118662 -1.0676864 -0.0061248406 0.00049828435
000250 82 33 d1 3a 00 9d d4 ba 55 25 14 b8 a2 72 4a ba
       0.0015960785 -0.0016221106 -3.5320718e-05 -0.000772277
000260 29 03 98 b9 20 26 9c 3a fc 6f da 3f e9 22 d5 3f
       -0.00028994054 0.0011913218 1.7065425 1.6651279
000270 5d 7f a1 ba a8 23 8d 39 b1 68 4c 3a a7 b2 c7 3c
       -0.0012321282 0.00026920182 0.00077975827 0.02437718
000280 06 a5 66 ba 48 7f 13 3f 46 73 39 bb a2 db eb b9
       -0.0008798394 0.5761609 -0.0028297468 -0.00044986332
000290 72 38 88 3a e6 6b 06 bb 22 19 b3 bf 81 55 4e bf
       0.0010392799 -0.002051109 -1.3992045 -0.8059922
0002a0 a0 69 97 3b d5 39 d1 3a d8 04 bd 3a bb 14 a6 39
       0.004620746 0.001596267 0.0014420999 0.00031677433
0002b0 b9 e3 aa b8 0c 60 97 3a bb 5e af ba 77 4a 1c 3a
       -8.148648e-05 0.001154901 -0.0013379672 0.0005962024
0002c0 32 47 53 39 a3 a1 a4 b8 d8 c5 19 3a 12 1a d9 3b
       0.0002014905 -7.8502366e-05 0.0005865968 0.0066254223
0002d0 df a0 cb 3c 95 aa f3 b9 2b fc 9d b9 89 23 a9 b9
       0.024856983 -0.00046475665 -0.00030133253 -0.00032260668
0002e0 b4 0a b4 b9 65 cf 54 39 32 9d ee ba 5d e2 4d 39
       -0.0003434025 0.00020295156 -0.0018204807 0.0001963465
0002f0 8b bd 29 3a 88 71 e9 3c 58 71 a5 3a 57 82 20 39
       0.00064750825 0.028496519 0.001262228 0.00015307344
000300 e9 79 01 ba bd be 33 be d1 c1 29 ba 73 a7 da 3d
       -0.00049391255 -0.1755323 -0.0006475719 0.1067647
000310 7f 56 2f 3f 7f be 49 3e 4a c5 6a 39 7f 33 cb b8
       0.6849136 0.19701575 0.00022389475 -9.689386e-05
000320 ee 9b 29 3b 6d f5 8c 3b ce 96 e8 ba 46 b4 c6 ba
       0.0025880295 0.004301718 -0.0017745139 -0.0015159927
000330 54 c7 b5 ba 78 bd 9c 3a b1 5e c9 3d 8b 12 1a ba
       -0.0013868609 0.0011958322 0.09832514 -0.0005877397
000340 6c b7 dc ba 2e 9f 9a bb 94 e9 87 ba a8 1f d0 ba
       -0.0016839332 -0.0047186827 -0.0010369294 -0.0015878575
000350 d0 3a 11 ba e4 74 20 3a c2 2e b2 b9 5b f3 10 ba
       -0.0005540075 0.00061209337 -0.00033985643 -0.0005529427
000360 b5 59 d7 ba fb 75 c3 ba 83 c7 45 3a 2a 3e f9 39
       -0.0016429933 -0.001491248 0.0007544683 0.00047539297
000370 79 f3 39 ba 6b e9 bf ba 52 8f 9b ba bb 17 02 ba
       -0.000709347 -0.0014641708 -0.0011868274 -0.00049626426
000380 c0 33 07 3a f9 fd 4c 3c 9f 27 c6 3e 98 18 4f 3a
       0.00051575527 0.012511724 0.38702103 0.0007900088
000390 f2 3a 48 ba 1f c2 69 bd 0f 8a bb be a9 14 cd 39
       -0.0007638178 -0.057069894 -0.36628768 0.0003911604
0003a0 a4 75 f0 b8 5d a0 29 ba e0 88 4e ba 9d 58 f1 3a
       -0.00011466004 -0.00064707344 -0.00078786723 0.001841325
0003b0 96 0b 4e 3b 1f 79 46 3a 1a 9d f6 ba 33 85 dd ba
       0.0031440011 0.0007571149 -0.001881513 -0.0016900658
0003c0 1d c9 43 bb 2a 0e 66 ba a3 aa 88 b9 91 73 e8 39
       -0.0029874512 -0.00087759143 -0.00026067076 0.00044336592
0003d0 c1 b0 4f ba 9c 8f 06 bb 53 1e 5d bb 9a e8 fa ba
       -0.0007922762 -0.0020532375 -0.0033739998 -0.0019142807
0003e0 94 b1 b3 39 16 3d 45 3a ac 6e 50 39 c7 f5 86 ba
       0.00034273847 0.0007524056 0.00019877654 -0.0010296636
0003f0 77 01 3f bc aa fb b1 bf 24 9e cf bb 88 06 f0 3b
       -0.011658064 -1.3904927 -0.0063359905 0.0073249973

7.bias f4 [64]
000000 43 bb be 3c ef 10 dc bd 11 b1 dd be 08 48 82 3e
       0.023282653 -0.10745417 -0.43299153 0.2544558
000010 c0 8f c2 bd 5f f6 7d bc 61 1c 85 3e 9e 35 96 3e
       -0.095000744 -0.015500634 0.25998214 0.29337782
000020 07 6e 2b 3a c4 6f 29 3b 4f 60 a9 bc f5 75 8c 3d
       0.00065395277 0.002585397 -0.020675806 0.06858436
000030 2f e5 38 be 38 f5 04 3e 01 f7 ce 3d 7c 44 38 bf
       -0.18056177 0.12984169 0.10105706 -0.719795
000040 4f 81 08 be cd e9 65 bd 8a b0 09 b9 d6 b3 4c 3e
       -0.13330577 -0.056131173 -0.00013131104 0.19990477
000050 a8 a4 0c 3f 87 9d 0a be 44 0d f1 b9 49 e7 ed bd
       0.54938745 -0.13536654 -0.00045976986 -0.1161638
000060 60 24 8d bd 3f 88 e1 3d 3e 1b 0a ba 14 e7 3e 3e
       -0.068917036 0.11012315 -0.00052683416 0.18642837
000070 4f f3 ad bb 77 81 a5 3d a9 b1 df bd 42 a5 b9 bd
       -0.0053085457 0.08081334 -0.10922558 -0.090647236
000080 1a bd 00 be b4 67 39 be e2 5e ca ba 9b 71 31 be
       -0.12572137 -0.18105966 -0.0015439654 -0.17328493
000090 bb b4 98 3c cc bc e2 3d 71 98 b8 3d 15 cf 96 bd
       0.018640867 0.110711664 0.09013451 -0.073637165
0000a0 2d 4e ed be 5c e5 8d bc 98 8b 0b 3b 71 34 37 be
       -0.46348706 -0.017321281 0.002129292 -0.17891099
0000b0 fa de fc bd dd 67 fc bd 51 fb 85 3d c8 8f a6 3e
       -0.12347217 -0.12324498 0.065420754 0.3253157
0000c0 bc 3b ac 3c 07 2f bf be d9 19 45 bf cb 6f 0f 3e
       0.021024577 -0.37340567 -0.76992565 0.1400749
0000d0 ee 60 c7 3b 3c 8e 92 be 3b 7a 9e 3c 59 09 fd bc
       0.006084553 -0.2862414 0.019345393 -0.030888246
0000e0 7c ea be 3e 7a 5d e2 be 3a 79 e6 be 1e ca 30 bd
       0.37288272 -0.44211942 -0.45014364 -0.043161504
0000f0 39 46 90 3c 84 85 d7 bd ca 91 0e 3e c7 d4 50 be
       0.01761161 -0.10523513 0.13922802 -0.20393668

8.weight f4 [10, 64]
000000 81 b0 a0 38 9d be b5 bf 4b 59 e7 b9 d5 ff 99 b8
       7.662271e-05 -1.4198796 -0.00044126282 -7.343261e-05
000010 4f 83 96 bf 20 db 69 3a 1c 0c 62 39 bf 11 93 bf
       -1.1758822 0.0008920897 0.0002155755 -1.1489791
000020 2b 76 cf b8 15 7b 54 37 d8 60 a6 b8 19 65 85 b9
       -9.89254e-05 1.2664842e-05 -7.9335354e-05 -0.0002544306
000030 f0 14 26 39 01 01 af b9 89 c8 fd b8 99 32 bc 38
       0.00015838793 -0.0003337935 -0.00012101333 8.973963e-05
000040 e0 ed dd b9 01 cf aa 3f ba 08 fe b7 be 57 c5 39
       -0.00042329635 1.3344423 -3.0283223e-05 0.0003764014
000050 36 b0 a7 39 40 8a e5 b9 78 e7 27 36 c4 bd 18 37
       0.0003198401 -0.00043781288 2.5019672e-06 9.104089e-06
000060 62 61 c6 39 b7 75 db b9 09 ec 9a 3a b2 65 24 39
       0.0003783806 -0.0004185864 0.0011819612 0.00015678143
000070 32 39 0c b9 92 fa 01 b9 b5 77 af ba 03 3b 12 3a
       -0.00013372747 -0.00012395743 -0.0013387116 0.00055782514
000080 a7 7d 86 ba a8 13 f8 39 98 1f e8 36 15 46 b9 3a
       -0.0010260836 0.0004731689 6.917817e-06 0.0014135266
000090 79 a4 ce 39 45 3e 19 ba 24 e4 83 b9 7a 68 b7 39
       0.00039413924 -0.00058457657 -0.00025156245 0.0003498232
0000a0 18 8f 60 39 e0 f0 aa 3f 14 eb 0c 37 ab 42 88 3a
       0.00021415611 1.3354759 8.399384e-06 0.0010395845
0000b0 ae 72 9c 3a 35 81 5c b8 50 a6 81 b8 ef d5 9c 39
       0.0011936033 -5.257242e-05 -6.1821775e-05 0.00029914032
0000c0 1e cd f4 39 18 f9 de b6 d8 72 ec b9 3c 54 32 b9
       0.0004669213 -6.645114e-06 -0.00045098993 -0.00017006783
0000d0 c8 13 99 3a 46 00 6e 38 5e d8 50 39 24 59 9c b9
       0.0011678869 5.6743876e-05 0.00019917029 -0.00029821054
0000e0 0e 73 ff b6 66 ad 3c b9 91 8d 78 b9 8f 79 9d 3a
       -7.6129863e-06 -0.00017993673 -0.0002370386 0.0012014377
0000f0 22 72 07 3a b4 b5 1e b7 d2 ce 31 b9 b4 a3 0d 38
       0.00051668484 -9.45984e-06 -0.00016957082 3.376948e-05
000100 99 ac b9 38 e2 cb 46 b9 50 dd a7 3f 4c 58 19 ba
       8.853636e-05 -0.00018958704 1.3114414 -0.0005849644
000110 f2 82 4b 3a 84 e8 69 ba 05 bf 70 ba 3e 4c bc 3a
       0.0007763348 -0.0008922892 -0.00091837376 0.0014365984
000120 d3 b0 fc b4 2e 12 0a b8 3b 68 04 ba 27 a4 62 3a
       -4.7067314e-07 -3.2918695e-05 -0.0005050932 0.00086456764
000130 44 52 bf b9 75 2f d9 37 43 2b 76 39 3d ca 96 3a
       -0.00036491652 2.5890515e-05 0.00023476504 0.0011504364
000140 71 43 31 3a 58 a5 a7 ba f4 32 07 ba 0f e6 92 b9
       0.0006762064 -0.0012790365 -0.0005157434 -0.00028018697
000150 c5 11 4f bf 20 70 77 ba fe 03 77 37 12 e1 a3 39
       -0.8088649 -0.000943901 1.4723277e-05 0.00031257473
000160 74 7f dc b9 4d 2e c3 39 42 04 92 b9 65 f2 bb 38
       -0.0004205663 0.00037227795 -0.00027850462 8.962004e-05
000170 11 32 b2 b9 d8 71 d5 38 17 e6 9d ba f7 31 c6 b7
       -0.00033988108 0.000101778365 -0.0012046722 -2.3626706e-05
000180 b0 8b ba 38 6e d0 8d b8 85 6b b8 b6 e7 c4 c4 b9
       8.89519e-05 -6.762227e-05 -5.4961442e-06 -0.00037530737
000190 0c f9 64 b9 db 9a 57 38 17 73 97 ba 5b 9a 04 ba
       -0.00021836552 5.1404215e-05 -0.0011554685 -0.0005058401
0001a0 f2 a6 5d 3f 00 e1 8b ba 0c 41 d2 37 23 73 e3 b7
       0.86582863 -0.0010671914 2.506424e-05 -2.7114123e-05
0001b0 2b c3 14 b9 67 ea 5f 39 51 bf a8 ba 5c 0b 84 b8
       -0.00014187086 0.00021354259 -0.00128744 -6.296366e-05
0001c0 c6 c8 27 ba 2c ca 4f 3a a8 41 0e 40 fe ce 9a ba
       -0.0006400462 0.00079265493 2.2227573 -0.0011810956
0001d0 b1 bf 5f 39 57 e1 5b 3a e8 4f ff b7 7a a6 0d b9
       0.00021338348 0.0008387765 -3.0435578e-05 -0.00013508825
0001e0 58 f7 47 3a 71 9e 1e b9 b8 f0 a6 39 be aa 51 37
       0.00076281046 -0.00015127078 0.00031841337 1.2497125e-05
0001f0 92 37 84 b9 aa c6 b0 39 dc 37 58 39 90 a3 4a 39
       -0.00025218405 0.00033717352 0.00020620174 0.00019325153
000200 74 5f 8e 39 d8 ee 4a 39 e8 e7 ee 39 dd 37 85 b8
       0.0002715547 0.00019353197 0.0004556768 -6.3523396e-05
000210 a0 72 58 38 82 d1 ca b9 59 75 91 3d b6 2e 59 37
       5.1605166e-05 -0.00038684538 0.071024604 1.2945084e-05
000220 62 0c b6 38 72 27 f3 37 fe 32 39 ba 04 85 82 39
       8.680743e-05 2.8986226e-05 -0.00070647884 0.00024894637
000230 c3 c5 31 ba f8 d6 1d 39 6f 5e 45 b8 bd ee 53 bf
       -0.0006781483 0.00015052769 -4.705641e-05 -0.8278616
000240 21 52 21 bf a0 2a 87 b8 a0 12 44 3a b0 8f f1 38
       -0.63015944 -6.445241e-05 0.0007479582 0.000115185394
000250 b7 47 f7 38 2b 36 11 ba 5e d0 c6 b6 0c fe d7 b8
       0.00011791236 -0.00055393827 -5.925117e-06 -0.00010299319
000260 b4 02 34 ba 64 bf 4e b9 43 9a bc 38 79 51 27 3a
       -0.0006866858 -0.0001971699 8.993272e-05 0.0006382685
000270 54 d4 1d 39 50 b9 0e b8 58 3c b2 37 05 dd 3f 39
       0.00015051785 -3.4028024e-05 2.1247353e-05 0.00018297516
000280 13 43 db 38 a4 a0 d9 39 1d 31 dc b6 98 48 fc 38
       0.00010455227 0.00041509152 -6.5622285e-06 0.00012029818
000290 c1 4f ea 38 fe 44 07 39 83 e7 5d b9 ab 48 9a 38
       0.00011172845 0.00012900305 -0.00021162447 7.356828e-05
0002a0 81 bf e1 b8 d6 d4 ca b8 2d 3b da 36 5b 06 4c 39
       -0.000107645064 -9.6717544e-05 6.5037952e-06 0.00019457324
0002b0 4f 02 be b9 d8 89 a9 38 6e 28 6d b9 76 ad e8 b6
       -0.00036241344 8.0842234e-05 -0.00022617143 -6.9343323e-06
0002c0 e1 80 66 ba d9 50 49 be f4 8a 61 39 11 04 3d 39
       -0.0008793008 -0.19659747 0.00021509436 0.0001802596
0002d0 94 f1 c3 36 87 3b 4f bf 09 fd 1c b8 6d de d2 39
       5.8395763e-06 -0.80950207 -3.7428956e-05 0.0004022004
0002e0 56 11 20 b8 34 15 75 be 51 3d a6 bf e7 29 cd b7
       -3.8163118e-05 -0.2393387 -1.2987462 -2.4457417e-05
0002f0 86 71 a9 ba fc 61 a2 b9 b5 06 05 b8 4f 04 66 b9
       -0.0012927509 -0.00030972052 -3.1715917e-05 -0.00021936114
000300 05 a4 d1 b9 33 9d b3 3a 3f 3e 18 39 9b e1 21 b9
       -0.0003998579 0.0013703465 0.00014519038 -0.00015438201
000310 4a 1e 15 3a 5a 38 b6 39 5b ca d6 37 cc f3 0b 3a
       0.00056884123 0.0003475573 2.5605017e-05 0.0005338758
000320 b8 5e e4 37 5c 03 8c b7 88 43 70 3a 05 15 29 bf
       2.7223825e-05 -1.6690865e-05 0.00091653364 -0.660477
000330 67 3f 44 3a 81 3e c4 b9 b5 6b c3 b9 cc bd d5 38
       0.00074862543 -0.00037430602 -0.00037273546 0.00010191984
000340 f8 22 ef b8 e3 7a fb 37 46 6e 0a ba c3 58 1a 3b
       -0.000114029215 2.9978755e-05 -0.0005280714 0.0023551441
000350 18 e2 24 38 fd cb 6d 3a 8b af c4 37 17 1f 10 39
       3.9311213e-05 0.0009071229 2.3446764e-05 0.00013744492
000360 bb f3 31 3a 71 15 0a b9 21 e3 80 3a 9c 95 78 ba
       0.0006788333 -0.00013168693 0.0009833315 -0.0009482743
000370 85 0b 1a 39 27 01 2c 3a c6 33 77 ba a1 9b 31 3a
       0.00014690876 0.0006561451 -0.0009430017 0.00067752047
000380 32 2c 2d ba 24 fc d6 ba 4b ac 1b b7 ed 70 4b 39
       -0.0006606012 -0.0016402048 -9.278835e-06 0.00019401657
000390 67 1f d1 38 fb ab 52 b9 38 43 9c 3f cc d5 92 38
       9.971746e-05 -0.00020091228 1.2208014 7.001645e-05
0003a0 85 2a 57 b9 b1 60 e2 ba d0 2a 84 37 22 71 17 38
       -0.00020519838 -0.0017271248 1.5755562e-05 3.610657e-05
0003b0 da f7 ce 39 29 23 1b bb c3 89 aa 3f 0a 16 13 ba
       0.00039476046 -0.002367208 1.3323292 -0.0005610889
0003c0 e6 35 7b 3a 84 fc b9 b9 c0 d9 fe ba b1 4e a0 3d
       0.00095829216 -0.00035474089 -0.0019443557 0.07827509
0003d0 08 2e 81 39 7f 0d 9b 39 be 22 4f 39 35 23 8f b9
       0.00024639093 0.0002957396 0.00019754001 -0.00027301317
0003e0 82 81 db ba 2f a2 18 3b c8 45 09 ba 02 d2 5d 3a
       -0.001674697 0.0023290028 -0.00052365335 0.00084617746
0003f0 96 43 ab 39 27 6d 3e 38 b8 6a 14 b8 0f 19 bb bf
       0.00032666017 4.5401186e-05 -3.538534e-05 -1.4617022

8.bias f4 [10]
000000 47 05 86 be f1 36 17 bf 68 b5 95 3e 5b 3d ba 3c
       -0.261759 -0.5906821 0.29239964 0.022734335
000010 1b af 7a bc 8f 9a 7e bc fc 6b 0a 3e 6b 41 cc 3c
       -0.015300537 -0.015539779 0.13517755 0.024933537
000020 a0 26 be 3d 02 99 9a 3d
       0.09284711 0.07548715
