project_networks/mnist_cnn_2layer_w1_ibp.onnx (onnx, 474867 bytes, 16 tensors)

0.weight f4 [4, 1, 4, 4]
0	0x3a82666f	0.000994874
1	0x388a431c	6.592853e-05
2	0x399f3cfe	0.00030372286
3	0x39c4de4d	0.0003754966
4	0xb9f5c063	-0.0004687338
5	0x386bf06d	5.625228e-05
6	0x380440f0	3.153173e-05
7	0x38b0af90	8.425035e-05
8	0x3a9fc94d	0.001219073
9	0x39b744fd	0.0003495588
10	0x38c48abc	9.3718496e-05
11	0x39c3ecee	0.00037369825
12	0x3fac1714	1.3444543
13	0x391dcdfb	0.0001504942
14	0x399b5221	0.00029625095
15	0x39cfeec8	0.00039660023
16	0xbd32beb6	-0.043638907
17	0xbd293d75	-0.041318376
18	0xbd84754a	-0.064676836
19	0x3e870b90	0.2637601
20	0xbce76633	-0.028246975
21	0xbd0793ac	-0.033099815
22	0xbd40a5d2	-0.04703314
23	0xbd8c0f33	-0.068388365
24	0xbcdd4e0a	-0.027014751
25	0xbd048be3	-0.03235997
26	0xbd1dc1b9	-0.038514826
27	0xbd2ca177	-0.042146172
28	0xbeadac30	-0.3392043
29	0xbe64b18d	-0.22333355
30	0xbe99089d	-0.29889384
31	0xbeed81c1	-0.46388057
32	0x395d48a1	0.00021103259
33	0x3a123609	0.000557751
34	0x3f65cd7b	0.89766663
35	0x3abee605	0.0014564401
36	0xbb085415	-0.002080207
37	0x3887e607	6.4801476e-05
38	0x3a6d30a8	0.0009048083
39	0x3a2f5e43	0.00066897663
40	0xbb6f26a1	-0.003649153
41	0xbb00fcbf	-0.0019681898
42	0x395baf64	0.00020950806
43	0xb9470fbd	-0.00018983982
44	0xbb2ffbcb	-0.002685296
45	0xba13da63	-0.0005640147
46	0x3a6218f1	0.00086249324
47	0x3a323587	0.00067981373
48	0xbadd4124	-0.0016880375
49	0xba76c18c	-0.0009412996
50	0xbad1d4a0	-0.0016008802
51	0xba6dc1ee	-0.00090697303
52	0xbafb8e6e	-0.0019192228
53	0xbaae5083	-0.0013299141
54	0xba7cf093	-0.00096488855
55	0xba788ba3	-0.0009481257
56	0xbac015f3	-0.0014654979
57	0xba80178d	-0.0009772644
58	0xba32f53f	-0.00068267056
59	0x3f93de6f	1.1552256
60	0xbac60cd0	-0.001511002
61	0xba017e5b	-0.0004939788
62	0xba35097f	-0.0006906017
63	0xb8ae68dc	-8.316498e-05

0.bias f4 [4]
0	0xbed4b305	-0.4154283
1	0xbe871ffd	-0.26391593
2	0xbe8bb556	-0.27286786
3	0xbeb2c0ec	-0.34912813

2.weight f4 [8, 4, 4, 4]
0	0xc0348fc9	-2.821276
1	0xbecf3758	-0.4047191
2	0x3aa8c2c0	0.0012875423
3	0xbb457b8e	-0.0030133459
4	0xc0697ffa	-3.648436
5	0xbce824ef	-0.028337924
6	0x3c175b95	0.009238143
7	0xbb056598	-0.0020354744
8	0xbfbc32e4	-1.470303
9	0xbabea71e	-0.0014545654
10	0x3aa7b1cd	0.0012794078
11	0xba489908	-0.0007652198
12	0xba8dbccc	-0.0010813712
13	0x3a809900	0.0009811223
14	0x3ac61c8e	0.0015114711
15	0xbb7b9225	-0.003838667
16	0x39b54da1	0.00034580848
17	0xb97ef1e8	-0.00024313445
18	0xbf5e282c	-0.8678005
19	0xb5e184ed	-1.6802493e-06
20	0xb5d44c43	-1.5817426e-06
21	0xbf92f678	-1.1481466
22	0xbf4c8c01	-0.7990113
23	0x3861cf24	5.3837095e-05
24	0xb6cde325	-6.135919e-06
25	0x3602c076	1.9483537e-06
26	0xbf473154	-0.77809644
27	0xbe14377b	-0.14474289
28	0xb51a58a3	-5.7498454e-07
29	0xb542a8a9	-7.2516065e-07
30	0xb69d792d	-4.6930713e-06
31	0xbf7fdaf9	-0.999435
32	0xbc224841	-0.009904922
33	0xbaee63a7	-0.0018187658
34	0xbbc7ee62	-0.0061014155
35	0xbba1667e	-0.004925548
36	0xc025d1ce	-2.5909305
37	0xbbaf0dd1	-0.005342223
38	0xb8f1bb23	-0.000115266324
39	0xbc6afd63	-0.014342639
40	0xbfe71944	-1.8054585
41	0x3e33b5ed	0.17549868
42	0xbb4dca97	-0.003140127
43	0xbfb43a02	-1.4080203
44	0xbb2a10e8	-0.0025950018
45	0x3a947b9a	0.001132834
46	0xba81d64d	-0.0009905786
47	0xc0062f7e	-2.0966487
48	0x39e96b80	0.00044521317
49	0xbb3a5c7e	-0.0028436477
50	0xbc23932d	-0.00998382
51	0xbfc3b8eb	-1.5290807
52	0x3a9fa322	0.0012179355
53	0x3e71e8a5	0.23623903
54	0xbbf8a53d	-0.0075880573
55	0xc048f2d7	-3.1398218
56	0xba9533b7	-0.001138321
57	0x39893473	0.00026169754
58	0xb9a722f6	-0.0003187877
59	0xc01368f4	-2.3032808
60	0x3a38794f	0.00070371194
61	0x3a91301d	0.0011076961
62	0xbfb42587	-1.4073952
63	0xbfb32faa	-1.3998921
64	0xc03ab6e5	-2.917413
65	0xc00e984c	-2.2280455
66	0xbc22926b	-0.009922604
67	0xbbb665a2	-0.005566315
68	0xbac9f55e	-0.0015408208
69	0xb99eaa4d	-0.00030262992
70	0x3b42d762	0.002973043
71	0x3b585540	0.0033009797
72	0x3b08c20a	0.002086761
73	0x3b721db6	0.0036943979
74	0x3d702c29	0.058635864
75	0x3dae1b9e	0.08501361
76	0xba04915f	-0.00050570624
77	0x3a16ce93	0.0005752828
78	0x3abfcbc7	0.0014632874
79	0x3af55e9f	0.0018720216
80	0xb805ed69	-3.1930776e-05
81	0xb6ae85d4	-5.2011837e-06
82	0xb4284d75	-1.5674398e-07
83	0x361779b8	2.2571603e-06
84	0xb93b1588	-0.00017841731
85	0xb7117ba2	-8.671459e-06
86	0x3650e6da	3.1128789e-06
87	0x360d22a7	2.1030808e-06
88	0xbb30a9ab	-0.0026956599
89	0xbeb1234b	-0.3459724
90	0xbddaa6a2	-0.10676314
91	0xbcb332e0	-0.021874845
92	0xb565efe4	-8.5658235e-07
93	0x384152d3	4.6091922e-05
94	0x361395e4	2.1991955e-06
95	0xb7bfbd3b	-2.2857092e-05
96	0x3b7370f8	0.0037146192
97	0xba4d87d1	-0.00078403676
98	0x3b8e6861	0.004345939
99	0x3a824afd	0.0009940561
100	0xba7e7778	-0.0009707133
101	0x3aa48741	0.0012552516
102	0xb87d9c15	-6.0465263e-05
103	0xbb0911ca	-0.0020915144
104	0xbfe6d351	-1.8033239
105	0xc0507b38	-3.2575207
106	0xc047c51f	-3.1214063
107	0xc01bb281	-2.43277
108	0x3b588161	0.00330361
109	0x3bdf61c8	0.0068170764
110	0x3ce1c604	0.027560242
111	0x3b5ad05a	0.0033388347
112	0x3b965474	0.0045877043
113	0xb7660f80	-1.3712677e-05
114	0xbb0a001e	-0.0021057199
115	0xbb2de5a3	-0.002653458
116	0xc00008c8	-2.000536
117	0xc04a9781	-3.165497
118	0xc027fe81	-2.6249087
119	0xbfdb6397	-1.7139767
120	0x3bbed174	0.0058233086
121	0x3bd6c6c9	0.0065544588
122	0x3c28c0bb	0.010299857
123	0x3b393426	0.0028259843
124	0x3e291921	0.16513492
125	0x3e59bfed	0.2126462
126	0x3e4fc1aa	0.2028872
127	0x3b8320ce	0.0040017134
128	0xbab14149	-0.0013523485
129	0xba87d82d	-0.0010364108
130	0xb83becd2	-4.480483e-05
131	0xbae4a820	-0.0017445125
132	0x3adba79c	0.0016758326
133	0xba030579	-0.0004998069
134	0x3b1071de	0.0022040526
135	0x3b9c997d	0.0047790394
136	0xba27e133	-0.0006404102
137	0x3a620b44	0.00086228945
138	0xb9bc0653	-0.00035862866
139	0x3a528d06	0.00080318784
140	0xbb05fb81	-0.0020444097
141	0xb9ed680a	-0.00045281678
142	0x39ae0722	0.0003319318
143	0xb7bf0dd2	-2.277541e-05
144	0x37939244	1.7591876e-05
145	0x38246b64	3.9200662e-05
146	0x37143a4b	8.83506e-06
147	0x38fee8c3	0.00012155019
148	0xb78258a9	-1.5538493e-05
149	0xb883796e	-6.269185e-05
150	0xbe934eb2	-0.28770977
151	0xbaa10b54	-0.0012286701
152	0xb256556d	-1.2475863e-08
153	0x3682e709	3.901198e-06
154	0xb8a753c6	-7.9787846e-05
155	0xb7d1b51c	-2.4999077e-05
156	0xb425cf33	-1.5442201e-07
157	0xb7fc2043	-3.0055764e-05
158	0xb3631291	-5.2869442e-08
159	0xb63dc235	-2.8276238e-06
160	0xbba03ebb	-0.0048902906
161	0xbbbc677a	-0.00574964
162	0xbbbd7da8	-0.0057828017
163	0x3a269cd9	0.00063557696
164	0x3a387e10	0.0007037828
165	0x3792259f	1.7422075e-05
166	0xb9e602fa	-0.00043871236
167	0xc01c77cd	-2.444812
168	0xbad80257	-0.001648019
169	0x39a10595	0.00030712472
170	0xba4dbaa8	-0.00078479433
171	0x39bfda6c	0.00036593096
172	0xb9402ba7	-0.00018326809
173	0xb9946c84	-0.0002830961
174	0x3e8808fc	0.26569355
175	0x3b4426f6	0.002993045
176	0x39fa3666	0.00047724246
177	0xbb1ac68d	-0.002361688
178	0xbfe9bd07	-1.8260812
179	0xbffdce5c	-1.9828601
180	0x3731746d	1.057713e-05
181	0xb8cb6157	-9.697925e-05
182	0xba2598ab	-0.0006317
183	0xb9632669	-0.00021662716
184	0xbb3bf4ea	-0.0028679916
185	0x3e5ee09b	0.21765368
186	0x3db9c152	0.09070076
187	0xbac2c0d2	-0.001485849
188	0x38aac2f0	8.1425416e-05
189	0x39d6fed0	0.0004100711
190	0x3980337b	0.00024452418
191	0xba4523fd	-0.0007520316
192	0xbb814288	-0.0039446987
193	0xbb943b34	-0.004523659
194	0xbac77f10	-0.0015220363
195	0x39585426	0.00020630713
196	0xbfd3098c	-1.6487288
197	0xc00fbdef	-2.2459676
198	0xbe1cbfb2	-0.15307501
199	0xb8db2606	-0.00010449816
200	0xba658c18	-0.00087565323
201	0xbb33fd4d	-0.0027464211
202	0xbb1eddac	-0.0024241013
203	0xbb10d155	-0.0022097428
204	0xba52e60e	-0.0008045145
205	0x3e4bfb29	0.19920029
206	0x3e209e3c	0.15685362
207	0x3e1b0099	0.15136947
208	0x36217f09	2.4064814e-06
209	0x37485d2f	1.1942625e-05
210	0xb67dbd80	-3.7810241e-06
211	0x371d343b	9.37009e-06
212	0x375d10f6	1.31765755e-05
213	0x349f72aa	2.9699487e-07
214	0xb63d1761	-2.8176803e-06
215	0xb5c0aa26	-1.4354634e-06
216	0xbe3bc1e1	-0.18335678
217	0xb49dea4c	-2.9414002e-07
218	0xb271bc61	-1.4070879e-08
219	0x349eb27e	2.9559664e-07
220	0xbae28d03	-0.0017284456
221	0xbeb53b4e	-0.35396808
222	0xbc0fe61b	-0.008782889
223	0xb91b2210	-0.00014794641
224	0xbb22fdb9	-0.0024870469
225	0x39c3141f	0.0003720829
226	0xb715c319	-8.926517e-06
227	0x3979c291	0.00023818972
228	0xbb23b478	-0.0024979394
229	0x39c91b3a	0.00038357993
230	0xb93cfce8	-0.00018023292
231	0xb73ce3ee	-1.1258742e-05
232	0xc02ec97e	-2.731048
233	0xbc91bd7e	-0.017790552
234	0x3bd361a8	0.0064508505
235	0x3bb0da21	0.0053970967
236	0xbe42c759	-0.19021358
237	0xc02e9725	-2.7279751
238	0xc0432300	-3.0490112
239	0xc00bfd7c	-2.1873465
240	0xbb0cce7e	-0.0021485384
241	0x38c7eb47	9.532883e-05
242	0x3889b0d4	6.565606e-05
243	0x39dbf0ba	0.0004195029
244	0xbf6a9d6d	-0.9164646
245	0x394c3faa	0.00019478673
246	0x3e00f1b1	0.12592198
247	0x39f91128	0.00047505763
248	0xbfd4254b	-1.6573881
249	0xc0369031	-2.8525507
250	0xc0280dab	-2.6258342
251	0xbf2de58e	-0.679284
252	0x38de04b4	0.00010586661
253	0xbb174eee	-0.0023087817
254	0xbaef3408	-0.001824976
255	0xb9aef87f	-0.0003337301

2.bias f4 [8]
0	0xbc1d6afc	-0.009608027
1	0xbbd1456f	-0.006386451
2	0xbb108984	-0.0022054622
3	0xbae60c8a	-0.0017551344
4	0xba86eb69	-0.0010293546
5	0xbafd12b5	-0.0019307943
6	0xbac2f513	-0.0014874063
7	0xbbb7c41f	-0.0056080963

5.weight f4 [128, 392]
0	0xbcf4158b	-0.029795429
1	0xbdc08cb3	-0.09401836
2	0xbe384653	-0.17995577
3	0xbe91875f	-0.28423592
4	0xbdeb0551	-0.114756234
5	0xbe665271	-0.22492386
6	0x3b89b288	0.004202191
7	0xbec0ea1b	-0.37678608
8	0xbe56cafd	-0.20975871
9	0xbe194965	-0.14969404
10	0xbf2d5a9c	-0.67716384
11	0x3a608f30	0.00085662585
12	0xbd34b80f	-0.044120844
13	0xba9af602	-0.0011822584
14	0xbce8732e	-0.028375234
15	0xbf22c613	-0.6358349
16	0x3b1c2a60	0.0023828968
17	0x3c054332	0.008133696
18	0xbc81d728	-0.015849665
19	0xbcec90c4	-0.028877623
20	0xbc90ce32	-0.017676447
21	0xbc92049c	-0.017824464
22	0xbda967c3	-0.08271744
23	0x3aff41be	0.0019474549
24	0xbc89b00e	-0.016807582
25	0xbf4b7aca	-0.79484236
26	0xc00df5ed	-2.218135
27	0xbcb5e581	-0.022204163
28	0xbcd13fa8	-0.025543049
29	0x3c5cf279	0.013485544
30	0xbc9177a7	-0.01775725
31	0x3b2ae759	0.0026077835
32	0x3a60bd34	0.00085731153
33	0xbf8290c0	-1.0200424
34	0xbabb963b	-0.001431174
35	0xbc84117a	-0.016121615
36	0xbc42a5f0	-0.011880383
37	0xbcd8375e	-0.026393589
38	0xbae58123	-0.0017509799
39	0xbb291468	-0.0025799517
40	0xbe0aa340	-0.13538837
41	0xbd0e705a	-0.034775116
42	0x3c09c7bb	0.008409436
43	0xbdb5bbe7	-0.0887373
44	0x3be0038e	0.0068363613
45	0xbc242e80	-0.010020852
46	0xbbe858ac	-0.0070906486
47	0xbf082679	-0.53183705
48	0x3a0cd5a9	0.0005372414
49	0x3d218784	0.03943588
50	0xbf8f7d66	-1.1210144
51	0xbf283a2f	-0.6571378
52	0xbfbb435b	-1.462993
53	0xc03f259f	-2.9866712
54	0xbd0061fc	-0.031343445
55	0xbc28b3ec	-0.010296803
56	0xbed16605	-0.40898147
57	0xbe615eb8	-0.22008789
58	0xbb73dfcd	-0.0037212253
59	0x3b106814	0.0022034692
60	0x3b9ac167	0.0047227624
61	0x3bc09e6a	0.0058782594
62	0x3ad1c8cb	0.0016005276
63	0xbf4dabfa	-0.8034054
64	0xbbae98fc	-0.0053282958
65	0x3aba5af5	0.0014217781
66	0xbb8134a8	-0.0039430447
67	0xbb54b3f5	-0.0032455896
68	0xbf139f7b	-0.5766522
69	0xbf621d21	-0.883257
70	0xbd3dc8ab	-0.04633395
71	0x3a9d4c64	0.0012000916
72	0xbcb400b4	-0.021972992
73	0xbb89a9f2	-0.0042011673
74	0x3c18b04f	0.009319379
75	0xbc738459	-0.014863097
76	0xbf317e1b	-0.69333047
77	0xbd21cfba	-0.039504744
78	0x3d1babd4	0.038005665
79	0x3c6a0cb7	0.014285258
80	0x3a6c26f7	0.0009008492
81	0x3c33585a	0.010946358
82	0xbbc826fe	-0.006108164
83	0xbb46e220	-0.0030347183
84	0xbaa1a184	-0.0012331461
85	0xbbcdd494	-0.006281445
86	0xbbb2d7fd	-0.0054578767
87	0xbdba901c	-0.09109518
88	0xbef27719	-0.4735649
89	0xbc95741a	-0.018243838
90	0x3d95f4c6	0.073220775
91	0x3e75813d	0.23975082
92	0x3ce0e7f7	0.02745436
93	0x3c3b9c64	0.011450861
94	0xbbaede2a	-0.0053365426
95	0x3d0b10dc	0.033951625
96	0x3ec21933	0.3790985
97	0x3ee13e7b	0.4399298
98	0xbc7b4bae	-0.015337868
99	0xbebba97e	-0.3665275
100	0xbf09beb2	-0.538066
101	0xbf8d4307	-1.103608
102	0xbfed1841	-1.8523027
103	0xbf3dda7f	-0.74161524
104	0xbcd58130	-0.026062578
105	0xbe11ea9d	-0.14249654
106	0xbf59caf4	-0.85075307
107	0x3b5a2998	0.0033288952
108	0xbb3ddbc8	-0.002897011
109	0x39e71403	0.00044074663
110	0x3bf15a40	0.007365495
111	0x3be2b535	0.006918574
112	0xbf01c266	-0.50687253
113	0xb9f7680c	-0.00047189032
114	0xb947695c	-0.00019017368
115	0x3c0e948f	0.008702411
116	0xbb21e86c	-0.0024705185
117	0xbf7d9ae4	-0.9906447
118	0xbbd9a699	-0.0066421744
119	0xbeec7736	-0.461847
120	0xba834652	-0.0010015464
121	0xbc33c562	-0.010972353
122	0x3b4b1fd8	0.0030994322
123	0x3a47501d	0.00076031854
124	0xbfbf4e09	-1.494569
125	0xbfc24bb9	-1.5179359
126	0xbdfbabeb	-0.1228865
127	0x3b446018	0.0029964503
128	0x3ba81755	0.0051297345
129	0xba4de1dc	-0.0007853785
130	0xb924b32b	-0.00015707004
131	0xbf350fe0	-0.7072735
132	0xbe8f3442	-0.27969557
133	0xbbefe37e	-0.0073208204
134	0x3bf6553f	0.0075174863
135	0xb9fa3310	-0.0004772176
136	0xbbcd4f71	-0.0062655737
137	0xbaf5a720	-0.0018741824
138	0xbe09c77e	-0.13455006
139	0x3b8c46a2	0.004280881
140	0xbc07958d	-0.008275402
141	0xbea47e87	-0.32127783
142	0xbbd22a58	-0.006413739
143	0xbd04df48	-0.0324395
144	0xbedd8e21	-0.43272498
145	0xbecb504f	-0.39709708
146	0xbe987206	-0.29774493
147	0xbc9eab65	-0.019368837
148	0xbf73c5f3	-0.9522392
149	0xbefc40e5	-0.4926826
150	0xbecc11a5	-0.39857212
151	0xbf641cfd	-0.8910673
152	0xba217332	-0.0006158828
153	0x399fb2c7	0.00030460043
154	0xbde05eba	-0.10955568
155	0xbcd8700d	-0.026420617
156	0xbac962cf	-0.001536453
157	0x3bf68013	0.007522592
158	0x3c1b86f4	0.009492625
159	0x3c523fc8	0.012832589
160	0x3c30ae66	0.010783767
161	0xbe917299	-0.28407744
162	0xbbb3f711	-0.005492099
163	0x3c04c4aa	0.008103529
164	0xbaf9a943	-0.0019047636
165	0x3c0dad0c	0.008647215
166	0x3a151c2d	0.00056880974
167	0xbf2611a0	-0.64870644
168	0xbe94e57c	-0.29081333
169	0xbad99e08	-0.0016602883
170	0x3c27e2c8	0.01024694
171	0xbc686e17	-0.014186404
172	0x3cdec5bb	0.027193895
173	0x3a6b4125	0.0008974246
174	0xbeb59378	-0.35464072
175	0xbb2e5e71	-0.0026606584
176	0x3c8dd6d0	0.017314345
177	0x3a9bd8d2	0.0011890179
178	0xbaec666d	-0.0018035896
179	0xbbe39856	-0.00694565
180	0xba47cdc8	-0.00076219114
181	0xbcfa679b	-0.030566981
182	0xbc49e0f3	-0.0123216985
183	0x3acc0b73	0.0015567377
184	0xbab1a124	-0.0013552052
185	0xbc81c079	-0.015838848
186	0x3be59fca	0.0070075737
187	0xbac3bfa8	-0.0014934437
188	0xbbefb873	-0.007315689
189	0xbe2463d1	-0.16053702
190	0xba52dc66	-0.0008043706
191	0xbba02755	-0.0048875012
192	0xbd05c421	-0.032657746
193	0xbd6fdb79	-0.058558915
194	0x3bd015e6	0.0063502667
195	0x3e2ce311	0.16883494
196	0xbdcf661e	-0.10126899
197	0xbfa55622	-1.2916911
198	0xbe8f002b	-0.27929816
199	0xbf23fe50	-0.64059925
200	0xbf879a8d	-1.059404
201	0xbd8e5130	-0.06949079
202	0xba8b6482	-0.0010634812
203	0xbf462b54	-0.77409863
204	0xbefe4319	-0.49660566
205	0xb9cbd5e9	-0.00038878553
206	0xb8919150	-6.941205e-05
207	0x3a10d1a5	0.00055244035
208	0xbb2498ab	-0.0025115411
209	0xb984a95b	-0.00025303182
210	0xbf98f711	-1.1950399
211	0xbb277fe9	-0.0025558418
212	0x3ba86543	0.0051390245
213	0x3c15d9dd	0.009146181
214	0xbfed1e64	-1.85249
215	0xbeefca3e	-0.46833986
216	0xbca351ba	-0.019936431
217	0xbcc76c7d	-0.024343723
218	0x3aaf98d1	0.0013396983
219	0x3bb37a2b	0.00547721
220	0xbd8cff68	-0.068846524
221	0xc0087b1b	-2.1325138
222	0xbfac148f	-1.3443774
223	0xbc815613	-0.015788114
224	0x3abcfa7e	0.0014417914
225	0x3ab4fd3b	0.0013808379
226	0x39bc785c	0.0003594783
227	0xb9a0df32	-0.00030683872
228	0xbc04f42b	-0.008114855
229	0xbc56950a	-0.013097057
230	0xbd19d890	-0.037560046
231	0xbb829386	-0.0039848713
232	0x3bb4c001	0.0055160527
233	0xbcb08e25	-0.021552155
234	0xbbcb3040	-0.00620082
235	0xbe46b476	-0.19404778
236	0xbc73b81e	-0.01487544
237	0xbd9dcbbd	-0.077048756
238	0xbe993ae5	-0.29927745
239	0xbd0969eb	-0.033548277
240	0xbbae05ac	-0.0053107347
241	0xbdda643c	-0.106636494
242	0xbe8a5c2b	-0.27023444
243	0xbceb9e11	-0.028761895
244	0x3cd652f9	0.026162611
245	0x3d8b931f	0.068151705
246	0x3d3020e5	0.04300012
247	0xbdb22dda	-0.08700152
248	0xbe277a46	-0.16355237
249	0xbc529a43	-0.012854162
250	0xbc2f9798	-0.010717295
251	0x3c8c3ee2	0.017119829
252	0xbcd7cf2b	-0.026343903
253	0xbec0ca6f	-0.37654445
254	0xbf8003dc	-1.0001178
255	0xbed7c1ec	-0.42140138

5.bias f4 [128]
0	0x3b0eb553	0.0021775558
1	0xbe2026f8	-0.15639865
2	0xbde614d0	-0.112344384
3	0xbe1ea4fc	-0.15492624
4	0xbdbed1e4	-0.09317377
5	0xbe3a4271	-0.18189408
6	0xbcccb8bf	-0.024990438
7	0xbe6d10d9	-0.23150958
8	0xbe38fa2b	-0.18064182
9	0xbe314058	-0.17309701
10	0xbe2013f4	-0.15632612
11	0xbdbcfa5d	-0.092274405
12	0xbe3b04a7	-0.18263493
13	0xbe54844a	-0.2075359
14	0xbe40acb8	-0.18815887
15	0xbe484a6a	-0.19559637
16	0xbe3c55c8	-0.18392098
17	0xbe2812b8	-0.1641339
18	0xbdf12cc5	-0.11776117
19	0xbe11fed7	-0.1425737
20	0xbe34d4a6	-0.17659244
21	0xbe65e965	-0.22452314
22	0xbe0414ec	-0.12898606
23	0xbe58450f	-0.21120094
24	0x3ccb71e4	0.02483458
25	0xbe38e58a	-0.18056312
26	0xbe17a842	-0.14810279
27	0xbe0be284	-0.13660628
28	0xbe1c2539	-0.15248574
29	0xbe346f8a	-0.17620674
30	0xbe4b1f5c	-0.19836181
31	0x3e64266a	0.22280279
32	0xbe1b3ba4	-0.1515947
33	0xbe4410aa	-0.19146982
34	0xbdc96475	-0.09833614
35	0xbe1be4cf	-0.15224002
36	0xbe06f43d	-0.13179107
37	0xbe024849	-0.12722887
38	0xbe60ee32	-0.21965864
39	0xbe442f66	-0.19158706
40	0xbe4b4813	-0.19851713
41	0xbe11748a	-0.14204612
42	0xbe274664	-0.16335446
43	0x3dd70adf	0.1050012
44	0xbe365ca1	-0.17808773
45	0x3cc048f0	0.02347228
46	0xbe3c1ac8	-0.18369591
47	0xbe0bb016	-0.1364139
48	0xbde6266b	-0.112377964
49	0xbdf74e80	-0.120755196
50	0xbe3021c0	-0.17200375
51	0x3dc71f08	0.097227156
52	0xbbddd8de	-0.0067702373
53	0xbe81d4c8	-0.25357652
54	0xbe1141b2	-0.14185217
55	0xbe2fbef6	-0.1716269
56	0xbdd79139	-0.10525746
57	0xbe354645	-0.17702587
58	0xbdfa4004	-0.12219241
59	0xbe0e1e63	-0.13878779
60	0xbe80919f	-0.251111
61	0xbe10a99a	-0.14127198
62	0xbe1b9678	-0.15194118
63	0xbe65b4a8	-0.22432196
64	0xbdfe2a5c	-0.12410423
65	0xbe2f5362	-0.17121652
66	0xbe218273	-0.15772419
67	0xbdf7d14a	-0.121004656
68	0xbe4ac6d4	-0.1980241
69	0xbe13c629	-0.14431061
70	0xbe519c10	-0.2046969
71	0xbe45b9fd	-0.1930923
72	0xbe17a7de	-0.1481013
73	0xbe1f1250	-0.1553433
74	0xbded9506	-0.116006896
75	0xbdf65b5a	-0.12029143
76	0xbe4f1b3f	-0.20225237
77	0xbe2f2b42	-0.17106345
78	0xbe2f004d	-0.17089958
79	0xbe51d4db	-0.20491354
80	0xbe2a6393	-0.16639547
81	0xbe17e20c	-0.14832324
82	0xbe45deb9	-0.19323243
83	0x3cf008ba	0.029301036
84	0xbe07d502	-0.1326485
85	0x3de74486	0.11292367
86	0xbe4fc7b2	-0.20291021
87	0xbe4dd456	-0.20100531
88	0xbe28a396	-0.16468653
89	0xbe1188ef	-0.14212392
90	0xbe75532f	-0.23957513
91	0xbe1015cf	-0.1407082
92	0xbe27a4e6	-0.16371498
93	0xbe0f7eed	-0.14013262
94	0xbe22c4e1	-0.15895416
95	0x3db8b63f	0.09019136
96	0xbe41ec8c	-0.18937892
97	0xbe7b9586	-0.24568757
98	0xbe2ef37d	-0.17085071
99	0xbe45f2d2	-0.1933091
100	0xbe38733a	-0.18012705
101	0xbe317002	-0.17327884
102	0xbe5cdf8c	-0.21569651
103	0xbe099857	-0.1343702
104	0xbe395b8b	-0.18101327
105	0xbe3ac99c	-0.1824097
106	0xbe43695e	-0.19083163
107	0xbe21f576	-0.15816292
108	0xbe25f821	-0.16207935
109	0xbe13c140	-0.14429188
110	0xbde93e61	-0.11388851
111	0xbe239b5b	-0.15977232
112	0xbe07b9ca	-0.13254467
113	0xbe384355	-0.17994435
114	0xbe49ea91	-0.19718386
115	0xbe66df62	-0.22546151
116	0xbe0d7d64	-0.13817364
117	0xbe196a7c	-0.14982027
118	0xbe1dec72	-0.15422228
119	0xbe3bc154	-0.18335468
120	0x3db04284	0.08606437
121	0xbe282eba	-0.16424075
122	0x3ddfbcc4	0.10924676
123	0xbe0a5348	-0.13508332
124	0xbe06090b	-0.13089387
125	0x3d98a20f	0.07452785
126	0xbe1469e4	-0.14493519
127	0xbe395730	-0.18099666

7.weight f4 [128, 128]
0	0xbe5006b7	-0.20315062
1	0x3dd777b0	0.105208755
2	0xbd893562	-0.06699635
3	0xbe26ccc5	-0.16289051
4	0xbd8ea376	-0.069647714
5	0xbd654f7c	-0.055984005
6	0xbd4c4603	-0.049871456
7	0xbd0cdcd8	-0.0343903
8	0x3dcd1e51	0.10015548
9	0xbded3386	-0.11582093
10	0xbe370ca2	-0.17875913
11	0x3b24b701	0.0025133493
12	0x39b0bb55	0.0003370891
13	0xbe259229	-0.16169037
14	0xbe47e0e0	-0.19519377
15	0x3d82e924	0.06392124
16	0xbe31acf9	-0.1735114
17	0xbe0024be	-0.12514016
18	0xbe8d7446	-0.27627772
19	0xbe73ec84	-0.23820692
20	0x3acf9e82	0.0015840086
21	0xbe164c07	-0.1467744
22	0xbe5f648c	-0.218157
23	0x3d091317	0.03346547
24	0xbaade168	-0.0013266029
25	0xbd9208fc	-0.0713062
26	0xbd94c6fb	-0.07264515
27	0xbd53f7c9	-0.05174998
28	0xbe3c8961	-0.18411781
29	0x3d5fbf7b	0.05462597
30	0xbcec67b2	-0.02885804
31	0xbe58a9bb	-0.21158497
32	0xbe138628	-0.14406645
33	0xbcb8ed5c	-0.02257412
34	0xbe8f03b4	-0.27932513
35	0xbd23bbfb	-0.039974194
36	0xbe1b151d	-0.15144773
37	0xbbabf2b2	-0.0052474374
38	0xbe57ffea	-0.21093717
39	0xbe622475	-0.2208422
40	0xbe35b6e2	-0.17745546
41	0x3d44941d	0.047992814
42	0xbe4e6c9d	-0.2015862
43	0xbe2ecb1b	-0.17069666
44	0xbdad278e	-0.0845481
45	0xbdc6ca56	-0.09706561
46	0x3d2021ca	0.039094724
47	0x3bf57833	0.0074911355
48	0xbe5101f4	-0.20410901
49	0xbd76787e	-0.060173504
50	0xbe01521d	-0.1262898
51	0xbe3dda52	-0.18540314
52	0xbdff1fce	-0.12457238
53	0xbdd1c06f	-0.10241782
54	0xbcfe4d40	-0.031042695
55	0xbe9fb36e	-0.3119158
56	0xbd67faee	-0.05663579
57	0xbdb5fa2c	-0.08885607
58	0xbe14f79c	-0.1454758
59	0xbd2b91e5	-0.041887183
60	0xbd84513c	-0.06460807
61	0xbe4cd96d	-0.20004816
62	0xbd08a839	-0.033363555
63	0xbc4017c6	-0.011724418
64	0xbe03f184	-0.128851
65	0xbe37f21a	-0.17963448
66	0xbd204c3f	-0.039135214
67	0xbe322c31	-0.1739967
68	0xbe894556	-0.26810712
69	0xbe5cca41	-0.21561529
70	0xbda80280	-0.08203602
71	0xbe68451b	-0.22682612
72	0xbe50f560	-0.20406103
73	0xbe32e96e	-0.17471859
74	0xbd9f3c7e	-0.0777521
75	0xbe2ba55e	-0.16762301
76	0xbe595300	-0.21223068
77	0x3deeccf6	0.11660187
78	0xbe07e60d	-0.13271351
79	0xbdfdc2cd	-0.12390671
80	0xbe9315af	-0.2872748
81	0xbc2ed233	-0.010670233
82	0xbe2ab036	-0.16668782
83	0xbd2617e7	-0.04055014
84	0xbe3bdc4c	-0.18345755
85	0xbddb84db	-0.107186995
86	0xbe1008de	-0.14065883
87	0x3dac58d9	0.08415384
88	0xbdc6fe8c	-0.0971652
89	0xbe21267d	-0.15737338
90	0xbd1698b8	-0.036766738
91	0xbe45c985	-0.19315155
92	0xbd0a65b1	-0.033788387
93	0xbdb3bd6b	-0.08776363
94	0xbe4c1025	-0.19928034
95	0xbd9e7930	-0.077379584
96	0xbdc87ad0	-0.097890496
97	0xbdf76b20	-0.12080979
98	0xbe1d73e2	-0.15376237
99	0xbcd75575	-0.026285866
100	0xbe5a8d0c	-0.21342868
101	0xbe20828f	-0.15674804
102	0xbe933ba7	-0.2875645
103	0xbcfe1f2d	-0.031020725
104	0xbe326c1d	-0.17424054
105	0xbdb7a3fe	-0.08966826
106	0xbe424ca9	-0.18974556
107	0xbe094925	-0.13406809
108	0xbe5861ff	-0.21131133
109	0x3e13914d	0.14410897
110	0xbc4923bf	-0.012276589
111	0xbd0c8941	-0.034310583
112	0xbde74df3	-0.112941645
113	0x3cb08b0e	0.021550681
114	0xbdab108a	-0.08352764
115	0xbdaf0ff2	-0.08547963
116	0xbd079020	-0.033096433
117	0xbe7acf86	-0.24493226
118	0x3dc5254b	0.09626254
119	0xbb63380d	-0.003467086
120	0xbe497dc4	-0.19676882
121	0x3d636dcb	0.05552463
122	0xbe6437e9	-0.22286953
123	0xbd88cfea	-0.066802815
124	0xbd748b09	-0.059702907
125	0xbe6f3a76	-0.23362145
126	0x3dc89db8	0.097957075
127	0xbcf8ebf1	-0.030385943
128	0xbd844eb9	-0.06460328
129	0xbd090f93	-0.03346212
130	0xbde7d3d4	-0.113197
131	0xbd2a54df	-0.041584846
132	0xbe18b948	-0.14914429
133	0xbcf87fb3	-0.03033433
134	0xbe5bdb6b	-0.2147042
135	0xbd23b9df	-0.039972182
136	0xbe1b797c	-0.15183061
137	0x3cce43e2	0.025178853
138	0x3d5c39b2	0.05376596
139	0x3d246b14	0.04014118
140	0xbe7e438b	-0.24830453
141	0xbe2cc3c3	-0.16871552
142	0x3d5b8ac3	0.05359913
143	0xbd256ef5	-0.04038902
144	0xbda56eb6	-0.08077757
145	0x3c801c3a	0.01563846
146	0x3d1ca399	0.038241956
147	0xbdd03339	-0.1016602
148	0xbe534601	-0.20632173
149	0xbd4f1048	-0.050552636
150	0xbe0aa287	-0.13538562
151	0x3a047635	0.00050530146
152	0xbdf89f6f	-0.121397845
153	0xbc605408	-0.01369191
154	0x3d5768e9	0.052590284
155	0x3dc2284f	0.094803445
156	0x3ccbdcf3	0.02488563
157	0x3dc1402e	0.094360694
158	0x3cd8fb81	0.026487114
159	0xbe1cdb73	-0.15318088
160	0x3d8bd71d	0.06828139
161	0xbd1130e4	-0.035447016
162	0x3d903017	0.070404224
163	0x3cb113f7	0.021615965
164	0x3de113a0	0.10990071
165	0x3e326bad	0.17423888
166	0x3d7740d4	0.06036456
167	0xbcd35cf5	-0.025801161
168	0x3cb1f607	0.02172376
169	0xbe552dd2	-0.2081826
170	0xbe04a15a	-0.12952176
171	0x3d953b63	0.07286718
172	0x3e51ba17	0.20481144
173	0xbd6874bd	-0.056751955
174	0x3c0a7c53	0.008452493
175	0xbdcede00	-0.10100937
176	0x3e0872a7	0.13324986
177	0x3d73a051	0.05947906
178	0xbdfd8cf5	-0.12380401
179	0xbdaef7f2	-0.085433856
180	0xbeba45a2	-0.3638125
181	0x3d90ff58	0.07079953
182	0x3d308f61	0.043105487
183	0xbc964c90	-0.018347055
184	0x3d7cfea0	0.061766267
185	0x3e0db0d7	0.1383699
186	0xbd30f14e	-0.043198876
187	0xbe8b9cf8	-0.27268195
188	0x3e1c6d46	0.1527606
189	0xbd89e915	-0.0673391
190	0xbcbff317	-0.023431344
191	0x3cf08a69	0.029362874
192	0xbe543efe	-0.20727155
193	0xbd387c14	-0.045040205
194	0xbdeb5a6b	-0.11491855
195	0xbd370ae7	-0.04468813
196	0xbd2fcfbc	-0.04292272
197	0xbd0e14f4	-0.03468795
198	0xbdea72e8	-0.11447698
199	0xbe3b0a87	-0.18265735
200	0x3df39633	0.118938826
201	0x3b8c002c	0.0042724814
202	0x3bd976b5	0.0066364654
203	0x3db51a5f	0.088429205
204	0xbdc26b86	-0.09493165
205	0xbd20fdce	-0.039304547
206	0x3da9ca81	0.08290578
207	0xbd07c3ca	-0.033145703
208	0xbe5139e1	-0.20432235
209	0xbdc3c2c6	-0.095586345
210	0xbdd519cd	-0.10405312
211	0x3d925a1c	0.07146093
212	0x3bd12390	0.006382413
213	0x3ccf5797	0.02531032
214	0xbd99f857	-0.0751807
215	0xbdaf5a3b	-0.08562132
216	0xbd81c60d	-0.06336603
217	0xbd8a634c	-0.067572206
218	0x3e2f9484	0.17146498
219	0xbc97012f	-0.018433182
220	0xbd902747	-0.070387416
221	0xbe09e0f9	-0.13464727
222	0x3e274901	0.16336443
223	0x3dbf4567	0.09339409
224	0xbe3cb0b7	-0.18426786
225	0xbe445217	-0.1917194
226	0x3d0d3c4b	0.034481328
227	0xbd16d99b	-0.03682862
228	0xbe931bc7	-0.2873213
229	0x3c002373	0.007820952
230	0xbcb6d2c0	-0.02231729
231	0xbe6364c1	-0.22206403
232	0xbe3d021f	-0.1845784
233	0xbe394431	-0.18092419
234	0xbdceb681	-0.100934036
235	0xbe573e5f	-0.21019886
236	0xbceff08d	-0.029289508
237	0xbd6fb53a	-0.05852244
238	0x3d5335a6	0.051564835
239	0xbd8a72e3	-0.06760194
240	0xbe93f523	-0.28897962
241	0x3d703b60	0.058650374
242	0xbe22d235	-0.159005
243	0x3d91d694	0.07121006
244	0xbe8c24a3	-0.27371702
245	0x3d331ec2	0.043730505
246	0xbd1b11fe	-0.037858956
247	0xbe4e5b65	-0.20152052
248	0x3e05f197	0.1308044
249	0xbdc16b53	-0.094442986
250	0xbdcecae7	-0.10097294
251	0x3d7ab282	0.061205395
252	0xbbb6c89f	-0.005578115
253	0xbd2b7930	-0.04186362
254	0xbc1ff33f	-0.009762584
255	0x3d8aae9d	0.06771586

7.bias f4 [128]
0	0xbe02523c	-0.12726682
1	0xbe1e1520	-0.15437746
2	0xbe16519c	-0.14679569
3	0xbdde6127	-0.10858374
4	0x3e2e6955	0.17032368
5	0xbb7b594f	-0.0038352793
6	0xbe169c0c	-0.14707965
7	0xbe3296cf	-0.17440341
8	0xbe465298	-0.19367445
9	0xbe0fc064	-0.14038235
10	0xbe4e2dc0	-0.2013464
11	0xbe644f32	-0.22295836
12	0xbdd04609	-0.10169608
13	0xbe27e2d1	-0.16395117
14	0xbe1fa7c7	-0.15591346
15	0xbe47f675	-0.1952761
16	0xbe2773e0	-0.16352797
17	0xbe08877b	-0.13332932
18	0xbe21c30f	-0.15797065
19	0xbdacd16f	-0.08438384
20	0xbe17e71c	-0.14834255
21	0x3d99eb24	0.07515553
22	0xbde57fd2	-0.112060204
23	0xbe08cf18	-0.1336025
24	0xbe26a63e	-0.16274354
25	0xbe3602e3	-0.17774539
26	0xbe2f28d5	-0.1710542
27	0xbe2266b6	-0.15859494
28	0xbe23f244	-0.16010386
29	0xbe1f8d7d	-0.15581317
30	0xbdf65038	-0.12027019
31	0xbd94710a	-0.07248123
32	0xbe64a8bd	-0.22329994
33	0xbde89fc0	-0.11358595
34	0xbe060af9	-0.13090123
35	0xbe2cb983	-0.16867642
36	0xbe16fa05	-0.14743812
37	0xbe21cee9	-0.15801586
38	0xbdda7454	-0.10666719
39	0xbe5671af	-0.20941804
40	0xbde50b71	-0.11183823
41	0xbe23c0cb	-0.15991513
42	0xbece6b8a	-0.4031642
43	0xbe2a236a	-0.16615072
44	0xbe1184f0	-0.14210868
45	0xbe1e462a	-0.15456453
46	0x3dd8d416	0.10587327
47	0xbdbcc6c0	-0.09217596
48	0xbe3c1b1f	-0.18369721
49	0xbe206f76	-0.15667519
50	0xbd928b99	-0.071555324
51	0xbe0707bc	-0.13186544
52	0xbd72e39f	-0.059299108
53	0xbdcd7e5a	-0.10033865
54	0xbe7bf13e	-0.24603745
55	0xbd6b100c	-0.05738835
56	0xbe063a44	-0.13108164
57	0xbe10eb50	-0.14152265
58	0xbe5f981b	-0.21835367
59	0xbde15b29	-0.110037155
60	0xbe233ac3	-0.15940385
61	0xbdfb65f9	-0.12275309
62	0xbe1bade1	-0.15203048
63	0xbde6ee22	-0.11275889
64	0xbe2808c4	-0.16409594
65	0xbe39d71e	-0.18148467
66	0xbe4ea355	-0.20179494
67	0xbd4fe4e2	-0.05075539
68	0xbe5f832a	-0.21827379
69	0xbda539fa	-0.08067699
70	0xbe2408ec	-0.16019028
71	0xbc455fc9	-0.012046763
72	0x3d4ee57f	0.050511833
73	0xbd80846c	-0.062752575
74	0xbe26495c	-0.16238922
75	0xbe27819b	-0.16358034
76	0xbe2f32f9	-0.17109288
77	0xbe136d38	-0.14397132
78	0xbe1c170d	-0.15243168
79	0xbe1af288	-0.15131581
80	0xbdc2ab39	-0.095053144
81	0xbd3ff1ac	-0.046861336
82	0xbbcc63f4	-0.0062375013
83	0xbe1ca9c5	-0.15299137
84	0x3e3698d5	0.17831738
85	0xbe59d430	-0.2127235
86	0xbe0c8bd5	-0.13725217
87	0xbe244afb	-0.16044228
88	0xbd6fc0bb	-0.05853341
89	0xbd6f9a70	-0.058496892
90	0xbd6ba08a	-0.05752615
91	0xbe1241f2	-0.14282969
92	0xbddb6570	-0.10712707
93	0xbd208534	-0.039189532
94	0xbdba315e	-0.09091447
95	0xbe061e05	-0.13097389
96	0xbdab27b4	-0.08357182
97	0xbe7395d8	-0.2378763
98	0xbdc62df7	-0.09676736
99	0xbe2d3471	-0.16914536
100	0xbe321803	-0.17391972
101	0xbd5ea398	-0.054355234
102	0xbe663636	-0.22481617
103	0xbe5b438c	-0.21412486
104	0xbc8a0908	-0.01685001
105	0xbe04ed67	-0.12981187
106	0xbdcba810	-0.09944165
107	0xbdf03189	-0.11728198
108	0xbdab21d2	-0.0835606
109	0xbdf535b7	-0.11973136
110	0xbdc136d4	-0.09434286
111	0xbd3100e4	-0.04321374
112	0xbe046a6c	-0.12931222
113	0xbe47a8b2	-0.19497946
114	0xbdb890de	-0.09012006
115	0xbe132763	-0.14370494
116	0xbab61648	-0.0013892138
117	0xbe14ec2f	-0.14543222
118	0xbdd1d67a	-0.10245986
119	0xbd2bea2c	-0.04197137
120	0xbe405b27	-0.18784772
121	0xbe041360	-0.12898016
122	0xbe025522	-0.12727788
123	0xbe2acb4c	-0.16679114
124	0xbdaa611b	-0.08319303
125	0xbe1b2591	-0.15151049
126	0xbdda1c09	-0.106498785
127	0xbe23fcde	-0.1601443

9.weight f4 [128, 128]
0	0xbb2960ac	-0.0025844974
1	0x3def2c38	0.11678356
2	0xbd8f1ed9	-0.069883056
3	0xbe15317d	-0.1456966
4	0xbbc9fac9	-0.006163929
5	0x3e6f4057	0.23364387
6	0xbd2315dc	-0.03981577
7	0x3d417028	0.0472261
8	0xbe10a0b1	-0.14123799
9	0xbd1aaf73	-0.037764978
10	0x3e34d895	0.17660744
11	0x3e87a7dd	0.26495257
12	0x3ce44843	0.027866488
13	0x3d74e4fc	0.05978869
14	0xbd0ed474	-0.03487058
15	0x3cefd547	0.029276503
16	0x3d8acabb	0.06776949
17	0xbac5d82d	-0.0015094333
18	0x3d986359	0.07440824
19	0xbd1d86d5	-0.038458664
20	0xbd9e0362	-0.07715489
21	0xbe50db96	-0.20396265
22	0xbd8946f2	-0.06702985
23	0x3d0f29c4	0.03495194
24	0xbe24f328	-0.16108382
25	0xbe127ee8	-0.14306223
26	0x3d1a181e	0.037620656
27	0xbcea8185	-0.028626213
28	0xbdc1f9c9	-0.09471471
29	0x3ca69ba2	0.020337883
30	0xbcdab76c	-0.02669879
31	0x3d4e41c0	0.050355673
32	0xbd0bd1da	-0.034135677
33	0xbe58da9f	-0.21177147
34	0xbe2b33d9	-0.16718997
35	0x3d8c0385	0.06836609
36	0xbe722d32	-0.23650053
37	0xbd9f995d	-0.077929236
38	0x3dcd57b6	0.10026495
39	0x3e5d2f30	0.21600032
40	0xbba74442	-0.0051045725
41	0x3e37bae5	0.17942388
42	0x3cb6754b	0.022272727
43	0xba8bbdaf	-0.0010661389
44	0xbd7f30a1	-0.062302236
45	0xbb91fb34	-0.0044549946
46	0xbd5e5742	-0.054282434
47	0xbbacf22b	-0.005277892
48	0xbe024c9a	-0.12724534
49	0xbd5e5d9d	-0.054288495
50	0xbe9aa170	-0.30201292
51	0x3d8922c0	0.06696081
52	0xbdbebae7	-0.093129925
53	0xbe1db74f	-0.15401958
54	0xbd4195cf	-0.04726201
55	0xbd1a203e	-0.037628405
56	0xbd17cd47	-0.037061002
57	0xbe5e093d	-0.21683212
58	0x3dbd207b	0.09234711
59	0xbb73c9b1	-0.0037199075
60	0xbd6994cd	-0.057026673
61	0xbce016a4	-0.027354546
62	0xbea0c34d	-0.31399003
63	0xbcdb6a0f	-0.026783971
64	0x3d78ddbc	0.060758337
65	0xbe3594e9	-0.17732586
66	0x3dc8f6b6	0.098126814
67	0xbe29910d	-0.16559239
68	0xbcde7b7d	-0.027158493
69	0x3d343f40	0.044005632
70	0x3d811c89	0.06304271
71	0xbca255b1	-0.019816251
72	0x3d44e28e	0.048067622
73	0xbcca55ca	-0.02469911
74	0xbcb326cb	-0.021869084
75	0xbdf53d89	-0.119746275
76	0xbea6e048	-0.32592988
77	0x3cc8f0d9	0.024528908
78	0x3e415017	0.18878208
79	0xbbec5203	-0.007211925
80	0xbcbe506d	-0.02323171
81	0xbca1f7f1	-0.019771548
82	0xbe140198	-0.14453733
83	0x3d9dbedc	0.07702419
84	0xbddb479f	-0.1070702
85	0xbcec311b	-0.028832009
86	0xbe044437	-0.12916647
87	0x3d6e2835	0.058143813
88	0x3c8e81d8	0.017395899
89	0xbd158a60	-0.036508918
90	0xbd1c2028	-0.038116604
91	0xbe8ffc6c	-0.2812227
92	0xbc339b1d	-0.010962275
93	0x3c959c66	0.018263053
94	0x3b869f7d	0.004108368
95	0xbdc20e39	-0.09475369
96	0xbe7f2c7f	-0.24919318
97	0x3ce114fe	0.02747583
98	0xbdb9135f	-0.09036898
99	0xbab94061	-0.0014133566
100	0x3cf38ae8	0.029729322
101	0xbe5123c7	-0.20423804
102	0xbe284340	-0.16431904
103	0x3ab028d3	0.0013439901
104	0x3c096658	0.008386217
105	0xbc65b7d1	-0.014020876
106	0xbd5c1c5e	-0.05373799
107	0xbe04a6c0	-0.12954235
108	0xbdb68d0d	-0.08913622
109	0x3d8b3e3d	0.067989804
110	0xbd1af826	-0.03783431
111	0x3df85eec	0.1212748
112	0x3ddb6640	0.10712862
113	0x3e02d2b0	0.12775683
114	0x3cd0e01b	0.025497487
115	0xbdeca0d0	-0.1155411
116	0x3d216b1e	0.039408796
117	0x3de7563a	0.11295743
118	0x3db10996	0.086444065
119	0xbdae5edb	-0.08514186
120	0x3e1787a3	0.14797835
121	0x3d3f1583	0.046651375
122	0xbde6e044	-0.11273244
123	0xbd9015a9	-0.07035381
124	0x3d14d06b	0.036331575
125	0xba8c3c4f	-0.0010699126
126	0xbd23df0c	-0.040007636
127	0xbcbf9065	-0.023384282
128	0xbc53f739	-0.01293736
129	0x3a1f2aef	0.0006071766
130	0xbd3d17ae	-0.04616516
131	0xbda3d639	-0.07999844
132	0xbcaaec79	-0.020864712
133	0xbd151b1a	-0.0364028
134	0x3d68805d	0.05676304
135	0xbaf580ee	-0.0018730441
136	0xbe33b2a4	-0.17548615
137	0xbdf8b673	-0.121441744
138	0xbbf01c4b	-0.0073275915
139	0xbdd74679	-0.105114885
140	0xbe0a6bae	-0.13517639
141	0xbd140176	-0.036134206
142	0xbdccfc62	-0.10009076
143	0xbcf44cd9	-0.0298218
144	0xbd4917b2	-0.049094863
145	0xbec90eb6	-0.39269036
146	0xbc80e5b6	-0.015734535
147	0xbd34d0bb	-0.044144373
148	0xbe3ef567	-0.18648301
149	0x3da764b6	0.08173506
150	0xbe1ed801	-0.15512086
151	0xbd187aa3	-0.03722633
152	0xbe096a62	-0.13419488
153	0xbe2fc8f3	-0.171665
154	0x3dfb2944	0.1226373
155	0x3e394a58	0.18094766
156	0xbd495abc	-0.049158797
157	0x3cf8a182	0.03035045
158	0xbe1f37db	-0.15548651
159	0xbddafa3b	-0.10692259
160	0xbd16cdb2	-0.03681726
161	0x3dc7807f	0.097413056
162	0x3deaba52	0.11461319
163	0xbe16d7d0	-0.14730763
164	0xbd862b5c	-0.06551239
165	0xbd1e8f9a	-0.038711168
166	0xbd14c50f	-0.036320742
167	0xbced3561	-0.028956117
168	0xbcd5d97f	-0.026104687
169	0xbd0e01ab	-0.03466956
170	0xbc3ca319	-0.011513495
171	0xbe98cc6a	-0.29843456
172	0xbd70c30b	-0.058779757
173	0xbc043409	-0.008069047
174	0xbb642d68	-0.0034817103
175	0xbd1bfbc1	-0.038081888
176	0xbe3c4757	-0.18386589
177	0xbc8d139b	-0.017221263
178	0x3e36148a	0.17781273
179	0x3c66670d	0.014062655
180	0xbd693527	-0.056935456
181	0xbdacb5c9	-0.0843311
182	0x3e13db17	0.14439045
183	0xbe8b60da	-0.2722233
184	0xbe50991b	-0.20370905
185	0xbd24e007	-0.04025271
186	0xbded0ae0	-0.1157434
187	0x3e2ff262	0.17182305
188	0xbe7e0c1e	-0.2480931
189	0xbdafb77a	-0.08579917
190	0xbcaa9fa1	-0.02082807
191	0x3e2ca65a	0.16860333
192	0x3e07d1a0	0.1326356
193	0xbca61b8e	-0.020276811
194	0xbcf1b1dd	-0.029503757
195	0xbe53a587	-0.20668612
196	0x3ca1b90b	0.019741556
197	0xbc793cd8	-0.01521226
198	0x3d75b94d	0.05999117
199	0x3d24d51e	0.040242307
200	0xbdc6fff6	-0.097167894
201	0xbde10d2b	-0.1098884
202	0xbd088d4b	-0.033337872
203	0x3ba32a2c	0.0049793925
204	0x3de3ece9	0.111291714
205	0x3e17c075	0.1481951
206	0xbe676e05	-0.22600563
207	0xbd2655ca	-0.04060916
208	0xbea33d1d	-0.31882563
209	0xbd21ff0b	-0.03954987
210	0x3cae14ee	0.021250214
211	0xbdff1b81	-0.12456418
212	0xbdf5bd72	-0.119990245
213	0xbdb7baa9	-0.089711495
214	0xbc9cde84	-0.019149072
215	0xbcfee106	-0.031113159
216	0xbd1dc307	-0.03851607
217	0xbe2025f1	-0.15639473
218	0xbd23a804	-0.039955154
219	0xbe288a3e	-0.16458985
220	0xbdc09bbe	-0.094047055
221	0x3c8205d6	0.015871923
222	0xbd2e60bf	-0.042572733
223	0xbd922a5c	-0.07136986
224	0xbcce17b4	-0.025157787
225	0xbe4c51f4	-0.19953138
226	0xbe52d8b7	-0.20590483
227	0x3e15404a	0.14575306
228	0xbd8d380c	-0.06895456
229	0xbcda8778	-0.026675925
230	0xbe9390c2	-0.2882138
231	0xbdee83ee	-0.11646257
232	0xbe88d5d4	-0.26725638
233	0x3dd08e54	0.10183397
234	0xbd86e9d4	-0.06587568
235	0xbe3eeb43	-0.18644433
236	0x3dc5f1d3	0.09665265
237	0xbda99642	-0.082806125
238	0xbe436576	-0.19081673
239	0x3dcc79c6	0.09984164
240	0x3d134692	0.035955973
241	0xbe1b6108	-0.15173733
242	0xbd3fc107	-0.046814945
243	0xbed11639	-0.40837267
244	0xbe6dd151	-0.23224379
245	0xbe6256e6	-0.22103462
246	0xbd5e0a50	-0.054209054
247	0xbd285d2b	-0.041104477
248	0xbc4e1a3e	-0.012579499
249	0x3e2eac0e	0.17057821
250	0x3dea6fb0	0.11447084
251	0x3d8fbcc0	0.07018423
252	0x3cb66902	0.022266869
253	0x3e227528	0.15865004
254	0x3c36b96e	0.011152608
255	0xbd78a4d6	-0.060704075

9.bias f4 [128]
0	0xbe9d97b4	-0.30779803
1	0xbe25e668	-0.16201174
2	0xbe2755cc	-0.16341323
3	0xbdf75262	-0.1207626
4	0xbe306f0c	-0.17229861
5	0xbe1c9895	-0.1529258
6	0x3e60ba91	0.2194617
7	0xbe9f38db	-0.31098065
8	0x3e31ec12	0.1737521
9	0xbe5d096b	-0.21585624
10	0x3e9d98eb	0.3078073
11	0x3e8d894c	0.27643812
12	0x3e3c3984	0.18381315
13	0xbdd9ac52	-0.106285706
14	0xbe686f16	-0.22698626
15	0xbda1087c	-0.078629464
16	0xbdd5f09c	-0.10446283
17	0xbe165af3	-0.14683132
18	0xbe136bd4	-0.14396602
19	0xbe2025bc	-0.15639395
20	0xbe97abd0	-0.2962327
21	0xbe97658d	-0.29569665
22	0xbe125e32	-0.14293745
23	0xbe4c5b6f	-0.19956754
24	0xbea02bdc	-0.31283462
25	0x3d2d1e16	0.04226502
26	0xbe196435	-0.14979632
27	0xbe84db7f	-0.25948712
28	0xbdd126ad	-0.10212455
29	0xbddc0ce2	-0.10744645
30	0xbe29cdb2	-0.16582373
31	0xbe6227ba	-0.22085467
32	0xbd59c366	-0.053164862
33	0xbdf9db6a	-0.12200053
34	0xbe22041b	-0.15821879
35	0xbe6b0636	-0.22951588
36	0xbe121ac3	-0.14268021
37	0xbe8788f5	-0.26471677
38	0xbcd35b55	-0.025800386
39	0x3d565709	0.052329097
40	0x3eacb228	0.33729672
41	0xbe5be12f	-0.2147262
42	0xbe1a6a6f	-0.15079664
43	0xbe25defb	-0.16198342
44	0xbe09cc7d	-0.13456912
45	0xbdac5a84	-0.08415702
46	0xbe108294	-0.14112312
47	0xbe361142	-0.17780021
48	0xbecd2a1c	-0.4007119
49	0x3e973f5a	0.2954052
50	0xbe475f91	-0.1947005
51	0x3e814d74	0.25254405
52	0xbe6402b0	-0.2226665
53	0xbe4c59dd	-0.19956155
54	0xbe6fb623	-0.23409323
55	0xbdf60aae	-0.12013756
56	0xbe70519e	-0.23468634
57	0xbdacc06b	-0.08435138
58	0xbe2101b6	-0.15723309
59	0xbe55487a	-0.20828429
60	0xbe373a8d	-0.17893429
61	0xbe02613b	-0.12732403
62	0xbe836ef1	-0.2567058
63	0xbd7a7225	-0.061144013
64	0x3e0e98f1	0.1392553
65	0x3e784227	0.24243985
66	0xbebf517d	-0.37366858
67	0xbde5e0f9	-0.11224551
68	0xbbdd7966	-0.0067588566
69	0xbe1078c7	-0.14108573
70	0xbe43bb84	-0.191145
71	0xbe00b55a	-0.1256918
72	0xbb8df3e1	-0.004332051
73	0xbdd9f613	-0.10642638
74	0x3e7cdc27	0.24693356
75	0xbe2f8e30	-0.17144084
76	0xbe405aca	-0.18784633
77	0xbec3a3a9	-0.382108
78	0xbdb89210	-0.09012234
79	0xbdc00338	-0.09375614
80	0x3e684dae	0.22685882
81	0xbe369bc4	-0.17832857
82	0x3d2625de	0.040563457
83	0x3e559e61	0.20861198
84	0xbe263f7d	-0.16235156
85	0xbe110ab1	-0.14164235
86	0xbe3e9aca	-0.18613735
87	0xbe13a95f	-0.14420079
88	0xbe5dba53	-0.21653108
89	0xbe3f6357	-0.18690239
90	0x3ec055f2	0.3756557
91	0x3d161252	0.036638565
92	0xbe84f65e	-0.25969213
93	0x3d555f6a	0.052092947
94	0x3e5c9277	0.21540247
95	0x3def4788	0.116835654
96	0xbc04d016	-0.008106252
97	0xbe194744	-0.14968592
98	0x3d2263b9	0.039645884
99	0xbe6a43fa	-0.22877494
100	0xbe84db88	-0.2594874
101	0xbee6c410	-0.4507146
102	0xbe8419de	-0.25800985
103	0x3cd68c23	0.02618987
104	0x3ddb4184	0.107058555
105	0x3e92830a	0.286156
106	0xbe7a11aa	-0.24420801
107	0x3d96d2a4	0.07364395
108	0x3e142d17	0.14470325
109	0xbe93e82c	-0.2888807
110	0x3e483e33	0.19554977
111	0xbd369fee	-0.044586115
112	0xbe92bde0	-0.28660488
113	0xbe6e25ce	-0.23256609
114	0xbe791aaf	-0.24326585
115	0xbf0f5252	-0.55984986
116	0x3e8000f5	0.2500073
117	0x3d439787	0.04775193
118	0xbe1c4a25	-0.15262659
119	0xbe8bcc4b	-0.273043
120	0x3e329784	0.17440611
121	0xbd77802c	-0.06042497
122	0x3eae71d6	0.34071225
123	0xbd758830	-0.05994433
124	0xbe2c3fe0	-0.16821241
125	0xbd8e0f9c	-0.06936571
126	0xbe1c3551	-0.15254714
127	0xbe0c7f03	-0.13720326

11.weight f4 [128, 128]
0	0xbd339514	-0.043843344
1	0xbd93af60	-0.072111845
2	0xbda8b961	-0.08238483
3	0xbc93f250	-0.01805988
4	0xbc615713	-0.01375367
5	0xbc229a52	-0.009924488
6	0xbcffa856	-0.031208199
7	0xbdf03464	-0.11728743
8	0xbe119283	-0.14216046
9	0xbd4e04d2	-0.050297566
10	0xbd827714	-0.063703686
11	0xbe17d7a0	-0.14828348
12	0xbd89d8ff	-0.06730842
13	0xbd048bd5	-0.032359917
14	0xbcbc67e3	-0.022998756
15	0x3c8b6712	0.017016921
16	0xbcf91a7f	-0.030408142
17	0xbd4d6158	-0.050141662
18	0xbe276c2e	-0.16349861
19	0xbe0fce6f	-0.14043592
20	0x3d71577b	0.05892132
21	0x3ca48411	0.020082505
22	0xbcbd0db8	-0.02307783
23	0xbdce0762	-0.10060002
24	0xbe045975	-0.1292475
25	0xbda62008	-0.08111578
26	0xbe6c3026	-0.23065242
27	0xbc770fd5	-0.015079458
28	0xbd0207fb	-0.031745892
29	0xbdd5e52a	-0.104441
30	0xbd3d1279	-0.046160195
31	0xbe1b92f8	-0.15192783
32	0xbd27479c	-0.040839776
33	0xbd61b57d	-0.05510472
34	0xba6ab7d6	-0.0008953785
35	0xbd9b11fd	-0.0757179
36	0x3d4a7aee	0.04943364
37	0xbcd6190b	-0.026134988
38	0xbd234b46	-0.03986671
39	0x3d1c71f3	0.038194608
40	0xbdc196b5	-0.09452573
41	0xbcd787cf	-0.026309876
42	0x3d8465ba	0.06464715
43	0x3d04dfb3	0.0324399
44	0xbcb68d98	-0.022284314
45	0xbdef8c4c	-0.116966814
46	0xbc51507b	-0.012775536
47	0xbdd53c27	-0.10411864
48	0xbb7aa6d2	-0.0038246405
49	0xbb13ae31	-0.0022534246
50	0x3d97e51b	0.07416745
51	0x3cc550b3	0.024086332
52	0x3d1d594b	0.038415235
53	0x3e0cc327	0.1374632
54	0xbe168346	-0.14698514
55	0x3dcb9e61	0.09942318
56	0xbdd09f36	-0.10186617
57	0xbda72261	-0.08160854
58	0xbd7bfbfb	-0.061519604
59	0x3deda969	0.11604578
60	0xbc838e57	-0.016059084
61	0xbc03b0b5	-0.008037736
62	0xbd3aea97	-0.04563388
63	0xbdd0df7b	-0.101988755
64	0xbe04386b	-0.12912147
65	0xbdbd876e	-0.09254347
66	0xbcc85632	-0.024455164
67	0xbe15cd01	-0.14628984
68	0xbdac09f2	-0.084003344
69	0xbd42d334	-0.0475647
70	0x3e0a1f40	0.13488483
71	0xbe0996a7	-0.13436376
72	0xbe15311b	-0.14569513
73	0xbdddfa0e	-0.1083871
74	0xbdd779f0	-0.105213046
75	0xbd167c98	-0.036739916
76	0xbe4c0a14	-0.1992572
77	0xbdea8cf5	-0.11452667
78	0xbe284c74	-0.16435415
79	0xbdba0799	-0.090834804
80	0xbe2c832e	-0.16846916
81	0xbd5ee499	-0.054417226
82	0xbe14ffd2	-0.14550713
83	0xbd25c545	-0.040471334
84	0xbd16adaa	-0.036786713
85	0xbd2a15a6	-0.04152455
86	0xbd2c6fcc	-0.042098805
87	0xbe1c2c73	-0.15251331
88	0xbde1187d	-0.10990999
89	0x3b981030	0.0046406016
90	0xbd55d99d	-0.052209485
91	0xbe249a2b	-0.16074435
92	0xbe031708	-0.12801754
93	0x3d651ff3	0.055938672
94	0xbc70d3dd	-0.01469895
95	0x3dcb2a72	0.09920205
96	0xbda8e82b	-0.082474075
97	0x3db07979	0.08616919
98	0xbe7391d7	-0.23786102
99	0x3ded4c19	0.1158678
100	0x3d3879c4	0.045038
101	0xbe57de73	-0.21080951
102	0x3e395eb8	0.18102539
103	0xbe520d01	-0.20512773
104	0xbd0ecd8a	-0.034863986
105	0x3d166d28	0.036725193
106	0x3cb6c3b4	0.022310115
107	0xbe133985	-0.1437741
108	0xbe23e832	-0.16006544
109	0xbd9e5bc8	-0.0773235
110	0xbbd170f1	-0.0063916375
111	0xbbc5bb14	-0.0060342643
112	0xbe0a97fa	-0.13534537
113	0xbd034fbf	-0.032058474
114	0xbd1cc227	-0.038271096
115	0xbcb3868f	-0.021914748
116	0xbd84f708	-0.0649243
117	0xbd28e350	-0.041232407
118	0x3ca07486	0.019586813
119	0xbdda8b06	-0.10671048
120	0xbcfbc614	-0.0307341
121	0x399e995d	0.00030250373
122	0xbccf0537	-0.025271041
123	0xbccc8266	-0.024964523
124	0x3dc6e9ff	0.097126
125	0xbe7c22b0	-0.24622607
126	0xbe2095d3	-0.15682153
127	0xbbae6b0a	-0.0053228186
128	0x3dff1b4c	0.12456378
129	0xba7ebff5	-0.0009717935
130	0x3a4ec442	0.0007887521
131	0xbd20e113	-0.039277148
132	0x3d4b2826	0.049598835
133	0xbd160235	-0.0366232
134	0xbbd14ea4	-0.0063875485
135	0xbe04f072	-0.12982348
136	0xbcb67559	-0.022272753
137	0xbe46063d	-0.19338317
138	0xbcb16183	-0.021652943
139	0xbe828d15	-0.25498262
140	0xb9b2b682	-0.00034086785
141	0xbb4704d6	-0.0030367873
142	0x3d5fceb5	0.05464049
143	0x3d330682	0.04370738
144	0xbd209222	-0.039201863
145	0x3d10392b	0.03521077
146	0x3cb4eb35	0.022084812
147	0xbe0f9cfd	-0.1402473
148	0xbc3c603f	-0.011497556
149	0xbd2891cc	-0.041154668
150	0xbb6447f1	-0.003483292
151	0xbd1575ae	-0.03648918
152	0xbd81ee23	-0.06344249
153	0xbece413d	-0.40284148
154	0xbe58361e	-0.21114394
155	0xbcbc8bc0	-0.023015857
156	0xbd2470e8	-0.04014674
157	0xbdafdd8c	-0.085871786
158	0xb608275a	-2.0288485e-06
159	0x3b98d847	0.004664454
160	0xbb85e374	-0.0040859524
161	0xbcf766c2	-0.030200366
162	0x3d036d7a	0.032086827
163	0xbdefbfed	-0.11706529
164	0xbcb66e3a	-0.022269357
165	0x3dbb5fbe	0.09149121
166	0xbbb6a5e1	-0.0055739735
167	0x3eb60359	0.3554943
168	0xbdc0aca2	-0.09407927
169	0xbcdd2ea5	-0.02699978
170	0x3de93960	0.113878965
171	0x3c8f3fe1	0.017486515
172	0xbc471ce3	-0.012152883
173	0xbc68f28f	-0.014217987
174	0xbd7f428f	-0.062319335
175	0x3d2aa330	0.041659534
176	0x3dd40b68	0.10353738
177	0xbe0a0a9d	-0.13480611
178	0xbe423f6e	-0.18969509
179	0xba77c6c5	-0.0009451921
180	0xbd104476	-0.03522154
181	0xbd33ff13	-0.04394443
182	0xbceb195a	-0.028698612
183	0x3e002921	0.1251569
184	0x3cfab4c1	0.030603768
185	0x3d855969	0.06511194
186	0xbbf275ab	-0.007399281
187	0xbd21b216	-0.039476477
188	0xbb611284	-0.0034343312
189	0x3e2c01e4	0.16797596
190	0xbd107eed	-0.035277296
191	0xbd19fd3c	-0.03759502
192	0xbcd60b93	-0.026128566
193	0xbc8b4cda	-0.01700442
194	0xbc1c4fd0	-0.009540513
195	0xbe17d470	-0.14827132
196	0xbf41e014	-0.7573254
197	0xbcfa2b83	-0.030538326
198	0x3d9cd565	0.07657889
199	0xbf72b23c	-0.94803214
200	0xbaacf26d	-0.0013194807
201	0x3d9ccb82	0.076560035
202	0xbc504db7	-0.012713841
203	0xbea2b92a	-0.31781894
204	0x3bd73cea	0.006568541
205	0xbc81d9eb	-0.015850982
206	0xbc30135b	-0.010746802
207	0xbc7b0242	-0.0153203625
208	0xba5e748a	-0.00084859936
209	0x3e1f11a9	0.1553408
210	0xbc333310	-0.010937467
211	0xba21b176	-0.00061681063
212	0x3d7734a7	0.060352948
213	0xbd294098	-0.041321367
214	0x3cdef18c	0.027214788
215	0xbc169d04	-0.009192709
216	0xba168abc	-0.0005742719
217	0xbdbc999f	-0.092089884
218	0xbe83c203	-0.25733957
219	0xbd3d6fcc	-0.046249196
220	0xbc608478	-0.013703458
221	0x3d72f519	0.059315775
222	0x3c6261fb	0.013817306
223	0xbc8114e2	-0.015757028
224	0x3dcd2352	0.100165024
225	0xbcfb790c	-0.030697368
226	0x3e50c5ff	0.2038803
227	0x3dcd7b10	0.10033238
228	0xbc801296	-0.015633862
229	0xbe323f95	-0.17407067
230	0xbd36b588	-0.044606715
231	0xbe491b12	-0.19639233
232	0xbd0bd70b	-0.034140628
233	0x3d943929	0.07237465
234	0x3d290389	0.041263137
235	0xbd36a2c9	-0.044588838
236	0xbcf32336	-0.029679876
237	0x3cb835c1	0.02248657
238	0xbf662b61	-0.8990994
239	0xbacb93b2	-0.0015531688
240	0x3d3b10bf	0.045670267
241	0xbdf637a0	-0.120223284
242	0xbc128919	-0.008943819
243	0xbbe0191d	-0.0068389312
244	0xbd11fa6b	-0.035639208
245	0xbc425cb7	-0.011862925
246	0xbc7b51c4	-0.015339319
247	0x3ce5623b	0.028000942
248	0xbd0d9bfa	-0.03457258
249	0xbe1aea81	-0.15128519
250	0xbbf683d1	-0.007523038
251	0xbc9081b9	-0.017639982
252	0xbda7de16	-0.081966564
253	0xbd91b0b0	-0.071137786
254	0xbd8fabfe	-0.07015227
255	0xbceef721	-0.029170575

11.bias f4 [128]
0	0xbe2aa39b	-0.16663973
1	0x3d858951	0.06520332
2	0xbe17bc5a	-0.14817944
3	0x3e522205	0.2052079
4	0x3e9a3f97	0.3012664
5	0x3e864f82	0.26232535
6	0xbcfb6906	-0.030689728
7	0x3ca29c2d	0.019849861
8	0x3eacbde2	0.3373862
9	0x3f37288e	0.71546257
10	0xbdb69c2f	-0.089165084
11	0xbe8eb270	-0.27870512
12	0x3e505ce4	0.20347935
13	0x3de2b66f	0.11069953
14	0xbbc35a15	-0.0059616663
15	0xbe39e5c0	-0.18154049
16	0xbdacfe10	-0.08446896
17	0xbe028b9c	-0.12748569
18	0x3eb59d8f	0.3547177
19	0xbdd5083d	-0.10401962
20	0xbe3c4b08	-0.18387997
21	0x3e8f4d14	0.27988493
22	0xbdd3a084	-0.1033335
23	0x3eb7d517	0.35904762
24	0xbe13c595	-0.1443084
25	0xbe3cd8de	-0.18442103
26	0x3e37932c	0.17927235
27	0xbdc605f5	-0.09669105
28	0xbdb40bb4	-0.08791295
29	0xbe0d4f3d	-0.13799758
30	0x3e29766c	0.1654908
31	0x3ebc68d9	0.36798742
32	0x3d36b77f	0.04460859
33	0xbdf1a630	-0.11799276
34	0xbdf0da1a	-0.117603496
35	0x3e8c9f2e	0.27465194
36	0x3ef77fbe	0.48339647
37	0x3de60f92	0.112334386
38	0xbe82c889	-0.2554362
39	0xbd3c365e	-0.045950286
40	0xbe57019a	-0.20996705
41	0x3ec0d5f7	0.37663242
42	0x3d39db9f	0.045375463
43	0xbe6715e3	-0.22566943
44	0x3dcd7c22	0.10033442
45	0xbd4f090a	-0.05054573
46	0x3e7a2714	0.2442897
47	0x3f04fe4d	0.5195053
48	0xbe13964b	-0.14412801
49	0x3ef9f5bb	0.4882029
50	0x3d8fd71f	0.07023453
51	0x3e72268c	0.23647517
52	0xbe1571b4	-0.14594156
53	0x3ec44c5b	0.38339505
54	0xbe17f51e	-0.14839599
55	0xbe0eae7b	-0.13933747
56	0xbe155f57	-0.1458715
57	0xbe871417	-0.26382515
58	0x3ec24c42	0.37948805
59	0xbe288888	-0.16458333
60	0xbe082f66	-0.13299331
61	0x3f5f46d8	0.87217474
62	0xbe5f5ecf	-0.2181351
63	0xbe1f9590	-0.15584397
64	0xbd98a7e5	-0.07453898
65	0xbe01e377	-0.12684427
66	0xbdd7fbe9	-0.10546095
67	0x3e58d015	0.21173127
68	0xbe1641ee	-0.14673588
69	0xbe5630b0	-0.2091701
70	0x3ea0750b	0.31339297
71	0xbe8631cf	-0.26209876
72	0x3b1c7a14	0.0023876475
73	0xbd48c15d	-0.04901253
74	0x3e105549	0.14095034
75	0x3e7a94c1	0.24470808
76	0xbe1bab2d	-0.15202017
77	0xbe2fad2c	-0.17155904
78	0xbe21633c	-0.15760511
79	0x3e8c1142	0.27356917
80	0xbc8b8ec2	-0.017035846
81	0x3e950b50	0.29110193
82	0xbde5d420	-0.112221
83	0xbe2568b7	-0.16153227
84	0xbe333c32	-0.17503431
85	0xbe01ccb9	-0.12675752
86	0x3e812ea3	0.25230893
87	0xbde2d0c0	-0.11074972
88	0xbd9317af	-0.07182252
89	0xbdc8409c	-0.09777948
90	0x3ea98783	0.331112
91	0xbd3fde23	-0.046842705
92	0x3e95502e	0.29162735
93	0xbddfd5a5	-0.10929421
94	0x3ec44b62	0.38338763
95	0x3e7de904	0.2479592
96	0xbe9df40e	-0.3085026
97	0x3d51a919	0.051186655
98	0xbdfd9340	-0.12381601
99	0xbe182a7f	-0.14859961
100	0x3ef5981b	0.4796761
101	0xbdac3d9c	-0.084101886
102	0x3e67528e	0.22590086
103	0xbe1a5f7b	-0.15075485
104	0xbdf7bcf7	-0.12096589
105	0xbcb17fa0	-0.021667302
106	0x3e6aa266	0.22913513
107	0xbe1ec203	-0.15503697
108	0xbe296878	-0.16543758
109	0xbe384ea4	-0.17998749
110	0xbbee2b1e	-0.0072683236
111	0xbe1b009e	-0.15136954
112	0x3e1544a1	0.14576961
113	0x3e07d7c4	0.13265902
114	0xbd8d3541	-0.06894923
115	0x3e80a12b	0.2512296
116	0xbd95a68c	-0.07307157
117	0xbe20474a	-0.15652195
118	0x3d005b9d	0.03133737
119	0xbe0b2c78	-0.13591182
120	0xbe2efd5d	-0.17088838
121	0x3e07842c	0.13234013
122	0x3e6e5150	0.23273206
123	0xbdb56067	-0.08856278
124	0xbe4e6407	-0.20155345
125	0x3f4a0bba	0.78924143
126	0x3cae1ce6	0.021254014
127	0x3d0c2edf	0.034224387
