project_networks/mnist_cnn_3layer_k3_w2_ibp.onnx (onnx, 429781 bytes, 10 tensors)

0.weight f4 [8, 1, 3, 3]
0.18098472 -0.006478412 -0.0052511473 -0.015262797 -0.008146304 -0.024685374 -0.009494212 -0.11795289
-0.034528334 -6.708454e-05 -8.0103186e-05 0.0006312698 -6.341428e-05 0.00011779274 0.00074468047 0.0008471095
3.379656e-05 1.1110508 0.76417524 -8.281716e-05 -8.942583e-05 -4.4489196e-05 7.659937e-06 -0.00047550863
0.00030144546 0.00017346877 -0.00011995672 -0.00017785399 -0.0004621302 0.00023150691 0.00012753531 -0.00026551622
-0.00017683396 1.0640669 0.0002348853 0.00029751786 -0.031968065 -0.3059388 -0.3047139 0.14732851
-0.011483067 -0.0010525049 -0.31578535 -0.23399357 0.06598964 -0.047153205 -0.056966666 0.3177248
-0.044146027 -0.04514365 -0.051514864 -0.23808768 -0.33238187 -0.500981 -0.05882624 -0.07051761
-0.09072543 -0.06268034 -0.06159201 0.5205025 -0.7008511 -0.027590882 -0.06192915 0.118627615
-0.18545146 -0.22093941 -0.4085233 -0.06297512 0.0062238364 0.03860164 -0.26640984 0.07083975
00000000: 0f54 393e dc48 d4bb d111 acbb cf10 7abc
00000010: 1378 05bc fb38 cabc 9d8d 1bbc 4991 f1bd
00000020: 956d 0dbd bdaf 8cb8 12fd a7b8 cd7b 253a
00000030: 48fd 84b8 7f07 f738 a936 433a 8e10 5e3a
00000040: c8c0 0d38 ea36 8e3f fda0 433f 20ae adb8
00000050: 208a bbb8 e999 3ab8 2e83 0037 b04d f9b9
00000060: 530b 9e39 2be5 3539 4691 fbb8 517e 3ab9
00000070: 114a f2b9 aac0 7239 00bb 0539 fc34 8bb9
00000080: 816c 39b9 5833 883f 8b4b 7639 2cfc 9b39
00000090: f2f0 02bd 03a4 9cbe 7603 9cbe 49dd 163e
000000a0: 7923 3cbc 34f4 89ba 9eae a1be 039c 6fbe
000000b0: 9425 873d b823 41bd e155 69bd d3ac a23e
000000c0: 77d2 34bd 8ce8 38bd 4001 53bd 42cd 73be
000000d0: f52d aabe 4a40 00bf c9f3 70bd 896b 90bd
000000e0: 41ce b9bd 8d5e 80bd e747 7cbd a73f 053f
000000f0: fa6a 33bf 4606 e2bc 6ca9 7dbd 09f3 f23d
00000100: fde6 3dbe f13d 62be f729 d1be 1af9 80bd
00000110: 53f1 cb3b c11c 1e3d df66 88be 6e14 913d

0.bias f4 [8]
-0.18617457 -0.43414566 -0.24727741 -0.3812637 -0.21380667 -0.31861106 -0.52063596 -0.23238304
00000000: 8ca4 3ebe 5748 debe 4a36 7dbe ff34 c3be
00000010: 23f0 5abe fd20 a3be 6648 05bf d2f5 6dbe

2.weight f4 [16, 8, 3, 3]
4.753232e-06 -5.105985e-06 -4.450634e-06 3.749778e-07 -1.251783e-06 -4.44644e-06 2.5258828e-06 -2.3755413e-06
2.0162464e-05 -0.00141656 -1.4481827 -1.4941205 -0.11337751 -2.7039218 -0.0023317996 -0.09806397
-0.04376879 -0.0010057203 -0.00014547083 1.6499638e-05 -0.00056683744 -0.0002471315 -0.0011066265 -0.00020211536
0.00014216015 0.00016561704 -0.00013515468 0.00055763416 -0.00017431885 -0.0014314195 0.00044885426 -0.000945905
-0.25394958 -0.00015958976 -0.00022976278 -0.94156235 0.0047263624 0.04503326 -0.041825075 -0.055825893
-0.026082559 -0.019657629 -1.1136193e-05 -0.19325256 -0.0063442774 -1.1597302e-06 -6.24845e-07 -2.0969249e-07
2.4348892e-06 2.263195e-06 4.8042725e-08 -2.6442125e-05 -0.00012134217 6.270365e-07 0.0005228918 -2.6181942e-07
-1.6284023e-06 -0.000116311145 -1.4476161 -0.000197437 -0.00026638748 -2.852957 -3.4096501e-09 -0.0896211
0.03269676 0.083481506 -0.045514654 -1.3934122e-05 -0.15209521 0.035831098 -0.26024014 -0.0004514089
-0.06307314 -0.10111795 0.15762609 0.0034739235 -0.05966294 -0.02638479 -0.020816816 0.0067789513
-0.21155444 0.006082791 -0.18615013 -0.2129413 0.0083570555 -0.04234954 -0.43688712 -0.026991546
-0.03744909 -0.4465304 0.032746818 -0.1636027 -0.027540691 -0.12388752 -0.024856638 -0.15503815
-0.031264298 0.0120114805 -0.14512794 -0.030230632 -0.12275452 -0.08790632 -0.05048429 -0.023015851
-0.05056496 -0.22057098 -0.040341098 -0.046971567 -0.06494803 -0.25085673 -0.09836176 0.00308303
0.078792274 0.0007433504 -0.044760443 0.14857443 -0.028319484 -0.19093114 0.046464674 0.008967404
-0.18285033 -0.2668721 -0.095101476 -0.08363205 -0.1265519 -0.08788468 -0.27991524 -0.3263373
-0.3283243 -0.081116095 -0.109941244 -0.6162173 -0.009083444 -0.033893276 -0.024115952 -0.050290395
0.04647585 0.060030263 -0.10144299 0.03138098 -0.05287983 -0.023027752 0.16793552 0.018235035
-0.16291869 -0.3021755 -0.11576204 -0.075672634 -0.046224255 0.092454985 -0.06387438 -0.06508904
-0.08120359 -0.30598098 -0.07765252 -0.2710224 -0.16760765 -0.19669105 -0.12147422 -0.29236844
-0.21966207 -0.25472862 -0.20000936 -0.024984382 0.0023115552 -0.0013732751 -0.009110667 -0.1379607
-0.016160656 0.006136222 0.056034636 -0.17899364 -0.096133955 -0.1622514 -0.0070700184 -0.07095839
-0.04696377 -0.036116734 -0.0069226534 0.057218816 0.16577491 -0.037781265 -0.14201242 -0.013977266
-0.22826824 0.006644776 0.17791086 -0.04050789 0.15977344 -0.18745017 -0.091529615 -0.22865038
0.012537554 -0.31586206 -0.02701134 -0.0012443416 -0.056381077 -0.13994667 -0.38981038 -0.27812922
-0.38118854 -0.24598812 -0.12899825 -0.15073577 -0.15095048 -0.042637374 0.07310419 0.04098317
0.030983465 -0.14914598 0.055052318 0.274774 0.08230145 -0.03560523 -0.069589935 -0.04751852
-1.7875669e-06 3.2182558e-07 -2.585038e-06 -2.7942585e-06 1.1070658e-07 7.7976625e-07 -2.4016547e-06 2.1574054e-07
-6.507618e-06 -0.0018364461 -0.0035044192 -2.7998888 -0.0017846961 -0.002533877 -1.8990431 -9.0869406e-05
-0.0019331954 -2.351692 -0.0013808918 0.001870703 0.0042226478 -0.0011197745 0.2755446 0.0016896382
-0.002318119 -0.00013774549 0.0012024555 -0.0015365721 0.00012640556 -0.0015417332 -0.002058759 -0.0010161637
-0.0014533848 0.0026482719 0.00049113267 -0.0014612869 0.033722583 -0.02409978 -0.1112275 0.069906764
00000000: f47d 9f36 1454 abb6 a856 95b6 8e50 c934
00000010: f002 a8b5 a132 95b6 5682 2936 7d6b 1fb6
00000020: 9022 a937 deab b9ba 0d5e b9bf 573f bfbf
00000030: 7832 e8bd 0e0d 2dc0 1bd1 18bb c3d5 c8bd
00000040: e746 33bd 60d2 83ba 8789 18b9 b468 8a37
00000050: d197 14ba 6e91 81b9 390c 91ba eeee 53b9
00000060: d310 1539 7ca9 2d39 4fb8 0db9 322e 123a
00000070: 5cc9 36b9 789e bbba 3354 eb39 9cf6 77ba
00000080: ae05 82be 8d57 27b9 7aec 70b9 3b0a 71bf
00000090: 9adf 9a3b cc74 383d c550 2bbd b1a9 64bd
000000a0: 17ab d5bc 0909 a1bc 96d5 3ab7 00e4 45be
000000b0: a8e3 cfbb 07a8 9bb5 05bb 27b5 d527 61b4
000000c0: 1467 2336 65e1 1736 8957 4e33 08d0 ddb7
000000d0: 1579 feb8 9f51 2835 ad12 093a 3090 8cb4
000000e0: 7a8f dab5 12ec f3b8 7c4b b9bf 1707 4fb9
000000f0: eca9 8bb9 d996 36c0 334f 6ab1 448b b7bd
00000100: 0aed 053d 5af8 aa3d 936d 3abd 99c6 69b7
00000110: d9be 1bbe a1c3 123d 323e 85be 14ab ecb9
00000120: 7e2c 81bd ee16 cfbd bc68 213e c4aa 633b
00000130: 2161 74bd ea24 d8bc 0788 aabc f721 de3b
00000140: baa1 58be 2652 c73b 249e 3ebe 490d 5abe
00000150: 08ec 083c b676 2dbd abaf dfbe 601d ddbc
00000160: 3864 19bd a29f e4be 8721 063d 7787 27be
00000170: 049d e1bc bdb8 fdbd 26a0 cbbc 52c2 1ebe
00000180: fe0e 00bd cdcb 443c 6b9c 14be 3ba6 f7bc
00000190: b966 fbbd 3b08 b4bd 9dc8 4ebd bd8b bcbc
000001a0: 341d 4fbd 5cdd 61be b53c 25bd 4265 40bd
000001b0: 7903 85bd 4b70 80be e471 c9bd a90c 4a3b
000001c0: d85d a13d 67dd 423a ba56 37bd e523 183e
000001d0: 43fe e7bc 7483 43be be51 3e3d 05ec 123c
000001e0: 1e3d 3bbe 76a3 88be 90c4 c2bd 4847 abbd
000001f0: d296 01be e2fc b3bd 0d51 8fbe af15 a7be
00000200: 1f1a a8be 3220 a6bd e028 e1bd 6bc0 1dbf
00000210: bad2 14bc add3 0abd d18e c5bc 4dfd 4dbd
00000220: 765d 3e3d 4be2 753d 58c1 cfbd 5889 003d
00000230: 8598 58bd b2a4 bcbc 4af7 2b3e a461 953c
00000240: 28d4 26be bfb6 9abe a614 edbd 41fa 9abd
00000250: a555 3dbd 0a59 bd3d 92d0 82bd 674d 85bd
00000260: 114e a6bd 8aa9 9cbe 4908 9fbd 73c3 8abe
00000270: 57a1 2bbe 6169 49be 7ac7 f8bd 51b1 95be
00000280: 18ef 60be ca6b 82be 41cf 4cbe 0cac ccbc
00000290: 767d 173b 77ff b3ba e844 15bc 9245 0dbe
000002a0: 5a63 84bc 5c12 c93b 9384 653d 1c4a 37be
000002b0: e1e1 c4bd 3b25 26be 9dab e7bb a252 91bd
000002c0: 155d 40bd 24ef 13bd 6dd7 e2bb 475e 6a3d
000002d0: e6c0 293e 87c0 1abd b46b 11be e700 65bc
000002e0: 26bf 69be 6cbc d93b 442e 363e 9aeb 25bd
000002f0: a69b 233e f0f2 3fbe e173 bbbd 5323 6abe
00000300: 506a 4d3c acb8 a1be e346 ddbc 2d19 a3ba
00000310: d8ef 66bd 2e4e 0fbe 3a95 c7be f466 8ebe
00000320: 252b c3be 4fe4 7bbe 1e18 04be 7a5a 1abe
00000330: c392 1abe 87a4 2ebd a6b7 953d f8dd 273d
00000340: 09d1 fd3c b9b9 18be 8a7e 613d 2daf 8c3e
00000350: aa8d a83d cad6 11bd 2b85 8ebd c8a2 42bd
00000360: 55ec efb5 5fc7 ac34 9d7a 2db6 ff84 3bb6
00000370: 96bd ed33 2151 5135 1d2c 21b6 4fa6 6734
00000380: 035c dab6 e8b4 f0ba 66aa 65bb 6131 33c0
00000390: 77ec e9ba 670f 26bb d813 f3bf 2491 beb8
000003a0: 4663 fdba 1f82 16c0 0aff b4ba 6032 f53a
000003b0: 235e 8a3b 66c5 92ba 2f14 8d3e da76 dd3a
000003c0: 95eb 17bb c66f 10b9 b69b 9d3a ce66 c9ba
000003d0: bc8b 0439 fb13 caba 3fec 06bb cc30 85ba
000003e0: 807f beba a18e 2d3b 5bbf 003a a788 bfba
000003f0: b120 0a3d e76c c5bc 3ecb e3bd 472b 8f3d

2.bias f4 [16]
0.10075864 -0.07250339 -0.14606479 -0.024964958 -0.09515973 -0.10350969 -0.006131632 0.19635125
-0.016387604 -0.09667206 0.098524936 0.08837383 -0.16340531 0.16617212 -0.052692357 0.17080954
00000000: 8c5a ce3d a87c 94bd 0292 15be 5083 ccbc
00000010: 1be3 c2bd e3fc d3bd dbeb c8bb 4d10 493e
00000020: 4c3f 86bc 00fc c5bd 71c7 c93d 57fd b43d
00000030: b953 27be 0629 2a3e f1d3 57bd b2e8 2e3e

4.weight f4 [16, 16, 4, 4]
-0.0005986403 -1.8941175 0.0002911099 -0.00035038948 0.00025145523 0.00023388494 -2.0476103 -0.008550782
0.0018203845 0.00030368325 -0.015427947 -0.26687446 0.0013146603 -0.0020322115 -0.0096495785 -0.9985339
0.096008375 0.18470985 -0.10155855 -0.1009409 0.14439687 0.17386943 0.13262823 0.094798945
-0.22826518 -0.0690167 -0.1489136 0.109285116 -0.21445417 -0.2330521 -0.083938055 -0.09644233
0.01555987 -5.685463e-07 -7.243944e-08 -0.05291347 0.01222176 -0.074141696 0.028518502 -0.005750297
0.0062225885 -0.099232145 -0.11153952 -0.05158268 -0.052189566 -0.07958728 -0.058777466 -0.1630897
0.002682218 0.0008381401 -0.00039735396 -5.982565e-05 0.00024793518 0.0012472033 -0.0004820574 -9.433843e-05
0.00022579204 -0.0048315725 0.00054785766 5.7998976e-05 -1.852627 -0.027896572 0.00025655585 0.0022628733
-0.19352752 -0.15445171 -0.00096115324 -0.06178857 0.070713885 -0.055325165 0.07753416 0.16080402
-0.09712964 0.027494466 0.00975128 0.028800055 -0.0139295375 -0.032513186 -0.014086347 -0.027694928
-0.11794766 -0.08923806 -0.24949044 -0.22278279 0.0047430997 -0.09126316 -0.056614257 -0.005936517
-0.0024627533 -9.094177e-06 0.005516901 -0.005456287 -0.077116214 -0.11172626 -0.01832652 0.11138041
-0.00014793068 0.0014285735 -0.008364825 0.00011623662 0.0027048748 7.339054e-05 0.0014744649 -0.008518423
0.001750535 0.0036050715 -0.0001559932 0.0009399647 0.00026579955 0.0010978447 -0.005339058 0.00031094154
0.00031467935 -0.004635545 -0.989848 -0.6372113 0.0056045614 -0.00049073674 0.00048682478 -1.1315292
0.2540755 0.00016739381 -4.9050468e-05 -1.0852561 7.467585e-05 -0.002231815 -0.0036524548 -1.1980344
0.0028411017 0.0019196554 0.0018728583 0.0003825455 0.0024790622 0.0008945773 -3.6720685e-05 0.00014103124
0.0004446849 0.00017185608 -0.002088863 -0.002404065 0.000614387 -0.00064940413 -0.0017783572 0.0004127646
-0.13801888 -0.16496913 -0.11105386 -0.19787782 0.04089979 -0.03952008 -0.038353115 -0.18769161
-0.04632604 -0.06984417 -0.049060065 -0.12962756 -0.17820719 0.10166024 -0.10590819 -0.020938896
-0.13162413 -0.0046021184 0.0001896344 -0.0013444803 0.0018469575 -0.0038764423 2.9322378e-05 0.00097044726
-0.00042733515 0.0005019338 -0.007785979 0.00026509826 -0.0015620169 -0.0008428553 -0.0074183904 -0.003631128
-0.0013405089 -0.023508735 -0.16930255 -0.6804818 -9.099268e-05 0.00018534804 9.8571225e-05 -0.0005117462
0.0016572137 0.0003466887 0.00021787791 -0.0008663089 0.55896693 0.31654093 0.307996 2.734266e-06
-0.034895137 -0.027245514 -0.0075558736 0.13740201 0.12065291 0.080428526 -0.026226368 -0.022982784
0.073320314 0.065140665 0.086657755 0.008314337 0.08493482 0.12460237 -0.08769296 -0.15419331
-0.5835947 -0.001517795 -0.006270253 -0.0036741376 -0.005705859 -0.2731428 -0.005633409 -3.358214e-05
-0.00022843531 -0.005641171 -0.041034654 -0.00020208843 0.033022527 0.0002695924 -0.010528618 -0.221589
0.2525732 0.27430305 -0.0021717774 -0.091752484 1.9281693e-05 2.5638776e-05 -3.878977e-05 -0.16381834
-7.196803e-06 2.5680461e-05 -0.00083011977 -0.045938946 -0.0009355511 -1.6748761e-05 -1.6926451e-05 -0.0035217965
-1.5483792 -1.5837692 -0.803478 -0.75267446 -0.0002660354 0.0010885776 -0.0033901401 -0.92245656
0.00057552545 0.00031047745 0.0008227447 0.0005638376 0.002001068 -0.00022968884 0.0012405317 -0.00024220874
00000000: 12ee 1cba 7172 f2bf 1ca0 9839 7bb4 b7b9
00000010: c0d5 8339 033f 7539 0c0c 03c0 9418 0cbc
00000020: f899 ee3a ad37 9f39 80c5 7cbc c5a3 88be
00000030: ae50 ac3a da2e 05bb 4419 1ebc eb9f 7fbf
00000040: 0aa0 c43d 9424 3d3e eefd cfbd 1aba cebd
00000050: c6dc 133e d40a 323e b2cf 073e f325 c23d
00000060: 59be 69be a158 8dbd cf7c 18be e0d0 df3d
00000070: e099 5bbe 36a5 6ebe b7e7 abbd 8e83 c5bd
00000080: d3ee 7e3c 349e 18b5 0190 9bb3 cbbb 58bd
00000090: c73d 483c 9ad7 97bd a29f e93c fd6c bcbb
000000a0: dbe6 cb3b 393a cbbd d56e e4bd 5c48 53bd
000000b0: bac4 55bd a8fe a2bd a4c0 70bd fc00 27be
000000c0: 27c8 2f3b a1b6 5b3a f253 d0b9 4ded 7ab8
000000d0: 4cfd 8139 3379 a33a a6bc fcb9 8fd7 c5b8
000000e0: 97c2 6c39 2b52 9ebb 1b9e 0f3a ed43 7338
000000f0: e222 edbf 5a87 e4bc 5882 8639 b74c 143b
00000100: 142c 46be 9728 1ebe e7f5 7bba 0316 7dbd
00000110: 71d2 903d a49c 62bd 3bca 9e3d cfa9 243e
00000120: e8eb c6bd 133c e13c d5c3 1f3c 18ee eb3c
00000130: b738 64bc 8c2c 05bd 6cca 66bc 79e0 e2bc
00000140: 8b8e f1bd 72c2 b6bd 6c7a 7fbe 2c21 64be
00000150: 016c 9b3b 2ee8 babd 5ae4 67bd 1d87 c2bb
00000160: 2566 21bb 3193 18b7 1fc7 b43b a7ca b2bb
00000170: 1bef 9dbd bdd0 e4bd 8021 96bc 6a1b e43d
00000180: d71d 1bb9 f93e bb3a 9e0c 09bc 0fc4 f338
00000190: 4544 313b 3fe9 9938 d542 c13a db90 0bbc
000001a0: 3572 e53a 1043 6c3b 1b92 23b9 f767 763a
000001b0: 035b 8b39 8ee5 8f3a 44f3 aebb de05 a339
000001c0: 8cfb a439 c5e5 97bb ae66 7dbf 4820 23bf
000001d0: 78a6 b73b c9a4 00ba 843c ff39 f3d5 90bf
000001e0: 2f16 823e 6f86 2f39 8abb 4db8 ace9 8abf
000001f0: 4b9b 9c38 a443 12bb 065e 6fbb 3159 99bf
00000200: c731 3a3b f29c fb3a b27a f53a 6390 c839
00000210: c377 223b 1182 6a3a 8904 1ab8 c9e1 1339
00000220: 9924 e939 4434 3439 4ee5 08bb 858d 1dbb
00000230: d00e 213a c63c 2aba c417 e9ba 5468 d839
00000240: d254 0dbe abed 28be 3570 e3bd 7ca0 4abe
00000250: 8a86 273d cfdf 21bd 2818 1dbd 3b32 40be
00000260: 60c0 3dbd 760a 8fbd 35f3 48bd 16bd 04be
00000270: f27b 36be 3e33 d03d 65e6 d8bd 0c88 abbc
00000280: 7ac8 06be 5ecd 96bb 99d8 4639 4639 b0ba
00000290: 9c15 f23a e90b 7ebb 54f9 f537 9d65 7e3a
000002a0: f40b e0b9 3594 033a 8721 ffbb e3fc 8a39
000002b0: 97bc ccba 10f3 5cba f815 f3bb 38f8 6dbb
000002c0: 04b4 afba 6495 c0bc a65d 2dbe 0e34 2ebf
000002d0: 53d3 beb8 fc59 4239 06b8 ce38 b526 06ba
000002e0: dd36 d93a c5c3 b539 2876 6439 0219 63ba
000002f0: 7518 0f3f a711 a23e a7b1 9d3e 557e 3736
00000300: 34ee 0ebd fc31 dfbc 4397 f7bb 1db3 0c3e
00000310: df18 f73d b6b7 a43d aed8 d6bc 6446 bcbc
00000320: f628 963d 7868 853d 9f79 b13d db38 083c
00000330: 4ff2 ad3d 872f ff3d 5e98 b3bd dae4 1dbe
00000340: 7666 15bf c0f0 c6ba b276 cdbb cdc9 70bb
00000350: 37f8 babb 60d9 8bbe 7698 b8bb 8cda 0cb8
00000360: 2388 6fb9 92d9 b8bb f413 28bd b3e7 53b9
00000370: a142 073d 1458 8d39 3980 2cbc 3ae8 62be
00000380: 4651 813e 7371 8c3e 6154 0ebb bae8 bbbd
00000390: 1fbf a137 da12 d737 33b2 22b8 ffbf 27be
000003a0: 117c f1b6 5f6c d737 659c 59ba 7a2a 3cbd
000003b0: c63f 75ba b17f 8cb7 47fd 8db7 f1cd 66bb
000003c0: 4a31 c6bf f3b8 cabf bcb0 4dbf 46af 40bf
000003d0: ab7a 8bb9 9aae 8e3a 1d2d 5ebb 1d26 6cbf
000003e0: dcde 163a 94c7 a239 76ad 573a 80ce 133a
000003f0: 5a24 033b a1d8 70b9 5699 a23a 6af9 7db9

4.bias f4 [16]
0.043738686 0.08104754 -0.18930803 -0.0007142576 -0.08903016 0.016664308 -0.10737363 -0.09186775
-0.27512386 -0.2756387 -0.13952005 0.12539074 -0.1193597 -0.36253184 0.20806435 -0.039376978
00000000: 5627 333d 41fc a53d f7d9 41be 043d 3bba
00000010: 7255 b6bd 9683 883c b5e6 dbbd 2925 bcbd
00000020: 09dd 8cbe 8420 8dbe 58de 0ebe 6e66 003e
00000030: dc72 f4bd c69d b9be d20e 553e c149 21bd

7.weight f4 [128, 784]
-0.13746594 0.024361886 0.05256758 0.7071075 0.32341972 -0.14601894 -0.1252396 0.08324055
-0.2735329 0.0007244742 0.029498497 1.3185706 1.0163308 0.036190573 0.042112187 0.011510187
0.0028150582 0.0008056822 1.1867757 2.1215224 0.001593053 -0.14878653 0.9479697 0.16147205
0.0009899439 0.6609521 0.027555443 0.0041897106 -0.053455215 0.68999034 0.002464059 0.0014565678
-0.0015878886 -0.011652495 0.010764689 0.09556037 0.015260004 0.0045372522 0.0043901578 -0.008391979
1.0688201 -0.08996225 0.14141765 0.024444439 0.007669167 4.8051297e-05 0.11999745 0.014101104
0.16336755 -0.11338068 -0.07714038 0.027700555 0.31783745 0.09724404 0.00025921068 -0.0828483
-0.060839962 -0.0014483525 -0.0013095206 0.0008694284 -0.00032559317 -0.003655789 0.037129216 0.010069309
-0.016328147 0.2875007 0.0010660883 0.0046384456 0.56889516 0.004142105 0.0065340335 0.90039027
1.329322 0.00081482745 0.005112765 0.014267069 0.002856209 -0.00015317558 1.6199511 -0.0008325933
0.00036597028 0.00088140124 0.0027768475 0.054885663 0.0008397426 0.00023205401 0.0033832958 -0.0006185129
-0.0049596545 0.02596414 0.0057646786 -0.12013823 0.06616215 0.087780826 -0.07823365 0.063775845
-0.06576396 -0.020665646 -0.12471962 -0.27539033 -0.123987116 -0.101380706 0.17102087 0.19076909
0.072822504 -0.03885456 -0.17237042 0.05208382 -0.10709875 0.10025834 0.051374722 0.010471271
-0.09662625 -0.015962694 -0.18552026 0.0005428032 0.094236456 0.18336535 0.12829699 -0.17268518
0.09644227 0.005764256 -0.027971786 -0.0086198645 -0.03845061 0.13215052 0.010021137 0.058702573
0.09842188 -0.23002528 0.0013274252 0.12084406 0.05332655 -0.07083483 0.13007824 0.057560254
0.032057237 -0.09382425 -0.031016596 0.07426902 -0.13979408 0.012901008 -0.046816714 0.16563654
0.065059975 0.049131278 -0.0057468726 0.06761985 0.024711533 0.36971945 -0.7625178 0.004939189
0.51766706 0.14775395 -0.003319602 -0.0012465564 -0.00015666107 -0.0053782132 -0.24447212 -0.0026729624
0.0021700978 0.0034635246 -0.004302176 0.0047110245 -0.20116612 0.0019550812 0.006364375 0.0067142034
-0.025773562 0.9804609 -0.0002502104 -0.010159314 0.5393178 -0.0006196872 0.024217185 0.44024363
0.012873274 -0.0011962102 -0.009312973 0.013453911 0.020926632 0.010784821 -0.0031017119 -0.00013356062
0.0016235404 0.012443666 1.4624382 0.017002817 0.014283088 0.1750886 0.0016693592 0.0069149854
-0.06352028 -0.010532446 -0.0052430998 0.11663615 -0.026199996 -0.12283538 -0.012008281 0.1390045
0.38194352 -0.009746487 0.0680253 -0.1511247 0.015161333 0.25554523 0.052596435 0.04292165
-0.054327056 -0.13590512 -0.03158609 -0.065599695 -0.017411016 0.0029469503 0.098926365 -0.0049123466
0.078259446 -0.036704347 -0.004021611 -0.13734753 0.017231448 -0.011877811 -0.08719886 -0.1633483
0.10929689 0.050161943 0.022809036 -0.06222149 -0.028661756 0.005647473 0.055652447 -0.05678962
-0.019584846 0.06947782 0.020029401 0.20623267 -0.0046017612 0.17475016 0.025722332 0.16209178
-0.17449535 0.19325523 0.073587745 -0.058254093 -0.019574147 0.019036435 0.011581025 0.4708063
0.22088811 0.43766105 0.0058014253 0.02908652 -0.1930751 -0.021385971 0.5541455 0.8055188
00000000: dfc3 0cbe 9492 c73c 1a51 573d ff04 353f
00000010: 4597 a53e fd85 15be cf3e 00be 057a aa3d
00000020: 810c 8cbe a4ea 3d3a d5a6 f13c ecc6 a83f
00000030: 2117 823f 913c 143d d47d 2c3d 3995 3c3c
00000040: d77c 383b 6b34 533a 44e8 973f 06c7 0740
00000050: fdcd d03a 7f5b 18be 24ae 723f ee58 253e
00000060: 01c1 813a 2834 293f f4bb e13c d749 893b
00000070: dbf3 5abd 35a3 303f 0d7c 213b 4eea be3a
00000080: b320 d0ba 1bea 3ebc 615e 303c 28b5 c33d
00000090: 1905 7a3c 3bad 943b 50db 8f3b 837e 09bc
000000a0: 19cf 883f 213e b8bd cacf 103e b43f c83c
000000b0: a34d fb3b b08a 4938 39c1 f53d 5108 673c
000000c0: d349 273e 2134 e8bd c7fb 9dbd 46ec e23c
000000d0: 97bb a23e e227 c73d abe6 8739 5fac a9bd
000000e0: 5333 79bd a5d6 bdba 38a4 abba 5aea 633a
000000f0: 60b4 aab9 f695 6fbb ce14 183d bef9 243c
00000100: 9bc2 85bc 4b33 933e fdbb 8b3a 1afe 973b
00000110: 1da3 113f 7fba 873b 721b d63b fa7f 663f
00000120: 3927 aa3f 259a 553a fb88 a73b 6dc0 693c
00000130: 3c2f 3b3b c29d 20b9 8f5a cf3f 6442 5aba
00000140: b3df bf39 d60d 673a c5fb 353b cacf 603d
00000150: 2c22 5c3a 8653 7339 49ba 5d3b b323 22ba
00000160: 9984 a2bb c0b2 d43c a1e5 bc3b 080b f6bd
00000170: 0580 873d 6fc6 b33d f738 a0bd e99c 823d
00000180: 41af 86bd 004b a9bc 006d ffbd f6ff 8cbe
00000190: f5ec fdbd b0a0 cfbd 1820 2f3e f958 433e
000001a0: f723 953d f625 1fbd df81 30be d855 553d
000001b0: 9756 dbbd 3f54 cd3d 4d6e 523d b28f 2b3c
000001c0: fce3 c5bd 32c4 82bc 06f9 3dbe e84a 0e3a
000001d0: 0bff c03d 20c4 3b3e 4960 033e 62d4 30be
000001e0: 8683 c53d 16e2 bc3b 1625 e5bc 553a 0dbc
000001f0: 637e 1dbd 7752 073e b22f 243c 1c72 703d
00000200: 6991 c93d bf8b 6bbe 00fd ad3a 177d f73d
00000210: f16c 5a3d da11 91bd 3b33 053e 4dc4 6b3d
00000220: 734e 033d ee26 c0bd 8416 febc 5b1a 983d
00000230: 2e26 0fbe c05e 533c e2c2 3fbd a09c 293e
00000240: 2a3e 853d e13d 493d 4350 bcbb 477c 8a3d
00000250: d76f ca3c de4b bd3e 5e34 43bf ecd8 a13b
00000260: d485 043f d04c 173e ae8d 59bb 7e63 a3ba
00000270: 6345 24b9 b93b b0bb e656 7abe de2c 2fbb
00000280: 3338 0e3b 4dfc 623b 45f9 8cbb f05e 9a3b
00000290: 7efe 4dbe d220 003b 3f8c d03b d202 dc3b
000002a0: 1423 d3bc 7cff 7a3f ac2e 83b9 4073 26bc
000002b0: bb10 0a3f 8172 22ba 1e63 c63c 9d67 e13e
000002c0: 6dea 523c 27ca 9cba 7195 18bc cb6d 5c3c
000002d0: 546e ab3c d1b2 303c 1746 4bbb 680c 0cb9
000002e0: facc d43a 85e0 4b3c 2d31 bb3f 7e49 8b3c
000002f0: 9d03 6a3c 6d4a 333e 66ce da3a 1a97 e23b
00000300: ec16 82bd 4890 2cbc 4fce abbb efde ee3d
00000310: 60a1 d6bc 1e91 fbbd 62be 44bc 3257 0e3e
00000320: 1a8e c33e bbaf 1fbc d950 8b3d 6fc0 1abe
00000330: 3d67 783c d3d6 823e 5c6f 573d 9dce 2f3d
00000340: 0c86 5ebd b62a 0bbe 6a60 01bd 2259 86bd
00000350: 8ca1 8ebc 9f21 413b e899 ca3d c0f7 a0bb
00000360: 7d46 a03d 4c57 16bd b8c7 83bb d5a4 0cbe
00000370: f728 8d3c 269b 42bc 5195 b2bd c744 27be
00000380: 0cd7 df3d 9c76 4d3d 04da ba3c f6db 7ebd
00000390: 0fcc eabc 700e b93b d2f3 633d 3c9c 68bd
000003a0: 6670 a0bc 634a 8e3d b314 a43c a82e 533e
000003b0: 5fca 96bb b5f1 323e a4b7 d23c 63fb 253e
000003c0: e9ae 32be b3e4 453e 2cb5 963d d89b 6ebd
000003d0: f659 a0bc 4cf2 9b3c 57be 3d3c 860d f13e
000003e0: 7e30 623e 1c15 e03e e219 be3b db46 ee3c
000003f0: 7bb5 45be a231 afbc 7bdc 0d3f 7b36 4e3f

7.bias f4 [128]
0.07712416 0.019936323 0.00019928986 0.0008455265 0.006731838 -0.0010781746 -0.1432176 -0.038065173
-0.15671033 0.21459176 -0.009724358 0.045253336 0.10671339 -0.24222164 0.15522932 0.1305981
-0.000744359 -0.0119405445 -0.0009386569 -0.0361594 0.23292042 0.3102136 -0.05389943 -0.003558612
-0.21832158 -0.09984024 -0.043576736 0.045798823 0.056689665 0.059881676 0.0035003633 0.03074452
0.12027166 0.08742374 0.026359823 0.15898168 0.0014182811 -0.2575344 0.084736034 -0.2335457
0.2367444 0.051059134 0.14789158 0.011961519 -0.00011823911 -0.2646556 -0.080969475 0.00430918
-5.3027896e-05 -0.09104463 0.065167144 -0.025467752 0.11503791 0.030280676 0.07864394 0.22357674
0.07191423 -0.15117663 -0.17440571 0.269373 -0.027898997 -0.0033853934 -0.17209056 0.0013676401
9.533285e-05 0.26394427 0.087741606 -0.18110977 -0.08564684 0.08961939 0.22644404 0.00026675995
0.21744733 -0.02890289 0.13267069 -0.13887964 -0.20965935 -0.0011151365 0.2311021 0.13537364
-0.069465645 0.05106129 0.3061196 -0.10811516 0.2299357 -0.00068396213 -0.10943084 0.10219808
0.08211411 0.095443755 -0.03433863 0.017335441 -0.13163023 -0.078467526 0.11790421 0.07457651
-0.19373254 -0.011089841 -0.0046675405 0.22418566 -0.032051496 0.18493032 0.0013726028 -0.008383744
-0.163347 -0.08312154 0.15530016 -0.054772887 0.13719557 0.2954318 -0.14116433 -0.02336009
0.017914409 0.16031434 0.029103685 -0.016916871 -0.12662756 0.18180215 0.03126872 -0.0802486
-0.18275502 0.0067548472 -0.023031166 -0.002496552 0.009189248 0.088986024 0.0014870102 -0.20230609
00000000: 46f3 9d3d 8051 a33c 77f8 5039 53a6 5d3a
00000010: c096 dc3b 8951 8dba a2a7 12be 3aea 1bbd
00000020: ac78 20be f1bd 5b3e ea52 1fbc 905b 393d
00000030: 8d8c da3d f308 78be 6ff4 1e3e 82bb 053e
00000040: 1621 43ba 46a2 43bc 3310 76ba e11b 14bd
00000050: b182 6e3e 51d4 9e3e a6c5 5cbd 9a37 69bb
00000060: b18f 5fbe 0a79 ccbd 857d 32bd 8c97 3b3d
00000070: 6c33 683d 7d46 753d 5a66 653b eedb fb3c
00000080: fd50 f63d 380b b33d 8ef0 d73c 18cc 223e
00000090: 9ee5 b93a 8ddb 83be 168a ad3d 9b26 6fbe
000000a0: 206d 723e 6223 513d e470 173e 3ffa 433c
000000b0: 24f7 f7b8 f080 87be 53d3 a5bd 0634 8d3b
000000c0: 456a 5eb8 9b75 babd 5a76 853d bfa1 d0bc
000000d0: ff98 eb3d 2e0f f83c 1310 a13d 4df1 643e
000000e0: c547 933d 0cce 1abe 6997 32be 42eb 893e
000000f0: 708c e4bc 7add 5dbb 8238 30be 6342 b33a
00000100: 6fed c738 b423 873e dfb1 b33d d774 39be
00000110: 9c67 afbd 5f8a b73d f2e0 673e eadb 8b39
00000120: 83aa 5e3e c1c5 ecbc d3da 073e 7736 0ebe
00000130: f1b0 56be c629 92ba 07a6 6c3e 639f 0a3e
00000140: 0144 8ebd a525 513d b5bb 9c3e 7b6b ddbd
00000150: 4474 6b3e ec4b 33ba 471d e0bd 3a4d d13d
00000160: 712b a83d 0478 c33d aaa6 0cbd 0e03 8e3c
00000170: 13ca 06be 95b3 a0bd c377 f13d 92bb 983d
00000180: d361 46be 2ab2 35bc 2bf2 98bb ed90 653e
00000190: 6e48 03bd 605e 3d3e e8e8 b33a f95b 09bc
000001a0: 7044 27be a03b aabd 0107 1f3e 8959 60bd
000001b0: ff7c 0c3e d642 973e 628d 10be a95d bfbc
000001c0: 3dc1 923c 7129 243e da6a ee3c 4095 8abc
000001d0: a8aa 01be 582a 3a3e a113 003d 6159 a4bd
000001e0: 2224 3bbe c457 dd3b dbab bcbc 319d 23bb
000001f0: 808e 163c 4e3e b63d c8e7 c23a 5429 4fbe

8.weight f4 [10, 128]
-8.2548635e-05 -0.0007674509 -0.00021313987 -9.8014105e-05 0.000110737434 1.7693346e-05 -0.00034216658 -0.0001453
-0.0007049659 0.000752977 -0.00054423814 -0.00091635523 0.0005820203 0.00045392883 0.00035900855 -0.00021454567
-7.2965086e-05 -0.0009722649 -0.0001234898 0.00044762524 0.00028668036 -1.0509032 0.00023844745 2.551714e-05
0.96811175 -0.00081162417 -0.00031875877 0.00044352148 0.0003285241 0.0006199563 -0.002328392 0.0001051349
0.00041621138 0.00036966623 0.00036975663 -0.00047725323 -0.00022999092 1.2618403 0.0009325269 7.158817e-06
0.00037740567 0.0003114431 0.0003604587 0.0011490128 -0.000103981605 -0.00029315372 -0.00062056474 0.00052243884
-0.00016158228 0.00017733478 -0.00013954905 0.00013331004 -8.338289e-05 0.00026530187 -8.119593e-07 -1.4236392
0.00030589028 1.7305538e-05 -0.00028665885 -1.8692721 -0.00076159433 -1.0968734e-05 -0.00079431484 7.1523755e-05
-2.4174034e-05 -1.3809965 0.00021245955 0.00023122736 0.00022637339 0.0004736601 -0.0003856831 -3.8601018e-05
-0.00027242684 0.00031549664 -0.00021212509 0.0009171292 0.58543485 -1.7004497e-05 1.3005727e-05 0.00020537492
-0.0002520287 -0.00059846067 0.0003748532 -0.000278008 0.00018005108 4.879417e-05 -0.00056624156 -0.0002632227
-0.00024232635 0.00021600617 -0.0022235136 -2.4112938e-05 -0.000468785 0.0002217977 0.00064159825 -0.00091787556
0.00015293219 0.0002811623 -0.0002826505 -1.492635 -0.00011745565 0.00016344308 -0.0004405593 0.0009651425
-0.00047322156 -0.00025848462 0.00022697326 6.8241934e-05 0.00031722727 -0.2306612 0.0002757507 2.1112955e-05
-0.00047741595 0.0004784853 -0.000626237 0.000698941 -0.0002886188 -9.62142e-06 0.00012463542 0.00027327097
-0.00017518298 0.00025922214 0.00059610046 5.3191416e-05 -0.0009789004 -0.00011609344 0.00024404134 -0.00013585914
-2.065045 -0.79542315 0.00020829405 -0.0001418994 -0.00067467795 0.00018110055 -5.691587e-05 9.244677e-05
0.00012198878 -0.0010994851 -0.0019237024 -0.0023518377 0.0001081456 -0.0003537958 0.002094918 -0.0010943615
0.0001690662 0.0013034638 -0.0002822047 0.00074223423 0.0017736274 0.001331085 1.2749552 -0.00042467198
0.0010322279 -0.0020891754 -9.886753e-05 -0.0005180539 3.0107717e-06 -0.7876408 -0.00086833216 0.0010224746
-0.0011353114 -9.986272e-05 -0.00068548607 0.0009834971 2.9471828e-05 -0.0003612696 0.003728297 -0.0015603472
0.00083040434 0.00039242502 0.00129049 -0.00020296616 0.0014011225 -8.558748e-05 -0.002787956 1.4606867
0.0021000435 0.0005529668 0.0002718522 -0.0019469806 -0.00031934923 -0.008439794 0.002529275 0.0016389576
0.0011671301 9.742634e-06 0.0004369103 0.00082748174 0.69876564 -0.0007827613 0.00087264186 -0.001604111
-2.0172974e-05 0.0010522865 0.0020490927 -0.00014152125 0.21844943 0.00036920595 0.0017546788 -2.4122026e-05
0.002583511 -0.0018500747 -3.5499463e-05 -0.003505151 -0.00047454503 7.608067e-05 0.0021178161 0.0010941728
-0.0019205209 0.0005123142 9.599077e-06 -0.00072204106 0.0016837491 -0.000108598 -0.0015510349 0.0033263643
-1.1299088 1.4551814e-05 -0.003052167 0.0006430434 -0.001477694 0.002603375 0.001304343 0.0009011227
0.0010537533 0.0017337153 0.0026240465 0.00031932007 0.0014623875 0.001360235 0.00078544434 0.002364939
-0.0003783775 -0.0028425942 0.00035593554 -0.0026703351 -7.195208e-05 -0.00032314798 0.00090259133 -3.8319264e-05
0.0005756162 0.0021932828 -1.2118886 0.000173317 -0.0019633025 0.0014202876 -0.0017577189 1.3774866
-0.0017546193 -0.0013521556 1.8274612 0.0002516986 0.0014201433 0.0023368814 0.00031681318 -0.00078276056
00000000: f61d adb8 c22e 49ba 4c7e 5fb9 ec8c cdb8
00000010: b53b e838 2c6c 9437 d264 b3b9 ac5b 18b9
00000020: 76cd 38ba 6e63 453a 34ab 0eba 8f37 70ba
00000030: b992 183a 4cfd ed39 5039 bc39 aaf7 60b9
00000040: d504 99b8 98df 7eba 0a7d 01b9 3eaf ea39
00000050: 964d 9639 ff83 86bf c007 7a39 a40d d637
00000060: 2cd6 773f 2dc3 54ba 141f a7b9 7288 e839
00000070: c23d ac39 9084 223a ef97 18bb df7b dc38
00000080: f236 da39 c3cf c139 e5db c139 d837 fab9
00000090: b829 71b9 fc83 a13f d274 743a c535 f036
000000a0: 88de c539 2f49 a339 f3fb bc39 799a 963a
000000b0: b310 dab8 6db2 99b9 65ad 22ba 47f4 083a
000000c0: 6a6e 29b9 f1f2 3939 ea53 12b9 24c9 0b39
000000d0: d9dd aeb8 3718 8b39 6bf5 59b5 cf39 b6bf
000000e0: e65f a039 5c2b 9137 b34a 96b9 4f44 efbf
000000f0: bba5 47ba 5b06 38b7 9139 50ba 06ff 9538
00000100: 58c9 cab7 7ec4 b0bf adc7 5e39 9f75 7239
00000110: a55e 6d39 9555 f839 8235 cab9 87e7 21b8
00000120: 83d4 8eb9 3e69 a539 e56d 5eb9 806b 703a
00000130: 0fdf 153f e1a4 8eb7 2c33 5a37 e959 5739
00000140: b822 84b9 04e2 1cba f287 c439 9ac1 91b9
00000150: 18cc 3c39 57a8 4c38 d46f 14ba 2701 8ab9
00000160: fc18 7eb9 b77f 6239 5eb8 11bb 2446 cab7
00000170: 42c7 f5b9 5e92 6839 ee30 283a 969d 70ba
00000180: 6c5c 2039 f768 9339 b530 94b9 aa0e bfbf
00000190: 8652 f6b8 eb61 2b39 defa e6b9 9e01 7d3a
000001a0: b91a f8b9 3885 87b9 acff 6d39 1c1d 8f38
000001b0: 8651 a639 7332 6cbe a292 9039 ba1b b137
000001c0: af4d fab9 36dd fa39 0e2a 24ba 2339 373a
000001d0: c251 97b9 af6b 21b7 91b0 0239 cf45 8f39
000001e0: 53b1 37b9 35e8 8739 a043 1c3a d919 5f38
000001f0: 724e 80ba 3177 f3b8 59e5 7f39 6975 0eb9
00000200: b329 04c0 daa0 4bbf 8269 5a39 d5ca 14b9
00000210: dfdc 30ba cfe5 3d39 f3b8 6eb8 fbdf c138
00000220: 3ad4 ff38 991c 90ba be24 fcba 4a21 1abb
00000230: 3acc e238 ab7d b9b9 e44a 093b ae70 8fba
00000240: 5d47 3139 fdd8 aa3a e0f4 93b9 7f92 423a
00000250: 0f79 e83a cd77 ae3a bb31 a33f 82a6 deb9
00000260: d24b 873a 8cea 08bb 1a57 cfb8 02ce 07ba
00000270: aa0c 4a36 d4a2 49bf c9a0 63ba 8e04 863a
00000280: bbce 94ba 646d d1b8 31b2 33ba b0e8 803a
00000290: 453a f737 c968 bdb9 7256 743b 9084 ccba
000002a0: 7eaf 593a 65be cd39 a925 a93a 50d3 54b9
000002b0: dfa5 b73a 6e7d b3b8 24b6 36bb c8f7 ba3f
000002c0: e2a0 093b f9f4 103a 6287 8e39 d431 ffba
000002d0: 546e a7b9 1047 0abc 31c2 253b 4bd2 d63a
000002e0: 63fa 983a 4b74 2337 1c11 e539 5ceb 583a
000002f0: 4ee2 323f 3932 4dba 01c2 643a 0941 d2ba
00000300: 2239 a9b7 e0ec 893a 124a 063b 5265 14b9
00000310: 35b1 5f3e fc91 c139 40fd e53a a859 cab7
00000320: 1f50 293b 357e f2ba 42e5 14b8 adb6 65bb
00000330: 5bcc f8b9 808d 9f38 0fcb 0a3b 596a 8f3a
00000340: fdb9 fbba d34c 063a b90b 2137 5b47 3dba
00000350: 3fb1 dc3a 1bbf e3b8 184c cbba 22ff 593b
00000360: daa0 90bf 9123 7437 dd06 48bb e991 283a
00000370: 2faf c1ba 629d 2a3b 7df6 aa3a 5239 6c3a
00000380: 181e 8a3a d53d e33a 32f8 2b3b 6a6a a739
00000390: 95ad bf3a ea49 b23a 47e6 4d3a 18fd 1a3b
000003a0: f860 c6b9 d14a 3abb dc9c ba39 ca00 2fbb
000003b0: fbe4 96b8 306c a9b9 e19b 6c3a ffb8 20b8
000003c0: f3e4 163a 2ebd 0f3b 2a1f 9bbf 6ebc 3539
000003d0: c0aa 00bb f228 ba3a 4263 e6ba 7b51 b03f
000003e0: 41fb e5ba d03a b1ba 40ea e93f 6af6 8339
000003f0: 1a24 ba3a 5d26 193b f219 a639 2c32 4dba

8.bias f4 [10]
-0.33834928 -0.08823109 0.036490705 0.117400855 -0.020331789 0.17994155 -0.058769923 0.12523359
-0.08132459 -0.0015018657
00000000: 1e3c adbe 80b2 b4bd 4777 153d dc6f f03d
00000010: da8e a6bc 9942 383e bbb8 70bd 3c3d 003e
00000020: 828d a6bd 40da c4ba
