project_networks/mnist_cnn_3layer_k5_w2.onnx (onnx, 331989 bytes, 10 tensors)

0.weight f4 [8, 1, 5, 5]
00000000: 9345 8dbc 3f2a 95bb 5cd0 b7bc f291 aebb
00000010: 447e 8fbb 11bf f9bb 6d0c 16bc 8e08 d6bb
00000020: 0a45 89bc 58b2 8dbc 6901 6e3b 84cb 1ebc
00000030: b4f1 05bd 0711 f8bc e12f 82bc 8b26 cabb
00000040: 407a 2dbb 6d0b 85bc 1988 7dbd d7e6 003d
00000050: 981f 2dbc 65da 243c 9dd7 26bd 5e3f 2abd
00000060: 07d6 603d f3ce a3bb be1a a8bb d5c3 03bc
00000070: f0f7 41bc 4158 293d f182 b7bb dd66 c8bb
00000080: 3450 d4bb 951d 05bc 102a 23bc 5e57 e0bb
00000090: 7100 c3bb 3b7b 9ebb 32b2 d3bb 2e05 0bbc
000000a0: aa8e f6bb bce4 febb fdfa 86bd 7ba9 0dbc
000000b0: b2ec 1bbc 7cb8 f6bb 2ca9 f4bb 06de bbbb
000000c0: 45a8 1cbc 70e3 30bc 22f0 13bc 3400 21bc
000000d0: 270f 0cbc 8085 f1bb 6975 b9bb 448a 4bbc
000000e0: df2a 5fbc b025 40bc 094b 1abc 93d6 f6bb
000000f0: 8c91 00bd c75e d93d d8e8 84bc 9351 2ebc
00000100: bf99 07bc bde4 8abc 7934 94bc ae05 2fbc
00000110: 9661 ccbb 10fb a8bb c3f0 4ebc dcca 00be
00000120: 3e88 ffbb 4f0a ddbb 0513 b4bb e317 e3bb
00000130: 79e6 81bb a831 edbb a90d a3bb 4408 ebba
00000140: cf95 fdbb 9c90 05bc f1ef 17bc d5d5 a1bd
00000150: 2a2b 37bb d2a5 1ebc d06e 40bc ef86 6a3d
00000160: 363b 42bc 21ff 02bc 2ccb 03bc c4e0 2bbc
00000170: 2667 27bc fa34 dcbb 2d0e a1bb acfb 0abc
00000180: 8f19 13bc 263e f3bb 0a61 87bb 244d a9bb
00000190: 32d5 b2ba c8df c0ba ac21 baba 508a 4fbb
000001a0: 0cb7 bdbb 3c7c 8cba e1fd baba 3bdd 28bb
000001b0: e7e4 57bb 714e d1bb e5f3 a7ba 2019 0fbb
000001c0: 6b96 42bb a465 8fbb f7a5 0cbc d22f e0ba
000001d0: 4adb a3bb ee60 cfbc d5d1 0dbc 3fdd 3c3d
000001e0: 93aa 6abb 97c5 b4bb a5ce 1abc 89de e9bb
000001f0: aaa5 31bc e293 8bb7 d745 ce39 794d 0039
00000200: 03d5 5d38 a757 4c39 6bc5 1239 28e7 fe37
00000210: 3156 3239 a426 8537 14e9 a1b8 7f58 053f
00000220: 73c6 4db9 fa68 ceb8 e225 beb8 191a 4237
00000230: ee6e cb38 58d3 29b8 9a9a 45b9 74bf 51b8
00000240: a942 4538 9727 8338 c6d9 9838 7a2a e438
00000250: ebf1 12b9 bb43 12b9 58ec 6db9 7cc6 6eb9
00000260: 95c5 04b9 5142 ddb8 33e0 1a39 4939 8ab8
00000270: efe2 97b8 7f12 1738 c8a4 4438 6fe8 f23e
00000280: 3a2e 86b9 e12a 66b9 a06f cab9 47a7 c9b8
00000290: 6ea6 33b9 a663 8fb8 384a 5eb9 c608 08b8
000002a0: bb92 56b8 5682 43b8 4fbf 01b9 ac33 4038
000002b0: 0042 6e39 5555 29b9 c6a3 25b9 09f6 afbb
000002c0: 6d54 06bc a9af 06bc 236f ebbb bcab 07bc
000002d0: 6551 e3bb d095 02bc 13f1 15bd 7fbb 8dbc
000002e0: 318b 2dbc 5cf5 15bc fd71 efbc 48ac 9abd
000002f0: 269a 5bbc 04b0 85bb b124 4ebc cd38 65bc
00000300: e966 6dbc 4b5a d93d c3c1 39bc 8497 39bc
00000310: 69bf 59bc f751 a83c 3d0b 92bc 5a6f 3cbc
-0.01724509 -0.0045521553 -0.02243822 -0.0053274566 -0.0043790657 -0.007621654 -0.009158236 -0.0065317815
-0.016756553 -0.017296955 0.0036316758 -0.009692077 -0.03270121 -0.030281557 -0.015891971 -0.0061691455
-0.0026470572 -0.0162408 -0.06189737 0.031470146 -0.010566615 0.010061835 -0.04073297 -0.041564338
0.054891612 -0.0049990355 -0.005130141 -0.008042295 -0.011838898 0.04134393 -0.005600326 -0.006115778
-0.0064792875 -0.008124729 -0.009958759 -0.0068463525 -0.0059509804 -0.0048364676 -0.0064604515 -0.008485122
-0.007524331 -0.007778732 -0.06590841 -0.008646364 -0.009516882 -0.0075293165 -0.007466456 -0.0057332544
-0.009561603 -0.010796413 -0.00902942 -0.009826709 -0.0085485345 -0.007370651 -0.0056597483 -0.012423102
-0.013621061 -0.011727735 -0.009417304 -0.0075329035 -0.031388804 0.106137805 -0.01622431 -0.010639566
-0.008276402 -0.016954774 -0.018091427 -0.0106825065 -0.006237219 -0.005156882 -0.012630644 -0.12577385
-0.0077982238 -0.0067456136 -0.0054954314 -0.0069303378 -0.003964242 -0.0072385855 -0.0049759937 -0.001793154
-0.007738806 -0.008152153 -0.009273515 -0.07902113 -0.0027949312 -0.009683089 -0.01174517 0.05725759
-0.011854937 -0.007995398 -0.008044045 -0.0104906 -0.010217464 -0.0067201825 -0.00491502 -0.008482855
-0.008978262 -0.00742318 -0.004131441 -0.0051666666 -0.001364386 -0.001471513 -0.0014200709 -0.0031668134
-0.005789643 -0.0010718177 -0.0014266336 -0.002576663 -0.0032942833 -0.006387525 -0.0012813775 -0.0021835044
-0.0029691707 -0.00437613 -0.008584491 -0.0017104095 -0.0050005065 -0.025314774 -0.008655985 0.046109434
-0.0035807237 -0.0055167186 -0.009448682 -0.007137124 -0.01084272 -1.6638955e-05 0.00039343417 0.00012235892
5.288889e-05 0.00019487609 0.00013997189 3.03868e-05 0.00017007512 1.5872829e-05 -7.7204924e-05 0.5208816
-0.00019624252 -9.842399e-05 -9.066962e-05 1.1569377e-05 9.7004566e-05 -4.048957e-05 -0.00018844978 -5.0007788e-05
4.7030542e-05 6.253941e-05 7.288488e-05 0.00010879799 -0.00014013766 -0.00013948877 -0.00022690126 -0.0002277139
-0.00012662106 -0.000105504536 0.00014770105 -6.591023e-05 -7.242511e-05 3.601843e-05 4.6883506e-05 0.47442958
-0.00025592913 -0.00021950483 -0.0003861161 -9.615585e-05 -0.0001713277 -6.837332e-05 -0.00021199218 -3.2433098e-05
-5.115823e-05 -4.6613008e-05 -0.00012373667 4.582449e-05 0.00022722036 -0.00016148885 -0.00015796637 -0.005369906
-0.00819884 -0.008220592 -0.0071848794 -0.008280691 -0.006937193 -0.007970288 -0.03660686 -0.01730132
-0.010592268 -0.0091527365 -0.029229159 -0.07552391 -0.013403451 -0.0040798206 -0.01258199 -0.013990593
-0.014489868 0.10612925 -0.0113377 -0.011327628 -0.013290265 0.020546896 -0.017827624 -0.011501158

0.bias f4 [8]
00000000: 643e 0dbe 6695 29bd c463 debd 5512 5bbd
00000010: 46de 3cbd 3acc 31be 470b 21be a6fe 18be
-0.13793331 -0.041402243 -0.108588725 -0.05348428 -0.046110414 -0.17363063 -0.15726958 -0.1494089

2.weight f4 [16, 8, 5, 5]
00000000: 54b4 90bb 9834 05be 018d 3ebb f23a 353d
00000010: d107 c33a 345c 1739 fbdc 8b3d 0725 8b3e
00000020: b179 743d 3837 7b3d bd2c eb3a 5e88 ba3a
00000030: 96c7 ec3d 72c2 603d 2874 c23c ebb6 1eba
00000040: 6a36 97bb 8cc9 9d3c aee0 a13c 22d4 833b
00000050: 267c 913b df25 d7ba 99dd adbb 3fa3 13bf
00000060: 0bd5 b9bd f8f0 82bb 9534 68bb e86e 40bb
00000070: 9558 dcb9 46ff 91b9 6730 24bb ca26 593a
00000080: 8e4f c1b7 52aa 483a aff3 88ba 7d5a 58bb
00000090: d3a1 f7b9 295b 0b3c a21c 06bb ed5d 753b
000000a0: 7aea a7ba 957c 12ba 1924 763b ad3b cb3b
000000b0: a463 84bb 9056 0aba d494 92ba f0f0 3bba
000000c0: 62c4 a0ba f985 44b8 5b17 00b8 adef ed38
000000d0: 5ba8 423a 6e5f 16be 05e0 3cbf 88a2 6237
000000e0: e6fe 8f38 e32e 0b3a cdb2 903b 961b ddbe
000000f0: 52d8 2fb6 a7ce 1fb8 597a aab8 f364 573a
00000100: 2a2e 5abe 4161 91b6 1de1 c2b9 331d 2db9
00000110: 2f47 3239 075c 1b3b 69fe 27b7 4c09 6cba
00000120: 3737 c2ba ecc1 46ba 3deb 53ba ffbd 683a
00000130: ae47 8dba a12a 9639 ea6a a2bb 029b 19be
00000140: 308d 453b f383 4c3a da9f be3a 6921 d83b
00000150: 7a09 94bd fcd3 db3a ce56 aeba 515b f7ba
00000160: 18a2 933b 4bff 003c e164 81b8 f8a6 13bb
00000170: 426f 86bb 8556 c73a 4fc7 d23a e6b8 67bb
00000180: 6621 85bb 1e92 25bb 5f56 ea3a ed0f 3d3a
00000190: 2c12 fabc cdfa 28bd 90b2 98be 8ffd 98bc
000001a0: 0bbb 133b ef3f 96ba 95f3 863b 5fa2 c43d
000001b0: b253 293c bd63 ae3b 38e9 b3ba 1008 cdb7
000001c0: 3081 563d 9f99 593b e061 913d f691 44ba
000001d0: 07da 0bb9 585f 76b5 9835 b239 e63b 323d
000001e0: 3102 a23d ac77 273d fe27 043d 059e 483b
000001f0: ba1e acbc 3162 02b9 f30b b5ba f899 3cbb
00000200: 0fb2 46bb 09cd 42bb 8c4f 473a f736 b4ba
00000210: 10ea 15bb 2b4e 0dbb 626b e3ba 1857 4d3b
00000220: a6b0 173a cda0 93ba a7e4 96ba b967 d7ba
00000230: 3bb1 073b 024b 033a ea94 b438 cb4f 57b9
00000240: fb62 e8b8 c045 9dbf b176 66b9 f605 be37
00000250: 4a21 5fb9 77a9 213a 7d2b 9dbf 0f65 0ec0
00000260: f4f3 99bd 8ba1 9fba 388e 233a e4c8 39bb
00000270: ff46 3fbc 9edb eebf f66d ecbf 0afd f6bb
00000280: e384 d1ba 8fc8 a8ba 2105 4fbb 7504 00c0
00000290: 9d5f bbbf 5a40 d8ba ef06 b139 fea9 d8ba
000002a0: 8308 9ebf f4e0 b0bc c522 3db9 2eed c93a
000002b0: 3b02 283a 35fb 9aba 8b06 9fba 7e10 99ba
000002c0: 5115 0cbc 150f 5abe 0881 95be dbb3 15bd
000002d0: e8e9 28bb ad7d 52bb a627 55be 0720 05be
000002e0: ab63 d4bc 693e 8b3b 864e bbbe 1009 bc3a
000002f0: aa91 a73b b5fe 0b3c 62d0 d3be a62e c7be
00000300: 4c26 263b 74e1 843b c6a9 a13b 3398 513a
00000310: 5604 5839 f6c5 0a3c 8e12 423c f6c2 61bb
00000320: 5d2a 0339 9bbd 9738 62f5 cfba 1425 9d3a
00000330: 1410 f93a 1469 1dbb c9ad ffbb 90c6 a9ba
00000340: 031e b6b9 57cb f1b9 c183 15bb 809b 1b3a
00000350: c945 6339 326d 3739 398e 9339 88a1 d3b9
00000360: c622 af37 4d88 d6b9 b3b0 0fba 54a0 32ba
00000370: 1093 76ba 62b7 93ba 6a2a f9b8 b127 6fba
00000380: 2a05 36ba f409 153a 073e 563a c0aa 033b
00000390: a98d 0f3b 8bc3 163b 0147 01bb 5a60 623a
000003a0: f754 2aba cf31 ec38 7fad ce3a ae78 233a
000003b0: 60f6 de38 c142 03b9 dfe6 f13a 527c b43a
000003c0: e63e bd39 eb14 85b9 76ba 203a 3dfc 8e3a
000003d0: 69e4 5b3a 4bd4 ca39 f963 923a 1fa2 3e3a
000003e0: b93e 613a 7ed6 b8b9 5c46 99bc b8be 02be
000003f0: ed7a 07bd 3a05 18b9 7151 5639 d158 843b
-0.004416028 -0.13008344 -0.0029075744 0.044245668 0.0014879649 0.0001443483 0.06829258 0.27176687
0.059686366 0.061331958 0.001794241 0.0014231314 0.115615055 0.054872938 0.023737028 -0.00060544786
-0.004614641 0.019261144 0.019760456 0.004023091 0.0044398485 -0.0016414485 -0.0053059575 -0.5767097
-0.09073838 -0.003996011 -0.0035431732 -0.002936298 -0.0004202767 -0.0002784675 -0.0025053264 0.0008283673
-2.3044438e-05 0.0007654774 -0.00104486 -0.003301292 -0.0004723208 0.008505621 -0.0020463844 0.0037440017
-0.0012810968 -0.0005588022 0.0037558137 0.0062021823 -0.0040401984 -0.0005277181 -0.001118327 -0.00071693864
-0.0012265558 -4.6854813e-05 -3.053933e-05 0.00011345684 0.00074255996 -0.14684841 -0.73779327 1.3508492e-05
6.86625e-05 0.0005309416 0.004415846 -0.4318511 -2.6202947e-06 -3.8101014e-05 -8.129021e-05 0.0008216642
-0.21306673 -4.3326586e-06 -0.00037170286 -0.00016509443 0.00017001921 0.0023705976 -1.001321e-05 -0.0009004071
-0.0014817481 -0.0007581997 -0.00080840645 0.0008878409 -0.0010778809 0.0002864199 -0.004956593 -0.15000537
0.0030143969 0.00078016444 0.0014543489 0.0065957797 -0.0722837 0.001677155 -0.0013301016 -0.0018871819
0.004505407 0.007873367 -6.1699895e-05 -0.002252994 -0.0041026184 0.001520828 0.0016081127 -0.003535801
-0.0040628193 -0.0025264095 0.0017878524 0.0007212151 -0.030526243 -0.041254807 -0.29823732 -0.018675594
0.0022541906 -0.0011463145 0.0041183927 0.09601282 0.010334896 0.0053219483 -0.0013726121 -2.4441659e-05
0.052369297 0.0033203138 0.07098746 -0.00074985565 -0.00013337295 -9.1780885e-07 0.00033990736 0.043514155
0.07910574 0.040885612 0.032264702 0.0030611765 -0.021010745 -0.00012434345 -0.0013812765 -0.0028778296
-0.0030318534 -0.0029724261 0.0007603101 -0.0013749291 -0.0022875108 -0.0021561484 -0.0017350728 0.003133243
0.00057865155 -0.0011263132 -0.0011512236 -0.001643411 0.0020705003 0.00050084305 8.610806e-05 -0.00020533723
-0.000110810586 -1.2286911 -0.00021978725 2.265254e-05 -0.00021279338 0.0006166915 -1.2278897 -2.2249181
-0.075172335 -0.0012178881 0.0006239149 -0.00283485 -0.011674642 -1.8660772 -1.8471057 -0.007537489
-0.0015985038 -0.0012877154 -0.003158875 -2.000272 -1.4638554 -0.001649867 0.00033765237 -0.0016530154
-1.2346348 -0.021591641 -0.00018037397 0.0015405768 0.0006409024 -0.0011824133 -0.0012132687 -0.0011677889
-0.008550004 -0.21294816 -0.29200006 -0.036548477 -0.0025774185 -0.0032118366 -0.20815906 -0.13000499
-0.025926432 0.004249383 -0.36583346 0.0014345963 0.0051138 0.008544614 -0.4136992 -0.38902777
0.0025352417 0.0040551964 0.0049335686 0.0007995397 0.0002060098 0.008470049 0.011845244 -0.0034448481
0.00012508915 7.235558e-05 -0.0015865976 0.00119892 0.0019001984 -0.002401893 -0.007802699 -0.0012952853
-0.00034736106 -0.00046118602 -0.0022814127 0.0005935952 0.00021674404 0.00017492918 0.0002814399 -0.00040365406
2.0877818e-05 -0.00040918813 -0.00054813473 -0.0006814052 -0.00094060693 -0.0011269862 -0.000118811455 -0.0009123041
-0.00069435185 0.0005685382 0.0008172695 0.0020090789 0.0021904504 0.0023004736 -0.001972616 0.00086355733
-0.0006497646 0.000112626345 0.0015768259 0.0006235939 0.00010631676 -0.00012518001 0.0018455646 0.001376996
0.00036095752 -0.00025383322 0.00061313005 0.0010908913 0.0008388223 0.00038686613 0.001116871 0.0007272083
0.0008592415 -0.00035255024 -0.018710308 -0.12768066 -0.033076216 -0.00014497797 0.0002043897 0.004038908

2.bias f4 [16]
00000000: a954 3a3e 6000 213e f671 fc3d c24a 6abc
00000010: baf3 253e 6483 fb3d a3d7 113e ba8d 5b3e
00000020: 5d0e e53d b722 393e 2124 1b3e 714b 4a3e
00000030: 2ca5 123e d671 043e e5b6 3b3e db84 59bb
0.18196358 0.157228 0.12326424 -0.01430005 0.16206256 0.1228092 0.14242415 0.21440783
0.1118438 0.18079649 0.15150501 0.19755341 0.1432082 0.1293405 0.18331487 -0.003319076

4.weight f4 [16, 16, 4, 4]
00000000: 7be2 a7bb 922e a3bb 8ca1 3cbb 5bcb f5bb
00000010: 5005 233b a282 5bbb 6039 08bb 6c6e 1ebd
00000020: 3afe 90bb e9b6 13bc f1d4 debc 5fde 1cbb
00000030: af6f 63bb 7d35 12bd 05ee 7c3b 3197 183b
00000040: b474 9c3a 94c0 733b 68ac 783e 727d cb3e
00000050: 0780 9bbb 515e fab9 7d27 e33d bc41 11ba
00000060: 2745 63bb 8e2b 153a 07c9 6bbb a3f1 d2ba
00000070: b74c 92bc 0384 32bb eaf4 cabb 8c9e 22bc
00000080: 678b 0e3e 7f82 1b3e 4441 223e 86e6 043e
00000090: 985b c13d 8f8e db3d bbf2 073e 296f a33c
000000a0: df03 af3d d0a9 5d3d 5077 423d 1a09 96ba
000000b0: f773 22ba 12c9 5eba f2b6 b1b9 45c1 ac39
000000c0: e067 2abb 5c98 473b 783c 3e39 b414 9fbb
000000d0: 5236 ffba d659 673b 0ae1 ea3a 6f37 36b8
000000e0: 16bc 243b 7264 e73a 3dd1 863a 3c80 b339
000000f0: 785b a53a 84e8 333a 1cba 223a 65ff 0db9
00000100: dd81 f1ba 58e5 26bb 2916 c0bb 8c64 c03a
00000110: ade1 e4bb 83c5 78be 9688 90be 8de9 f1bc
00000120: 8f90 64be 2380 a2be 66e6 eabd 063a 78bc
00000130: e6b4 0cbe 94dc c1be 6070 d6bd 30a7 c0bc
00000140: a7d0 f4ba e6b7 93bb ddcb 83bc f51c 16be
00000150: 5af5 bfbb 2796 66bc ce32 49ba 6e2e b4be
00000160: f10b d338 b99b fa3a 22c4 9fb9 75d0 c8bc
00000170: c48e 703b 1989 aa3b 931b 0d3a c5d1 323b
00000180: 8786 7cbb 449b 9c3d 913f d13d 3679 03b9
00000190: d842 95bc 3ab9 923d af04 213a 0dfb 34ba
000001a0: a287 ecbb d28e 68ba 83fd 58ba bc29 9cbb
000001b0: efda 453d b326 06ba 707e d5bb 7244 1dbc
000001c0: c3fb 75bc e75d fcbd f463 e4bd 9f3b cebe
000001d0: 52bb a8bd e8e1 61be b82a 07be 2faa a4bf
000001e0: ad37 0abe 0f7d 42be cb5e 1fbe 7651 f1bf
000001f0: d9d7 05be dcce b7bd 6314 a4be ff48 82bf
00000200: 109a 89b9 d02f fb3a 9786 8f3c f9ad 543d
00000210: ca02 35ba 7f92 c33a f314 053c 7110 bb3b
00000220: dfa4 65bc f633 86ba 7b7b 193b 29c3 493b
00000230: 9bc0 00bc 18da 27bb b501 373a 405a ca3a
00000240: 6fde 13bb 84c9 14bb 30f7 59ba a3b0 fa3c
00000250: d4f2 dfbc 8ae5 48bc c08f 9ebb c752 db3a
00000260: 4b7c 8ebd 242e 46bc ca0f 33bb 6cc9 113b
00000270: e70d 53bc dc29 9fbb ef5a a5ba 2caa 663b
00000280: 1cb7 41bd e13d 2bbb 0003 093b 7e10 8c3d
00000290: 30f5 70bb cc74 3fbb 95d5 463d 7b4d ca3d
000002a0: e3c8 6abb 194b fa3a fcd5 ca3c e62b 0c3e
000002b0: a7f6 02be f1bc 6bbc 846f 1c3d 9baa 023d
000002c0: 7701 8f3d 3546 df3b 081a 213c 5ce3 4f3d
000002d0: daaa d63a ed10 9cba 19e9 6bbb b001 95bc
000002e0: 36e3 02bc 5db1 b3bd 12f9 2dbe d3da e0be
000002f0: cf89 6dbc 3b84 61bc 3363 72bc 4e8d 79be
00000300: a6bf e13a be05 4d39 f049 a0bd c8bd 8bbb
00000310: 992a 043b d580 6bba 58e2 beba d831 7a3a
00000320: 5b4f 133a 0c23 d1bc 617a 293b d894 0f3b
00000330: 8b4d e7bb cdca 49ba d2e0 e3b9 1834 643b
00000340: f2de 22bc 4cf2 a3ba 13df f1ba 8813 0d37
00000350: a813 b5bb 278d ebbb d2f3 9bba d7df adbc
00000360: 064a 0ebc 2da2 72bb e35d 0bbc cfc3 44bc
00000370: 2217 16bc 47e7 a5bd 5061 6abd b493 42be
00000380: 7145 213f e4ff d53e 0361 8d3e fbe3 a43b
00000390: d386 ec3e c1d8 b43e 88ad dd3d a200 a43b
000003a0: b1db a03e b3ab a03e caf3 563d b899 83ba
000003b0: fec8 2f3e e6bd 3e3d 71b1 f33b ac1c 80bb
000003c0: 66e8 6bbb 6d5b 1ebd ab97 19bc 3ab1 65bc
000003d0: ba85 85bd 5161 72bc 6003 07bb ac96 44bd
000003e0: d691 a4bd 3b41 9dbb ce38 59bc 7bf3 6ebd
000003f0: d35b f0bb f860 aebb be54 82bb 5bb9 d7ba
-0.005123434 -0.004979917 -0.0028782813 -0.0075010485 0.0024874993 -0.0033494611 -0.0020786151 -0.038679525
-0.0044248374 -0.009015777 -0.027201148 -0.0023936254 -0.003470402 -0.03569554 0.003859402 0.0023283476
0.0011936636 0.0037193643 0.24284518 0.39744145 -0.0047454867 -0.00047753987 0.11091516 -0.0005541106
-0.003467867 0.0005690389 -0.0035977976 -0.0016093742 -0.017858846 -0.002723933 -0.006193747 -0.009925496
0.13920365 0.15186499 0.1584521 0.12978563 0.09441298 0.1072055 0.13276188 0.019950466
0.0854566 0.054117024 0.047477067 -0.0011446804 -0.00061970897 -0.000849859 -0.00033896376 0.00032950394
-0.0026001856 0.0030455803 0.00018142338 -0.004854763 -0.0019471145 0.003530135 0.001791985 -4.3443808e-05
0.0025136522 0.0017653836 0.0010285747 0.00034237083 0.0012615761 0.00068629556 0.0006207542 -0.0001354195
-0.0018425543 -0.002546629 -0.0058620167 0.0014678403 -0.0069849105 -0.24294095 -0.28229207 -0.029530311
-0.2232077 -0.31738386 -0.11469726 -0.015150553 -0.13740882 -0.378636 -0.104706526 -0.023517221
-0.0018677906 -0.0045080064 -0.01608842 -0.14659484 -0.0058581056 -0.014073885 -0.0007675112 -0.35191673
0.00010063488 0.0019119895 -0.00030472974 -0.024513463 0.0036706189 0.0052043316 0.0005382832 0.0027285677
-0.0038532333 0.07646802 0.102172025 -0.00012538288 -0.01822035 0.071642354 0.00061423605 -0.00069038646
-0.007218317 -0.00088713795 -0.0008277522 -0.0047657173 0.048304494 -0.0005117461 -0.0065153167 -0.009598838
-0.015013638 -0.12322598 -0.11151877 -0.40279862 -0.082388535 -0.22058833 -0.1319989 -1.2864436
-0.13497801 -0.18993019 -0.15563504 -1.8852985 -0.1307062 -0.08975002 -0.32046804 -1.0178527
-0.00026245462 0.001916403 0.017520232 0.051923726 -0.00069050177 0.0014920979 0.00812267 0.005708747
-0.014016359 -0.0010238874 0.0023419547 0.003078649 -0.007858421 -0.0025612172 0.00069811504 0.0015438274
-0.0022563 -0.002270312 -0.0008314727 0.030601805 -0.02733747 -0.012261758 -0.0048389137 0.0016733044
-0.06957301 -0.012095962 -0.0027322643 0.00222453 -0.012881733 -0.004857285 -0.0012615601 0.0035196645
-0.047293767 -0.0026129412 0.002090633 0.06839083 -0.0036767237 -0.0029213903 0.04854353 0.098780595
-0.0035825304 0.0019095867 0.024760239 0.13688621 -0.12789403 -0.014388309 0.038192287 0.031900983
0.06982701 0.0068137893 0.0098328665 0.050753936 0.0016377822 -0.00119069 -0.0035997091 -0.018189281
-0.007988742 -0.08774064 -0.16989544 -0.4391695 -0.014498188 -0.013764436 -0.014794159 -0.2437031
0.0017223253 0.00019552463 -0.078266025 -0.004264567 0.0020166992 -0.0008983736 -0.0014563305 0.00095441705
0.000561943 -0.025529407 0.0025860297 0.0021908786 -0.0070588044 -0.0007697761 -0.00043464318 0.003482109
-0.00994085 -0.0012508123 -0.0018453322 8.408802e-06 -0.005526025 -0.0071884575 -0.0011898226 -0.0212249
-0.008684641 -0.0037022934 -0.008506271 -0.012009575 -0.009160789 -0.08100753 -0.05722171 -0.19001657
0.62996584 0.41796792 0.27613077 0.00503206 0.46196613 0.3532162 0.10824114 0.0050049582
0.3141761 0.31380996 0.05247859 -0.0010040319 0.17166516 0.04656782 0.007436924 -0.003909668
-0.0035996675 -0.03866141 -0.009374539 -0.014019305 -0.06519647 -0.01479371 -0.0020601377 -0.047995254
-0.080356285 -0.004799036 -0.013258172 -0.05833767 -0.007335165 -0.005321618 -0.003977387 -0.0016458438

4.bias f4 [16]
00000000: 7b1c 6ebc 1bf9 baba d5c8 a7bd 2d81 cabd
00000010: 65cb f8bc 3c77 1c3d 69df 5c3d bb40 f0bc
00000020: c241 b5be 59b9 763e d187 4dbd 196f 083e
00000030: efab e13d 441a c9bc 4be8 383d 4aa8 8fbc
-0.014533157 -0.0014264913 -0.081926025 -0.098879196 -0.030370424 0.03819965 0.053923998 -0.02932774
-0.35401732 0.24094142 -0.050178353 0.1332363 0.11019122 -0.024548657 0.045143407 -0.017536301

7.weight f4 [128, 576]
00000000: 3792 dc3e 7d36 5d3e c674 98ba a470 e9ba
00000010: 1132 34bf 5461 a03e f8a0 47bc bbb1 d53b
00000020: 800d 8f3b 79ad b43b 147e b6bb beba e83e
00000030: 2c4a 0a3b e511 1c3c ba0e 073e cbee c0bb
00000040: 0776 933d 4744 cb3e 076c 8bbb 5b7a 4b3b
00000050: c71f 9a3d 769e cdbe d194 f9bd c677 e0bc
00000060: 9c15 463d 3457 f33c c1dd 36bb cc12 77bb
00000070: cd37 9e3b 69da 0ebe 1982 7c3b eadc ddb8
00000080: 4a51 95bb fc96 19bc d89e 46bc 000d ac3d
00000090: acab 18bd 9f4a 46bc addb 48b9 6123 10bb
000000a0: d5a8 d23a 090f 00bc eaaf e8ba a051 bbbc
000000b0: 6bd8 ba3b fa84 b03c cbd1 5cbb e791 6e3b
000000c0: 6c9e b5be 6a8e c3bc 81c6 923a d54e 8c3b
000000d0: b37a b039 3bf3 9e3e 84ea ddbe 7f82 053b
000000e0: 014f ca3c 5916 833a 4e13 433c 2b03 a13b
000000f0: ef84 7cbe 8cff 973a 7f52 fb3b 814a 943a
00000100: 730d 76bb c377 a63a 2937 9ebc 4ace 303d
00000110: 5fc2 883c 6780 0b3e d84e 063f f061 21be
00000120: e675 9dbb 58f8 9a3c 32c3 06bd fb24 273c
00000130: 31af 6ebb 0df6 643c 8ce6 80bf df61 a3bd
00000140: 3493 12b8 92b6 c83d 984a e63d 31e2 e73b
00000150: b0eb 62bc b484 05be 1328 df3a 0e0b 533d
00000160: 7dc1 193d df9a 5f3c bbb6 a43e 660a 8a3d
00000170: 506e d6b8 4e74 3f3c 08ac 6e3b 8279 c13a
00000180: 2231 14bd b3ad d9ba f40b 21bc f023 193e
00000190: e82d 413e 6a6d 0b3e bf73 dc3e 219e 103f
000001a0: f489 4f3e e3d2 13bc 0fc5 013b 6b96 a3ba
000001b0: 0d03 003d 94f0 103d 57e7 963c 1ad5 51bc
000001c0: a7c3 4fbc fc42 4c3c 75b2 ae3b a580 5b3c
000001d0: 3a17 b63b 4a87 e03e ea51 0dbe 3a9f a2ba
000001e0: 049b 5c3b 3825 febc e019 c53a bf0c b23b
000001f0: 63f1 fe3a 98da 03bc bb39 06bc 2363 1c3e
00000200: bff2 7fbe ef5d 443b edff 3fbb 2a0c 0fbd
00000210: 397d 563c 0b92 1cbb a3af 003c de34 a93a
00000220: fc0e 923c 5101 99bc d94d 40bb f329 4bbb
00000230: 0c9a 853b 3ec5 59ba 2afa b53a 1a98 803e
00000240: db90 cdbd 1b1a a5bc 83cd f3bb cfdc 16bb
00000250: 6ba1 e4bb 77f7 ac3c c10f 1ebe 5404 56be
00000260: 2acf ccbe 0ae3 fe3a e6a0 ec3a b33b 713a
00000270: 9d04 b5be fdf5 aabe 9a2b a2be a2d6 e7be
00000280: 4aa3 8abb 37d7 893c 035a edbd b1eb 09be
00000290: 7c10 bcbb fe1d 413b ff25 e3bb 9a06 3ebe
000002a0: 3b5d 01bd 6d79 8ebc f2ff 0abc 9e61 233f
000002b0: 7a8c 88bb e7e5 85bb dca4 bfbd 9e5b ed3e
000002c0: 5769 293f 0a2f 11be f35c 753e b424 b4bb
000002d0: 1396 043f f9f6 04bc 19a4 adbb d426 11bc
000002e0: a735 12bb 652f 7c3b 92f0 33bb eeeb 263a
000002f0: 4077 893b 479c 0bbb 003a 02be d7a0 acbe
00000300: 787f bf3d 65c1 c4b9 0b28 433e eb53 1bbc
00000310: 4e36 ccbd 2e85 c7bd 82e6 b43b dc14 a3be
00000320: 6659 dabb 5e4c 953a 612a 253e 1028 c4bb
00000330: 24ba 333b fa98 bd3a 11fc 1fba d2e8 be3b
00000340: 7839 053d d164 773e ea9b ffbd 6ff3 1e3c
00000350: e3f3 483d f5c2 8b3c eb84 863f 83f2 503e
00000360: 1baf fa3d ddbd 3c3e bfd7 83bd a4d6 87bc
00000370: eb20 b33c ad49 ac3b 861f ce3e b37e 2f3d
00000380: 65e0 e23b a9f9 313e 5210 c43c 59d5 0d3f
00000390: 32be c9bb fe6a dd3b 07d6 0bbc d96b f1bb
000003a0: 36b1 e239 b286 c73e 85d7 18be 3ca5 b23d
000003b0: 2559 c23c f7e9 acbc cad9 adbe b82d e6ba
000003c0: 8cbf c7bd a09c 17be 1d39 3bba 072f f93a
000003d0: 20c3 c4bd e3d6 093e 022d afbe cc06 16be
000003e0: f2f2 0b3a 78fe 08be dfde 8e3c 2a77 82bc
000003f0: a3da 523e c3df cc3e fe81 223d 9fc6 da3c
0.43080303 0.21602817 -0.0011631481 -0.0017810059 -0.70388895 0.31324255 -0.012184374 0.0065214313
0.004365623 0.0055138436 -0.005569229 0.45454973 0.0021101339 0.009525751 0.13189211 -0.0058878413
0.07200246 0.3970053 -0.004254821 0.0031048271 0.07525592 -0.4015996 -0.121865876 -0.027400862
0.048360452 0.029704668 -0.0027903172 -0.0037700413 0.0048284293 -0.13950504 0.0038529693 -0.0001057925
-0.0045568096 -0.009374376 -0.012122832 0.08400917 -0.037273094 -0.012102752 -0.00019155322 -0.0021993744
0.0016072044 -0.007816085 -0.0017752622 -0.02286607 0.0057020686 0.021547783 -0.0033694382 0.0036402883
-0.3547243 -0.02387162 0.0011198075 0.0042818584 0.00033660754 0.31044945 -0.43342984 0.0020371971
0.024695875 0.0010001167 0.011906458 0.0049137077 -0.24660085 0.0011596545 0.0076697464 0.0011313708
-0.0037544637 0.0012700487 -0.019313412 0.043165483 0.016694246 0.136232 0.52464056 -0.15760016
-0.0048053144 0.018917248 -0.032900997 0.010201688 -0.003642034 0.013974679 -1.0070357 -0.07977652
-3.4946206e-05 0.098004475 0.112446964 0.0070765247 -0.013850138 -0.13038903 0.0017025493 0.051524214
0.03753804 0.013647764 0.32170662 0.067402646 -0.000102248625 0.011685444 0.0036418457 0.0014760944
-0.03617967 -0.0016607553 -0.00982951 0.14955115 0.18865168 0.13615957 0.43057057 0.56491286
0.20267469 -0.009022447 0.0019801294 -0.0012480741 0.03125291 0.035385683 0.018420858 -0.012807155
-0.0126809245 0.012467142 0.0053313323 0.01339737 0.005556968 0.43853217 -0.13800779 -0.0012407072
0.0033661732 -0.031023607 0.0015037619 0.0054336484 0.0019450601 -0.008047722 -0.008192475 0.15272193
-0.24994944 0.0029963215 -0.002929683 -0.03492371 0.013091379 -0.002389076 0.007854375 0.0012909432
0.01782941 -0.018677386 -0.0029343276 -0.0031000345 0.0040772017 -0.00083072844 0.0013883759 0.25116044
-0.100373946 -0.02015405 -0.0074402704 -0.0023019796 -0.0069772503 0.021114094 -0.15435697 -0.20900089
-0.40001804 0.0019446325 0.0018053323 0.0009202316 -0.35355082 -0.333908 -0.3167389 -0.4528094
-0.0042308914 0.016826255 -0.11589434 -0.13468815 -0.00573927 0.002946734 -0.0069320197 -0.18557206
-0.031583052 -0.017391885 -0.008483874 0.63820827 -0.0041671367 -0.0040862444 -0.09357616 0.4635896
0.6617636 -0.141781 0.23961239 -0.0054975394 0.51791495 -0.0081155235 -0.005299103 -0.008859355
-0.0022309811 0.0038480398 -0.0027456624 0.0006367554 0.004195124 -0.0021302865 -0.12717438 -0.3371646
0.093504846 -0.00037528123 0.19058244 -0.009480457 -0.09971295 -0.09742199 0.0055206427 -0.31851852
-0.006663489 0.0011390557 0.16129448 -0.005986221 0.002742418 0.0014465146 -0.00061029295 0.005826094
0.03252551 0.24159552 -0.1248091 0.009701594 0.049060713 0.017060736 1.0509313 0.20405011
0.1224043 0.18431802 -0.06437635 -0.01658184 0.021866282 0.0052578063 0.40258425 0.04284544
0.0069237226 0.17380394 0.023933563 0.5540367 -0.0061567063 0.006757139 -0.008534915 -0.007367593
0.00043238112 0.38969952 -0.14925964 0.08722922 0.023724148 -0.021107657 -0.33955222 -0.0017561233
-0.097533315 -0.14805841 -0.00071419944 0.0019011208 -0.0960753 0.13460879 -0.34214026 -0.1465103
0.0005338631 -0.13378322 0.017440258 -0.015925962 0.20591216 0.40014467 0.03967475 0.026706038

7.bias f4 [128]
00000000: 6acf 88be a0dc a33c f91c 1b3d 9391 483d
00000010: 5c0c 013e 96f4 6e3b 68d2 8dbd c798 b0bd
00000020: 013d b93d a45d 14be 3d34 88bb 2a1b ea3d
00000030: c6e4 3b3e eb17 4a3e b650 55be 714b 0fbe
00000040: 7194 aa3a 68e5 743e bd94 2bbe a1da 283d
00000050: 6c7a 99bd 0c10 0f3d 905b 3f3d 104a 213e
00000060: 68da 74be 9e73 9a3d 46ba 90be 2431 f23d
00000070: 0997 673d 19fd 163e 689f 063d e9c9 d43b
00000080: 3d0f 1ebd 2e22 3dbc ca9c 5bba b829 773d
00000090: 51f7 273c 425e 813e c217 81be 08d9 213d
000000a0: 4b28 2abe 78f4 5dbe d81b 0ebe c9f1 91bd
000000b0: ddfc 59be d9a4 22be a239 163e a19f abbe
000000c0: b4e4 9cbd 00fd 113c 9b1c 57bb 8075 45be
000000d0: 1e58 c93d 3b75 90be e7c2 8e3d 5b9a 243d
000000e0: 2a82 0c3d 5bc0 0f3e 1ac3 8e3d 09f4 473d
000000f0: bf95 583d 51be 9f3c f4fd 273e 9625 9dbc
00000100: e416 233e 1a2b bbbb c9f6 3c3d 84d1 d13d
00000110: 5bfa f93d 0ffc 273e 336b f5bd a197 3f3d
00000120: 20cd 993e 9b73 1cbd b96f 15bc c7c2 88be
00000130: 7abe 233e 3f28 4ebe 09f8 abbc 275f 3d3d
00000140: b36a 663d 91ea 9e3d 90e5 5abe 3e61 363e
00000150: 91f7 8a3e 877a bebb f230 bf3b 5230 d9bb
00000160: 6945 bc3d 1e3a b6bd 1ad5 31bd 6060 1c3e
00000170: a08e 7fbe 917a 933d 7d6a 1cbe ba9b d2bb
00000180: f60a 80bd c5e2 203e 3f5d 403e 893c 85be
00000190: d73e 29be 726f 82be e8f8 8abe f4b5 a13c
000001a0: 5590 c0bc 350a 603a 17b3 bfbd c9b8 0ebd
000001b0: 57bd aebd ca2e 0dbd d532 983b 8fcb cbbd
000001c0: 9c4f 23be 757c 8fbe e5cd bf3d 2153 c43d
000001d0: 509b 503b 900c a93d 221b 71be 578a 15be
000001e0: 4a8d 713e 9201 1f3d 7d08 fc3d cf9e c6bd
000001f0: a2a6 e2bc e5cc b6bd 2b9b 12be c53a 0cbe
-0.26720744 0.020002663 0.037869427 0.048966955 0.12602371 0.0036461703 -0.069248974 -0.0862289
0.09044839 -0.14488846 -0.004156618 0.114309624 0.18348989 0.19735686 -0.2083157 -0.13993622
0.001301421 0.23915637 -0.16755958 0.041224126 -0.07494053 0.034927413 0.04671818 0.15750909
-0.2391144 0.075415835 -0.28267115 0.11825779 0.056540523 0.14744987 0.032866865 0.006493796
-0.03858875 -0.011543794 -0.00083775504 0.06034252 0.010251836 0.25267226 -0.25213438 0.039513618
-0.16616933 -0.21675289 -0.13877809 -0.07126195 -0.21287866 -0.15883197 0.14670423 -0.33520225
-0.07660809 0.008910418 -0.0032823447 -0.19283104 0.0983126 -0.2821444 0.069707684 0.040186267
0.03430382 0.14038222 0.069708064 0.048816714 0.052877184 0.01949993 0.16405469 -0.019182961
0.15926701 -0.005711925 0.04613379 0.1024504 0.12205955 0.16404746 -0.11983337 0.046775464
0.3003931 -0.038196187 -0.009120875 -0.26711103 0.1599063 -0.2013254 -0.020992296 0.046233322
0.0562541 0.07759584 -0.21376634 0.17810532 0.27142003 -0.0058129462 0.005834692 -0.0066280747
0.091929264 -0.08897804 -0.04341612 0.15271139 -0.24956751 0.07201112 -0.15274997 -0.0064272555
-0.06252091 0.15711506 0.1878557 -0.26022747 -0.16527878 -0.2547565 -0.27143025 0.019740082
-0.023506323 0.0008546443 -0.093603306 -0.034844194 -0.085322075 -0.03446845 0.0046447315 -0.09950935
-0.15948337 -0.2802464 0.09365443 0.09586168 0.0031830855 0.08254349 -0.23545507 -0.14603554
0.23589054 0.038819857 0.123063065 -0.09698259 -0.027667347 -0.08925799 -0.14317004 -0.13694294

8.weight f4 [10, 128]
00000000: 574c adbb 44a6 cabb df51 2a3b 4cb6 f0ba
00000010: 4557 153c 85eb 8fbb c0da e2bd 6c9c 573b
00000020: 80bf b6ba c8b6 04bb 39d3 0d3b 179e a03b
00000030: 24a8 cb3e 013b 5c3c 7af7 00bc acc8 17bb
00000040: 8444 e5bb 752e 06bb 847d 403b c9d9 a73b
00000050: 4724 8e3a 5f47 cebb bd2f 76bb 51bb 1a3a
00000060: 2a47 64b9 0753 083b cdb7 2dbb b059 c63b
00000070: 0643 7dbb 8d67 a43b 6088 3c3e 1a3d 4a3b
00000080: 2315 773f 228d 14bc c479 ffb9 455e 843d
00000090: 6f7e 61bb a0ae f13b d98c 15be 9092 323b
000000a0: fdcd 59bf 5231 ed39 b324 c5bb fe0c 243c
000000b0: 8705 a4bb 9e35 ce3a 7b46 113b 4c0e 05bc
000000c0: 8405 1a3c 1f21 373b 3661 01bc c280 0c3b
000000d0: 430d 093c e7d8 40bb d260 3d3c d5d0 4fba
000000e0: f7e2 88ba 714b 193b 6310 2b3a bc69 263c
000000f0: 1cc8 a83b 67cb fa3b 6991 323a 47f2 d33b
00000100: d8cc e13b 91af 3cbb d3db 69bb c2ff 50bb
00000110: 4d32 df3b 52d5 213b 0999 84bf 6095 59ba
00000120: bc60 c3b9 7544 88ba 01bb ae3b c3ae 533b
00000130: ed0e 8dba 4305 19bb dd2a 0e3c 1659 d93a
00000140: 19f2 71ba bf67 593b 57b9 cabb 990b c43b
00000150: 5905 1b3e 798b f13a b650 f63b 66b0 efbb
00000160: 2dc2 c3b9 a049 42ba 436a 20bc ce1d 9a3a
00000170: 0769 4ebb 94de 8a3b 2f35 78be c09a ae3b
00000180: 8922 4d3b e096 43ba 934b 563b 6010 c13a
00000190: c1a9 cabb 9c77 553b a594 b0bb 18ce 46bb
000001a0: 5ff1 40bc 3d7f dfba 4bdd f8ba 05e0 643b
000001b0: 62a0 5cb9 34f2 26bb d909 52bb c752 abbb
000001c0: 50c3 02bc 4939 a0bb 9f2b 7abb e35e 4e3c
000001d0: 1aeb 3d3b 65af bb3b 9d02 8fbb 7f14 ceba
000001e0: 3a3b 813b 5daf 8fbb 2de4 c13b 4da7 383a
000001f0: 83b9 443b 6c2f a6bf 694c 263b 0b2b 92be
00000200: 4324 c6ba 80cf 0b3c 460d 723e 2e31 813b
00000210: cb1d 3eba 4b9d d73a eb5d a83b 9186 233a
00000220: b509 6f3a b766 0abf 1393 c6bb ef76 28bb
00000230: f0d2 f13a 07c9 1bbb 8d61 9fba d4bb 4bbe
00000240: eeff 3abb f834 873e 003a f93b c78e 25bb
00000250: c3b6 bf3a e9f5 ea39 f64c 823b 3e5f 043d
00000260: 0f77 2fbf 958a e5ba a404 26bc a8c8 d73b
00000270: 6fc8 0abb 78e7 d73a 0969 29b9 43fe 9c3a
00000280: 4bbf 5c39 54f8 8638 f697 80ba 4a3a 22bb
00000290: e614 013b d274 4dbb 4704 033b 50ca 933a
000002a0: a86f dfb8 81bf 8c3b 02d6 df36 8830 bb39
000002b0: 18bc c6ba 4467 063b 9ad2 223e b84b 11bb
000002c0: 8f55 673b 5396 fc3a efa1 cc3b 9173 4aba
000002d0: 8392 18b9 877b 56bb 76a0 663a 8463 17b9
000002e0: a757 6cbb e2ab fbba 03be 10ba bfb2 d0ba
000002f0: dd78 acbb 6e14 bdbb e5bc ad3d 93df d4b4
00000300: 87a2 b53b 66bc cdbb 449d 84bb 23f4 1a3b
00000310: 7c6f 36bb 725e 22bb f998 b7ba 7a8b 8bb9
00000320: 8c62 ef3b 339d 1bbb 0d49 58bb 062c de3a
00000330: 0434 883f 391e 64bb 29cd c53b e9e9 bf3a
00000340: 6701 c4bb 0af6 deba 37b6 84bd 18b9 a53d
00000350: 7228 d3ba d9b4 a7be 7b52 093c dd9a 013c
00000360: 3938 103f a720 2eb8 75f0 1ebc bfa0 c53a
00000370: aa2f 44b9 14d9 5cbb 5e03 fdba d214 bbba
00000380: 7092 803b 07b1 623b 4097 e139 51f9 79bf
00000390: e940 01bb 1791 f1bb 5569 02bc 2cc4 6b3d
000003a0: 2393 d83a 1aeb e13b a2c5 133b 79a8 3bbb
000003b0: 35f7 cc39 4547 15bc d702 8cbb d70d a839
000003c0: 251e c4b8 35e6 f5be fa01 81bb bba6 05ba
000003d0: 8c5a 903a 6ce6 2dbb 2242 c8bb a57c 8c38
000003e0: 7555 11bb f6ba 65b9 99d1 5235 bc42 b5ba
000003f0: 7acd aa3a 63ff 92b9 72d7 e6bb 9359 19bb
-0.0052886414 -0.006184371 0.002598874 -0.0018364876 0.009115045 -0.00439209 -0.110768795 0.0032899631
-0.001394257 -0.0020250548 0.002164079 0.0049016583 0.3977672 0.013441802 -0.007871503 -0.0023160381
-0.006996693 -0.0020474468 0.0029371688 0.0051223976 0.0010844552 -0.006295129 -0.0037565075 0.0005902546
-0.00021770285 0.0020801441 -0.002650726 0.006053172 -0.0038644685 0.005017227 0.18411398 0.0030859173
0.9651663 -0.009066852 -0.00048728113 0.06463293 -0.0034407636 0.0073755533 -0.1460451 0.0027248003
-0.8507994 0.0004524091 -0.006016338 0.010012863 -0.0050055417 0.0015732532 0.0022167254 -0.008121084
0.009400729 0.0027943326 -0.007896712 0.002143905 0.008364978 -0.002942616 0.011558728 -0.0007927542
-0.0010443617 0.0023390914 0.0006525574 0.010157045 0.005150808 0.007653642 0.0006811829 0.0064680907
0.0068908744 -0.002879117 -0.0035684004 -0.0031890725 0.0068114162 0.00246938 -1.0359203 -0.00083001517
-0.0003726537 -0.0010396378 0.005332351 0.003230021 -0.0010761895 -0.0023349083 0.008677212 0.0016582336
-0.0009229496 0.003317341 -0.006186645 0.005982828 0.15138759 0.0018428407 0.0075169457 -0.0073147295
-0.0003733797 -0.00074114837 -0.00979096 0.001175815 -0.0031495707 0.004237959 -0.24239038 0.005328506
0.0031301102 -0.0007461142 0.0032698854 0.0014729612 -0.006184787 0.0032572513 -0.0053888136 -0.0030335244
-0.011776297 -0.001705147 -0.0018986849 0.0034923565 -0.00021040582 -0.0025473954 -0.0032049327 -0.0052283737
-0.007981136 -0.0048896414 -0.0038172973 0.012595865 0.0028979243 0.0057276958 -0.004364325 -0.0015722661
0.003943828 -0.0043849186 0.0059170933 0.0007043973 0.00300178 -1.2983222 0.0025375134 -0.28548464
-0.0015117008 0.008533359 0.23637876 0.0039426303 -0.00072523643 0.0016450075 0.005138149 0.00062380085
0.0009118573 -0.5406298 -0.006060013 -0.0025705656 0.0018449705 -0.0023770945 -0.001215981 -0.1989587
-0.0028533894 0.264076 0.007605791 -0.0025262104 0.0014626611 0.00044815175 0.0039764596 0.032317393
-0.68541044 -0.0017512614 -0.010132942 0.0065851994 -0.0021176597 0.0016472181 -0.00016156225 0.0011977631
0.00021052097 6.435873e-05 -0.0009810913 -0.0024753981 0.0019696294 -0.0031350148 0.0019991563 0.0011275504
-0.00010654266 0.00429529 6.6708317e-06 0.00035703578 -0.0015162257 0.0020508328 0.1590065 -0.0022170376
0.00352988 0.0019270874 0.00624489 -0.0007722909 -0.0001455043 -0.0032727437 0.0008797714 -0.00014437555
-0.0036062987 -0.0019201005 -0.0005521478 -0.0015922411 -0.0052634315 -0.0057702577 0.084832944 -3.965075e-07
0.0055430564 -0.0062785624 -0.004047068 0.0023644052 -0.0027837446 -0.0024775532 -0.0014007381 -0.00026616064
0.007305449 -0.002374482 -0.0033002526 0.0016950376 1.0640874 -0.0034808053 0.00603642 0.0014641854
-0.0059816125 -0.0017010581 -0.06480067 0.080919445 -0.0016110076 -0.32755163 0.008381481 0.007910457
0.5633579 -4.1515243e-05 -0.009700884 0.0015077813 -0.00018709773 -0.0033698725 -0.0019303372 -0.0014273173
0.0039237067 0.003459038 0.00043028034 -0.9764605 -0.0019722527 -0.0073720324 -0.007959683 0.05756013
0.0016523342 0.0068944814 0.0022548218 -0.0028634353 0.00039094096 -0.00911123 -0.0042727995 0.00032053769
-9.351623e-05 -0.48027197 -0.003937003 -0.0005098392 0.0011013313 -0.0026535047 -0.0061113993 6.698937e-05
-0.002217618 -0.0002190879 7.85361e-07 -0.0013829092 0.0013031207 -0.00028037568 -0.007044726 -0.0023399338

8.bias f4 [10]
00000000: 9a44 d8bd 38ef d03b 1750 053d 086d e03c
00000010: bc7f 0bbe cc6a 053e 8b31 79be 33d1 183e
00000020: e83b 063e 0e2f 8ebd
-0.1055996 0.0063761733 0.032547083 0.02739574 -0.13622946 0.13029021 -0.24335305 0.14923553
0.1310879 -0.06942569
