project_networks/mnist_cnn_2layer_w1.onnx (onnx, 474867 bytes, 16 tensors)

0.weight f4 [4, 1, 4, 4]
000000 f1 7f f6 bb dc f9 55 bc e7 31 be bc 7b 3c 01 bd
       -0.007522576 -0.013060059 -0.023217155 -0.03155182
000010 67 c3 0c bc 91 f0 58 bc 90 63 21 bd c3 88 93 3d
       -0.008591509 -0.013240949 -0.03940159 0.072038196
000020 08 53 b7 bb 7d 10 bd bb 66 3c 14 be a4 a1 e0 bc
       -0.005594615 -0.005769788 -0.14476165 -0.027420826
000030 92 d7 81 bb 5f 89 5d bb f9 a0 63 bc 7b 83 5c bc
       -0.0039624656 -0.0033803803 -0.013893359 -0.013459082
000040 ed 79 c8 38 47 f7 43 b9 a5 3f 20 b9 09 67 8b b9
       9.5594536e-05 -0.00018688767 -0.00015282498 -0.00026588913
000050 03 62 4d ba f7 c4 51 39 0d 91 72 3f 92 74 0a 39
       -0.0007834734 0.00020005168 0.9475258 0.00013204131
000060 fd 55 f5 38 ca f4 30 39 be b3 e9 38 94 60 78 b9
       0.00011698527 0.00016875859 0.000111437854 -0.00023687101
000070 ff f7 95 39 a8 ec a7 39 2c fa 81 38 16 cf 00 ba
       0.00028604266 0.00032029045 6.1977975e-05 -0.0004913671
000080 44 18 52 b8 34 2d e3 39 a4 47 85 3a eb 93 de 3e
       -5.00905e-05 0.00043330493 0.0010168445 0.43472227
000090 23 3d 84 39 72 87 3c b8 1b 9b 92 3a 8e 07 e4 39
       0.00025222552 -4.4948836e-05 0.0011185141 0.00043493178
0000a0 b4 03 65 b9 c1 5c 99 b9 2e 48 dc b8 5c d6 e9 39
       -0.00021840521 -0.0002925154 -0.00010503862 0.00044600933
0000b0 07 a7 e5 b9 e7 f4 69 b9 c9 f0 36 b9 d9 47 12 b8
       -0.0004380273 -0.00022311845 -0.00017446572 -3.4876026e-05
0000c0 3f e0 a8 38 77 f1 fc b6 64 46 bb 39 70 0f cf 38
       8.052633e-05 -7.5382954e-06 0.00035719865 9.8734046e-05
0000d0 cc 81 b7 38 39 95 48 39 06 ea 91 3a 47 20 c7 b8
       8.7502965e-05 0.00019129076 0.0011132366 -9.4950716e-05
0000e0 e9 5c 0a 3a a6 79 8a 3f 4f 3b 9d 39 c6 1a 27 39
       0.0005278127 1.0818374 0.00029989562 0.00015936335
0000f0 ae b5 7c b9 12 80 1c 3a a3 a9 0a 3a a2 0a 77 38
       -0.00024100274 0.00059700117 0.000528956 5.889929e-05

0.bias f4 [4]
000000 a9 b4 9a bd a4 8e a1 be 89 4f 14 be dd 24 b7 be
       -0.075539894 -0.3155414 -0.14483465 -0.35770312

2.weight f4 [8, 4, 4, 4]
000000 5c ad 57 ba df 78 90 3b 81 ef 16 3c 91 60 9e 38
       -0.00082274317 0.00440894 0.009212376 7.552014e-05
000010 64 f9 98 bc 4f f7 86 3c fb 12 f3 3b 28 85 8f ba
       -0.018673606 0.016475348 0.007418034 -0.0010949718
000020 eb 61 39 bb e2 48 6a 3c 2a 22 45 39 6e 64 ba b9
       -0.0028287123 0.014299603 0.00018800111 -0.0003555151
000030 44 d7 31 b8 db 60 7c b8 f2 3e a7 38 12 56 7f b8
       -4.240057e-05 -6.0171686e-05 7.974905e-05 -6.0876897e-05
000040 a6 ac ec b9 8d 1a 07 3c 06 f1 58 3d 08 94 5c 3d
       -0.0004514206 0.008246076 0.052964233 0.05385211
000050 cf 9e bd bc fc a4 43 bb aa 5b e6 3d 48 22 9a 3d
       -0.023147015 -0.0029852977 0.11247952 0.0752607
000060 8b b8 e0 bf 87 26 34 3c 18 a1 e7 3d f4 20 37 39
       -1.7556318 0.010995514 0.11310023 0.00017464516
000070 34 b6 41 bb 34 e9 65 3c fb 33 b8 3c 20 c0 98 3a
       -0.0029558064 0.014032651 0.022485724 0.0011653937
000080 83 04 96 39 49 ff c1 3c a7 d6 ca 3d 86 d4 85 3b
       0.0002861359 0.0236813 0.09904223 0.0040841727
000090 c6 5c 7f bb 2e 56 1f 3b 1a 4e 53 3c 53 89 bf 3c
       -0.003896521 0.0024312842 0.012897039 0.023380911
0000a0 7e 0d 61 bf 65 f0 88 3b 1b 94 c6 3c ec 92 8f 3a
       -0.8791121 0.004179048 0.024240544 0.001095382
0000b0 7c a7 2c ba ee 2f 9d 3c e6 e2 19 3c ce de 43 38
       -0.00065862364 0.019187894 0.009392476 4.6699126e-05
0000c0 8f 7b cf ba 26 8c 81 bb 0b ed 75 3c 6c b8 e1 3d
       -0.001582967 -0.0039534746 0.015010129 0.11021504
0000d0 6b fb 4d be 35 46 8f bf 29 04 29 3d 9e e1 50 3e
       -0.2011544 -1.11933 0.041263733 0.20398566
0000e0 bd ee e1 bf 40 9c 31 ba d0 bb 4d 3d b2 9f ae 3c
       -1.7650982 -0.0006775297 0.05022794 0.021316383
0000f0 65 7f 97 3a 5b 05 41 3c b6 fc 38 3c 1d 98 4c 3b
       0.0011558352 0.011781062 0.01129072 0.0031218596
000100 b3 18 72 bb 87 9e ed 37 90 cc 89 38 fb ad 59 bc
       -0.0036940991 2.8326422e-05 6.570772e-05 -0.013286109
000110 ef 20 7f b7 dc 55 e8 3c be e2 97 bc 71 ed 63 bd
       -1.5206852e-05 0.028361253 -0.018540736 -0.055646364
000120 0a 57 e0 3b 60 4b b5 3c b8 44 02 bc 2a 67 a4 bc
       0.0068463134 0.022130668 -0.007950954 -0.020068724
000130 cb 86 69 3b 6b 11 74 b9 5f a1 34 bc 91 3e 63 bb
       0.0035633321 -0.00023276142 -0.011024802 -0.0034674744
000140 cf 93 0e bc aa 95 bb 3b 86 24 84 3c 8e cd 09 3b
       -0.0087022325 0.0057246285 0.016130697 0.002102706
000150 50 ed d1 bf 25 8d cd 3d d9 69 04 3e a4 38 09 3c
       -1.6400547 0.10036687 0.12931003 0.008375321
000160 64 4a 79 3c ab 01 24 3e 2c f3 11 3e e5 75 c9 bf
       0.01521549 0.16016261 0.14252919 -1.5739104
000170 3c e1 76 3c cd c0 22 3d 55 81 64 3b 12 89 14 bc
       0.0150683485 0.03973465 0.0034867127 -0.009065883
000180 34 92 8f 3a a0 eb 27 3b c7 c1 c9 3b dd ac 93 3a
       0.0010953606 0.0025622621 0.0061571333 0.0011266727
000190 34 24 d8 b8 fe 1d 10 3d 78 36 45 3c 0e 13 06 3b
       -0.00010306426 0.035184853 0.012036912 0.0020458135
0001a0 55 37 4b 3d 47 d8 51 3e af 74 59 3d 8b 77 54 c0
       0.049613316 0.2049266 0.053089794 -3.3197963
0001b0 5a 3f 89 3c fa 6e d8 3c cd 6c 38 3a c8 6f 45 bc
       0.016753841 0.026420105 0.00070352555 -0.0120505765
0001c0 a0 90 6c bc 70 37 fa b8 87 fd 1a 3d d7 06 10 3d
       -0.014438778 -0.00011931255 0.03783944 0.035162773
0001d0 bf 18 ba bf 94 f9 14 3e c3 6e e7 3d bc ef 8c 3d
       -1.4538802 0.14548331 0.11300423 0.06881663
0001e0 1e 56 f1 ba dd 60 97 3d 86 ab 91 3d f3 9f 60 3a
       -0.0018412506 0.07391522 0.071127936 0.0008568756
0001f0 4c 9e a4 3a a6 2e 30 3d 4b df 76 3b 4b 5b ae 3b
       0.0012559383 0.043013237 0.0037669714 0.0053209416
000200 3f f9 72 3a 93 9e 7b bb 1a 4a 88 3b 73 c5 24 3b
       0.0009268708 -0.0038394078 0.004159224 0.0025142103
000210 89 4e 1d 3c 07 32 5a bc e8 e9 51 bd bd d6 d1 39
       0.009601244 -0.0133175915 -0.05124846 0.0004002358
000220 dd 30 9a 3c 5b 43 f4 3d bf da 9f bd 80 8e fe 3a
       0.018822128 0.119269095 -0.078053944 0.001942113
000230 a6 26 48 b8 6b 93 3a 3d e8 bf 57 b9 5c 27 52 bb
       -4.771971e-05 0.045550745 -0.00020575488 -0.0032066917
000240 8d ea 92 ba 9c be 41 3c be cb d6 3b cf e8 75 be
       -0.0011208818 0.01182523 0.0065550497 -0.2401459
000250 17 1f d1 3c 96 e4 f3 3d 97 d7 1b 3c a1 95 72 c0
       0.02552752 0.11908834 0.00951185 -3.7903826
000260 26 06 ae 3d e0 a8 00 3e 8d c6 e8 3c 89 8f bd bf
       0.084972665 0.1256442 0.028414989 -1.4809428
000270 17 ae aa 3c b9 8b 3c 3d ac c2 6a 3c 8e 11 8b bc
       0.020834966 0.046031687 0.01432864 -0.016976144
000280 f0 ac 27 3b 10 11 1c 3c f8 b3 10 3a dd e1 41 bb
       0.0025585257 0.009525552 0.00055199815 -0.0029584088
000290 e7 b9 d4 3b b3 3c 0a 3d 02 1d 57 bf 52 86 e3 bb
       0.006491888 0.033749294 -0.8402864 -0.0069435025
0002a0 cd 66 94 3c 7f da 79 3d 65 13 8b be a0 e3 07 bd
       0.018115425 0.06099939 -0.27163234 -0.033176064
0002b0 ec ec 98 3c 8f 0f a2 3b 30 a9 2a 3a b7 39 a2 be
       0.01866766 0.0049457024 0.0006510196 -0.31684658
0002c0 77 1c 99 b9 1c 42 86 3c 92 20 4d 3d 89 ce 8e bf
       -0.00029203642 0.016388945 0.05007989 -1.115678
0002d0 0f bc b3 3a 1d 68 4d 3e f3 15 ad 3d 17 e2 ab bf
       0.0013712662 0.20059247 0.08451452 -1.3428372
0002e0 ec 96 8e 3b 7f f3 ce 3d 13 f0 d4 3d 4b 29 71 3a
       0.0043514874 0.10105037 0.10397353 0.00091995735
0002f0 eb 4c ea 3a 89 3f 55 3c fd 6b 82 3b 37 48 a8 ba
       0.0017875707 0.013015636 0.0039801584 -0.0012838905
000300 43 62 89 39 30 e8 9c b8 39 52 b4 39 cc 9e 05 b8
       0.00026203887 -7.481908e-05 0.00034393536 -3.1857562e-05
000310 8d 96 12 3b 8d af 11 3c 87 f9 af 39 a8 fd af 38
       0.0022367567 0.008891952 0.00033564513 8.3918974e-05
000320 91 76 59 3a 92 f6 ec 3a 18 c5 5d bc 5a a9 dd ba
       0.0008295561 0.0018078855 -0.01353576 -0.0016911433
000330 fb ea 58 ba b6 e6 7b bd 41 23 5b bb c5 f1 34 b6
       -0.0008274761 -0.06149932 -0.003343776 -2.6962819e-06
000340 65 f4 b3 3a a8 b2 2a 3b 1f de 6a 3c 0d c2 f1 3b
       0.0013729451 0.0026046429 0.014335184 0.007377869
000350 c7 3f 93 3b cc 9d c1 3b fa 83 d2 3b 8b 91 e6 ba
       0.004493687 0.0059087034 0.0064244242 -0.0017590983
000360 79 34 98 3b 01 23 b9 ba d6 1e aa bc fa f6 b1 bf
       0.004644927 -0.0014124812 -0.020766657 -1.3903496
000370 dc ae 1c bb 6f 99 56 bf 05 9f d2 bf 96 8a 49 bb
       -0.0023907935 -0.8382787 -1.6454779 -0.003075277
000380 8e 13 11 3b 9d cb 71 3b ca 0e b2 3c 0d 9a 7c 3b
       0.00221369 0.0036895045 0.021735568 0.003854397
000390 64 ec 9e 3b 7d 22 9f 3b 7a 45 14 3c 50 19 c3 ba
       0.0048499573 0.0048564062 0.009049768 -0.0014884863
0003a0 08 0e f8 3b 2a c8 b4 3b e9 ff bb b9 82 d8 e8 bf
       0.007570032 0.0055170255 -0.00035858087 -1.8191073
0003b0 76 8a 62 ba 6a 33 e2 bc 99 f6 4b bf 6a 8e 42 ba
       -0.0008641848 -0.027612407 -0.79673153 -0.0007421734
0003c0 01 ee 62 3a 01 55 92 3b 9b 80 a7 3b 2b d5 37 3c
       0.0008656681 0.0044656997 0.0051117665 0.011220257
0003d0 27 38 80 3b 98 9e 05 3c ed 21 ac 3b 34 86 b9 b9
       0.003912944 0.0081554875 0.0052530677 -0.0003538594
0003e0 a1 d6 a5 38 dd 23 58 ba ed 0b d2 bc 6b aa 91 bf
       7.907791e-05 -0.000824509 -0.025640452 -1.1380132
0003f0 5b 62 8f 35 f5 47 d3 bc 48 b1 4e bf f9 17 6f bb
       1.0682955e-06 -0.025791148 -0.8073926 -0.0036482795

2.bias f4 [8]
000000 d8 a6 aa 3d 48 ae c8 39 75 41 96 3d 37 60 82 3e
       0.08332604 0.00038276822 0.07336704 0.2546403
000010 eb ee 9a 3e 4c 26 9a 39 9d be 83 3b e6 9c 86 3b
       0.30260405 0.00029401702 0.0040205256 0.004108059

5.weight f4 [128, 392]
000000 f3 eb cf 3d 36 59 91 3d e4 05 d3 bd 5c 3a 9f bd
       0.101524256 0.07097094 -0.10303858 -0.07774803
000010 0e 04 9b bd ac a2 da 3c 77 da 87 3d 82 58 94 bd
       -0.07569133 0.026688896 0.06633466 -0.07243444
000020 23 87 d5 3c ed d6 1b be 43 0a ab bd 7b 0d 19 3d
       0.026065415 -0.15218706 -0.08351567 0.03736637
000030 b5 84 b3 bd 5f 6a 09 be 77 bf 5c 3d f7 be fd bc
       -0.08765546 -0.13419484 0.053893533 -0.030974848
000040 a3 2b 80 bd b2 38 b2 bd d1 b5 dc bd 24 8f 7d bd
       -0.06258323 -0.0870222 -0.10776866 -0.061904088
000050 4f ef fe bc 0f bf 70 bd d4 1c cf bd ac 05 75 bc
       -0.03111997 -0.058775958 -0.101129204 -0.014954966
000060 ad 5c 57 bd 6f c2 1a be 4a e9 ec bd 6c 8a 6e bd
       -0.052578617 -0.15113233 -0.11567934 -0.058237478
000070 6a 07 02 bd d6 1c 86 3d 1e 20 b4 bd 46 11 33 be
       -0.03174535 0.06548469 -0.08795188 -0.17487058
000080 10 a8 2d bd 6a 39 17 3d 5c 52 04 bc 2b cb 98 3c
       -0.042396605 0.03691999 -0.008076277 0.018651566
000090 34 b5 32 bd b7 c8 ad b9 91 d0 ac bd c5 d3 02 be
       -0.04362984 -0.00033146676 -0.084382184 -0.12776096
0000a0 1c 6d ce bd 4a fd 9f 3d 87 d7 61 3d d1 3f b7 bc
       -0.10079405 0.07811983 0.055137184 -0.022369297
0000b0 9b 15 a9 3c 75 bb 40 3d 73 b4 29 3c 91 2f e7 bd
       0.020640185 0.047053773 0.010357964 -0.112883694
0000c0 25 97 b7 3d 51 19 fc bd 79 5d 5f bd 13 d1 98 bd
       0.089643754 -0.12309516 -0.0545325 -0.07461753
0000d0 db c2 1a 3e f9 42 77 3d 96 63 0e 3d 94 c9 17 bd
       0.15113394 0.060366604 0.03476294 -0.037057474
0000e0 4c d0 cf 3d 4b af 8c bd 46 c0 1c 3d ae da 6c bd
       0.10147151 -0.06869372 0.038269304 -0.057825737
0000f0 6a bb aa bc c9 96 34 bd 53 90 e3 3b 8a 7f 88 3c
       -0.02084132 -0.044089112 0.006944695 0.016662378
000100 8a 26 d1 3b 4b ff 6c bd 80 72 50 bd b8 24 6f bd
       0.006382768 -0.057860654 -0.050890446 -0.058384627
000110 a1 a7 99 3c c3 58 8e bd 62 0f e2 bd 2d dc 5d 3a
       0.01875669 -0.06950524 -0.1103809 0.00084632897
000120 d2 ca df bc 2f d6 86 bb 0d 53 84 3c fe 80 ab bd
       -0.027318392 -0.004114888 0.016152883 -0.08374213
000130 40 a8 10 bd b1 78 a2 bc 6f da d1 3d d6 1b ec 3c
       -0.035316706 -0.01983294 0.10246741 0.028821867
000140 66 6b a1 bd 51 30 89 bd 94 71 f7 3c b0 d9 aa 3d
       -0.07881813 -0.06698669 0.030205525 0.08342302
000150 71 04 ed 3c 0c 00 c4 bd 77 cf 6b bd 24 d2 c2 bd
       0.028932782 -0.095703214 -0.0575709 -0.095127374
000160 32 53 b9 bc 69 ca ce 3d a3 b4 c7 bd 15 a5 9b 3d
       -0.022622678 0.100972004 -0.097512506 0.07599846
000170 57 86 79 3c 66 7a 5a bc 36 8e 83 3d db 35 02 3d
       0.015229783 -0.013334846 0.06423609 0.03178964
000180 bf 95 61 bc ac 34 86 bd c7 f3 83 bd 0e 38 3b bd
       -0.013768612 -0.06553015 -0.06442981 -0.045707755
000190 6d a9 33 3c 71 2e b3 bd 2f 37 94 bd 4f 54 54 3d
       0.010965687 -0.08749092 -0.07237088 0.051838215
0001a0 b7 ba 0f bd 5d fc 45 3d 8c 5f bc bd 66 b6 ca bc
       -0.035090175 0.048336376 -0.091979116 -0.024745177
0001b0 e7 1f 59 bd cb 22 f3 bc bd ab e1 bd 45 80 ba bb
       -0.05300894 -0.029679677 -0.110190846 -0.0056915605
0001c0 78 e8 f3 b9 a8 f3 ec 3c fd ea b6 bd e2 ee d5 3c
       -0.00046521774 0.028924778 -0.08931539 0.026114885
0001d0 79 19 83 bd 50 7f 93 bc 32 29 aa bd 39 fb e7 bd
       -0.06401343 -0.018005043 -0.08308639 -0.11327214
0001e0 4f d3 30 bd c7 d1 23 3d 11 06 32 bd 12 0f 98 3d
       -0.04317027 0.03999498 -0.043462817 0.074247494
0001f0 6a 80 41 bd 57 98 b4 bd 11 ff 67 3c ea b4 79 3d
       -0.047241606 -0.08818119 0.014159934 0.06096355
000200 89 7a 79 3d e8 c4 2c bd 31 9a 3e 3d d1 9b da bd
       0.060907874 -0.042179972 0.046533767 -0.10674251
000210 d4 0b b4 bd c5 63 f8 bd a7 fb 6b bd 3a 66 72 3d
       -0.087913185 -0.121284045 -0.05761304 0.059179522
000220 de 3c a0 3c 3e ba 55 bc ae e5 0e bd 6b 9e b6 bd
       0.019560274 -0.013044892 -0.03488701 -0.089169346
000230 a9 61 d7 3b cc 0b 22 bd 3e 11 94 3d 07 84 2c bd
       0.0065729213 -0.03956203 0.07229851 -0.0421181
000240 b3 1a 86 3d b2 d3 1f bd 82 dc f0 bb eb 15 a6 3d
       0.06548061 -0.039020248 -0.0073505053 0.08109649
000250 39 bf be 3d 15 81 13 3c 45 66 00 bc 2f e8 91 bd
       0.093138166 0.0090029435 -0.007836883 -0.07124364
000260 42 e9 82 3d 5d 39 8e 3c 0f a1 11 3d 50 31 81 bc
       0.06392147 0.017361337 0.035553988 -0.015770584
000270 f6 4b 59 3d 18 52 db bd ce 0c 0d be 87 db 95 bd
       0.053050958 -0.107090175 -0.13774416 -0.07317262
000280 27 82 89 3d b2 1c 72 3d 87 48 07 be 25 74 c1 bd
       0.06714278 0.059109397 -0.1321126 -0.09445981
000290 bf 04 8f bd 76 0f c7 bd c6 9c f8 bd bb 23 da 3c
       -0.06983327 -0.09719746 -0.12139277 0.026628366
0002a0 32 7c 03 be a7 52 09 3d f2 09 62 bd 0e 82 ef bd
       -0.12840346 0.03352609 -0.055185266 -0.11694728
0002b0 da c7 16 be c7 38 6d bd f0 4a 4d bd e8 51 04 3d
       -0.14724675 -0.057915475 -0.050120294 0.032304674
0002c0 3c 28 63 3d db e9 5c bc e6 55 f1 bd 50 8b 87 bd
       0.055458292 -0.01348349 -0.11783962 -0.066183686
0002d0 f9 aa 7f bd 53 cd d2 bd 5f 33 be 3d 6a c9 f0 bc
       -0.06241891 -0.10293069 0.09287142 -0.029392917
0002e0 f2 c2 9e bc 35 f7 63 3a f5 5e 87 bd f7 a4 f6 bc
       -0.019380067 0.00086961995 -0.066099085 -0.030107958
0002f0 49 d5 06 bd 4f 53 4d 3c 2b 09 1e be 08 6e 52 3d
       -0.03291825 0.012532069 -0.15433185 0.051374465
000300 c3 ae 93 bd ba 14 a7 bc 56 38 b6 3d bb b1 6a 3d
       -0.072110675 -0.020395625 0.08897464 0.057298403
000310 8a c5 7a 3d 1f 6e d8 3c eb 2f 6c 3a c2 2f b9 bd
       0.061223544 0.026419697 0.0009009826 -0.09042312
000320 c5 ec ff bc fc 35 6c ba 7c b1 b7 bc d8 36 0d bc
       -0.03124083 -0.000901073 -0.022423498 -0.008619033
000330 b0 c2 01 be 22 93 52 bd fe dc 8e 3d 33 3d 32 bc
       -0.12671924 -0.051409848 0.06975745 -0.010878849
000340 d2 d2 3b bd 08 bd 13 bd ee 94 2d 3d f8 07 03 be
       -0.04585535 -0.036068946 0.04237836 -0.12796009
000350 96 1d 0d 3d 80 33 4d bd d7 2d 5f 3d 52 37 83 bd
       0.034452043 -0.050097942 0.054487076 -0.06407036
000360 c4 25 21 3d 12 16 50 bd 56 e5 25 be 6f 31 a8 bb
       0.039342657 -0.050802298 -0.16200766 -0.005132846
000370 0a 72 fe bc 2d fd 81 3d 01 97 3c bb fe 42 79 bd
       -0.031060237 0.063471176 -0.0028776529 -0.060854904
000380 10 81 18 be 6b 7c 9e 3d 3e cb 20 be 29 7a fe bc
       -0.14892983 0.077385746 -0.1570253 -0.03106411
000390 fe 77 a2 bd 86 98 c4 3c 20 0f a3 bd 37 c1 cd bd
       -0.07933043 0.02399851 -0.07961869 -0.100466184
0003a0 38 f4 7e 3d 6c 52 ff 3c 99 c7 14 bd 41 9d 03 bd
       0.062244624 0.031167232 -0.036323164 -0.03213239
0003b0 ce 93 f9 3c 1b 8c a1 bd d1 ca 93 bd 67 69 3f bd
       0.030465987 -0.07888051 -0.072164185 -0.04673138
0003c0 c5 c0 4f 3d 4e 2e 88 bd fc c3 cb 3c 92 e4 b6 bd
       0.05072095 -0.06649457 0.024873726 -0.08930315
0003d0 1f 0f 6e 3c d2 a8 35 bc 77 33 4d bd 6c 98 3e 3d
       0.014529972 -0.011087613 -0.05009791 0.04653208
0003e0 e1 8f ce bd 4b 12 71 bd 5b 4d 78 3d b0 33 4e bc
       -0.100860365 -0.058855336 0.060620647 -0.012585565
0003f0 fd c1 05 bd 2e 94 ef bd 35 ff c9 bd 3a 09 83 3d
       -0.032655705 -0.11698185 -0.0986313 0.06398244

5.bias f4 [128]
000000 32 71 85 bd 55 3f 76 3d 52 fc 1a 3e 1e 03 70 3e
       -0.06515731 0.060118992 0.15135315 0.23438689
000010 a9 e9 45 3e cf be 7b 3b 80 1a 7e 3d f2 ad f0 bd
       0.19327416 0.0038413291 0.06203699 -0.117519274
000020 fd 47 6b 3e 9d 96 9b bc 5d 38 05 3d ba 7c bc bd
       0.2297668 -0.018992716 0.032524455 -0.09203477
000030 2d 29 84 3e 7b f0 a5 3d db 5a 16 be c7 63 bd 3d
       0.25812665 0.08102509 -0.14683096 0.09247547
000040 49 f4 9f 3e 1a 86 2c 3e 56 26 14 3d 1c c8 67 bd
       0.31241062 0.1684803 0.036169372 -0.056587324
000050 33 99 f3 3d 8f a4 4a 3e f8 67 bf 3e 77 3a 9b bd
       0.11894455 0.19789337 0.3738401 -0.07579511
000060 59 96 8b 3d 50 1f 8d bd 6e 1e 66 3e f2 3f 60 3d
       0.06815786 -0.06890738 0.22472546 0.054748483
000070 3e a0 69 3e 06 23 b6 3e 9f b2 8b 3d 16 21 b0 bd
       0.22815034 0.35573596 0.06821179 -0.08600061
000080 ba 23 88 3d 48 74 3b 3d ea f5 6e 3d c4 ec be 3d
       0.06647439 0.04576519 0.05833999 0.09322503
000090 42 1f 30 3e 65 24 13 3d 04 b1 65 3e 8b 93 62 3e
       0.17199424 0.03592338 0.22430807 0.22126596
0000a0 c0 66 a6 3d f0 cb b2 3d 2a 66 85 3e d7 ed 25 3d
       0.08125067 0.08730304 0.26054507 0.040510025
0000b0 21 3f 49 3e 41 81 c2 3d 00 0e ae 3c 93 28 cd 3d
       0.19652988 0.094973095 0.02124691 0.100175045
0000c0 ec e1 bc 3e 86 ec 6f 3e 7c 73 69 3d d2 82 d6 bd
       0.36891115 0.2343007 0.0569949 -0.10474171
0000d0 6c e8 29 3d 1e 5f b7 3d 38 23 ff 3c 9a cb 1d 3e
       0.04148142 0.08953689 0.031144723 0.15409699
0000e0 c8 e0 3b 3e f1 2e ae bc bd 0d 14 3e 8d 8b 6c 3e
       0.18347466 -0.021262618 0.14458366 0.2310011
0000f0 57 ac 66 bc 4c 05 63 3e 60 da 96 3e 12 25 38 3e
       -0.014079175 0.2216999 0.29463482 0.17982891
000100 e7 bf b9 bd 8f a8 01 3d 12 f7 bc 3d e0 41 7e 3e
       -0.090698056 0.03165489 0.092268124 0.24829817
000110 3e 5e 96 3d 00 16 75 be a5 d6 1b 3e 5c dd ab 3d
       0.07342194 -0.23934174 0.15218599 0.0839183
000120 92 94 2e 3e 99 01 84 3c 8a 89 46 be e0 0e df 3d
       0.17048863 0.016114043 -0.19388404 0.10891509
000130 87 5e 23 3e b0 58 09 be be ea 90 3e 4f 57 57 3e
       0.15954028 -0.13412738 0.28304094 0.210294
000140 c8 27 7e bd f6 a4 24 3e 38 fe 90 3d 30 94 0f 3f
       -0.062049657 0.16078553 0.070797384 0.5608549
000150 21 3f b3 3d 6a 6c 4f bd 14 0e bc 3e c5 40 58 3d
       0.08752275 -0.0506405 0.3672949 0.052796144
000160 1c ee a8 3d 98 63 d1 3d f6 be 38 bd 71 ea 48 3e
       0.08248541 0.10224074 -0.04510399 0.19620682
000170 ef 5d 80 3e d2 c6 70 3d fa 5d 49 3e b0 b8 26 3e
       0.25071666 0.05878336 0.19664755 0.1628139
000180 71 7f 35 3e 56 1c a7 3d fa 9b fb 3d ba 99 2e 3e
       0.17724396 0.081597015 0.122856095 0.1705083
000190 0a 0a 3f 3e 44 6c 64 bc 27 79 5a 3e 61 20 a7 3d
       0.18656173 -0.013941828 0.21335278 0.08160473
0001a0 a0 e5 4f 3c 31 e3 bc bd 75 aa 11 3e fb 67 bc 3d
       0.012689024 -0.09223021 0.1422518 0.0919952
0001b0 36 59 64 3e 53 74 44 3e 88 35 55 3e 63 e5 24 3e
       0.22299656 0.19184999 0.20821202 0.16103129
0001c0 48 74 df 3d c1 19 b4 3d 95 17 71 3e 7f 5e 94 3d
       0.10910851 0.08793975 0.23544152 0.07244586
0001d0 32 ab 1f 3e 9b 2f e0 bd 9e e9 a4 3e 88 94 0f 3d
       0.1559265 -0.1094658 0.32209486 0.03505376
0001e0 45 78 13 3e ae 51 69 bd 2b f3 25 3b 51 68 cd 3d
       0.14401348 -0.05696266 0.0025321941 0.100296624
0001f0 6d 3e a6 3e 51 b1 8d 3e 0c bc 6e 3e 62 5d 3c bd
       0.32469502 0.27674344 0.23313922 -0.045987494

7.weight f4 [128, 128]
000000 b1 4c c7 3d 4d 52 d3 39 9c ed 24 bc d5 06 60 bf
       0.097314246 0.00040306375 -0.010066416 -0.87510425
000010 61 49 88 bf f2 7c 98 bc e5 56 00 bc 81 e3 32 bf
       -1.0647393 -0.018614266 -0.007833217 -0.69878393
000020 68 fb 3f 3a 81 6d 79 bd 2a 16 27 3f 44 26 7b bc
       0.0007323534 -0.060895447 0.65268195 -0.015328947
000030 93 3a b3 be d8 e5 1b bc d9 2b ad 3d 4e 8e 05 bd
       -0.35005626 -0.009515248 0.08455629 -0.032606415
000040 39 cf 60 be 18 68 8e be 12 5d 65 3c 21 e6 a6 bd
       -0.21954049 -0.27813792 0.0139992405 -0.08149362
000050 0c 6f 6c 3c 65 4e 99 3d a7 e9 10 be 46 2a 44 bb
       0.0144307725 0.07485656 -0.14151631 -0.0029932423
000060 05 94 02 bd 2d 1c c2 3d 15 c2 d8 be 54 6e 99 3c
       -0.031879444 0.0947803 -0.42335573 0.018729366
000070 0c f0 57 3d be e5 ea bc 9d f4 e1 3e d9 bb 97 3c
       0.05271916 -0.028674003 0.44131938 0.01852219
000080 d3 58 1d bf b6 af b3 3c 0a 76 31 3d ef c2 76 3c
       -0.6146366 0.021934371 0.04332546 0.015061124
000090 79 66 1c 3d 98 9a 2e bd 98 3a a7 3a df 3a 17 bc
       0.038183663 -0.0426279 0.0012758551 -0.009230345
0000a0 af 73 66 3e 9f 0e f5 bd cb 31 36 bf 07 86 b9 bc
       0.22505067 -0.119656794 -0.7116973 -0.022646917
0000b0 f7 25 41 3c 52 f8 1c 3e 0c 1c f1 bb 1f b2 a0 3c
       0.011788837 0.15329102 -0.00735808 0.019616185
0000c0 03 8d fa be 91 d6 e2 bc bf 7f 06 3d db fa 4b be
       -0.48935708 -0.027690204 0.032836672 -0.19919913
0000d0 85 58 f4 39 15 c3 24 bf 04 bd db bc 6e ab 5a bc
       0.0004660526 -0.6436017 -0.026823528 -0.013346536
0000e0 6b 24 a7 bb 39 cb 70 ba 7e 1b 58 3c 56 56 4f bc
       -0.005100777 -0.0009185556 0.013190148 -0.012654861
0000f0 c3 aa 37 bc a4 9a bc 3b 68 4f 79 3c 42 e2 21 3d
       -0.011210146 0.0057557393 0.015216686 0.039522417
000100 01 30 02 bf e9 5b 67 3e 91 fa 10 bc e4 f8 f6 bc
       -0.508545 0.22593655 -0.008848802 -0.030147977
000110 19 77 3f bc 5c 58 08 bf b1 53 0a bd 52 da 89 3d
       -0.01168611 -0.53259826 -0.03377122 0.067310944
000120 be ca a3 be cf a5 62 3c 8f d3 e7 3d 2e 4a e6 bd
       -0.31990618 0.013833477 0.113196485 -0.112446174
000130 12 af 1d be 62 22 9e be 5f 9e 08 be 40 fa a7 3d
       -0.15398815 -0.30885607 -0.13341664 0.08202028
000140 7a 7c 82 3d d1 d3 bc 3e 24 45 ce 3a ea 1b 1d be
       0.06371398 0.36880353 0.0015737158 -0.1534268
000150 a5 21 30 bd 35 a7 5d 3d 59 cb 6d be 5b dd fd ba
       -0.043000836 0.05411454 -0.23222102 -0.0019368337
000160 55 6a 66 be 0a 7e d0 bb 2e a1 d5 be ed a8 c4 bb
       -0.225015 -0.0063626813 -0.41724533 -0.006001583
000170 21 ab 5f 3c 38 d8 42 3b e8 1c 4b bf 28 61 d1 be
       0.01365164 0.0029730927 -0.7934098 -0.40894437
000180 78 5f 88 bf c9 bc df be c4 da 51 3c cb f3 f6 bc
       -1.0654135 -0.4369872 0.012808505 -0.030145546
000190 34 89 2b bf ed 8e b7 bc 47 0d 2c 3b 38 f4 9b 3b
       -0.6700623 -0.02240702 0.002625303 0.0047593378
0001a0 f9 fb 2d 3e b8 12 ed 3d 57 23 56 bc 27 86 2d 3c
       0.16990651 0.11575836 -0.013069949 0.010591066
0001b0 4b cb 03 3f 4f 7b f2 bd 4c c4 ec bc 3c 95 69 bf
       0.51482075 -0.118399255 -0.028902195 -0.9124334
0001c0 23 d1 15 bf 80 65 17 bd f5 ff ba bd 6a ce 58 bb
       -0.5852224 -0.036962032 -0.09130851 -0.0033082017
0001d0 99 b3 2b 3f db 04 6c bc ad e8 6f 3b 23 b2 80 3c
       0.6707092 -0.0144054545 0.0036607191 0.015709942
0001e0 a9 b6 90 3e b1 4f 32 3e 89 53 3c 3b 8b ad bc be
       0.2826436 0.17413212 0.0028736314 -0.36851153
0001f0 3a f8 7d bb cf 8d f0 3a 5d 7e e8 be 0e 7f a5 bb
       -0.003875269 0.0018352809 -0.45408908 -0.0050505465
000200 a5 de 8e 3d 18 c5 28 3c 5f 3e eb 37 04 83 d6 be
       0.0697606 0.010300897 2.8043227e-05 -0.41896832
000210 50 e0 1a bb 8d 5a 3a be 53 a9 39 3b e8 ae 5c 3d
       -0.0023632236 -0.18198605 0.0028329685 0.05387774
000220 fc e4 4d ba 17 13 07 bf 44 6e 91 3b 92 e2 12 39
       -0.0007854251 -0.52763504 0.0044381935 0.00014008049
000230 e1 cf 04 bc 38 9a 96 3a ba 3e bb 3b 0e 19 b8 bb
       -0.008106203 0.0011490053 0.0057142647 -0.005618221
000240 5d 1a f9 bb 9c f6 d0 b9 23 44 ef 39 dc 85 e4 bb
       -0.0076020197 -0.0003985659 0.00045636398 -0.006973965
000250 4c 98 d5 bd 2b 00 3d bc f1 a9 1f bd 4f 19 53 3b
       -0.10429439 -0.011535685 -0.038980428 0.003221113
000260 fb 2e 1b bd 67 b5 83 3d 48 93 c0 be 7e 56 1b 3c
       -0.0378866 0.06431084 -0.37612367 0.009481071
000270 e7 30 b0 3b f1 41 98 bc 92 36 97 bd c9 06 38 3e
       0.0053769234 -0.01858613 -0.07383455 0.17971338
000280 a8 07 7d 3b 82 da 4e bd 76 14 6e 3c b6 67 61 38
       0.00386093 -0.050501354 0.014531245 5.374077e-05
000290 3e 82 8d 3d f8 70 a0 b7 aa f8 f6 be e9 aa b4 be
       0.06909607 -1.9126092e-05 -0.4823659 -0.35286644
0002a0 70 82 18 bc 4e ef a1 be 1e 70 42 ba 9e 51 e1 ba
       -0.0093084425 -0.31627887 -0.00074172195 -0.0017190462
0002b0 52 1a 02 38 05 d0 db 3b cd 62 14 be 8d 97 52 3e
       3.1018928e-05 0.0067081475 -0.14490815 0.20565625
0002c0 75 26 4d bd 5f ab 23 bc 66 b8 00 bf 68 f7 85 3c
       -0.050085504 -0.0099895885 -0.5028137 0.016353324
0002d0 4d f6 49 3c 1a d0 9a bb 42 17 eb 3a 40 b3 13 3e
       0.012326789 -0.0047245147 0.0017936009 0.14423847
0002e0 96 72 a9 bb ce 1e ce 3b 72 2a 1a ba 49 c7 2a bb
       -0.0051711304 0.0062902933 -0.00058809586 -0.0026058725
0002f0 bf 05 32 bc df b3 eb ba 5e 8a 90 3a 21 ab e2 be
       -0.010865628 -0.0017982683 0.0011027565 -0.44271186
000300 8e d6 bf ba b7 e7 31 3c 79 cf 1d bf 0d 8b 2d bb
       -0.0014636086 0.010858468 -0.61644703 -0.0026480586
000310 94 d5 f6 3e c6 56 9a 3a dc 59 23 3b 16 09 2a be
       0.48209822 0.0011775128 0.0024925387 -0.16605029
000320 e9 1b b3 bc 70 44 45 3c 5c ca 89 ba c0 09 07 bd
       -0.021863895 0.012040243 -0.0010512578 -0.032968283
000330 00 06 a0 bb 2c 1e 73 ba 01 90 13 bc 49 c3 2a bb
       -0.0048835278 -0.00092742103 -0.009006501 -0.002605634
000340 ba 59 c2 bc eb e7 0b 3b f2 67 c0 39 ab 49 c8 bc
       -0.023724426 0.002134795 0.0003669854 -0.02444919
000350 67 f7 6d bb e3 ca a2 bd b6 dd 9d 3a 74 f9 cf 3e
       -0.0036310793 -0.07948854 0.0012044224 0.40620005
000360 25 ee 88 bd 8b 43 73 3b 23 da f9 bb 36 64 61 3f
       -0.066860475 0.0037119116 -0.007624881 0.88043535
000370 5a 68 df bb 37 f5 b3 be 01 37 4c bf 80 92 c6 bd
       -0.0068178596 -0.35148022 -0.7977143 -0.096959114
000380 6b da eb 38 a0 b5 75 bb 8c b2 b3 bc f8 67 87 bd
       0.00011246357 -0.003749229 -0.021935724 -0.06611627
000390 69 fc 9f 3e 8d 32 b5 3b f2 b3 23 3d 07 b3 29 bf
       0.3124726 0.0055297078 0.03996653 -0.662888
0003a0 20 2f a7 3d 31 88 8a 3d 10 65 26 bc e2 8e c8 3a
       0.08163285 0.06764258 -0.010155931 0.0015301371
0003b0 63 5d 93 3b cc 87 29 bb 78 f9 d9 be 60 6e 40 3b
       0.0044972165 -0.0025868295 -0.42573142 0.0029362664
0003c0 87 10 85 be 1b 5c 35 3a 6f 35 0e bf 46 94 77 3b
       -0.25989172 0.0006918327 -0.55550283 0.0037777587
0003d0 b7 87 90 bd 4a a9 2a bf 9f 52 26 bd c7 28 24 3c
       -0.070571356 -0.66664565 -0.040606137 0.010019488
0003e0 11 5d 82 3e b0 bb 1e ba 66 58 b1 3a c6 f8 3a 3b
       0.2546163 -0.00060551893 0.0013530373 0.0028529628
0003f0 73 0d 4b bd e9 b2 41 3a 8f 46 75 3e cf 7c 6c 3b
       -0.049573373 0.00073890254 0.23952697 0.0036085134

7.bias f4 [128]
000000 3a 50 09 3e f3 6d ac 3e 10 9c e4 3d 17 e8 8a bd
       0.1340951 0.33677635 0.11162579 -0.06782549
000010 0d 3a bc 3e 78 ed 6d be 1f 07 97 3e c7 ae b3 bc
       0.3676304 -0.23235118 0.2949762 -0.021933926
000020 98 56 60 3e 0b 43 9b bc 71 dd 60 3d 93 c7 84 3c
       0.21908033 -0.018952867 0.054898683 0.016208446
000030 68 e1 92 3e ee 23 0a be b8 bc 92 3d f7 c5 1f 3d
       0.28687596 -0.13490269 0.071649015 0.039007153
000040 a2 39 ae bd 86 32 1c be 95 c3 83 3e eb 79 01 be
       -0.08507086 -0.15253648 0.25735155 -0.12644164
000050 b1 fc d1 bd 6c 39 ad 3d cb a8 91 3c a9 10 00 3d
       -0.10253275 0.08458218 0.017780682 0.03126589
000060 b2 3a 98 3c 4a 77 09 3f d5 ad f3 bd 6c 97 b2 3d
       0.018582676 0.53697646 -0.1189839 0.08720288
000070 93 1e 8c bb 4a e9 0f be f3 a5 28 bd ca 83 00 be
       -0.0042761057 -0.14053836 -0.041173887 -0.12550274
000080 0e 1d b5 bd b9 22 bf be 78 ba 95 3d e6 69 81 3e
       -0.08843432 -0.3733118 0.07310957 0.25276107
000090 dc c9 08 3f 29 24 67 be 4b 1b e6 3e ca a6 5f 3e
       0.5343301 -0.22572388 0.44942698 0.21840969
0000a0 31 db 69 3e b8 73 79 bd f9 68 4e 3d 11 97 d5 3d
       0.22837521 -0.060901374 0.05039308 0.10429204
0000b0 58 7c b2 be 4f 8e c0 3e 84 1a 65 be a3 9d 1a be
       -0.34860492 0.37608573 -0.22373396 -0.15099196
0000c0 73 2c 47 3c 80 7f 39 be 4d ed 00 3b b0 6e 99 3e
       0.012156594 -0.18115044 0.0019672692 0.2996726
0000d0 3c ff 5e be 77 19 97 3c 21 2c 14 be 54 c7 62 be
       -0.21777052 0.01844476 -0.14469959 -0.2214635
0000e0 e0 4f ae 3c d5 fa d8 3d 61 14 c4 3d 1d 00 ad be
       0.021278322 0.105947174 0.095741995 -0.3378915
0000f0 14 7d f4 3e 81 7c 58 bd 98 09 f1 bc 58 d0 0e be
       0.47751677 -0.05285311 -0.02942352 -0.13946664
000100 84 51 ab be dd 03 37 3e fb 05 00 3e fb 97 99 3e
       -0.3346063 0.17872567 0.12502281 0.29998764
000110 2a 51 0d 3f b3 02 aa be 18 e8 87 be 4c 09 66 bd
       0.5520197 -0.33205184 -0.2654426 -0.05616121
000120 97 b9 6e 3e 13 86 58 be 69 9b 84 3d 0e 46 3e 3e
       0.23312984 -0.21144895 0.06474955 0.18581411
000130 fd ac ff bd 66 5a 3d 3e 48 5a 2c bf cb 99 af 3e
       -0.12484167 0.18491516 -0.6732526 0.34297022
000140 5c a8 00 3c f6 8c 50 bd c2 76 1a be f2 09 8b 3e
       0.00785264 -0.05091568 -0.15084365 0.27156025
000150 4c b0 87 3d 90 c1 62 bd 7e f6 93 be e1 36 06 3d
       0.06625423 -0.055360377 -0.28898996 0.03276718
000160 2e 3e 15 be b2 62 5b be 89 9c 8f bd 37 ef 35 be
       -0.14574501 -0.21424368 -0.070122786 -0.17767034
000170 03 d4 18 3d 27 11 d4 bd 93 64 e9 3c 32 b0 b6 3c
       0.037311565 -0.10354834 0.02849034 0.022300813
000180 d4 6e 6d 3e 7d f2 b5 3d 5d a8 bc bd 4d da 3e be
       0.23186809 0.088841416 -0.092118 -0.18637963
000190 4b 53 ce bd ec b9 e0 be b0 43 c7 be 2b e0 b7 be
       -0.100744806 -0.43891847 -0.3891883 -0.35913214
0001a0 e9 5c e0 3c f8 07 f4 3e c9 97 15 be 79 93 a2 bd
       0.027388053 0.4766233 -0.14608683 -0.079382844
0001b0 5e 67 8d 3e db 89 f2 3e bd 9b 1d 3e 0d 63 a2 be
       0.27617925 0.473708 0.1539144 -0.31716195
0001c0 b9 00 fd bd 22 86 4c 3c 19 a1 02 bf 85 ee 07 bd
       -0.123536535 0.012483152 -0.51027066 -0.033186454
0001d0 53 41 dd 3c 52 75 ef be 9f c4 0d 3f ed fb 33 bd
       0.027008688 -0.46769196 0.55378145 -0.043941427
0001e0 88 bc e9 be 6d b1 1d 3f 2c 3a 0e 3f 3a 2f cc 3e
       -0.4565165 0.61598855 0.55557513 0.3987978
0001f0 01 68 c2 be 11 4e bd 3e 2e 10 3e 3e f1 3d 26 bd
       -0.37969974 0.36973622 0.1856086 -0.040586416

9.weight f4 [128, 128]
000000 86 b0 3f be 8d 4d d4 bc 8e ac 28 bd 44 bc 97 be
       -0.18719682 -0.025915885 -0.041180186 -0.29635823
000010 9f dd 9d be fa ef e3 3d dd d7 54 be f9 a0 d3 bd
       -0.30833146 0.11129756 -0.2078547 -0.103334375
000020 ef 42 aa bd 67 b0 a9 be ae d0 a6 bd 1e 1f 3a bc
       -0.08313548 -0.33142397 -0.08145271 -0.011359958
000030 3b fa c4 3d 9f c8 7e bd 28 e9 05 be 58 7f 9e bb
       0.0961804 -0.062203046 -0.13077223 -0.004836958
000040 50 54 67 be c9 d0 78 bc 4e 8a 05 be a9 f3 84 be
       -0.22590756 -0.015186497 -0.1304104 -0.25967148
000050 8e d5 c5 bb b9 61 0f be f8 84 b1 be da 03 d6 bd
       -0.0060374206 -0.14002122 -0.3467176 -0.104499534
000060 86 03 cb bc fc aa ad bd 5d 77 3a bd c5 50 d2 bd
       -0.024781954 -0.08479878 -0.04552399 -0.10269312
000070 68 c5 5a be e7 0f 10 be b3 cc 3f bb 8a 0d e7 be
       -0.21364367 -0.14068566 -0.0029266297 -0.45127517
000080 c9 d7 8c be 8a cf 65 be e6 bf ee bd e5 24 21 be
       -0.2750838 -0.22442451 -0.116576955 -0.1573673
000090 89 c7 2a bd 6f c8 5f bd 01 1b 15 be 97 41 a1 be
       -0.041694198 -0.054634508 -0.14561082 -0.31495354
0000a0 63 f4 f9 bd 63 34 8f be 0a 66 af be 5b d8 dc bb
       -0.12204816 -0.27969655 -0.34257537 -0.006739659
0000b0 2c 91 e1 be 39 2a 02 be 8c d8 a4 bd 1b e0 c4 be
       -0.4405607 -0.12711419 -0.080491155 -0.3845223
0000c0 72 73 89 be cf 5a 8b be ca 89 6a be 51 90 35 bd
       -0.2684589 -0.2721772 -0.22904125 -0.044327084
0000d0 65 3f c0 bd 6b b9 c0 bd 7d 69 25 3e a2 70 51 be
       -0.093870915 -0.09410366 0.16153522 -0.20453122
0000e0 ad 9a 40 bb e5 3a c7 bd 20 da 1b bf 7a 06 c3 be
       -0.002938907 -0.0972803 -0.6087971 -0.3809088
0000f0 a8 7b ca be 43 d9 7a be 79 8b 18 bf 6f 79 87 bd
       -0.39547467 -0.24496941 -0.5958782 -0.066149585
000100 d3 bd d5 be 94 2a e4 be ab 7d d4 bd 2a 05 f2 be
       -0.41746387 -0.44563735 -0.10375532 -0.47269565
000110 e7 69 91 bd 4c 9c 28 be d1 fb 69 bd 79 b9 21 bd
       -0.071002774 -0.16465873 -0.057124916 -0.03948352
000120 21 6e 9a be a5 6a 78 bc cc 1b ab bc 88 1d f1 be
       -0.30162147 -0.015162145 -0.020887278 -0.47092843
000130 cc 8a 86 3d ff ff d9 bb c3 3f a0 be 9c 04 48 bd
       0.06569442 -0.0066528316 -0.31298646 -0.04883252
000140 eb 1c d5 be 6f a1 5f bd a8 cc bd bd 7f bd a0 bc
       -0.41623625 -0.054597314 -0.09267551 -0.019621609
000150 f8 97 c7 be 4c 02 8f be 9e 15 e6 bd 2c 6f f5 be
       -0.3898313 -0.2793144 -0.11234592 -0.4793638
000160 3b 2b df be 92 b9 4f be a0 ed 6d be dc 53 6c be
       -0.4358767 -0.20285633 -0.23235178 -0.23078865
000170 0a 19 1d be e8 39 1e bf b6 ee 32 bf 19 78 c9 be
       -0.15341583 -0.6180711 -0.69895494 -0.3934944
000180 da a9 d7 be 09 f1 90 be 9b 4e ba be bd 54 29 bc
       -0.42121774 -0.28308895 -0.36388096 -0.010335145
000190 d2 9b a9 be 6c f6 8a be f2 c6 63 bc b0 c5 a6 be
       -0.33126694 -0.2714113 -0.013902413 -0.325727
0001a0 15 7d ad be a6 39 fb bb 9b 92 b1 be 50 f3 17 be
       -0.33884493 -0.0076667843 -0.34682164 -0.1483891
0001b0 8c c5 9f bd 02 0d b5 be 22 90 76 bd c8 9c 33 be
       -0.07801351 -0.35361487 -0.06019605 -0.17540276
0001c0 99 d8 b7 be ac 1c a7 be ce e8 45 be 7b a5 41 be
       -0.35907438 -0.32639062 -0.19327089 -0.18910782
0001d0 c7 4f 3e bb b4 88 40 be ac ff c3 bc aa ef 56 bc
       -0.002903925 -0.18802148 -0.023925625 -0.013118664
0001e0 29 a2 64 be c0 93 87 be ee 0e 32 be 37 83 a3 3d
       -0.22327484 -0.26479912 -0.17388508 0.079840116
0001f0 91 5b 38 bc f5 a1 16 bb c3 f8 32 be 8b a2 7f bc
       -0.0112523 -0.0022984718 -0.17477708 -0.015602718
000200 ee d0 a3 bf a2 9e 91 bb 11 95 86 bd a4 32 c4 b9
       -1.2798135 -0.0044439593 -0.06571401 -0.00037421763
000210 31 7d a4 3d 51 82 a7 bd 2e 7c 11 bb 3a 13 0c b9
       0.08031691 -0.08179153 -0.002219926 -0.00013358603
000220 fe 2c bb 38 f6 b1 4e bf 17 25 f0 bd ae 43 5f 3c
       8.925235e-05 -0.80740297 -0.11725824 0.013626976
000230 73 9b 8b bc 34 32 02 be 9d eb 1f be 40 7c f6 bb
       -0.017041897 -0.12714463 -0.15617223 -0.007522136
000240 20 bc 89 3e 7d ae 60 bc ff 0a 59 bc 5f 93 5a bc
       0.2690134 -0.013713476 -0.013247251 -0.0133408
000250 26 c4 08 bc 96 45 87 bd 5c 4b 06 bf 24 9a 2f bf
       -0.008347547 -0.06605069 -0.5245874 -0.68594575
000260 f5 8a 50 3c 11 ec ab 39 31 f8 40 bf 49 ad f5 bb
       0.012728442 0.00032791545 -0.7537871 -0.007497464
000270 7b b4 5b bc 51 b1 e6 3d 5e 6f 8f be e6 20 76 bc
       -0.013409729 0.11264289 -0.28014654 -0.015022492
000280 d8 ea 24 bc 8a 20 07 3d d5 ec a0 be 7c d4 92 bb
       -0.010065757 0.032990016 -0.31430689 -0.0044808965
000290 57 32 ff bb 06 df 85 bc 89 45 a2 bb 7e 6a 81 bf
       -0.0077879834 -0.016341697 -0.004952137 -1.0110624
0002a0 e8 58 66 3a d5 19 2c bf 72 c3 44 bd 5f ab 4a bd
       0.0008787052 -0.67226917 -0.048037954 -0.04947984
0002b0 b1 80 ed bc c0 2b b2 bc 06 67 e3 be 0a 4b e4 bd
       -0.028992029 -0.021749377 -0.44414538 -0.11147125
0002c0 7f 04 63 bb 7b 54 0d b6 56 c0 40 be 8f 5e 50 bc
       -0.003464013 -2.1059811e-06 -0.1882337 -0.012717857
0002d0 92 3a c2 bb d3 46 55 bc 33 52 c5 be 4d ce ee bd
       -0.0059273923 -0.013017374 -0.38539276 -0.116604425
0002e0 9c 99 af be 33 e5 46 bc ce ea f2 ba d9 03 79 bd
       -0.34296882 -0.012139606 -0.0018533112 -0.060794685
0002f0 e3 74 8c bc b2 4e db bb c6 1a 61 be 62 16 35 bb
       -0.01714558 -0.006692731 -0.2198287 -0.002763175
000300 76 15 5e bd 45 b5 be bb ff e8 d8 bc b4 4e 8d bc
       -0.054219685 -0.005819949 -0.026478289 -0.017249443
000310 db 28 8d bf ca b4 f0 bc ec f7 33 bc 83 19 d3 ba
       -1.1028093 -0.029383082 -0.010984402 -0.0016105626
000320 3c 6d c0 bc f9 f1 b7 3d 7e 21 74 ba 03 ba 28 3a
       -0.023489587 0.089816995 -0.0009312852 0.00064364093
000330 16 bf 74 bd ae d1 f6 bb c6 6a c5 bf 7f 2b a8 bd
       -0.059752546 -0.00753232 -1.542321 -0.08211421
000340 0e dc 8a be 18 3a af bd c2 cf bc 3d 17 af 85 bd
       -0.27121013 -0.085560024 0.09219314 -0.06527536
000350 aa 5e 00 be 12 bc ee 38 24 23 e6 bb fe 74 1f bb
       -0.12536111 0.00011383755 -0.007023232 -0.0024331207
000360 32 82 8e bd 84 16 0b bf 97 86 e8 be 45 69 d3 ba
       -0.069584265 -0.5433123 -0.45415184 -0.0016129395
000370 16 ec 61 bd d6 db 94 be ba 9b 10 bf 59 44 01 bc
       -0.05515679 -0.29073972 -0.5648762 -0.0078898305
000380 4b 40 99 b9 34 17 8e bc 79 b8 2d bd 7f fc 78 bd
       -0.00029230336 -0.017345048 -0.042412255 -0.060787674
000390 18 ae d4 bb 43 9c 37 bc ca cd 99 bd 32 b8 09 bf
       -0.00649048 -0.011206689 -0.07509954 -0.53796685
0003a0 af 9d a7 bb bf e6 ac bd 16 cc 16 3e 9d 89 92 bd
       -0.005115233 -0.08442449 0.1472629 -0.07155154
0003b0 63 ef a7 bc 01 f4 a8 3a 1f 7f 85 38 40 b4 c1 3d
       -0.02049989 0.0012890102 6.365612e-05 0.09458208
0003c0 fe 23 9f be 62 aa b9 bb 0d fa ae 3b 80 75 c7 bd
       -0.31082147 -0.005666063 0.005339867 -0.09739208
0003d0 02 f9 ff bc 6c 33 d8 bb 42 19 d3 bf de 70 1b 3b
       -0.031246666 -0.006597927 -1.6492083 0.0023718397
0003e0 55 7b cc be 65 49 34 bd 07 76 05 3d 97 c8 d2 ba
       -0.39937845 -0.044015307 0.032583263 -0.0016081509
0003f0 10 e9 93 be 7c 6c a2 bc 24 7a fb ba 3e 53 12 bf
       -0.2888875 -0.01982712 -0.0019186181 -0.5715827

9.bias f4 [128]
000000 24 95 7c be 49 66 0f be 49 57 7e 3e 08 f0 17 3d
       -0.24666268 -0.14003862 0.24837984 0.037094146
000010 8a a5 c8 be cb 18 ba be 4b 0e a6 be 03 56 4e be
       -0.39188796 -0.3634704 -0.3243278 -0.20149998
000020 8a 59 cc bd 1e 9c da 3d 01 8f 01 be d4 ee 4d 3e
       -0.09978016 0.10674308 -0.12652208 0.20110637
000030 28 e3 8d be 34 08 4e be e7 d7 c7 be 3f 9b d7 be
       -0.2771237 -0.20120317 -0.39031908 -0.4211063
000040 d9 72 00 3c fd 2e b0 bd 69 f9 5b bd 01 4b 22 be
       0.007839882 -0.08602712 -0.053704653 -0.15848924
000050 f1 e8 bd bd ea 2d cc be eb 33 1b 3e c7 75 ec bd
       -0.09272946 -0.3987878 0.15156524 -0.11545902
000060 24 e7 f6 3e bc fb 59 3e 79 98 bf bd a6 bb 97 be
       0.4822322 0.21287435 -0.09355254 -0.29635352
000070 6c 9e 2f be 39 94 9d be a5 cc 8c be c8 b1 9e 3d
       -0.17150277 -0.30777147 -0.2749988 0.07748753
000080 41 43 a0 be 2f 2b 55 be 89 40 7f be 39 8e 50 bd
       -0.3130131 -0.20817254 -0.24926962 -0.050916884
000090 ef 58 06 bd b3 1a 4b be 15 3b 96 3d 9c f5 cd bd
       -0.032799657 -0.19834404 0.07335488 -0.10056612
0000a0 5f 9e 86 be e2 bb 63 be 71 00 88 3e 03 52 ac be
       -0.26292703 -0.2223964 0.26562837 -0.3365632
0000b0 60 62 6c be 7d f9 1a bd 8b 20 f7 3e 85 bd ff 3c
       -0.23084402 -0.037835587 0.48267016 0.0312183
0000c0 72 71 0e 3e b0 9e 16 be b7 d1 b6 be a9 d8 37 bd
       0.13910463 -0.14708972 -0.35706875 -0.044884358
0000d0 89 1c e3 bd d1 d4 55 be ba 85 49 be 30 ba 79 be
       -0.11089427 -0.20881964 -0.19679919 -0.24387431
0000e0 7b 8a 4f be 47 25 7c be 8b e2 d9 bb 8f 41 22 be
       -0.2026767 -0.24623595 -0.0066493205 -0.15845321
0000f0 f0 5f 8c 3c c4 5d c8 bd 90 45 59 bd c2 8b 32 be
       0.01713559 -0.097835094 -0.053044856 -0.17436126
000100 47 d3 00 be 97 e5 7d 3e 3a 0b 29 be 2c c6 ae bd
       -0.12580596 0.24794613 -0.16508189 -0.08533892
000110 c5 65 2e be 41 ca 66 bd e7 38 f6 bd 91 e0 7c bc
       -0.1703101 -0.056345228 -0.12022572 -0.0154344
000120 b5 9d 0b 3e 02 c9 99 be 02 f6 5d bd 18 3d 41 be
       0.13634379 -0.3003617 -0.05418969 -0.18870962
000130 9a 39 8f be 85 06 a1 be d1 ac 13 3e 99 59 d8 3c
       -0.27973634 -0.31450287 0.14421393 0.026409911
000140 83 47 cf 3d 5f 33 81 be e7 f6 9c bb 53 1a 56 be
       0.10121062 -0.25234506 -0.0047901752 -0.2090848
000150 7f 89 55 be fe f9 fa bd 6d 77 61 be d5 5b 09 bd
       -0.20853232 -0.122547135 -0.22018214 -0.033534843
000160 b9 a9 35 be 18 30 41 be c4 44 61 be 82 b3 09 3e
       -0.17740525 -0.18866003 -0.21998888 0.13447383
000170 9a 04 e8 bd 3b df 19 3e 3d 96 31 be 49 30 d2 be
       -0.11329003 0.15026562 -0.17342468 -0.41052464
000180 08 e9 81 be 2e 5f 9e be 65 6f 7a be 16 61 d3 be
       -0.253731 -0.3093199 -0.24456556 -0.41285008
000190 88 17 bb bd 15 0e 56 be 26 fe 68 be d0 c5 96 3d
       -0.091353476 -0.2090381 -0.227532 0.073619485
0001a0 03 b1 b9 3e c0 e0 89 bd e9 1e 75 3e 60 99 6c be
       0.36267862 -0.06732321 0.23937573 -0.23105383
0001b0 a4 5f 6a be 98 46 88 be 21 9d 5c 3c b4 1e 43 be
       -0.22888047 -0.2661636 0.013465197 -0.19054681
0001c0 d6 07 72 be 85 f4 15 be 32 b1 c8 3c 16 f9 86 3e
       -0.23635802 -0.14644058 0.024498556 0.26361912
0001d0 03 3b f9 bd 07 44 f9 bd c3 97 6c 3e a6 5b 49 3d
       -0.12169459 -0.12171178 0.23104768 0.04915967
0001e0 0d 2b 10 be bb 39 a8 be 4c 66 01 bd b9 0d 5f 3e
       -0.14078923 -0.32856545 -0.0315917 0.21782579
0001f0 22 bf 45 bd c0 53 ab bd 03 b1 ed 3e e9 62 78 be
       -0.04827798 -0.083655834 0.46424112 -0.24256481

11.weight f4 [128, 128]
000000 ac 48 bc b9 fe de 42 be 0f 1f 09 bb c7 6c a7 3b
       -0.000359123 -0.19030377 -0.0020923053 0.005109403
000010 07 f7 1d bf ad 2b 13 ba b1 bd 28 bd 4e b3 da 3c
       -0.6170506 -0.0005614113 -0.04119653 0.026696827
000020 58 45 4d bf 69 5d cc bd 1d 7e 91 ba 8d 2d be bc
       -0.80183935 -0.09978754 -0.0011100207 -0.02321508
000030 42 98 a6 bc 05 e0 9e bf ed ea 91 bc 69 d2 d6 be
       -0.020336274 -1.2412115 -0.017812217 -0.41957405
000040 50 f2 38 bd 5f 21 8b bb 30 57 d3 bf b4 4a 67 ba
       -0.045152962 -0.0042459215 -1.6510983 -0.00088230823
000050 52 fa b2 ba 21 8d 21 bf d5 04 ff 3d d1 19 ac bd
       -0.0013654924 -0.6310597 0.124520935 -0.084033616
000060 2b a8 56 ba dc ab 4b 3a 7c 0f 3e bd 16 cc 84 be
       -0.0008188511 0.00077694445 -0.046401486 -0.25936955
000070 ce 38 21 b8 54 31 3e bc 58 db 86 bd 17 dc b8 bb
       -3.8438295e-05 -0.01160844 -0.06584805 -0.005641471
000080 33 6c ce 3c b6 5c 6b bd 8c f4 27 bf 38 5b ce bd
       0.025198078 -0.057461463 -0.65607524 -0.10075992
000090 5c dc 69 b9 fe 5e c7 be 58 52 02 3b f2 ae 80 bb
       -0.00022302702 -0.3893966 0.0019885506 -0.003927105
0000a0 b7 25 d3 bc 28 59 f4 bc 74 a6 11 bb 70 21 6c ba
       -0.02577482 -0.02982767 -0.0022224458 -0.0009007668
0000b0 c3 e9 d1 39 80 f8 0d be 9e 95 c1 bb 73 63 0b bc
       0.00040037752 -0.13864326 -0.0059077283 -0.008507597
0000c0 20 56 6a be 99 24 8a be 1f 91 ab 3c dc de 0d bc
       -0.22884417 -0.26981047 0.020943223 -0.008659091
0000d0 56 43 69 3d ec dd 9b bb 68 a7 63 3c dd f7 b6 b7
       0.056948982 -0.0047566798 0.013894893 -2.1811511e-05
0000e0 03 d6 98 3d 56 10 ad bd 79 8a e7 bb f2 08 3d bb
       0.074626945 -0.084503815 -0.007066068 -0.0028844443
0000f0 55 0b 79 bb d7 e1 99 bd f0 75 58 bc c3 0a 32 ba
       -0.003800114 -0.07513779 -0.013211712 -0.0006791765
000100 8e 32 6d 3c 4e 17 fa 3e 6b 6d e2 bb 57 49 d4 3c
       0.014477385 0.48845905 -0.0069100163 0.025913877
000110 b3 84 a9 bd c8 6b c9 bf 5b 12 02 bd 35 85 98 bb
       -0.082772635 -1.5736017 -0.031755786 -0.0046545514
000120 45 6d 1b bb 12 e6 d8 bd 57 fc 31 bc e0 af 62 bc
       -0.0023716253 -0.105907574 -0.010863385 -0.013835877
000130 f2 db fd ba 40 2e 67 bb 72 08 5f bb c4 77 22 bc
       -0.0019367917 -0.003527537 -0.0034032133 -0.00991625
000140 24 af 9d bc 8c 6c 24 3e 1e 10 f1 bb 66 15 d0 3a
       -0.019248553 0.16057032 -0.0073566576 0.0015875518
000150 67 6e 93 3c e4 b8 6f bd da 17 3f bd ef b5 58 be
       0.01799698 -0.058525935 -0.046653606 -0.21163152
000160 a5 c6 3c be 35 60 19 bf d9 0b 0f bd a2 39 4a 38
       -0.18435152 -0.59912425 -0.03492341 4.8214228e-05
000170 e8 6d 30 be 30 05 72 3b c9 df 3c bf 26 81 aa be
       -0.17229426 0.0036929362 -0.7377897 -0.33301657
000180 57 44 11 bd f5 09 1d bb 07 a4 c2 bd 84 f0 54 bb
       -0.035465565 -0.0023962234 -0.09503942 -0.0032491991
000190 12 05 2d be 62 95 70 bc d7 2a 8b bc 0e ec 86 3b
       -0.16896465 -0.014684053 -0.016988201 0.0041174954
0001a0 aa 42 96 3b d7 b9 3e bf 25 bb 4f bb 7f 3b 8f bd
       0.0045855837 -0.7450232 -0.003169724 -0.0699377
0001b0 07 28 c2 ba a9 1c 31 3a 74 4d ba bb f3 28 79 3b
       -0.0014812954 0.0006756285 -0.0056855027 0.0038018792
0001c0 d8 d1 20 bd 13 12 08 bc ef a2 0c 3b ad 5b c3 3b
       -0.039262623 -0.0083050905 0.002145942 0.0059618563
0001d0 9e 71 9d bc b9 99 f2 bf c3 a5 12 bb d5 75 3c 3b
       -0.019219216 -1.8953162 -0.0022376634 0.0028756757
0001e0 9d 6e 4b bc 01 00 d6 be a6 8c 21 bf dc 14 b1 3b
       -0.012416509 -0.41796878 -0.6310524 0.005404098
0001f0 17 07 a3 bf e5 18 28 bc ce 06 e0 3e 77 96 55 b9
       -1.2736539 -0.010259842 0.43755192 -0.00020369315
000200 a6 96 0f be df 18 40 bb db ac b9 bd a7 45 c4 bd
       -0.14022312 -0.00293117 -0.09066173 -0.09583598
000210 8b 10 c6 b9 3c de e8 ba c9 52 77 bd 86 12 72 be
       -0.00037777828 -0.0017766426 -0.060381684 -0.23639879
000220 74 b2 70 bc 06 6b d2 bd 39 d2 c3 bd db 4a a4 bd
       -0.014690984 -0.10274319 -0.09561581 -0.0802209
000230 7e ee f1 b9 44 4c 98 bd d0 b4 13 be 1f 1b 82 bd
       -0.00046144793 -0.074364215 -0.14424443 -0.06352829
000240 3a 8c 8d be c1 68 5e bc 10 2b 05 be 44 ad f5 b9
       -0.27646047 -0.01357478 -0.13004708 -0.00046859134
000250 23 cf ae bc 17 87 4b be a4 c6 8e bc 87 e1 11 bc
       -0.021339005 -0.19875751 -0.017428704 -0.008903868
000260 39 fb 76 bd 82 fa 54 bd 58 ba 45 ba 58 47 8a b8
       -0.06029818 -0.051996715 -0.0007542721 -6.5936416e-05
000270 de 86 e0 bc 95 28 7a ba a6 3c 4a 3c f8 2e ee bc
       -0.02740806 -0.00095427904 0.012343561 -0.02907513
000280 da d4 d7 3c 6b a8 0b b9 85 af e6 bc 67 36 b7 be
       0.026346613 -0.00013318814 -0.028159866 -0.35783693
000290 cb fc da be dd ba 1e bd 4f e7 1f bd ac 12 ef bd
       -0.4277099 -0.038752425 -0.039038952 -0.11673483
0002a0 0c 32 1e bd 79 3a 5a bc c4 40 8a be b6 89 28 bd
       -0.038621947 -0.013319605 -0.27002537 -0.041146956
0002b0 c2 a5 e0 bd af 98 82 bd 1c f0 16 be 74 66 86 bd
       -0.10969116 -0.06376778 -0.14740032 -0.0656251
0002c0 fc 4f 05 bf 1c 80 48 bc 82 10 07 bc 8b f5 db bd
       -0.5207517 -0.012237575 -0.008243682 -0.10740193
0002d0 ce ec 5e be 43 30 12 ba 45 6b e7 bc 54 67 5b bc
       -0.21770021 -0.00055766496 -0.028249392 -0.013391335
0002e0 9a ce f3 bd 5f 7e 50 3e a0 1f 1f bb f0 5f c8 bc
       -0.119046405 0.20360707 -0.0024280325 -0.024459809
0002f0 d6 6c f8 bc e9 84 2a be 93 52 72 be 10 26 2c be
       -0.030325335 -0.16652264 -0.23664312 -0.16811395
000300 a0 31 13 be c9 89 05 bc 81 5d ab bd 03 3b 92 b9
       -0.14374399 -0.008150526 -0.08367444 -0.00027891257
000310 8a af 9f bc be 85 00 be 87 f7 0d bd 8f db bc be
       -0.019492883 -0.12551019 -0.03465989 -0.3688626
000320 f7 90 b2 be b9 dc 69 3d da 41 da 3b 12 0f 51 be
       -0.34876224 0.057095263 0.006660682 -0.20415905
000330 e5 15 8c be 84 10 8e be 70 c4 fa bd 1f 08 3b be
       -0.27360454 -0.27746975 -0.12244499 -0.18264817
000340 db 92 19 bc a6 02 96 3d bb 44 68 be 52 d3 71 3d
       -0.009373392 0.07324724 -0.22682469 0.05903942
000350 04 a6 16 bd c3 91 83 b7 fc 91 90 be 3a b7 b5 be
       -0.03677942 -1.5684293e-05 -0.28236377 -0.35491353
000360 7f 51 74 3d 71 82 c8 bc 02 87 81 bd b5 1f 6e be
       0.059648033 -0.024476262 -0.06324579 -0.23254283
000370 48 df 07 be 85 1d 85 bc be f3 3c ba b5 9c 2f be
       -0.13268769 -0.016249428 -0.0007207951 -0.17149623
000380 a2 6c 37 3e 51 8f 24 bb e8 f6 9a bd 84 a7 dd bd
       0.17912534 -0.0025109837 -0.07566625 -0.10822967
000390 88 21 66 be 8d c0 83 be 30 71 f7 bd 34 c2 85 be
       -0.22473729 -0.25732842 -0.12082136 -0.26124728
0003a0 71 7c d9 bc 3e 62 73 bd 48 ac 86 ba 5a 53 c4 bd
       -0.026548596 -0.059419863 -0.0010274732 -0.095862105
0003b0 76 4d 59 bc 5a 3b db bd 46 29 3a be 8a 9a 26 bc
       -0.013263097 -0.1070468 -0.18179807 -0.010168681
0003c0 35 6f f2 bd 15 5a 82 bd 98 5c 9e be 60 74 85 bb
       -0.11837617 -0.06364838 -0.30930018 -0.004072711
0003d0 33 2f 8f bd b9 5d 5c bc c5 d2 d1 be af 91 84 bc
       -0.069914244 -0.01345008 -0.40981117 -0.016182749
0003e0 66 55 73 be 5b 47 99 be bf 42 c9 be fd ed df bd
       -0.23763046 -0.29937252 -0.39308736 -0.109340645
0003f0 3a eb 4f bd bb bd 99 bb de e7 37 bc 4c 4f 0a 3e
       -0.05076144 -0.004691807 -0.011224715 0.13506812
