project_networks/mnist_cnn_2layer_w2_ibp.onnx (onnx, 682019 bytes, 16 tensors)

0.weight f4 [8, 1, 4, 4]
0	0x3a512174	0.0007977702
1	0x3b1acfe6	0.0023622452
2	0x3b655b83	0.0034997172
3	0x391eded8	0.0001515107
4	0x3a0cb721	0.00053678645
5	0x3f452333	0.77006835
6	0x3f4766ff	0.77891535
7	0x3a87257e	0.0010310856
8	0x3abae647	0.0014259302
9	0x3b683687	0.0035432891
10	0x399a0622	0.00029377738
11	0xb87482ca	-5.829594e-05
12	0x3a8ae908	0.0010598013
13	0x3a92598a	0.0011165601
14	0x3a9fc225	0.0012188597
15	0x3855b4e8	5.095164e-05
16	0xbb3b8a47	-0.0028616355
17	0xbad2970d	-0.0016066745
18	0xba492422	-0.0007672926
19	0xbaa95f50	-0.0012922082
20	0xbb015796	-0.0019736043
21	0xba731ce5	-0.000927402
22	0xbaab57a2	-0.0013072381
23	0xba13a5ac	-0.0005632292
24	0xba4d2e7f	-0.0007827058
25	0xbacacae2	-0.0015471841
26	0xba97aaef	-0.0011571328
27	0xb838443b	-4.3932563e-05
28	0xbb0bdb21	-0.0021340328
29	0xbb975833	-0.0046186685
30	0xbb8b52e8	-0.0042518266
31	0xba268304	-0.00063519203
32	0xbeba929e	-0.36439985
33	0x3d84701e	0.06466697
34	0x3d8ed518	0.06974238
35	0xbe5f50ee	-0.21808216
36	0x3d86acc5	0.06575922
37	0xbd8fa4c6	-0.0701385
38	0xbe68b8b6	-0.22726712
39	0xbe5db2b9	-0.21650209
40	0xbc6d690c	-0.014490377
41	0xbe1585a6	-0.14601764
42	0xbea725bd	-0.3264598
43	0xbdf29d54	-0.11846414
44	0xbe11b62c	-0.1422965
45	0xbd51c68e	-0.051214747
46	0xbde5de60	-0.11224055
47	0x3ba1f098	0.004942011
48	0xbcd9a851	-0.026569517
49	0xbd0745e7	-0.03302565
50	0xbd1dc178	-0.038514584
51	0xbd358477	-0.04431578
52	0xbc97a7a3	-0.018512553
53	0xbd0935ed	-0.033498693
54	0x3c9a36f5	0.018825034
55	0x3d904287	0.07043939
56	0xbd011eb8	-0.031523436
57	0xbceffbf6	-0.029294949
58	0xbcde985e	-0.027172264
59	0xbd0be359	-0.034152362
60	0xbdaf01dc	-0.085452765
61	0xbe7f700e	-0.24945089
62	0xbe22181b	-0.15829508
63	0xbe872100	-0.26392365
64	0xb926a5e5	-0.00015892794
65	0xb9db746b	-0.00041857673
66	0xb9e6193d	-0.00043887823
67	0xb913f25d	-0.000141093
68	0xba75f3a6	-0.0009382315
69	0xba5bd2a5	-0.00083855755
70	0xb9effe84	-0.0004577526
71	0xb8853896	-6.352474e-05
72	0xbf495855	-0.7865041
73	0xb9cbede9	-0.00038896434
74	0xbf434f40	-0.762928
75	0x39414461	0.00018431387
76	0xba724abe	-0.0009242705
77	0xb97a14a8	-0.00023849553
78	0x398eb6e9	0.0002722063
79	0x3aa282a6	0.0012398555
80	0x3dab0720	0.08350968
81	0xbc1a662a	-0.009423772
82	0xbb951407	-0.0045495066
83	0xbdf5f504	-0.12009624
84	0x3def504f	0.116852395
85	0xbc219385	-0.009861832
86	0xbd02fa92	-0.031977244
87	0xbc41c71a	-0.011827255
88	0xbc7bfbdc	-0.015379872
89	0xbc61bf08	-0.013778456
90	0xbd9cbcbc	-0.07653186
91	0xbc0bfdf8	-0.008544438
92	0x3e0ac803	0.13552861
93	0xbc6505bf	-0.013978421
94	0xbde9f740	-0.11424112
95	0xbaab06b8	-0.0013048267
96	0x3b38cb33	0.0028197288
97	0x3a197989	0.0005854597
98	0x3af5c090	0.0018749405
99	0x3f40c4d5	0.7530034
100	0x3b1dc23d	0.0024072074
101	0xb7cdab36	-2.451763e-05
102	0xb619ae4e	-2.2900235e-06
103	0x3984ddf1	0.0002534236
104	0xb9987233	-0.00029076784
105	0xb9feeb31	-0.00048621887
106	0x39a42b26	0.00031312666
107	0x39fa6e48	0.00047765882
108	0x375e09d8	1.3234523e-05
109	0x38ebc00a	0.00011241443
110	0xb9c1a03b	-0.0003693121
111	0xb954d340	-0.00020296592
112	0xb6f4cd96	-7.2957e-06
113	0xbdf60929	-0.12013466
114	0xbc5b6b9f	-0.013392358
115	0xbdb97154	-0.09054819
116	0xbdc38484	-0.0954676
117	0x3d084013	0.03326423
118	0xbe794331	-0.24342038
119	0xbdd44e00	-0.1036644
120	0x3d559806	0.052146934
121	0xbd71de1a	-0.059049703
122	0xbe2f45f7	-0.17116533
123	0xbe006d74	-0.12541753
124	0xbc438e28	-0.011935748
125	0xbd55b9d8	-0.052179188
126	0x3c9ba8ba	0.019001354
127	0x3ced5c98	0.028974816

0.bias f4 [8]
0	0xbef87ccd	-0.48532715
1	0xbb5425c8	-0.0032371152
2	0xbe53204b	-0.20617788
3	0xbdb6dfb7	-0.08929389
4	0x3f0359ec	0.51309085
5	0xbeac226c	-0.33620012
6	0xbe6eeebf	-0.23333262
7	0xbde99316	-0.114050075

2.weight f4 [16, 8, 4, 4]
0	0xbd0b6f1a	-0.0340415
1	0xbe304022	-0.17211965
2	0xb9abacee	-0.00032744504
3	0xb8bc9056	-8.991423e-05
4	0xbf93efb3	-1.1557525
5	0xba7d0bcf	-0.00096529437
6	0x3926dc24	0.00015913002
7	0x38d67045	0.00010225227
8	0xbeea4d6f	-0.45762202
9	0x384dd459	4.9073573e-05
10	0xb6d16ab5	-6.2411077e-06
11	0x38584c9a	5.1569754e-05
12	0x395051c0	0.0001986688
13	0xb91dd3b7	-0.00015051557
14	0xb99d2427	-0.0002997231
15	0x38e37033	0.00010845102
16	0x37805046	1.529617e-05
17	0xb84d0ab5	-4.888578e-05
18	0xb697c101	-4.5226193e-06
19	0xbe6eb3f8	-0.2331084
20	0xb8f9dc94	-0.00011914331
21	0x3774d59e	1.459327e-05
22	0xbeaf1fb5	-0.34203878
23	0xbdfd9ab4	-0.12383023
24	0xb7d23b4c	-2.5061563e-05
25	0xb901488b	-0.00012329423
26	0xbd707dff	-0.05871391
27	0xb888ad24	-6.517235e-05
28	0x37c1cec3	2.3103674e-05
29	0xb8c3a936	-9.3298426e-05
30	0x362610ea	2.4745773e-06
31	0xb72607bf	-9.896175e-06
32	0x3a352e91	0.0006911541
33	0xbe1a4984	-0.15067106
34	0xbe0b1b55	-0.13584645
35	0xb918dc5d	-0.00014577941
36	0xbcb23664	-0.021754451
37	0xbecf0f2b	-0.4044126
38	0xbd9f9a98	-0.07793158
39	0x3a120129	0.0005569631
40	0xbdd20abe	-0.10255955
41	0xb9a1fddf	-0.00030897462
42	0xbadb6e89	-0.0016741316
43	0x394ec5c7	0.00019719369
44	0x3e15fb8f	0.14646743
45	0x3bb1f5d5	0.005430917
46	0xbaa707cb	-0.0012743411
47	0xbc0433bf	-0.008068978
48	0xb7071f29	-8.053882e-06
49	0xb8821c84	-6.2041945e-05
50	0xb7cacfeb	-2.4177096e-05
51	0xba84e895	-0.0010140116
52	0xbdc6c1cf	-0.09704935
53	0xba755e1b	-0.0009360031
54	0xb5d79291	-1.6061405e-06
55	0xb95b03fb	-0.0002088695
56	0xbac20535	-0.0014802577
57	0x39825612	0.0002485966
58	0xb81627f7	-3.5800007e-05
59	0xb90842ec	-0.00012994901
60	0x39151c40	0.00014220271
61	0xba52f9d3	-0.0008048091
62	0xb892471b	-6.975067e-05
63	0xb83ed5cd	-4.5498648e-05
64	0xb8c045ab	-9.16825e-05
65	0x38cea368	9.853282e-05
66	0xb5a3f410	-1.2215478e-06
67	0xb7368cc4	-1.088082e-05
68	0x38cc5d51	9.7448596e-05
69	0x37e726aa	2.755535e-05
70	0xb8757c46	-5.852829e-05
71	0xc02c1c37	-2.689222
72	0x3818d4a5	3.6437665e-05
73	0xb99999b0	-0.0002929694
74	0x39eb05af	0.00044826927
75	0xba14376a	-0.00056540093
76	0x3800485e	3.0584975e-05
77	0x3894668f	7.076293e-05
78	0xb8257933	-3.945194e-05
79	0xb7f153bc	-2.876843e-05
80	0x374bd384	1.214899e-05
81	0xbb2e0a50	-0.002655644
82	0xb88c99c9	-6.704365e-05
83	0x3941a2e2	0.00018466593
84	0xb7332b2d	-1.0679284e-05
85	0xbefc275a	-0.49248773
86	0xb928fc29	-0.00016115665
87	0xb72503f1	-9.835684e-06
88	0xbe70d3f6	-0.23518357
89	0xbecca97b	-0.39973053
90	0xb76cbbfc	-1.4110465e-05
91	0xb9374a9f	-0.00017480039
92	0xb9639d4e	-0.00021707008
93	0xb7bde425	-2.2636794e-05
94	0x3a9b600c	0.0011854186
95	0xba3c5a08	-0.00071850466
96	0xbf6e476e	-0.93077743
97	0xbb0b847a	-0.002128868
98	0x37e9a132	2.7850827e-05
99	0xb92b9fd1	-0.00016367367
100	0xc09667de	-4.700179
101	0xbabc0a80	-0.0014346391
102	0xb9ea4ffe	-0.00044691557
103	0xb8f0c064	-0.00011479927
104	0xbf2ca287	-0.674355
105	0x3712b329	8.743992e-06
106	0x39f62915	0.00046951385
107	0xb9b65f11	-0.00034784575
108	0x398a91b2	0.00026429963
109	0x392037e6	0.00015279613
110	0xb9800c8d	-0.00024423414
111	0xbb0b7435	-0.0021278982
112	0xbc776237	-0.0150991
113	0xbe16c96a	-0.14725271
114	0xbe4ba19c	-0.19885868
115	0x3e3e6117	0.18591724
116	0xbd307d5f	-0.043088313
117	0xbd6a8ca3	-0.057263028
118	0x3d2b3eb4	0.041807845
119	0xbde67e39	-0.11254544
120	0xbdc74a51	-0.097309716
121	0xbe1f69b2	-0.15567663
122	0xbe05a81a	-0.13052407
123	0xbd1c0c18	-0.03809747
124	0x3da13d92	0.07873072
125	0x3e25e14a	0.16199222
126	0xbe4106ff	-0.18850325
127	0xbe0b1c05	-0.13584907
128	0xbe5aa38f	-0.21351455
129	0xbcc7474b	-0.024325987
130	0xbcc1c18f	-0.023651866
131	0xbc2fbf99	-0.010726833
132	0xbce0bacd	-0.027432824
133	0xbca640f5	-0.020294646
134	0xbca58835	-0.02020655
135	0xbc754729	-0.014970579
136	0xbc2db607	-0.010602481
137	0xbc6d9995	-0.014501949
138	0xbbec32bd	-0.007208197
139	0xbf8f175b	-1.1179003
140	0xbbffbfbf	-0.0078048403
141	0xbc8cfc3f	-0.017210124
142	0xbf6815e0	-0.9065838
143	0xbecbc762	-0.39800555
144	0x3813b9e6	3.5220663e-05
145	0xbe848ab4	-0.25887072
146	0xbe69d53b	-0.22835247
147	0xb7c893b4	-2.3910638e-05
148	0xbddd2b88	-0.107993186
149	0xbda357dd	-0.07975743
150	0x3d1955cf	0.03743535
151	0xb81701c3	-3.6002846e-05
152	0xb8862aef	-6.397615e-05
153	0x3e2194db	0.1577944
154	0x39381cc4	0.00017558323
155	0x37d41b3e	2.5285055e-05
156	0x3be62749	0.007023726
157	0x368d9964	4.2199845e-06
158	0x37af8eb6	2.092808e-05
159	0x39541a7c	0.00020227762
160	0xbb47744d	-0.003043431
161	0xbead020a	-0.33790618
162	0xb8af94c8	-8.372363e-05
163	0xbb6f4a99	-0.003651297
164	0xbed0f3b5	-0.40810934
165	0x3d4e27b7	0.050330844
166	0x3b0e2282	0.0021688049
167	0xbb38f48a	-0.0028221929
168	0x3a4f0740	0.00078975037
169	0xb906c8ba	-0.00012854012
170	0xb83ea3c5	-4.5452052e-05
171	0xbeb30cd9	-0.3497074
172	0xb9e2f067	-0.00043285193
173	0xb7d992ae	-2.5936719e-05
174	0xbd266aa5	-0.040629048
175	0xbc9bfc89	-0.019041317
176	0xb9bc4543	-0.00035909758
177	0xbf249648	-0.6429181
178	0xba90f24a	-0.0011058536
179	0x3a0f1463	0.0005458055
180	0xb8a9ac86	-8.090683e-05
181	0xb7de0f63	-2.6471627e-05
182	0xb8054bce	-3.178027e-05
183	0xbe240d7d	-0.1602077
184	0xb8966aeb	-7.1724724e-05
185	0xb97682ee	-0.00023509163
186	0xbc5a1806	-0.013311392
187	0xbdbcbcb8	-0.09215683
188	0xb623afc3	-2.43912e-06
189	0xb93f35b1	-0.00018235181
190	0xbead7483	-0.33877954
191	0xb9a007c1	-0.00030523355
192	0xbbf98d62	-0.007615731
193	0xbba3a23a	-0.004993704
194	0xbfc529ed	-1.540342
195	0xbcb2d0cd	-0.02182808
196	0xbcddc76d	-0.027072633
197	0xbfd14b96	-1.6351192
198	0xbb855bae	-0.004069767
199	0xbc94bfcf	-0.018157868
200	0xbc55c434	-0.013047267
201	0xbce2c7e8	-0.027683213
202	0xbc89b79a	-0.01681118
203	0xbc94bb1d	-0.018155629
204	0xbbcd588c	-0.006266659
205	0xbb9b7a16	-0.0047447784
206	0xbbb8a03e	-0.0056343367
207	0xbbfe1232	-0.007753634
208	0xbb9789d4	-0.0046245847
209	0xba72faad	-0.0009268921
210	0xb8928eee	-6.988445e-05
211	0xb8cd9504	-9.802918e-05
212	0xbe22f013	-0.15911894
213	0xb78bae79	-1.6651336e-05
214	0xb7c77049	-2.3774935e-05
215	0x37807585	1.5313513e-05
216	0xb8a3be63	-7.807908e-05
217	0x39144e84	0.00014143629
218	0x39c1e630	0.00036983332
219	0xbd7bad17	-0.06144437
220	0x39c599eb	0.00037689446
221	0x391024c6	0.0001374661
222	0xb59e2df2	-1.1785289e-06
223	0xbe10987a	-0.14120665
224	0xbc30824f	-0.0107732555
225	0xbccf3c81	-0.025297405
226	0xbc8b8fe1	-0.01703638
227	0xbc28e2cc	-0.010307979
228	0xbcf9f195	-0.030510703
229	0xbc6c5cff	-0.014426469
230	0xbc95e8cf	-0.018299488
231	0xbf4b6478	-0.7945018
232	0xbc79ddfc	-0.015250679
233	0xbcbe7884	-0.023250826
234	0xbf061c29	-0.5238672
235	0xbfdd7b9e	-1.730335
236	0xbc5b5faf	-0.013389512
237	0xbdeee60a	-0.1166497
238	0xc00e117e	-2.2198176
239	0xbf49a6e2	-0.7877027
240	0xbd2ca363	-0.042148005
241	0xbdb4cd8c	-0.088282675
242	0xbca55c3f	-0.020185588
243	0xbd441804	-0.047874466
244	0xbd92970e	-0.07157718
245	0xbdb84e1a	-0.08999272
246	0xbd82e92c	-0.0639213
247	0xbccdd386	-0.025125276
248	0xbda4912d	-0.080355026
249	0x3da90c25	0.082542695
250	0xbe0d0c81	-0.13774301
251	0xbe5bb3ec	-0.21455353
252	0x3df156e0	0.11784148
253	0xbde40586	-0.11133866
254	0xbe1b09d2	-0.15140465
255	0xbe0de4a1	-0.13856746

2.bias f4 [16]
0	0x3de72d45	0.11287931
1	0x3b311e84	0.0027026245
2	0xbb212c5a	-0.0024593086
3	0xbdc9516d	-0.09829984
4	0xbd5c18a8	-0.05373445
5	0x3dcca286	0.099919364
6	0xbe3891ba	-0.1802434
7	0x3de48b25	0.11159352
8	0xbd9a6d63	-0.07540395
9	0xbdbe96e3	-0.09306123
10	0xbdb80942	-0.08986141
11	0xbd2d6aa3	-0.042338025
12	0xbdd057d4	-0.10173002
13	0xbc003df3	-0.00782727
14	0x3bb32b39	0.005467799
15	0x3b45e378	0.0030195396

5.weight f4 [128, 784]
0	0xbca34c90	-0.019933969
1	0xba9052d4	-0.0011011013
2	0xbd8e5404	-0.069496185
3	0xbe9c943d	-0.30581847
4	0xbd313cf1	-0.04327101
5	0xbcbd8204	-0.023133285
6	0xbbf2a412	-0.0074048126
7	0x3c49bbde	0.012312857
8	0xbe5268f0	-0.20547843
9	0xbb16ff0d	-0.0023040206
10	0x3bcf658f	0.0063292454
11	0xba2024ac	-0.000610898
12	0xbc930520	-0.01794678
13	0xb9c62df6	-0.00037799746
14	0xbb7a3947	-0.0038181113
15	0xbed2aec6	-0.41148967
16	0xb91ff71e	-0.0001525548
17	0x3f8122f0	1.0088787
18	0xbea07579	-0.31339625
19	0xbc04a431	-0.008095787
20	0x3d23b38c	0.03996615
21	0xbee0c835	-0.43902746
22	0xbf3c4203	-0.73538226
23	0xb98580dd	-0.00025463747
24	0x3a5874bd	0.00082571415
25	0xbf6a6063	-0.91553324
26	0xbccf6be9	-0.02532001
27	0xba968f15	-0.0011486734
28	0xbf022875	-0.5084298
29	0xbeec7ed3	-0.4619051
30	0x3e66a96f	0.22525571
31	0xba7edaf0	-0.0009721955
32	0xbc7f3861	-0.015577407
33	0xbbd2f643	-0.006438048
34	0xbb72c297	-0.0037042254
35	0xbe1b8fab	-0.15191524
36	0xbad49fb0	-0.0016221907
37	0x3cc9de41	0.024642112
38	0xbb3fdf69	-0.002927745
39	0xbb9acd58	-0.004724186
40	0x3c8a6582	0.016894106
41	0xbb86d0c7	-0.0041142437
42	0xbbd9b8bf	-0.006644338
43	0xbf47b775	-0.7801431
44	0xbd567dd2	-0.052366085
45	0xbe087f92	-0.13329914
46	0xbf0f9930	-0.5609312
47	0x3bd82362	0.006596015
48	0xbc037fbd	-0.008026061
49	0xbac96b0e	-0.0015366988
50	0x3cce17f9	0.025157915
51	0x3bbf870d	0.0058449567
52	0xbc2895e2	-0.010289641
53	0xbbce72c5	-0.0063003027
54	0xbb8b0d64	-0.0042435396
55	0xbb3a8cc1	-0.0028465244
56	0x3d9643f0	0.07337177
57	0xbe4fa280	-0.20276833
58	0xbbb72d1c	-0.0055900943
59	0xbf1dd779	-0.6165691
60	0xb7ae5dc0	-2.0786072e-05
61	0xbeccbc68	-0.39987493
62	0xbeae7dc6	-0.34080333
63	0xbca2a384	-0.019853361
64	0xbe7a7a1c	-0.24460644
65	0xbc0ad991	-0.008474723
66	0xbecf9015	-0.40539613
67	0xb6348ad1	-2.6902892e-06
68	0xbf2c1c02	-0.67230237
69	0xbe4a0b5c	-0.19730896
70	0xbd74074a	-0.059577264
71	0xbe50d386	-0.2039319
72	0xbc1c8411	-0.009552971
73	0xb693ed47	-4.408564e-06
74	0xbeb7a79e	-0.3587007
75	0x3baa01b6	0.0051881922
76	0xbdd1684e	-0.10224973
77	0xbcbc0183	-0.02294994
78	0xbd1ddbfb	-0.038539868
79	0xba55e7b2	-0.00081598305
80	0xb71d964c	-9.392923e-06
81	0xbfc64091	-1.5488454
82	0xbd00412a	-0.031312145
83	0xbd0740e8	-0.033020884
84	0xbd9948b4	-0.0748457
85	0xbcbf8695	-0.023379603
86	0xb84a848b	-4.8283993e-05
87	0xb7929542	-1.747406e-05
88	0xbf621f8b	-0.8832938
89	0xbcdc1fd1	-0.02687064
90	0xba37027d	-0.0006981267
91	0xbd23104c	-0.039810464
92	0xbc796153	-0.015220958
93	0xbca7cd5f	-0.02048367
94	0x385799b9	5.140316e-05
95	0xbf1882cc	-0.5957458
96	0xbd9bb3a7	-0.07602625
97	0x3c3b1f1b	0.01142099
98	0x3c258936	0.010103514
99	0x3c0a65d5	0.00844713
100	0x3beafd3b	0.0071713007
101	0xba694077	-0.00088978506
102	0xbba0209c	-0.0048867
103	0xbaae40b7	-0.0013294433
104	0x3c589bb9	0.013220721
105	0x3cb4d9d6	0.022076529
106	0x3c227f61	0.009918065
107	0xbfefdcae	-1.8739221
108	0xbf83d0ad	-1.0298058
109	0xbdc30aa1	-0.09523512
110	0xba91be6d	-0.0011119373
111	0xbf4b1f9c	-0.7934511
112	0x3cd23c50	0.025663525
113	0xbc48cf7f	-0.012256502
114	0xbf0875c0	-0.5330467
115	0xbdb8d240	-0.09024477
116	0xc0089230	-2.1339226
117	0xbf305b01	-0.6888886
118	0xbfac2c30	-1.3450985
119	0x3c8a3b1a	0.016873885
120	0xbf118f8f	-0.5685968
121	0xbeb2c1f6	-0.34913605
122	0xbbb1850c	-0.0054174718
123	0xbae94e78	-0.0017799875
124	0xbe7edba7	-0.24888478
125	0xbe19e648	-0.15029252
126	0x3c951a3a	0.018200982
127	0xbf0f14fe	-0.55891407
128	0xbb51ef0d	-0.0032033355
129	0xb9823502	-0.00024835026
130	0xba8b37ff	-0.0010621547
131	0xbf397dcc	-0.72457576
132	0x3cd3e4d6	0.025865953
133	0xbbb5ec4e	-0.0055518514
134	0xbfcbffba	-1.5937417
135	0xb98bb4ce	-0.00026646856
136	0xba116d7f	-0.0005547627
137	0xbd3164b6	-0.043308936
138	0xbf17e793	-0.5933773
139	0x3c436650	0.011926249
140	0xbce2ce64	-0.027686305
141	0xbfd310d8	-1.6489515
142	0xbab9a7cd	-0.0014164388
143	0xba5ed1bb	-0.000849988
144	0xbbeea8cf	-0.007283307
145	0xbc27cd29	-0.010241785
146	0xb98bf227	-0.00026692564
147	0x3c83f619	0.01610856
148	0xbe294654	-0.16530734
149	0xbe6b6a42	-0.22989753
150	0xbd93dbfa	-0.072196916
151	0xbc850278	-0.016236529
152	0xb8a33ef2	-7.78417e-05
153	0x3d5f7466	0.054554366
154	0x3dbdf939	0.09276051
155	0xbcd0547d	-0.025430912
156	0xbe720091	-0.23633029
157	0xbd25ea3c	-0.040506586
158	0x3d77128a	0.060320415
159	0xbda42879	-0.08015532
160	0xba8169ad	-0.0009873413
161	0x3e08e07e	0.13366887
162	0xbd160e83	-0.036634933
163	0xbe02aaec	-0.12760514
164	0xbd9d1f04	-0.076719314
165	0x3d393aa6	0.045221947
166	0x3c8fdadb	0.017560413
167	0xbe4429c0	-0.19156551
168	0x3d3368e3	0.0438012
169	0x3da2971f	0.0793898
170	0xbdb0247c	-0.08600709
171	0x3d7a2798	0.061072916
172	0xbcc07514	-0.023493327
173	0x3cb95b43	0.022626525
174	0xbdd4d4de	-0.10392164
175	0xbe10f52f	-0.1415603
176	0xbd643bb1	-0.05572099
177	0xbdff0395	-0.12451855
178	0x3ca8697d	0.020558113
179	0x3d9e7b08	0.0773831
180	0xbd05439a	-0.032535173
181	0xbe2cf757	-0.16891228
182	0xbc7745b8	-0.015092306
183	0xbe4fd8ea	-0.2029759
184	0xbd2f1cb7	-0.042751994
185	0x3d0a8ca9	0.03382555
186	0xbdaaf7a5	-0.08348016
187	0xbdddd56e	-0.10831724
188	0xbd85179d	-0.064986445
189	0x3be55c46	0.0069995252
190	0xbe2cfdae	-0.16893646
191	0xbe3df5e5	-0.18550833
192	0xbebbd602	-0.36686713
193	0x3cf8f8ba	0.03039204
194	0xbdf91d1e	-0.12163757
195	0x3c0ffb02	0.008787872
196	0xbc6fe50a	-0.0146420095
197	0xbe1aeb95	-0.1512893
198	0xbdbfdf95	-0.09368817
199	0xbe62d610	-0.22151971
200	0xbe23ad03	-0.15983967
201	0x3cc8fbec	0.024534188
202	0x3d93f8db	0.072252
203	0x3d78b361	0.060717944
204	0xbe02da50	-0.12778592
205	0xbe8dbee3	-0.27684698
206	0xbee1ddd1	-0.44114545
207	0xbdecb3f0	-0.11557758
208	0xbd335cc1	-0.04378963
209	0xb9dff133	-0.00042713582
210	0xbcc59a46	-0.024121415
211	0xbe119565	-0.14217146
212	0xbe03ba01	-0.12863924
213	0xbe413806	-0.18869027
214	0xbd708c38	-0.058727473
215	0x3d9a58f8	0.07536501
216	0xbe0094d7	-0.12556778
217	0x3d657999	0.056024168
218	0xbbd2c02e	-0.006431601
219	0x3dbb0a12	0.0913278
220	0x3d8638c9	0.065538
221	0xbd8a459b	-0.067515574
222	0x3ced1da0	0.02894479
223	0xbdfba8c5	-0.122880496
224	0xbd3017c6	-0.042991422
225	0xbd3f1c55	-0.04665788
226	0xbd467619	-0.04845247
227	0xbe07267d	-0.13198276
228	0x3db40bea	0.08791335
229	0x3c01f2b4	0.0079314
230	0xbe1655df	-0.14681195
231	0xbe0aad0a	-0.13542572
232	0xbe1b1270	-0.15143752
233	0x3b941e61	0.004520223
234	0xbe09928f	-0.13434814
235	0xbca38e95	-0.01996545
236	0x39f0062e	0.0004578097
237	0x3c87a8ca	0.016559977
238	0x3d765f11	0.060149256
239	0xbe588e95	-0.2114814
240	0x3e8273a9	0.25478867
241	0xbcfb7c26	-0.030698847
242	0xbc6a6060	-0.014305204
243	0x3da777d0	0.08177149
244	0x3dee2965	0.11628989
245	0xbc0fbc53	-0.008772927
246	0xbbe80a1c	-0.0070812833
247	0xba93c77c	-0.0011274661
248	0xbadd60ff	-0.0016889869
249	0xbb6cf353	-0.0036155775
250	0x3afa883c	0.0019114087
251	0xbbd7f56b	-0.0065905354
252	0xbc0198b0	-0.007909939
253	0x3bb1a670	0.005421452
254	0xba44e16b	-0.00075103965
255	0xbf515d29	-0.81782776

5.bias f4 [128]
0	0xbd7e2891	-0.062050406
1	0xbd70763a	-0.0587065
2	0xbdb67587	-0.08909135
3	0xbddb7e6e	-0.10717474
4	0xbdd9b327	-0.10629874
5	0xbdb8d1fd	-0.09024427
6	0x3da6103d	0.08108566
7	0xbdf882f3	-0.121343516
8	0xbda2619a	-0.07928772
9	0xbdd02dcc	-0.10164985
10	0xbd0e5a11	-0.034753863
11	0xbe2d8de7	-0.16948663
12	0xbd9c9945	-0.07646421
13	0xbd89c9df	-0.06727957
14	0xbe40ad3a	-0.1881608
15	0xbd994f5f	-0.07485842
16	0xbdaac6e9	-0.0833872
17	0xbdad2de0	-0.084560156
18	0xbdf8a3aa	-0.121405914
19	0xbdf7934c	-0.120886415
20	0xbdfa5bb0	-0.12224519
21	0xbdc1d362	-0.09464146
22	0xbdffe342	-0.12494518
23	0xbe1094c3	-0.14119248
24	0xbd2d80ad	-0.042359043
25	0xbd9bddaa	-0.076106384
26	0xbdcd3466	-0.1001976
27	0xbe0b0350	-0.13575482
28	0xbd63df2c	-0.055632755
29	0xbd86bfde	-0.065795645
30	0xbe0e9541	-0.13924123
31	0xbe0c3471	-0.1369188
32	0xbe04f8f8	-0.12985599
33	0xbdf0c145	-0.11755613
34	0xbdba4900	-0.09095955
35	0xbbb4702c	-0.005506536
36	0xbdeb0527	-0.11475592
37	0xbdfb5f4d	-0.122740366
38	0xbdc2b890	-0.09507859
39	0xbd57a041	-0.052643064
40	0xbdb07c9d	-0.08617518
41	0xbe1c2dac	-0.15251797
42	0xbdb75d49	-0.089533396
43	0xbdb801c7	-0.08984714
44	0xbcfaf71a	-0.030635405
45	0xbdb25878	-0.0870828
46	0xbddd3c61	-0.10802532
47	0xbd5601e6	-0.052247904
48	0xbd8802ee	-0.06641184
49	0xbddbb14f	-0.10727178
50	0xbe13883f	-0.14407443
51	0xbdf8ac04	-0.121421844
52	0xbe116b26	-0.1420103
53	0xbd8e4ece	-0.069486246
54	0xbd9efe72	-0.07763375
55	0xbd49cb63	-0.04926623
56	0xbe1e11fd	-0.1543655
57	0xbdbf17f8	-0.093307436
58	0xbe159932	-0.1460922
59	0xbe008e6d	-0.12554331
60	0xbd2abc81	-0.041683678
61	0xbd87fa82	-0.066395774
62	0xbddecbda	-0.10878725
63	0xbdd3bd15	-0.10338799
64	0xbd1de9ac	-0.038552925
65	0xbe0de98a	-0.1385862
66	0xbe324791	-0.17410113
67	0xbde53012	-0.11190809
68	0x3b9f9217	0.00486971
69	0xb9deaaf1	-0.000424705
70	0xbdb04d25	-0.08608464
71	0xbd817f4e	-0.063231096
72	0x3dce169e	0.10062908
73	0xbe4f6569	-0.20253529
74	0x3d9c8f0c	0.076444715
75	0xbde1ef9d	-0.11032031
76	0xbe063676	-0.13106713
77	0xbe05a581	-0.13051416
78	0xbd88e616	-0.066845104
79	0xbd6e3732	-0.058158107
80	0x3e31ac5f	0.1735091
81	0xbe000ad6	-0.12504134
82	0xbdb23883	-0.08702185
83	0xbd96c198	-0.07361144
84	0xbdc5ec92	-0.09664263
85	0xbdcffdb9	-0.10155816
86	0xbe05be9c	-0.13060993
87	0xbdfbb1ee	-0.12289797
88	0xbdc1136e	-0.09427534
89	0xbd9f14ce	-0.0776764
90	0xbe1cfbb2	-0.15330389
91	0xbdb32951	-0.08748115
92	0x3be577a5	0.007002788
93	0xbdae60de	-0.0851457
94	0xbda458b7	-0.080247335
95	0xbe088f16	-0.13335833
96	0xbd8de40d	-0.06928263
97	0xbd69d7a7	-0.057090428
98	0xbd3eab8d	-0.046550322
99	0xbe09100a	-0.13385025
100	0xbe2f1950	-0.170995
101	0xbc0efed5	-0.008727749
102	0xbe111335	-0.14167483
103	0xbc53928a	-0.012913356
104	0xbda0a8b0	-0.078446746
105	0xbd87d39b	-0.066321574
106	0xbdd75ecf	-0.1051613
107	0xbc9d54c6	-0.019205462
108	0xbdb663ef	-0.089057796
109	0xbc8ab1f4	-0.016930558
110	0x3c2cf0ee	0.010555489
111	0xbdbd6a9e	-0.09248851
112	0xbe27abf4	-0.16374189
113	0xbc96421b	-0.018342068
114	0xbbd18d98	-0.006395053
115	0xbd9da3d9	-0.07697267
116	0xbe0bd254	-0.13654453
117	0xbdb6937f	-0.089148514
118	0xbdf7236b	-0.12067302
119	0x3c877a98	0.01653795
120	0xbe11a624	-0.14223534
121	0xbe2aaace	-0.1666672
122	0x3c8fb9d4	0.017544664
123	0xbdc1b861	-0.094589956
124	0xbdffb562	-0.12485768
125	0xbdcd4153	-0.10022225
126	0xbe0f67d3	-0.1400445
127	0xbccdf8d3	-0.025143063

7.weight f4 [128, 128]
0	0xbe48e35c	-0.1961798
1	0xbe22f164	-0.15912396
2	0xbc024cbf	-0.007952868
3	0x3d58eb80	0.052958965
4	0x3d9aaff3	0.07553091
5	0x3d716a86	0.05893948
6	0xbdbd1af2	-0.09233655
7	0xbbc51bc0	-0.006015271
8	0xbe391628	-0.18074858
9	0x3e3ae806	0.18252572
10	0xbed686f4	-0.41899836
11	0x3e020af4	0.12699491
12	0xbe9768ec	-0.29572237
13	0xbe0f6a0f	-0.14005302
14	0xbe1e18f0	-0.154392
15	0xbd88ddab	-0.06682905
16	0xbe5b3dcc	-0.21410292
17	0xbe5dd6dc	-0.21663994
18	0xbd1ff7ef	-0.039054807
19	0x3d41e247	0.047334936
20	0x3e92adc1	0.2864819
21	0xbdc9fc4e	-0.098625764
22	0x3e12ba65	0.14328916
23	0x3c9cf5e1	0.019160213
24	0xbda1f5dc	-0.07908222
25	0x3c20cbc5	0.009814207
26	0xbdcc8c8a	-0.09987743
27	0xbd0f4c57	-0.034984913
28	0xbe7a8787	-0.24465762
29	0xbe0474f7	-0.12935244
30	0x3d85e889	0.06538493
31	0xbd8f4a83	-0.06996634
32	0xbcd80a1a	-0.026372004
33	0xbbb098e7	-0.005389321
34	0xbd1155ca	-0.035482205
35	0xbdb9fef2	-0.0908183
36	0x3dc5a6fc	0.0965099
37	0x3e4bd7ff	0.19906615
38	0x3da0bf67	0.07849007
39	0xbdaa4272	-0.08313455
40	0xbd87440f	-0.06604778
41	0x3a664570	0.00087841507
42	0xbcd2df67	-0.025741292
43	0xbcd589f7	-0.026066763
44	0x3c93eb5c	0.018056564
45	0xba29f84b	-0.0006483837
46	0xbd941de6	-0.07232265
47	0x3d4115f1	0.047140066
48	0xbdcc8f5f	-0.09988283
49	0xbe89f782	-0.26946646
50	0x3ca86853	0.020557558
51	0xbd15d284	-0.036577716
52	0xbd9ffb59	-0.07811613
53	0xbe16b470	-0.14717269
54	0xbc04900b	-0.008090983
55	0xbdc5aa3a	-0.09651609
56	0x3c731082	0.014835479
57	0x3d448d82	0.047986515
58	0x3ceb013a	0.028687108
59	0x3d977e05	0.07397083
60	0x3e1bf02a	0.15228334
61	0xb8143571	-3.533572e-05
62	0xbccf8c84	-0.025335558
63	0xbc1ffc9e	-0.0097648185
64	0x3c266dc8	0.01015801
65	0x3d6b5705	0.057456035
66	0x3c78e4c4	0.015191261
67	0xbb8b16f3	-0.004244679
68	0xbcdfd66f	-0.02732393
69	0xbe59dcfc	-0.21275705
70	0xbdb26731	-0.087110884
71	0xbd7cfcf6	-0.06176468
72	0x3d9c401d	0.07629416
73	0x3e08e689	0.13369192
74	0xbe62b5de	-0.2213969
75	0x3db2d3fc	0.08731839
76	0xbc8e2444	-0.017351277
77	0xbe8742fb	-0.2641829
78	0xbce8c670	-0.028414935
79	0x3d3520d3	0.044220757
80	0xbe16aa1a	-0.14713326
81	0x3dd579e9	0.10423643
82	0xbe3ca1ef	-0.18421148
83	0xbc05322d	-0.008129639
84	0xbe29bb41	-0.16575338
85	0xbe37075d	-0.17873903
86	0x3e0350b3	0.12823753
87	0xbd5c3ced	-0.05376904
88	0xbe62ca20	-0.22147417
89	0xbd67a4ef	-0.056553777
90	0xbd0f3452	-0.034962006
91	0xbd25d08d	-0.040482093
92	0xbd07b36d	-0.033130098
93	0xbd27bb16	-0.040949903
94	0x3dd6dd8d	0.10491476
95	0xbd629fae	-0.055328064
96	0x3dda0cce	0.106469736
97	0x3de45c9d	0.11150477
98	0xbdbbb833	-0.091659926
99	0x3e0180aa	0.12646738
100	0xbd9a60e3	-0.07538011
101	0xbcaab9ae	-0.020840492
102	0xbd5bf52a	-0.053700604
103	0xbd2d99fc	-0.04238318
104	0xbe227d2e	-0.15868065
105	0xbd8ee67a	-0.06977554
106	0xbd5a107f	-0.05323839
107	0x3d05a642	0.03262926
108	0xbd5040c8	-0.05084303
109	0xbdc95271	-0.098301776
110	0xbd26b6e0	-0.040701747
111	0xbb646247	-0.0034848617
112	0x3d421923	0.047387253
113	0xbe365216	-0.17804751
114	0xbcdc74bb	-0.02691113
115	0x3d06ea82	0.032938488
116	0xbd0ffddd	-0.035154212
117	0xbcbf34c5	-0.023340592
118	0x3d897a72	0.06712808
119	0xbcf56d93	-0.029959476
120	0xb9f357bc	-0.0004641394
121	0xbea2203c	-0.31665218
122	0x3c3d10e6	0.011539673
123	0x3d20cf03	0.03925992
124	0xbdcc1bef	-0.099662654
125	0x3c2cc3b7	0.010544709
126	0x3d71ac77	0.059002366
127	0xbde66088	-0.112488806
128	0xbe423696	-0.18966135
129	0xbe648142	-0.22314933
130	0xbc90bdeb	-0.017668685
131	0x3de5b755	0.112166084
132	0xbe5df08b	-0.21673791
133	0xbe2d70bc	-0.16937536
134	0xbdf2f85e	-0.118637785
135	0xbcee32a4	-0.029076882
136	0xbd1f5328	-0.038897663
137	0xbc55bd89	-0.013045677
138	0xbe38d47d	-0.18049808
139	0xbde23014	-0.110443264
140	0xbbe6e62b	-0.007046481
141	0x3db2eac7	0.087361865
142	0x3cd4856c	0.025942527
143	0x3d3bdc64	0.045864478
144	0xbd9d90f9	-0.07693667
145	0xbe38a097	-0.1803001
146	0xbc2adb83	-0.010428312
147	0xbd8be1ae	-0.06830154
148	0x3d466131	0.048432533
149	0xbda4b12e	-0.08041607
150	0xbd9587b9	-0.07301278
151	0xbe1fbe0d	-0.15599842
152	0xbdbe83da	-0.093024924
153	0x3cec9579	0.028879868
154	0x3c8181fc	0.015809052
155	0xbe7b6fcc	-0.24554366
156	0xbe0c87ca	-0.13723674
157	0xbc184247	-0.0092931455
158	0xbd87e9ec	-0.06636414
159	0xbe643891	-0.22287203
160	0xbe2f70b7	-0.17132841
161	0x3da92d6c	0.08260617
162	0xbe5e7979	-0.21726026
163	0xbe2b3a66	-0.16721496
164	0xbd307aa9	-0.043085728
165	0xbe16a2bf	-0.1471052
166	0xbe24bc45	-0.16087444
167	0xbdf80c31	-0.121117
168	0xbe121059	-0.14264049
169	0xbe8db903	-0.27680215
170	0xbe3fe09b	-0.18738024
171	0xbd2da998	-0.042398065
172	0xbe355a5c	-0.1771025
173	0xbeae3114	-0.3402182
174	0xbdde3b50	-0.10851157
175	0xbe1989e5	-0.14994009
176	0xbe1727c1	-0.14761259
177	0xbd9c9732	-0.07646026
178	0xbe320ff7	-0.17388903
179	0xbdc2dccf	-0.09514772
180	0x3c461f7c	0.012092467
181	0xbe181540	-0.14851856
182	0xbd86f312	-0.06589331
183	0xbe170ddc	-0.1475138
184	0xbe888492	-0.26663643
185	0xbd1e4178	-0.038636655
186	0xbe360264	-0.1777435
187	0x3c82435c	0.01590126
188	0x3d7c2589	0.061559234
189	0xbd1dbb41	-0.038508657
190	0xbe3b6a46	-0.18302259
191	0x3bda2276	0.00665694
192	0xbe3db054	-0.18524295
193	0xbe53b2cf	-0.20673679
194	0xbcd41097	-0.025886817
195	0xbba0771d	-0.004897012
196	0x3d21c265	0.03949203
197	0xbe46319e	-0.19354865
198	0x3d077aa5	0.033075947
199	0xbe3e9487	-0.18611346
200	0xbd81816f	-0.063235156
201	0xbe6ac2b5	-0.22925837
202	0x3d78b5a9	0.06072012
203	0x3e167986	0.14694795
204	0xbe94e9f9	-0.29084757
205	0xbdb95b68	-0.090506375
206	0xbe71b379	-0.2360362
207	0xbd8d3142	-0.06894161
208	0xbe1d33ce	-0.15351793
209	0xbdf907b3	-0.12159672
210	0xbe26d29e	-0.16291282
211	0xbe0ec6c5	-0.13943012
212	0xbe169691	-0.14705874
213	0xbe31a92a	-0.17349687
214	0x3d3cda52	0.046106644
215	0xbde52346	-0.111883685
216	0x3c0cc71e	0.008592395
217	0xbe5f44f4	-0.21803647
218	0x3dc9df03	0.09856989
219	0xbdcb0bb2	-0.0991434
220	0x3d103a00	0.035211563
221	0xbd6666d2	-0.0562504
222	0x3cfaa90e	0.03059819
223	0xbe67651d	-0.22597165
224	0xbe9973ce	-0.29971164
225	0xbe4b031f	-0.1982541
226	0xbdcdd6fe	-0.10050772
227	0x3d10dfe2	0.03536976
228	0xbc8f0e66	-0.01746292
229	0xbe878e95	-0.2647597
230	0x3cfb33e4	0.030664392
231	0xbd2df206	-0.04246714
232	0xbe70674c	-0.23476905
233	0xbe48799d	-0.19577642
234	0xbd2a4fa2	-0.04157985
235	0x3e2ba023	0.16760306
236	0xbe415752	-0.18880966
237	0xbdcddf36	-0.1005234
238	0xbe2a75ca	-0.16646495
239	0xbe0b4c62	-0.13603356
240	0xbd21f356	-0.039538704
241	0xbe5e499d	-0.21707769
242	0x3da0de8d	0.07854948
243	0xbc73edf0	-0.014888272
244	0xbc69000b	-0.014221202
245	0xbe6e4875	-0.23269828
246	0xbdd2fd79	-0.10302252
247	0xbda5eb39	-0.08101506
248	0xbda229e0	-0.07918143
249	0x3d4c8717	0.04993352
250	0xbc4139be	-0.011793552
251	0xbce95067	-0.028480722
252	0xbd182b27	-0.03715053
253	0xbdf41136	-0.11917345
254	0xbe7063df	-0.23475598
255	0xbe1e6f96	-0.15472254

7.bias f4 [128]
0	0xbe174e5f	-0.1477599
1	0xbe4889f4	-0.19583875
2	0xbde58f3d	-0.11208961
3	0xbe23ff20	-0.16015291
4	0xbe1b7304	-0.15180594
5	0xbdded5aa	-0.10880597
6	0xbe05d5c9	-0.13069834
7	0xbb84e5d5	-0.0040557184
8	0xbe3a9889	-0.1822225
9	0xbdcd44b4	-0.1002287
10	0xbe571ff3	-0.21008281
11	0xbde40f6b	-0.11135753
12	0xbe3f5b63	-0.18687205
13	0xbe0d6f8a	-0.1381208
14	0xbe270b00	-0.1631279
15	0xbe350e6e	-0.17681286
16	0x3e4c75a4	0.19966751
17	0xbdadd16b	-0.08487209
18	0xbe52862c	-0.20558995
19	0x3e12604a	0.14294544
20	0xbe139388	-0.14411747
21	0xbe2c4423	-0.16822867
22	0xbe1a4f18	-0.15069234
23	0xbe3fec69	-0.18742527
24	0xbe376701	-0.17910387
25	0xbe1b9bfb	-0.1519622
26	0xbde53a63	-0.11192777
27	0xbe5dcf35	-0.21661074
28	0xbdf8e2c9	-0.12152631
29	0xbe24f791	-0.16110064
30	0xbdb928e9	-0.09041006
31	0xbe1d03b1	-0.1533344
32	0xbdb2154b	-0.086954676
33	0xbe4430d9	-0.19159259
34	0xbe814450	-0.2524743
35	0xbe0e267e	-0.13881871
36	0xbe05cf8b	-0.13067453
37	0xbde136d3	-0.10996785
38	0xbe0f42ed	-0.13990374
39	0xbe1a0856	-0.15042242
40	0xbe320d3f	-0.17387865
41	0xbe4d210f	-0.20032142
42	0xbe3c52fb	-0.1839103
43	0xbe3987e4	-0.18118244
44	0xbe1c985c	-0.15292495
45	0xbe57d373	-0.21076755
46	0x3d236ba2	0.03989757
47	0xbe28baff	-0.16477583
48	0xbe1d1aee	-0.15342304
49	0xbe5efd57	-0.21776329
50	0xbe0394ae	-0.12849686
51	0xbe7ed586	-0.2488614
52	0xbe0e6690	-0.13906312
53	0xbe11acd5	-0.14226086
54	0xbdee37f4	-0.11631766
55	0xbe1c852f	-0.1528518
56	0xbe3925be	-0.18080804
57	0xbe3d37c3	-0.18478303
58	0xbde16c5a	-0.110069945
59	0xbe42a02e	-0.19006416
60	0xbe4958ec	-0.19662827
61	0xbdb6111b	-0.08889981
62	0xbe2be3df	-0.16786145
63	0xbe03b99c	-0.12863773
64	0xbe05548f	-0.13020538
65	0xbdf45400	-0.11930084
66	0xbe0bff0d	-0.13671513
67	0xbd97a090	-0.07403672
68	0xbdf4cc82	-0.11953069
69	0xbe5bea36	-0.21476063
70	0xbde85aee	-0.113454685
71	0xbe125a2f	-0.14292215
72	0xbdb391af	-0.08768021
73	0x3de9dc7e	0.11419009
74	0xbe1e35e7	-0.1545025
75	0xbc12e56b	-0.00896583
76	0xbe2b1004	-0.16705328
77	0xbdee75f5	-0.11643592
78	0xbe2e376e	-0.17013332
79	0xbe06ee65	-0.13176878
80	0xbe55d810	-0.20883203
81	0xbe12f52b	-0.14351337
82	0xbddf6146	-0.10907225
83	0xbda398a3	-0.079880975
84	0xbe283507	-0.16426478
85	0xbe0b904c	-0.13629264
86	0xbdec1379	-0.115271516
87	0xbe3f83c5	-0.1870261
88	0xbe24e889	-0.1610433
89	0xbe3ee219	-0.18640937
90	0xbe247750	-0.16061139
91	0xbd8c72d4	-0.06857839
92	0xbe241294	-0.16022712
93	0xbe0708d1	-0.13186957
94	0xbe203dbe	-0.15648553
95	0xbe2a2ac8	-0.16617882
96	0xbdbe9103	-0.093050025
97	0xbe15e29f	-0.1463723
98	0xbe179872	-0.14804247
99	0xbe5f9d85	-0.21837433
100	0xbdfed20b	-0.12442406
101	0xbddc6401	-0.10761262
102	0xbe4ebb5a	-0.20188656
103	0xbe1d215f	-0.15344761
104	0xbe3f9fde	-0.18713328
105	0xbde5453b	-0.11194845
106	0xbdf87f99	-0.12133712
107	0xbe5ac083	-0.213625
108	0xbe29d01a	-0.1658329
109	0xbde60e8d	-0.11233244
110	0xbe0a2b36	-0.13493046
111	0xbe13443a	-0.14381495
112	0xbdd1656f	-0.10224425
113	0xbe3d93ec	-0.18513459
114	0xbe2328d2	-0.1593354
115	0xbe579a6f	-0.21055005
116	0xbe31c97b	-0.17362015
117	0xbd8c555f	-0.06852221
118	0xbe22b409	-0.1588899
119	0xbe25fce9	-0.16209759
120	0xbe3116b7	-0.17293821
121	0xbdfdb116	-0.12387292
122	0xbe0ccca0	-0.13749933
123	0xbe12eaf3	-0.14347439
124	0xbe845db6	-0.25852746
125	0xbe37f844	-0.179658
126	0xbdee27e0	-0.11628699
127	0xbdf8f843	-0.12156727

9.weight f4 [128, 128]
0	0xbd0ac3cb	-0.03387813
1	0xbb48601c	-0.0030574864
2	0x3de10c58	0.109886825
3	0xbb93fd39	-0.0045162705
4	0xbcd63f2f	-0.026153175
5	0xbb2779da	-0.0025554807
6	0x3df5e09c	0.120057315
7	0xbba53681	-0.0050418978
8	0xbdbcbb60	-0.092154264
9	0xbe829690	-0.25505495
10	0x3d3306a1	0.043707494
11	0xbcd86f5c	-0.026420288
12	0xbd14924e	-0.03627234
13	0x3db783df	0.08960699
14	0xbda5deef	-0.08099162
15	0xb897f822	-7.2464594e-05
16	0xba032885	-0.00050032913
17	0x3cfeafe9	0.03108974
18	0x3d64f21e	0.055894963
19	0xbab659c8	-0.0013912255
20	0xbd28f945	-0.041253347
21	0x3ab49075	0.0013775962
22	0x3da37cc4	0.079827815
23	0xbcde7b42	-0.027158383
24	0x3e2c3f93	0.16821127
25	0x3ddc9af2	0.10771741
26	0xbe06fbbb	-0.13181965
27	0x3bf2c2b3	0.007408464
28	0x3dca5e40	0.09881258
29	0x3d250eb5	0.04029723
30	0xbe1c0230	-0.1523521
31	0xbe2ba423	-0.16761832
32	0xbd279944	-0.04091765
33	0x3baabe6f	0.0052106897
34	0xb8db98e9	-0.000104712155
35	0xbdd74d89	-0.105128355
36	0x3c731a4b	0.014837812
37	0x3d4d5db5	0.050138194
38	0xbd481143	-0.048844587
39	0xbe396aac	-0.18107098
40	0x3b45a559	0.003015837
41	0x37c221f7	2.3142418e-05
42	0xbc477df4	-0.012176026
43	0xbd9ca8ad	-0.0764936
44	0x3d3e98c0	0.046532393
45	0x3d164e74	0.036695912
46	0xbff787b9	-1.9338294
47	0x3df1020f	0.11767971
48	0xbe0dd44a	-0.13850513
49	0x3ddfa646	0.10920386
50	0xbdb78961	-0.0896175
51	0x3c77b784	0.015119437
52	0x3d023c78	0.03179595
53	0xbc175136	-0.009235671
54	0xbe8d6262	-0.27614123
55	0xbac7997b	-0.0015228236
56	0x3ddd938a	0.108191565
57	0x3da09313	0.07840552
58	0xbdada152	-0.08478035
59	0x3e157a4e	0.14597437
60	0x3be1f875	0.0068960735
61	0xbe2cb384	-0.16865355
62	0x3caca6f0	0.021075696
63	0xbe656fcb	-0.22405927
64	0x3a032f87	0.00050043355
65	0x3e1357f6	0.14389023
66	0xbc5aa078	-0.013343923
67	0x3c89bde7	0.016814185
68	0xbe5a62c4	-0.21326739
69	0x3e8e02cd	0.27736512
70	0x3d007435	0.031360824
71	0xbe0a3e79	-0.13500394
72	0xbe1d400d	-0.15356465
73	0xb98c8590	-0.00026802393
74	0xbc8842f4	-0.016633488
75	0x3ac3a42d	0.0014926248
76	0xbcbb1416	-0.022836726
77	0xbe1bcb54	-0.15214282
78	0x3df68fa9	0.1203912
79	0xbd86500f	-0.06558239
80	0x3e8bd1a1	0.27308372
81	0xbd499a5c	-0.049219474
82	0xbce3912b	-0.027779182
83	0xbc9004b7	-0.017580373
84	0x3d9603b0	0.07324922
85	0x3d147c7e	0.036251538
86	0x3e5a9912	0.21347454
87	0x3c23b734	0.0099924095
88	0x3dc51d9b	0.096247874
89	0x3d129e82	0.035795696
90	0xbdf8db58	-0.121512115
91	0xbd1eddec	-0.03878586
92	0xbd59f610	-0.05321318
93	0x3c423597	0.011853597
94	0xbc2da025	-0.010597263
95	0x3d346dad	0.044049907
96	0xbdbba671	-0.091626056
97	0x3daf88db	0.08571025
98	0xbdae8c04	-0.085227996
99	0x3bfd930f	0.007738478
100	0xbdf66ab8	-0.12032074
101	0xb7434af0	-1.16403535e-05
102	0x3e0256e0	0.12728453
103	0x3dffa6c8	0.12482983
104	0x3e74e562	0.23915628
105	0x3cc47dd8	0.023985788
106	0xbe468063	-0.19384913
107	0xb9d63cf0	-0.00040862663
108	0xba04e2dc	-0.0005069205
109	0xbe13ab12	-0.14420727
110	0x3d2321c5	0.039827127
111	0x3cc69460	0.024240673
112	0x3682d2c4	3.8988383e-06
113	0x3d15160e	0.036397986
114	0xbe68cc01	-0.22734071
115	0x3c8aedfd	0.016959185
116	0x3c9c3dc0	0.019072413
117	0x3dd851e0	0.105624914
118	0x3ca6d4f0	0.020365208
119	0xb88965f9	-6.551663e-05
120	0x3caad657	0.020854158
121	0xbc9f18a0	-0.019420922
122	0xbe683b40	-0.22678852
123	0xbc9ff755	-0.019527117
124	0xbe1e74cd	-0.15474243
125	0x3bbd40a3	0.0057755276
126	0x3d62cdb9	0.055371974
127	0xbd01d918	-0.031701177
128	0xbd4be608	-0.04977992
129	0xbe143847	-0.14474593
130	0x3d02b0a7	0.03190675
131	0xbdc9ecbc	-0.098596066
132	0xbd12fb69	-0.035884295
133	0xbe6449d6	-0.22293791
134	0xbdcd6c9c	-0.10030481
135	0xbd9d8212	-0.076908246
136	0xbe2745e0	-0.16335249
137	0xbd0ede5e	-0.034880035
138	0xbd119fdf	-0.035552856
139	0xbe1f8096	-0.15576395
140	0x3d5c6f84	0.053817287
141	0x3ce2ffdf	0.0277099
142	0x3db4a8ba	0.088212445
143	0xbe26f0ea	-0.16302839
144	0xbd6c2828	-0.057655483
145	0xbe62a493	-0.22133093
146	0xbdcd65ba	-0.100291684
147	0xbe5a4d74	-0.21318609
148	0xbd07e108	-0.03317359
149	0xbcf1787d	-0.029476399
150	0x3d393169	0.045213137
151	0xbd124859	-0.035713527
152	0xbe0c61ad	-0.13709135
153	0x3d640cc1	0.055676226
154	0xbb741c1c	-0.00372482
155	0xbdc7426e	-0.09729467
156	0xbe5dc7e4	-0.21658283
157	0x3d12db36	0.035853587
158	0x3d05767f	0.03258371
159	0xbd9088c6	-0.070573375
160	0xbdaa1902	-0.08305551
161	0xbe184e29	-0.14873566
162	0xbe1bf07d	-0.15228458
163	0xbcc40745	-0.023929248
164	0xbd73c96b	-0.05951826
165	0xbc37730d	-0.011196864
166	0xbd256dec	-0.040388033
167	0xbe307c49	-0.17234911
168	0xbcfb0ed6	-0.030646723
169	0xbd86b213	-0.06576934
170	0xbcf67bdc	-0.030088358
171	0xbe4d246d	-0.20033427
172	0xbdc6cdf1	-0.09707249
173	0xbd2d9c04	-0.042385116
174	0xbcdcef85	-0.02696968
175	0xbcd2a349	-0.025712626
176	0xbd44ba5b	-0.048029285
177	0xbd363758	-0.044486374
178	0xbd08c327	-0.033389237
179	0xbe199d9b	-0.15001528
180	0xbd0a4332	-0.03375549
181	0xbc0ad9a9	-0.008474746
182	0xbdd6acea	-0.104821995
183	0xbe511a64	-0.20420223
184	0xbcfab1ed	-0.03060242
185	0x3cedc8a7	0.029026343
186	0xbd1f70b9	-0.03892586
187	0xbd2bb69a	-0.04192219
188	0xbdcb5ccb	-0.09929808
189	0xbe05eb14	-0.13077956
190	0xbd3e3604	-0.046438232
191	0xbcf49ab8	-0.029858932
192	0xbdd46773	-0.10371294
193	0x3d4c6421	0.049900178
194	0xbdfb81d5	-0.12280623
195	0xbe3dd58a	-0.1853849
196	0xbd22689f	-0.039650556
197	0xbe48535f	-0.19563054
198	0xbe0ae101	-0.13562395
199	0x3e1b90db	0.15191977
200	0xbbf33357	-0.0074218917
201	0xbdc04631	-0.09388388
202	0xbbe13c6d	-0.0068736584
203	0xbde2166b	-0.11039432
204	0xbdf5ef76	-0.12008564
205	0xbc71cffa	-0.014759058
206	0xbda14d81	-0.07876111
207	0xbde2534f	-0.11051046
208	0x3e18a8b4	0.14908105
209	0xbe11b5af	-0.14229463
210	0xbe613904	-0.21994406
211	0xbd1c4c27	-0.038158562
212	0xbc887a30	-0.016659826
213	0xbdac1a92	-0.084035054
214	0xbe3962bb	-0.18104069
215	0xbe1e10e9	-0.15436138
216	0xbe620533	-0.22072296
217	0x3d6a02eb	0.05713169
218	0xbe1b9ea2	-0.15197232
219	0x3ca40077	0.020019753
220	0xbd808f50	-0.06277335
221	0xbe710155	-0.23535664
222	0xbdb43e78	-0.088009775
223	0xbd52102a	-0.051284947
224	0xbe1cf012	-0.15325955
225	0xbcfba0ee	-0.030716386
226	0xbe284c8c	-0.1643545
227	0xbd98406b	-0.07434162
228	0xbe04ee3f	-0.12981509
229	0xbba91d3f	-0.005160957
230	0x3cb2e4f0	0.021837682
231	0x3d2dd0d0	0.042435467
232	0x3d63e97d	0.055642594
233	0x3d79a713	0.06095035
234	0xbd18e4de	-0.03732764
235	0xbe297f02	-0.16552356
236	0xbd54639d	-0.05185281
237	0xbdf56c88	-0.11983591
238	0xbdcdd5f8	-0.10050577
239	0xbcc69ce6	-0.024244737
240	0xbdd17816	-0.10227983
241	0x3cd4c517	0.025972886
242	0xbe455e68	-0.19274294
243	0xbd3474a6	-0.044056557
244	0xbcf1270c	-0.029437564
245	0xbc298557	-0.010346732
246	0xbd76956b	-0.06020109
247	0x3d7ba858	0.061439842
248	0xbde3c86b	-0.11122211
249	0x3d1b342f	0.037891563
250	0x3c016510	0.00789763
251	0x3d13ed2d	0.03611486
252	0xbd0fcced	-0.03510754
253	0x3c9effcd	0.019409085
254	0xbe0a50f2	-0.1350744
255	0xbbbdaf14	-0.005788693

9.bias f4 [128]
0	0x3db93181	0.09042645
1	0xbe3662ac	-0.17811078
2	0xbd7f04f5	-0.062260587
3	0xbdb79780	-0.08964443
4	0xbe0d6346	-0.13807401
5	0xbd3cf6a2	-0.046133645
6	0xbe50ea99	-0.20401992
7	0xbdf40291	-0.11914552
8	0xbe328625	-0.17433985
9	0xbe3728f1	-0.17886712
10	0xbd58e379	-0.05295131
11	0xbdf3d59f	-0.11905979
12	0xbe1a6e0d	-0.15081044
13	0x3dc09067	0.094025426
14	0xbdb0535b	-0.08609649
15	0xbe54dff9	-0.20788564
16	0xbe0fc982	-0.14041713
17	0xbe36b004	-0.17840582
18	0x3e7961e6	0.24353752
19	0xbdd0b068	-0.10189897
20	0x3e911a13	0.28340206
21	0xbd7b1691	-0.061300818
22	0xbd58ae86	-0.052900814
23	0xbb8b6720	-0.004254237
24	0xbdbfe153	-0.09369149
25	0xbe1a2c7a	-0.15056029
26	0xbd9d4e95	-0.07681004
27	0xbb9816b8	-0.00464138
28	0xbde936f3	-0.11387434
29	0xbe53fc8a	-0.20701805
30	0xbe48ecb0	-0.19621539
31	0x3e53a7d7	0.20669495
32	0xbe4a017b	-0.19727127
33	0xbd155bbf	-0.03646445
34	0x3e571779	0.21005048
35	0xbe109999	-0.14121093
36	0xbe0acf6c	-0.13555688
37	0xbc03a52b	-0.008034985
38	0xbe29d7f4	-0.16586286
39	0xbe77e72e	-0.24209282
40	0xbe8e6bbe	-0.27816576
41	0xbd846d02	-0.06466104
42	0xbe446b55	-0.19181569
43	0xbd3a4d4d	-0.045483876
44	0xbd37c449	-0.044864926
45	0xb796e6ec	-1.7988925e-05
46	0xbdf658e2	-0.12028672
47	0xbe22443a	-0.15846339
48	0xbe08614a	-0.13318363
49	0xb85cf35c	-5.2678733e-05
50	0xbda51798	-0.08061141
51	0x3db03c6e	0.08605276
52	0xbe1b651f	-0.15175293
53	0xbe2a70f7	-0.16644655
54	0x3c66001e	0.014038114
55	0x3c1f0008	0.009704597
56	0xbe1b3e31	-0.15160443
57	0xbe1f157a	-0.15535536
58	0xbdcc1e12	-0.09966673
59	0xbe3affd7	-0.18261658
60	0xbdfd559e	-0.12369846
61	0xbdbecb8a	-0.09316166
62	0xbdbaa1a2	-0.0911286
63	0xbe28e359	-0.16492976
64	0xbe3b7eb9	-0.1831006
65	0x3e80729e	0.25087446
66	0xbdfebc1d	-0.124382235
67	0xbe015d77	-0.1263331
68	0x3e6705c0	0.22560787
69	0xbe0d3249	-0.13788714
70	0xbd862357	-0.06549709
71	0xbe0a7258	-0.13520181
72	0xbdfd4e96	-0.12368505
73	0xbe885105	-0.26624313
74	0xbdbbccdd	-0.09169934
75	0xbd3b7be3	-0.045772444
76	0xbe7e3c96	-0.24827799
77	0xbdcf7f9c	-0.101317614
78	0xbe6cc24e	-0.23120996
79	0xbdfda84a	-0.12385614
80	0xbe2756d7	-0.1634172
81	0x3ea9a5ef	0.3313441
82	0x3e4c6467	0.19960175
83	0x3e93a088	0.28833413
84	0xbd63c5b9	-0.055608485
85	0xbe5a6d46	-0.21330747
86	0xbd6cd010	-0.05781561
87	0x3daf704e	0.08566342
88	0xbdda018b	-0.106448255
89	0xbe019d6d	-0.1265771
90	0xbe06420e	-0.13111135
91	0xbe38a727	-0.18032514
92	0xbcec3f31	-0.028838726
93	0xbe0b85d1	-0.13625266
94	0xbd5eae4a	-0.054365434
95	0xbdb21123	-0.08694675
96	0x3e807ca0	0.2509508
97	0x3dc2f10c	0.09518632
98	0xbe3e7a60	-0.1860137
99	0xbccad4b4	-0.024759628
100	0xbcc8133d	-0.024423236
101	0x3ebb0589	0.3652766
102	0xbdfdfe76	-0.1240205
103	0xbe3d47c3	-0.18484406
104	0xbc5cdedf	-0.013480871
105	0xbdc9f2f3	-0.09860792
106	0xbe3751e6	-0.17902336
107	0xbdad66c1	-0.084668644
108	0xbe46ceda	-0.19414845
109	0xbe34fe14	-0.17675048
110	0xbe183740	-0.14864826
111	0x3e3d505f	0.1848769
112	0xbd895e3d	-0.06707428
113	0xbd9d4f92	-0.076811925
114	0xbe0cca40	-0.13749027
115	0xbdf5dc33	-0.1200489
116	0x3e3426f7	0.17592989
117	0xbdfcbee6	-0.123410985
118	0xbd39b295	-0.045336325
119	0xbe1b2126	-0.15149364
120	0xbd379d6e	-0.04482787
121	0xbe431146	-0.19049558
122	0x3de3a532	0.11115493
123	0xbd991d46	-0.074762866
124	0xbe3bd002	-0.18341067
125	0xbe4b1a28	-0.19834197
126	0x3d72c7b1	0.05927247
127	0xbd2a2fd7	-0.04154953

11.weight f4 [128, 128]
0	0xba744c8d	-0.0009319268
1	0xba5256ca	-0.0008023797
2	0x3da60a11	0.08107389
3	0xbd033a3b	-0.032037955
4	0xbe72028e	-0.23633787
5	0x3c920624	0.017825194
6	0xbe046f66	-0.1293312
7	0xbd0a2fc8	-0.033736974
8	0xbe0d9fde	-0.13830516
9	0xbddf50c8	-0.1090408
10	0x3c8f3e7d	0.017485851
11	0xbd004ffe	-0.031326286
12	0xbe14587b	-0.14486878
13	0xbb828559	-0.0039831814
14	0xbbb9db39	-0.0056718853
15	0x3c6f4fd2	0.014606433
16	0xbcee8478	-0.0291159
17	0x3e0ea2a2	0.13929227
18	0xbead2475	-0.33816877
19	0x3e1ef1b2	0.15521887
20	0x3c1e9f8b	0.009681593
21	0x3b04020d	0.0020142824
22	0xbc8dd916	-0.017315429
23	0xbdba1cf2	-0.09087552
24	0x3de41123	0.11136081
25	0xbc469b13	-0.0121219335
26	0xbcef910f	-0.029243974
27	0xbdbf0a9b	-0.09328195
28	0xbd5eff0b	-0.054442447
29	0xbe3b0bf1	-0.18266274
30	0x3e3ea5b9	0.18617906
31	0xbec5112a	-0.38489658
32	0xbdaa349c	-0.08310816
33	0xbc9d966c	-0.019236766
34	0xbc5791f2	-0.013157355
35	0xbd9a194d	-0.07524357
36	0xbdc50fb7	-0.09622138
37	0x3d89a645	0.067211665
38	0x3d60c5d0	0.05487615
39	0xbb88567e	-0.0041607013
40	0xbe267f7f	-0.16259573
41	0x3d125edc	0.035734996
42	0xbe361615	-0.17781861
43	0x3dbaf16e	0.0912808
44	0xbdf03c20	-0.11730218
45	0xbb7e3613	-0.0038789555
46	0xbd0fb501	-0.03508473
47	0xbe5840b8	-0.21118438
48	0xbd1bf0fb	-0.038071614
49	0xb803eb5c	-3.145203e-05
50	0x3e0f7252	0.14008453
51	0xbb21e443	-0.0024702705
52	0xbe36e1fe	-0.17859647
53	0xbe0c7ebb	-0.13720219
54	0xbcebc780	-0.028781652
55	0xbd2aaac1	-0.04166675
56	0xbdac1625	-0.08402661
57	0x3e0a6dd2	0.13518456
58	0xbdf7c456	-0.12097995
59	0xbe06864b	-0.13137166
60	0xbcd4380a	-0.025905628
61	0xbc3b862a	-0.011445561
62	0xbb5ad83d	-0.0033393048
63	0xbd692de1	-0.05692852
64	0x3bb28de7	0.005449045
65	0xbea83f25	-0.32860675
66	0x3b864cbc	0.004098503
67	0x3da3b067	0.079926305
68	0x3f1ed89b	0.62049264
69	0x3e46a8bd	0.19400306
70	0xbd81b5c1	-0.06333495
71	0xbe04f104	-0.12982565
72	0xbc657630	-0.014005229
73	0xbc2cec19	-0.010554337
74	0x3d702fd9	0.05863938
75	0xbe3a434d	-0.18189736
76	0xbe430cfd	-0.19047923
77	0x3de77ce3	0.11303117
78	0xbbfc2d8e	-0.00769586
79	0xbc9dddf2	-0.01927087
80	0xbc0ea9e0	-0.008707494
81	0xbc72c5cb	-0.014817665
82	0x3c1f2379	0.009713047
83	0x3eb087d0	0.34478617
84	0xbdd4d648	-0.103924334
85	0xbdbc39d5	-0.09190718
86	0xbda6bcf4	-0.08141509
87	0xbb7ea294	-0.0038854228
88	0xbac86d09	-0.0015291284
89	0xbd99e184	-0.07513717
90	0xbbfa03cd	-0.0076298476
91	0x3e27f99f	0.16403817
92	0x3dd66cb9	0.10469956
93	0x3c413fa6	0.01179496
94	0x3d009571	0.03139252
95	0xbdbc0923	-0.0918143
96	0x3f1d8ff5	0.61547786
97	0xbb7e989c	-0.0038848286
98	0x3d351569	0.04420987
99	0xbd4a1363	-0.049334895
100	0x3d729182	0.0592208
101	0xbc6b53e4	-0.014363263
102	0x3da18b7e	0.07887934
103	0xbdbac69b	-0.09119912
104	0xba69b62f	-0.0008915392
105	0x3cea87c4	0.028629191
106	0x3cacfd2a	0.021116812
107	0xbdd78e4d	-0.105251886
108	0xbc25eeff	-0.010127782
109	0xbd1d29d9	-0.038369987
110	0xbada5921	-0.0016658643
111	0xbc5ec327	-0.013596333
112	0xbd103463	-0.03520621
113	0xbd269f46	-0.04067924
114	0x3dd5c86b	0.10438617
115	0xbcf279c9	-0.029599087
116	0xbc705afc	-0.01467013
117	0xbdeb2a2f	-0.11482655
118	0x3db1504d	0.08657894
119	0x3db9034c	0.09033832
120	0xbba98e15	-0.005174408
121	0xbd2296a1	-0.039694432
122	0xbc03f6bd	-0.008054432
123	0xbbc9a823	-0.0061540767
124	0xbc841264	-0.01612205
125	0x3bb77e91	0.0055998047
126	0xba8fc744	-0.001096942
127	0x3e211172	0.15729311
128	0xbe6e2052	-0.23254517
129	0xbc6044e2	-0.013688298
130	0xbc795d54	-0.015220005
131	0xbb47eca5	-0.0030506041
132	0xbc93333d	-0.017968768
133	0x3c53ec55	0.012934764
134	0x3c8e5c8f	0.01737812
135	0x3de72784	0.11286834
136	0xbd181b9d	-0.03713571
137	0x3d087a02	0.03331948
138	0x3d38fed4	0.045164898
139	0xbbd0e649	-0.0063751084
140	0xbdb40be5	-0.08791331
141	0xbe6806bc	-0.22658819
142	0xbded94e6	-0.11600666
143	0x3d944e94	0.0724155
144	0xbe16aac6	-0.14713582
145	0x3de19157	0.110140495
146	0xbd0b7f1d	-0.03405677
147	0xbd29a13a	-0.041413523
148	0xbdaac2f9	-0.08337969
149	0x3d4e8af7	0.050425496
150	0xbd241b11	-0.040064875
151	0xbc90a3e3	-0.017656272
152	0xbe356b2e	-0.17716667
153	0xbd2338b3	-0.039848994
154	0xbdbd07b0	-0.09229982
155	0xbd2814b0	-0.041035354
156	0xbcbae50f	-0.022814302
157	0xbe16b6cd	-0.1471817
158	0x3e308da1	0.17241527
159	0xbec77c2b	-0.3896192
160	0xbe44b59a	-0.192099
161	0xbd671831	-0.056419555
162	0xbe419640	-0.18904972
163	0x3dfd056b	0.12354549
164	0xbc847afb	-0.016171923
165	0xbc97ef79	-0.018546807
166	0x3e05c693	0.13064031
167	0x3d43ec62	0.047832854
168	0xbde093b6	-0.109656736
169	0xbc8615a8	-0.016367748
170	0xbe13911f	-0.14410828
171	0x3d267a08	0.04064372
172	0xbd16f77c	-0.036857113
173	0xbe2ba49e	-0.16762015
174	0x3d12db24	0.03585352
175	0xbe1ef57f	-0.15523337
176	0xbd842b6b	-0.06453594
177	0xbe542f60	-0.20721197
178	0xbd98f52c	-0.07468638
179	0xbdb52e8a	-0.08846767
180	0xbc83bf0e	-0.016082313
181	0x3d10f86e	0.03539317
182	0x3d53cfc8	0.051711828
183	0x3c8cd63e	0.017192002
184	0x3cce1540	0.025156617
185	0xbd175531	-0.03694648
186	0x3cdfe491	0.027330669
187	0xbd8cb2d4	-0.06870046
188	0x3d869341	0.06571055
189	0xbc332521	-0.010934145
190	0xbd812e29	-0.063076325
191	0x3d1cb933	0.038262557
192	0xbdd79733	-0.10526886
193	0xbe87f84a	-0.26556617
194	0x3d26674c	0.040625855
195	0xbd929717	-0.07157724
196	0x3d911318	0.0708372
197	0xbe395ab3	-0.18101005
198	0xbb91b838	-0.0044470094
199	0x3e3f2d19	0.18669547
200	0xbd8f70dd	-0.07003949
201	0xbe3dcb7d	-0.18534656
202	0x3c9e6706	0.019336235
203	0xbcfd5eb1	-0.030928941
204	0xbe2b0983	-0.16702847
205	0xbd003781	-0.031302933
206	0xbc8dfca4	-0.017332383
207	0xbc49459f	-0.012284665
208	0x3cf31ac8	0.029675856
209	0xbc0af1a5	-0.008480464
210	0xbceb6cd7	-0.028738422
211	0xbe201911	-0.15634562
212	0x3ca0c779	0.019626366
213	0xbd254f5c	-0.040358886
214	0xbd1403e8	-0.036136538
215	0xbded2875	-0.11579982
216	0xbdc52fb2	-0.09628238
217	0xbab4ddce	-0.0013799013
218	0xbd896de6	-0.067104146
219	0xbdc6fc19	-0.097160526
220	0xbd24bed3	-0.040221047
221	0xbcbd4e67	-0.023108674
222	0xbc86ea8e	-0.016469266
223	0xbb93b7dd	-0.004508002
224	0xbd2dcfcd	-0.042434502
225	0xbc96063e	-0.018313523
226	0x3d51ff18	0.051268667
227	0xbe0693d4	-0.1314233
228	0xbbd1e090	-0.0064049438
229	0x3d96247c	0.073311776
230	0xbdc607d4	-0.09669462
231	0xbd6b8a61	-0.057505015
232	0xbbba8677	-0.005692299
233	0xbb6a8a58	-0.0035788026
234	0xbd588cc9	-0.05286864
235	0xbc2fbf6a	-0.010726789
236	0xbd4ed67b	-0.050497513
237	0xbdbe73e1	-0.09299446
238	0xbdf873de	-0.12131475
239	0xbbb55d5a	-0.00553481
240	0xbe0347aa	-0.12820306
241	0x3d8edd59	0.069758125
242	0x3d57b9c5	0.052667398
243	0x3d8b0d7c	0.06789681
244	0xbd4d11aa	-0.050065674
245	0xbdcbfbb1	-0.09960116
246	0xbdb9704e	-0.090546235
247	0xbe251001	-0.16119386
248	0xbe0b8227	-0.13623868
249	0x3ceed71b	0.029155305
250	0xbe19cecc	-0.15020293
251	0x3dbc7993	0.09202876
252	0xbd9c3864	-0.07627943
253	0xbd1d05d8	-0.03833565
254	0xbcd69026	-0.026191782
255	0xbc079aa9	-0.00827662
