project_networks/mnist_cnn_2layer_w2.onnx (onnx, 682019 bytes, 16 tensors)

0.weight f4 [8, 1, 4, 4]
-0.0004971313 -0.0032044877 -0.0073883873 -0.0060761697 -0.0009082358 -0.016969282 -0.0042286115 -0.009137131
-0.0012613912 -0.008635706 -0.0131319035 0.086487524 -0.002530626 -0.0032884625 -0.00501467 -0.010407781
-0.008764304 0.030677186 0.114474505 -0.01595884 -0.007242944 -0.0091955075 -0.014547481 -0.014510839
-0.008058239 -0.07225826 -0.019523973 -0.011161805 -0.009726021 -0.012349876 -0.013231284 -0.010124516
-0.0012066186 -0.0009629804 -0.00038484507 -0.00017250831 -0.0009696869 -0.0009094019 0.0009625739 0.0010831298
-0.0008807412 -0.00026193855 -0.00036069023 0.7665516 -0.0010612266 -0.00043339466 -0.00057832943 0.0020739632
-0.009528742 -0.009200073 -0.00066880154 -0.021080984 -0.009816295 -0.0127255395 -0.0077408757 -0.014827843
0.07123572 -0.053483065 -0.0065362146 0.012349776 -0.0069761663 -0.00954496 -0.036042485 0.017410273
-0.0002412726 0.00016252344 0.00039652808 0.0004633131 -0.000103061946 1.0335815 0.0010069376 0.00015553193
0.00021503598 0.0004828342 0.00031000245 0.00012954656 -0.0003919431 -0.00017697635 8.118761e-06 -0.00020663903
-0.00087366585 -4.5539742e-05 -0.00020337984 -0.0005027816 3.3754546e-05 6.404806e-05 -0.0006990712 -0.00058411516
1.1931186 -0.00015475841 2.1955009e-07 0.0005126058 0.00033272637 -0.00016865497 8.656742e-05 0.0005232728
-0.0027581486 -0.0037799336 -0.007822486 0.0312705 -0.00043504714 -0.020178279 -0.0019978285 -0.009215491
-5.7709945e-05 -0.00017177619 -0.005573707 -0.003936343 -0.00041433852 -0.004233424 -0.002368353 -0.0052520167
-0.00066278613 2.6562258e-05 0.00028856425 -0.00021541225 -0.0012615127 -0.00012756106 -0.00061012525 -0.0005340083
-0.00074603263 6.34808e-05 -0.00061330094 0.0004012499 -0.00059619994 -0.0011754704 -0.00093842857 -0.001395123
00000000: eb51 02ba 6202 52bb 491a f2bb 9b1a c7bb
00000010: ac16 6eba 2a03 8bbc 2a90 8abb e8b3 15bc
00000020: 4455 a5ba c77c 0dbc 3227 57bc 5f20 b13d
00000030: dcd8 25bb 3f83 57bb 1a52 a4bb 6685 2abc
00000040: 2898 0fbc b94e fb3c 9c71 ea3d 1dbc 82bc
00000050: 3856 edbb c1a8 16bc 8f58 6ebc dfbe 6dbc
00000060: b406 04bc 23fc 93bd bdf0 9fbc 01e0 36bc
00000070: e459 1fbc 2257 4abc 07c8 58bc 4ce1 25bc
00000080: 6727 9eba 8570 7cba 08c5 c9b9 59e3 34b9
00000090: 9632 7eba ee64 6eba 3e55 7c3a cef7 8d3a
000000a0: 8be1 66ba cc54 89b9 061b bdb9 ba3c 443f
000000b0: db18 8bba 3f39 e3b9 089b 17ba 54eb 073b
000000c0: 711e 1cbc e7bb 16bc 8352 2fba 07b2 acbc
000000d0: 86d4 20bc c87e 50bc 2ca7 fdbb 7bf0 72bc
000000e0: 08e4 913d 0f11 5bbd be2d d6bb b756 4a3c
000000f0: 5398 e4bb 7762 1cbc 49a1 13bd fd9f 8e3c
00000100: 1ffe 7cb9 0e6b 2a39 19e5 cf39 d5e8 f239
00000110: f622 d8b8 664c 843f 38fb 833a 4916 2339
00000120: 487b 6139 e924 fd39 d387 a239 e4d6 0739
00000130: b67d cdb9 ba92 39b9 d035 0837 3ead 58b9
00000140: b906 65ba ed01 3fb8 5c42 55b9 1acd 03ba
00000150: ab93 0d38 8a51 8638 e041 37ba 4e1f 19ba
00000160: 1cb8 983f a546 22b9 78bd 6b34 6560 063a
00000170: c771 ae39 f9d8 30b9 888b b538 3e2c 093a
00000180: 0ec2 34bb c3b8 77bb e229 00bc 7f15 003d
00000190: 0a17 e4b9 eb4c a5bc 00ee 02bb 92fc 16bc
000001a0: 950d 72b8 d21e 34b9 a5a3 b6bb 70fc 80bb
000001b0: 933b d9b9 89b8 8abb 5f36 1bbb 1c19 acbb
000001c0: d3be 2dba 04d2 de37 704a 9739 49e0 61b9
000001d0: 5859 a5ba e9c1 05b9 d0f0 1fba b1fc 0bba
000001e0: 6791 43ba ff20 8538 eec5 20ba da5e d239
000001f0: 4d4a 1cba 3e12 9aba e000 76ba 8fdc b6ba

0.bias f4 [8]
-0.08656902 -0.14567222 -0.25489134 -0.10255759 -0.34244317 -0.39550397 -0.031417366 -0.0013619001
00000000: 194b b1bd 192b 15be 1e81 82be b709 d2bd
00000010: b654 afbe 7f7f cabe 7faf 00bd c981 b2ba

2.weight f4 [16, 8, 4, 4]
-8.0685466e-05 -0.00011703452 0.0036205598 0.0058506764 -0.00010289261 0.15112564 -0.810775 -4.4674667e-05
-0.00034936235 0.0060310806 0.09046568 1.6908942e-05 0.00018770334 0.011633248 -0.00075151934 -0.0007081659
1.97628e-05 0.00020100262 0.0010549064 -2.1117063e-05 2.2230543e-06 -0.0061165732 0.00037452503 -0.0026061616
0.0003441505 -0.043127604 9.948569e-05 -0.49730068 -0.00068709283 -0.00071123225 -0.00022983422 -0.12720646
0.013096443 0.007609289 -0.0011651381 0.0025312128 0.019205526 0.0034514891 -2.7781513 0.0019128125
0.017418493 -0.00095345546 -0.6548575 0.00032213453 0.00069143955 -0.0006782881 0.0008749791 0.0022645888
-0.002108502 -0.0001204491 -0.00042256518 0.0053513553 -0.0010806058 -0.0018208894 0.00030636406 6.3217696e-05
-0.00046811826 -0.00056056876 -0.0010449177 0.0004034958 0.0012770041 0.00092397875 -0.0021087423 0.002977587
-0.0007874316 0.005980334 0.012163594 0.0048104743 0.0019620135 0.025302034 0.014063401 -0.7881958
0.00048546173 0.061297867 0.017900309 -1.5730175 0.001541726 0.004906287 -0.001959037 -0.014105979
-0.0012245903 0.004682024 0.012322786 0.009337804 0.0033072552 0.009959724 0.048582997 0.00031095085
0.0006329726 0.01885382 0.012318618 -0.92036104 0.0018362777 -5.427082e-05 -0.0012634341 0.00092743355
0.0010673401 0.2373863 -0.005101884 0.0011215251 6.170886e-05 0.102060296 0.001252456 0.04696129
-0.0003893476 0.0390228 -0.10603843 -0.0014123148 -7.328899e-05 -0.08798304 0.0019927213 2.9380819e-05
3.7041857e-06 1.4253988e-05 -3.3986922e-05 -1.9968704e-06 -1.7796427e-05 -0.00015972735 -0.00013480408 -1.9455829e-05
-0.0002450168 -9.152946e-05 -0.00012886118 -0.00011883419 -1.0835117e-05 -0.00015052622 -0.00019296957 -7.6087534e-05
8.381369e-05 0.00011334879 1.7605546e-05 3.7399757e-05 6.1155355e-05 -8.6973494e-05 -0.001074626 -7.867266e-05
-0.26195207 8.457858e-06 -0.00068962754 -0.00061931787 4.982798e-06 -3.709313e-05 -6.027141e-05 -0.002760862
0.00068158965 0.001942877 0.0014505298 0.0033523038 0.0012248931 0.0017688945 -1.0191627e-06 -6.3157335e-05
-0.0013695 0.0024818417 0.0003090318 -0.14576262 0.0024266788 0.000306145 -0.0033660412 -3.2451069e-06
0.00190639 0.0028760298 0.0040962533 0.0011433885 -0.03811202 0.0026332154 0.022746202 0.001989246
-3.0261102 0.09653189 0.076396376 0.002581806 -0.0023422246 0.013240082 0.009200876 -0.0011703955
-0.0014522468 0.00011059321 0.0029533738 1.9160154e-05 4.2375133e-05 0.0034817504 -0.0013771221 0.00019584279
-0.0028095115 0.016411401 -0.72277975 9.3035655e-05 -0.0026965933 0.031703655 -0.025267262 3.022267e-05
0.000562081 0.0032238492 0.008297662 0.0036161386 -0.0010990361 -0.00063354755 0.00083033537 0.016324451
0.0010816251 -1.6125373 0.09473177 0.12659387 -0.002143968 -1.3455313 0.064937696 0.04534757
0.0027294431 0.0015461724 0.006192715 0.015174569 -0.0009641583 -0.11918416 -0.01342446 0.033512156
0.0010423267 0.0026096657 -0.0049373466 0.2343722 -0.00039701353 -0.12776434 0.0038328618 0.028347336
0.00032856737 8.4809864e-05 -0.0011278732 -0.00027309643 0.00019406225 -3.0673067e-07 0.00016365116 8.745425e-05
-0.008978048 -0.0004260703 7.132216e-05 0.00021049942 -0.20876852 -9.35425e-07 -0.0009052446 -0.09793203
1.8566696e-05 -6.238284e-05 6.190801e-05 5.0381163e-06 7.696946e-06 0.00016135056 0.000101094935 -6.455764e-06
5.4570206e-05 -9.755711e-05 0.0001806774 -4.086954e-05 -7.655042e-06 -0.00011237623 -0.0016568857 0.018735373
00000000: ae35 a9b8 6e70 f5b8 ea46 6d3b 08b7 bf3b
00000010: 0dc8 d7b8 aec0 1a3e f38e 4fbf 0f61 3bb8
00000020: 9f2a b7b9 5fa0 c53b 1246 b93d add7 8d37
00000030: 3bd2 4439 6199 3e3c 9c01 45ba 36a4 39ba
00000040: 4ac8 a537 3bc4 5239 c944 8a3a 8c24 b1b7
00000050: c82f 1536 896d c8bb e65b c439 23cc 2abb
00000060: 196f b439 92a6 30bd f9a2 d038 329e febe
00000070: 051e 34ba fd71 3aba a7ff 70b9 6942 02be
00000080: 7792 563c 5857 f93b 8cb7 98ba b4e2 253b
00000090: e854 9d3c 6132 623b 3bcd 31c0 56b7 fa3a
000000a0: 3ab1 8e3c 50f1 79ba bea4 27bf 2ae4 a839
000000b0: b941 353a 25cf 31ba da5e 653a 7f69 143b
000000c0: cb2e 0abb 9e99 fcb8 bd8b ddb9 6c5a af3b
000000d0: 1da3 8dba e9aa eeba 7d9f a039 be93 8438
000000e0: c56d f5b9 22f3 12ba 9ff5 88ba 4a8c d339
000000f0: 2661 a73a 2a37 723a d332 0abb 9f23 433b
00000100: a46b 4eba adf6 c33b d049 473c 2fa1 9d3b
00000110: 2095 003b 3646 cf3c 2e6a 663c 33c7 49bf
00000120: 9285 fe39 7913 7b3d aba3 923c a358 c9bf
00000130: bd13 ca3a ebc4 a03b 3063 00bb c41c 67bc
00000140: 6f82 a0ba aa6b 993b 83e5 493c 97fd 183c
00000150: 89be 583b 1c2e 233c f7fe 463d 1e07 a339
00000160: 12ee 253a 5473 9a3c 07d4 493c c89c 6bbf
00000170: 41af f03a d9a0 63b8 d099 a5ba 031f 733a
00000180: fee5 8b3a 6515 733e b42d a7bb 2300 933a
00000190: b169 8138 fd04 d13d 7329 a43a 7b5a 403d
000001a0: 5a21 ccb9 5fd6 1f3d ad2a d9bd 6c1d b9ba
000001b0: bab2 99b8 7430 b4bd 5198 023b d476 f637
000001c0: 6d95 7836 6a24 6f37 2e8d 0eb8 f901 06b6
000001d0: 8949 95b7 7c7c 27b9 325a 0db9 1335 a3b7
000001e0: 9975 80b9 81f3 bfb8 e91e 07b9 9f36 f9b8
000001f0: 79c8 35b7 93d6 1db9 e057 4ab9 2f91 9fb8
00000200: 22c5 af38 abb5 ed38 9faf 9337 afdd 1c38
00000210: 8840 8038 8a65 b6b8 77da 8cba 10fd a4b8
00000220: 951e 86be 39e6 0d37 1fc8 34ba b859 22ba
00000230: e931 a736 7294 1bb8 efcb 7cb8 94ef 34bb
00000240: b5ac 323a 22a8 fe3a b41f be3a 53b2 5b3b
00000250: 988c a03a 40da e73a 2aca 88b5 5673 84b8
00000260: cb80 b3ba 65a6 223b 8c05 a239 cc42 15be
00000270: ea08 1f3b 1682 a039 cd98 5cbb 83c6 59b6
00000280: d5df f93a c67b 3c3b dd39 863b c0dd 953a
00000290: 591b 1cbd 0692 2c3b 3e56 ba3c 035e 023b
000002a0: caab 41c0 83b2 c53d b475 9c3d 8433 293b
000002b0: 0280 19bb eeec 583c 45bf 163c f567 99ba
000002c0: 5159 beba 47ee e738 648d 413b 1eba a037
000002d0: f4bb 3138 142e 643b 8d80 b4ba 265b 4d39
000002e0: c81f 38bb 3471 863c 1808 39bf 231c c338
000002f0: 54b9 30bb b1db 013d 4afd cebc b186 fd37
00000300: 9e58 133a 3747 533b ebf2 073c bdfc 6c3b
00000310: 880d 90ba a814 26ba ddaa 593a dbba 853c
00000320: 51c5 8d3a 9f67 cebf bb02 c23d d3a1 013e
00000330: d081 0cbb 5f3a acbf 0efe 843d 60be 393d
00000340: 75e0 323b f0a8 ca3a 42ec ca3b c19e 783c
00000350: 91bf 7cba d316 f4bd 44f2 5bbc 0b44 093d
00000360: ae9e 883a ed06 2b3b 77c9 a1bb 44ff 6f3e
00000370: 4126 d0b9 a8d4 02be c030 7b3b ac38 e83c
00000380: 9143 ac39 f3db b138 25d5 93ba 622e 8fb9
00000390: 307d 4b39 beac a4b4 c699 2b39 a567 b738
000003a0: aa18 13bc 3062 dfb9 cb92 9538 82b9 5c39
000003b0: 6ac7 55be eb19 7bb5 f04d 6dba 9790 c8bd
000003c0: adbf 9b37 88d3 82b8 9cd4 8138 170d a936
000003d0: 2222 0137 3630 2939 ee02 d438 979e d8b6
000003e0: 50e2 6438 9397 ccb8 3874 3d39 566b 2bb8
000003f0: 286e 00b7 87ab ebb8 dc2b d9ba ed7a 993c

2.bias f4 [16]
0.18224406 0.049572017 -0.0047123292 0.36177602 0.0032498946 0.00806292 -0.0005660038 0.43078187
-0.007060187 -0.0009090797 -0.0032026982 -0.0007158848 0.35869673 0.30261716 0.21578065 0.263727
00000000: 309e 3a3e 070c 4b3d e269 9abb b53a b93e
00000010: 2ffc 543b 561a 043c df5f 14ba 718f dc3e
00000020: 2459 e7bb 4e4f 6eba 5ce4 51bb 37aa 3bba
00000030: 19a7 b73e a3f0 9a3e 9af5 5c3e 3a07 873e

5.weight f4 [128, 784]
0.0061631906 -0.15295726 0.1019849 -0.037683524 0.021433828 0.0053753285 0.118560396 -0.03818047
-0.13884635 0.0795994 0.02648968 0.0390603 -0.026445234 0.0067110746 -0.064567246 0.029146116
-0.04250465 0.07612359 0.042680535 -0.033639867 -0.1283529 0.05372382 0.0070556514 0.01954537
-0.11211933 -0.02405658 -0.009073443 -0.12253102 0.019099575 0.023191905 -0.031209158 -0.009727757
-0.019791972 -0.095625065 -0.038664762 0.03394601 -0.17081709 0.13544068 0.065365806 -0.033063486
-0.16392821 -0.06451984 -0.010141913 -0.039269313 0.19475636 0.04266203 -0.063435495 0.06559193
-0.12462149 0.027474953 -0.12644026 -0.044754345 0.10542655 0.1513118 0.18780558 -0.04660091
0.12064422 0.034466296 0.096835904 -0.113607995 -0.016338084 0.026761869 0.029557727 0.052244935
0.035994697 -0.09726177 -0.06807641 -0.018620912 -0.10061344 0.090269476 -0.08563921 0.045504205
-0.00205912 0.061271988 -0.22844927 -0.02653011 -0.025065402 0.07075302 -0.08537661 -0.07866089
-0.080172986 -0.07797081 -0.14005573 -0.012643284 -0.17870444 0.0077152736 -0.033989653 0.0044486187
0.038534917 -0.029685816 0.01888058 -0.014826135 -0.0057101785 0.015196459 -0.08465074 0.013125925
0.00010878133 -0.12047633 0.04386967 -0.001588215 -0.003762241 -0.18889078 -0.08907398 0.02050873
0.013870771 0.11167466 -0.021814194 -0.07565739 -0.08782106 -0.015958501 -0.05666434 -0.0939942
0.10346852 0.1198841 0.03902544 -0.22616547 -0.105344355 0.0645768 0.012678846 -0.057042588
0.0003356361 -0.029638745 0.084632225 0.0052412176 0.034647826 0.028585412 -0.019674733 -0.02973534
-0.1398325 -0.0724458 -0.029971851 0.023996552 -0.097409494 -0.042710837 0.15867174 0.024486853
0.0025341462 -0.07563513 0.0119390935 0.051483706 0.12564826 0.1417846 -0.22756954 -0.07485018
0.014597351 -0.09451337 0.05333251 -0.004533801 -0.13883853 -0.07891826 -0.08117871 0.0036150836
0.025566092 0.10531482 0.062659286 -0.019640096 0.08687306 0.23674814 0.04024708 -0.013538756
-0.07442165 0.048373282 -0.07929984 -0.0130367065 -0.060544837 -0.028320942 0.0761634 0.014086777
0.02499773 -0.057356726 0.101386905 -0.002099692 0.014206389 -0.027604371 0.095035985 0.009640735
-0.04040388 -0.03011467 -0.032946143 0.0028121052 0.07043682 -0.0044708843 0.016359782 0.06558671
-0.023198796 -0.014722507 -0.09716773 -0.05430646 0.17619729 -0.0070398487 -0.2194508 -0.10282939
-0.07607702 0.04107208 -0.059164006 -0.07196548 -0.10257204 -0.06590917 -0.0019258399 -0.02607019
-0.06893802 0.0021442468 0.06684998 -0.09720997 0.025070766 -0.000775299 -0.07451019 0.059989356
0.044263735 0.028708013 -0.025637899 -0.01740649 0.029898185 -0.2130694 -0.09202285 -0.029473122
0.06780954 0.03363644 -0.13898015 -0.13671836 -0.038706783 -0.10556442 -0.08741586 -0.1210543
0.08322288 0.079047576 -0.118874654 -0.10185332 0.044353742 -0.048933767 -0.0026549092 0.03270914
0.04418712 0.09704591 0.005881395 -0.03138278 0.060174145 -0.029926304 0.1135339 -0.023326075
-0.049359757 -0.18097447 0.028592989 -0.031139148 -0.05496569 0.000365093 0.13531417 -0.2235408
-0.031572588 -0.014322622 -0.07385187 0.011058658 -0.058148734 -0.114921995 -0.15308331 -0.1033877
00000000: 97f4 c93b d4a0 1cbe 76dd d03d 0a5a 1abd
00000010: ff95 af3c 8623 b03b cbcf f23d 2063 1cbd
00000020: bd2d 0ebe 0305 a33d e300 d93c b1fd 1f3d
00000030: ada3 d8bc 93e8 db3b d53b 84bd d6c3 ee3c
00000040: 5b19 2ebd afe6 9b3d c9d1 2e3d f5c9 09bd
00000050: f16e 03be 820d 5c3d 1833 e73b 9d1d a03c
00000060: d29e e5bd 4e12 c5bc c7a8 14bc 8bf1 fabd
00000070: b676 9c3c f3fc bd3c 59aa ffbc 2c61 1fbc
00000080: c622 a2bc 13d7 c3bd f15e 1ebd f90a 0b3d
00000090: adea 2ebe f6b0 0a3e 82de 853d 946d 07bd
000000a0: ccdc 27be fa22 84bd 442a 26bc dcd8 20bd
000000b0: 366e 473e 61be 2e3d 78ea 81bd 1055 863d
000000c0: 8d39 ffbd 2713 e13c 8e79 01be 5550 37bd
000000d0: e0e9 d73d 7bf1 1a3e 1b50 403e 99e0 3ebd
000000e0: 5114 f73d 882c 0d3d e751 c63d 4fab e8bd
000000f0: 72d7 85bc b53b db3c 0c23 f23c c9fe 553d
00000100: 2d6f 133d 2e31 c7bd a56b 8bbd e28a 98bc
00000110: 6b0e cebd 34df b83d 9c63 afbd 9e62 3a3d
00000120: 4df2 06bb 56f8 7a3d 9bee 69be ac55 d9bc
00000130: f555 cdbc f6e6 903d efd9 aebd f618 a1bd
00000140: bc31 a4bd 29af 9fbd c56a 0fbe c725 4fbc
00000150: 4cfe 36be 68d0 fc3b bc38 0bbd b8c5 913b
00000160: cad6 1d3d ab2f f3bc 72ab 9a3c 51e9 72bc
00000170: 731c bbbb 92fa 783c 5e5d adbd 1f0e 573c
00000180: 8821 e438 4bbc f6bd afb0 333d a72b d0ba
00000190: ee8f 76bb 966c 41be 6b6c b6bd ed01 a83c
000001a0: 3b42 633c afb5 e43d aeb3 b2bc 43f2 9abd
000001b0: 87db b3bd 67bb 82bc de18 68bd 0880 c0bd
000001c0: 4ee7 d33d cc85 f53d 24d9 1f3d ec97 67be
000001d0: c8be d7bd d740 843d efba 4f3c 7da5 69bd
000001e0: 51f8 af39 f4cc f2bc a953 ad3d 85be ab3b
000001f0: e1ea 0d3d f42b ea3c e82c a1bc 8797 f3bc
00000200: 4030 0fbe 775e 94bd 8787 f5bc 6b94 c43c
00000210: a17e c7bd 8ff1 2ebd d87a 223e a798 c83c
00000220: eb13 263b 97e6 9abd 309c 433c 94e0 523d
00000230: f0a9 003e fb2f 113e fd07 69be 0d4b 99bd
00000240: ba29 6f3c 3a90 c1bd 3173 5a3d 4890 94bb
00000250: b02b 0ebe e69f a1bd 0641 a6bd 0aeb 6c3b
00000260: fb6f d13c 4caf d73d 8353 803d 44e4 a0bc
00000270: 81ea b13d 1b6e 723e 1fda 243d a9d1 5dbc
00000280: 616a 98bd 1023 463d f467 a2bd e997 55bc
00000290: ddfd 77bd 5201 e8bc 8ffb 9b3d 3acc 663c
000002a0: 0ac8 cc3c e3ee 6abd f0a3 cf3d fc9a 09bb
000002b0: eac1 683c 9022 e2bc 3aa2 c23d 2cf4 1d3c
000002c0: 8a7e 25bd 0ab3 f6bc 89f2 06bd 4c4b 383b
000002d0: 2e41 903d 7f80 92bb f304 863c 5352 863d
000002e0: 670b bebc ac36 71bc e0ff c6bd 7370 5ebd
000002f0: 106d 343e 88ae e6bb b6b7 60be 3798 d2bd
00000300: 45ce 9bbd 333b 283d f555 72bd a362 93bd
00000310: 4a11 d2bd 63fb 86bd 776c fcba 2791 d5bc
00000320: 602f 8dbd 7e86 0c3b a4e8 883d 0516 c7bd
00000330: 3561 cd3c 6f3d 4bba cc98 98bd 66b7 753d
00000340: e44d 353d 112d eb3c 9206 d2bc 0e98 8ebc
00000350: 0aed f43c dd2e 5abe 7a76 bcbd 9e71 f1bc
00000360: badf 8a3d 5dc6 093d d050 0ebe e6ff 0bbe
00000370: 018b 1ebd 2932 d8bd 1607 b3bd 51eb f7bd
00000380: c270 aa3d b2e3 a13d 8e74 f3bd 7998 d0bd
00000390: 45ac 353d c66e 48bd fcfd 2dbb 05fa 053d
000003a0: 8efd 343d 02c0 c63d b8b8 c03b 3b8b 00bd
000003b0: 2a79 763d 0228 f5bc 7684 e83d 5316 bfbc
000003c0: 752d 4abd 5f51 39be d83b ea3c 8717 ffbc
000003d0: b423 61bd f469 bf39 cc8f 0a3e e1e7 64be
000003e0: 4252 01bd 6ea9 6abc a63f 97bd 602f 353c
000003f0: 5e2d 6ebd 395c ebbd dfc1 1cbe eebc d3bd

5.bias f4 [128]
-0.10868547 0.047710292 0.05247792 0.13635339 0.19827142 -0.083781004 0.2093526 0.1229376
0.17812753 -0.01896913 0.14327264 0.094473645 -0.14681031 -0.061334517 0.055932816 0.22677872
0.050997864 -0.048021868 0.023120709 0.12696177 0.0008501524 0.14614686 0.11344339 0.16070831
0.10166069 0.23213288 0.07662655 0.07565882 0.07152208 0.22854394 0.05123443 -0.060434453
0.170863 0.07131917 0.032396324 0.08158412 0.2780828 -0.056245342 0.26745966 0.11294307
-0.04597241 0.011756115 -0.07194641 -0.010786179 -0.12120535 0.012511355 0.16643098 0.09625859
0.013587621 0.14788848 -0.05787912 0.1614151 0.09246508 0.055546317 -0.0043830425 -0.033450652
0.17029724 0.047032654 -0.033511356 0.13652502 0.12955955 -0.026247362 0.22644228 0.1645502
0.16310896 0.01938365 0.10239351 0.1922707 -0.014597189 0.035063963 -0.036162138 0.14388694
-0.00041336022 0.18220343 0.008102032 0.13272443 0.046571475 0.12573989 0.30917832 0.15194407
0.082362965 0.07673663 -0.041918416 -0.012962785 0.076367915 0.05373631 0.085895315 0.03235735
0.07193899 0.15355298 0.092077605 -0.026780881 0.2012498 0.036274295 0.0880958 0.17144842
0.19618787 -0.0434019 0.14450338 0.11853771 -0.16360183 0.11911044 -0.025531275 0.16299354
0.02984205 -0.07393275 0.12215913 0.05093419 0.029749442 0.13125296 -0.087395646 0.086579576
0.020181458 0.190669 0.16261426 0.1350906 0.11070805 -0.034107078 -0.005034922 0.38650116
0.12870318 0.08291994 -0.07359879 0.16386546 -0.10485353 0.15358025 0.07118781 0.19159153
00000000: 7d96 debd de6b 433d 16f3 563d 39a0 0b3e
00000010: aa07 4b3e 6095 abbd 8760 563e b5c6 fb3d
00000020: 1067 363e 2665 9bbc 10b6 123e 667b c13d
00000030: 7155 16be e739 7bbd cf19 653d ae38 683e
00000040: 23e3 503d 94b2 44bd a467 bd3c 4402 023e
00000050: c3dc 5e3a 86a7 153e 0255 e83d b890 243e
00000060: 7b33 d03d 3eb4 6d3e 61ee 9c3d 03f3 9a3d
00000070: 2b7a 923d 6c07 6a3e 32db 513d 1e8a 77bd
00000080: b6f6 2e3e c90f 923d 02b2 043d 9315 a73d
00000090: de60 8e3e 8461 66bd 79f0 883e b24e e73d
000000a0: 914d 3cbd b89c 403c a458 93bd 84b8 30bc
000000b0: 833a f8bd 6dfc 4c3c e26c 2a3e 3923 c53d
000000c0: 9d9e 5e3c 1470 173e a812 6dbd 004a 253e
000000d0: 555e bd3d 8984 633d a09f 8fbb 8d03 09bd
000000e0: 6662 2e3e 50a5 403d 3443 09bd 37cd 0b3e
000000f0: 42ab 043e b504 d7bc 7ce0 673e d97f 283e
00000100: 0906 273e 76ca 9e3c b0b3 d13d 9ce2 443e
00000110: 0c29 6fbc 3b9f 0f3d c01e 14bd 1957 133e
00000120: 45b8 d8b9 8993 3a3e 63be 043c eae8 073e
00000130: bbc1 3e3d f5c1 003e 9f4c 9e3e 3a97 1b3e
00000140: eaad a83d 1828 9d3d a5b2 2bbd dc61 54bc
00000150: c866 9c3d 9b1a 5c3d e2e9 af3d 2489 043d
00000160: c054 933d fe3c 1d3e 2f93 bc3d 9463 dbbc
00000170: 6d14 4e3e 5b94 143d 926b b43d 2d90 2f3e
00000180: 79e5 483e 31c6 31bd b2f8 133e e6c3 f23d
00000190: 3d87 27be 2df0 f33d f726 d1bc c7e7 263e
000001a0: 5177 f43c 0e6a 97bd 912e fa3d 5fa0 503d
000001b0: 1ab5 f33c 2d67 063e 7dfc b2bd a250 b13d
000001c0: 9653 a53c bc3e 433e 5a84 263e 3155 0a3e
000001d0: e7ba e23d ddb3 0bbd fdfb a4bb 7be3 c53e
000001e0: c4ca 033e eed1 a93d f6ba 96bd 59cc 273e
000001f0: 73bd d6bd 2444 1d3e eaca 913d 9230 443e

7.weight f4 [128, 128]
-0.029615492 -0.1383252 -0.0019034436 0.27370456 -0.8844373 -0.07452534 0.029419208 0.010755184
0.02421962 -0.13312846 0.0061182296 -0.025457656 -0.034687124 0.04569986 -0.005076937 -1.9889387
0.008528913 -0.011761338 0.09913381 0.0133894505 -0.52775884 0.0058325953 -0.024040874 0.26183808
-0.008216216 -0.033634756 -0.335021 -0.5778081 -0.10215359 -0.21362387 0.009756197 0.012004599
-0.71674 -0.22741908 0.004020826 -0.013746566 -1.4101645 -0.1265206 0.026061248 -0.10936186
-0.1436428 -0.002497305 -0.08512913 0.038376555 0.104124404 -0.64042664 -0.0105065135 -0.0065458184
-1.2501211 -0.5658317 -0.46062893 0.25630152 0.022729956 0.0060471827 -0.00023157767 -0.027560174
-0.015605542 -0.014237203 -0.16281775 -0.24719429 -0.51617736 0.065935165 -0.5343371 0.24771076
-0.0005381214 0.01139235 0.014384414 -0.0045616697 0.04969426 0.0064031747 -0.007858188 -0.015741246
-0.3448555 -0.0016737988 0.07738899 -0.008925725 -0.048186854 -0.43001416 0.0037868393 -0.0594919
0.001169135 -0.0765224 -0.15821375 -0.034114227 0.11090768 -0.13130178 -0.062828936 -1.2330434
-0.6417071 -0.7999603 -0.028150707 0.04255982 -0.008719986 -0.029001856 -0.062790416 -0.015449714
0.026985757 0.052324984 -0.0004988601 -0.57911134 0.016945733 -0.2545688 -0.096663065 -0.18571866
-0.0027366187 -0.35442096 -0.025408626 0.02643371 0.010647523 0.70663226 -0.052253883 -0.874656
-0.13926105 0.08197342 -0.007742707 0.005902956 -0.37888867 -0.19488044 -0.09945439 -0.0044900347
-0.70618206 0.009331616 -0.117370315 0.017023979 -0.058744863 0.001418966 -1.6609087 0.03408983
-0.005435281 -0.00024262241 0.039478008 -0.0122062955 -0.083131075 -0.19902459 -0.5113414 -0.53133076
0.0065770024 -0.012300135 -0.12935308 0.023334257 -0.021193394 -0.028210096 0.0790371 -0.5988042
-0.02083974 -0.07584521 -0.031083817 -0.009897388 -0.011876359 -0.27654707 0.007534052 -0.0047865002
0.005422257 0.006738379 0.0016406961 -0.5681804 -0.42728603 0.05418832 0.0069015007 -0.09490964
0.0041219806 -0.7982393 -0.018153597 -0.027625497 -0.04481298 -0.067127645 0.22378956 -0.18158951
-0.08866288 -0.021680871 -0.097656615 -0.33296138 -0.21271247 0.005892885 -0.51114815 0.0017193396
-0.08069738 0.030818747 -0.065744385 0.56436265 0.00032419787 -0.0050567472 -0.031139672 -0.62229055
-0.2239007 -0.46077752 -0.6982108 0.08159541 -0.7431148 -0.095693834 0.020068072 0.007920767
-0.1708544 -0.37349087 -0.04795585 -0.5049108 -0.0004574032 0.016532809 -0.21661557 -0.03920361
0.002068416 0.12716673 0.029337507 -0.027491294 -0.36305046 0.008949691 -0.01615227 -0.002649551
0.033785045 -0.015523706 0.075187124 -0.014755854 -0.14266159 -0.1965428 0.014465607 -0.0086560575
-0.032527912 -0.0059234616 -0.9375814 0.0041993777 -0.008304356 -0.33367652 0.018245103 -0.1721826
0.44053566 0.14250223 -0.2697502 0.054099184 -0.005472981 -0.00478117 0.008738876 0.06470552
0.00023889895 0.006244363 -0.31622577 -0.1458849 0.00030829536 0.005000675 0.033071913 0.06820196
-0.037915904 0.059450235 0.03305937 -0.014225759 0.0076601617 -0.0010518568 -0.54582924 -0.08414195
-0.43631962 -0.04795582 -0.020929836 -0.0012329726 0.014970315 0.3821946 -0.035371035 0.050972067
00000000: 309c f2bc 1fa5 0dbe f87c f9ba 0123 8c3e
00000010: 7c6a 62bf bea0 98bd 8d00 f13c 8336 303c
00000020: 3968 c63c d452 08be 6e7b c83b 938c d0bc
00000030: 1614 0ebd c72f 3b3d 6f5c a6bb 8b95 febf
00000040: dbbc 0b3c a1b2 40bc ab06 cb3d 6d5f 5b3c
00000050: 341b 07bf 5b1f bf3b 5ef1 c4bc a40f 863e
00000060: 4f9d 06bc 99c4 09bd df87 abbe 3beb 13bf
00000070: e735 d1bd 37c0 5abe 75d8 1f3c f0ae 443c
00000080: 467c 37bf 8ce0 68be 22c1 833b 4739 61bc
00000090: 4580 b4bf 9e8e 01be 667e d53c 1cf9 dfbd
000000a0: 1917 13be d3a9 23bb 2e58 aebd bc30 1d3d
000000b0: 2d3f d53d 00f3 23bf 8323 2cbc 4e7e d6bb
000000c0: f803 a0bf 59da 10bf 8ed7 ebbe f439 833e
000000d0: 2c34 ba3c 7227 c63b a8d3 72b9 e0c5 e1bc
000000e0: 63ae 7fbc 2843 69bc b2b9 26be 8020 7dbe
000000f0: 3324 04bf 0409 873d 51ca 08bf e4a7 7d3e
00000100: b710 0dba fba6 3a3c 9bac 6b3c 0f7a 95bb
00000110: 358c 4b3d b9d1 d13b a1bf 00bc c9f3 80bc
00000120: e690 b0be 5e63 dbba 1e7e 9e3d 343d 12bc
00000130: 945f 45bd d12a dcbe 9f2c 783b c7ad 73bd
00000140: a93d 993a c7b7 9cbd c902 22be 5cbb 0bbd
00000150: 9123 e33d f973 06be 75ac 80bd 5ed4 9dbf
00000160: eb46 24bf 33ca 4cbf 509c e6bc 3553 2e3d
00000170: 46de 0ebc 4d95 edbc 4398 80bd cc20 7dbc
00000180: 3c11 dd3c b952 563d efc5 02ba a440 14bf
00000190: c7d1 8a3c d756 82be 49f7 c5bd 082d 3ebe
000001a0: d858 33bb aa76 b5be c025 d0bc 828b d83c
000001b0: f372 2e3c dae5 343f 2b08 56bd 75e9 5fbf
000001c0: 739a 0ebe aee1 a73d 89b6 fdbb 956d c13b
000001d0: b2fd c1be bd8e 47be beae cbbd 2421 93bb
000001e0: 59c8 34bf a2e3 183c d95f f0bd df75 8b3c
000001f0: 749e 70bd 99fc b93a a898 d4bf c7a1 0b3d
00000200: 711a b2bb 7568 7eb9 b1b3 213d eafc 47bc
00000210: a040 aabd 1acd 4bbe 45e7 02bf 4b05 08bf
00000220: e583 d73b 8186 49bc 2275 04be 7c27 bf3c
00000230: c59d adbc dc18 e7bc 34de a13d 3b4b 19bf
00000240: 1ab8 aabc bc54 9bbd 7da3 febc a728 22bc
00000250: 0f95 42bc 9497 8dbe 35e0 f63b 13d8 9cbb
00000260: 30ad b13b 9fcd dc3b a00c d73a 4574 11bf
00000270: 3cc5 dabe 92f4 5d3d fc25 e23b fc5f c2bd
00000280: ae11 873b 6959 4cbf dab6 94bc de4e e2bc
00000290: d18d 37bd 387a 89bd 1729 653e 9af2 39be
000002a0: e294 b5bd 159c b1bc 3100 c8bd ea79 aabe
000002b0: 4cd1 59be 1a19 c13b 9bda 02bf 775b e13a
000002c0: ab44 a5bd 9977 fc3c fea4 86bd 127a 103f
000002d0: 1af9 a939 12b3 a5bb a018 ffbc 6f4e 1fbf
000002e0: 3a46 65be 08eb ebbe f1bd 32bf 7f1b a73d
000002f0: c63c 3ebf 21fb c3bd cc65 a43c 1bc6 013c
00000300: 75f4 2ebe 323a bfbe 5a6d 44bd d641 01bf
00000310: 9ecf efb9 d06f 873c 79d0 5dbe f793 20bd
00000320: 438e 073b ff37 023e 3655 f03c 6c35 e1bc
00000330: c0e1 b9be baa1 123c c451 84bc 17a4 2dbb
00000340: 3062 0a3d 2457 7ebc b5fb 993d 8ac2 71bc
00000350: e115 12be 8442 49be 2701 6d3c 23d2 0dbc
00000360: fd3b 05bd 9919 c2bb 5605 70bf ef9a 893b
00000370: fe0e 08bc a6d7 aabe c176 953c a350 30be
00000380: e48d e13e 1bec 113e b31c 8abe 1b97 5d3d
00000390: b156 b3bb 5cab 9cbb 812d 0f3c 5484 843d
000003a0: f380 7a39 839d cc3b 58e8 a1be da62 15be
000003b0: b4a2 a139 b4dc a33b 6a76 073d 78ad 8b3d
000003c0: b54d 1bbd 1782 733d 4369 073d 2813 69bc
000003d0: 1802 fb3b 75de 89ba 77bb 0bbf 9d52 acbd
000003e0: 4965 dfbe 526d 44bd 0c75 abbc b29b a1ba
000003f0: 0d46 753c 03af c33e 38e1 10bd 16c8 503d

7.bias f4 [128]
-0.4680144 -0.109796315 0.10995652 -0.10895418 0.0052760784 -0.45138648 -0.44883496 -0.37006217
-0.06625423 0.0022237198 -0.18671112 -0.080883294 0.570057 0.094371445 0.3036024 -0.07166266
-0.29436734 0.09289836 -0.14430611 -0.21753375 0.16436635 0.47030288 0.5796783 0.22538197
0.13113855 0.15186806 -0.1178252 0.5916922 -0.36576998 0.5600913 -0.25348872 0.38956377
0.05039783 -0.31704336 -0.47226173 -0.10028976 -0.15664966 -0.060774095 0.30986893 0.38224098
-0.012955252 -0.12835687 -0.12187536 -0.24770936 -0.21924439 0.102860495 -0.19983691 -0.2755591
-0.22907917 0.1890985 -0.14576094 0.25817093 -0.20065565 0.5608285 0.15800466 0.07340922
-0.05791755 -0.00040802584 0.19167182 -0.13192563 0.098908536 -0.16786338 0.073132195 -0.38422412
-0.00916303 -0.09910336 0.7180263 0.06301921 0.8726992 -0.15213686 0.33240175 -0.33159542
-0.36408657 0.44474694 -0.07740631 -0.2007672 -0.05286987 -0.05029744 0.11692768 0.2568804
-0.070367634 0.14794561 -0.18960513 0.1477311 -0.18319705 -0.16372435 -0.11720281 0.15865685
-0.09474591 -0.34414464 -0.1918459 0.066131815 0.39145088 -0.20142125 0.12558796 0.06465388
0.662103 -0.12582898 -0.30198184 -0.055449467 -0.014185838 -0.41051096 -0.6613658 0.15307349
-0.21668515 0.16555128 -0.18526223 0.85258746 -0.22948933 -0.1537111 -0.19204618 0.40329555
0.22755882 -0.46664536 -0.17779055 0.06028496 0.36451632 -0.40611947 0.15697172 -0.05766019
-0.55614984 0.07319414 -0.14117141 -0.021465437 -0.25377098 -0.24721812 -0.07726278 -0.1835993
00000000: 959f efbe e4dc e0bd e230 e13d 5e23 dfbd
00000010: f4e2 ac3b 211c e7be b2cd e5be ca78 bdbe
00000020: 4cb0 87bd d4bb 113b 3331 3fbe 24a6 a5bd
00000030: 41ef 113f d145 c13d c671 9b3e dfc3 92bd
00000040: 51b7 96be 7f41 be3d fbc4 13be 2bc1 5ebe
00000050: a74f 283e 8acb f03e cc65 143f 88ca 663e
00000060: 2f49 063e 4d83 1b3e 574e f1bd 2479 173f
00000070: 3446 bbbe 2562 0f3f 46c9 81be e774 c73e
00000080: f46d 4e3d 8253 a2be 4acc f1be b864 cdbd
00000090: c568 20be 42ee 78bd 24a7 9e3e 17b5 c33e
000000a0: 4442 54bc fc6f 03be ca99 f9bd 86a7 7dbe
000000b0: 9a81 60be 86a8 d23d 0ca2 4cbe 1516 8dbe
000000c0: bb93 6abe 0aa3 413e 5b42 15be fb2e 843e
000000d0: ad78 4dbe 7592 0f3f f9cb 213e 9357 963d
000000e0: f43a 6dbd 4dec d5b9 9e45 443e 8317 07be
000000f0: 8f90 ca3d 61e4 2bbe 55c6 953d 06b9 c4be
00000100: 8920 16bc b4f6 cabd 92d0 373f 3710 813d
00000110: 3769 5f3f c4c9 1bbe 9030 aa3e e0c6 a9be
00000120: 8e69 babe dfb5 e33e 3387 9ebd eb95 4dbe
00000130: 148e 58bd b004 4ebd c877 ef3d d485 833e
00000140: e81c 90bd 0e7f 173e d927 42be d246 173e
00000150: 0298 3bbe 5ba7 27be 0708 f0bd f176 223e
00000160: 250a c2bd ba33 b0be 4073 44be 1e70 873d
00000170: 406c c83e 5f41 4ebe 219a 003e 4169 843d
00000180: 957f 293f 50d9 00be 5d9d 9abe fb1e 63bd
00000190: b86b 68bc 7e2e d2be 454f 29bf 4cbf 1c3e
000001a0: b6e2 5dbe 4686 293e 62b5 3dbe 2c43 5a3f
000001b0: 40ff 6abe 7166 1dbe c1a7 44be c17c ce3e
000001c0: 2e05 693e 24ec eebe ba0e 36be 5ded 763d
000001d0: e2a1 ba3e e4ee cfbe 32bd 203e 172d 6cbd
000001e0: d65f 0ebf cfe6 953d 3d8f 10be 49d8 afbc
000001f0: 45ee 81be bf26 7dbe f33b 9ebd 7401 3cbe

9.weight f4 [128, 128]
-0.015764099 -0.097512335 -0.10160713 -0.17074075 0.005210115 0.010367152 -0.0030533436 -0.020715727
-0.10126193 0.0034181578 0.021790234 -0.035381738 -0.070035346 -0.11278916 -0.15231349 -0.15440252
-0.095061734 -0.06796178 0.028030403 -0.07525368 -0.19469917 0.00072260026 -0.17457457 0.028161952
-0.1510912 -0.15656199 -0.16455916 -0.10912433 0.023314023 -0.17587113 -0.10987215 -0.14665478
-0.014870059 -0.24558498 0.013737472 -0.20559163 0.008088403 -0.024358496 0.01261099 -0.115811706
-0.017771296 -0.030862859 -0.14588706 0.0020784577 -0.16355275 -0.052532524 -0.08104247 -0.059044678
0.031286635 -0.18447927 -0.058350775 -0.029289693 -0.03496888 -0.06430128 -0.10302556 -0.20519762
-0.0010662662 -0.037641 -0.19216245 0.0038177068 -0.00756471 -0.053073615 -0.0027911705 0.0070257853
-0.17602327 -0.0028597827 -0.20353056 0.0134471245 -0.0005023847 0.041144084 -0.095639236 -0.19310033
-0.052732095 -0.18056253 -0.21919721 -0.07055829 0.0127823325 -0.06736281 -0.16471979 -0.24785164
0.0035784843 -0.18383208 -0.20050214 0.014333013 0.14768232 -0.017468778 -0.028952934 -0.027132664
-0.115248784 -0.16562012 -0.01190605 -0.097811475 -0.15967129 -0.16439971 -0.21359703 -0.08526352
-0.2289234 -0.014402443 -0.03004156 -0.09193672 -0.11300642 -0.2086007 -0.13984329 -0.021092875
0.027897052 -0.082792245 -0.059961684 -0.0041102725 -0.0033713803 -0.030849902 0.03871836 -0.0037689116
-0.116988964 0.0023781196 -0.20066184 -5.9395566e-05 -0.10648079 -0.010159017 -0.21559794 -0.067909464
-0.10178302 -0.13433504 0.03558862 -0.21380955 -0.116260566 -0.10650104 -0.07304855 -0.0655321
0.023750024 -0.12701006 -0.17024149 0.0057628844 -0.21363701 -0.07810615 -0.008269753 -0.23822802
-0.011120559 -0.06458759 -0.021473212 -0.11655036 -0.07154396 -0.2680768 -0.09804324 -0.00013767829
-0.09891896 -0.13669097 0.08232554 0.039701715 -0.111677244 -0.0008745481 0.00031688804 -0.23139726
-0.1287184 -0.17331205 -0.040128134 -0.31411076 -0.21957214 -0.09631166 -0.034274112 -0.00047433568
-0.20035817 -0.048706837 -0.04310183 -0.18182537 -0.16440187 -0.19114317 -0.1988857 -0.0047551338
0.03372874 0.12561107 -3.6582718e-05 -0.08972276 -0.029262863 -0.10256971 0.08428089 -0.15960403
-0.02126496 -0.23610386 -0.2278421 -0.06101251 -0.099645 -0.13166952 -0.11819339 -0.032557167
-0.07939722 -0.19594106 -0.0004782664 -0.037484996 -0.11034269 -0.13446464 -0.029796673 -0.16341016
-0.05518984 -0.0043556527 -0.0625631 -0.0009029465 -0.017201848 -0.16009034 -0.054345414 -0.08491985
-0.07023089 -0.0017151769 -0.058223702 -0.23077546 -0.011156704 -0.041138913 -0.008742428 -0.008550957
-0.21495627 -0.040973756 -0.06229873 0.036147054 -0.015377536 0.045521453 -0.19254848 -0.0037722704
-0.1819939 -0.16806766 0.14522584 -0.0006053013 -0.14539917 -0.21425697 -0.13756816 -0.11155535
-0.18375795 -0.034161963 -0.07145927 -0.060930476 -0.06343612 -0.13743822 -0.003336994 -0.118848704
-0.25665933 -0.21105205 0.117266715 -0.051905528 -0.0008771737 0.08045446 0.08936913 -0.0012191993
-0.26033562 -0.049918294 -0.23206837 -0.11992844 -0.056504264 -0.14048745 -0.026233071 -0.0005735047
-0.1293542 -0.014096489 -0.12686193 -0.16477512 -0.083772354 -0.014934085 -0.051086955 -0.11672789
00000000: b623 81bc 8cb4 c7bd 6617 d0bd aad6 2ebe
00000010: 9db9 aa3b fdda 293c 9b1a 48bb 07b4 a9bc
00000020: 6a62 cfbd 2c03 603b 6f81 b23c 71ec 10bd
00000030: b16e 8fbd 01fe e6bd 11f8 1bbe b21b 1ebe
00000040: baaf c2bd 8c2f 8bbd 04a0 e53c 9a1e 9abd
00000050: 385f 47be e26c 3d3a adc3 32be e5b3 e63c
00000060: a7b7 1abe c951 20be 3282 28be 947c dfbd
00000070: 0dfd be3c 9017 34be a604 e1bd ac2c 16be
00000080: 8ca1 73bc a17a 7bbe 2213 613c 9d86 52be
00000090: 3985 043c 788b c7bc 539e 4e3c b02e edbd
000000a0: 1c95 91bc 1bd4 fcbc 6b63 15be bc36 083b
000000b0: 5f7a 27be 582c 57bd 98f9 a5bd d5d8 71bd
000000c0: 6a26 003d 22e8 3cbe 3901 6fbd f0f0 efbc
000000d0: 873b 0fbd 64b0 83bd 11ff d2bd 531f 52be
000000e0: f5c1 8bba 732d 1abd 3cc6 44be 7e32 7a3b
000000f0: 63e1 f7bb b863 59bd 12ec 36bb 8f38 e63b
00000100: 723f 34be 316b 3bbb 516a 50be 5451 5c3c
00000110: 77b2 03ba b386 283d 81de c3bd 18bc 45be
00000120: 9cfd 57bd 62e5 38be 3c75 60be dd80 90bd
00000130: fd6c 513c 83f5 89bd 4eac 28be d2cc 7dbe
00000140: 0185 6a3b 7a3e 3cbe 6f50 4dbe 04d5 6a3c
00000150: 093a 173e af1a 8fbc b42e edbc 5245 debc
00000160: 8e07 ecbd 5298 29be 9811 43bc 6251 c8bd
00000170: df80 23be 6658 28be 2eb9 5abe a49e aebd
00000180: e56a 6abe 39f8 6bbc b819 f6bc 5249 bcbd
00000190: e96f e7bd 6c9b 55be 1433 0fbe f7ca acbc
000001a0: 5c88 e43c fb8e a9bd 629a 75bd 77af 86bb
000001b0: 60f2 5cbb efb8 fcbc 2597 1e3d d8ff 76bb
000001c0: e997 efbd 3ada 1b3b 4c7a 4dbe 811f 79b8
000001d0: 9a12 dabd 0172 26bc b5c5 5cbe 1e14 8bbd
000001e0: 9e73 d0bd 208f 09be 5fc5 113d e4f0 5abe
000001f0: 051a eebd 381d dabd 7a9a 95bd b235 86bd
00000200: 698f c23c ed0e 02be c953 2ebe 94d6 bc3b
00000210: a9c3 5abe 1ef6 9fbd dc7d 07bc 0cf2 73be
00000220: 0133 36bc 8046 84bd 97e8 afbc f5b1 eebd
00000230: a485 92bd 5d41 89be e5ca c8bd bc5d 10b9
00000240: 0696 cabd b8f8 0bbe 4b9a a83d 449e 223d
00000250: 0ab7 e4bd ee41 65ba fe23 a639 67f3 6cbe
00000260: c2ce 03be b778 31be 665d 24bd 20d3 a0be
00000270: 85d7 60be 0c3f c5bd 0363 0cbd 42b0 f8b9
00000280: b12a 4dbe d280 47bd 8b8b 30bd 6e30 3abe
00000290: f758 28be 09bb 43be b1a8 4bbe f4d0 9bbb
000002a0: 2627 0a3d 30a0 003e 6570 19b8 91c0 b7bd
000002b0: acb8 efbc 1110 d2bd 769b ac3d 3d6f 23be
000002c0: da33 aebc 36c5 71be 714f 69be 41e8 79bd
000002d0: ae12 ccbd 60d4 06be 600f f2bd aa5a 05bd
000002e0: 029b a2bd c6a4 48be d4bf fab9 de89 19bd
000002f0: 59fb e1bd 19b1 09be 2718 f4bc fe54 27be
00000300: be0e 62bd ddb9 8ebb 1521 80bd b7b3 6cba
00000310: e4ea 8cbc b9ee 23be 4c99 5ebd 75ea adbd
00000320: 36d5 8fbd c9cf e0ba fa7b 6ebd 6750 6cbe
00000330: 9cca 36bc 4781 28bd 673c 0fbc 5019 0cbc
00000340: 7f1d 5cbe 19d4 27bd f42c 7fbd ef0e 143d
00000350: 10f2 7bbc b474 3a3d 6e2b 45be 3238 77bb
00000360: 9c5c 3abe ee19 2cbe 15b6 143e 15ad 1eba
00000370: 85e3 14be 2e66 5bbe abde 0cbe 2277 e4bd
00000380: 0b2b 3cbe 6aed 0bbd 3d59 92bd 3c92 79bd
00000390: ccea 81bd 9bbc 0cbe 78b1 5abb f366 f3bd
000003a0: da68 83be 071e 58be 8829 f03d e49a 54bd
000003b0: 21f2 65ba 4fc5 a43d 2a07 b73d 8acd 9fba
000003c0: b64a 85be 2077 4cbd 55a3 6dbe 0b9d f5bd
000003d0: 0471 67bd f1db 0fbe bde6 d6bc 4057 16ba
000003e0: 6d75 04be f6f4 66bc 18e8 01be cfba 28be
000003f0: d790 abbd 18ae 74bc 8e40 51bd 080f efbd

9.bias f4 [128]
-0.1068749 -0.1683148 -0.18261585 -0.21642704 -0.3012714 -0.13312542 -0.17314956 -0.3965778
0.0016064544 0.0020662367 -0.058303446 -0.2823425 -0.3883932 -0.16125731 0.16200039 -0.057830457
-0.1698038 -0.14513713 -0.20426336 -0.16570269 -0.22015847 -0.09244621 -0.29005715 -0.28111058
-0.30417952 -0.43786842 -0.13073961 0.17412281 -0.17812732 -0.17909646 -0.047801178 -0.18925405
-0.28329727 -0.13118309 -0.0782392 -0.30652636 0.007285998 -0.18466339 -0.013899854 -0.15461151
-0.20506436 -0.056486454 -0.36878788 -0.23053597 0.11546261 -0.13547808 -0.18586357 -0.23999305
-0.26570806 0.034856897 0.035305373 -0.23486339 -0.070607334 0.0055471547 -0.49549434 0.041758306
-0.075909846 0.16190645 0.01583642 -0.21948354 -0.29693758 -0.39873704 0.44035164 0.041293018
0.006322053 -0.13963409 -0.17475632 -0.016607873 -0.15832211 -0.24662615 -0.26817095 0.12235993
-0.17473057 -0.20809057 -0.4791156 0.042192236 -0.032929838 0.037570108 0.12727399 -0.1441877
-0.2221892 -0.26350585 0.27644277 -0.14710088 -0.31381926 -0.10403541 -0.14294945 -0.027074011
0.055378415 -0.11689163 -0.12871164 -0.028735204 -0.3447872 -0.17638578 -0.21722578 -0.43011293
-0.3283975 -0.17363693 -0.17692998 -0.03680892 -0.25079432 -0.23273385 0.11836365 0.37929642
-0.050530646 -0.2722954 -0.13116114 -0.017584786 -0.15707576 -0.15191185 -0.34136352 -0.16973774
-0.26956567 -0.31387654 0.6705358 0.31400093 0.05376085 -0.25600755 -0.087607056 -0.051893
-0.3381188 -0.17493035 -0.17778745 -0.15492795 -0.2421571 -0.19193704 -0.2387139 -0.17374313
00000000: 3ae1 dabd b75a 2cbe a6ff 3abe 0d9f 5dbe
00000010: 3f40 9abe 0852 08be 1e4e 31be 3f0c cbbe
00000020: aa8f d23a b369 073b 98cf 6ebd 328f 90be
00000030: 79db c6be a320 25be 6ee3 253e a1df 6cbd
00000040: 0ce1 2dbe d49e 14be 6a2a 51be f7ad 29be
00000050: 3971 61be 7054 bdbd 5f82 94be baed 8fbe
00000060: 6bbd 9bbe 4a30 e0be 9be0 05be 404d 323e
00000070: 0267 36be 1065 37be 2bcb 43bd d0cb 41be
00000080: 570c 91be dc54 06be e03b a0bd 06f1 9cbe
00000090: 62bf ee3b 6618 3dbe 37bc 63bc 7b52 1ebe
000000a0: 64fc 51be 575e 67bd c4d1 bcbe 9f11 6cbe
000000b0: a977 ec3d c4ba 0abe 0553 3ebe bdc0 75be
000000c0: e30a 88be 1bc6 0e3d 5e9c 103d 0780 70be
000000d0: 949a 90bd e8c4 b53b 6fb1 fdbe c20a 2b3d
000000e0: 9f76 9bbd ceca 253e 61bb 813c 4bc0 60be
000000f0: 3408 98be 4327 ccbe c575 e13e de22 293d
00000100: 3929 cf3b 3dfc 0ebe 52f3 32be 3c0d 88bc
00000110: 311f 22be 918b 7cbe b44d 89be d897 fa3d
00000120: 92ec 32be b215 55be a44e f5be c4d1 2c3d
00000130: 70e1 06bd 1de3 193d 1d54 023e f1a5 13be
00000140: 9185 63be 3dea 86be e889 8d3e 9da1 16be
00000150: ebac a0be 8410 d5bd 5761 12be 51ca ddbc
00000160: 7ad4 623d e164 efbd fccc 03be 1766 ebbc
00000170: f387 b0be 799e 34be 6f70 5ebe c337 dcbe
00000180: b823 a8be e1cd 31be 222d 35be f3c4 16bd
00000190: 1d68 80be c851 6ebe a468 f23d 2433 c23e
000001a0: 39f9 4ebd 4d6a 8bbe 1b4f 06be f80d 90bc
000001b0: 78d8 20be c88e 1bbe 33c7 aebe bbcf 2dbe
000001c0: 8304 8abe 6db4 a0be 3ca8 2b3f bbc4 a03e
000001d0: 5634 5c3d 6c13 83be 546b b3bd c18d 54bd
000001e0: e81d adbe f120 33be ea0d 36be 6fa5 1ebe
000001f0: 08f8 77be 258b 44be 6b71 74be b8e9 31be

11.weight f4 [128, 128]
-0.08690457 -0.013265959 -0.00013904122 -0.0010688319 -0.08402956 -0.000580133 -0.02050269 -0.4901884
-0.006456891 -0.007675366 -0.5137568 -0.039753065 -0.26775458 -5.650619e-05 -0.0020513101 -0.009393333
-8.7412765e-05 -0.0053483737 -0.007826101 -0.0747848 -0.0013059785 -0.0049877972 -0.021305038 -0.00042517987
-0.058300294 0.022060875 -0.008745072 -0.012210109 -0.0023771443 -0.00038975207 -0.13219732 -0.012653379
-0.31750986 0.0038339475 -0.010312997 -0.23603931 -0.0029809538 0.001343714 -0.09335814 -0.15856996
-0.0021250776 -0.0026412627 -0.0696837 -0.008078119 -0.04344135 -0.098778605 -0.21750754 0.013506516
0.067005135 -0.0066188043 -0.006421313 -0.00012251054 -0.000691199 -0.0036422228 0.5168843 -0.001054763
0.026293354 0.2736468 1.9956622e-05 -0.006339975 -0.008001346 0.030896327 -0.0029804355 -0.056519493
-0.0017150007 -0.39315245 -0.00037543062 -0.014289206 -0.08130433 -0.020120835 0.031314038 -0.00297773
-2.8083703e-05 0.030438846 -0.0030979896 -0.0033978778 -0.00020694252 -0.0057093445 -0.006266746 -0.0005811432
0.0017884193 -0.0008839274 0.0017285496 -0.00027920378 -0.09263956 0.042821754 -0.048796464 -0.12438939
0.2240822 0.001749398 -0.087657236 0.00021841208 -0.21660896 -0.035418704 -0.0052445717 -0.0024236594
-0.4417209 -0.00017506733 0.008556075 0.5012232 0.035813846 -0.16097295 0.00086708856 8.396298e-05
-1.623528e-05 0.00088346825 -0.1505908 0.52225196 -9.465207e-05 0.06409853 -0.008892107 -0.1680037
-0.0059038806 -0.0015891783 -0.0010708027 0.00059164193 -0.0037255408 -0.085234605 0.072495386 -0.009190709
0.26505125 -0.03233095 -0.11273316 -0.00050002395 -0.018186364 -0.02940307 -0.03598704 -0.058601636
-0.10783203 -4.5226578e-05 0.025831798 -0.22087716 -0.017553514 -1.0060027e-05 -0.056631483 -0.16038747
-0.00012475667 0.005944051 0.0012019346 -0.5876256 -0.5506199 -0.045608357 -0.00187384 -0.001709398
-0.036763147 -0.00029052928 -0.001072953 -0.039336734 -0.005448775 0.50730914 -0.005893491 -0.10766355
-0.013935749 -0.29747325 -0.0013004655 -0.008815559 -0.0042620073 -0.028837036 -0.004385897 -3.076413e-05
-0.00041909266 0.020638635 -0.0015974246 -0.0038214107 -0.0031286576 -0.03154175 -0.024526471 -0.07111566
-0.040587448 -0.13544603 6.562696e-05 -0.0023508104 -0.015655203 -0.0032996363 -0.17506415 -0.018125907
0.12603468 0.004639956 -0.001303016 -5.198332e-05 -0.0005361553 -0.009639925 -0.0045103184 0.0059287813
-0.20880426 -0.018640028 0.52621484 0.0042820796 -0.00058852596 -0.02541777 -0.0063925474 -0.0016869076
-1.0265595 -0.02723789 0.0017171408 -0.043198813 -0.085290216 -0.0024271954 -0.01731165 -0.00485015
0.011290214 0.16810186 -0.004243493 -0.0038477837 -0.0020769802 0.00019998202 -0.00044457256 0.004394452
-0.16222765 -0.00075021386 0.0028583633 -4.0111568e-06 -0.071824975 -0.017526146 -0.042410247 -0.20695545
-0.01765582 0.00011245282 -0.19408806 -0.0013806975 0.24833523 -0.08070447 0.004258132 -0.0027178507
0.07444751 0.13645555 -0.42883667 -0.06401065 0.0632579 -0.00030497822 0.00012034221 -0.0043054833
-0.0071555288 0.0099776955 -0.0022888812 -0.044331443 -0.005920868 -0.021079084 0.0035148156 0.051159225
-0.0042956565 -0.18938456 -0.005468974 -6.593202e-05 -0.0003686843 -0.012533082 -0.12172952 -0.0003389923
-0.009023367 -0.00032635708 0.042529613 -0.0052445726 -0.000926779 -0.18112841 -0.034859266 0.0029879427
00000000: 06fb b1bd 7759 59bc 98cb 11b9 0c18 8cba
00000010: b117 acbd 1114 18ba 42f5 a7bc f9f9 fabe
00000020: 5494 d3bb a381 fbbb 9185 03bf 1cd4 22bd
00000030: 2117 89be 0f01 6db8 466f 06bb 7fe6 19bc
00000040: 5f51 b7b8 6941 afbb 0c39 00bc c628 99bd
00000050: 5e2d abba ad70 a3bb e787 aebc adea deb9
00000060: 4acc 6ebd 02b9 b43c 7e47 0fbc e90c 48bc
00000070: ddc9 1bbb a357 ccb9 bc5e 07be 1e50 4fbc
00000080: a790 a2be f742 7b3b d8f7 28bc 4ab4 71be
00000090: 1b5c 43bb 8f1f b03a 8d32 bfbd 2a60 22be
000000a0: e344 0bbb 0919 2dbb 54b6 8ebd 165a 04bc
000000b0: 8fef 31bd 704c cabd 4cba 5ebe 6f4a 5d3c
000000c0: fd39 893d 8ee2 d8bb e169 d2bb 2c76 00b9
000000d0: 9431 35ba 5cb2 6ebb 8852 043f f93f 8aba
000000e0: 2965 d73c 6f1b 8c3e 8568 a737 91bf cfbb
000000f0: 1418 03bc 4b1a fd3c 6953 43bb fc80 67bd
00000100: e0c9 e0ba 474b c9be 72d5 c4b9 461d 6abc
00000110: e282 a6bd 73d4 a4bc 2643 003d 0526 43bb
00000120: 4b95 ebb7 e35a f93c a407 4bbb eeae 5ebb
00000130: b6fe 58b9 7415 bbbb 4759 cdbb dc57 18ba
00000140: 6569 ea3a 5db7 67ba 8090 e23a 1962 92b9
00000150: cfb9 bdbd dd65 2f3d cdde 47bd ddbf febd
00000160: ce75 653e 0e4c e53a a385 b3bd 8c05 6539
00000170: bdce 5dbe 3413 11bd a8da abbb 42d6 1ebb
00000180: 3e29 e2be 4792 37b9 c82e 0c3c 2a50 003f
00000190: 8ab1 123d 18d6 24be 544d 633a 4815 b038
000001a0: 0031 88b7 8d98 673a 7a34 1abe 4eb2 053f
000001b0: f17f c6b8 1746 833d 33b0 11bc 2909 2cbe
000001c0: 5775 c1bb fa4b d0ba 2d5a 8cba 6b18 1b3a
000001d0: 3428 74bb 7b8f aebd 7678 943d a194 16bc
000001e0: ccb4 873e 756d 04bd a5e0 e6bd 0a14 03ba
000001f0: 92fb 94bc b5de f0bc 2567 13bd 4508 70bd
00000200: 0ad7 dcbd abb1 3db8 359d d33c 9f2d 62be
00000210: 63cc 8fbc 7dc7 28b7 6af6 67bd 9d3c 24be
00000220: 1dd1 02b9 50c6 c23b 3c8a 9d3a a26e 16bf
00000230: 6df5 0cbf d4cf 3abd a39b f5ba e10d e0ba
00000240: f494 16bd 2e52 98b9 54a2 8cba 8e1f 21bd
00000250: a38b b2bb 03df 013f 301e c1bb b57e dcbd
00000260: c552 64bc 6a4e 98be 6274 aaba 226f 10bc
00000270: 4fa8 8bbb a63b ecbc 92b7 8fbb bc08 01b8
00000280: aab9 dbb9 5b12 a93c ad60 d1ba a270 7abb
00000290: 2a0a 4dbb ec31 01bd bdeb c8bc 16a5 91bd
000002a0: 063f 26bd 5db2 0abe 35a1 8938 0e10 1abb
000002b0: 573f 80bc b63e 58bb 0444 33be c87c 94bc
000002c0: 3c0f 013e c60a 983b f6c9 aaba aa08 5ab8
000002d0: c68c 0cba c7f0 1dbc 4bcb 93bb 3946 c23b
000002e0: c9d0 55be f9b2 98bc 04b6 063f b050 8c3b
000002f0: 4f47 1aba ed38 d0bc 9378 d1bb 3a1b ddba
00000300: 4d66 83bf ff21 dfbc af11 e13a 3df1 30bd
00000310: a3ac aebd 9511 1fbb 29d1 8dbc 02ee 9ebb
00000320: 97fa 383c e522 2c3e 000d 8bbb 192b 7cbb
00000330: f21d 08bb 44b2 5139 8515 e9b9 56ff 8f3b
00000340: 011f 26be 00aa 44ba 6153 3b3b 9397 86b6
00000350: f918 93bd fe92 8fbc 5eb6 2dbd 21ec 53be
00000360: f0a2 90bc a6d4 eb38 05bf 46be 85f8 b4ba
00000370: 974b 7e3e 6348 a5bd cd87 8b3b f81d 32bb
00000380: f077 983d 01bb 0b3e 7b90 dbbe 0418 83bd
00000390: 5c8d 813d 7ce5 9fb9 3b60 fc38 0315 8dbb
000003a0: ed78 eabb 7d79 233c 0e01 16bb e394 35bd
000003b0: d703 c2bb 0bae acbc d258 663b 568c 513d
000003c0: 94c2 8cbb 07ee 41be 1435 b3bb fc44 8ab8
000003d0: f84b c1b9 8e57 4dbc 544d f9bd c7ba b1b9
000003e0: bfd6 13bc e81a abb9 8833 2e3d aada abbb
000003f0: 16f3 72ba ba79 39be 97c8 0ebd 5cd1 433b

11.bias f4 [128]
-0.17551768 -0.04881905 -0.39351854 -0.14902002 -0.107314266 -0.014233517 -0.10592764 -0.019243388
-0.3709569 -0.28277302 -0.2265143 -0.32496622 -0.09267483 -0.029779274 -0.13566145 -0.24505815
0.34124154 -0.26462653 -0.34375405 -0.12892519 -0.17684682 -0.10940252 -0.12643114 -0.13538712
-0.16370896 -0.21304625 -0.09354864 -0.002357041 -0.29678032 -0.032283682 -0.13522732 -0.03420415
-0.16981718 -0.20508444 -0.0975236 -0.14114259 -0.117416255 -0.13011009 -0.28137404 -0.09769176
-0.055097688 -0.26468596 -0.13981356 -0.13659997 -0.31853464 -0.09564078 -0.04591963 -0.06734832
-0.08360012 -0.100220785 -0.1338386 -0.36317712 -0.027245188 -0.14096338 -0.04272403 -0.03403774
-0.17788453 -0.0016281947 -0.11351737 -0.07758618 -0.1777806 -0.32841247 -0.022108143 0.13421021
-0.24272329 -0.07076 -0.17694889 -0.1312593 -0.018620579 -0.21582769 -0.043526933 -0.11458896
-0.16238461 -0.1369845 -0.27180424 -0.2981552 -0.16485277 -0.29105866 -0.16601254 -0.1833859
-0.16783728 -0.049291484 -0.37616393 -0.1649874 -0.22324641 -0.024404887 -0.22535655 -0.13646914
-0.10041202 -0.10597291 0.04545538 -0.09076871 -0.16687725 -0.21292497 -0.07540476 -0.02908211
-0.28373483 -0.23083982 -0.2346678 -0.15106758 -0.04105357 -0.00041911344 -0.21968204 -0.18918501
-0.16108766 -0.027100824 -0.272364 -0.27592543 -0.01227942 -0.10691192 -0.20735319 -0.014516425
-0.05350216 -0.027230524 -0.101397276 -0.078866564 -0.07576077 -0.16928005 -0.108301096 -0.13170752
-0.2447915 -0.19885562 -0.06357006 -0.13361375 0.3122153 0.27230284 -0.060648613 -0.042561993
00000000: e8ba 33be 7cf6 47bd 437b c9be b498 18be
00000010: 95c7 dbbd b333 69bc 97f0 d8bd 4fa4 9dbc
00000020: 10ee bdbe a0c7 90be 5df3 67be f961 a6be
00000030: 4dcc bdbd aaf3 f3bc d6ea 0abe 86f0 7abe
00000040: 36b7 ae3e 217d 87be 8800 b0be f704 04be
00000050: 5517 35be 6e0e e0bd 2a77 01be eca2 0abe
00000060: 52a3 27be cc28 5abe 6e96 bfbd 9678 1abb
00000070: 97f3 97be e53b 04bd 0879 0abe a719 0cbd
00000080: 8ee4 2dbe a801 52be 74ba c7bd af87 10be
00000090: ef77 f0bd 943b 05be 4210 90be 9e12 c8bd
000000a0: 1dae 61bd eb84 87be 492b 0fbe dde0 0bbe
000000b0: f916 a3be 50df c3bd 3916 3cbd eaed 89bd
000000c0: 8a36 abbd 8e40 cdbd fc0c 09be 5af2 b9be
000000d0: 4d31 dfbc b458 10be 64ff 2ebd 286b 0bbd
000000e0: 5d27 36be 2669 d5ba cb7b e8bd 81e5 9ebd
000000f0: 1e0c 36be ae25 a8be 231c b5bc 676e 093e
00000100: 748c 78be 9eea 90bd 1732 35be d768 06be
00000110: 2f8a 98bc ef01 5dbe 4c49 32bd 9ead eabd
00000120: 2748 26be aa45 0cbe ed29 8bbe cca7 98be
00000130: 2acf 28be a405 95be 31ff 29be 83c9 3bbe
00000140: 89dd 2bbe dee5 49bd 8f98 c0be 75f2 28be
00000150: b59a 64be c2ec c7bc dec3 66be 91be 0bbe
00000160: d1a4 cdbd 5308 d9bd 6c2f 3a3d f2e4 b9bd
00000170: dfe1 2abe 0109 5abe d06d 9abd 9b3d eebc
00000180: b145 91be 4661 6cbe c14c 70be 76b1 1abe
00000190: ca27 28bd 74bc dbb9 54f4 60be b7b9 41be
000001a0: 2af4 24be 8c02 debc 4b73 8bbe 1946 8dbe
000001b0: 9f2f 49bc a3f4 dabd 6554 54be 4dd6 6dbc
000001c0: 1525 5bbd 8c12 dfbc 60a9 cfbd cb84 a1bd
000001d0: 7628 9bbd c057 2dbe f7cc ddbd 56de 06be
000001e0: 9faa 7abe cfa0 4bbe 0531 82bd 0bd2 08be
000001f0: afda 9f3e 476b 8b3e ae6a 78bd 7c55 2ebd
