project_networks/test.onnx (onnx, 474869 bytes, 16 tensors)

0.weight f4 [4, 1, 4, 4]
0	0xbe5b75d6	-0.2143167
1	0x3d4a1318	0.049334615
2	0xbe98b8b0	-0.29828405
3	0xbcb2c417	-0.021822019
4	0xbe3d3938	-0.18478858
5	0xbe85cec8	-0.26134324
6	0xbe5d7358	-0.21626031
7	0xbdecabfe	-0.115562424
8	0xbd71a2fd	-0.05899333
9	0x3dddd589	0.10831744
10	0x3e4d2c5b	0.20036452
11	0x3ea98bf2	0.33114582
12	0x3e3d58aa	0.18490854
13	0xbc6863ea	-0.014183978
14	0x3e2481ab	0.1606509
15	0x3c3ea73d	0.011636552
16	0xbc7e4b4a	-0.01552088
17	0xbe74e047	-0.2391368
18	0xbe7eb185	-0.24872406
19	0xbdf8014d	-0.12109623
20	0xbda1ab21	-0.078939684
21	0x3c3f24f7	0.011666528
22	0xbe90bb78	-0.28268027
23	0xbe18c20e	-0.14917776
24	0x3e113e89	0.14184012
25	0xbdefc65c	-0.11707756
26	0x3cf6833f	0.03009188
27	0xbe639df3	-0.22228222
28	0xbda72d0d	-0.0816289
29	0x3d57280b	0.052528422
30	0xbe043fde	-0.12914988
31	0xbe9a486d	-0.3013338
32	0xbe8934e8	-0.26798177
33	0xbe85e321	-0.26149848
34	0xbe67be98	-0.226313
35	0x3de821b6	0.11334555
36	0xbcf5a0b1	-0.02998385
37	0xbe6c826a	-0.23096624
38	0xbe08c084	-0.13354689
39	0xbd7239c3	-0.059137117
40	0xbdfb41db	-0.1226842
41	0xbcb036b7	-0.021510465
42	0x3e35c1a7	0.17749654
43	0x3e9c8485	0.30569854
44	0x3e3dc90e	0.18533728
45	0x3eb5dd66	0.35520476
46	0x3e9562f0	0.29177046
47	0x3e55e821	0.20889331
48	0x3e03be14	0.12865478
49	0x3e43d69b	0.19124834
50	0x3e99f3a2	0.3006869
51	0x3d3de1c3	0.04635788
52	0x3e8f12d6	0.27944058
53	0x3d4d89ba	0.050180174
54	0x3dd79601	0.10526658
55	0x3da1253d	0.07868431
56	0x3e8d0342	0.27541548
57	0x3e81bec3	0.25340852
58	0x3dbbee98	0.091763675
59	0x3e3f4ac1	0.1868086
60	0xbd3a8299	-0.045534704
61	0x3da95d04	0.082696944
62	0x3d579634	0.05263348
63	0x3e3b8271	0.18311478

0.bias f4 [4]
0	0x3d3ae8e6	0.045632266
1	0x3bcb2303	0.006199242
2	0x3e0a6d9d	0.13518377
3	0x3e922665	0.28544918

2.weight f4 [8, 4, 4, 4]
0	0x3d9b4249	0.07581002
1	0xbd316a80	-0.043314457
2	0xbdb5f203	-0.08884051
3	0x3c905624	0.0176192
4	0x3e4f9117	0.20270191
5	0xbda9d100	-0.08291817
6	0xbd7f364e	-0.06230765
7	0xbdfa06af	-0.12208306
8	0xbe955277	-0.29164478
9	0x3d10fb6b	0.03539602
10	0x3d59a53c	0.053136095
11	0x3e18f5d9	0.14937533
12	0x3e2233c8	0.15840065
13	0x3e43c1bf	0.19116877
14	0x3e6fd296	0.23420176
15	0x3e2fc7fe	0.17166135
16	0x3d8f97fb	0.0701141
17	0x3d9a0832	0.075210944
18	0xbe0492da	-0.12946644
19	0xbd257cb3	-0.040402126
20	0xbdaa430a	-0.08313568
21	0x3da5f346	0.08103041
22	0x3dd66331	0.10468138
23	0xbcea19fc	-0.028576843
24	0xbcf6fb00	-0.030148983
25	0x3c8d6e14	0.017264403
26	0xbdc9f6d3	-0.09861531
27	0xbda3d3bd	-0.0799937
28	0xbdffe3d9	-0.1249463
29	0xbe0e6c95	-0.13908608
30	0xbc13d7a8	-0.009023584
31	0x3e11bdf2	0.14232615
32	0x3d73b537	0.05949899
33	0x3d952570	0.07282531
34	0x3e42bdb8	0.19017684
35	0x3dc0ff54	0.094237
36	0x3e47b04d	0.19500847
37	0x3d11b853	0.035576176
38	0xbe446c76	-0.19182
39	0xbe015dd5	-0.1263345
40	0xbdba4f4a	-0.090971544
41	0xbe5f3cda	-0.21800557
42	0x3dc6e972	0.09712495
43	0x3def5597	0.11686247
44	0x3e6f9b2b	0.23399036
45	0x3e9ceda4	0.30650055
46	0x3db9b770	0.09068191
47	0xbd582334	-0.052767947
48	0xbd9daf22	-0.076994196
49	0x3da5295f	0.080645315
50	0xbe00e9f4	-0.12589246
51	0xbdc53431	-0.09629095
52	0x3df81f65	0.12115363
53	0x3e100baf	0.14066957
54	0x3e3e0158	0.185552
55	0x3e111d7f	0.14171408
56	0xbe543da1	-0.20726635
57	0xbe216f85	-0.15765198
58	0x3d3887af	0.045051273
59	0xbd9d7395	-0.07688061
60	0x3c88c1db	0.016694
61	0xbe7c9038	-0.2466439
62	0xbde2d9bd	-0.110766865
63	0xbde80e64	-0.1133087
64	0x3d81cafe	0.06337546
65	0x3e48fe28	0.19628203
66	0xbe0bb2fc	-0.13642496
67	0x3da129dc	0.07869312
68	0xbe168070	-0.14697433
69	0xbd899662	-0.06718136
70	0xbd88618d	-0.06659231
71	0xbe2cbe27	-0.16869412
72	0x3bf61dab	0.007510861
73	0x3e9b3d91	0.3032041
74	0x3e60ed98	0.21965635
75	0x3ce164be	0.027513858
76	0x3e39f51e	0.18159911
77	0x3e07d229	0.13263763
78	0xbd4d3c6b	-0.050106447
79	0xbda1ddcb	-0.07903632
80	0xbcd5c156	-0.026093166
81	0x3d02385d	0.031792033
82	0xbdd7bd2d	-0.10534129
83	0x3e52ddf9	0.20592488
84	0xbe38b2e9	-0.18036999
85	0xbe041119	-0.12897147
86	0xbe047e9c	-0.12938923
87	0xbdd26c6c	-0.10274586
88	0xbd843915	-0.064562
89	0xbb9b6285	-0.004741969
90	0x3df10026	0.117676064
91	0xbd68b413	-0.056812357
92	0xbd31a377	-0.043368783
93	0x3dac1e61	0.08404232
94	0x3e156d04	0.14592367
95	0x3dc5818a	0.09643848
96	0x3e556e7e	0.2084293
97	0x3bbd0e1e	0.005769505
98	0xbd66d4ce	-0.05635529
99	0xbe57477d	-0.21023364
100	0xbd9ba121	-0.07599092
101	0xbe68ed0e	-0.22746679
102	0xbe147399	-0.14497222
103	0xbd8a78fe	-0.06761359
104	0x3dbc696c	0.09199795
105	0x3e81a9f0	0.25324965
106	0x3e1a2790	0.15054154
107	0x3e1c8779	0.15286054
108	0x3dd1c139	0.102419324
109	0xbd9a04d3	-0.075204514
110	0x3cd85497	0.026407523
111	0xbd5907e5	-0.052986044
112	0x3de4302f	0.11142003
113	0x3c1ecf2c	0.009692948
114	0x3dccba41	0.099964626
115	0xbd162676	-0.036657773
116	0x3ce55dc4	0.027998812
117	0xbd0a43b0	-0.033755958
118	0xbdca5693	-0.09879794
119	0x3cb8fc3f	0.022581218
120	0xbe44eb1e	-0.19230315
121	0xbe77095d	-0.24124666
122	0xbe3d2379	-0.18470563
123	0x3db67dc6	0.08910708
124	0xbdef334d	-0.11679707
125	0x3cecf085	0.028923282
126	0x3db74090	0.08947861
127	0x3da719c9	0.08159215
128	0xbe6162a0	-0.22010279
129	0xbdfeba7e	-0.12437914
130	0xbe1f8e6c	-0.15581673
131	0xbd10287d	-0.035194863
132	0x3de3ef52	0.11129631
133	0xbe52deec	-0.2059285
134	0xbdb1b184	-0.086764365
135	0x3c064d7d	0.008197186
136	0xbe10def9	-0.14147557
137	0xbdfef610	-0.124492764
138	0xbd689943	-0.056786787
139	0xbe121020	-0.14263964
140	0x3cfcf65b	0.03087919
141	0x3c11abea	0.008891085
142	0x3c9e5af9	0.019330489
143	0x3d204c65	0.039135356
144	0x3d59446b	0.053043764
145	0x3ddadcbf	0.10686635
146	0x3e28136b	0.16413657
147	0xbdcff718	-0.10154551
148	0x3e068285	0.13135727
149	0xbdfcc283	-0.12341788
150	0xbddc2cd5	-0.107507385
151	0xbd00bae4	-0.031428233
152	0xbdd2d4f1	-0.102945216
153	0x3dcf114e	0.101107225
154	0xbe066ddf	-0.1312785
155	0xbd9e98b1	-0.07743967
156	0x3e3b227b	0.18274872
157	0xbca35b43	-0.019940978
158	0x3df6bc1c	0.12047598
159	0xbdb8c3ed	-0.09021745
160	0x3df79b3b	0.12090155
161	0xbdfa453b	-0.12220236
162	0x3dcd88a9	0.100358315
163	0x3c9e8057	0.019348307
164	0xbdd8dd60	-0.10589099
165	0xbd8bf379	-0.06833548
166	0x3db15fd7	0.08660858
167	0xbe1b4dab	-0.15166347
168	0xbdcbe151	-0.09955085
169	0xbe4aff4b	-0.19823949
170	0x3d74db3f	0.059779402
171	0x3db95836	0.09050028
172	0xbe7715fb	-0.24129479
173	0xbe89472e	-0.26812118
174	0xbe2ff6c3	-0.17183976
175	0xba0affe5	-0.00053024135
176	0x3e2c6131	0.1683395
177	0xbc95c301	-0.018281462
178	0x3c15a5f4	0.009133805
179	0x3deb2ec8	0.11483532
180	0x3dda4bcc	0.10658988
181	0x3d457d21	0.048215035
182	0xbdb35af9	-0.08757586
183	0x3da4a032	0.08038367
184	0x3df289d8	0.11842698
185	0xbc29fec2	-0.01037568
186	0xbdcfd9f7	-0.10148995
187	0x3da764ca	0.08173521
188	0x3da04c56	0.0782706
189	0xbe3cb8de	-0.18429896
190	0x3db73ed8	0.08947533
191	0x3e3edc27	0.18638669
192	0x3af11ba1	0.0018395075
193	0x3d1d7e51	0.038450543
194	0xbe238576	-0.1596888
195	0xbc46ac72	-0.012126075
196	0xbe089821	-0.13339283
197	0xbbdc7312	-0.0067275846
198	0x3c1246a6	0.008927977
199	0xbe669997	-0.22519527
200	0x3da21677	0.07914441
201	0x3d259f2a	0.040434994
202	0xbc4e31bd	-0.012585101
203	0x3db78d38	0.08962482
204	0x3dd2de68	0.10296327
205	0xbd3429b7	-0.043985095
206	0xbd6bd058	-0.05757174
207	0xbd833439	-0.06406445
208	0x3dd09587	0.1018477
209	0x3d8bc586	0.06824784
210	0x3cb55f75	0.022140244
211	0xbe55ae10	-0.20867181
212	0xbdf091e7	-0.11746579
213	0x3cfd0619	0.030886697
214	0xbded559e	-0.11588596
215	0xbd281a4c	-0.041040704
216	0x3d8cd084	0.06875709
217	0xbdf4ac1e	-0.11946891
218	0xbe040cfa	-0.12895575
219	0xbd7eab93	-0.062175345
220	0x3d7f64b8	0.062351912
221	0xbe3ef707	-0.18648921
222	0x3ddef990	0.10887444
223	0x3d857a0f	0.065174215
224	0x3d6f7466	0.058460616
225	0xbaf4e63a	-0.0018684336
226	0x3dca8a33	0.09889641
227	0x3cf0f921	0.029415669
228	0xbe3e40ef	-0.18579458
229	0x3e344634	0.17604905
230	0xbd8dca30	-0.0692333
231	0x3dcfccbc	0.10146472
232	0xbe08fc65	-0.13377531
233	0x3d34d654	0.04414971
234	0x3d900b6d	0.07033429
235	0xbde84756	-0.11341731
236	0x3e24a29e	0.16077659
237	0x3d04cdaf	0.032422718
238	0xbe3c0cd4	-0.18364269
239	0xbe1f38db	-0.15549032
240	0xbd0de4c6	-0.034642003
241	0xbcab90d8	-0.02094309
242	0x3bc2fc81	0.005950511
243	0xbc984a45	-0.018590102
244	0x3d5aa7bb	0.053382616
245	0xbd8928f9	-0.06697268
246	0x3e3fa3da	0.18714848
247	0x3d7ebe42	0.062193163
248	0x3dd44c1b	0.103660785
249	0xbdba7356	-0.0910403
250	0x3e38fe03	0.18065648
251	0x3e5ce6ec	0.21572465
252	0xbc3f37c0	-0.011671007
253	0x3e13145d	0.14363237
254	0x3dfa582e	0.1222385
255	0xbdbd9399	-0.09256668

2.bias f4 [8]
0	0xbc4aa742	-0.012368979
1	0xbbae0944	-0.005311163
2	0xbc93affd	-0.018028254
3	0x3d25c499	0.040470693
4	0x3d061233	0.0327322
5	0x3d2eacc0	0.042645216
6	0xbbe48c2b	-0.006974717
7	0x3c724468	0.014786817

5.weight f4 [128, 392]
0	0xbde87829	-0.11351044
1	0xbd34d583	-0.044148933
2	0xb8de0bfd	-0.00010588018
3	0xbd6dfae5	-0.0581006
4	0xbd20fa2d	-0.039301086
5	0x3da327cf	0.07966577
6	0x3d80f654	0.06296983
7	0xbe12c48b	-0.14332788
8	0xbe11810a	-0.14209381
9	0x3c05ebb9	0.008173876
10	0x3d3fc457	0.046818104
11	0x3d560ba2	0.052257188
12	0xbc80ba04	-0.0157137
13	0x3d636d1c	0.055523977
14	0x3d61f72e	0.05516737
15	0xbd91a531	-0.07111586
16	0xbd8355b6	-0.064128324
17	0x3dfaeea3	0.122525476
18	0x3d71e9bf	0.05906081
19	0xbd1d1edc	-0.038359508
20	0xbd043b9e	-0.032283418
21	0x3bff1932	0.007784986
22	0x3d934d79	0.07192511
23	0x3c80d3ac	0.015725933
24	0xbca3eab1	-0.02000937
25	0x3ddbaf3a	0.10726781
26	0x3d2ede71	0.042692605
27	0x3e0fdace	0.14048311
28	0xbdc41775	-0.095747866
29	0x3d26420f	0.040590342
30	0x3cabf367	0.020990087
31	0x3daa5c0f	0.0831834
32	0xbdedd616	-0.11613099
33	0xbcd13455	-0.02553765
34	0x3e0bba78	0.13645351
35	0xbdc70d1d	-0.09719298
36	0xbd607c5e	-0.054806106
37	0xbbf1de81	-0.007381261
38	0x3c4ae0a3	0.012382659
39	0x3d4479cf	0.04796773
40	0xbdc5a4cf	-0.09650575
41	0xbdcd9ab3	-0.10039272
42	0xbd82b2c1	-0.06381751
43	0xbd974278	-0.07385725
44	0xbd6f0624	-0.058355466
45	0x3db374b1	0.087624915
46	0xbd5c3239	-0.053758834
47	0x3d890a72	0.066914454
48	0x3d90f3c9	0.07077748
49	0x3dbc7c24	0.092033654
50	0xbdff30a4	-0.12460449
51	0xbe0ebe8b	-0.13939874
52	0x3d9bd056	0.07608096
53	0xbd85148c	-0.0649806
54	0xbcfdcb17	-0.03098063
55	0x3de7b8c2	0.11314537
56	0x3d813b82	0.06310178
57	0xbdb41077	-0.08792203
58	0x3d9a7381	0.07541562
59	0xbd4388c3	-0.047737848
60	0xbd17d728	-0.037070423
61	0xbc0540fe	-0.008133171
62	0x3ddccac5	0.10780863
63	0xbd05ac26	-0.032634877
64	0x3dc5ec46	0.09664206
65	0xbd910cee	-0.07082544
66	0xbda3bb25	-0.07994679
67	0xbe0389f1	-0.12845589
68	0x3d9fc57d	0.0780134
69	0x3e46eaeb	0.19425552
70	0xbd41cee8	-0.04731646
71	0xbc487489	-0.012234815
72	0xbd95ec2a	-0.07320435
73	0x3d174713	0.036933016
74	0xbdd479b6	-0.10374777
75	0xbe227bf9	-0.15867604
76	0x3d79f785	0.06102707
77	0xbdd11341	-0.102087505
78	0xbd0acf6e	-0.033889227
79	0x3e275fd7	0.16345154
80	0x3de97354	0.1139895
81	0xbe133eee	-0.14379475
82	0xbdffc98c	-0.12489614
83	0x3d968cf1	0.07351101
84	0xbd881dd3	-0.066463135
85	0xbddf6b27	-0.109091096
86	0x3cd5dc9d	0.026106173
87	0xbc7667ae	-0.015039368
88	0xbdb8cefc	-0.09023854
89	0xbd9df248	-0.07712227
90	0xbe7440d7	-0.2385286
91	0x3d84c236	0.06482355
92	0xbdf043ce	-0.11731683
93	0xbd2a8153	-0.04162724
94	0x3ba97662	0.005171583
95	0xbd70e126	-0.05880847
96	0x3cd889de	0.026432928
97	0x3cbbb7c2	0.022914771
98	0x3d4423b9	0.04788563
99	0x3b0b3570	0.0021241568
100	0x3db70930	0.08937299
101	0x3d86eb7f	0.06587886
102	0x3d584898	0.052803606
103	0x3cf2ca60	0.029637516
104	0xbde0edd0	-0.10982859
105	0xbd841b36	-0.064505026
106	0x3d9389d8	0.07204026
107	0xbde53608	-0.11191946
108	0x3de7c255	0.11316363
109	0x3d811b44	0.06304029
110	0xbc79cdd4	-0.015246827
111	0xbcf03d15	-0.029326001
112	0x3d03cda0	0.03217852
113	0xbd4b1d41	-0.049588446
114	0x3c85a9b2	0.016316269
115	0x3cda4e45	0.02664865
116	0xbcb781a8	-0.022400692
117	0xbd9a03ff	-0.075202934
118	0x3d6d3902	0.057915695
119	0x3e1290fc	0.1431312
120	0x3d4844b7	0.048893657
121	0x3deba179	0.11505408
122	0xbc90afeb	-0.01766201
123	0xbd96ee1c	-0.073696345
124	0x3c2ca45a	0.010537231
125	0x3d416b1e	0.047221296
126	0xbcaa104b	-0.020759722
127	0x3d3b9608	0.045797378
128	0xbd17b318	-0.03703603
129	0xbd4dfb13	-0.05028827
130	0xbd1bedb2	-0.03806848
131	0x3ddf98d2	0.1091782
132	0xbe0d0515	-0.1377147
133	0xbd784876	-0.06061598
134	0x3c90ed99	0.01769142
135	0x3c544da7	0.012957967
136	0xbd29f42b	-0.041492622
137	0xbc825199	-0.01590805
138	0xbd2f6699	-0.042822454
139	0x3dbb0dbb	0.09133478
140	0x3cb896cf	0.022532849
141	0xbdabe43f	-0.08393144
142	0xbd40618d	-0.04696803
143	0xbba1e2b5	-0.0049403557
144	0x3db67855	0.0890967
145	0x3d982de4	0.07430628
146	0x3d99b8fe	0.075059876
147	0x3ca4fc84	0.02013994
148	0xbd16b000	-0.03678894
149	0xbd04af91	-0.032393996
150	0xbbeced3a	-0.007230428
151	0xbe057bfb	-0.13035576
152	0xbd867b1d	-0.06566451
153	0x3de9fd9f	0.114253275
154	0xbe0b21d7	-0.13587128
155	0xbe1a2097	-0.15051495
156	0x3d731927	0.05935016
157	0xbdaea96d	-0.08528409
158	0x3d355d20	0.044278264
159	0xbc620833	-0.0137959
160	0x3d5cad0f	0.05387598
161	0xbcb39ee4	-0.02192635
162	0xbd7a790c	-0.061150596
163	0x3dac4f00	0.084135056
164	0xbd939ec6	-0.07208018
165	0x3af907d9	0.0018999531
166	0xbd5aa06a	-0.05337564
167	0xbca674f8	-0.020319447
168	0x3dadb42e	0.08481632
169	0x3dbea9b9	0.09309716
170	0x3dcc3f90	0.09973061
171	0xbd9beb44	-0.07613233
172	0x3d90a5c2	0.07062866
173	0xbdf4d90c	-0.11955461
174	0xbdaa6e86	-0.08321862
175	0xbdc4b233	-0.09604301
176	0x3db78e5a	0.08962698
177	0xbd7d65dc	-0.06186472
178	0xbdb1b46e	-0.08676992
179	0xbd70a951	-0.058755223
180	0xbd996862	-0.074906126
181	0xbc3a4d96	-0.011371037
182	0xbd05170a	-0.032492675
183	0xbe16b990	-0.14719224
184	0x3ccad58e	0.024760034
185	0xbb9ca957	-0.004780929
186	0x3cc3b4ec	0.023889981
187	0x3d3414dc	0.043965206
188	0x3d868277	0.06567853
189	0x3cfa5c1a	0.030561496
190	0xbe44ed88	-0.19231236
191	0xbd016a77	-0.031595673
192	0xbd249db7	-0.04018947
193	0x3d399431	0.045307342
194	0xbd12235f	-0.035678264
195	0x3d771a9b	0.060328107
196	0xbe078a56	-0.13236365
197	0xbd480db0	-0.04884118
198	0xbd03d4a3	-0.032185208
199	0x3dbae09a	0.091248706
200	0x3dac18b7	0.084031515
201	0xbe1c19c4	-0.15244204
202	0xbd9ec365	-0.07752112
203	0x3c3f6beb	0.0116834445
204	0xbdca5a8a	-0.0988055
205	0xbd86ba93	-0.06578555
206	0xbd247eec	-0.040160105
207	0xbc15f850	-0.009153441
208	0xbdffebac	-0.12496123
209	0x3dd464ba	0.103707746
210	0xbd1398d4	-0.03603442
211	0x3d3f54b6	0.046711646
212	0x3d34cda6	0.044141434
213	0xbc3f3dc3	-0.01167244
214	0xbcef1c9e	-0.02918845
215	0xbbb27820	-0.005446449
216	0x3daca928	0.084307015
217	0xbdce5461	-0.10074688
218	0x3bbc8db2	0.005754196
219	0x3e0e3f3a	0.13891307
220	0x3e4e51f2	0.20148447
221	0x3d411955	0.0471433
222	0xbd8c977b	-0.0686483
223	0x3d837917	0.064195804
224	0xbd960841	-0.07325793
225	0xbd7fdefb	-0.06246851
226	0x3d5f6367	0.054538157
227	0x3c6943a2	0.014237316
228	0xbd08fcc3	-0.033444177
229	0x3d83a0b1	0.06427134
230	0x3d800bd5	0.06252257
231	0xbdb36a82	-0.08760549
232	0xbd89382f	-0.06700169
233	0xbc67bf44	-0.014144722
234	0xbd83ff27	-0.06445151
235	0xbe36f245	-0.17865856
236	0x3c53afe6	0.012920355
237	0xbd741355	-0.05958875
238	0xbcf6c9cc	-0.030125521
239	0x3c1959d0	0.009359792
240	0x3d82f2af	0.063939445
241	0x3dcb3cae	0.09923683
242	0x3dcec61b	0.10096379
243	0xbcbb87e9	-0.022891955
244	0x3e217257	0.15766273
245	0xbcab2b5d	-0.0208947
246	0xbe42c344	-0.190198
247	0x3cde8e12	0.027167354
248	0xbd10ab86	-0.035319827
249	0xbd75841f	-0.059940454
250	0xbd7f093f	-0.062264677
251	0xbdba7938	-0.09105152
252	0xbd7889aa	-0.06067816
253	0xbdd4a2a8	-0.10382587
254	0xbdce9f88	-0.10089022
255	0x3dcc94e3	0.099893354

5.bias f4 [128]
0	0x3c262fbb	0.010143216
1	0x3b794fea	0.0038042017
2	0x3d214d8d	0.0393806
3	0x3b70d48c	0.0036747782
4	0xbbd74acd	-0.0065701962
5	0x3c84abdb	0.016195228
6	0x3c1a5c7b	0.009421463
7	0xba92fb3e	-0.0011213792
8	0x3c485770	0.012227878
9	0xba959c70	-0.001141442
10	0xbc835846	-0.016033303
11	0x3d2bfa71	0.041986886
12	0xbc234c71	-0.0099669555
13	0x3c75ffc6	0.015014594
14	0xbca73678	-0.020411715
15	0xbca16633	-0.019702053
16	0x3d1293fd	0.035785664
17	0x3c90b34f	0.017663626
18	0x3c21ba4c	0.009871077
19	0xb9d2e148	-0.0004022217
20	0x3d2e00ae	0.042481117
21	0x3c1b04b4	0.0094615705
22	0xbc3c58af	-0.011495753
23	0x3cb765f0	0.022387475
24	0x3c3a9d07	0.011389977
25	0x3c0ff03b	0.008785303
26	0x3be625d8	0.0070235543
27	0xbcb3517b	-0.021889439
28	0xbc46b087	-0.012127048
29	0x3b39a6a7	0.0028328092
30	0x3d70e20e	0.058809333
31	0x3d0869d0	0.033304036
32	0x3c411117	0.01178386
33	0x3cc7a0d9	0.02436869
34	0x3bce18bc	0.0062895697
35	0x3b1c999b	0.0023895267
36	0x3b76892c	0.0037618382
37	0xba7b9657	-0.00095972925
38	0x3cbb2935	0.022846797
39	0xbb67091b	-0.003525323
40	0xbc3d8ffb	-0.011569972
41	0x3d0be047	0.034149434
42	0xbc83a8bf	-0.016071675
43	0xbc6e24c5	-0.014535134
44	0x3d0a42b8	0.033755034
45	0xbc9fca4c	-0.019505642
46	0xba7c93aa	-0.0009635041
47	0xba55fa35	-0.0008162589
48	0xbd252fdd	-0.04032885
49	0x3d096a0d	0.033548404
50	0x3d3fcf82	0.046828754
51	0xbc2a1991	-0.010382072
52	0x3d042988	0.03226617
53	0x3c944d67	0.018103315
54	0x37f5765b	2.926139e-05
55	0x3ca3fecf	0.020018963
56	0x3c1e4647	0.00966031
57	0xbb2870ce	-0.0025702002
58	0xbd159304	-0.03651716
59	0x3cac66af	0.021045057
60	0xbc804f97	-0.015662951
61	0xbc39e706	-0.011346584
62	0xbc6b0bfe	-0.014346121
63	0xbb1e5627	-0.0024160238
64	0xbbf0c425	-0.007347601
65	0x3c39ef96	0.011348626
66	0x3c9dc144	0.019257195
67	0xbbff0969	-0.007783104
68	0x3d006e12	0.03135497
69	0x3c3f7c20	0.011687309
70	0xbc812cd8	-0.015768453
71	0x3b52803d	0.0032119893
72	0xbceb7684	-0.028743036
73	0xbcbcfb71	-0.023069115
74	0x3d0718f4	0.03298278
75	0xbc3b2505	-0.0114224
76	0xbb7dc562	-0.0038722386
77	0x3c883cce	0.016630556
78	0x3d07f8ca	0.033196248
79	0x3c5323ec	0.012886982
80	0xbcb8b834	-0.022548772
81	0x3d1c150a	0.038106002
82	0xbcbe0e6b	-0.023200234
83	0xbb8448d4	-0.004037002
84	0x3d0b51ef	0.034013685
85	0xbba3d69d	-0.004999949
86	0xbc86973b	-0.016429534
87	0x3c5f5b88	0.013632663
88	0xbc658923	-0.014009747
89	0x3bfa8a20	0.0076458603
90	0x3ce94666	0.028475951
91	0xbc14d571	-0.0090840915
92	0x3c7f3188	0.015575774
93	0x3c1e9feb	0.009681682
94	0x3c96e44b	0.018419405
95	0xbbf45dfd	-0.0074574933
96	0x3c8f29f3	0.017476058
97	0xbbe7d9a7	-0.0070755067
98	0x3b86d8e3	0.0041152104
99	0xbcf1e9ec	-0.029530488
100	0x3c5a0d09	0.013308772
101	0xbcb33043	-0.021873599
102	0x3d12a27c	0.03579949
103	0xbba95aeb	-0.005168309
104	0xbcdeef84	-0.02721382
105	0xbc13018f	-0.00897254
106	0xbc28d27e	-0.0103040915
107	0xbbbfbb22	-0.0058511654
108	0xbc11405a	-0.00886544
109	0x3d022b05	0.031779308
110	0x3c887a90	0.016660005
111	0x3c16b9a7	0.009199536
112	0x3cafa98e	0.021443155
113	0x3cfe8e7f	0.031073807
114	0xbb64bfbf	-0.0034904329
115	0x3cb03c68	0.021513179
116	0x39f68cd7	0.0004702571
117	0x3c327ee8	0.010894515
118	0xbc6a4546	-0.014298743
119	0x3c75b8d6	0.014997682
120	0xbcb407a9	-0.021976309
121	0xbc9d8782	-0.019229654
122	0xba8cc392	-0.0010739437
123	0xbc0a2180	-0.008430839
124	0x3c93fcaf	0.018064825
125	0x3cf09bf2	0.029371236
126	0x3b2754a9	0.002553264
127	0xbbf03317	-0.007330309

7.weight f4 [128, 128]
0	0x3de02fb5	0.109465994
1	0xbe618153	-0.2202199
2	0x3c44387b	0.011976357
3	0x3d91cbdd	0.07118962
4	0xbd16e5ae	-0.036840133
5	0x3d992b40	0.074789524
6	0x3d1e03cc	0.03857784
7	0x3df6230a	0.12018402
8	0xbe575721	-0.21029331
9	0x3d3ce862	0.046120055
10	0x3d67ac14	0.05656059
11	0xbe07c237	-0.13257681
12	0x3cc61c8e	0.024183538
13	0x3d98e1ac	0.074649185
14	0x3d39802b	0.045288246
15	0x3c04450b	0.008073102
16	0xbda58116	-0.08081262
17	0x3e0297ef	0.1275327
18	0x3e2f34f0	0.17110038
19	0x3e142e54	0.14470798
20	0x3cb3c2ee	0.021943536
21	0xbc14d14a	-0.0090831015
22	0xbddc93c8	-0.107703745
23	0x3ce7ca18	0.028294608
24	0x3dde74fb	0.10862156
25	0xbdab9dcc	-0.08379707
26	0x3913948b	0.00014074349
27	0x3e474a19	0.1946186
28	0xbbacaa84	-0.0052693505
29	0x3cbd9f74	0.023147322
30	0xba32d1be	-0.0006821415
31	0xbdc3b3cc	-0.09555778
32	0xbc36d716	-0.011159679
33	0xbdffd937	-0.12492602
34	0x3de8742b	0.11350282
35	0xbe33126b	-0.17487495
36	0x3def61a9	0.11688549
37	0x3e0903a3	0.13380294
38	0xbe35a022	-0.17736867
39	0xbc9be32c	-0.019029222
40	0x3d85ab6e	0.06526838
41	0xbdd79a99	-0.10527534
42	0xbdc514b3	-0.09623089
43	0xbe11021e	-0.14160964
44	0xbc3c4b97	-0.011492631
45	0xbdd855c5	-0.10563234
46	0x3d8bedbd	0.06832454
47	0x3ccdab63	0.025106138
48	0x3ca4c784	0.020114668
49	0xbdf47475	-0.11936275
50	0x3e1b150e	0.1514475
51	0x3de0eadc	0.10982296
52	0xbdd52fa1	-0.10409475
53	0x3d625c89	0.05526403
54	0xbda7ea67	-0.081990056
55	0xbdd1d6b9	-0.10246033
56	0x3a9f49d7	0.0012152743
57	0xbd3dc765	-0.046332736
58	0xbdfb5d16	-0.12273614
59	0x3e2f9887	0.17148028
60	0x3b1cc59b	0.0023921493
61	0xbde3e714	-0.11128059
62	0xbd328199	-0.043580625
63	0x3d056de1	0.03257549
64	0x3e482036	0.19543537
65	0x3d8c552a	0.06852181
66	0xbded9de2	-0.116023794
67	0xbdcd30a0	-0.1001904
68	0xbe371505	-0.17879112
69	0x3cb3146c	0.021860324
70	0xbe1de983	-0.15421109
71	0x3cb45599	0.022013472
72	0x3d11aa70	0.035562932
73	0x3dc18bc4	0.09450486
74	0x3d9f9f75	0.07794086
75	0xbd506318	-0.050875753
76	0xbe1b8234	-0.15186387
77	0xbdf0a618	-0.1175043
78	0x3defe6ea	0.11713965
79	0x3e19095a	0.14944974
80	0x3db11c4d	0.08647976
81	0x3dc81477	0.09769528
82	0xbbc0be4c	-0.00588206
83	0xbd2740e8	-0.040833384
84	0x3e07a267	0.13245545
85	0x3d88af46	0.06674056
86	0xbdc5bc38	-0.096550405
87	0x3bc5f7f4	0.006041521
88	0x3a5d9670	0.0008452898
89	0x3d2860b0	0.041107833
90	0x3e0c11fd	0.13678737
91	0x3e4e4fe5	0.20147665
92	0x3c7c41a6	0.015396511
93	0xbc742310	-0.014900938
94	0x3d7cade1	0.06168926
95	0xbc1f4cd7	-0.00972291
96	0xbdeaa07a	-0.1145639
97	0xbe13031b	-0.14356653
98	0x3e318417	0.17335545
99	0x3e026892	0.12735203
100	0xba42fe34	-0.0007438392
101	0x3da64d12	0.08120169
102	0xbd7f3c84	-0.06231357
103	0xbdd06c8e	-0.10176955
104	0xbe2a9726	-0.16659221
105	0x3dffbdae	0.124873504
106	0xbd8f354a	-0.06992586
107	0x3d90dfb3	0.07073917
108	0xbc7e9488	-0.015538342
109	0xbd7fd1d4	-0.062455967
110	0x3dbae4ce	0.09125672
111	0x3d6e2b51	0.05814678
112	0x3d41360b	0.04717068
113	0xbbcab7ad	-0.0061864466
114	0x3df2d596	0.118571445
115	0xbd20e6a6	-0.039282463
116	0xbdb2df25	-0.08733968
117	0xbdd43975	-0.103625216
118	0xbe61a210	-0.22034478
119	0x3e1b1857	0.15146004
120	0x3cac2723	0.021014756
121	0xbd243292	-0.04008729
122	0xbd865905	-0.06559948
123	0x3d4a3100	0.049363136
124	0xbd814a6a	-0.063130215
125	0x3d17a11c	0.03701888
126	0xbc458d54	-0.012057621
127	0xbd9337cc	-0.07188377
128	0x3d731f6d	0.05935614
129	0xbcf82110	-0.030289203
130	0x3d602bb3	0.054729175
131	0x3e427dc2	0.18993285
132	0x3d76957a	0.060201146
133	0xbc361371	-0.011113034
134	0x3dcc6d3a	0.09981771
135	0xbe051706	-0.12997064
136	0xbdba163e	-0.090862736
137	0xbbe0b435	-0.00685742
138	0xbdd2fc7e	-0.10302065
139	0x3e063fc3	0.1311026
140	0x3d92d88f	0.071702115
141	0xbdc50254	-0.09619585
142	0xbd28ac09	-0.04117969
143	0xbe68850d	-0.22707005
144	0xbb2561f0	-0.0025235377
145	0xbb52d5f1	-0.0032170976
146	0x3dd85e73	0.1056489
147	0xbe2f4ada	-0.17118397
148	0xbc7920c3	-0.015205565
149	0x3d86ff6b	0.06591686
150	0xbd827ff6	-0.06372063
151	0x3d815be0	0.06316352
152	0xbd5d2ba1	-0.053996686
153	0xbd4a680b	-0.04941563
154	0xbdb8cd27	-0.09023505
155	0xbdedc1ea	-0.11609252
156	0xbe2d59d2	-0.16928795
157	0x3e0d5885	0.13803299
158	0x3e131564	0.14363629
159	0x3dfa67d9	0.122268386
160	0x3db9df21	0.090757616
161	0x3d1ec542	0.03876234
162	0xbdfa631f	-0.12225937
163	0xbdc8ec94	-0.09810749
164	0x3dcae8ed	0.09907708
165	0x3d76f261	0.060289744
166	0xbe3160e6	-0.1732212
167	0xbd56fbde	-0.052486293
168	0xbd666c5d	-0.056255687
169	0xbe161e68	-0.14660037
170	0x3d3fe562	0.046849616
171	0x3caea567	0.021319104
172	0x3dc6f471	0.09714592
173	0xbc558475	-0.0130320685
174	0xbd305363	-0.043048274
175	0xbe22fd9b	-0.15917055
176	0x3d1680ea	0.036744036
177	0x3de21101	0.110383995
178	0xbd12eeb4	-0.035872176
179	0xbe05563a	-0.13021174
180	0xbdbca7f7	-0.09211724
181	0x3d5b4db2	0.053540893
182	0xbe0fccd1	-0.14042975
183	0x3dcf9cde	0.10137342
184	0xbe6e6f83	-0.23284726
185	0x3dc6d907	0.097093634
186	0xbd2a5ddb	-0.041593414
187	0x3d04a59e	0.032384507
188	0xbda1d21f	-0.079014055
189	0x3d085ad7	0.033289757
190	0x3cdf36ae	0.027247753
191	0xbd2f049a	-0.042728998
192	0xbd9caa39	-0.07649655
193	0x3c9c4a66	0.019078445
194	0xbcdfca2c	-0.027318083
195	0xbc4e580b	-0.012594233
196	0x3ca5cfe3	0.02024073
197	0xbdc2b93d	-0.09507988
198	0x3d6ca181	0.05777121
199	0xbd856ef5	-0.06515304
200	0x3df441a0	0.119265795
201	0x3d473146	0.048630975
202	0xbdb70c65	-0.08937911
203	0x3dd93e63	0.106076024
204	0x3ddce55b	0.107859336
205	0x3cfba22c	0.030716978
206	0xbd8c1231	-0.06839407
207	0xbdcbf734	-0.0995926
208	0x3cbb3423	0.02285201
209	0xbdd19362	-0.10233189
210	0x3e1cdf84	0.1531964
211	0x3e00ca90	0.12577271
212	0xbcb0f53d	-0.021601314
213	0xbdbdd4e7	-0.092691235
214	0xbc6c53f8	-0.014424317
215	0x3bcdf9d0	0.0062858835
216	0x3c2afbb8	0.010435991
217	0x3d40e0d7	0.047089424
218	0x3d45cfca	0.048293866
219	0x3dbf542f	0.093422286
220	0x3d05deb9	0.032683108
221	0x3e201caa	0.15635934
222	0x3e44f99e	0.19235846
223	0x3d4d6deb	0.050153654
224	0xbcf24a4f	-0.029576449
225	0xbdccf172	-0.100069895
226	0x3cf65bae	0.030073013
227	0xbd35bac6	-0.044367574
228	0x3dbad5c6	0.09122805
229	0xbdd2423b	-0.10266539
230	0xbe0227d6	-0.12710509
231	0xbc08723b	-0.008328016
232	0x3cc30a4d	0.023808623
233	0xbe1da8a0	-0.15396357
234	0xbe0cbc8d	-0.13743801
235	0xbdd750ed	-0.10513482
236	0x3e23f9b7	0.16013227
237	0xbcd9b755	-0.026576677
238	0xbd2df745	-0.042472143
239	0x3c4ddd9d	0.012565044
240	0xbdafd3e8	-0.0858534
241	0x3e2fda28	0.17173064
242	0xbda55178	-0.080721796
243	0xbdf4ec40	-0.119591236
244	0x3d46c5e6	0.048528574
245	0x3cb92c8a	0.022604246
246	0xbd20352a	-0.0391132
247	0x3d10559f	0.035237905
248	0xbca0ae4b	-0.01961436
249	0xbdc28e87	-0.09499841
250	0xbe21950b	-0.15779512
251	0x3d5ffb3f	0.054682966
252	0xbe2d0921	-0.16898014
253	0xbdc9f023	-0.098602556
254	0x3e5567fc	0.20840448
255	0x3d85eceb	0.06539329

7.bias f4 [128]
0	0x3c017856	0.0079022255
1	0x3cb04141	0.02151549
2	0xbaac3c31	-0.0013140497
3	0x3b8330a7	0.0040036025
4	0x3be3b7cb	0.0069494
5	0xbc850ac3	-0.016240483
6	0xbd1d27d7	-0.038368072
7	0x3d0955f3	0.033529233
8	0xbcb46fbd	-0.022025937
9	0xbccb8f22	-0.024848524
10	0xbc7f6b2e	-0.0155895185
11	0x3c130191	0.008972541
12	0x3c0c2f16	0.008556148
13	0x3a253b64	0.00063031004
14	0x3b97489d	0.0046168105
15	0x386918c8	5.557461e-05
16	0x3cc510bf	0.024055837
17	0xbca2b803	-0.019863134
18	0x3b34d36b	0.0027591835
19	0x3d50a871	0.05094189
20	0xbca1a35a	-0.019731212
21	0x3d129f0b	0.035796206
22	0xbbc9e546	-0.0061613647
23	0x3d205135	0.039139945
24	0xbcf02d44	-0.02931846
25	0x3cb2e4e6	0.021837663
26	0x3c305e9c	0.010764744
27	0xbc7b8cb2	-0.015353369
28	0x3cb33fda	0.021881033
29	0x3c983807	0.018581403
30	0x3cc83fad	0.024444425
31	0x3c919ea6	0.017775845
32	0x3d28ede1	0.041242484
33	0x3aaabb16	0.0013025727
34	0xbc3ac3ac	-0.011399191
35	0x3c840795	0.016116897
36	0x3bd34369	0.006447245
37	0x3cb5016c	0.022095405
38	0xbc37aa37	-0.011210016
39	0x3cdd47de	0.027011808
40	0x3c19bd7e	0.009383557
41	0x3ca44827	0.020053936
42	0x3d025973	0.031823587
43	0x3b59e59e	0.0033248435
44	0x3d0319c1	0.032006983
45	0x3d075ccb	0.03304748
46	0x3c83cf20	0.016089976
47	0x3c472dbb	0.012156899
48	0x3c2d896d	0.010591847
49	0x3d4dadda	0.050214626
50	0x3bc294c5	0.005938145
51	0xbcae6590	-0.021288663
52	0xbc827f15	-0.015929738
53	0x3c794afe	0.015215633
54	0xbd5653d4	-0.05232604
55	0x3a8cc1f1	0.0010738951
56	0xbcb78410	-0.02240184
57	0x3d0e83a6	0.03479352
58	0x3d2cf762	0.04222811
59	0x3ce2de2e	0.027693834
60	0x3d0eec33	0.034893226
61	0x3b2e6a32	0.002661359
62	0xbd042164	-0.032258406
63	0xbcb7c9ea	-0.022435147
64	0x3c95995d	0.018261606
65	0xbce1e27d	-0.027573818
66	0xbc7cd7d0	-0.015432313
67	0xbd07802f	-0.03308123
68	0x3c9d30d7	0.019188328
69	0x3b13aff7	0.0022535303
70	0xbbdbfecd	-0.006713724
71	0xbd0a6d23	-0.033795487
72	0x3d0ae1c8	0.033906728
73	0xbb56d9d7	-0.0032783651
74	0xbb926294	-0.004467318
75	0xbd232eb0	-0.039839447
76	0xbcabc2a7	-0.02096684
77	0xbcd180cf	-0.025574116
78	0x3b0768fe	0.0020661945
79	0x3d3573ad	0.04429977
80	0xb9bae0bc	-0.00035644125
81	0x3a0446fe	0.0005045979
82	0xbc44d604	-0.012013916
83	0x3cc6653f	0.0242182
84	0xba033847	-0.00050056394
85	0xbb9a894f	-0.0047160755
86	0x3d149c58	0.036281914
87	0xbcb914ec	-0.022592984
88	0x3d245abd	0.040125597
89	0x3d0551a1	0.03254855
90	0x3d605fe7	0.05477896
91	0xbad2debf	-0.0016088112
92	0x3bf9b74c	0.0076207276
93	0x3d10f6d2	0.035391636
94	0x3c60bb42	0.013716521
95	0x3d43ba3b	0.047785025
96	0xbcdf961c	-0.027293257
97	0xbc43a706	-0.011941677
98	0x3d44a07a	0.048004605
99	0xbcc3f7ec	-0.02392193
100	0x3ced3afb	0.028958788
101	0xbd25eb1c	-0.04050742
102	0xbd2ca79f	-0.042152043
103	0x3c5c952c	0.0134633
104	0xbc9173ae	-0.017755356
105	0x3bf97f54	0.0076140556
106	0x3ccf4978	0.025303587
107	0xbbbaae5b	-0.0056970543
108	0xbcccc7c2	-0.024997596
109	0xbab8e642	-0.0014106708
110	0x3ce4795d	0.027889902
111	0x3c41b3ab	0.011822621
112	0xbc923cd3	-0.017851269
113	0x3d3771a2	0.044786103
114	0xbcf4c338	-0.029878244
115	0x3cf08840	0.029361844
116	0xbc53114f	-0.012882545
117	0xbc058ec0	-0.00815171
118	0xbc04b825	-0.008100544
119	0xbce4da7e	-0.027936216
120	0x3c401c1f	0.011725455
121	0x3d59784e	0.053093247
122	0x3bb8dd63	0.0056416257
123	0x3cdcd93e	0.026959058
124	0x3d258abb	0.040415507
125	0x3bc19cce	0.005908585
126	0x3cd72a66	0.026265334
127	0xbd2a4f9f	-0.04157984

9.weight f4 [128, 128]
0	0xbd05e68b	-0.032690566
1	0xbe1bf54f	-0.15230297
2	0x3e0cfb6d	0.13767786
3	0xbdcd23c6	-0.10016589
4	0x3d18bad3	0.037287544
5	0x3e03e64b	0.12880819
6	0x3dc3b8a4	0.09556702
7	0x3d450335	0.04809876
8	0x3e05253a	0.13002482
9	0x3ddff0e7	0.1093462
10	0xbb8ccc2c	-0.0042968
11	0x3d38dfec	0.045135424
12	0xbd2a5e46	-0.041593812
13	0x3d0fa9ee	0.035074167
14	0x3dd43f00	0.10363579
15	0x3db1d2db	0.086827956
16	0xbdd8d2ae	-0.10587059
17	0xbd04c7bf	-0.032417055
18	0xbe1cb35c	-0.15302795
19	0x3bc2e0d0	0.00594721
20	0x3d82729e	0.06369518
21	0xbd806d6a	-0.06270869
22	0x3d96bd9d	0.073603846
23	0xbd0decd3	-0.03464968
24	0x3e316eaf	0.17327379
25	0x3cf2d7b9	0.02964388
26	0x3e13c666	0.14431152
27	0xbd07859f	-0.033086415
28	0x3e36f626	0.17867336
29	0xbd3aadfe	-0.045576088
30	0xbe29ddb3	-0.16588478
31	0xbdfaded8	-0.12249535
32	0x3db5211d	0.088442065
33	0xbdc5600d	-0.09637461
34	0x3d72df01	0.059294704
35	0x3c4f4075	0.012649645
36	0xbde0197a	-0.10942359
37	0x3dd77734	0.10520783
38	0x3e2efe3c	0.1708917
39	0xbe10b28a	-0.14130607
40	0xbe07a37d	-0.1324596
41	0xbe3a1ef9	-0.18175878
42	0x3bb911f4	0.005647892
43	0xbe24a475	-0.1607836
44	0x3d95870f	0.07301151
45	0x3d355cdb	0.044278007
46	0x3dcec376	0.10095875
47	0x3ddbfb84	0.10741332
48	0xbe1c2554	-0.15248615
49	0x3de65ca4	0.112481385
50	0xbd60283e	-0.054725878
51	0xbd5f348c	-0.054493472
52	0xbe2feb75	-0.17179663
53	0xbde7b29b	-0.11313363
54	0xbc268f4b	-0.010166
55	0xbb61e5f5	-0.003446934
56	0xbdbeb7d6	-0.09312408
57	0x3d882e95	0.0664951
58	0xbe0bdda0	-0.13658762
59	0x3da1c7e4	0.07899454
60	0x3dc0ab4f	0.094076745
61	0x3d812465	0.0630577
62	0xbe012557	-0.126119
63	0xbd05991a	-0.032616712
64	0xbd3e0942	-0.046395548
65	0xbd35993f	-0.0443356
66	0x3dfe59c2	0.12419464
67	0x3de7d5ab	0.11320051
68	0x3df86595	0.1212875
69	0x3d825877	0.063645296
70	0x3de51ed2	0.11187519
71	0x3daa2f0a	0.08309753
72	0xbcca457d	-0.024691338
73	0x3c9bffc1	0.019042851
74	0x3d99f109	0.07516677
75	0x3e10fe44	0.14159495
76	0x3dd20ee5	0.10256747
77	0xbcc691c3	-0.024239426
78	0xbe0a7b03	-0.13523488
79	0x3e057e17	0.1303638
80	0x3d4bc20b	0.0497456
81	0x3d2467f6	0.040138207
82	0x3da9ccfe	0.08291052
83	0x3e1cc715	0.15310319
84	0xbd9fbffe	-0.078002915
85	0x3de5a949	0.11213929
86	0xbd1b811f	-0.037964936
87	0x3e06a64a	0.13149372
88	0xbe2f7c1a	-0.17137185
89	0xbd8151ef	-0.06314456
90	0x3d5a55c3	0.053304445
91	0xbd43acf8	-0.047772378
92	0x3da7d698	0.081952274
93	0x3d83b59e	0.06431125
94	0x3ca5c26f	0.020234315
95	0xbd968e86	-0.07351403
96	0xbd3809cb	-0.044931214
97	0xbd68d9ab	-0.05684821
98	0xbcb015f5	-0.021494845
99	0x3d650d16	0.055920683
100	0xbd6b1bf0	-0.05739969
101	0xbdb4b898	-0.08824271
102	0xbda37bb3	-0.07982578
103	0x3de58ae9	0.11208136
104	0x3d50c6f0	0.05097097
105	0x39ea3b9d	0.00044676373
106	0x3ccf5b6d	0.02531215
107	0xbe345822	-0.17611745
108	0xbadf2a72	-0.00170262
109	0xbdc56680	-0.09638691
110	0xbdd10c5d	-0.10207436
111	0xbcf4d4f3	-0.029886698
112	0x3dd24cba	0.10268541
113	0xbd150017	-0.03637704
114	0x3d7be615	0.06149872
115	0x3c407ff8	0.01174926
116	0x3e0bbc83	0.1364613
117	0x3d90d9a2	0.0707276
118	0xbdf15580	-0.11783886
119	0x3e3b736e	0.18305752
120	0x3e10fc09	0.14158644
121	0xbd9bdbc8	-0.07610279
122	0xbe85d987	-0.26142523
123	0x3b895a40	0.004191667
124	0xbd54f590	-0.051992
125	0xbda5ce68	-0.080960095
126	0xbd157c7d	-0.036495674
127	0xbcf16187	-0.02946545
128	0xbd17a18e	-0.037019305
129	0xbd992f31	-0.07479704
130	0x3dc0f74c	0.09422168
131	0xbd4698ea	-0.048485674
132	0xbdce7a50	-0.10081923
133	0x3d343ef0	0.044005334
134	0xbd4fe816	-0.050758444
135	0x3a9c2b76	0.0011914808
136	0x3d8ace40	0.0677762
137	0xbe06f11b	-0.13177912
138	0xbe11c0f7	-0.14233766
139	0x3def904f	0.116974466
140	0xbc360208	-0.011108883
141	0xbe02f5e0	-0.12789106
142	0x3e07d831	0.13266064
143	0x3e234312	0.15943554
144	0xbde19cc2	-0.11016227
145	0xbe24474d	-0.16042824
146	0x3d6330aa	0.05546633
147	0x3b881b60	0.004153654
148	0xbcdcfa02	-0.026974682
149	0x3e1be84e	0.15225336
150	0x3dfa8d0c	0.12233934
151	0xbe17e5ec	-0.14833802
152	0x3dd70bbd	0.10500286
153	0xbde3a859	-0.11116094
154	0x3e6af222	0.22943929
155	0xbddcb43e	-0.10776566
156	0xbe17ea80	-0.14835548
157	0x3e41ede8	0.1893841
158	0xbdc8656b	-0.09784969
159	0x3c915f21	0.017745556
160	0xbdcd638a	-0.10028751
161	0xbe183356	-0.14863333
162	0xbe3ac115	-0.18237717
163	0x3e4e550c	0.2014963
164	0xbe39819f	-0.18115853
165	0x3d98cf14	0.07461372
166	0xbce32a88	-0.027730241
167	0xbd428997	-0.047494497
168	0x3a220ccc	0.00061817165
169	0x3c8a9cec	0.01692053
170	0xbd2dcbd8	-0.04243073
171	0x3bc78d22	0.0060898224
172	0xbe2bcd5f	-0.16777562
173	0x3ab51e3a	0.0013818212
174	0xbe287013	-0.16449003
175	0x3d90a4ae	0.0706266
176	0x3d3fcde4	0.046827212
177	0x3df37be9	0.11888868
178	0x3de3d70a	0.11125
179	0x3d9a9a60	0.07548976
180	0xbd1d2388	-0.038363963
181	0xbc9901bc	-0.018677585
182	0xbdf879b7	-0.1213259
183	0xbdd49ceb	-0.10381492
184	0x3e2e5665	0.17025144
185	0xbe15de5f	-0.14635609
186	0x3e122dc5	0.14275272
187	0x3caaea7b	0.020863762
188	0xbdffb81f	-0.1248629
189	0xbd71c713	-0.059027743
190	0x3bbee81c	0.0058260094
191	0x3dcbab9f	0.099448435
192	0xbdfab3e1	-0.122413404
193	0xbd29f4ac	-0.041493103
194	0xbdeea931	-0.116533644
195	0x3c9f49e1	0.019444408
196	0x3d8af530	0.06785047
197	0x3cccfdbd	0.025023336
198	0x3db5b1cd	0.088718034
199	0xbe1e65bf	-0.154685
200	0xbdde3207	-0.10849386
201	0x3e02bd75	0.12767585
202	0x3e05d705	0.13070305
203	0x3cf0e8cd	0.029407883
204	0x3e032512	0.1280711
205	0x3d01f1f3	0.03172488
206	0xbdb823da	-0.08991213
207	0x3c80ba9a	0.015713979
208	0xbd547f49	-0.0518792
209	0x3dc50074	0.09619227
210	0x3d0a75a3	0.033803593
211	0xbe023fb8	-0.1271962
212	0x3c5b7774	0.013395179
213	0x3d8c0ab9	0.06837983
214	0xbbc1b4e7	-0.005911458
215	0x3d8b3143	0.06796505
216	0xbd0be4f3	-0.03415389
217	0xbcf8bee7	-0.030364467
218	0x3df276ea	0.11839087
219	0x3e23707c	0.15960878
220	0x3dbc3ab2	0.09190883
221	0xbe2de9c6	-0.16983709
222	0x3de1b96b	0.11021694
223	0xbe1dae71	-0.15398575
224	0x3e319c58	0.17344797
225	0xbd58770a	-0.0528479
226	0xbcf62e58	-0.030051395
227	0x3dde5116	0.1085531
228	0x3ded1de5	0.115779676
229	0x3dfdd5c3	0.123942874
230	0x3e3fc027	0.18725644
231	0xbe2955a6	-0.16536579
232	0xbcc74f81	-0.024329903
233	0xbe0b35ab	-0.13594691
234	0xbe1fc7cd	-0.15603562
235	0x3d3331ae	0.04374855
236	0x3dd9a9d8	0.10628098
237	0xbd85f542	-0.0654092
238	0x3dfb43f6	0.12268822
239	0x3dc08371	0.094000705
240	0x3d7f8047	0.062378194
241	0x3bf895d9	0.0075862226
242	0xbde1229c	-0.10992929
243	0xbddb24da	-0.10700388
244	0xbd88bbbd	-0.06676433
245	0xbc665827	-0.014059103
246	0xbda05bb4	-0.07829991
247	0xbc86e263	-0.016465371
248	0x3c9987df	0.018741546
249	0xbdd939d3	-0.10606732
250	0xbe54cfa3	-0.20782332
251	0xbd6f6b74	-0.058452085
252	0x3d5ebea5	0.05438103
253	0x3dc7a864	0.09748915
254	0xbd72017f	-0.059083458
255	0xbccf97c5	-0.025340924

9.bias f4 [128]
0	0xbc22ba61	-0.0099321315
1	0xbbfe5747	-0.007761869
2	0x3c8458a9	0.016155558
3	0x3c070039	0.008239799
4	0xbd13f981	-0.036126617
5	0xbb772e13	-0.0037716671
6	0xbbeed4d8	-0.0072885565
7	0xbb9bab47	-0.0047506425
8	0x3d26826a	0.040651716
9	0x3c871470	0.016489238
10	0xbc993488	-0.018701807
11	0xbd4db4d0	-0.050221264
12	0xbcb30354	-0.021852173
13	0xbcabd6a0	-0.020976365
14	0x3cb1dcec	0.02171179
15	0x3d8b49fa	0.06801219
16	0x3d1dbe15	0.038511354
17	0xbc0e8b9f	-0.00870028
18	0xbc7a7b68	-0.015288211
19	0xbcb87b7a	-0.022519816
20	0xbbde5899	-0.006785464
21	0xbcc1356b	-0.023585042
22	0x3c96d578	0.018412337
23	0xbb55bff1	-0.0032615627
24	0x3c0e8f51	0.0087011615
25	0x3cb53ff8	0.02212523
26	0x3d294229	0.04132286
27	0x3cf681ef	0.030091254
28	0x3c203c05	0.009779935
29	0xbd1385d5	-0.036016304
30	0xbbf4874c	-0.0074624177
31	0xbbbdb662	-0.005789564
32	0x3d02ab70	0.031901777
33	0x3c8ee5fd	0.017443651
34	0x3d0ba43b	0.03409217
35	0x3d52cd78	0.05146548
36	0x3d20c2b5	0.039248187
37	0x3d58a491	0.052891318
38	0x3bfb9fe5	0.007678973
39	0x3c57a468	0.013161756
40	0x3c8ae335	0.016954044
41	0xbd2a0c69	-0.04151574
42	0xbb13cf59	-0.0022554009
43	0x3d405525	0.0469562
44	0x3c733b9f	0.014845758
45	0x3d18b06a	0.037277617
46	0x3ca41dc4	0.020033725
47	0x3d3a496e	0.045480184
48	0x3d01481b	0.031562906
49	0x3d8e1d1b	0.06939145
50	0xbc697833	-0.014249849
51	0xbc95fb57	-0.018308325
52	0x3d013e80	0.031553745
53	0xbca0530a	-0.019570846
54	0x3d0876f6	0.033316575
55	0xba883190	-0.0010390747
56	0xbc63a09b	-0.013893272
57	0x3d264106	0.040589355
58	0x3d37d6d0	0.044882596
59	0xbd0e8daa	-0.03480307
60	0x3b5f4aa7	0.0034071596
61	0x3c02f674	0.007993329
62	0xbcc1853f	-0.023623107
63	0x3bd68352	0.0065464163
64	0x36e4ddde	6.8207582e-06
65	0xbcb06f3f	-0.021537421
66	0xbc4335ed	-0.011914712
67	0x3b888122	0.0041657845
68	0xbc0c63be	-0.008568702
69	0xbd011bfe	-0.031520836
70	0xbc0d0cf0	-0.008609042
71	0x3d13a5d7	0.03604683
72	0x3c34a0e1	0.011024685
73	0x3d4282dc	0.04748808
74	0xbad22393	-0.001603233
75	0xbc8ab2fb	-0.016931048
76	0x3c6efe2a	0.014586965
77	0x3d47b042	0.048752077
78	0x3d4a7ca8	0.049435288
79	0x3c5ca9b0	0.013468191
80	0x3a5bb224	0.0008380732
81	0x3c9aec4c	0.018911503
82	0xbd198bfe	-0.037487023
83	0xbcb97fd8	-0.022643968
84	0xbc22be2b	-0.009933035
85	0x3c84d745	0.01621593
86	0xbd467418	-0.04845056
87	0x3cd831d2	0.026390944
88	0xbcdceea0	-0.026969254
89	0xbb838b00	-0.004014373
90	0x3d1c59ea	0.038171686
91	0x3bec27f4	0.007206911
92	0xbc02dd91	-0.007987396
93	0x3d18a9d1	0.037271325
94	0x3aae2d1c	0.001328859
95	0x3d13726e	0.0359978
96	0xbb6ee381	-0.003645152
97	0x3c347c7a	0.011016006
98	0xbcea5b25	-0.028607914
99	0x3d3301ee	0.043703012
100	0x3b4e982e	0.0031523812
101	0xbd4a4eae	-0.04939144
102	0x3c240eb6	0.010013273
103	0xbc984007	-0.018585218
104	0x3c19c574	0.009385455
105	0x3c890da4	0.016730137
106	0x3c8a9f97	0.016921801
107	0x3c49144e	0.012272907
108	0x3c52430f	0.012833371
109	0xbce5d0b3	-0.028053617
110	0x3cb6be89	0.022307651
111	0xbc9b5f5c	-0.01896637
112	0x3cfd4bae	0.030919876
113	0xbc5a97fa	-0.013341898
114	0xbccf026e	-0.025269713
115	0xbb08f79f	-0.0020899547
116	0x3caf6c1d	0.021413857
117	0x3d2b49a4	0.041818276
118	0x3cb96ea3	0.022635764
119	0x3c93ba90	0.018033296
120	0x3d7e2e9f	0.06205618
121	0xbc08d722	-0.008352073
122	0x3cea92ad	0.028634394
123	0xbba7118e	-0.005098528
124	0x3c2351b6	0.009968212
125	0xbc32b51d	-0.010907439
126	0x3c2b4eef	0.010455831
127	0x3cfcb542	0.03084815

11.weight f4 [128, 128]
0	0x3dde721f	0.108616106
1	0xbc76edf3	-0.01507138
2	0x3d637c46	0.05553844
3	0xbdedba9d	-0.11607859
4	0xbd515eb1	-0.051115695
5	0xbd4ff7a2	-0.05077327
6	0xbdc7e1a8	-0.097598374
7	0xbe00235f	-0.12513493
8	0x3e245351	0.16047408
9	0xbd79d44f	-0.06099349
10	0x3de76a29	0.11299545
11	0xbd9d0b7b	-0.07668205
12	0x3e18b2bf	0.14911936
13	0x3c227a98	0.009916924
14	0xbccf159a	-0.025278855
15	0x3e10f42f	0.14155649
16	0xbd9624ed	-0.07331262
17	0xbb0eeeab	-0.0021809738
18	0xbddc67da	-0.107619956
19	0x3d3f1a45	0.046655912
20	0xbc2800ee	-0.010254128
21	0x3c8b2fdc	0.016990595
22	0xbc4d9fdb	-0.01255032
23	0xbcbd80bd	-0.023132676
24	0xbe1bb9c3	-0.15207581
25	0x3ccea400	0.025224686
26	0xbd2e7ca8	-0.04259935
27	0x3e3d8e38	0.18511283
28	0x3de2fd0c	0.11083421
29	0x3d3efa04	0.046625152
30	0x3db6588d	0.089036085
31	0xbd10cac7	-0.035349634
32	0x3e4cc4bf	0.19996928
33	0xbd586319	-0.052828882
34	0x3e28ff4c	0.16503638
35	0x3e2e926e	0.17048046
36	0x3df8d759	0.12150449
37	0x3dd29305	0.10281948
38	0xbc8bb537	-0.017054183
39	0x3c15a0ae	0.009132547
40	0xbd411daa	-0.04714743
41	0x3e00fa75	0.12595542
42	0x3dc1d2d9	0.09464044
43	0x3dfcc705	0.123426475
44	0x3c0162ef	0.007897123
45	0x3dc0c3fc	0.09412381
46	0x3c432d4a	0.011912653
47	0xbd56b8c8	-0.052422315
48	0xbd10cf1e	-0.035353772
49	0xbe040010	-0.12890649
50	0x3d826866	0.06367569
51	0xbd369e72	-0.0445847
52	0xbdfaff16	-0.12255685
53	0x3bb317aa	0.0054654675
54	0x3d89fc40	0.06737566
55	0xbbe12c33	-0.006871724
56	0xbd703956	-0.05864843
57	0xbe27bbe8	-0.16380274
58	0xbd7a5cb2	-0.061123557
59	0x3db41614	0.087932736
60	0x3c691f11	0.014228598
61	0x3d4c94bb	0.049946528
62	0x3daeb39c	0.085303515
63	0xbde6ae95	-0.11263768
64	0x3d56fd45	0.05248763
65	0xbcb969ad	-0.022633398
66	0xbd50c68d	-0.050970603
67	0x3df88f62	0.12136723
68	0xbd932f9f	-0.071868174
69	0x3de4db8a	0.11174686
70	0xbd98c5cd	-0.074596025
71	0xbe12244b	-0.14271657
72	0xbd33cfa6	-0.0438992
73	0xbd33a52e	-0.0438587
74	0x3d31c0f0	0.04339689
75	0x3ccb6054	0.024826206
76	0xbd8c55b1	-0.06852282
77	0x3e1016e5	0.14071234
78	0xbdfb3dbe	-0.12267636
79	0xbc9f160e	-0.019419696
80	0xbd3c0ae9	-0.045908842
81	0xbde6ddf3	-0.11272802
82	0xbe0a571a	-0.13509789
83	0xbe06c426	-0.13160762
84	0x3e1689d3	0.14701013
85	0xbdf50941	-0.11964656
86	0x3db347a4	0.08753899
87	0xbe07b7a4	-0.13253647
88	0x3de32dac	0.110926956
89	0xbe09844c	-0.13429374
90	0xbe0e3bce	-0.13890001
91	0x3e82f25f	0.2557554
92	0x3d94ac3c	0.072594136
93	0x3d0073f8	0.031360596
94	0xbc50d5c4	-0.012746278
95	0x3d7bc387	0.061465766
96	0xbdc6a823	-0.09700038
97	0x3d263eb9	0.04058716
98	0x3d81a59d	0.06330416
99	0xbdedf32a	-0.116186455
100	0xbd01f9a2	-0.03173221
101	0x3e119793	0.14217977
102	0x3d3b9f0b	0.045805972
103	0x3e0baed5	0.13640912
104	0xbe073e0b	-0.13207261
105	0x3daf355d	0.085551
106	0xbc25904a	-0.010105202
107	0x3cad5d7f	0.021162746
108	0xbdc18b69	-0.094504185
109	0xbc04503a	-0.008075768
110	0xbdac2325	-0.08405141
111	0xbcaea72e	-0.021319952
112	0x3c56d8b5	0.01311319
113	0xbc0f3984	-0.00874174
114	0x3d279849	0.040916715
115	0x3e272028	0.1632086
116	0xbdbcd532	-0.09220351
117	0xbe21aa45	-0.15787609
118	0x3e154439	0.14576806
119	0x3cc0d401	0.023538591
120	0xbe196c1f	-0.14982651
121	0xbd9fd888	-0.07804972
122	0xbdd17777	-0.10227864
123	0x3de09d3a	0.109674886
124	0xbe06ae1f	-0.1315236
125	0x3d8ef12b	0.06979593
126	0xbdf218b2	-0.118211165
127	0x3daf2f48	0.0855394
128	0x3da2cbe3	0.079490446
129	0x3ca3f437	0.020013912
130	0xbd5c22e7	-0.053744223
131	0x3c005b7c	0.007834312
132	0x3dd1030b	0.102056585
133	0xbdee662f	-0.11640584
134	0x3b23af20	0.0024976209
135	0xbd977e91	-0.073971875
136	0xbe305f20	-0.17223787
137	0xbe0f54f6	-0.13997254
138	0x3d10dfbe	0.035369627
139	0xbdb11fc3	-0.08648636
140	0xbd5bcf66	-0.053664587
141	0xbe11ef9e	-0.14251563
142	0xbd733114	-0.059372976
143	0xbc8e37aa	-0.017360527
144	0xbdb08ad4	-0.08620229
145	0x3df5755e	0.11985277
146	0xbd90685e	-0.070511565
147	0x3e1354f5	0.14387877
148	0xbe035a81	-0.12827493
149	0x3d4fd2b2	0.050738044
150	0x3d717c82	0.05895663
151	0xbdcb3304	-0.0992184
152	0x3d69f21f	0.05711567
153	0x3d792f13	0.06083591
154	0x3d8d92db	0.06912776
155	0x3c64431c	0.013932016
156	0x3d413567	0.04717007
157	0x3d2e05c9	0.042485986
158	0x3dd779b8	0.10521263
159	0xbcfd8eb7	-0.03095184
160	0x3d80a735	0.06281892
161	0x3bda8713	0.006668934
162	0x3dd4d0c9	0.10391385
163	0xbbb8fd39	-0.005645421
164	0xbdd242a3	-0.10266616
165	0xbe034f15	-0.12823136
166	0x3cf783a0	0.03021413
167	0xbdcd5f88	-0.10027987
168	0xbc88931c	-0.01667171
169	0xbd43c3ee	-0.047794275
170	0xbd784fe6	-0.060623072
171	0x3e037866	0.12838897
172	0xbddc51ed	-0.107578136
173	0x3c92e2ab	0.01793035
174	0x3d2f83a0	0.042850137
175	0xbcd6afe8	-0.026206926
176	0xbcdd07d9	-0.026981281
177	0x3e1ec5bc	0.15505117
178	0x3e025f48	0.1273166
179	0xbd6b6dd9	-0.057477806
180	0x3dea1741	0.114302166
181	0xbc023eb5	-0.007949521
182	0x3cfd08e5	0.03088803
183	0xbd2dbd21	-0.042416696
184	0xbd4ea42b	-0.05044953
185	0xbdf82630	-0.12116659
186	0x3db02cc2	0.08602287
187	0xbd91dcae	-0.071221694
188	0x3de94599	0.11390228
189	0x3dbb0258	0.091313064
190	0xbc9ebefb	-0.019378176
191	0x3e30d063	0.17266993
192	0x3d3c455f	0.045964595
193	0xbca3b197	-0.019982142
194	0x3c80a300	0.015702724
195	0xbd9af376	-0.07565968
196	0x3c4f437b	0.012650366
197	0x3dcee2d6	0.10101859
198	0xbbd20e11	-0.0064103683
199	0x3e0304f7	0.12794863
200	0x3dec244f	0.11530363
201	0xbd0e0406	-0.034671806
202	0xbdd172b9	-0.1022696
203	0xbdbc7a20	-0.09202981
204	0x3d659d65	0.056058306
205	0x3d8ffd01	0.070306785
206	0xbd69e294	-0.057100847
207	0xbd761e22	-0.06008733
208	0xbde17733	-0.110090636
209	0x3e1f717d	0.15570636
210	0xbdc62ae0	-0.096761465
211	0xbdfa7f43	-0.122313045
212	0xbdb2d04d	-0.087311365
213	0x3d3fa878	0.046791524
214	0x3bd412f4	0.006471986
215	0xbdff22bb	-0.12457796
216	0xbd7bb148	-0.061448365
217	0xbe0ba634	-0.1363762
218	0x3cbc1953	0.022961294
219	0x3e38f953	0.1806386
220	0x3d2639f3	0.04058261
221	0xbe097003	-0.13421635
222	0x3d91d81b	0.07121297
223	0xbdbb63fd	-0.091499306
224	0xbcc1ccf3	-0.023657298
225	0x3e0ae9fa	0.13565817
226	0x3c6fe329	0.014641562
227	0xbe0d01ec	-0.13770264
228	0x3e1b3f04	0.15160757
229	0xbdc48df8	-0.09597391
230	0xbc8c61bd	-0.017136449
231	0xbcf41222	-0.029793803
232	0x3cf43094	0.02980832
233	0xbe13a2b7	-0.1441754
234	0xbe06ce44	-0.13164622
235	0x3caf50ed	0.021400893
236	0x3dc35763	0.09538152
237	0xbe1c5bf0	-0.15269446
238	0x3cd8e810	0.026477844
239	0xbddb2e05	-0.10702137
240	0x3a9df82c	0.001205211
241	0x3deea52b	0.11652597
242	0x3e064d9d	0.13115545
243	0x3e008c08	0.12553418
244	0x3bcf1347	0.0063194367
245	0x3db074e6	0.086160466
246	0xbe22b30c	-0.15888613
247	0x3e297b90	0.16551042
248	0xbbe3facf	-0.006957389
249	0xbe193cbd	-0.14964576
250	0x3e1ca51e	0.15297362
251	0xbd95b583	-0.07310011
252	0xbe0ebd51	-0.13939406
253	0xbd9a247b	-0.07526489
254	0xbcb1fc6f	-0.021726815
255	0x3dfd2221	0.12360025

11.bias f4 [128]
0	0xbc18d587	-0.009328253
1	0xbaa65fa6	-0.00126933
2	0xbc9aa6e0	-0.0188784
3	0x3d087344	0.03331305
4	0xbcc5ec5c	-0.024160556
5	0x3d1d3f4c	0.038390443
6	0xbc449a76	-0.011999717
7	0x3ce74513	0.02823118
8	0x3d00a699	0.03140888
9	0x3d145d55	0.03622182
10	0xbbc01f35	-0.005863095
11	0x3cbdfed7	0.023192806
12	0xbc0ec7fd	-0.008714673
13	0x3d28f640	0.041250467
14	0x3be2e33f	0.0069240625
15	0x3d159d5a	0.036527015
16	0x3c9fa37e	0.019487139
17	0x3cb80125	0.022461483
18	0x3cc4a6d6	0.024005335
19	0x3d8ef404	0.06980136
20	0xbd06b229	-0.03288475
21	0xbc42963d	-0.01187664
22	0xbd0fba85	-0.03508999
23	0x3c9e02f6	0.019288521
24	0xbc37ab05	-0.011210208
25	0x3ca2c04e	0.019867089
26	0xbd02525e	-0.031816833
27	0x3b0e1361	0.0021679031
28	0xbc2a5b00	-0.010397673
29	0x3cd980ca	0.02655067
30	0x3b8ec880	0.0043573976
31	0xbd082cd3	-0.033245873
32	0x3c1ac1b7	0.009445599
33	0x3cab0cfa	0.020880211
34	0xbcaf0642	-0.021365289
35	0x3b9ce820	0.0047884136
36	0x3c8c90d6	0.017158907
37	0x3b79ccbf	0.0038116423
38	0xbc536116	-0.012901565
39	0xbcbd7e7a	-0.023131598
40	0xbc22204a	-0.009895394
41	0x3c7d22ec	0.015450221
42	0xbc143cd3	-0.009047705
43	0xbb0607f5	-0.002045152
44	0x3cb405c9	0.021975415
45	0xbb84ec23	-0.00405647
46	0xbac41352	-0.0014959371
47	0xbc92c6b1	-0.01791701
48	0x3c7d02aa	0.01544253
49	0x3d07ee87	0.03318646
50	0xbd064a39	-0.032785628
51	0xbb3c0a8a	-0.0028692805
52	0x3c30eb11	0.010798232
53	0x3c75d1a5	0.015003596
54	0xbbe08c98	-0.0068526976
55	0xbc72c9b2	-0.014818596
56	0xbb5311b5	-0.00322066
57	0xbd102e1f	-0.035200235
58	0x3cff1db7	0.031142099
59	0x3d3d17ae	0.04616516
60	0xbc62cdf3	-0.013843047
61	0x3c5e4f79	0.013568752
62	0x3c6a6117	0.014305375
63	0xbd7526e1	-0.05985153
64	0x3be7c262	0.007072733
65	0x3cecfdc1	0.028929593
66	0xbbdba69a	-0.00670321
67	0xbc40a8a5	-0.011758958
68	0x3c7e6e7a	0.015529269
69	0xbab5f0f4	-0.0013881014
70	0xbc3bba93	-0.011458057
71	0xbcb6e516	-0.022326034
72	0x3d4242cf	0.047426995
73	0x3ce86cd6	0.02837221
74	0xbbb30c6c	-0.0054641273
75	0xbcb776f4	-0.022395588
76	0xbc9444fd	-0.018099302
77	0xbce4488f	-0.02786663
78	0x3b129bc6	0.002237068
79	0x3bc31682	0.005953611
80	0x3d2702b1	0.04077405
81	0xbc03e739	-0.008050733
82	0x3b32003d	0.0027160787
83	0xbcba70fe	-0.022758957
84	0x3cfbdc01	0.030744554
85	0x3c2ae720	0.010431081
86	0x3a9966d3	0.0011703618
87	0x3b0c8bd8	0.0021445658
88	0x3ba2dd70	0.004970245
89	0xba909503	-0.0011030737
90	0xbd14fb8f	-0.036372717
91	0x3d02488d	0.03180747
92	0xbcd625bf	-0.026141046
93	0xbcb0ebb8	-0.021596774
94	0x3d0a70ad	0.033798862
95	0x3b01be3d	0.0019797229
96	0xbcc157cc	-0.023601435
97	0xbca9a1ad	-0.020706976
98	0xbcfecfcf	-0.03110495
99	0x3c981aeb	0.018567523
100	0x3d1ac020	0.03778088
101	0xbc226e96	-0.009914061
102	0x3d1a5e1e	0.037687413
103	0x3c88d48b	0.01670291
104	0xbb0ca90a	-0.002146306
105	0xba79d2d0	-0.00095300097
106	0x3cfc3790	0.030788213
107	0x3c09c105	0.008407836
108	0xbc3ebb90	-0.011641398
109	0xba86972e	-0.0010268444
110	0x3ce8a663	0.028399652
111	0xbc7c12a7	-0.015385306
112	0x3c9d98c6	0.019237887
113	0x3c537104	0.012905363
114	0xbcd15645	-0.025553832
115	0x3c1c9a4a	0.00955827
116	0x3c924d0d	0.017859006
117	0x3ccec62e	0.025240984
118	0x3cd2e371	0.025743218
119	0xbc169c63	-0.009192559
120	0x3d53cd93	0.051709723
121	0x3ce39756	0.027782124
122	0xbd4e05f1	-0.050298635
123	0x3cd77772	0.026302073
124	0xba2ab24c	-0.00065115537
125	0x3baa1c1a	0.0051913382
126	0x3ccdb58e	0.025110986
127	0xbbda0783	-0.0066537275
