project_networks/new_sabr/cifar10_cnn_3layer_k5_w2_sabr.onnx (onnx, 440085 bytes, 10 tensors)

0.weight f4 [8, 3, 5, 5]
0	0x3b2a74da	0.002600959
1	0x3b087138	0.0020819437
2	0x3cd030e7	0.025413943
3	0x3d39e6d7	0.04538616
4	0x3bfda888	0.0077410378
5	0x3a68f37d	0.000888638
6	0x3a800fa7	0.000977029
7	0x3ad30c88	0.0016101757
8	0x3d6a223e	0.057161562
9	0x3ca8cacf	0.02060452
10	0xb9ccccbb	-0.00039062448
11	0xb94c772a	-0.00019499348
12	0x3d0f7752	0.035025902
13	0x3e425af0	0.18980002
14	0x3cc3d7b7	0.023906572
15	0xb9a430ef	-0.00031316976
16	0xb9ed669f	-0.0004528062
17	0x3916a7ee	0.00014367673
18	0x3e189248	0.14899552
19	0x3a7857ae	0.00094735145
20	0x393c7af4	0.00017974881
21	0xbe8f2cfa	-0.27964002
22	0xb771f662	-1.4422085e-05
23	0x39952d2e	0.00028453156
24	0x3a03d4d7	0.0005028969
25	0x3ae57767	0.0017506898
26	0x3aec891d	0.0018046234
27	0x3cbf19ff	0.023327826
28	0x3d0a97bd	0.033836115
29	0x3be99014	0.007127771
30	0x388362e2	6.264985e-05
31	0x3a1b42dc	0.00059227436
32	0x3ae4ba48	0.0017450536
33	0x3d092003	0.033477794
34	0x3c75d0e0	0.015003413
35	0xba445f7d	-0.00074910355
36	0xb945e30f	-0.0001887197
37	0x3a549498	0.00081093004
38	0x3da1935b	0.07889434
39	0x3aca2aba	0.001542411
40	0xbc3adf2c	-0.011405747
41	0xbad529a8	-0.0016263025
42	0x39782364	0.00023664307
43	0x3d3632a9	0.044481907
44	0x3a54c6ab	0.0008116762
45	0xba81238b	-0.0009852512
46	0xbf3a876b	-0.7286288
47	0xbc261de8	-0.010138966
48	0x398178b5	0.0002469473
49	0x39c93def	0.00038383852
50	0x3c8d790d	0.017269636
51	0x3beedca4	0.007289486
52	0x3d322458	0.04349169
53	0x3d74dfc2	0.059783705
54	0x3c908fff	0.017646788
55	0x39f8e376	0.00047471718
56	0x3a90e086	0.0011053241
57	0x3cc81d07	0.024427904
58	0x3da2f574	0.07956973
59	0x3c29feca	0.010375688
60	0xb9220283	-0.0001545046
61	0x3931b15b	0.00016946105
62	0x3d5dd1fa	0.054155327
63	0x3e5b12ae	0.21393844
64	0x3c3ceea9	0.01153151
65	0xbbe62202	-0.007023097
66	0xbd02e446	-0.03195598
67	0x39fdc907	0.00048405697
68	0x3d9fbc7f	0.07799625
69	0x3aa927a2	0.0012905488
70	0xbb11fe37	-0.0022276768
71	0xbee57be5	-0.44821087
72	0xbd34530e	-0.04402452
73	0x3914209b	0.00014126526
74	0x39eed2a3	0.00045551834
75	0xba0e44d2	-0.0005427125
76	0xb9f0f939	-0.00045962053
77	0x3c7a8ff6	0.015293112
78	0xba0a4e67	-0.0005275965
79	0xba731cc2	-0.00092739996
80	0xba6ec18b	-0.00091078196
81	0x3e934cc6	0.2876951
82	0x3eacb2e9	0.33730248
83	0xba927c77	-0.001117601
84	0xbadb5550	-0.0016733799
85	0xbacf2f97	-0.001580703
86	0xbafb71e4	-0.0019183722
87	0xbaf4bd1b	-0.001867208
88	0xbaf2a21b	-0.0018511446
89	0xbb1162b8	-0.0022184085
90	0xbb0d279c	-0.0021538502
91	0xbbbea4a6	-0.0058179675
92	0xbeb17ae7	-0.3466408
93	0xbe4dae46	-0.20086011
94	0xbcca9284	-0.024728067
95	0xbb140b07	-0.002258958
96	0xbb2c77ae	-0.0026316452
97	0xbb2e47ae	-0.0026593017
98	0xbb5d9ee5	-0.0033816632
99	0xbb80771b	-0.0039204485
100	0xb9a6c4a8	-0.00031808508
101	0xb9dbaefc	-0.0004190131
102	0xb96f5d56	-0.00022827587
103	0xb9ca5b5b	-0.00038596508
104	0xba19ff01	-0.00058744854
105	0xba5f03e5	-0.0008507355
106	0x3e361277	0.17780481
107	0x3e79c437	0.24391256
108	0xba5951ae	-0.0008290064
109	0xbacc67b2	-0.0015594868
110	0xbaf6d42c	-0.0018831543
111	0xbae5edd4	-0.0017542192
112	0xbaebddb1	-0.0017995146
113	0xbae4516a	-0.0017419283
114	0xbae2eb8b	-0.0017312629
115	0xbb0ba7a2	-0.0021309634
116	0xbd3877f5	-0.045036275
117	0xbedcb97b	-0.4311026
118	0xbe3f8a04	-0.18704993
119	0xbb8c4b87	-0.0042814645
120	0xbb6b1fc6	-0.0035877093
121	0xbb95bd01	-0.00456965
122	0xbb835d1f	-0.0040089036
123	0xbb8184c2	-0.0039525935
124	0xbb8452d4	-0.004038194
125	0xba087c74	-0.0005206533
126	0xb99b3c59	-0.00029608866
127	0x39773381	0.00023574942
128	0xb9f58c0a	-0.0004683438
129	0xba4ee888	-0.0007892926
130	0xba0db59a	-0.0005405784
131	0x3e686b9f	0.22697304
132	0x3e960936	0.29303902
133	0xba6d5fb4	-0.00090550934
134	0xbaca3b57	-0.0015429062
135	0xbb03c623	-0.0020107112
136	0xbb014c6a	-0.0019729384
137	0xbb010b01	-0.0019690397
138	0xbb013e18	-0.0019720849
139	0xbb007370	-0.0019600056
140	0xbb1ae834	-0.002363694
141	0xbb748ec9	-0.0037316552
142	0xbe85d444	-0.26138508
143	0xbdae6d8c	-0.08516988
144	0xbb7b9d40	-0.003839329
145	0xbb1eca07	-0.0024229304
146	0xbb4dc74f	-0.0031399315
147	0xbb5a91be	-0.003335103
148	0xbb78cf5e	-0.0037965397
149	0xbb722fd9	-0.003695479
150	0x39ad03bb	0.0003299991
151	0x39ee18e2	0.00045413437
152	0x3a0d7aaf	0.00053970044
153	0x39e561f2	0.0004375126
154	0x391fa6de	0.00015225585
155	0xbd573488	-0.052540332
156	0x399737d2	0.00028842554
157	0x395961c7	0.00020731158
158	0xb73b351b	-1.1158433e-05
159	0x38947745	7.0794056e-05
160	0xbd8abd57	-0.06774395
161	0xbbe6d803	-0.0070447936
162	0xb956e741	-0.00020494779
163	0xb9a28e9f	-0.0003100531
164	0xbc0fdabe	-0.00878018
165	0xbcb0162a	-0.021494944
166	0xb9e1c05a	-0.00043058657
167	0xb9c37e24	-0.0003728728
168	0xb9c9f371	-0.00038519086
169	0xb9eec5ec	-0.0004554236
170	0xba88d1fc	-0.0010438557
171	0xb9ce7346	-0.00039377267
172	0xba0bba89	-0.0005330225
173	0xb9e73f87	-0.00044107085
174	0xbc5139eb	-0.012770156
175	0x39e6587e	0.0004393495
176	0x3a9521bd	0.0011377853
177	0x3a8889e3	0.001041707
178	0x3a56779d	0.0008181276
179	0x3a373fef	0.0006990423
180	0x3a1527b3	0.00056898146
181	0x3a0414d5	0.00050385046
182	0x3a4843ef	0.00076395174
183	0x3a45482f	0.000752571
184	0x3a25ebc1	0.00063293806
185	0x3a09929f	0.00052479835
186	0x3a28fa58	0.00064459955
187	0x3a1c42d1	0.0005960884
188	0x3a2201c9	0.00061800756
189	0x3a185dd2	0.000581232
190	0x3a12b2bc	0.00055960915
191	0x3a335dfb	0.0006842312
192	0x3a228ef6	0.00062011124
193	0x3a31eff7	0.00067877717
194	0x3a069073	0.0005133219
195	0x39f77efa	0.00047206116
196	0x3a0de4ef	0.0005412837
197	0x3a12dac5	0.0005602057
198	0x3a0c2e6d	0.0005347494
199	0x39f2db2a	0.00046321127
200	0x3d2de258	0.042452186
201	0x3ea2feb8	0.3183496
202	0x3ee3522f	0.4439864
203	0x3e8d529a	0.27602082
204	0x3a2ae3a1	0.00065189047
205	0x3a882930	0.0010388251
206	0x3e37f68d	0.17965145
207	0x3e3c2e17	0.18376957
208	0x3a73d0d4	0.0009300832
209	0x3a5d54e4	0.00084431306
210	0x3a530979	0.0008050423
211	0x3a71d76c	0.0009225521
212	0x3a80beef	0.0009822528
213	0x3a80fea1	0.000984151
214	0x3a6b1d79	0.00089689303
215	0x3a3f2302	0.00072912883
216	0x3a88e9bf	0.0010445638
217	0x3a9134c7	0.0011078351
218	0x3a990a97	0.001167613
219	0x3a804a59	0.0009787782
220	0x3a3dc9eb	0.0007239866
221	0x3a7e91c3	0.0009711051
222	0x3a8c6ffe	0.0010714529
223	0x3a8cfc32	0.0010756312
224	0x3a60a05a	0.0008568816
225	0x3a96b0e8	0.0011496814
226	0x3a8228d9	0.0009930386
227	0x3aa6831a	0.0012703866
228	0x3a4af8f6	0.00077427865
229	0x3a80d855	0.0009830097
230	0x3ac651bf	0.0015130563
231	0x3af08ae5	0.0018351941
232	0x3b0dab79	0.0021617098
233	0x3ad46109	0.0016203235
234	0x3aba1cb0	0.0014199223
235	0x3f08db2c	0.5345943
236	0x3e65b23e	0.22431275
237	0x3b0170a6	0.0019750982
238	0x3ae0029b	0.001709062
239	0x3ab20871	0.0013582838
240	0x3e145eeb	0.14489333
241	0x3c1af672	0.009458171
242	0x3a7ae685	0.0009571093
243	0x3afdf7a7	0.0019376174
244	0x3ace5a30	0.0015743431
245	0x39ef465d	0.00045638057
246	0x39a096b9	0.00030629875
247	0xb891ad71	-6.946445e-05
248	0xb9800fc0	-0.00024425797
249	0xb75d2ba7	-1.318279e-05
250	0x391843b6	0.00014521074
251	0x3a0d226b	0.0005383852
252	0x39d528ae	0.00040656835
253	0xb8c32ffa	-9.307261e-05
254	0xb91ddc7e	-0.00015054827
255	0x3ab66b11	0.0013917406

0.bias f4 [8]
0	0xbd00bf5c	-0.031432495
1	0xbe00c0f9	-0.12573613
2	0xbed0ebfc	-0.40805042
3	0xbe79ddf4	-0.24401075
4	0x3ee33b09	0.44380978
5	0xbdb1d9c0	-0.08684111
6	0xbd67352d	-0.056447197
7	0xbe4f26f9	-0.2022971

2.weight f4 [16, 8, 5, 5]
0	0xbe126f93	-0.14300375
1	0xbb269396	-0.0025417558
2	0xbb05e372	-0.0020429757
3	0xba177c6b	-0.00057787326
4	0xba20cf24	-0.0006134382
5	0xbd349774	-0.04408975
6	0xbb5ceb42	-0.003370956
7	0xbba2320a	-0.004949813
8	0xbb012ee8	-0.0019711796
9	0xb9e07eb0	-0.00042819
10	0xbd2639e7	-0.040582564
11	0xbb07fc69	-0.0020749813
12	0xbb176d9f	-0.002310611
13	0xbad211c5	-0.0016027024
14	0xba738504	-0.0009289535
15	0x362b4fbe	2.5527402e-06
16	0xba2da3db	-0.00066238426
17	0x38a0a8e3	7.660852e-05
18	0xba08c552	-0.00052173913
19	0xba160731	-0.00057231175
20	0x3a71ff92	0.00092315034
21	0x3a1b1966	0.00059165654
22	0xb8d80336	-0.00010300281
23	0x399513cb	0.00028434242
24	0x399b776a	0.00029652874
25	0xbb14f1c0	-0.0022727102
26	0xbae0fe24	-0.0017165584
27	0xbace5eb4	-0.0015744776
28	0xbaf03a5c	-0.0018327939
29	0xbb3b4086	-0.0028572395
30	0xbae8395e	-0.0017717292
31	0xbaf1a389	-0.0018435578
32	0xbb0f5446	-0.00218703
33	0xbb267280	-0.0025397837
34	0xbb2dada4	-0.0026501203
35	0xbb3ff876	-0.0029292381
36	0xbb21f198	-0.0024710651
37	0xbb38e8d4	-0.0028214948
38	0xbacb8a69	-0.001552892
39	0xbb37cdf7	-0.0028046349
40	0xbad8d3bd	-0.0016542595
41	0xba8b42bb	-0.0010624746
42	0xbb5f7974	-0.0034099491
43	0xbaf81e96	-0.0018930014
44	0xbb73f0bf	-0.0037222353
45	0xba008c2e	-0.0004903701
46	0xbaeef196	-0.0018229957
47	0xbb44808c	-0.0029983846
48	0xbb71e960	-0.0036912784
49	0xbd34d4ad	-0.044148136
50	0xb99ba2f7	-0.00029685322
51	0xba92aadb	-0.0011189835
52	0xbbac5ea5	-0.005260306
53	0xbca82adf	-0.020528255
54	0xbbb828bb	-0.00562009
55	0x39fcaae1	0.000481925
56	0xb93597e1	-0.00017318084
57	0xbb90568b	-0.004404848
58	0xbe0e2f3e	-0.13885209
59	0xbb85893a	-0.0040751966
60	0x3e1b6f1e	0.15179107
61	0x3948338e	0.00019092692
62	0xbb3a1ff2	-0.0028400389
63	0xbe67726b	-0.2260224
64	0xbb998445	-0.004684957
65	0x3e5eca71	0.21756913
66	0x3a90b8d6	0.0011041414
67	0xba117060	-0.0005548056
68	0xbeb91ca3	-0.3615466
69	0xbdfe617f	-0.1242094
70	0x3e97fe05	0.2968599
71	0x3a7803e9	0.0009461032
72	0x3991e355	0.0002782593
73	0xbad14df5	-0.0015968668
74	0xbe72c742	-0.23708823
75	0x3ddf58f7	0.109056406
76	0x3ad1d22b	0.001600807
77	0x3a148a59	0.00056663674
78	0xbb352b18	-0.0027644094
79	0xbe664bb8	-0.22489822
80	0x3e885975	0.2663075
81	0x3adec271	0.0016995204
82	0x3a607979	0.0008563023
83	0x39e7a7a8	0.00044184667
84	0xbe201313	-0.15632276
85	0x3e642b44	0.2228213
86	0x3aceaf63	0.0015768822
87	0x3a68127b	0.00088528515
88	0x3a71d21a	0.0009224728
89	0xbde9bca0	-0.114129305
90	0x3e1526ee	0.14565632
91	0x3aaac3fb	0.0013028377
92	0x3a8bb628	0.0010659145
93	0x3a92cdd5	0.0011200259
94	0xb9bf3574	-0.00036470185
95	0x3d2b831d	0.041873086
96	0x3aab0a43	0.0013049323
97	0x3a9e424f	0.0012074205
98	0x3a630d08	0.00086613046
99	0x3a148612	0.000566573
100	0x39998635	0.00029282426
101	0x3a7986c5	0.00095186784
102	0x3a959349	0.0011411692
103	0x3afc3a02	0.0019243362
104	0x3ac28935	0.0014841916
105	0xba3487be	-0.0006886682
106	0x39922fd4	0.00027882925
107	0x3a443012	0.00074839697
108	0x3c7f9733	0.015600014
109	0x3be431a4	0.0069639254
110	0xbcc2ecc3	-0.023794537
111	0xb9533db4	-0.00020145514
112	0x39c6d0e3	0.00037921136
113	0x3dc97a61	0.09837795
114	0x3dbfa1f3	0.09357061
115	0xbd6e94d5	-0.058247406
116	0xba07a3ed	-0.0005174268
117	0x394341b8	0.00018621131
118	0x3d8bd8a4	0.0682843
119	0x3e389083	0.18023877
120	0xbdd7bb34	-0.10533753
121	0xba5beb41	-0.00083892426
122	0x370c0595	8.34595e-06
123	0x3a479ca4	0.0007614589
124	0x3e0e48cc	0.13894957
125	0xbc560baa	-0.013064304
126	0xba95f54e	-0.0011440904
127	0xbaaa20ec	-0.0012979782
128	0xba7d2dc4	-0.00096580037
129	0xba28f1ef	-0.00064447423
130	0xbcee3e16	-0.02908234
131	0xbc307969	-0.010771134
132	0xbaad3b91	-0.0013216605
133	0xba3f20e3	-0.0007290972
134	0xba309248	-0.0006735665
135	0xbd03390e	-0.032036833
136	0xbc2cac85	-0.010539179
137	0xb9ce1778	-0.00039308867
138	0xb9f84298	-0.00047351862
139	0xb9b2a48f	-0.0003407341
140	0xba300ec0	-0.0006716065
141	0xbb40c888	-0.00294164
142	0xb995f175	-0.00028599394
143	0xba69fc98	-0.0008925884
144	0xb957f468	-0.00020595046
145	0xb9c21e9f	-0.00037025378
146	0xbae8919d	-0.0017743591
147	0xbac5d527	-0.0015093432
148	0xba312284	-0.00067571574
149	0xb770026c	-1.4305679e-05
150	0x3d89ac32	0.06722297
151	0x3dc066b4	0.09394589
152	0x3aff3626	0.0019471094
153	0x3ae21943	0.001724996
154	0x3adc2a1d	0.0016797219
155	0x3b31f6c1	0.0027155133
156	0x3d3fe80e	0.046852164
157	0x3b03bd82	0.002010197
158	0x3a927fb6	0.0011176977
159	0x3af79951	0.0018890296
160	0xb6f362ad	-7.2534517e-06
161	0x3ba8e8db	0.0051547117
162	0x3b00accd	0.0019634247
163	0x3a909abf	0.0011032446
164	0x3af98587	0.0019036987
165	0x3a8ff5ac	0.001098325
166	0x3b998dd5	0.004686097
167	0x3b7e19d3	0.0038772717
168	0x3b7b998a	0.0038391077
169	0x3b2c4832	0.002628815
170	0x3a431e84	0.0007443207
171	0x3b0b37ad	0.0021242902
172	0x3b882d84	0.0041558165
173	0x3bf093a3	0.0073418184
174	0x3ad54488	0.0016271034
175	0xbc5db858	-0.0135327205
176	0xb94da31f	-0.00019611091
177	0xb7fc651f	-3.008783e-05
178	0xbaf7bd4f	-0.0018901023
179	0xbb7b9291	-0.003838692
180	0xbca4a36b	-0.020097455
181	0xbbaca817	-0.0052690613
182	0xb9ef58b4	-0.0004565172
183	0xba465cf9	-0.00075669546
184	0xbb0a8a69	-0.0021139628
185	0xbd906883	-0.07051184
186	0xbc1e22d7	-0.009651861
187	0xbb2aa660	-0.0026039109
188	0xbb002e79	-0.001955895
189	0xbb4ab55d	-0.0030930855
190	0xbc96e9fd	-0.018422121
191	0xbc18dc3f	-0.0093298545
192	0xbb8fd70d	-0.0043896497
193	0xbae79771	-0.0017669034
194	0xbb6712d3	-0.0035259023
195	0xbe23066f	-0.15920423
196	0xbc719ea6	-0.014747297
197	0xbc0d3e97	-0.00862088
198	0xbba5eb17	-0.0050634253
199	0xbbb7e9f8	-0.005612608
200	0xbf0defc7	-0.55443996
201	0xbeebce77	-0.46055958
202	0xbe808310	-0.25099993
203	0xbb92ec9e	-0.0044837734
204	0xbbb1c46d	-0.005425027
205	0xbdda88f5	-0.10670654
206	0xbba03b10	-0.0048898533
207	0xbb4dd1ab	-0.003140549
208	0xbbee839c	-0.0072788727
209	0xbdb0dbb3	-0.08635654
210	0xbb73301b	-0.003710753
211	0xbb91465f	-0.0044334377
212	0xbd2f7423	-0.042835366
213	0xbd558c56	-0.052135788
214	0xbd1b7e71	-0.03796238
215	0xbc185018	-0.00929644
216	0xbd99b73d	-0.07505653
217	0xbcdada2a	-0.026715357
218	0xbc411154	-0.0117839165
219	0xbc8b1f33	-0.01698265
220	0xbb9a6241	-0.00471142
221	0xbb950a9d	-0.0045483843
222	0xbba80032	-0.0051269764
223	0xbba5f051	-0.0050640483
224	0xbc132724	-0.0089815
225	0xbb53907c	-0.0032282164
226	0xbb06566f	-0.0020498296
227	0x3a6fafec	0.0009143341
228	0x3c10e822	0.008844407
229	0x3e19c7dd	0.15017648
230	0xba8dc7b8	-0.0010816967
231	0x3a10290e	0.00054992817
232	0x3a8d6e83	0.0010790381
233	0x3df4d3d0	0.119544625
234	0x3ac3dc68	0.0014943006
235	0x3ab2baac	0.0013635955
236	0x3b08871c	0.0020832485
237	0x3e87cb49	0.26522282
238	0x3aba2ceb	0.001420406
239	0x3a5f4f17	0.000851856
240	0x3e10b2bc	0.14130682
241	0x3d9f9757	0.07792538
242	0x3b109110	0.002205912
243	0xbac94b2f	-0.001535749
244	0xbd85ebe7	-0.065391354
245	0x3e6a7934	0.22897798
246	0x3b24aef6	0.00251287
247	0x3aa41f7a	0.0012521588
248	0xbae66fec	-0.0017580963
249	0xbbe7851b	-0.007065428
250	0x39e27631	0.0004319414
251	0x3a9f319e	0.0012145524
252	0x3b8fe874	0.0043917242
253	0x3bd55212	0.0065100277
254	0x3be09540	0.0068537295
255	0x3a906130	0.0011015292

2.bias f4 [16]
0	0xbe3f1b88	-0.18662846
1	0xbe9abbcc	-0.30221403
2	0x3e868847	0.26275846
3	0x3e0397f5	0.12850936
4	0xbda840c8	-0.08215481
5	0xbc1e17d7	-0.009649239
6	0x3ea39434	0.31949008
7	0x3dad95f7	0.08475869
8	0xbda9f860	-0.08299327
9	0xbe92d27f	-0.2867622
10	0xbd9f5ad0	-0.07780993
11	0xba20c476	-0.00061327906
12	0xbdadea8b	-0.08492001
13	0x3d22d26d	0.03975146
14	0xbe1a25dc	-0.15053505
15	0xbd4a9a23	-0.049463402

4.weight f4 [16, 16, 4, 4]
0	0xb99d2a89	-0.00029977065
1	0xbb496508	-0.0030730385
2	0xbb6ffaa1	-0.0036617892
3	0xb9c408ee	-0.00037390686
4	0xb9b7c7ac	-0.00035053247
5	0xbb19419b	-0.0023385051
6	0xbb5bcd9e	-0.0033539305
7	0xbb2a4bce	-0.0025985125
8	0xb941c49f	-0.00018479161
9	0xbb0a9b1c	-0.0021149581
10	0xbb1ae020	-0.0023632124
11	0xbb1fae3a	-0.0024365322
12	0xbab5c357	-0.001386742
13	0xba89677c	-0.0010483111
14	0xbaf543a4	-0.0018712175
15	0xba4c6587	-0.0007797111
16	0xbb05f75f	-0.0020441634
17	0xbc1a3fbe	-0.009414611
18	0xbb8b061b	-0.004242671
19	0xbb6f8c22	-0.0036552032
20	0xbbfbf617	-0.0076892483
21	0xbc256493	-0.01009478
22	0xbbadf417	-0.005308639
23	0xbb809809	-0.003924374
24	0xbb91710f	-0.0044385265
25	0xba842670	-0.0010082256
26	0xbb0be600	-0.0021346807
27	0xbab50a23	-0.0013812225
28	0xbb13f42c	-0.0022575958
29	0xbb438d95	-0.0029839028
30	0xbb2a2d81	-0.0025967064
31	0xba7f0166	-0.00097276864
32	0xbb19c9b8	-0.002346618
33	0xbb1c2291	-0.0023824314
34	0xbb21077f	-0.0024571118
35	0xbb1fbaca	-0.002437281
36	0xbb392021	-0.002824791
37	0xbb3595bc	-0.0027707657
38	0xbb4341d0	-0.0029793866
39	0xbb56fce8	-0.0032804552
40	0xbaf2b963	-0.0018518384
41	0xbae7840b	-0.0017663253
42	0xbb1f8cab	-0.002434532
43	0xbb1daed1	-0.0024060498
44	0xb96fc835	-0.00022867399
45	0xb9f22068	-0.0004618198
46	0xba44f97c	-0.0007513983
47	0xba587bf9	-0.00082582195
48	0x3b31d7d8	0.002713671
49	0x3ac689bf	0.0015147253
50	0x3ad17470	0.0015980136
51	0x3acf3f1b	0.0015811654
52	0x3b00e36d	0.0019666806
53	0x3aebcaad	0.0017989479
54	0x3ad6a9a9	0.0016377467
55	0x3aaa9608	0.0013014683
56	0x39e08303	0.0004282222
57	0x37e22dd8	2.6962647e-05
58	0xba641c60	-0.0008701738
59	0xbab46cdd	-0.0013765354
60	0xbba42fc0	-0.005010575
61	0xbc36ce88	-0.011157639
62	0xbbe7b1f0	-0.0070707723
63	0xbbe2e355	-0.0069240727
64	0xbaf05c15	-0.001833799
65	0x3816a2f0	3.5914534e-05
66	0xbac4ee81	-0.0015024693
67	0xba5de631	-0.0008464782
68	0xba9c0f74	-0.0011906461
69	0xb8b802e5	-8.774343e-05
70	0xbb516e89	-0.0031956753
71	0xb7daf80b	-2.610313e-05
72	0xbb4bd1a0	-0.0031100288
73	0xbb27744a	-0.0025551491
74	0xbaf48ba1	-0.0018657335
75	0xba6a71e1	-0.0008943361
76	0xbb335a0e	-0.002736691
77	0xbb1c6827	-0.002386579
78	0x3965ecfc	0.00021927425
79	0xba1dbbd6	-0.00060170644
80	0x3b39c15c	0.002834401
81	0x3b15cfed	0.002285953
82	0x3b03b4ab	0.00200967
83	0x3b045e45	0.002019779
84	0x3789ee7c	1.6442726e-05
85	0xb95f939a	-0.00021321923
86	0xba39ecf4	-0.00070924987
87	0xba8fbbbe	-0.0010965986
88	0xb91c22b6	-0.0001489025
89	0xb90fbd4b	-0.0001370806
90	0xb936e66a	-0.00017442708
91	0xbab267ca	-0.0013611254
92	0xba29919a	-0.00064685347
93	0xb8becb0f	-9.0977286e-05
94	0xb9eca897	-0.00045139037
95	0xb9f01942	-0.00045795186
96	0xbb154db4	-0.002278191
97	0xbb21143e	-0.0024578716
98	0xbb17dc74	-0.0023172172
99	0xbb333052	-0.0027342034
100	0xbadd3e77	-0.0016879578
101	0xbb167b2a	-0.0022961595
102	0xbb176b20	-0.0023104623
103	0xbb29fe67	-0.002593899
104	0xbaf4f4ee	-0.0018688717
105	0xbb3c7600	-0.0028756857
106	0xbb3cf364	-0.0028831596
107	0xbb1d2040	-0.0023975521
108	0xbac588e1	-0.00150707
109	0xba90f462	-0.001105916
110	0xba963be1	-0.0011461937
111	0xba087740	-0.0005205758
112	0xbac1c85b	-0.0014784442
113	0xba6ec68a	-0.0009108564
114	0xba4f4414	-0.0007906568
115	0xb9bd0387	-0.00036051517
116	0xbb2fbb30	-0.0026814453
117	0xbb5c9631	-0.0033658857
118	0xba85a90f	-0.0010197478
119	0x3939ec87	0.00017731088
120	0xb91fc2d3	-0.00015236
121	0xbb058dd5	-0.0020378728
122	0xba3bfbc2	-0.0007170999
123	0xba525c79	-0.0008024644
124	0xb9c5cfe9	-0.00037729673
125	0xba711240	-0.000919614
126	0xb999d3b4	-0.00029340165
127	0xbb0184be	-0.0019762958
128	0x3d9002f5	0.07031814
129	0x3d9e7f87	0.07739168
130	0x3da8e78b	0.08247288
131	0x3dc4c1be	0.09607266
132	0x3d8edb70	0.06975448
133	0x3da2b85d	0.07945321
134	0x3dffc4df	0.12488722
135	0x3d9eb9ac	0.07750258
136	0x3e01de08	0.12682354
137	0x3dcc12bb	0.0996451
138	0x3e0a6e21	0.13518573
139	0x3e18d0a2	0.14923337
140	0x3d8df4ca	0.069314554
141	0x3d8d7b0b	0.06908234
142	0x3daa0ceb	0.08303245
143	0x3da32948	0.07966858
144	0xbb77f683	-0.0037836141
145	0xbbada22c	-0.0052988734
146	0xbbec6bff	-0.0072150226
147	0xbbe5f1b9	-0.007017341
148	0xba8b5654	-0.0010630586
149	0xba965a33	-0.0011470973
150	0xba6396bb	-0.00086818234
151	0xba69ad9d	-0.0008914115
152	0xb7beebec	-2.2759625e-05
153	0x38c2dbac	9.291558e-05
154	0xb8305abe	-4.204618e-05
155	0x3933fd2f	0.00017165089
156	0x3a953853	0.0011384584
157	0x3a857440	0.001018174
158	0x3a8f5f34	0.0010938407
159	0x3a906c54	0.0011018612
160	0x3e82a843	0.25518999
161	0x3e431674	0.19051534
162	0x3e1e6a0c	0.15470141
163	0x3e4107be	0.1885061
164	0x3e5133c6	0.20429906
165	0x3e56de6f	0.20983289
166	0x3e422963	0.189611
167	0x3e703884	0.23459059
168	0x3e2c0a3e	0.16800782
169	0x3e0dec5d	0.13859697
170	0x3e3682e4	0.17823368
171	0x3e379cb8	0.17930877
172	0x3e4c5fe4	0.19958454
173	0x3e5395d4	0.20662624
174	0x3e589517	0.21150623
175	0x3e2e8b88	0.17045414
176	0xbb03a6eb	-0.0020088505
177	0xbb096cff	-0.0020969508
178	0xbb0621cf	-0.002046693
179	0xbb0cd508	-0.0021489281
180	0xbab4fb69	-0.0013807836
181	0xbad18990	-0.0015986431
182	0xbaea6910	-0.0017884094
183	0xbb02363e	-0.0019868757
184	0xba6213ec	-0.00086241844
185	0xba76a70c	-0.0009409047
186	0xba9b0272	-0.001182629
187	0xbaa8ef0e	-0.0012888627
188	0x39dfe6b5	0.00042705765
189	0x3a15638b	0.0005698732
190	0x3a04e305	0.0005069229
191	0x395f91a4	0.00021321193
192	0xba4c7d43	-0.0007800648
193	0xba0043d1	-0.0004892918
194	0xb9815173	-0.00024665482
195	0xba286bf5	-0.0006424778
196	0xbb0dfd68	-0.0021665934
197	0xba587cb6	-0.00082583295
198	0x3834ac31	4.307571e-05
199	0x3926a138	0.00015891052
200	0xbb23f1cb	-0.0025015946
201	0xba7cbd87	-0.0009641279
202	0x39fc9b22	0.00048180768
203	0xba775da2	-0.00094362546
204	0xb87c27e7	-6.0118644e-05
205	0x3a683005	0.0008857253
206	0x3a81d8d6	0.0009906541
207	0xb9fec5fa	-0.0004859416
208	0xb99b5b06	-0.00029631722
209	0xbb34c89f	-0.00275854
210	0x3adf55f9	0.0017039172
211	0xb9efc717	-0.00045733966
212	0x39b8c981	0.00035245347
213	0xbb45a860	-0.0030160174
214	0x39c3a947	0.0003731942
215	0xb8a1b73d	-7.711209e-05
216	0x39e7bcf3	0.00044200532
217	0xbb5fbbd9	-0.0034139066
218	0xba40192d	-0.000732797
219	0x3a289fb0	0.00064324867
220	0x3a52101b	0.0008013264
221	0xbab9e35c	-0.0014182138
222	0xb9ea4fb1	-0.00044691333
223	0x3ac4e27b	0.001502111
224	0x3a10da22	0.00055256684
225	0x39971271	0.00028814704
226	0x3a61dd2d	0.00086160266
227	0x3a2eb5c5	0.0006664659
228	0x3a40f1d4	0.0007360254
229	0xb95c79a9	-0.00021026157
230	0x39dca075	0.0004208122
231	0x3a773d37	0.0009431424
232	0x3af37c97	0.0018576559
233	0x3a28e3fd	0.00064426643
234	0x3ab6ae87	0.0013937511
235	0x3af77186	0.0018878437
236	0x3b1966cf	0.0023407226
237	0x3a915556	0.0011088054
238	0x3ae9cf5e	0.001783829
239	0x3aa48c28	0.0012553977
240	0xbb06fc52	-0.0020597172
241	0xbb86855c	-0.004105253
242	0xbbc485f6	-0.0059974147
243	0xbc0e1be7	-0.008673645
244	0xbb263155	-0.0025358994
245	0xbaf6daed	-0.0018833556
246	0xbaa61862	-0.0012672062
247	0xbbfe1f60	-0.007755205
248	0xba94020f	-0.0011292117
249	0xbafbed98	-0.0019220589
250	0xbaf2130c	-0.0018468811
251	0xba7e734b	-0.0009706511
252	0xba413422	-0.0007370134
253	0xba939da8	-0.0011262195
254	0xba99e228	-0.0011740373
255	0xb8693211	-5.5598157e-05

4.bias f4 [16]
0	0xbbce653f	-0.0062986906
1	0xbbf1b883	-0.007376732
2	0xbe6f1862	-0.23349145
3	0xbc11bcfa	-0.008895153
4	0x3d21a63f	0.039465185
5	0x3b66bc06	0.0035207286
6	0xbbbe540f	-0.0058083604
7	0xbcfd48e2	-0.030918542
8	0xbe323fc5	-0.17407139
9	0x3c8799aa	0.016552765
10	0xbbfcf737	-0.0077199
11	0x3e730c96	0.2373527
12	0xbdcf7ec9	-0.10131604
13	0xbc284b77	-0.0102718985
14	0x3eb4c7d7	0.35308716
15	0x3ee36abe	0.44417375

7.weight f4 [128, 784]
0	0xba43ee56	-0.00074741745
1	0x39c97af9	0.0003842933
2	0x3a04def8	0.00050686253
3	0xbb12bef9	-0.002239166
4	0xba149e43	-0.0005669335
5	0xb940dfdf	-0.00018393945
6	0x3984005c	0.0002517727
7	0x3c709b2d	0.014685434
8	0x3ac93de3	0.0015353527
9	0x3a979ff7	0.0011568059
10	0x3ab15f78	0.001353248
11	0xbb9dab59	-0.004811686
12	0x3a860464	0.0010224697
13	0x3b1be281	0.002378613
14	0x38fdc5a0	0.000121007906
15	0x3c1d620a	0.009605894
16	0x3c314fc5	0.010822241
17	0x3a189c7d	0.00058216584
18	0x3abfe1ac	0.0014639399
19	0x3b2d474e	0.0026440206
20	0x3a7aee0f	0.00095722167
21	0x3a353b1f	0.0006913412
22	0x3bb8185b	0.005618138
23	0xb92093de	-0.00015313874
24	0xb9d300a9	-0.00040245548
25	0xb9b5fea9	-0.00034712747
26	0xb81a4f2d	-3.67902e-05
27	0xb9914f7a	-0.0002771577
28	0xbd0d8d3d	-0.034558523
29	0xb8dd69e7	-0.00010557827
30	0x39b33d15	0.0003418705
31	0x3a6000fe	0.000854507
32	0x3901006b	0.00012302554
33	0x3ad21780	0.0016028732
34	0x3b418936	0.0029531247
35	0x3bc0f799	0.005888891
36	0x3ba2f41c	0.0049729478
37	0x3b179276	0.002312807
38	0x3a2607cb	0.00063335587
39	0xbaac43d0	-0.0013142768
40	0x3add7c60	0.0016898029
41	0x3ac99390	0.001537906
42	0xba38442a	-0.00070292
43	0x3aeb294d	0.0017941386
44	0x3b16dd8c	0.0023020236
45	0xb8f26e59	-0.00011560013
46	0x3a885da5	0.0010403885
47	0x3a66c2f1	0.0008802852
48	0xb8b62247	-8.684821e-05
49	0xbc3fc408	-0.011704452
50	0x38369147	4.352748e-05
51	0x395a7def	0.00020837014
52	0xba1a625b	-0.000588929
53	0x3aab42bf	0.0013066157
54	0x39c80433	0.000381501
55	0xba7447f5	-0.0009318584
56	0xba3247fe	-0.0006800889
57	0x39f26e20	0.00046239886
58	0xbbd106b1	-0.0063789715
59	0xb9661568	-0.00021942484
60	0xba8553a0	-0.0010172017
61	0xbbad0ac7	-0.005280826
62	0x3a50a85e	0.0007959659
63	0x38354c9e	4.3225118e-05
64	0x39ade0c1	0.00033164586
65	0x37b9a1e8	2.2129112e-05
66	0xb992df16	-0.00028013502
67	0x3d101722	0.03517831
68	0x3a2a489a	0.0006495804
69	0xb9049f9e	-0.00012647963
70	0x3b40126b	0.0029307853
71	0x3a0bf7f7	0.0005339379
72	0xb88d682d	-6.742808e-05
73	0xb99c7534	-0.00029841962
74	0x392f0bca	0.00016693692
75	0x39b9b699	0.00035421996
76	0xbb7a675d	-0.0038208582
77	0xb89ba132	-7.421001e-05
78	0x3a56475f	0.0008174087
79	0x3a3a9f49	0.0007119072
80	0x39f4d597	0.00046698443
81	0x39e6ec8f	0.00044045268
82	0x39c10ad4	0.00036819896
83	0xb950b2be	-0.00019903012
84	0x3996a84d	0.00028735623
85	0x39a7b50e	0.00031987618
86	0x3bd2f494	0.0064378474
87	0x3a098539	0.0005245987
88	0x3a64d33e	0.00087289873
89	0x38d4d9bd	0.00010149505
90	0x398b5d61	0.0002658172
91	0xb954e719	-0.00020303986
92	0x38c41dd3	9.3515635e-05
93	0xba387ec1	-0.0007037931
94	0x3c1b0b58	0.009463154
95	0x39c9ea06	0.0003851207
96	0xba552e19	-0.0008132174
97	0xbc846d5e	-0.016165432
98	0x3a9460f3	0.0011320397
99	0x3afa67ab	0.0019104382
100	0x3a88fdc9	0.001045161
101	0x3a4d6750	0.0007835524
102	0x3b6f270e	0.0036491784
103	0x3bc7f20e	0.006101853
104	0x3becced2	0.0072268033
105	0x37046b93	7.89286e-06
106	0x39dffe1b	0.00042723198
107	0x3aa71c58	0.0012749536
108	0x3906eeec	0.00012868241
109	0x3af478d7	0.0018651736
110	0x3c83915d	0.016060526
111	0x3b99335f	0.0046753134
112	0x39a55d33	0.0003154069
113	0x3a63439b	0.0008669437
114	0xbb327d66	-0.0027235388
115	0xbbea20d6	-0.0071450276
116	0xb99ecb56	-0.00030287605
117	0xba6998fd	-0.00089110417
118	0xb92bf619	-0.0001639951
119	0x3a5a721a	0.00083330425
120	0x3a8528a7	0.001015921
121	0x3b107bd7	0.002204647
122	0x3ac60731	0.0015108344
123	0x3abd0c00	0.0014423132
124	0x3bd4b11b	0.006490839
125	0x3ab1ffbb	0.0013580242
126	0xb887c691	-6.4742875e-05
127	0xbac39d31	-0.0014924166
128	0xbbcefd6e	-0.0063168323
129	0xbbc774f4	-0.00608694
130	0xba86b0f8	-0.001027613
131	0x393828dd	0.0001756283
132	0xba06d1c2	-0.00051429507
133	0x39df4174	0.0004258264
134	0x3a2d40db	0.00066090905
135	0x39e1c88d	0.00043064766
136	0x3ae4a1cc	0.0017443239
137	0xba84c268	-0.0010128738
138	0x39bbb6ab	0.00035803518
139	0x3985f89b	0.00025552962
140	0x3a8884d7	0.0010415566
141	0x3a81461f	0.0009862817
142	0x3ac975c6	0.0015370182
143	0x3a1adf9d	0.0005907955
144	0x3a51c29f	0.0008001718
145	0x3b610af0	0.0034338795
146	0x3c0415ae	0.008061809
147	0x39f78b0f	0.00047215118
148	0x3a518576	0.00079926045
149	0xb80eb23e	-3.402144e-05
150	0x3a10e5c5	0.00055274024
151	0xbbbfbe6b	-0.005851557
152	0xb8ed56b7	-0.000113171925
153	0x3994c32c	0.00028374174
154	0xb9983f8b	-0.00029039042
155	0x3a8b16cd	0.0010611654
156	0xbbb3e3aa	-0.005489786
157	0x3ac552aa	0.0015054543
158	0x394f93d2	0.00019796126
159	0x39a6b661	0.0003179787
160	0x395df5c3	0.00021167756
161	0x3a6c754e	0.00090201653
162	0x3b016349	0.0019743016
163	0x39fb332f	0.00047912585
164	0x397caf93	0.00024097999
165	0x39255ed0	0.00015770947
166	0x3a4a54cd	0.0007718325
167	0x39643106	0.00021762037
168	0x3a01a70d	0.0004945852
169	0x3a4c4943	0.0007792899
170	0x390fc4bf	0.00013710836
171	0x3986863e	0.0002565849
172	0x3726b394	9.936182e-06
173	0xb889b9cf	-6.5672786e-05
174	0x39a27ff1	0.00030994372
175	0x37e139be	2.6848978e-05
176	0x3976b3b3	0.00023527331
177	0x39a0e129	0.00030685336
178	0xb797abfd	-1.8080691e-05
179	0x3a8106ce	0.0009843947
180	0x393d96f6	0.00018080682
181	0x3a7358e6	0.0009282961
182	0x3a4b0fbb	0.00077461795
183	0x394db73f	0.00019618588
184	0xb8b17619	-8.462015e-05
185	0x3b526612	0.0032104296
186	0x3a89b309	0.0010505627
187	0x39031f4c	0.00012504793
188	0x3b541d37	0.0032366046
189	0xbcbe6480	-0.023241282
190	0xb97665b5	-0.00023498277
191	0x39b0c73d	0.0003371778
192	0x399d29f6	0.00029976637
193	0x3a19fb51	0.0005873936
194	0x38ec26d1	0.00011260587
195	0xbb239b31	-0.0024964327
196	0x399e7e2e	0.0003023012
197	0x39ffd05a	0.00048792624
198	0x3a1d2760	0.0005994942
199	0x39696704	0.00022258988
200	0x38aa9145	8.13329e-05
201	0x391886bf	0.00014546046
202	0x3aac253d	0.0013133656
203	0x39633178	0.00021666836
204	0x396d6d0a	0.00022642702
205	0x3a11539a	0.00055437686
206	0x3990ec2c	0.00027641782
207	0xb9b58406	-0.00034621375
208	0x3915c036	0.00014281351
209	0x38a4d8a7	7.860484e-05
210	0x3a0e7cb0	0.000543545
211	0x383db322	4.5227942e-05
212	0x38bfe4a9	9.150181e-05
213	0x3aa624b0	0.0012675729
214	0x3aeaeec1	0.0017923937
215	0x395ed2b8	0.00021250069
216	0x389a470f	7.356528e-05
217	0x39b98e14	0.00035391806
218	0xb8dd74c4	-0.000105598505
219	0xb89b86a2	-7.416053e-05
220	0x3840ac49	4.593682e-05
221	0x38e3e015	0.00010865942
222	0x39aae6b5	0.00032596817
223	0x3a890360	0.0010453276
224	0x3940ac6f	0.00018374783
225	0xb90229ae	-0.00012413293
226	0xb98cc549	-0.0002684987
227	0xb95b9d59	-0.00020944084
228	0xb9d6f233	-0.00040997713
229	0x3a36f4cb	0.0006979226
230	0x3a24c8d4	0.0006286029
231	0x3927defe	0.00016009432
232	0xb9ebaba2	-0.0004495057
233	0xb9b6d736	-0.0003487409
234	0xb9d1b671	-0.00039999516
235	0xb98d4df3	-0.00026951692
236	0x3921f1dc	0.00015444256
237	0x399beee7	0.000297419
238	0xb9732279	-0.00023187128
239	0xb9ea24ea	-0.0004465946
240	0xba1f0d60	-0.00060673617
241	0xb9c7d3f3	-0.00038114152
242	0xb8e7eee6	-0.00011059437
243	0x395ed1c4	0.00021249714
244	0x3a17aabb	0.00057856337
245	0xbb80eb67	-0.003934312
246	0xbb42c5be	-0.0029719914
247	0x39f9411e	0.00047541497
248	0xb8c18f64	-9.229666e-05
249	0xb91c05d6	-0.00014879493
250	0x3bcd3423	0.0062623187
251	0x3bf493e2	0.007463918
252	0xbbb92e80	-0.005651295
253	0xbbca786b	-0.0061789057
254	0xbb07109f	-0.0020609272
255	0xbc10fb99	-0.008849048

7.bias f4 [128]
0	0xbcd1d381	-0.025613548
1	0xbbfe8883	-0.0077677383
2	0x3b1a70e4	0.0023565823
3	0xbd9b2e25	-0.07577161
4	0xbe527543	-0.20552544
5	0xbe8d12d5	-0.2755343
6	0x3bb1ad74	0.0054222886
7	0x3dbed5f0	0.09318149
8	0x3bb64a12	0.005563029
9	0x3b3d07a9	0.0028843677
10	0xbb1a941e	-0.002358682
11	0xbe339736	-0.17538151
12	0xbb9bb810	-0.0047521666
13	0xbbf249ce	-0.007394052
14	0xbc06cfd5	-0.008228262
15	0x3b055d13	0.0020349666
16	0x3b6cade3	0.0036114387
17	0xbc72cab9	-0.014818841
18	0xbe92a904	-0.28644574
19	0x3dee1926	0.116258904
20	0xbbb2e2c8	-0.0054591633
21	0xbccba1c6	-0.024857413
22	0x3e8207da	0.25396615
23	0xbe7f8a65	-0.24955137
24	0x3d4021e0	0.046907306
25	0x3d02b97e	0.03191518
26	0x3d4fde11	0.05074889
27	0x3c8a5dcf	0.016890435
28	0xbd75c639	-0.060003493
29	0x3eb8923e	0.36049074
30	0x3e59a773	0.21255283
31	0xbadb4c48	-0.0016731108
32	0x393ecf82	0.00018197115
33	0x3c12c034	0.008956958
34	0x3c295d93	0.010337251
35	0xbc816ad3	-0.015798008
36	0x3e334fb7	0.17510878
37	0x3e346df2	0.17620066
38	0xbbbe6407	-0.005810264
39	0xb9c3f4a0	-0.00037375558
40	0xbe40930d	-0.18806095
41	0xbefec418	-0.49758983
42	0xbc7365a0	-0.014855772
43	0x3c02717b	0.007961626
44	0x3b51d419	0.003201729
45	0xbd81993a	-0.06328054
46	0xbdcb6ee5	-0.09933261
47	0xbbf556de	-0.007487162
48	0x3c438dff	0.01193571
49	0xbbedd799	-0.0072583673
50	0x3be5ba76	0.0070107533
51	0x3e30675e	0.17226931
52	0x376453e5	1.3609392e-05
53	0xbc25b1c6	-0.010113185
54	0x3de32114	0.110902935
55	0x3eb88dd4	0.36045706
56	0xbe3266a4	-0.17421967
57	0xbb3e4fe3	-0.0029039315
58	0x3d674b03	0.05646802
59	0x3a2a04a1	0.0006485675
60	0x3ba49b72	0.0050234133
61	0x3bad55e4	0.00528978
62	0xbe308292	-0.17237309
63	0x3ab66f43	0.0013918657
64	0xbae2cff9	-0.0017304412
65	0x3b4b180c	0.0030989675
66	0xba3e0046	-0.00072479656
67	0x39e134ee	0.0004295478
68	0xbb149de1	-0.002267711
69	0xbab0dce3	-0.0013493564
70	0xbc482a7c	-0.01221716
71	0xbe4095d2	-0.18807152
72	0x3c3fcf52	0.011707144
73	0x3b20d4e9	0.0024540967
74	0xbba5582e	-0.005045912
75	0x3c016f41	0.00790006
76	0x3bc876b3	0.0061176657
77	0x3b9e9ba6	0.004840332
78	0xbc0894a2	-0.008336218
79	0xbb93cf75	-0.004510815
80	0xbb5a3626	-0.0033296435
81	0xbeace7e7	-0.33770677
82	0xbae6a657	-0.001759718
83	0xbb8952b0	-0.0041907653
84	0x3ee71519	0.45133284
85	0xbb469450	-0.0030300803
86	0xbc030263	-0.0079961745
87	0x3af303e7	0.0018540592
88	0xbd207b80	-0.03918028
89	0xbbd9f34a	-0.006651317
90	0xbb0571e5	-0.0020362076
91	0xbb2b0e42	-0.0026101028
92	0x3adf5cf6	0.0017041254
93	0xbc250441	-0.010071815
94	0x3ea984f8	0.3310926
95	0xbc1d7fc5	-0.009612982
96	0xbd579280	-0.052629948
97	0x3b361955	0.0027786095
98	0x38b09b0b	8.421213e-05
99	0x3bc073a7	0.005873162
100	0x3c159fa4	0.0091323
101	0xbafdd2ae	-0.0019365156
102	0x3cd47f6e	0.02593967
103	0x3e3f41b3	0.18677406
104	0xb8b73c16	-8.737312e-05
105	0x3b8ffedc	0.0043943953
106	0xbb4b363c	-0.0031007668
107	0xbaad9953	-0.0013244547
108	0x3813f051	3.5271343e-05
109	0xbbbd8ba6	-0.0057844697
110	0xbbdae693	-0.0066803186
111	0xbef45ac5	-0.47725502
112	0x3e1c5d39	0.15269937
113	0xbbbcef83	-0.0057658567
114	0xbbd48738	-0.006485846
115	0xbb336568	-0.0027373675
116	0x3c2fd943	0.010732952
117	0x3a5dbbea	0.00084584823
118	0xbe63bfe6	-0.22241172
119	0x3b0b52d7	0.0021259093
120	0xbd8f335b	-0.06992217
121	0xbd64094d	-0.055672932
122	0x3e63d9cd	0.22251053
123	0x3ad35eab	0.0016126236
124	0x3be031f9	0.0068418947
125	0xbeab326f	-0.33436915
126	0xbbe7284b	-0.007054364
127	0xbc3c9a6f	-0.011511429

8.weight f4 [10, 128]
0	0xba0b5a23	-0.00053158606
1	0x3b2a6204	0.0025998363
2	0x3a674deb	0.00088235614
3	0x3ad8fcfd	0.0016554889
4	0x39f830b0	0.0004733852
5	0xba65f60f	-0.00087723223
6	0xbc13c61e	-0.009019403
7	0x3af5c4d7	0.001875068
8	0xb971b45c	-0.0002305074
9	0x3b94d625	0.0045421296
10	0x3a5528b9	0.00081313733
11	0x3e0d9c07	0.13829051
12	0x3995ce2c	0.00028573105
13	0xbb0d5134	-0.0021563293
14	0x39e4e274	0.0004365627
15	0xba2e58c6	-0.00066508015
16	0xba250087	-0.0006294329
17	0x3a98ca46	0.0011656962
18	0xbb26bdb9	-0.0025442673
19	0xb9b2e7c1	-0.00034123476
20	0xb999c959	-0.0002933245
21	0xbaeec2ea	-0.0018216048
22	0xbe5b3fee	-0.21411106
23	0xbb71a6af	-0.0036873033
24	0xba035e18	-0.00050112745
25	0xbaf19fae	-0.0018434429
26	0xbb8fc360	-0.004387304
27	0xba0db7cf	-0.0005406113
28	0xba639f5d	-0.000868311
29	0x3b6bd729	0.00359864
30	0xbae40a24	-0.0017398042
31	0x3a1a8667	0.00058946613
32	0x3b0aa874	0.0021157535
33	0xbaaea59c	-0.0013324502
34	0xb78d77d2	-1.6864306e-05
35	0xbac26851	-0.0014832114
36	0xba47ff66	-0.0007629305
37	0xbb7dd699	-0.0038732646
38	0x39a9893a	0.00032336434
39	0x3a26ab82	0.0006357954
40	0xbb0b2bb1	-0.002123576
41	0xbae0bced	-0.0017146148
42	0x3b0a376e	0.0021090168
43	0xbafadc82	-0.0019139203
44	0xba23e82d	-0.00062525534
45	0xbb26f90e	-0.0025478038
46	0x3a78cfdc	0.00094914227
47	0x3a9acd6e	0.001181049
48	0xba3ad345	-0.00071268185
49	0x3c02a647	0.007974214
50	0xba77a622	-0.0009447058
51	0x3b424934	0.0029645683
52	0x3bd53f12	0.0065077627
53	0xb986edbc	-0.00025735598
54	0xbb6d7276	-0.0036231554
55	0x38dfbdf3	0.000106688494
56	0x3a989b59	0.0011642977
57	0xb9a332b9	-0.00031127574
58	0xba589e69	-0.0008263351
59	0x39c5a232	0.00037695613
60	0xba97e6e9	-0.0011589202
61	0x3a085981	0.00052013254
62	0x3b571a64	0.0032822127
63	0x39889af2	0.00026055385
64	0xba47f375	-0.00076275255
65	0xbb0f3509	-0.002185168
66	0xba6c7966	-0.00090207753
67	0x392f2b5f	0.00016705458
68	0xbb975fc7	-0.004619572
69	0x3a0c815f	0.0005359854
70	0x3902a5b1	0.00012459491
71	0x3aa6b6f9	0.0012719325
72	0xba2df08b	-0.000663527
73	0xb9e245ca	-0.00043158076
74	0xbb173655	-0.0023073156
75	0xbb595794	-0.0033163773
76	0xb9f16364	-0.00046041154
77	0xba003394	-0.0004890498
78	0xba861887	-0.0010230698
79	0x399438a5	0.00028270963
80	0x398d742d	0.00026980173
81	0xba4f65e1	-0.00079116045
82	0xba72b9e5	-0.0009259268
83	0xbb096ef9	-0.0020970686
84	0x3aacc9e7	0.001318273
85	0x38484f3b	4.7757505e-05
86	0x3a3019e8	0.00067177275
87	0xbbe8fe19	-0.007110369
88	0x3aab5ed3	0.0013074524
89	0x3b05611e	0.0020352076
90	0x385dc492	5.2873576e-05
91	0xbb47a971	-0.0030465985
92	0xbbbdfd00	-0.005797982
93	0xba9248ad	-0.0011160575
94	0xbb0e3635	-0.002169979
95	0x3ac2c33c	0.001485921
96	0xbab6c8a0	-0.0013945289
97	0xbaacec2e	-0.0013192946
98	0xba1943a0	-0.0005846564
99	0xb98839cb	-0.00025983
100	0xbb272922	-0.0025506695
101	0x3c40e5a6	0.011773502
102	0xb4750a4f	-2.2821153e-07
103	0x3bfc7011	0.007703789
104	0x3be58643	0.0070045306
105	0x3a819e95	0.000988918
106	0x3a292092	0.0006451692
107	0x3a7e6d34	0.00097056036
108	0x3aff2682	0.0019466432
109	0xba2b11e5	-0.0006525799
110	0x3959f45b	0.00020785762
111	0xb69ad81e	-4.614717e-06
112	0xbd4d7dd1	-0.050168816
113	0xbba0b78f	-0.0049046944
114	0xba11aef8	-0.00055573834
115	0x3af31f05	0.0018548673
116	0x38e7ae79	0.000110474364
117	0xba053863	-0.00050819496
118	0xbb78176e	-0.0037855762
119	0xb7fcbfae	-3.0129999e-05
120	0x3ad4304c	0.001618871
121	0xbb2b816c	-0.002616967
122	0xb76af2a0	-1.4003977e-05
123	0xbb20317c	-0.0024443557
124	0xbb025712	-0.0019888324
125	0x3e9531b1	0.29139474
126	0x386f3131	5.7027853e-05
127	0x3bb720fe	0.00558865
128	0xba1bac88	-0.000593849
129	0xbaff6033	-0.0019483626
130	0x3b2ceda1	0.0026386755
131	0xbb91dc7b	-0.004451332
132	0xb99833e3	-0.00029030358
133	0xbe940408	-0.28909326
134	0x3bdfd9b5	0.0068313726
135	0x3acd2d58	0.0015653772
136	0x3a7d9650	0.00096735824
137	0xba6c233f	-0.00090079376
138	0x3b4fdc96	0.0031717173
139	0x3a044b77	0.00050466455
140	0xb8fc89b3	-0.00012041945
141	0x3bfd93a4	0.0077385474
142	0x3b06d86d	0.0020575777
143	0xbac9bdd5	-0.0015391657
144	0x39a0c99a	0.00030667783
145	0xbad7bfb1	-0.0016460327
146	0xbb0c4ce9	-0.0021408147
147	0xbb3867f5	-0.0028138135
148	0xb99d651f	-0.00030020715
149	0x3a35b653	0.00069317705
150	0x3a44d0db	0.00075079285
151	0xbd8d2d44	-0.06893399
152	0xbae69a49	-0.0017593588
153	0xbb31b88f	-0.0027118062
154	0x3b3910d3	0.0028238788
155	0xbbd8c700	-0.0066155195
156	0xbb3cdc6a	-0.00288179
157	0x3caac523	0.020845955
158	0xba95a61b	-0.0011417301
159	0x3b6c72a5	0.0036079076
160	0x3b0afbb1	0.0021207149
161	0xbc18b45d	-0.009320346
162	0x3786d786	1.6074406e-05
163	0xbb32acf4	-0.0027263733
164	0x3a454fb5	0.0007526831
165	0xba8c2c24	-0.0010694307
166	0x3b18fffe	0.0023345943
167	0x3af85c79	0.0018948457
168	0xbb05185a	-0.0020308704
169	0xbd573f77	-0.05255076
170	0x3baee949	0.0053378684
171	0xbab194a7	-0.001354833
172	0x3a27676d	0.0006385956
173	0xbb206e8b	-0.0024479951
174	0xba5d6d77	-0.00084467925
175	0xba7a3eb4	-0.00095460867
176	0xbbf17f14	-0.007369885
177	0xbb8aaa55	-0.004231731
178	0xb94ff6fd	-0.00019833069
179	0x3acb1c01	0.0015496017
180	0xbb888883	-0.004166664
181	0x3a5c98a3	0.00084150786
182	0x3b4e70d9	0.0031500368
183	0x3b441d62	0.002992474
184	0x3b3bd7f0	0.0028662644
185	0x3c1419d9	0.009039366
186	0x3a556443	0.00081402453
187	0xba2ccd06	-0.000659183
188	0x3a813846	0.000985869
189	0xb9fd8d5d	-0.00048361244
190	0x3abc1920	0.001435075
191	0xb98e3ec3	-0.00027131112
192	0x3a826b58	0.0009950204
193	0xba3bf34d	-0.00071697385
194	0x3abcbc01	0.0014399291
195	0x3c693c2e	0.014235539
196	0x3c62cbd6	0.013842544
197	0x3a9f2d71	0.001214428
198	0xbacdcc35	-0.0015701117
199	0xbac3856f	-0.0014917086
200	0xbb3bc75d	-0.0028652765
201	0x39f18a89	0.0004607032
202	0x39f0d058	0.00045931595
203	0x3aaf9714	0.0013396465
204	0xb9d5a429	-0.00040748835
205	0x3a07321c	0.0005157308
206	0x39fa8b89	0.00047787678
207	0x3b5fef3c	0.0034169694
208	0xb912df75	-0.00014006889
209	0xbe9eba41	-0.31001475
210	0xbaa20630	-0.0012361463
211	0xbaafa433	-0.0013400376
212	0x3e2b31f7	0.16718279
213	0x3bf86b1f	0.007581129
214	0x398b3119	0.00026548727
215	0x3bccb65e	0.006247326
216	0x3ac285ce	0.0014840902
217	0xbadc69f9	-0.001681625
218	0xbab25393	-0.0013605229
219	0x3aad351d	0.0013214682
220	0x3b8f205a	0.0043678703
221	0x3a26e103	0.0006365927
222	0xbabbf9b9	-0.0014341391
223	0xba4ac869	-0.0007735552
224	0x3af0a63a	0.0018360086
225	0xb9d7b7ff	-0.00041145083
226	0x3bbf0a67	0.0058300975
227	0x3a339e8f	0.0006851935
228	0x3a7388b3	0.0009290084
229	0xbc2df835	-0.010618259
230	0x3a587498	0.000825712
231	0xb944b464	-0.00018759217
232	0xbb92ddb2	-0.0044819945
233	0xba1ea141	-0.00060512504
234	0x3b5362c0	0.0032254905
235	0x3a140365	0.0005646258
236	0x3aef8971	0.0018275214
237	0x3a6d63c4	0.0009055699
238	0x3b43eea5	0.0029896882
239	0xb9bb644c	-0.00035742146
240	0x3a830550	0.000999609
241	0x3b6e1023	0.0036325536
242	0xbbf9fbf0	-0.0076289102
243	0x3a7eddbc	0.0009722372
244	0xb997342a	-0.0002883983
245	0xbb564e94	-0.0032700645
246	0xbb3f733b	-0.002921297
247	0xba2fba34	-0.00067034666
248	0xbadd74fc	-0.0016895826
249	0xba118465	-0.00055510394
250	0x3a1375cc	0.0005625158
251	0xbbbc3b2b	-0.005744358
252	0xba0aad61	-0.00052901177
253	0xba2180dd	-0.0006160865
254	0xba85cd79	-0.001020833
255	0xbb5f39e6	-0.003406161

8.bias f4 [10]
0	0xbe827bd4	-0.25485098
1	0x3e4173cd	0.1889183
2	0xbdedb535	-0.11606828
3	0x3dab4f83	0.08364775
4	0x3e55311b	0.20819513
5	0x3e3d07a7	0.1845995
6	0xbd6afd82	-0.05737067
7	0xbe2bb281	-0.16767313
8	0xbe109eb3	-0.14123039
9	0x3d31aa5c	0.043375358
