project_networks/new_sabr/cifar10_cnn_3layer_k5_w1_sabr.onnx (onnx, 113040 bytes, 10 tensors)

0.weight f4 [4, 3, 5, 5]
0	0x3c0e7b67	0.008696414
1	0x3d57b937	0.05266687
2	0x3dfd3470	0.12363517
3	0x3c07ee71	0.008296595
4	0x3ccce208	0.025010124
5	0x3b56e7ec	0.0032792045
6	0x3e115456	0.14192328
7	0x3e89e453	0.2693201
8	0x3d882b12	0.0664884
9	0x3b110512	0.0022128266
10	0xbae24c86	-0.0017265237
11	0xbada170a	-0.0016638946
12	0xbab85a57	-0.0014065009
13	0xbac259d0	-0.0014827792
14	0xbacc0cc2	-0.0015567767
15	0xbc91bf15	-0.01779131
16	0xbea24465	-0.31692806
17	0xbeed6961	-0.4636946
18	0xbe17d82c	-0.14828557
19	0xbd937b5b	-0.072012626
20	0xbacd5efa	-0.0015668564
21	0xba98ee0c	-0.0011667623
22	0xba980ce6	-0.0011600524
23	0xbab37e0b	-0.001369418
24	0xbaf659b9	-0.001879505
25	0xba9521cf	-0.0011377874
26	0xba9b5584	-0.0011851047
27	0x3cae8c95	0.02130727
28	0xba8eda58	-0.0010898812
29	0xba8e55b1	-0.0010859278
30	0x3c0ecb82	0.008715512
31	0x3dd18a70	0.10231483
32	0x3e3de012	0.18542507
33	0x3d4c6786	0.049903415
34	0x3c316752	0.010827856
35	0xbab43e0c	-0.0013751402
36	0xba9c69bd	-0.0011933368
37	0xba92ee88	-0.0011210004
38	0xbaa4099f	-0.0012515074
39	0xbab32bd2	-0.0013669676
40	0xbb396878	-0.0028291028
41	0xbe71e43f	-0.23622225
42	0xbead9814	-0.3390509
43	0xbde43650	-0.11143172
44	0xbcd4bb84	-0.02596832
45	0xbab2b7a2	-0.0013635049
46	0xba81a503	-0.0009891096
47	0xba870655	-0.001030157
48	0xba989967	-0.0011642397
49	0xbafd8a3b	-0.0019343564
50	0xba8d5d43	-0.001078524
51	0x3e0e0e55	0.13872655
52	0x3e896e45	0.2684194
53	0x3c94751c	0.018122248
54	0x3d0d5eff	0.034514423
55	0xb98f66d0	-0.00027351687
56	0x3e4579b0	0.19284701
57	0x3ed25cfb	0.41086563
58	0x3e0eb2f7	0.13935457
59	0xba5c028e	-0.00083927147
60	0xbac77875	-0.0015218394
61	0xbad34a80	-0.0016120225
62	0xba9c5230	-0.0011926349
63	0xbaaa2095	-0.0012979681
64	0xbaa4829a	-0.0012551129
65	0xbb2488b0	-0.0025105886
66	0xbea69e7b	-0.32542786
67	0xbea09b6c	-0.31368577
68	0xbdd18b0f	-0.102316014
69	0xbcf44fb6	-0.029823165
70	0xba2cd2a5	-0.0006592668
71	0xb9e4684c	-0.00043565256
72	0xb8a56ada	-7.887716e-05
73	0xba3807d0	-0.0007020207
74	0xbab658d4	-0.0013911971
75	0xba967aab	-0.001148065
76	0xba997288	-0.0011707107
77	0xba8bcbf3	-0.001066564
78	0xba7cb333	-0.000963974
79	0xba8d1829	-0.0010764647
80	0xba77a553	-0.00094469375
81	0xba981b3b	-0.0011604795
82	0xba8bebd2	-0.0010675138
83	0xba107ed6	-0.0005512064
84	0xba4589d6	-0.0007535493
85	0xba9f15ed	-0.0012137272
86	0xbaa34076	-0.0012455124
87	0xba954548	-0.0011388445
88	0xba41925b	-0.00073841744
89	0xba59bd78	-0.0008306126
90	0xbaaab489	-0.0013023774
91	0xbab61820	-0.0013892688
92	0xbabb77d2	-0.0014302677
93	0xbaa23e7b	-0.001237824
94	0xbaa7c170	-0.0012798738
95	0xbaa9fcdb	-0.0012969034
96	0xbab896af	-0.0014082993
97	0xbab0146b	-0.0013433819
98	0xbaa24c0a	-0.001238228
99	0xbaaf8923	-0.001339231
100	0xba592f8b	-0.00082849775
101	0xba5dc9b4	-0.0008460537
102	0xba89f36f	-0.0010524819
103	0xba8dd49f	-0.0010820812
104	0xba9e31f5	-0.0012069332
105	0xba475077	-0.0007603238
106	0xba36877b	-0.0006962937
107	0xba361f41	-0.0006947406
108	0xba5b44c7	-0.00083644356
109	0xba5c5f0d	-0.00084064977
110	0xba23d496	-0.00062496343
111	0xba1d063d	-0.0005990004
112	0xba1465c5	-0.0005660917
113	0xba327993	-0.0006808277
114	0xba61230a	-0.000858829
115	0xba4fe0f8	-0.00079299463
116	0xba43331c	-0.00074462756
117	0xba3efd23	-0.0007285645
118	0xba5a7120	-0.0008332897
119	0xba7b1141	-0.0009577461
120	0xba612442	-0.00085884717
121	0xba576e4b	-0.0008218034
122	0xba54e281	-0.000812091
123	0xba83e20c	-0.0010061874
124	0xba639288	-0.00086811977
125	0x38651b7f	5.4623462e-05
126	0x398b3869	0.00026554175
127	0x390c73fe	0.00013394651
128	0xb87b1073	-5.9858383e-05
129	0x38d29e20	0.000100430334
130	0x3a903ba9	0.0011004108
131	0x3aaf8d18	0.001339349
132	0x3d9f8e2e	0.077907905
133	0x3ebc65f5	0.36796537
134	0x3a9f36fe	0.0012147126
135	0x3a7d52a4	0.00096634985
136	0x3a8e8713	0.0010873995
137	0x3e8011d7	0.2501361
138	0x3f0ebbf6	0.55755556
139	0x3cf1ab90	0.029500753
140	0x3b084fc6	0.0020799502
141	0x3aa11c11	0.001229169
142	0x3aa2e57c	0.0012428011
143	0x3e34c7b5	0.17654307
144	0x3a867b08	0.0010260055
145	0x3995a6e0	0.00028543826
146	0x392d3774	0.00016519224
147	0x390de2f5	0.00013531356
148	0x39e426e0	0.00043516513
149	0x398c5739	0.00026767867
150	0x3a2ccc6c	0.00065917405
151	0x3a64e96f	0.0008732294
152	0x3a3f9841	0.00073087594
153	0x39fb6f39	0.00047957318
154	0x39205630	0.00015290896
155	0x3a02d328	0.0004990571
156	0x3a2115fa	0.00061449374
157	0x3a48466a	0.0007639887
158	0x3a3b85ae	0.0007153404
159	0x39cef603	0.00039474675
160	0x3a4092b4	0.0007346079
161	0x3a50df4a	0.0007967843
162	0x3e26b335	0.162793
163	0x3a3b496f	0.00071444263
164	0x3a10a54b	0.00055177946
165	0x3a292934	0.0006452978
166	0x3decc3d0	0.11560786
167	0x3f019a95	0.506265
168	0x3d27458c	0.04083781
169	0x3a01dbf9	0.0004953738
170	0x3a20d768	0.00061356137
171	0x3a92d906	0.0011203594
172	0x3e831485	0.25601593
173	0x3a6374a4	0.00086767436
174	0x39e54440	0.00043729134
175	0x3a248219	0.00062754896
176	0x3a4662ef	0.0007567843
177	0x3a199e97	0.00058601185
178	0x39a0069d	0.00030522505
179	0x39020ac9	0.00012401784
180	0x3a0fe2e1	0.00054888247
181	0x3a2d8abb	0.0006620099
182	0x3a14ab75	0.0005671301
183	0x39703c04	0.00022910541
184	0xb8c33b23	-9.30934e-05
185	0x3a082f34	0.0005195022
186	0x3a2665cc	0.00063475664
187	0x3a41905b	0.00073838764
188	0x39abc613	0.00032763238
189	0x38cc6b1f	9.747431e-05
190	0x3a2472ac	0.0006273191
191	0x3a3c7f57	0.0007190606
192	0x3a6ed3a5	0.0009110517
193	0x3a0acb22	0.00052945514
194	0x397f2afb	0.00024334707
195	0x39ab37d9	0.0003265727
196	0x3a32b925	0.000681775
197	0x3a730e48	0.00092718424
198	0x39edb2cf	0.00045337385
199	0x39941103	0.00028241434
200	0x38af88d3	8.370136e-05
201	0x399b75b8	0.0002965161
202	0x39c314a9	0.0003720869
203	0xb7729a79	-1.446029e-05
204	0xb9f95975	-0.00047559632
205	0xb926514a	-0.00015861276
206	0x390c6e68	0.0001339257
207	0x3896edcf	7.196853e-05
208	0xb9a3c881	-0.0003123917
209	0xba2e110f	-0.0006640115
210	0xb910225e	-0.00013745713
211	0x38719fd3	5.7607725e-05
212	0x38d1bfd6	0.00010001629
213	0xb9ec1831	-0.00045031452
214	0xba592de6	-0.00082847325
215	0xb90d5311	-0.00013477753
216	0x3834bc99	4.309099e-05
217	0x39b473d7	0.00034418583
218	0xb97c80ed	-0.00024080621
219	0xba51ac23	-0.00079983677
220	0xb95eeec4	-0.00021260517
221	0xb7d4132c	-2.5281297e-05
222	0x39bb5b07	0.0003573524
223	0xb91ba99a	-0.00014845133
224	0xba4f9d0d	-0.0007919826
225	0x39a91f66	0.00032257586
226	0x3a63b6b6	0.0008686589
227	0x3a9fe468	0.0012198808
228	0x3acdf0d6	0.0015712033
229	0x3a92734a	0.0011173275
230	0x3a034039	0.00050068233
231	0x3a6b0c84	0.00089664035
232	0x3ad525d4	0.0016261884
233	0x3d808da7	0.06277018
234	0x3aacca53	0.0013182856
235	0x39f35968	0.00046415185
236	0x3a3edf31	0.0007281183
237	0x3aa9391d	0.0012910698
238	0x3d0e1852	0.034691162
239	0x3aa2ae02	0.0012411478
240	0x399bcb68	0.00029715453
241	0x3a0e7daa	0.00054355955
242	0x3a76b53d	0.0009411162
243	0x3ab6df07	0.0013951965
244	0x3a9024e8	0.0010997327
245	0x397b6c3b	0.00023977544
246	0x3991a566	0.00027779787
247	0x3a4d230f	0.00078253535
248	0x3a76ce0b	0.0009414858
249	0x3a6f3d79	0.00091262866
250	0x3ac2b352	0.0014854467
251	0x3af06216	0.0018339779
252	0x3b236a79	0.0024935289
253	0x3c53aead	0.012920064
254	0x3ace56b1	0.0015742389
255	0x3a9b6c7a	0.001185789

0.bias f4 [4]
0	0xbe4d3743	-0.20040612
1	0xbed29303	-0.41127786
2	0xbe75cdc1	-0.2400427
3	0xbe1c712f	-0.15277551

2.weight f4 [8, 4, 5, 5]
0	0xba8b27c0	-0.0010616705
1	0xba8a589d	-0.0010554973
2	0xbace58a0	-0.0015742965
3	0xbae8c5f5	-0.0017759191
4	0xbac9f72e	-0.0015408748
5	0xba98492b	-0.0011618485
6	0xba744705	-0.0009318444
7	0xba4b3f3f	-0.000775326
8	0xba7ff72c	-0.00097643095
9	0xba7ec0bd	-0.00097180513
10	0xbac5289c	-0.001504201
11	0xba9d3889	-0.0011994998
12	0xbaa53d7c	-0.0012606825
13	0xbaca783e	-0.0015447212
14	0xbacf6e44	-0.0015825708
15	0xbb239544	-0.0024960795
16	0xbaf80c31	-0.0018924532
17	0xbb25cb8d	-0.0025298328
18	0xbb10cb21	-0.002209373
19	0xbb0f5f42	-0.0021876846
20	0xbb2b62ac	-0.0026151342
21	0xbb4af58c	-0.0030969111
22	0xbb224cf7	-0.0024765113
23	0xbb402e3e	-0.0029324437
24	0xbb3d6631	-0.0028900022
25	0x3bd0186a	0.0063505666
26	0x3c05d3ab	0.008168141
27	0x3c2e4629	0.010636845
28	0x3c51017f	0.012756704
29	0x3ad58952	0.0016291535
30	0x3e8ffe43	0.28123674
31	0x3e6d5bac	0.23179501
32	0x3df67667	0.12034302
33	0x3e26e72c	0.16299123
34	0x3e5dcb13	0.21659498
35	0x3cb775cd	0.022395039
36	0x3a1324da	0.00056130963
37	0x3dacd0b2	0.08438243
38	0x3d346ec9	0.044050965
39	0x3a736431	0.0009284644
40	0x3cf8411e	0.030304488
41	0xb8def1af	-0.00010630802
42	0xb8d8719f	-0.00010320846
43	0x3a0013ad	0.00048857444
44	0x39932dd9	0.00028072184
45	0x37d63cbd	2.5539071e-05
46	0x38134c20	3.5118428e-05
47	0xb760eb9e	-1.3406299e-05
48	0xb8aa4bb2	-8.120331e-05
49	0x37ba1f5f	2.2187536e-05
50	0xbd439843	-0.04775263
51	0xbd566613	-0.05234344
52	0xbda36341	-0.079779156
53	0xbd1ca17e	-0.03823995
54	0xbde9ffba	-0.11425729
55	0xbae9db06	-0.0017841763
56	0xbaf05a01	-0.001833737
57	0xbaeaa4c2	-0.0017901885
58	0xbab9a4c1	-0.001416348
59	0xbaf0ed7d	-0.0018381324
60	0xbb6f808b	-0.0036545123
61	0xbd3184fc	-0.043339714
62	0xbb1fbd18	-0.0024374183
63	0xbc95b7bb	-0.018276086
64	0xbd50799b	-0.050897222
65	0xbb421e56	-0.0029620132
66	0xbce45ab7	-0.027875287
67	0xbafa802a	-0.0019111682
68	0xbad83da1	-0.0016497859
69	0xbce56dc5	-0.028006444
70	0xbb2adebd	-0.0026072704
71	0xbb0c2f75	-0.0021390591
72	0xbaea53b7	-0.0017877732
73	0xbab80bf1	-0.0014041645
74	0xbad361e5	-0.0016127197
75	0xbaaad52d	-0.0013033502
76	0xbaacd09f	-0.0013184733
77	0xbac18309	-0.0014763783
78	0xbabe5244	-0.0014520367
79	0xbaea1b43	-0.0017860908
80	0xbaa52c91	-0.0012601783
81	0xba98d447	-0.0011659943
82	0xbaa5d94a	-0.0012653258
83	0xbaa2c07b	-0.0012416983
84	0xba93dd04	-0.0011281078
85	0xbaa598a0	-0.0012633987
86	0xba9e90e5	-0.0012097625
87	0xbaa164af	-0.0012313331
88	0xbaa10ea2	-0.0012287686
89	0xba9a8362	-0.0011788423
90	0xbac373ef	-0.001491187
91	0xbaaaa0d6	-0.0013017904
92	0xbaa6f6c6	-0.0012738339
93	0xbaabf70d	-0.0013119892
94	0xbaaf73cb	-0.001338595
95	0xbabbf8c7	-0.0014341109
96	0xbaadc623	-0.0013257902
97	0xbaafafb4	-0.0013403804
98	0xbaae58df	-0.0013301632
99	0xbab769f9	-0.0013993374
100	0xbdede141	-0.116152294
101	0xbe262422	-0.16224721
102	0xbabc76ff	-0.0014378725
103	0xba78f73e	-0.0009497291
104	0x39f63617	0.00046961076
105	0xbd04bb8f	-0.032405432
106	0xbd5b75dc	-0.053579196
107	0xbad50aa5	-0.0016253783
108	0xb96c085a	-0.00022509825
109	0x3a8e3676	0.0010849971
110	0xbd296997	-0.041360464
111	0xbaec90bf	-0.0018048509
112	0xba35e5db	-0.0006938853
113	0xb9ca8aac	-0.0003863176
114	0xb9c90142	-0.00038338645
115	0xbd80656a	-0.06269343
116	0xbbb626dc	-0.0055588316
117	0x393d0a9f	0.00018028401
118	0x39b5edbe	0.00034700142
119	0xbc3a0cdf	-0.011355608
120	0xbc8f07db	-0.0174598
121	0xbbbe394c	-0.00580517
122	0x3a2a217b	0.00064899743
123	0x3988b614	0.000260756
124	0xbdffb6a4	-0.12486008
125	0x3e2dc66b	0.16970222
126	0x3a6c02d4	0.0009003107
127	0x39d8fcb8	0.0004138702
128	0xb9253226	-0.00015754308
129	0xbe8734d6	-0.26407498
130	0x3e975b7f	0.29561993
131	0x3a8df79c	0.001083124
132	0x3a039558	0.00050195074
133	0xb8ec5e54	-0.00011270927
134	0xbeae4959	-0.34040335
135	0x3eabf3ce	0.33584446
136	0x3aa4a768	0.0012562098
137	0x3a2f908c	0.00066972594
138	0x39621232	0.00021559818
139	0xbe806377	-0.25075886
140	0x3ebab497	0.36465904
141	0x3abbe774	0.0014335946
142	0x3a8a7659	0.0010563835
143	0x3a3c590f	0.00071849016
144	0xb9d26b0c	-0.00040134077
145	0x3d8c9d12	0.06865896
146	0x3aebe8c8	0.0017998451
147	0x3ac0b9e9	0.0014703843
148	0x3aac81b9	0.0013161219
149	0xbebb03b8	-0.36526275
150	0x3e0a55d3	0.13509302
151	0x3c2c8b8d	0.010531318
152	0x3a8b8b2b	0.0010646334
153	0x395e8eb0	0.00021224725
154	0xbd9acce0	-0.07558608
155	0x3d94a466	0.07257919
156	0x3c6b7568	0.014371254
157	0x3a91215e	0.0011072566
158	0x39d6544d	0.0004088007
159	0xbceaa3bf	-0.028642533
160	0x3da77bbd	0.08177898
161	0x3b86139d	0.0040916936
162	0x3aa71c83	0.0012749586
163	0x3a0ec001	0.0005445481
164	0xba7f4855	-0.00097382563
165	0x3d1338d1	0.035942856
166	0x3b0ec6b5	0.002178592
167	0x3ac4114e	0.001495877
168	0x3a251173	0.00062968506
169	0xb9bcd624	-0.00036017701
170	0x3cf7ff69	0.030273156
171	0x3b245fd8	0.0025081541
172	0x3acc75fe	0.0015599129
173	0x3a1e2d33	0.0006033957
174	0xb976590c	-0.00023493561
175	0x3a9483ee	0.0011330822
176	0x3a5eabaa	0.0008494208
177	0x39b36faa	0.00034224737
178	0xbb4a601e	-0.0030880044
179	0xbd8a711f	-0.067598574
180	0x3c7a8ef5	0.015292873
181	0x3a8c49fc	0.0010703201
182	0x3a1d6216	0.00060036907
183	0xb951b919	-0.00020000747
184	0xbd4bf878	-0.049797505
185	0x3d1511b0	0.03639382
186	0x3a9a41a3	0.0011768829
187	0x3a38d6b0	0.0007051034
188	0xba032e95	-0.00050041947
189	0xbdba57e9	-0.09098799
190	0x3d3632eb	0.044482153
191	0x3aa259de	0.0012386402
192	0x3a5885d0	0.0008259686
193	0xb941e2e1	-0.00018490433
194	0xbd36c1be	-0.04461836
195	0x3c5b4327	0.01338271
196	0x3ac8277d	0.0015270557
197	0x3ab4c5b1	0.0013791827
198	0x38b66bc2	8.698508e-05
199	0xbdeecef8	-0.1166057
200	0x3a3cebe4	0.00072067813
201	0x3a9d57e3	0.0012004342
202	0xb96e3a31	-0.00022719127
203	0xbb19e722	-0.0023483713
204	0xbb6f4caf	-0.0036514213
205	0x39eaf5da	0.00044815132
206	0x38ff7cbd	0.00012182582
207	0xb9e32b31	-0.00043328994
208	0xba7c876e	-0.00096332177
209	0xbb6c1450	-0.003602285
210	0xb76bbc1e	-1.4050891e-05
211	0xb9b9199a	-0.00035305024
212	0xb9246425	-0.00015677566
213	0xb9d59cca	-0.00040743343
214	0xba965e7e	-0.0011472253
215	0x384473b9	4.6837817e-05
216	0x36290a2b	2.518888e-06
217	0xb9f3f787	-0.00046532994
218	0xba3bef6a	-0.00071691594
219	0xba7fb33e	-0.0009754187
220	0xbbcd9562	-0.0062739113
221	0xbd8d453d	-0.06897972
222	0xbaa8e30f	-0.0012885052
223	0xbaa12752	-0.0012295044
224	0xbafbd983	-0.0019214604
225	0xbe184f92	-0.14874104
226	0xbab0ce7a	-0.0013489269
227	0x3981bb4f	0.00024744353
228	0x3a35673a	0.0006919984
229	0x3b8e5b85	0.004344406
230	0xbde40194	-0.111331135
231	0xb973b4fd	-0.0002324171
232	0x39a4c6b1	0.00031428554
233	0x3ab1fb4b	0.001357892
234	0x3e5e4b51	0.21708418
235	0xbf06826e	-0.5254277
236	0xb8890db3	-6.535221e-05
237	0x3a0261e6	0.00049736944
238	0x3c27bd55	0.010238011
239	0x3e9baaba	0.30403692
240	0xbee60450	-0.44925165
241	0xb8b4c7d6	-8.620291e-05
242	0x3a19bf8f	0.0005865031
243	0x3a745f7b	0.0009322089
244	0x3e9566a1	0.29179862
245	0xbd5dcac2	-0.054148443
246	0xb91d6821	-0.00015011478
247	0x3a22f3e5	0.00062161527
248	0x3a5be355	0.0008388062
249	0x3e749233	0.23883896
250	0xbe022f51	-0.12713362
251	0xbd85a8c5	-0.06526331
252	0xbb3af7a2	-0.0028528948
253	0xba232738	-0.00062238006
254	0x3c24dfa8	0.010063089
255	0xbd652e99	-0.055952642

2.bias f4 [8]
0	0x3c2f3a75	0.01069509
1	0xbe3d185d	-0.18466325
2	0xbd0076bb	-0.03136323
3	0xbc0c318b	-0.008556734
4	0xbd88f307	-0.06686979
5	0xbca1f094	-0.019768037
6	0xbe5605b3	-0.20900612
7	0xbacbdca7	-0.001555343

4.weight f4 [8, 8, 4, 4]
0	0xbb37a97f	-0.0028024612
1	0xbcabb92a	-0.020962317
2	0xbd03e515	-0.03220089
3	0xbb9df964	-0.0048209894
4	0xbadb634e	-0.0016737969
5	0xbb032543	-0.0020011223
6	0xbb220281	-0.002472073
7	0xbb0d1136	-0.002152515
8	0xbacc81e9	-0.0015602681
9	0xbaaf95d7	-0.0013396096
10	0xba980dd3	-0.00116008
11	0xba44c732	-0.0007506489
12	0xbaec360e	-0.0018021481
13	0xbac2d7a5	-0.0014865292
14	0xbaa430ec	-0.0012526787
15	0xba40d070	-0.00073552784
16	0xbb079eab	-0.0020693939
17	0x3b0c8b3f	0.0021445302
18	0xbb108cfa	-0.0022056685
19	0xbb01f436	-0.00198294
20	0xbb8199b4	-0.0039550904
21	0x394b7dc8	0.00019406446
22	0xbb019c21	-0.0019776898
23	0xbab103a3	-0.0013505112
24	0xbb934425	-0.0044942074
25	0xbb1dd1c5	-0.0024081331
26	0xbb11db6b	-0.0022256027
27	0xbac259f5	-0.0014827835
28	0xbb549a33	-0.0032440543
29	0xbaae9b97	-0.0013321516
30	0xba971c2b	-0.001152878
31	0xbac504fe	-0.0015031395
32	0xb9c1ff45	-0.0003700202
33	0xb9a31b8e	-0.00031110313
34	0xb9f5798b	-0.00046820598
35	0xba494fa5	-0.00076794095
36	0xba4249d0	-0.00074115116
37	0xba06fdee	-0.0005149533
38	0xba5b16f2	-0.0008357606
39	0xb9a3248a	-0.00031117006
40	0xb9bc83a2	-0.00035956228
41	0xb9cbeecd	-0.00038897098
42	0xba794ce2	-0.00095100526
43	0xba2a0c4b	-0.0006486817
44	0xb62ec052	-2.6039966e-06
45	0xba88599d	-0.0010402683
46	0xb9e4cd88	-0.00043640682
47	0xba44bc8d	-0.0007504903
48	0xbd97b1c1	-0.07406951
49	0xbe09005b	-0.13379042
50	0xbdf53d8a	-0.11974628
51	0xbe64c3c4	-0.22340304
52	0xbe485d1e	-0.19566771
53	0xbd956e59	-0.07296438
54	0xbce7aa29	-0.02827938
55	0xbc80eaf1	-0.015737029
56	0xb9c16c67	-0.00036892595
57	0xb92ae202	-0.00016296658
58	0xb9bbb3be	-0.00035801338
59	0xb9ba8865	-0.00035578306
60	0x361dc3e2	2.3508842e-06
61	0x3898aed1	7.280487e-05
62	0xb7a904df	-2.0148638e-05
63	0xb8dcc61c	-0.00010527318
64	0x3d2b625c	0.04184185
65	0x3de6c05a	0.11267157
66	0x3d965393	0.07340159
67	0x3e0034ae	0.12520096
68	0x3da87b1a	0.08226605
69	0x3d93ef7a	0.07223411
70	0x3d6b28e2	0.057412036
71	0x3da9dd80	0.08294201
72	0x3df70bcb	0.12062796
73	0x3da1890a	0.07887466
74	0x3ddf43d7	0.10901611
75	0x3dd2de4a	0.102963045
76	0x3e4d687b	0.20059387
77	0x3e03ccae	0.12871048
78	0x3e094124	0.13403755
79	0x3e31e51d	0.17372556
80	0xba080820	-0.0005189199
81	0xbacd57eb	-0.001566646
82	0xba9edc8e	-0.0012120174
83	0xb9e33324	-0.00043334917
84	0xbae99efa	-0.0017823868
85	0xbaf69bce	-0.0018814744
86	0xbac2f159	-0.0014872953
87	0xb9b86842	-0.00035172893
88	0xbb27be4b	-0.0025595601
89	0xbb0eb6dc	-0.0021776473
90	0xbaba2e28	-0.001420443
91	0xba08ee60	-0.0005223509
92	0xbb0ae574	-0.0021193894
93	0xbb04005b	-0.0020141813
94	0xbb0de419	-0.002165085
95	0xba55fab2	-0.00081626617
96	0x3d861e53	0.06548753
97	0x3d19e835	0.037574966
98	0x3d56342f	0.05229586
99	0x3cab4830	0.020908445
100	0x3cb4f681	0.022090198
101	0x3c6a5f81	0.0143049965
102	0x3c02d804	0.007986072
103	0x3b0750b3	0.0020647466
104	0x3a7b3118	0.00095822057
105	0x3a886fb0	0.0010409262
106	0x39df1f0a	0.00042557
107	0x39b0f1eb	0.0003374958
108	0xbb59ffa0	-0.0033263937
109	0xbb747366	-0.0037300228
110	0xbb7d2473	-0.0038626462
111	0xbb8dec81	-0.004331172
112	0xb9db2547	-0.0004179871
113	0x39e82e4d	0.00044284985
114	0xb9d3ab7b	-0.0004037282
115	0xba122f8d	-0.00055765436
116	0x37db9b7e	2.6179241e-05
117	0x39690801	0.00022223593
118	0x3a5ab706	0.00083433127
119	0xba19a00b	-0.0005860335
120	0xba712066	-0.0009198248
121	0xba82bcd0	-0.0009974483
122	0xbabbcc9a	-0.0014327944
123	0xbaa0b1b8	-0.0012259996
124	0xbaf50fe3	-0.0018696751
125	0xbaef08dc	-0.0018236893
126	0xbafe5ce4	-0.0019406346
127	0xbafa6fcf	-0.0019106808
128	0x3c62d9f8	0.013845913
129	0x3b931a3e	0.0044892123
130	0x3b1a762b	0.0023568969
131	0x3b13abf7	0.002253292
132	0x3ba9f5b2	0.00518676
133	0x3b804c5a	0.003915352
134	0x3b1e1fb9	0.0024127795
135	0x3b043089	0.002017053
136	0x3ba90eae	0.0051592207
137	0x3b89a690	0.004200764
138	0x3b3f6dc9	0.0029209724
139	0x3b14eea6	0.0022725253
140	0x3ca291e1	0.019844951
141	0x3b97ee32	0.0046365494
142	0x3b446e5c	0.0029973006
143	0x3b3294a3	0.002724924
144	0x3db6385f	0.08897471
145	0x3dab1edb	0.083554946
146	0x3da206f2	0.07911481
147	0x3d634309	0.05548385
148	0x3da7310e	0.08163653
149	0x3d9f0a9e	0.07765697
150	0x3dce064a	0.10059793
151	0x3ddba213	0.107242726
152	0x3ccd2980	0.025044203
153	0x3d1e058c	0.03857951
154	0x3d33a75e	0.043860786
155	0x3cc957ea	0.024578054
156	0x3e175ffd	0.1478271
157	0x3e15054b	0.145528
158	0x3e176c44	0.14787394
159	0x3e1003cc	0.14063948
160	0xba736c9a	-0.0009285897
161	0xbaf958d2	-0.0019023663
162	0xbcdfdf4e	-0.02732816
163	0xbcd3b809	-0.02584459
164	0xba107e85	-0.0005512017
165	0xbaa333af	-0.0012451316
166	0xbd023650	-0.031790078
167	0xbd46a6ec	-0.048499033
168	0x3a3fb5d6	0.00073131674
169	0xba3b7d61	-0.0007152167
170	0xbc155528	-0.009114541
171	0xbcc70db6	-0.02429853
172	0x3b23a235	0.002496851
173	0x39b4629d	0.00034405748
174	0xbc4ef7ee	-0.012632353
175	0xbd72ceb4	-0.05927916
176	0x3dddbde4	0.108272344
177	0x3aaf1652	0.0013358092
178	0x3a19cad0	0.0005866708
179	0xba24aae2	-0.0006281567
180	0x3e141674	0.1446169
181	0x3c0abe78	0.008468263
182	0x3a4453e2	0.0007489306
183	0xb98e33ad	-0.00027122852
184	0x3e28f7cb	0.16500776
185	0x3cea4450	0.028597027
186	0x3a5fa8ed	0.0008531947
187	0xb9234e88	-0.00015574147
188	0x3e4ed46f	0.20198224
189	0x3d8f0a0f	0.069843404
190	0x3a95b18d	0.0011420712
191	0x39981092	0.00029004045
192	0x3aa25bcc	0.0012386977
193	0x3b22e3c2	0.0024854993
194	0x3b6caef2	0.0036115018
195	0x3b60dfd6	0.0034313104
196	0x3b3a348b	0.0028412666
197	0x3b745e19	0.0037287532
198	0x3b830d32	0.0039993757
199	0x3b867d99	0.004104328
200	0x3a3ff6a9	0.0007322827
201	0x3b16cdeb	0.002301092
202	0x3b80578d	0.003916687
203	0x3b94669b	0.004528833
204	0xbb88f824	-0.0041799713
205	0xbbadb99e	-0.0053016683
206	0xbb9ae1bb	-0.004726616
207	0xbb64d096	-0.0034914366
208	0x39c97213	0.000384227
209	0x3b98cb25	0.0046628886
210	0x3a98fa18	0.0011671213
211	0x392b8059	0.00016355644
212	0xba1ab8c4	-0.0005902166
213	0x3b894560	0.0041891783
214	0x3a5e5d85	0.00084825634
215	0xb98dc17f	-0.00027037782
216	0xba95bec8	-0.0011424655
217	0x3b2abeb9	0.002605362
218	0x39bf8c27	0.0003653478
219	0x3981c0d1	0.00024748457
220	0x382882a0	4.0175975e-05
221	0x3ac03a17	0.001466575
222	0xb957a2cb	-0.00020564643
223	0x39cd55f8	0.000391647
224	0xbb76598e	-0.003759
225	0xbba7bb98	-0.0051187985
226	0xbbe9c392	-0.0071339095
227	0xbcb55d10	-0.022139102
228	0xbc5852c2	-0.013203325
229	0xbc1d1bb8	-0.009589128
230	0xbc45e265	-0.012077902
231	0xbcb4f1bf	-0.02208793
232	0xbd4ffca9	-0.050778065
233	0xbc7adfa7	-0.015312112
234	0xbc79e179	-0.015251511
235	0xbc821314	-0.015878238
236	0xbc3da5c8	-0.01157517
237	0xbc238baa	-0.009982029
238	0xbbfb9b33	-0.0076784133
239	0xbbda1f78	-0.0066565834
240	0xb9f36778	-0.00046425662
241	0x396b0228	0.0002241215
242	0x38bf5fcb	9.1254326e-05
243	0x3854e5b4	5.0758666e-05
244	0xb8e65efc	-0.00010984947
245	0x38e38b76	0.0001085018
246	0x38b66ead	8.699051e-05
247	0x380f2eb1	3.413734e-05
248	0x3965c3e6	0.0002191212
249	0x3921c7b8	0.00015428558
250	0x397ed655	0.00024303173
251	0x39d5b954	0.00040764606
252	0xb9cbf13a	-0.00038898905
253	0xba1fc27d	-0.00060943497
254	0x37be5071	2.2687223e-05
255	0xb9284c9f	-0.00016050272

4.bias f4 [8]
0	0x3e4ce521	0.2000928
1	0xbe3382d1	-0.17530371
2	0x3e9b1631	0.30290368
3	0x3e6c1cc2	0.23057845
4	0xbc0bf9f9	-0.008543485
5	0x3eb157af	0.3463721
6	0x3b285bc1	0.0025689455
7	0x3e171581	0.14754297

7.weight f4 [64, 392]
0	0xbadfa2c5	-0.0017062059
1	0xbe1bfb11	-0.15232493
2	0xbe847d80	-0.25877
3	0xbd7b94bc	-0.06142114
4	0xbd05632a	-0.032565273
5	0xbbf453ef	-0.0074562947
6	0x3a4d31fb	0.0007827577
7	0x3dceb4a9	0.10093052
8	0x3ce59019	0.028022813
9	0x3c113ff0	0.008865342
10	0xbb8caecc	-0.0042932983
11	0x3b706be9	0.0036685413
12	0x3d24c519	0.04022703
13	0x3d81f70a	0.06345947
14	0x3e029c86	0.12755021
15	0x3d681916	0.05666455
16	0xba897658	-0.001048754
17	0x3a5ea20c	0.0008492775
18	0x3e0edd9e	0.13951728
19	0x3db8a121	0.09015108
20	0x3d7681a7	0.06018224
21	0x3dd5f5a7	0.10447245
22	0xba65f17e	-0.0008771642
23	0xbb4f7094	-0.0031652795
24	0x3b99b1b7	0.0046903747
25	0x3d039d9a	0.032132722
26	0x3cb6b545	0.022303233
27	0x3dde21da	0.108463004
28	0x3de495c2	0.111613765
29	0x3dfe8a80	0.124287605
30	0x3dea3782	0.114363685
31	0x3bab562c	0.0052287783
32	0x3ccd685f	0.025074182
33	0x3e5db878	0.216524
34	0x3e11cc3c	0.14238065
35	0x3dc935e8	0.09824735
36	0x3d9660ed	0.07342706
37	0x3e31cca2	0.17363217
38	0x3db512fb	0.08841511
39	0x3db56729	0.08857567
40	0x3eb253c6	0.3482954
41	0x3d1003cb	0.035159867
42	0x3d562ac8	0.052286893
43	0x3e857219	0.26063612
44	0x3e5f70bc	0.21820349
45	0x3df3fd91	0.11913598
46	0x3e849475	0.25894514
47	0x3ed72e27	0.420274
48	0x3e4588aa	0.19290414
49	0x3e833abf	0.25630757
50	0x3dc91a76	0.098195
51	0xbb5c6857	-0.0033631527
52	0xbe03a9db	-0.12857763
53	0xbece2bab	-0.4026769
54	0xbed9c375	-0.42531934
55	0x3a480245	0.0007629733
56	0xb9a6ae47	-0.00031791834
57	0xbc826e16	-0.015921634
58	0xbcaa28dd	-0.020771438
59	0xbdeb3cfd	-0.11486242
60	0xbf0622e5	-0.52396995
61	0xbf43ee88	-0.76535845
62	0xbe0bb623	-0.13643698
63	0xbbb3e37a	-0.005489764
64	0xbcde93d4	-0.0271701
65	0xbde42e08	-0.11141592
66	0xbbf6d881	-0.0075331335
67	0xbe85b03f	-0.26111028
68	0xbec8e216	-0.3923499
69	0xbe477f92	-0.19482258
70	0x3b23f9e0	0.0025020763
71	0x3b63e341	0.0034772905
72	0xbd8a1088	-0.06741434
73	0xbe7e0185	-0.24805267
74	0xbec39a01	-0.38203433
75	0xbed71a22	-0.42012125
76	0xbe8cfd64	-0.27537072
77	0x39957a40	0.00028510578
78	0x3aed60cc	0.0018110513
79	0xbe1ddc5e	-0.15416095
80	0xbe5cfb52	-0.21580246
81	0xbefd006d	-0.49414387
82	0xbef8da5f	-0.48604104
83	0xbebbd3a8	-0.36684918
84	0x3d33610a	0.043793716
85	0xbb46fdbb	-0.0030363637
86	0xbc7a8806	-0.01529122
87	0xbe75d34c	-0.24006385
88	0xbeeb2b79	-0.45931605
89	0xbee1a234	-0.44069064
90	0xbee5440f	-0.44778487
91	0x3ba57c44	0.005050214
92	0xbb2108aa	-0.0024571815
93	0xbc05e3be	-0.008171974
94	0xbda60b19	-0.081075855
95	0xbd67fe90	-0.056639254
96	0xbd2c6b91	-0.04209477
97	0xbc1b09f1	-0.009462819
98	0xba30f219	-0.00067499425
99	0xbbd49b7b	-0.0064882613
100	0xbdabd1cf	-0.08389627
101	0xbd1c2908	-0.038125068
102	0xbc3d6ac8	-0.011561103
103	0xbb6a1424	-0.003571757
104	0xb88a9841	-6.608712e-05
105	0x3b2f19e7	0.002671832
106	0xbb665c5d	-0.0035150268
107	0xbd097330	-0.033557117
108	0xbdadd255	-0.08487383
109	0xbbb13099	-0.0054074046
110	0x3b366526	0.0027831285
111	0x3a4a170e	0.0007709124
112	0x3b065dec	0.002050276
113	0xbaa2e837	-0.0012428825
114	0xbd0e508a	-0.034744777
115	0xbd5bf184	-0.053697124
116	0xbbb88226	-0.0056307493
117	0xba9e5645	-0.0012080154
118	0x39b185c9	0.00033859749
119	0xbaa34a14	-0.001245799
120	0xbb30ffe4	-0.0027007991
121	0xbce36d80	-0.027762175
122	0xbc5cf257	-0.013485513
123	0xbc4c680d	-0.0124759795
124	0xbb0900c1	-0.002090499
125	0x3a655c47	0.0008749407
126	0x3cbc9917	0.023022218
127	0x3a7b9f55	0.00095986325
128	0xba734d05	-0.0009281191
129	0xbbab648c	-0.005230492
130	0xbabae74c	-0.0014259606
131	0x38d9e0a4	0.00010389209
132	0xb975ffb4	-0.00023460278
133	0x3d08ddf0	0.03341478
134	0x3a185e44	0.00058123865
135	0xbb51d241	-0.003201619
136	0xbbea4d1b	-0.007150305
137	0x3965e36c	0.00021923863
138	0x3ca28e11	0.019843133
139	0x3a398e03	0.00070783513
140	0x3d419508	0.047261268
141	0x3b6800a2	0.0035400768
142	0xb9dd2287	-0.0004217813
143	0xbb34ed9b	-0.0027607444
144	0xba57d476	-0.0008233258
145	0x3a8ba106	0.0010652847
146	0xbb258396	-0.0025255433
147	0xbaa1838b	-0.0012322528
148	0xbb035c1b	-0.0020043913
149	0xbb699b59	-0.0035645573
150	0xbb473ba5	-0.003040054
151	0xbb5fb8be	-0.0034137215
152	0xbc5c3f9f	-0.013442903
153	0xba67769f	-0.00088296266
154	0x3b04b2ac	0.0020248098
155	0x3c884cd3	0.016638195
156	0x3a7a8842	0.0009557047
157	0x3b07ad3c	0.002070262
158	0x3a88352e	0.0010391825
159	0xba2424a9	-0.00062615663
160	0x3c8b5620	0.017008841
161	0x3e32084e	0.1738598
162	0x3ecd0392	0.40041786
163	0x3b89fa9d	0.0042107836
164	0x3bb72bd4	0.0055899415
165	0x3c990644	0.018679745
166	0x3e426b7f	0.18986319
167	0x3e463b95	0.19358666
168	0x3e6427b5	0.22280772
169	0x3eb25197	0.34827873
170	0x3d7a74f7	0.061146703
171	0x3be54afe	0.006997465
172	0x3db27fe1	0.08715797
173	0x3ebdbaac	0.37056482
174	0x3d5efab4	0.054438308
175	0x3e7133e1	0.23554946
176	0x3ef6980d	0.4816288
177	0x3ea73df1	0.32664445
178	0x3b2f02bc	0.002670451
179	0x3e92c198	0.28663325
180	0x3ebb23d7	0.3655078
181	0xbb07a0a5	-0.0020695117
182	0x3a14bebe	0.0005674175
183	0x3e909d43	0.2824498
184	0x3dfd4356	0.12366359
185	0x3c9a0da3	0.01880533
186	0x3d425d6e	0.047452383
187	0x3dd5082c	0.10401949
188	0x3a30445f	0.0006724055
189	0xbb20c80a	-0.0024533295
190	0x3d92afad	0.07162414
191	0x3d5da330	0.054110706
192	0xb9b05c7b	-0.0003363824
193	0x3d2968c5	0.04135968
194	0x3b5ea2d7	0.0033971572
195	0x3b248568	0.002510393
196	0x3ed543e4	0.4165336
197	0x3da7dc4b	0.081963144
198	0x3d5ba878	0.05362746
199	0x3c9a4212	0.018830333
200	0x3dafd5dc	0.08585712
201	0x3e96f098	0.29480433
202	0x3f1427cc	0.57873225
203	0x3c5155f5	0.012776841
204	0x3b2aced3	0.0026063218
205	0x3a8a611c	0.0010557505
206	0xbacbf1b3	-0.0015559703
207	0xb9ce06df	-0.000392965
208	0x3ab26653	0.0013610817
209	0x3da00270	0.07812965
210	0x3c05fffb	0.008178706
211	0x3b1adf6d	0.0023631707
212	0x3d04c7ab	0.03241698
213	0x3b0fa939	0.0021920933
214	0x3ba70171	0.0050966074
215	0x3a9fd19b	0.0012193205
216	0x3d336043	0.043792974
217	0x3b42b198	0.0029707905
218	0x392b1a10	0.0001631754
219	0x3be17f16	0.006881605
220	0x3d502756	0.050818764
221	0x3b0ab533	0.0021165132
222	0x3a3ccda7	0.00072022754
223	0x3d655e6e	0.05599826
224	0x39e7227f	0.00044085455
225	0xbbd4291f	-0.0064746286
226	0xbd023fe2	-0.031799205
227	0xba8783e5	-0.001033899
228	0xbba61a91	-0.005069085
229	0x3a11ee81	0.0005566851
230	0x3c6eec55	0.014582713
231	0xb97baaad	-0.00024000807
232	0xbe03a9fb	-0.12857811
233	0xbe44c703	-0.19216542
234	0xbda5baad	-0.08092246
235	0xbb6e5403	-0.0036365993
236	0x3b059552	0.0020383191
237	0x3d436cbd	0.047711123
238	0xbb64954a	-0.0034879022
239	0xbcc7ec00	-0.024404526
240	0xbd3eb1bf	-0.04655623
241	0xbd14de54	-0.03634484
242	0xbc1beb83	-0.0095166
243	0xba755fb9	-0.0009360272
244	0x3bb2750c	0.005446082
245	0x3bc37208	0.0059645213
246	0x3d80f64b	0.06296977
247	0x3d01e3b2	0.031711288
248	0x3d8472bd	0.06467197
249	0x3d9cf46a	0.07663806
250	0x3d7856e0	0.060629725
251	0x3b9506d1	0.0045479317
252	0x3ac7021e	0.0015183126
253	0x3a80654c	0.0009795814
254	0x3af8ec7f	0.001899138
255	0x3bf53e69	0.0074842465

7.bias f4 [64]
0	0xbdb20efd	-0.08694265
1	0x3eff4355	0.49856058
2	0xbd806914	-0.06270042
3	0xbdc77b9d	-0.09740374
4	0xbf26ce66	-0.6515869
5	0xbc64535a	-0.013935888
6	0xbd1434fc	-0.036183342
7	0x3cc63791	0.024196418
8	0x3d1d3680	0.038382053
9	0xbc91ad0e	-0.017782714
10	0x3ed2b5d9	0.41154364
11	0x3d176100	0.03695774
12	0x3ae00586	0.001709149
13	0x3e083b8b	0.13303964
14	0x3d166825	0.036720414
15	0x3dff59e2	0.12468316
16	0xbee75103	-0.45178995
17	0xbd3f224e	-0.046663575
18	0xbd6f34a8	-0.058399826
19	0xbc35775e	-0.011075823
20	0xbd94a5b3	-0.07258167
21	0x3dee166c	0.116253704
22	0xbe186f4c	-0.14886206
23	0x3e28930a	0.16462341
24	0x3e97b49d	0.29629984
25	0xbf0c90d7	-0.5490851
26	0xbe985b43	-0.29757127
27	0xbe8625fb	-0.26200852
28	0x3bfe88fa	0.0077677937
29	0xbeb8601e	-0.36010832
30	0xbf06e4c9	-0.5269285
31	0xbe2c7463	-0.16841273
32	0x3b9e8742	0.0048379013
33	0x3c3a99b2	0.011389183
34	0xbedf5894	-0.43622267
35	0x3ecdf9a9	0.40229538
36	0xbc4dce33	-0.012561369
37	0x3e194e79	0.14971341
38	0x3cc97384	0.024591215
39	0xbc1f23f5	-0.009713163
40	0x3c6ecb25	0.014574801
41	0x3c8b71ce	0.01702204
42	0xbcbe47b7	-0.023227556
43	0xbed5de9c	-0.417714
44	0xbeadf9b3	-0.33979568
45	0x3b6a990f	0.0035796796
46	0x3d98e28b	0.07465085
47	0x3d38bcc3	0.045101892
48	0x3b9f596a	0.004862954
49	0xbed77553	-0.420817
50	0xbe3b35dc	-0.18282264
51	0xbe1b09bd	-0.15140434
52	0x3e9b4f06	0.30333728
53	0x3ebe058c	0.37113607
54	0x3e280fb0	0.16412234
55	0xbd2d74b2	-0.042347617
56	0xbecf565d	-0.40495577
57	0x3f08522a	0.5325037
58	0x3ed334ae	0.4125113
59	0x3eb1fb66	0.34762114
60	0x3ef95d28	0.48703885
61	0xbbc9164b	-0.0061366907
62	0x3ee1412f	0.43995044
63	0x3dfe8dd7	0.124293976

8.weight f4 [10, 64]
0	0x3a1f8e06	0.0006086532
1	0xbad0df81	-0.001593575
2	0x3e7da86e	0.24771282
3	0xb9938b38	-0.0002814175
4	0xbb53c0af	-0.0032310893
5	0x3bfe7e84	0.0077665467
6	0x38e34a4e	0.00010838044
7	0x3a71a524	0.0009218028
8	0x3aaf4bd4	0.0013374039
9	0xbb803c72	-0.0039134556
10	0xbafe88cf	-0.0019419434
11	0x39a22105	0.0003092365
12	0x39ce4f11	0.0003935029
13	0x3a8a8d74	0.0010570721
14	0xb9c4e2ec	-0.00037553103
15	0x3b07e12d	0.002073358
16	0x3e578cb6	0.2104977
17	0xb8fe67ca	-0.00012130996
18	0x397432c9	0.00023288572
19	0x39245c18	0.00015674566
20	0x3a187bce	0.0005816788
21	0xbb251d4a	-0.002519446
22	0xba30a78a	-0.00067388325
23	0x3b052a23	0.0020319305
24	0x3a832763	0.0010006245
25	0x3aaf6a2c	0.0013383082
26	0x3996eea5	0.00028788034
27	0xba587d15	-0.0008258385
28	0xb9717115	-0.00023025677
29	0x3e2d9d59	0.16954555
30	0x3a0edbcc	0.00054496224
31	0xbb446f33	-0.0029973506
32	0xbb147dec	-0.0022658063
33	0xb9849f9c	-0.0002529592
34	0xba6530fb	-0.00087429554
35	0xba99f550	-0.0011746082
36	0xbb7621e0	-0.0037556812
37	0xb97cac91	-0.00024096879
38	0x393148f6	0.00016907215
39	0xbaa2c0ce	-0.0012417079
40	0x39b5af02	0.000346534
41	0x3c437f2c	0.011932176
42	0x3aa413d2	0.0012518114
43	0xbac42164	-0.0014963564
44	0xb9641df4	-0.00021754933
45	0xbb3a9d1b	-0.002847499
46	0xbaf40766	-0.0018617928
47	0x3d7ae9f9	0.06125829
48	0xba9cbe34	-0.001195854
49	0xbd9360b3	-0.07196178
50	0x3a70b8b2	0.0009182795
51	0x3be73a3e	0.0070565036
52	0x3a9bad53	0.0011877216
53	0x3b02f5e0	0.0019982979
54	0x3a7db2fd	0.00096778554
55	0xb9430b42	-0.00018600843
56	0xbb089407	-0.0020840184
57	0x3af79303	0.0018888417
58	0x3bbe2732	0.0058030123
59	0xbafc45d1	-0.0019246881
60	0xbaa661d0	-0.0012693945
61	0xb97b7c4a	-0.00023983527
62	0x3b5b3324	0.003344723
63	0x3ac5456a	0.0015050594
64	0x3b013237	0.0019713768
65	0x36ca1aec	6.0232032e-06
66	0xba34493d	-0.00068773684
67	0xba5880a3	-0.00082589145
68	0x39cb44c0	0.000387704
69	0x38e14646	0.000107419255
70	0xb92c20f1	-0.0001641547
71	0x3a3a7296	0.00071124115
72	0x39acbcbb	0.00032947012
73	0xbb37da82	-0.0028053825
74	0x39e576f2	0.00043766905
75	0xb917ae62	-0.00014465445
76	0x3b056ad6	0.0020357869
77	0xbb1f883a	-0.0024342672
78	0x390019f7	0.00012216704
79	0xb82f829d	-4.1844894e-05
80	0xba54acb2	-0.0008112892
81	0x3930a3b7	0.00016845657
82	0xb8e6e129	-0.00011009194
83	0xb917e100	-0.00014484301
84	0x3a3a1ae5	0.00070993445
85	0x3a87c49e	0.0010358279
86	0xba81331d	-0.0009857152
87	0x39d17000	0.00039947033
88	0x3e7d9ad9	0.24766101
89	0x3b11d0d9	0.0022249727
90	0xba196d69	-0.000585279
91	0xbea5b068	-0.3236115
92	0x3b03d648	0.0020116735
93	0xb9dc60c4	-0.00042033766
94	0x395c4f91	0.00021010476
95	0xbb45b8c8	-0.0030169953
96	0x3a1a830e	0.00058941625
97	0xb92f566a	-0.00016721492
98	0xb8c85532	-9.552612e-05
99	0xba679948	-0.00088347914
100	0xbb330ada	-0.00273197
101	0x3aad641b	0.0013228686
102	0x38bd21b1	9.018498e-05
103	0xbadb5f5f	-0.0016736797
104	0x361a766c	2.3016719e-06
105	0xb9fc79ed	-0.00048156027
106	0xb8f81b67	-0.000118306656
107	0xbc6a8022	-0.014312776
108	0xbcaca522	-0.021074835
109	0x393dcc75	0.00018100611
110	0x37f92f9d	2.9705285e-05
111	0x3b35a242	0.0027715121
112	0xb98fa4b3	-0.00027397796
113	0x3a1ec357	0.00060563296
114	0x3aa2f21c	0.0012431773
115	0xb4ac9204	-3.2143737e-07
116	0x3a92372d	0.001115536
117	0x3a9ceeb6	0.0011972997
118	0xb9140e87	-0.00014119792
119	0xb7ad3fa0	-2.0652835e-05
120	0x3a8e6d25	0.0010866268
121	0x3eb4d815	0.35321108
122	0x3a53671d	0.00080643763
123	0x393025b1	0.00016798709
124	0x3a16471a	0.0005732641
125	0xb8b3ac75	-8.567508e-05
126	0xba8f90d0	-0.0010953192
127	0x3b10aac2	0.0022074436
128	0xba8a9085	-0.0010571635
129	0xbaf0731d	-0.0018344853
130	0x3a1d0e5e	0.00059912156
131	0x3b427df7	0.0029677132
132	0xba816d63	-0.0009874519
133	0x3b1f8b47	0.002434449
134	0xb9b751f3	-0.00034965537
135	0x39abdc19	0.00032779647
136	0xba2c5561	-0.0006574002
137	0x3b006542	0.0019591604
138	0xbb0062d1	-0.001959015
139	0x38335848	4.2759144e-05
140	0x3a9a955f	0.0011793784
141	0xba43fc02	-0.0007476212
142	0xb9534677	-0.00020148778
143	0x3ace95e6	0.0015761226
144	0x3a143a86	0.00056544726
145	0xb8460292	-4.7209272e-05
146	0x3a16a89c	0.00057471707
147	0x39fbd814	0.0004803544
148	0x3ad6040a	0.0016328108
149	0xbabbfc61	-0.0014342183
150	0x3b49c187	0.0030785517
151	0xbe0b6f6b	-0.13616721
152	0x39999ca0	0.0002929913
153	0x3a88fb7d	0.0010450926
154	0x39834ac0	0.0002504196
155	0x3bb5937e	0.005541264
156	0x3a99cc3a	0.0011733838
157	0x3a0c48c3	0.00053514185
158	0x3a63a5a5	0.0008684046
159	0x3a42da59	0.0007433049
160	0xb9331cd6	-0.00017081512
161	0x398d5b08	0.0002696144
162	0xbb1091d3	-0.0022059574
163	0xba67cbad	-0.0008842301
164	0x3b016ab6	0.0019747443
165	0xb90a2376	-0.00013173916
166	0xb9a90f74	-0.00032245705
167	0xba860bb9	-0.0010226882
168	0x35d60aac	1.5947348e-06
169	0x3b03bbf7	0.002010105
170	0x39d6d17a	0.00040973333
171	0x3da7ba84	0.08189872
172	0x39f294af	0.00046268615
173	0xba923f01	-0.0011157693
174	0x3a8cfb0f	0.0010755974
175	0xba771143	-0.00094248744
176	0xba7c6b25	-0.0009629003
177	0xba44f124	-0.00075127394
178	0xbba3012d	-0.0049745054
179	0x3b277cad	0.002555649
180	0x39c7b01f	0.00038087458
181	0xbe86ad2f	-0.26304004
182	0x3987b0a1	0.00025880805
183	0x3934c4f4	0.00017239508
184	0xb9ffbfef	-0.00048780392
185	0xb8a0e425	-7.67189e-05
186	0xb9592d75	-0.00020711667
187	0xbb44329c	-0.0029937392
188	0xb9755aa7	-0.00023398791
189	0x399c0b60	0.00029763114
190	0x3a66673c	0.0008789187
191	0xba856626	-0.0010177537
192	0xbba2ee33	-0.004972243
193	0xba82f63c	-0.0009991596
194	0xb9a05cd6	-0.00030586746
195	0xba8cc71e	-0.0010740494
196	0xba06f393	-0.000514799
197	0x3b14a877	0.002268342
198	0x37eebb3f	2.8459004e-05
199	0x39a04924	0.00030572072
200	0xbe20d8d0	-0.15707707
201	0xbacab40c	-0.0015465035
202	0x3a1dd736	0.00060211436
203	0x3945c3c6	0.00018860315
204	0xb8db4412	-0.00010455413
205	0xba908904	-0.0011027162
206	0xba0f7c8f	-0.0005473578
207	0xba686130	-0.000886458
208	0xb9990c8c	-0.00029191782
209	0xb9178b30	-0.00014452334
210	0x3a761679	0.0009387504
211	0x3a1ca2bb	0.00059751765
212	0x38fed21d	0.000121508005
213	0x3b0dbcdb	0.002162746
214	0xba5d2a75	-0.00084368075
215	0x38e9094c	0.000111120375
216	0xbaa7ef47	-0.0012812399
217	0x3ab8b434	0.0014091791
218	0xb98289f8	-0.00024898327
219	0x3a0e45b8	0.0005427259
220	0xb98767fb	-0.00025826678
221	0xb9073538	-0.00012894429
222	0xb9947a60	-0.00028319936
223	0x3b4c8043	0.003120438
224	0xb410f428	-1.3499869e-07
225	0x37cadec7	2.4184015e-05
226	0x3b85a212	0.004078158
227	0xba4bbe8d	-0.000777223
228	0xba97f015	-0.0011591936
229	0xba85cf3a	-0.0010208853
230	0x3953b1a7	0.00020188709
231	0xb82ce001	-4.1216616e-05
232	0xb8422299	-4.6285426e-05
233	0x3b1dc060	0.0024070963
234	0x39f0b691	0.0004591239
235	0x3a40a610	0.0007348964
236	0x3b9d22bd	0.004795401
237	0xba2d36a7	-0.000660757
238	0x3e6abc0c	0.22923297
239	0xbc94cd8f	-0.018164424
240	0xb9abdce1	-0.0003278023
241	0xba7f16f6	-0.00097308995
242	0x3a199d99	0.00058599707
243	0x3b114948	0.0022168923
244	0xbc01c526	-0.007920539
245	0xb9e8d675	-0.0004441027
246	0x3801f047	3.0979772e-05
247	0x38a1f833	7.723309e-05
248	0xb9925e20	-0.0002791742
249	0xbac67cd3	-0.0015143402
250	0x3ad6c9e4	0.0016387072
251	0x38031ea6	3.1261377e-05
252	0x3a69f179	0.0008924227
253	0xba1d0853	-0.0005990315
254	0xb904d0c5	-0.00012666274
255	0xbd180fcb	-0.037124436

8.bias f4 [10]
0	0xbebe022b	-0.3711103
1	0x3e9bea6a	0.3045228
2	0xbe6540a6	-0.22387943
3	0x3d8e4e24	0.06948498
4	0x3e63eba5	0.2225786
5	0xbdd5a232	-0.10431327
6	0x3da78d85	0.081812896
7	0xbee1966e	-0.4406008
8	0x3ecee2ff	0.4040756
9	0x3d14c02b	0.03631608
