project_networks/new_sabr/cifar10_cnn_3layer_k3_w2_sabr.onnx (onnx, 553237 bytes, 10 tensors)

0.weight f4 [8, 3, 3, 3]
00000000: 63ce 9cb9 4b80 be3a 4685 723e 2e95 03bb
00000010: 7c58 8eba 8ff9 7e3c 88b5 cebc 1e40 82be
00000020: 0083 6bba e490 b9ba 20d1 7838 10c5 513e
00000030: 380d 12bc 523a dfba 0e13 143b 8934 10bd
00000040: a46c 96be 3aac 90ba 4900 afba eb3b 61ba
00000050: afc0 343e 4cdb 19bb edff 2cbc c2a6 983a
00000060: 577c 21bb fc5c 5dbd 4d6c 12ba 9845 d3bd
00000070: 475c 3fbd 916c afbd f363 04bc e248 adbb
00000080: 9373 fabc 8f7f 16be 44b0 35bd b10b 3dbe
00000090: 3a4f 9a3a cf8a 943a 5047 883a 3c4e b23a
000000a0: 6a7b 9b3a 78a6 8f3a 3a4a 7e3a 2fe7 483a
000000b0: 51fa 0e3a 90d4 803a 0219 413d cbce 873a
000000c0: e535 243e 0679 fd3e 6fa1 8e3e 1653 913a
000000d0: e439 7e3a d01b 693a 003f aa3e 34a2 a63e
000000e0: f638 2f3b 19db 853e 3638 013d fcf7 203b
000000f0: fb8f 58b9 f671 6cb7 fe51 bdbc 174d abbe
00000100: 046f 90be 7a5e 1f39 8bab 82be d526 c5bd
00000110: 5711 bcb9 6f4b e6bd 3bb5 28bc b315 18bb
00000120: 22a7 ba3a d7fa 053b c998 2e3b fd44 f43a
00000130: b623 173b f50e 343b 3b6c 1a3b 94f1 253b
00000140: 1515 3d3b c01a 5939 4495 e539 914a e3b9
00000150: 8730 e139 3222 3339 85ee 1fba a63b bcb9
00000160: a632 56ba ec18 99b9 4c51 603a 383b 0e3a
00000170: 631b de39 56ff 2b3a aa42 193a 23fc 9b38
00000180: 7562 143a b37b 1c39 1e56 4cba a380 2b3f
00000190: 72bd 733e 5440 503a 1989 b03d 183e 803a
000001a0: f9c3 433a 9c01 673a 36b3 1b3a f78f 333a
000001b0: 8cc4 773d 0c6b 033b bee6 073b 8bb7 983e
000001c0: d985 103c 017b 363b 1e59 d93c 2258 1d3b
000001d0: 43a4 1b3b bb93 283d 361f 5a3b 2e51 093b
000001e0: d2fc 933e ddd9 703b c82f 113b 97c4 9c3b
000001f0: 8e39 6c3b 67e4 193b 18a4 693a 7836 2a3a
00000200: f7cf 403a 1eff 243a 1be9 9439 7652 053a
00000210: 328f d539 b56c d239 c54c c738 8f11 083a
00000220: cab1 743a 5949 8739 802f 7b3a 3691 a93a
00000230: c2dc 673a 3e19 c63a 29eb 633d 33f4 b93a
00000240: 3b8b 813a a0c5 973a 42cf 403a 7f30 823a
00000250: c2dc a43a 04cd 883a 19e6 d23a 9236 753d
00000260: 17a0 c03a b81f d639 8c0c 093a 7c68 533a
00000270: d1a9 b03a cbef e23a 9c93 a03a 1113 4d3d
00000280: 042e f63e 9f30 8d3d 3ea6 a03e 2d47 0a3e
00000290: 1e96 9f3d 2c8d 133b 2a3a 063b c92a 013b
000002a0: 74e5 b9be 6436 74be 1871 0cbe 8817 9f3e
000002b0: 5c71 b23d 9fe3 733d d9bc df3a 9571 d13a
000002c0: 7392 d33a e3fb 6cbe 7bd3 2abe 6024 1fbc
000002d0: fe68 233e dcb3 1e3b 90f8 2a3b 4732 dd39
000002e0: ec90 d939 fa14 2c3a 7163 efbc fd56 18ba
000002f0: 753a 9fb9 e83d 0a3a 2d07 323a fac5 4a3b
00000300: f83c 803a 21ba 613a 902d 4b3e c23a a83a
00000310: 1ebc 663a 222f 543b dea5 663a 35c9 b839
00000320: 4f32 483b 6af1 803a 6591 463a e223 373e
00000330: 1a08 423a af6d 383a d25f 303b b5cc f439
00000340: cac7 bf38 4ea6 f73a fd0b 7c3a 699a 443a
00000350: 56e7 843e 4201 603a 325d 743a af2e 3c3a
-0.0002990841 0.0014534084 0.23683652 -0.0020077932 -0.0010860111 0.015562429 -0.025233045 -0.25439543
-0.0008984059 -0.0014157561 5.932257e-05 0.2048533 -0.008914284 -0.0017030931 0.0022594365 -0.03520635
-0.2937976 -0.0011037656 -0.0013351525 -0.00085919973 0.17651628 -0.0023476658 -0.010559064 0.0011646377
-0.0024640763 -0.054043755 -0.0005585596 -0.10316008 -0.046718862 -0.08565629 -0.00808047 -0.0052882293
-0.030572688 -0.14697097 -0.044357553 -0.18461491 0.0011772879 0.0011332872 0.0010397229 0.0013603638
0.0011862342 0.0010959646 0.00097003917 0.00076638436 0.000545417 0.0009828974 0.04714299 0.0010361312
0.16036184 0.49506396 0.2785754 0.0011087384 0.00096979574 0.0008892389 0.3325119 0.32545626
0.0026736832 0.2614372 0.031547748 0.0024561873 -0.00020653002 -1.409323e-05 -0.023110386 -0.33457252
-0.28209698 0.00015198617 -0.25521502 -0.09626547 -0.00035871073 -0.112448566 -0.010297115 -0.0023206293
0.0014240483 0.0020443702 0.002664136 0.0018636283 0.0023062057 0.0027474735 0.0023563046 0.0025320994
0.0028851677 0.00020704698 0.00043789495 -0.0004335237 0.000429515 0.00017083509 -0.0006100911 -0.00035902596
-0.00081709994 -0.00029201002 0.0008557036 0.00054256944 0.00042363544 0.00065611803 0.00058464205 7.43794e-05
0.0005660423 0.00014923401 -0.0007794815 0.6699316 0.23802736 0.0007944156 0.08619899 0.000978413
0.0007467862 0.00088121905 0.0005939485 0.00068497605 0.060490176 0.0020052819 0.0020736898 0.29827532
0.008820974 0.0027844312 0.026531752 0.002400883 0.002374903 0.04115651 0.0033282763 0.0020952928
0.28903824 0.003675095 0.0022153724 0.0047841775 0.0036045047 0.0023482086 0.00089126965 0.0006493102
0.0007355208 0.0006294119 0.00028402437 0.0005085835 0.00040733215 0.00040135314 9.503359e-05 0.0005190605
0.0009334354 0.00025803855 0.0009581968 0.0012936953 0.0008844846 0.0015113724 0.055644188 0.0014187157
0.0009883413 0.0011579283 0.00073551026 0.0009932666 0.0012577998 0.0010437076 0.0016090303 0.059866495
0.0014696148 0.00040840893 0.0005228005 0.00080645806 0.0013478344 0.0017313896 0.0012251022 0.05006701
0.48081982 0.06894039 0.31376833 0.13503714 0.077923045 0.0022514565 0.0020481446 0.001970934
-0.3630787 -0.23848873 -0.13715017 0.3107264 0.08713028 0.05954325 0.0017069831 0.0015979285
0.0016141668 -0.23142962 -0.16682236 -0.009713262 0.1595802 0.0024216091 0.0026088096 0.00042189864
0.0004149744 0.0006564405 -0.029222222 -0.0005811302 -0.00030370397 0.0005273507 0.00067912304 0.0030940757
0.0009783795 0.0008610804 0.198416 0.0012834894 0.00088018354 0.0032376726 0.000879852 0.00035245126
0.0030547564 0.0009837572 0.0007574766 0.17884782 0.000740172 0.0007035387 0.0026912582 0.00046691825
9.144803e-05 0.0018894167 0.00096148235 0.00074998155 0.25957745 0.00085451093 0.00093217485 0.0007178587

0.bias f4 [8]
00000000: 3b03 1dbd c02a e9bd 60d6 2dbd b361 8dbe
00000010: ac15 01be ede9 51be 0251 abbd e304 e1bd
-0.03833316 -0.11385107 -0.042440772 -0.276136 -0.12605923 -0.20499392 -0.083650604 -0.1098726

2.weight f4 [16, 8, 3, 3]
00000000: 08fd 12ba 53b1 beb9 0065 d5b9 5dd3 26ba
00000010: e5e4 1d39 abdb 20ba 9209 cc39 39f4 d3b9
00000020: 57f7 2eba 23c4 acba 3e93 b5bc 57ba 5e39
00000030: 58d4 ce3a f5c5 8c3a 4792 ad3a abb3 243b
00000040: e70a 053b fef7 bd3a b93d d73a d8df bd3a
00000050: 2fb2 7b3a ecaa 01ba d7cf 41ba ae1b dbba
00000060: 898a 1eb9 1c73 c2ba 66a7 0fbb 011b 83bd
00000070: eada dbbb 04b9 a2bd 85f9 9abd 2f4c a3bd
00000080: bb02 cbbd 8312 233a c2d8 2b3a e335 633a
00000090: 52dc 74be b1e9 40be 21dc cebe 51dd 123a
000000a0: 5db8 2b3a be32 043a 7eee f63d 1f3e 943d
000000b0: 5899 933d dc64 e8b8 686c 6237 12a3 b939
000000c0: 6841 0e3d f780 0e3b 3c31 093b 4923 d03e
000000d0: 6868 d63d 90bc 8d3e b853 70b9 b04f 2339
000000e0: edd6 9d39 446e 3439 67ea 543c 123e 413a
000000f0: 67b5 ad3a 87f6 463a 926e d239 ab41 6abc
00000100: 18a3 91bd afa7 37be c0f1 e239 0682 9739
00000110: e0ef a939 7f99 503d 93f2 8f3d 2e08 e73d
00000120: 4fc7 b53a f0d0 9f3e e794 203d dfc0 a1ba
00000130: 7dd2 6db8 5b4e 4c3e dbd0 81ba b32b 4cbb
00000140: f262 c1b9 75da b4bb f293 9aba a3f9 863b
00000150: 26c6 5dba b80d 9dbd b923 5cba 8133 81b7
00000160: f765 98ba 825c afba 7b5d f8bb 5d61 eebb
00000170: 03f1 20bc 47e0 06bc 8cc4 08bc 57e6 16bc
00000180: 0c45 34bc d321 11bc cb99 bbbc f651 8fbe
00000190: 5b39 d0ba 7e19 743e 68dc 88bb 7643 92be
000001a0: 83d8 53ba f4ea ac3d 9939 25bb 7afc 02be
000001b0: 5a0e 9dbd ca88 abbe dcc5 eab9 9952 633b
000001c0: ad56 24ba 938c babd a29f 613e b478 973c
000001d0: 0f70 d4b9 75bb 12ba b521 9fbe e7ed 83bb
000001e0: 7f2b 933e 1afa b339 de70 9dbe d767 353e
000001f0: 8750 7f3d ac7e 8bba 1b76 cdbb 3298 043b
00000200: 3461 2e3b 870f dcbd 2959 b1bb 09ae 813a
00000210: 8faf 0eba 1e94 00bb f474 8b36 e0d6 55ba
00000220: e07f 043b de47 fa3e 4862 a5bd 5641 c0bb
00000230: 678c 9cba 2f62 8c3a 243b c9bc d714 f6be
00000240: ed8c cd3a 51eb a53a da6e 82b8 4f85 17bb
00000250: 342f 22bb 20d4 00bb 1eeb af3b 83eb aa3b
00000260: 9eb4 303c 64da a9bc bf77 94bc 7d0c 7bbb
00000270: d962 8bbe 7284 7fbe 848c a4bc c750 653d
00000280: a484 773c 3949 923c 8b5e c4bd 95ce ebbc
00000290: eded 09be 9d25 9abb 54fc 8ebb 1cdd 1cbd
000002a0: cbf9 d1bc 5ad3 c4bc b4b1 aebd 8fcf 84bc
000002b0: 63dd babb 1727 22bd 2850 83be 9ae9 e3bd
000002c0: 2749 fdbd fc33 b4be 3948 b2bc 3772 d8bd
000002d0: 8983 8a3e cbef e63d de6b 943e c436 8e3e
000002e0: bcc2 1e3e 4893 163e 7b90 9c3b fdb3 fe3b
000002f0: 3660 453d 3d13 3ebe 3098 02be 6c96 92bd
00000300: c4d7 b9bc 7ed1 25bc 4a39 fbbb 75ac 73bd
00000310: d3a7 aebb 0861 42bd f519 de3b c230 903b
00000320: 234c 3e3b d861 513b 5983 9a3a fa76 cd39
00000330: 75d0 4c3e c8bb f83b 55c5 0b3e 9131 f13a
00000340: ab19 8d3b aedc a43b 72f8 833a 034d 7c3b
00000350: ef34 943b b339 e83a 6bc3 663b b493 843b
00000360: 9aa4 1c3a b90c 1a3a b448 f839 cfcd 8c3a
00000370: cc96 093b 43dd 263b b852 9bb9 71bf c6b9
00000380: 143b deb9 0de9 9bbd 89f8 d9bd 12f2 91bd
00000390: 5dc6 e8ba cd13 caba 01c6 92ba 1247 b4bd
000003a0: 0378 18bb 045d 95bd fadf 9f3b 3e79 613b
000003b0: a323 6e3b 3f5e a93d 8622 f73c 6a82 323d
000003c0: 50e6 963d 5ad9 fd3c b540 d63d 71e0 3aba
000003d0: 6cab 90ba b3ba 2aba 0898 55ba 07d8 55ba
000003e0: d338 64ba 476f 74ba 29c5 45ba 3a82 aaba
000003f0: 3ebd cc3a f24c 113e d4da 393d 63d6 783d
-0.00056071626 -0.0003637174 -0.00040701777 -0.0006363893 0.00015057957 -0.00061362487 0.00038917043 -0.00040427016
-0.000667443 -0.0013181012 -0.022164937 0.00021240987 0.0015779836 0.0010740148 0.0013242447 0.0025131505
0.0020300688 0.0014493463 0.0016421593 0.0014486266 0.00096014416 -0.0004946429 -0.0007393336 -0.0016716623
-0.00015119663 -0.0014835331 -0.0021919846 -0.06401635 -0.006709446 -0.07945445 -0.07567123 -0.07973515
-0.0991263 0.0006220715 0.0006555432 0.00086673925 -0.2391217 -0.18839146 -0.4040232 0.0005602437
0.00065506046 0.00050429616 0.120572075 0.07238411 0.072069824 -0.000110814086 1.349589e-05 0.00035407447
0.034730345 0.002174435 0.0020933887 0.4065192 0.10469133 0.27682924 -0.00022919371 0.00015574577
0.00030105506 0.00017207215 0.012995339 0.0007371615 0.0013252915 0.0007589836 0.00040136703 -0.014297883
-0.07111186 -0.1793506 0.00043286197 0.0002889784 0.00032412913 0.050927635 0.07028689 0.11280857
0.0013868603 0.31214094 0.039204504 -0.0012340805 -5.6701236e-05 0.19951765 -0.0009904163 -0.0031153976
-0.0003688555 -0.005519206 -0.0011793359 0.0041191145 -0.00084600074 -0.07668632 -0.0008397657 -1.5401982e-05
-0.0011627068 -0.001337901 -0.007579503 -0.00727479 -0.009823087 -0.008232183 -0.008347642 -0.009210191
-0.01100279 -0.008858162 -0.022900483 -0.2799222 -0.0015886234 0.2383785 -0.004176665 -0.28567094
-0.0008081274 0.08443251 -0.0025211333 -0.12791625 -0.07668753 -0.335028 -0.00044779375 0.0034686683
-0.0006269019 -0.09108844 0.22033551 0.018490173 -0.0004051928 -0.0005597391 -0.31080404 -0.004026163
0.28744122 0.0003432788 -0.30750173 0.17715393 0.062332656 -0.001064261 -0.006270183 0.0020232317
0.002660823 -0.10745149 -0.00541224 0.0009893785 -0.00054430304 -0.0019619535 4.156138e-06 -0.0008157324
0.002021782 0.48882955 -0.08075386 -0.0058671637 -0.0011943699 0.0010710413 -0.024564333 -0.48062775
0.0015682258 0.0012658631 -6.219531e-05 -0.002312023 -0.0024747374 -0.0019657686 0.0053686043 0.0052160635
0.01078525 -0.02073402 -0.018123506 -0.0038307004 -0.27223852 -0.24952868 -0.020086534 0.05598524
0.015107308 0.01785718 -0.09588345 -0.02878503 -0.13469668 -0.004704191 -0.004363576 -0.038296804
-0.025631806 -0.024026562 -0.08529988 -0.016212253 -0.005702661 -0.03958806 -0.25647092 -0.1112854
-0.12367468 -0.3519591 -0.021762954 -0.1056866 0.27053478 0.11276206 0.28988546 0.27776158
0.15503973 0.14704621 0.0047779656 0.007772921 0.048187457 -0.18562026 -0.12753367 -0.07157597
-0.022685893 -0.010120748 -0.0076667415 -0.05949064 -0.005330065 -0.047455817 0.0067779967 0.0044003436
0.002903708 0.0031949189 0.0011788412 0.0003918929 0.20001395 0.0075907446 0.13649495 0.0018401613
0.0043060384 0.00503119 0.0010068549 0.003849805 0.0045229117 0.0017717391 0.0035211693 0.004045928
0.0005975455 0.00058765296 0.00047356414 0.0010742488 0.0020994423 0.0025461472 -0.00029625534 -0.00037908138
-0.00042387156 -0.0761281 -0.106431074 -0.071262494 -0.0017759312 -0.0015417278 -0.0011197926 -0.08802618
-0.0023264892 -0.07293132 0.004878995 0.0034404541 0.003633716 0.08269929 0.03016783 0.043581404
0.073681474 0.03098743 0.10461561 -0.0007128781 -0.0011037416 -0.00065128057 -0.00081479596 -0.0008157496
-0.0008705977 -0.0009324443 -0.0007544333 -0.0013008781 0.0015620363 0.14189509 0.045374706 0.06075133

2.bias f4 [16]
00000000: 78bd 45ba 1cce debc 6221 9bbe 5eb7 41bc
00000010: cd2a abbc d14e 81be edc5 e4bd 6a75 2f3e
00000020: 6624 42bd fcb7 20bd 4623 e8bc 8df4 40bc
00000030: d091 7fbb 4364 74be 5f73 4dbd 0d80 8fbd
-0.00075431867 -0.02719789 -0.30298907 -0.011823503 -0.020894432 -0.25255445 -0.11170564 0.17134634
-0.047397994 -0.03923796 -0.028337132 -0.011777055 -0.0038996823 -0.23866372 -0.050158855 -0.070068456

4.weight f4 [16, 16, 4, 4]
00000000: 286e 9b39 afb0 0c3a 3f61 8c3a 4aa4 943a
00000010: 04a8 733b 61ea 533b ddc6 323b 5335 533b
00000020: 5521 c33b 7b37 9f3b a79d 7c3b a0e4 673b
00000030: 79fa d43b 6aa1 053b f60e 453a 12c0 d2b8
00000040: 96a7 3a39 af5d 99ba 9f5b c239 3d79 613b
00000050: d233 553b 1d4f 39b7 31fa e239 67c8 5b3b
00000060: cd65 3f3b 36c6 923b e33f 893a 9ea9 803a
00000070: e76f 083b 269a 553b 7fa0 893b e03f 2e3a
00000080: d94f 633d d2b0 2a3d 2d32 9d3c 3d0e 803d
00000090: 3033 4f3c 0c12 373c 8853 433c 2893 713c
000000a0: 4798 8dbc 21ab 88bc a1f0 4abd 8eba 76bc
000000b0: e867 243b 44a1 fc3a ba1a 393b f984 da3a
000000c0: a01a 0dbd 3462 34bd 6b28 82bd 7aa8 2cbd
000000d0: 0d22 91bd dd65 8ebd fba5 94bd fc7c b1bd
000000e0: 8ea0 d2bd 619a d5bd d882 f4bd 4e2d d8bd
000000f0: 5804 1fbe a84f 1ebe 15ce 16be 178d 17be
00000100: 4093 09ba e807 77b9 b70d b7b9 bcbc a439
00000110: 726f b8ba 7345 f2b9 6fdf 8c38 51b5 303a
00000120: 03eb 01b9 9307 61ba 9351 76ba 22c5 cc39
00000130: bf44 31ba b432 b5b9 47d4 4ebb 0c16 36ba
00000140: c41b 483b 0e08 433b c443 093b 4e25 e73a
00000150: 9868 be3a 755e 963a 5e07 2c3a 18a6 13bb
00000160: 9479 62ba f07c 9138 be52 a4bc 8a5f 51bd
00000170: 5662 0239 6511 13bd 0bcb 86bd efd3 4ebd
00000180: 8999 25ba 4356 30ba 4455 6a3a dbd9 4f3a
00000190: 06d8 033b 9184 4c3b e2dd 823b 0600 863b
000001a0: 0978 ef3a 18e8 213b ed11 3639 16e1 eaba
000001b0: ee46 053b 9ff2 ce3a 1862 6fb9 e2d5 9139
000001c0: 0b7b 01bd 0d42 84bd 4ae5 2fbd c47a 29bd
000001d0: 3f22 84bb 047d ddbb a20c d5bb 265d 5ebb
000001e0: a163 6cba d47e a3ba 17ed d3ba d567 d6ba
000001f0: b0df 05b9 5304 25ba 0eec 6dba 1d11 21ba
00000200: 7999 3a3a 1e2a 7c3a 3617 a33a a1d2 a93a
00000210: 49b7 943a 2a0d ba3a deec ea3a 0659 af3a
00000220: bf0b b63a 4bfa d73a e78e 263b 4c1b 073b
00000230: b176 5c3b 5cee 4d3b 1ef1 843b 1229 843b
00000240: b58b 83b9 e65b 7bba f292 54ba d777 54ba
00000250: 490c f1b9 4bcc 8b3a a425 26bb 14e6 f2b9
00000260: a9b3 5ab8 5a37 823a 34d3 96ba 37bf 87b8
00000270: 1b80 b9b9 7f8a 45b9 7e61 66ba 68a2 d6b9
00000280: de65 5d3b 73e1 ad3b 7bc1 993b 82da b23b
00000290: 209a b73b 0599 893b 84dd 693b ada1 623b
000002a0: 02f0 2e3b 7138 463b 6d3a 113b 7465 913a
000002b0: e8e6 6db9 3822 9ab9 c705 3939 afe8 b13a
000002c0: 7fd8 6f3a 8af7 173a 9722 c938 52d3 e938
000002d0: 050a f2b9 d223 0bba 715e b6b9 2680 6339
000002e0: 76a3 0439 99ef 59ba 0ad8 6fb9 1c75 ca39
000002f0: 0d6a f338 0510 d7b8 f651 4039 a6fb 26b8
00000300: 2d91 d0ba 47c5 b2ba f354 cdba 83ae a7ba
00000310: fa09 86ba cf56 90ba e925 acba d196 26ba
00000320: 24c9 fdb9 e7d0 09ba 6318 bfb9 914b d1b9
00000330: 45ef 2dba 71df f7b9 b6e7 fab9 f992 d2b9
00000340: af6f 35be 0b43 49ba 20cc 8bbe 3a65 f7bb
00000350: 2654 6e3c 7b89 0d3c a0d3 08bb ea24 40bd
00000360: 7e91 d03c 0519 6fbe ff7e 10be c176 bbbc
00000370: 3acb cf3d 4d6f 283d 9cf5 e1be ab98 20be
00000380: db65 2d3a 4e95 d639 94b4 dcb8 3723 5639
00000390: 25c7 0d3a c0c6 9639 eeee 01b9 1c58 a4b9
000003a0: 5e15 f739 5366 17b9 05e7 01ba e842 6dba
000003b0: 7f6d 053a 8c6c cd38 56c4 82ba c95d 10ba
000003c0: 74ed 34ba b797 05b9 d3ed 91ba 4292 08ba
000003d0: 84e7 20ba 7bd8 8739 34fc 1dbb 5647 0abb
000003e0: 8a65 84bb 364e debb a52b 9cbb 9956 8abb
000003f0: 118b f5b9 8efe d8b9 d696 6db9 ea65 cdba
0.00029645977 0.0005366904 0.0010710134 0.0011340466 0.0037179003 0.0032335746 0.0027279176 0.0032227829
0.005954901 0.0048589087 0.0038546117 0.0035384074 0.006499585 0.00203904 0.0007517183 -0.00010049356
0.00017800773 -0.0011700894 0.00037070827 0.003440454 0.0032532108 -1.1045279e-05 0.00043292486 0.0033536197
0.0029204965 0.004479195 0.001047131 0.0009816175 0.0020818652 0.00325931 0.004200041 0.00066470914
0.05549607 0.041672535 0.019188965 0.06252716 0.012646481 0.011173736 0.011921771 0.014744557
-0.017284526 -0.016683163 -0.049545888 -0.015059127 0.0025086347 0.0019274135 0.002824469 0.0016671709
-0.03444922 -0.044038966 -0.06355365 -0.04215286 -0.07086573 -0.06953023 -0.07258221 -0.08666417
-0.102845296 -0.10429836 -0.11939019 -0.10555516 -0.15529001 -0.15460074 -0.14727052 -0.14799915
-0.0005248077 -0.00023558701 -0.00034914698 0.00031421136 -0.0014071299 -0.0004620958 6.717338e-05 0.00067408854
-0.00012389947 -0.00085841975 -0.0009396311 0.00039056788 -0.0006762258 -0.00034560787 -0.0031559633 -0.0006946034
0.0030534128 0.002975944 0.0020944932 0.0017635019 0.0014527021 0.0011472242 0.0006562377 -0.002252942
-0.00086393324 6.93741e-05 -0.020058986 -0.051116504 0.00012434399 -0.03590526 -0.06581696 -0.050495084
-0.0006317129 -0.0006726721 0.0008939097 0.00079288863 0.0020117774 0.0031206945 0.0039937356 0.0040893583
0.0018270026 0.002470499 0.0001736355 -0.0017919864 0.0020336467 0.001578886 -0.00022829359 0.0002781591
-0.031611484 -0.06457911 -0.042943276 -0.041376844 -0.0040324028 -0.006759288 -0.00650175 -0.0033930033
-0.00090175314 -0.0012473711 -0.0016168681 -0.0016357849 -0.00012767198 -0.0006294895 -0.00090760074 -0.00061442127
0.0007118206 0.0009619313 0.001244283 0.0012956449 0.0011346127 0.0014194597 0.0017923375 0.0013377971
0.0013888999 0.0016477791 0.0025414766 0.0020615635 0.0033640082 0.003142259 0.0040570637 0.0040332163
-0.00025090357 -0.0009588584 -0.0008109055 -0.0008105016 -0.00045976255 0.0010665742 -0.0025352025 -0.00046329258
-5.214257e-05 0.0009934709 -0.0011507035 -6.472918e-05 -0.00035381396 -0.00018838978 -0.0008788331 -0.00040938263
0.0033782641 0.0053064167 0.004692254 0.005458177 0.00560309 0.0041991496 0.0035685012 0.003458123
0.0026693349 0.0030246044 0.0022160069 0.0011092857 -0.000226881 -0.00029398664 0.00017645127 0.0013573373
0.0009149387 0.0005797079 9.59087e-05 0.00011149667 -0.00046165302 -0.0005307767 -0.0003478411 0.00021696146
0.00012649395 -0.0008313596 -0.00022873297 0.00038615696 0.000116068964 -0.00010254983 0.0001834108 -3.981185e-05
-0.0015912406 -0.0013639115 -0.0015665576 -0.0012793097 -0.0010226362 -0.0011012199 -0.0013133857 -0.0006354871
-0.00048405782 -0.0005257264 -0.00036448528 -0.00039919888 -0.000663508 -0.00047277988 -0.00047856354 -0.00040163824
-0.17718385 -0.00076775317 -0.27304173 -0.007549909 0.01454643 0.008638735 -0.0020878091 -0.046910204
0.025460001 -0.23349388 -0.14110945 -0.022883775 0.10146184 0.04112177 -0.44132698 -0.15683238
0.0006614604 0.000409285 -0.00010524053 0.00020421749 0.0005408398 0.0002875831 -0.00012391407 -0.00031346164
0.0004712743 -0.00014438601 -0.0004955384 -0.00090508023 0.00050898636 9.79538e-05 -0.0009976726 -0.0005507139
-0.00069018384 -0.00012740387 -0.0011133499 -0.00052097824 -0.0006138014 0.00025910497 -0.0024106624 -0.0021099648
-0.0040404247 -0.006784226 -0.004765945 -0.004221749 -0.00046833654 -0.00041388388 -0.00022658272 -0.0015670632

4.bias f4 [16]
00000000: be3b 663e 6ec2 8e3d e36d 28bd f7fa 7e3e
00000010: 4823 b4bc d5f4 f7bc 8d6b ddbb a86b 88bc
00000020: d7aa 023c 9a5d 9f3e 5fc6 28bc 4a10 84bc
00000030: 0418 f0bc 634f aa3d bb90 de38 6bfd 9f3b
0.22483727 0.06970678 -0.04112042 0.24900423 -0.02198948 -0.030268112 -0.006757206 -0.016652897
0.007975302 0.311261 -0.010301202 -0.016121048 -0.029308327 0.08315923 0.00010612743 0.0048825047

7.weight f4 [128, 1024]
00000000: 4a08 24be 32c4 13be 792f 5bbd d010 53bd
00000010: 3a30 89bd 696e 82bd 9fba 95bd 4e94 19be
00000020: e1ef c9bc bc94 b8bb 5799 c3bb 1dba 2bbd
00000030: 6ae4 0ebe 92f8 47bd 0cb6 04bd 6aaf 94bc
00000040: 43de e13a 24de ffb9 6b86 9b3a 4895 df3b
00000050: c709 b23a d1fa 4339 77e4 41bb 7821 31bb
00000060: 2f0a 593b 98a9 6c3b 408d 163b 8605 9c3d
00000070: 5d31 243e a6eb f73b 728d 723b dc99 7a3a
00000080: 9042 db3b 8bf3 f83b 11c4 4c3b ee48 baba
00000090: fe65 583c 319f c93c 4b06 003d d45d 503b
000000a0: 0ddb 863c 395f 0e3c 4af9 173c 798a 5f3b
000000b0: 622a 2cba e63d 653b be84 d53b 75e2 c03b
000000c0: dd34 83ba 9450 f3ba 1a18 eeba 8d9b 7d3b
000000d0: 5c7b 653b f1d2 c83b d8f7 933b 5d6a a13b
000000e0: 2442 133c d7cf 083c f16d 963c baee 3e3d
000000f0: 556e 753c 690b bb3c 72d4 033c b6ca 823b
00000100: 0305 c5bb 2ac4 043b abce 97bb 8ae7 9c3b
00000110: 6c7a 013c a0a1 cb3b 7482 033b 07e0 c039
00000120: 6ba1 a6bb c99a 87bc 9807 3ebd ad3d 37bd
00000130: 4bc2 5bbb 2d6e f8bc 85ec 08bc 16bb 8bba
00000140: ff23 25bc 9ea8 11bc fe65 49be 14ad 22bf
00000150: fc5d 88be adff 49be 9ce4 adbd 9a2b 0cbb
00000160: 8499 88bc 0f12 e0bd eb4d 1fbe 5d89 c83b
00000170: 6b68 58bd 9d05 3dbe 743d 93bd ba88 17bd
00000180: 82dc 40bd bd2a 9ebd 79b3 abbd 734c ab3e
00000190: 956c 023f c3da e238 8b84 c4bd 82de 80bc
000001a0: 8a74 80bd 1ce1 1fbe 816a 2abe 7460 bc3c
000001b0: a9af cf3c 2ebc 1c3b c649 25bd 5c18 413c
000001c0: ae70 f73b 0ea9 463b 5615 89bb 966e 283c
000001d0: cef9 2c3c 78a2 e53b abb2 5f3c 076f a13c
000001e0: 5339 6a3d 3d1a 9e3d 2532 483e 7b56 c83e
000001f0: c0bb 323f a8d9 423e fa13 bc3d 9120 b23e
00000200: 6c56 603c 1c3e 083e 5360 baba 93c5 1d3c
00000210: 7516 a43e 23d8 a83e 9afc 143f 2ad5 b83c
00000220: 4189 4e3c b38e ec3b b45b cc3d 48c8 803e
00000230: d3f1 643e 40d0 d33e 51b0 c43e 907e fc3a
00000240: 0395 1d3c 41bc 1a3c 0b52 9a3d 7f44 463e
00000250: f914 9d3e a5fd c03e 9677 e43e 7a01 103c
00000260: 3067 b73b 2ea0 413d 1b55 063c 241a 463a
00000270: df44 1abc 7833 8bbb 0c9e b53b 306f 9e3d
00000280: 837b 5d3a 8743 e93d 625f 193c c33a 8abd
00000290: 76dd 2abe 6397 21bc 09e3 04bd 9ffd 833d
000002a0: 43f9 6b3b 5129 ce3e 8d1c 433c 6b18 e3bb
000002b0: 1e7f 7bbd dc59 513a 66dc 00bc 3465 63ba
000002c0: 0ada e23c 06b6 303e 90d2 c63d 02cd 3a3d
000002d0: d407 a6bc 65fa 073a dc7d 023c faa3 10bc
000002e0: 30ad 7c3c 20c0 af3e 9066 f83d ee06 c33c
000002f0: ab0d 04bc b1c8 f93b b2ef 683c 5c5d 5d3b
00000300: d90b cfbb 80c7 74bb 5507 16bc ba98 c9bc
00000310: de34 03bd ac67 08bd e1da 0abc b610 7dbb
00000320: a783 e7b9 94a5 4fbc 874c 2abc ca6b dc39
00000330: 8a48 2cba 0cc5 f2bc aca7 c9bb 1624 99bb
00000340: 4957 11bc 2304 97bd a961 c1bc 3e8e aabc
00000350: 43b2 95bc 31fb 1bbd 4680 91bd 61a8 febb
00000360: b6a7 70bc 1804 2bbd 2a2c 91bb 3d2f ff3a
00000370: 4072 a43b 2b54 3bba fbc1 c1bc dd97 ebbb
00000380: 9bba dfbb 921c 70bd 7601 e8b5 0ac8 fc3b
00000390: 58ff ac3b 2feb 1abb d8a8 18bd 3c73 c3bc
000003a0: 603d 8bbc 76ef 0dbd e2ca 90bb b0cc 263b
000003b0: 7db8 7e3b 15e8 6239 1e8d 6bbd 0e80 efbb
000003c0: e247 c5bb b81b b53a 509d 6fbb 5c05 a23a
000003d0: de99 ce3b e695 553a 791b 6fba 4c3c 82bb
000003e0: 932b 2dbb 03ab 923a 96ed e5ba c1e7 633a
000003f0: 6128 b53a f8a6 a73a 943c 5a3a d1e6 513b
-0.16018787 -0.14430311 -0.05351207 -0.051529706 -0.066986516 -0.06368715 -0.07310986 -0.1499798
-0.024650516 -0.005632965 -0.0059692073 -0.04192554 -0.1395432 -0.04882104 -0.032400176 -0.01815005
0.0017232377 -0.00048802898 0.0011865621 0.0068232156 0.0013583236 0.00018690086 -0.0029585639 -0.0027028006
0.0033117642 0.0036111828 0.0022972375 0.07618241 0.16034456 0.0075659333 0.0037010578 0.000955967
0.0066912845 0.007597392 0.0031244794 -0.0014212409 0.013207911 0.024612041 0.031256 0.0031794207
0.016461873 0.008689695 0.009275744 0.0034109636 -0.0006567595 0.0034979521 0.0065160682 0.005886371
-0.0010010261 -0.0018563443 -0.0018165142 0.0038697452 0.0035016155 0.006128662 0.0045156293 0.0049260096
0.008987937 0.008350334 0.018362971 0.046614386 0.0149799185 0.02283259 0.008046256 0.00399145
-0.0060125603 0.0020258524 -0.004632791 0.004788344 0.007902723 0.0062143356 0.002006677 0.00036788007
-0.0050851605 -0.0165533 -0.04639396 -0.044736553 -0.0033532556 -0.030325973 -0.008357172 -0.0010660614
-0.010079383 -0.008890299 -0.19667813 -0.63545346 -0.26634204 -0.19726439 -0.084908694 -0.0021388293
-0.016674764 -0.109409444 -0.15557067 0.0061198906 -0.052833956 -0.18459173 -0.07189456 -0.036995627
-0.047085293 -0.077229954 -0.08383841 0.33456764 0.50946933 0.00010817267 -0.09595593 -0.0157311
-0.06272228 -0.15613216 -0.1664219 0.022995211 0.025352316 0.0023915875 -0.04035356 0.011785593
0.0075512743 0.0030313167 -0.0041834516 0.010280272 0.010557605 0.007007893 0.013653438 0.019706262
0.057183575 0.07719848 0.19550379 0.3912848 0.69817734 0.19028342 0.09183498 0.3479047
0.01369248 0.13304943 -0.0014219381 0.009629625 0.32048383 0.329774 0.5819794 0.022562582
0.012605966 0.0072191595 0.099784285 0.25152802 0.22357874 0.4136982 0.3841577 0.0019263793
0.009618047 0.009444297 0.0753518 0.19362067 0.30680063 0.37693515 0.44622487 0.008789415
0.0055970177 0.0472719 0.008199002 0.0007556996 -0.009415834 -0.004248079 0.0055425223 0.07736051
0.00084488856 0.11389833 0.00936112 -0.06749489 -0.16686043 -0.009862754 -0.03244308 0.06444859
0.0036006726 0.40265897 0.0119086625 -0.006930401 -0.061400525 0.00079861074 -0.007865047 -0.0008674443
0.02769186 0.17256936 0.0970813 0.045605667 -0.020267405 0.0005187153 0.0079645775 -0.008828158
0.0154221505 0.34326267 0.12128937 0.023807015 -0.008059899 0.0076228012 0.014217304 0.003377757
-0.006318551 -0.0037350357 -0.0091570215 -0.024608959 -0.03203284 -0.033301994 -0.008475036 -0.0038614697
-0.00044157842 -0.012673754 -0.010394222 0.0004204198 -0.00065720885 -0.029634975 -0.0061540212 -0.004673491
-0.008870908 -0.07373836 -0.023606138 -0.02081978 -0.018273478 -0.03808135 -0.07104544 -0.007771537
-0.014688423 -0.04175195 -0.0044303136 0.0019469034 0.0050185025 -0.0007146026 -0.023652067 -0.0071897344
-0.006827665 -0.058620997 -1.7285772e-06 0.007714276 0.005279463 -0.0023638716 -0.037270397 -0.023858659
-0.01699704 -0.034652196 -0.0044187168 0.0025451593 0.0038867288 0.00021639497 -0.057507627 -0.0073089665
-0.006020532 0.0013817465 -0.0036562271 0.0012361216 0.0063049635 0.0008147642 -0.000912122 -0.003974473
-0.0026423677 0.0011189881 -0.001754212 0.0008693897 0.0013821238 0.001279085 0.0008325067 0.0032028446

7.bias f4 [128]
00000000: 252d 86be 96f9 48bc 6e0f 62bd bd48 433e
00000010: ac4d f13b ed8a 67bc 3983 f6bb 060a 6cbb
00000020: 6ac5 87bd fe8d 383b 3b73 b53e 55d4 2abc
00000030: d482 8e3d 5855 77bb fe2e 863e 8e37 ccbb
00000040: 1996 abbc febb 17bc fd06 f539 baac 093d
00000050: 0969 c0bc 697b 983b 6934 8b3d 7f14 82be
00000060: dadc 78bd 6c65 c9be 68d1 fb3b 4e2b 353e
00000070: 894f ab3b 781b b7ba 1a62 3b3e 2d1c 8dbd
00000080: e0d0 1dbe ae1d 4b3e 2fe4 023e 9a05 393e
00000090: 3a3a 623d eb75 89bc 24aa eabb b32e 0a3f
000000a0: 3b52 293b a161 9b3b d36d d7bb bc77 2dbe
000000b0: 67ad 133c 08b7 65bb 96bc 863e 4433 53bc
000000c0: c84e 08be 6931 3bbc 8f85 c2be f2f5 5a3b
000000d0: b884 08bd 1664 a8bd 2036 093c d641 9d3c
000000e0: decf 7d3b 8dd4 ccbe 874f 91be c40d 843b
000000f0: 707a a83e 2a99 933c aa71 a6bb 7c9a 243d
00000100: d077 1cbe d589 77bc 3e84 023c 1d6e 043b
00000110: f089 283c 1de3 123c 5881 6a3e 775f 8ebd
00000120: 3b29 313d cc91 62be ebd8 36bc 1fc3 85bb
00000130: 85df f3bc f7e3 03bc 3a5c e53b a02e 173d
00000140: e89c 683d ffef 203e 84e0 19be 94cf 8e3b
00000150: f352 8c3d 94a4 183a a261 4c3c f951 0b3b
00000160: f390 68bb bdcf aebb 30d3 0abd a869 00bb
00000170: b4be 5ebb e42f 28bc 63fc 12bd ac9f 17bd
00000180: f879 96bc de5b e5bb 92c5 c33d 622b b93b
00000190: c414 2d3c 0553 283b 68f6 b9b9 37d5 26be
000001a0: a8f9 abbe 7be2 a7bb 55b5 a4be b9e5 50be
000001b0: 4cc3 b1bb 9754 aebb e5aa 9bbb 3866 303c
000001c0: 293e dd3a 5ff9 b33e a887 8e3b 6d89 123d
000001d0: 3d31 9d3c 71d8 d23d 0f71 b3bd 6f4d 1c3c
000001e0: 3452 3e3c 0437 bfbb ce7f f63d eeea ad3e
000001f0: 1f7b 823b 79e3 cd3b 7ec7 3dbc a772 a9bc
-0.26206318 -0.012266537 -0.055190496 0.19070716 0.0073639955 -0.014132244 -0.007522967 -0.0036016717
-0.066294506 0.0028160806 0.35439476 -0.0104266 0.06958547 -0.0037740078 0.26207727 -0.0062322086
-0.020945596 -0.009261129 0.00046735248 0.03361199 -0.023487585 0.0046533835 0.06797106 -0.25406262
-0.060757495 -0.3933519 0.0076848753 0.176923 0.005227987 -0.0013969978 0.18299142 -0.0689014
-0.1541171 0.1983554 0.12782358 0.18068543 0.05523131 -0.01677986 -0.0071613956 0.5397751
0.0025836367 0.004741863 -0.0065743714 -0.16940206 0.00901351 -0.0035051722 0.26315755 -0.012890641
-0.13311303 -0.0114253545 -0.37992522 0.0033410755 -0.033329695 -0.08222215 0.008374721 0.019196432
0.0038728635 -0.40005913 -0.28380987 0.0040299613 0.32905912 0.01801737 -0.005079468 0.04018639
-0.1528008 -0.015108545 0.007966099 0.0020207234 0.010286793 0.008965281 0.22900903 -0.06951802
0.04325221 -0.2212593 -0.011160116 -0.004082098 -0.029769668 -0.0080499565 0.0069995197 0.0369097
0.056790262 0.15716551 -0.15027052 0.0043582413 0.06851759 0.0005822864 0.012474449 0.0021258576
-0.0035486787 -0.005334823 -0.03389281 -0.0019594226 -0.003398818 -0.010265324 -0.035885226 -0.03701751
-0.018368706 -0.006999477 0.09559168 0.0056509236 0.010564033 0.002568425 -0.00035469537 -0.16292273
-0.3358891 -0.005123434 -0.32169595 -0.20400132 -0.0054248925 -0.0053201425 -0.004750597 0.010766558
0.0016879487 0.35151193 0.0043496676 0.03577559 0.019188518 0.10295189 -0.087617986 0.009539946
0.011616278 -0.005835416 0.120360956 0.339683 0.0039819623 0.0062832204 -0.011583207 -0.020684553

8.weight f4 [10, 128]
00000000: 62a4 ee3a 3aba 4fb9 76cf b33d 19fa 283a
00000010: 8445 c5ba 82b9 353b 03a9 efb9 5b24 8039
00000020: 1434 b0ba 9c50 37b9 5e2e c7ba 7738 f138
00000030: 4bb8 98bb 8552 c838 a910 faba aaa1 fc39
00000040: afc6 5dba 9fb5 333a f3f5 c73a 5794 983b
00000050: 7fb0 7ebb 4f29 30ba 6618 ca3a 8e28 2e3b
00000060: c66a 7d3a 02df dab8 4d7c 19ba 7ad2 d5bd
00000070: 0164 98b9 659f 85ba 1786 963b 8b62 b33a
00000080: d20c ce3b dce8 c3be 4cdf 563b 1ecf 2639
00000090: b772 90bd 4a54 2bba dec8 04bb 69ae d9bb
000000a0: 47dd 31ba abfc 4b3a c242 0e3a 5af7 503a
000000b0: c2c9 cbba e656 ecba 9309 113a d4df 11bb
000000c0: 11b5 273a eed2 9738 affc 833b 4d29 02bb
000000d0: 2f73 3239 2efa 7cba 6b88 9b3a 12f4 89b9
000000e0: 484f 963a 7d4c 493b 711e 993d 88be 24b9
000000f0: 0419 9ebb d216 02bb 0ab9 abba 541e baba
00000100: 2c55 06bb dd46 50ba e8f7 1839 4c2f 20ba
00000110: 69b8 b23a 2381 88ba 9750 47be 82e0 daba
00000120: f962 9aba 9d86 b23c 2f56 353b 5ae7 d3bb
00000130: 21c1 06b9 3aec 88b9 e624 85b9 b3d3 053a
00000140: 846e 0b3b af08 173b 613e 6f3a 469f 8437
00000150: e515 09ba 2d5c e1b8 b0ae 84b9 79b5 cbba
00000160: ec41 173a 8d6a 223a 2fe0 303b 18c1 e338
00000170: 7de2 5938 5972 9aba 99d0 96b9 d8c9 0ab9
00000180: a51f 2f3b a715 93ba 948e 0c3b a3c6 13b9
00000190: 3a8c 6cba f333 853a a527 2d3a ff31 893a
000001a0: 7f2c b93b 03ac 183a 11fb b9b9 d864 7b3a
000001b0: fd91 013b aa8d 30ba b412 83b7 2313 5ab9
000001c0: cecd a839 fe50 863a 4f0e 88ba 2644 7a3b
000001d0: 5fa7 313a b486 dab8 72ea e23a 1d15 87b9
000001e0: 9517 0dba eb27 e8ba 3a6a cab9 8f40 f9ba
000001f0: 18eb c23a a5ad fb39 6597 a13a 8750 fcba
00000200: 9e58 61ba 4e15 2ab9 c5bd 253b eb26 313a
00000210: fce6 9f39 ccc3 dc39 8ced abb9 f0ed 0cba
00000220: 37d9 ceb8 4c63 a8b9 333d d3ba cedc 3939
00000230: 8cfe d0b9 a90a 61ba 494b c0ba 4596 7c3a
00000240: a0dd 9eb8 af86 7c39 6781 c538 fb7a db39
00000250: 97f4 94bc db63 4c39 b4fa 25ba 4f3d 86ba
00000260: 46f6 c539 dbc0 8cb9 dfb6 4a3a f6ab 9438
00000270: 38d1 1e3a deb5 94b9 ffe2 9e3c 9d07 32b8
00000280: 3f0b da39 ac9b 5f39 b3db 2e3e 7f0d f4b9
00000290: 69a6 ab38 0cb6 5cba 0089 a43a ebca 02ba
000002a0: 8787 c339 8de6 8c39 eb7d 2db9 37cd d8ba
000002b0: 5063 e439 9b6f 4139 d856 693a ff40 393a
000002c0: 34dc efbd ab83 8537 1f6f 0ab9 d3a8 b03a
000002d0: 2b7b 5b3a 4c66 c8b9 3caa 0aba 3b36 4cb9
000002e0: bae8 79ba 5b0c 05b9 ab73 8cb8 d1af e739
000002f0: e2bc 713a 1531 ee39 fcc2 bf3a 126b b8b7
00000300: b46a 2bbb 5bf2 15ba 20bd c638 5096 abb9
00000310: 7f20 30b7 b507 353a 96b4 06ba 6b6e 47bb
00000320: ea0a fbb9 d702 433a c93a dfb9 b207 0bba
00000330: be60 3c39 7831 9639 5d17 65ba ad39 10ba
00000340: 9966 8cb9 45a9 753a e634 a6ba 62b4 6239
00000350: b0ac 4dba d704 59b9 c23e ea39 c740 a73a
00000360: f9f9 41ba a49c 7738 4f80 5b3e 64ba b1b9
00000370: f8f3 b9b9 9662 9b3a 212d cf39 9cb3 0e3a
00000380: e2ab 873e 49a0 dcb9 9354 1eba d31b 283a
00000390: c3ac b0b9 23a5 153a 3ec8 96ba 4425 9fbe
000003a0: ae7b 29b9 c7fd f1b8 da50 05bb 0387 cc3a
000003b0: 3516 4eba f685 613a 1567 60b8 e189 4bb8
000003c0: 1858 623a 6237 133a 64f8 923a 4b60 43ba
000003d0: b735 3fba 1098 aab8 bb69 163b ee84 f7b8
000003e0: 95d8 f438 3529 283a c899 033b 9ed2 b13a
000003f0: 5357 f9ba c104 6fb9 9b3e b738 b5e4 0d3a
0.0018206949 -0.00019810433 0.087798044 0.0006445959 -0.0015050624 0.002772898 -0.00045711556 0.0002444115
-0.0013443255 -0.0001748227 -0.0015196314 0.00011502293 -0.0046606413 9.5521136e-05 -0.0019078451 0.00048185635
-0.0008460087 0.0006855372 0.0015255794 0.0046563554 -0.0038862524 -0.00067200226 0.0015418648 0.0026574465
0.00096670946 -0.000104365885 -0.0005855009 -0.10440536 -0.00029066208 -0.0010194598 0.0045936215 0.0013685984
0.0062881494 -0.38263595 0.0032786904 0.00015908151 -0.0705313 -0.00065356924 -0.0020261328 -0.0066431058
-0.0006784987 0.0007781486 0.0005426818 0.00079714286 -0.0015547799 -0.0018031269 0.00055327377 -0.0022258656
0.00063975254 7.23953e-05 0.004027925 -0.0019861043 0.00017018312 -0.0009650317 0.0011866217 -0.00026312523
0.001146772 0.0030715757 0.07476509 -0.00015711237 -0.0048247594 -0.0019850028 -0.0013101411 -0.0014199712
-0.0020497544 -0.000794513 0.00014588202 -0.00061105634 0.0013635281 -0.0010414462 -0.19464336 -0.0016698989
-0.0011778764 0.021792704 0.0027669778 -0.0064667882 -0.00012851182 -0.00026115944 -0.00025395228 0.0005105093
0.002127559 0.0023045947 0.00091264216 1.5809794e-05 -0.0005229398 -0.00010746005 -0.00025307154 -0.0015541754
0.0005770016 0.0006195687 0.0026989093 0.0001086017 5.1947765e-05 -0.0011783346 -0.00028765647 -0.00013235898
0.0026721742 -0.0011221663 0.0021447288 -0.0001409301 -0.0009023581 0.0010162577 0.0006605334 0.001046717
0.0056510563 0.00058239716 -0.0003547301 0.0009589917 0.0019770854 -0.0006734977 -1.5625126e-05 -0.00020797229
0.00032196793 0.0010247526 -0.0010380241 0.0038187592 0.00067769544 -0.000104201405 0.0017312302 -0.00025764937
-0.0005382237 -0.0017712092 -0.00038607587 -0.0019016432 0.0014871089 0.00048003826 0.0012328444 -0.0019250073
-0.0008596274 -0.000162204 0.0025290113 0.00067578134 0.0003049894 0.0004210755 -0.00032792648 -0.00053760316
-9.863305e-05 -0.0003211744 -0.0016116261 0.00017725231 -0.00039862504 -0.00085846573 -0.0014670874 0.0009635429
-7.575308e-05 0.00024082766 9.417795e-05 0.00041862563 -0.018183036 0.00019492155 -0.0006331608 -0.001024166
0.00037758256 -0.0002684657 0.00077329384 7.08922e-05 0.00060583977 -0.0002836426 0.01939535 -4.2445598e-05
0.0004158858 0.0002132493 0.17075996 -0.00046549362 8.184912e-05 -0.0008419461 0.0012553036 -0.00049893436
0.00037294274 0.00026874655 -0.00016545474 -0.0016540651 0.00043561542 0.0001844749 0.00089011854 0.0007066875
-0.11711922 1.5916148e-05 -0.00013202101 0.0013478048 0.00083725405 -0.0003822319 -0.0005289649 -0.00019475158
-0.0009533275 -0.00012688471 -6.697265e-05 0.00044190747 0.0009221566 0.00045431466 0.0014630253 -2.1984368e-05
-0.002615613 -0.00057200127 9.476603e-05 -0.00032727653 -1.0497984e-05 0.00069057505 -0.0005138604 -0.0030430804
-0.00047882582 0.0007439083 -0.00042577673 -0.0005303576 0.00017965116 0.00028647087 -0.0008739138 -0.00055017584
-0.00026779322 0.00093712314 -0.001268056 0.00021620237 -0.0007845862 -0.00020696536 0.00044678716 0.0012760394
-0.00073996146 5.9035272e-05 0.21435665 -0.00033898943 -0.0003546772 0.0011854942 0.0003951574 0.0005443634
0.26498324 -0.00042081092 -0.0006039824 0.00064128375 -0.00033698053 0.0005708506 -0.0011503769 -0.3108312
-0.0001616317 -0.00011539045 -0.002034238 0.0015604201 -0.00078615855 0.00086030306 -5.3501764e-05 -4.852738e-05
0.0008634343 0.00056158577 0.0011212942 -0.00074530084 -0.0007294076 -8.1345555e-05 0.0022951204 -0.00011802638
0.00011675168 0.0006414832 0.0020080674 0.0013566797 -0.0019023217 -0.00022794587 8.737781e-05 0.0005412803

8.bias f4 [10]
00000000: fbbb 83be a223 14be cb61 53be f957 423d
00000010: a29a 003e 6a9c 323e 7ae8 2b3e 747f f9bd
00000020: 971a 883d bcfd 703d
-0.25729355 -0.14466718 -0.20642774 0.04744718 0.12558988 0.1744248 0.16787902 -0.12182513
0.066456966 0.05883573
