project_networks/new_sabr/cifar10_cnn_2layer_w1_sabr.onnx (onnx, 536819 bytes, 16 tensors)

0.weight f4 [4, 3, 4, 4]
0	0xbcf12d76	-0.029440623
1	0xbd5a5a8c	-0.05330901
2	0xbc3d1aea	-0.011542061
3	0xbd54fec5	-0.05200078
4	0xba8323af	-0.0010005141
5	0xba3fd043	-0.0007317105
6	0xba3227d2	-0.0006796095
7	0xba83bd39	-0.00100509
8	0xbd18fba1	-0.037349347
9	0xbde7fd6d	-0.11327634
10	0xbd43aee4	-0.04777421
11	0xbe1139cf	-0.14182208
12	0xba72a037	-0.0009255441
13	0xba340e9c	-0.0006868632
14	0xba6edb9a	-0.00091117027
15	0xbaa4ef38	-0.00125835
16	0xbce12085	-0.027481327
17	0x3aa81ae7	0.00128254
18	0x3d19cf78	0.037551373
19	0x39c29e58	0.0003712054
20	0xbc4208bf	-0.011842906
21	0x3929d886	0.00016197757
22	0x3c7f3b7f	0.01557815
23	0xb8ce013a	-9.823074e-05
24	0xbcc94a88	-0.024571672
25	0xbb684430	-0.0035441034
26	0xbb3cfa41	-0.0028835686
27	0xbb877f64	-0.004135059
28	0xbc84bb17	-0.016202493
29	0xb9c3311b	-0.00037229885
30	0xbbc255fa	-0.0059306594
31	0xba670bd9	-0.0008813716
32	0x3e012dd0	0.12615132
33	0x3efad9b8	0.4899423
34	0x3eccec4f	0.4002404
35	0x3e47dac0	0.1951704
36	0x3af3f801	0.001861334
37	0x3b8381a8	0.004013259
38	0x3b8598c9	0.0040770513
39	0x3ad8e325	0.0016547187
40	0x3c8a3086	0.01686884
41	0x3d975c7d	0.073906876
42	0x3d38e279	0.045137856
43	0x3ca70c6e	0.02039167
44	0xb984ee22	-0.00025354425
45	0x39a056ca	0.0003058224
46	0x390b6818	0.00013294851
47	0xb9e426e7	-0.00043516533
48	0x3e4e0166	0.20117721
49	0x3e40d3b5	0.1883076
50	0xbdb6530b	-0.08902558
51	0xbd098ce3	-0.033581626
52	0x3b3b1a1c	0.0028549498
53	0xbb0bf52d	-0.0021355853
54	0xbb8bd02c	-0.0042667594
55	0xb89ab4c0	-7.3769595e-05
56	0xbd790183	-0.060792457
57	0xbf2116f1	-0.6292563
58	0xbd247bda	-0.040157177
59	0x3ef70fcb	0.48254237
60	0xbaa0bae9	-0.0012262735
61	0xbac271a9	-0.0014834899
62	0x3b266c1f	0.0025394035
63	0x3b8a52a4	0.0042212773
64	0x3eacf87d	0.33783332
65	0x3d6836a0	0.05669272
66	0xbe09d28b	-0.13459222
67	0xbc55d6d0	-0.013051704
68	0x3e13cbee	0.14433262
69	0xbb0ee125	-0.0021801677
70	0xbe42a9d8	-0.19010103
71	0xb984d96f	-0.00025339003
72	0xbd9f0386	-0.07764344
73	0xbde349cc	-0.1109806
74	0xbe1af6db	-0.1513323
75	0x3d520072	0.051269956
76	0xbd4d7dac	-0.05016868
77	0xbb309e7b	-0.002694993
78	0x3d5e8ebb	0.054335337
79	0x3ba2c981	0.004967869
80	0x3e2a1fb4	0.16613656
81	0x3dda875f	0.10670351
82	0xbdcba782	-0.09944059
83	0xbd78ff73	-0.06079049
84	0x3aed9ca0	0.0018128343
85	0xbb286007	-0.0025692002
86	0xbb9c2580	-0.0047652125
87	0xba29bc29	-0.00064748764
88	0xbcb654f4	-0.022257306
89	0xbe8d6c03	-0.2762147
90	0xbcf96457	-0.030443354
91	0x3e69aa91	0.22818972
92	0xba43f0fa	-0.0007474568
93	0xba720c16	-0.00092333683
94	0x3b0a1222	0.0021067937
95	0x3b5c679f	0.00336311
96	0xbaa9ff51	-0.0012969767
97	0xbb4e9c66	-0.0031526326
98	0x3b8bcaed	0.004266134
99	0x3add0a48	0.0016864026
100	0x3a52d88b	0.00080431317
101	0x3abadfe7	0.0014257402
102	0x3ad9f616	0.0016629125
103	0x3a821f37	0.0009927516
104	0x3d1aaaf2	0.037760682
105	0x3e2414ab	0.16023509
106	0x3d85f06d	0.06539998
107	0x3e0a95de	0.13533732
108	0x3a44a16e	0.00075008615
109	0x3a9f3213	0.0012145661
110	0x3aa9e83f	0.0012962891
111	0x3a212efc	0.0006148664
112	0x3c8da5ad	0.017290914
113	0x3bdadca7	0.006679136
114	0x3cf68fcb	0.030097863
115	0x3bd23983	0.0064155473
116	0x3cbbe21e	0.02293497
117	0x3b17d49d	0.00231675
118	0x3d2d7237	0.042345252
119	0x3b0033fa	0.001956223
120	0x3d9bf096	0.076142475
121	0x3d006408	0.031345397
122	0x3df0e4ec	0.117624134
123	0x3cd4d14d	0.025978709
124	0x3cc6aba4	0.024251767
125	0x3b002208	0.0019551534
126	0x3d12c398	0.035831064
127	0x3ac94d61	0.0015358144
128	0x39602311	0.00021375368
129	0xbb52514f	-0.003209192
130	0x3a7e5b25	0.00097029126
131	0x3b1b3cc3	0.002368734
132	0x3a998e6a	0.0011715416
133	0x3aa5c339	0.0012646682
134	0x3acbf644	0.0015561064
135	0x3ab4173f	0.0013739838
136	0x3cb59a5f	0.022168336
137	0x3d396ff7	0.045272794
138	0x3d1884c3	0.037235986
139	0x3d37ba71	0.04485554
140	0x3a31b8e5	0.00067795656
141	0x3a46c643	0.0007582644
142	0x3a31d712	0.0006784062
143	0x3a5467ec	0.0008102644
144	0x3d9c40cd	0.07629547
145	0x3ec0de3e	0.37669557
146	0x3db98c39	0.090599485
147	0x3dc129cf	0.094318025
148	0x3abcc28c	0.0014401241
149	0x3b2472d3	0.0025092855
150	0x3af8254c	0.0018932014
151	0x3a565864	0.00081766234
152	0x3caad4ca	0.020853419
153	0x3df49816	0.119430706
154	0x3cd13f46	0.025542866
155	0x3cd95ddb	0.026534012
156	0x39eb4999	0.00044877527
157	0x3a2a6866	0.0006500542
158	0x39aca33d	0.00032928018
159	0x38df13b9	0.00010637142
160	0x3c5abbcb	0.013350437
161	0x3c7fa357	0.015602908
162	0x3bcd17a5	0.006258922
163	0xbc19cb4d	-0.00938685
164	0xba2f9d30	-0.0006699143
165	0x395489f9	0.00020269294
166	0xbbcd0735	-0.0062569627
167	0xba899376	-0.0010496217
168	0xbd1224e7	-0.035679724
169	0xbbfefe3b	-0.0077817715
170	0xbd4db49f	-0.05022108
171	0xbc8d57f7	-0.017253859
172	0xbc4d818d	-0.012543094
173	0xba29f450	-0.0006483244
174	0xbcb36aff	-0.021901606
175	0xba95ebfd	-0.0011438128
176	0x3b6dc6ae	0.0036281752
177	0x3cd373d2	0.025812063
178	0xbb56d643	-0.0032781519
179	0xbcc6eead	-0.024283731
180	0xb9eba440	-0.0004494507
181	0xb98ef0a3	-0.0002726364
182	0xb9960c69	-0.00028619476
183	0xba072a5c	-0.00051561533
184	0xbc26430d	-0.010147822
185	0xbbfafa6b	-0.0076592467
186	0xbc51c973	-0.012804377
187	0xbce55837	-0.027996166
188	0x3509bf3d	5.1314765e-07
189	0xb8e55e3c	-0.000109371234
190	0xb9198120	-0.0001463932
191	0xb923eabc	-0.00015632337

0.bias f4 [4]
0	0xbe4b5a1c	-0.19858593
1	0xbaa0da37	-0.0012272064
2	0xbe1ee58d	-0.15517254
3	0xbe2da222	-0.1695638

2.weight f4 [8, 4, 4, 4]
0	0xbb3dc104	-0.0028954158
1	0x3ce61f50	0.028091103
2	0x3d85d968	0.065356076
3	0x3ca61fa4	0.02027876
4	0x3d6ba302	0.057528503
5	0x3e0644a0	0.13112116
6	0x3e271e44	0.16320139
7	0x3d8947b0	0.067031264
8	0x3d4c7b23	0.04992212
9	0x3d90b6d7	0.07066124
10	0x3d6bb420	0.057544827
11	0xbb25b52e	-0.0025284993
12	0xbc3856a6	-0.011251127
13	0xbc28addd	-0.0102953585
14	0xbcadb212	-0.021203075
15	0xbd40d693	-0.047079634
16	0xbc04e38d	-0.008110893
17	0xbc020396	-0.007935425
18	0xbbb88338	-0.005630877
19	0x39c446c9	0.00037436772
20	0xbc353815	-0.011060734
21	0xbc3175f6	-0.010831347
22	0x3b77d3d5	0.003781547
23	0x3b0ecacb	0.0021788354
24	0xbaa4939c	-0.0012556198
25	0xbbe519a2	-0.006991581
26	0xb9e67b29	-0.0004396078
27	0xbb17c90d	-0.0023160607
28	0x3b0ce81f	0.002150066
29	0x3a063f4d	0.0005121127
30	0xbc48ffe4	-0.01226804
31	0xbbfa86e1	-0.0076454733
32	0xbc9271ef	-0.017876593
33	0xbcaee053	-0.0213472
34	0x3d397136	0.045273982
35	0x3d2b743d	0.0418589
36	0xbbc54ea2	-0.0060213367
37	0x3ce1756a	0.027521808
38	0x3ccbe7e7	0.024890853
39	0xbd02f468	-0.031971365
40	0x3b903f54	0.0044020806
41	0xbc04b18b	-0.00809897
42	0xbc65ec8b	-0.014033447
43	0xbd93cd9e	-0.07216953
44	0xbd017a08	-0.03161052
45	0xbd4e028c	-0.050295398
46	0xbba4453f	-0.0050131376
47	0xbbc6b6c4	-0.006064268
48	0xbdde0e65	-0.10842589
49	0xbdfc01ab	-0.12305006
50	0xbdb008f3	-0.08595457
51	0xbd18dabc	-0.037317976
52	0xbdc3ed5e	-0.095667586
53	0xbd8599c2	-0.065234676
54	0xbcbf5132	-0.023354147
55	0xbd5eab75	-0.054362733
56	0x3c1841f1	0.009293065
57	0x3c3aaa9b	0.011393215
58	0x3cd03b64	0.025418945
59	0x3cc1569d	0.02360087
60	0x3d6ec201	0.058290485
61	0xbba019c5	-0.0048858845
62	0x3cebfe25	0.028807709
63	0x3d9ffbd9	0.07811708
64	0x3aba24d5	0.0014201651
65	0x3d6c5a8a	0.057703532
66	0x3d8e468c	0.069470495
67	0x3cc9315e	0.024559673
68	0xbd22ceb7	-0.03974792
69	0xbe3ef118	-0.18646657
70	0xbe2c9f38	-0.16857612
71	0xbcc86463	-0.02446193
72	0x3d3c15e2	0.045919307
73	0x3dd3f751	0.10349906
74	0x3d9d8ca5	0.076928414
75	0xbb515318	-0.0031940397
76	0x3c7ede51	0.015555934
77	0x3cd55c80	0.026045084
78	0x3d0789f4	0.033090547
79	0x3c5ab605	0.013349061
80	0x3c2838f7	0.010267488
81	0x3caa2aeb	0.020772418
82	0x3d259458	0.040424675
83	0x3cfbd0cd	0.030739212
84	0x3c11f731	0.008909033
85	0x3c7ce01c	0.015434291
86	0x3bb932b7	0.0056517976
87	0x3c08de8b	0.00835384
88	0x3bde727f	0.0067885513
89	0x3bf9f62a	0.007628222
90	0x3c80baf6	0.01571415
91	0x3c85efb9	0.01634966
92	0x3c7e7377	0.015530459
93	0x3cb18bb0	0.021673054
94	0x3cdad045	0.026710639
95	0x3cba6a10	0.022755653
96	0xbdcb0a58	-0.09914082
97	0xbe4af3c0	-0.19819546
98	0xbe0514dc	-0.12996238
99	0x3bafa550	0.005360283
100	0x3db40e4b	0.08791789
101	0x3dfb672c	0.12275538
102	0x3db4bc26	0.08824949
103	0xbc670c0c	-0.014101993
104	0xbc6de213	-0.014519232
105	0x3d913dd0	0.07091868
106	0x3d9c9898	0.076462924
107	0x3cc41a77	0.0239384
108	0xbd91cc31	-0.071190245
109	0xbdb43516	-0.08799188
110	0xbd0250e2	-0.031815417
111	0xbd19b904	-0.03752996
112	0xbc921790	-0.017833501
113	0x3dbe7c85	0.09301094
114	0x3e07d626	0.13265285
115	0x3d75e85f	0.06003606
116	0xbd5b6c8e	-0.053570323
117	0xbe4be6fb	-0.19912331
118	0xbe8a3f8d	-0.2700161
119	0xbd8fa932	-0.07014693
120	0x3d5c32ca	0.053759374
121	0x3de8d374	0.113684565
122	0x3dc4fce6	0.09618549
123	0xbc82dd2b	-0.015974602
124	0x3d4e3337	0.05034181
125	0x3d6cdfd0	0.05783063
126	0x3d4aede9	0.049543295
127	0x3cf5614f	0.029953627
128	0xbc5bab2a	-0.013407508
129	0x39040064	0.00012588646
130	0x3b8518f1	0.004061811
131	0xbbf2e206	-0.007412198
132	0xbc3bc025	-0.011459385
133	0xbaca00d7	-0.0015411627
134	0x39b671b7	0.0003479847
135	0xbd141c80	-0.036159992
136	0x3cecd0f9	0.02890824
137	0x3dc50910	0.09620869
138	0x3ce7cb1e	0.028295096
139	0xbe00760b	-0.1254503
140	0x3cb7381c	0.022365622
141	0x3e2c2803	0.16812138
142	0x3cc37daa	0.023863632
143	0xbe58d49b	-0.21174853
144	0xbb384c5c	-0.0028121686
145	0xbb80351a	-0.00391258
146	0xbab3b2f1	-0.0013709945
147	0xb99275ff	-0.00027935204
148	0x3b729d22	0.0037019928
149	0x3c8a5eb7	0.016890867
150	0x3c77a45f	0.015114873
151	0x3c13a04c	0.009010386
152	0xbab67472	-0.0013920201
153	0x3c72927e	0.014805434
154	0x3d277d03	0.040890705
155	0x3ce361a2	0.027756516
156	0xbc0fe7cf	-0.008783295
157	0x3b9c1831	0.004763626
158	0x3d151723	0.036399018
159	0x3cf66eaf	0.030082075
160	0xbdf77a0a	-0.12083824
161	0xbc585278	-0.013203256
162	0xbd05f617	-0.032705393
163	0xbd6a7c61	-0.057247523
164	0xbde6277d	-0.112380005
165	0x3c23f144	0.010006253
166	0x3ca4954a	0.020090718
167	0xbe7db400	-0.24775696
168	0x3d33c971	0.04389328
169	0x3e3bcfef	0.18341039
170	0x3d7e40f8	0.062073678
171	0xbeb59644	-0.35466206
172	0x3d0b68a4	0.03403534
173	0x3e970ae5	0.295005
174	0x3d079be2	0.033107646
175	0xbea385c6	-0.31938
176	0x3d38b025	0.04508986
177	0x3d2698d9	0.04067311
178	0x3d5fc0bb	0.05462716
179	0x3d41d1ca	0.04731921
180	0x3dc8e75e	0.09809755
181	0x3db377e7	0.08763104
182	0x3d946248	0.07245308
183	0x3de9783c	0.11399886
184	0x3d9d346e	0.07676016
185	0x3e1d77ee	0.15377781
186	0x3db357c4	0.08756974
187	0xbac0a5c5	-0.0014697841
188	0xbd260fe0	-0.040542483
189	0x3dd5d29a	0.1044056
190	0x3c60e838	0.01372724
191	0xbe150eeb	-0.14556472
192	0xbca81fc3	-0.020522958
193	0x3d17021e	0.036867253
194	0x3d061fdb	0.032745223
195	0xbc74d023	-0.014942202
196	0xbe0e5104	-0.13898093
197	0x3d4c4f6b	0.049880426
198	0x3e00e2aa	0.12586465
199	0xbb97540a	-0.0046181725
200	0xbe34cae7	-0.17655526
201	0x3c262723	0.010141167
202	0x3e27ba6b	0.16379707
203	0x3d891736	0.0669388
204	0xbe2efc19	-0.17088355
205	0xbd5dd400	-0.054157257
206	0x3da48e08	0.08034903
207	0x3d5235a3	0.051320683
208	0xbb34b2de	-0.0027572433
209	0x3c302855	0.010751803
210	0xbb4af8ea	-0.0030971118
211	0xbc98974b	-0.01862683
212	0x3c82ac65	0.015951345
213	0x3d389b66	0.045070074
214	0xbb2204ee	-0.0024722177
215	0xbcb7bb73	-0.02242825
216	0x3c656df1	0.014003263
217	0x3d3bcc0a	0.045848884
218	0x3c35dc89	0.011099943
219	0xbbc137c4	-0.0058965404
220	0x3bf9700a	0.007612233
221	0x3c9330cf	0.01796761
222	0x3bab010b	0.00521863
223	0xbc2b292f	-0.010446831
224	0xbe8187d5	-0.25298944
225	0x3dc2b613	0.09507384
226	0x3e305771	0.17220856
227	0xbdb464d5	-0.08808295
228	0xbebca993	-0.36848125
229	0x3d85c039	0.06530804
230	0x3ea53cae	0.32272857
231	0x3d2a0639	0.04150984
232	0xbe88c532	-0.26712948
233	0x3ba9675b	0.0051697916
234	0x3e5988f5	0.21243651
235	0x3ded946f	0.11600577
236	0xbdd65244	-0.1046491
237	0xbd9d22b0	-0.07672632
238	0x3d5853df	0.05281436
239	0x3ab9e794	0.0014183396
240	0xbd10ed84	-0.035382763
241	0x3d958cc4	0.073022395
242	0x3d9990ec	0.07498345
243	0xbca36bc7	-0.019948853
244	0xbde97745	-0.11399702
245	0x3d663253	0.056200337
246	0x3dc7afc8	0.097503245
247	0x3c27e3e7	0.010247207
248	0xbe3ee418	-0.18641698
249	0x3c2146a6	0.009843504
250	0x3e076a32	0.13224104
251	0x3cdf3673	0.027247643
252	0xbd9e99f8	-0.07744211
253	0xbd6ee695	-0.05832537
254	0x3d1a5ac2	0.03768421
255	0x3d119104	0.03553869

2.bias f4 [8]
0	0x3d67131c	0.05641471
1	0xbc7cdfe3	-0.015434238
2	0x3d809cf4	0.062799364
3	0xbc3aea03	-0.011408332
4	0x3b82eaca	0.003995274
5	0xbc393161	-0.011303277
6	0xbd8a970f	-0.067670934
7	0xbc167eed	-0.009185535

5.weight f4 [128, 512]
0	0x3cb5c398	0.022187993
1	0xbe44a08a	-0.19201866
2	0xbe4b26a0	-0.19838953
3	0x3d58decd	0.052946854
4	0x3d45ec22	0.048320897
5	0xbddcae65	-0.107754506
6	0x3df99c7f	0.121880524
7	0x3d85003b	0.064941846
8	0xbcbf458e	-0.023348596
9	0x3db70d70	0.0893811
10	0x3e0c0ecd	0.13677521
11	0x3e105eac	0.14098614
12	0x3e2f5c21	0.17124988
13	0x3e229844	0.15878397
14	0x3db6796c	0.08909878
15	0x3e1f42b5	0.1555279
16	0x3df072a2	0.117406145
17	0x3d93d3dd	0.07218144
18	0xbc0875b8	-0.008328848
19	0x3df9703d	0.12179611
20	0x3e65ba3e	0.22434327
21	0x3e1b4471	0.15162827
22	0x3db4ebce	0.08834039
23	0x3da2bf16	0.07946603
24	0x3d2c2d63	0.04203547
25	0xbcec2426	-0.02882583
26	0xbe386ebd	-0.18010993
27	0x3d325b16	0.043543898
28	0x3da0d895	0.0785381
29	0x3e44a3ba	0.19203082
30	0x3db8beb8	0.09020752
31	0x3e588906	0.2114602
32	0xbc188f8f	-0.009311571
33	0xbe826f22	-0.25475413
34	0xbe83f237	-0.25770733
35	0xbf07d0c9	-0.53052956
36	0xbe2d0859	-0.16897716
37	0xbdfd1628	-0.123577416
38	0xbeb076bc	-0.34465587
39	0xbd3d21e4	-0.0461749
40	0xbd855d32	-0.06511916
41	0xbde30196	-0.11084287
42	0xbdc3fafb	-0.09569355
43	0xbca8be67	-0.020598603
44	0xbe5d4e8a	-0.21611992
45	0xbebdc05f	-0.3706083
46	0x3d0c65eb	0.034276884
47	0xbc6709f9	-0.014101499
48	0x3d8ca741	0.06867839
49	0xbdadd956	-0.08488719
50	0xbe0d3d59	-0.13792934
51	0xbe2e90e4	-0.17047459
52	0xbdf8bd7d	-0.12145517
53	0xbe8eb72a	-0.27874118
54	0x3dfd3670	0.12363899
55	0x3d92bbbe	0.07164715
56	0x3e0202e6	0.12696418
57	0x3debb894	0.11509815
58	0xbc8e2aa1	-0.017354311
59	0x3d3276e8	0.04357043
60	0x3d88c13c	0.066774815
61	0x3e4dd59c	0.20101017
62	0x3e037f5b	0.12841551
63	0x3e6699c6	0.22519597
64	0xbde1776f	-0.11009108
65	0xbe5ae62e	-0.21376869
66	0xbe2d593f	-0.16928576
67	0x3d5cdfa9	0.053924236
68	0x3bab5605	0.00522876
69	0x3d406ad5	0.046976883
70	0xbdac6dd6	-0.08419387
71	0xbd579973	-0.052636575
72	0xbd3db201	-0.046312336
73	0xbd01e0e0	-0.031708598
74	0x3dd06567	0.10175591
75	0x3e67f446	0.22651777
76	0x3ef01b38	0.46895766
77	0x3ddc3023	0.10751369
78	0x3d25ec66	0.04050865
79	0x3e2081b9	0.15674485
80	0xbe326b2b	-0.17423694
81	0xbe146483	-0.14491467
82	0xbd8b9213	-0.06814971
83	0x3dd9bafb	0.10631367
84	0x3def2fed	0.11679063
85	0xbc9017df	-0.017589508
86	0xbdb518cb	-0.088426195
87	0xbe3c52ab	-0.1839091
88	0xbe2bf01c	-0.16790813
89	0xbcefc25b	-0.02926748
90	0xbba23fa3	-0.0049514337
91	0x3ec107f3	0.37701377
92	0x3e9558e5	0.29169384
93	0x3ec16f5c	0.37780273
94	0x3e97013a	0.29493123
95	0x3bf1409a	0.0073624374
96	0xbe9446a7	-0.28960153
97	0x3d1f5ebc	0.038908705
98	0xbe75ba9f	-0.23996972
99	0xbf079587	-0.52962536
100	0xbe77e703	-0.24209218
101	0xbe862793	-0.26202068
102	0xbe7978c2	-0.24362472
103	0xbe550451	-0.20802428
104	0x3d9238b4	0.071397215
105	0x3e248ba0	0.16068888
106	0x3e331a0d	0.17490406
107	0xbd3b7657	-0.045767155
108	0xbdb5609f	-0.0885632
109	0xbd5c24f7	-0.05374619
110	0xbe3019dc	-0.17197365
111	0x3deb7ba7	0.11498194
112	0xbc950125	-0.018189022
113	0x3e42cec9	0.19024195
114	0x3e583c87	0.2111684
115	0x3e4ba626	0.198876
116	0x3d870aac	0.065938324
117	0x3dd09c24	0.101860315
118	0x3b18fe22	0.0023344834
119	0xbeb69e98	-0.35667872
120	0x3e6bac25	0.23014887
121	0xbd49b893	-0.04924829
122	0x3e2ff7e9	0.17184414
123	0x3e8ca9ae	0.27473205
124	0x3e3207d5	0.173858
125	0x3e5164b8	0.20448577
126	0x3de06576	0.10956852
127	0x3e2606bf	0.16213511
128	0xbe65ecd8	-0.2245363
129	0xbe49f972	-0.19724062
130	0xbe5e438c	-0.21705455
131	0xbe8bb86e	-0.27289146
132	0xbecad655	-0.39616647
133	0xbe4ac9dc	-0.19803566
134	0xbde241dc	-0.11047718
135	0x3d94ab1a	0.072591975
136	0xbe28dc16	-0.16490206
137	0xbcc6dc02	-0.02427483
138	0xbdde9493	-0.10868182
139	0x3cf27bd9	0.02960007
140	0xbd405ba0	-0.04696238
141	0x3b74c828	0.0037350748
142	0x3e3d11ce	0.18463823
143	0x3df62f5a	0.1202075
144	0x3e9217df	0.28533837
145	0xbca2948c	-0.019846223
146	0xbe943876	-0.28949326
147	0xbefb55f7	-0.49089023
148	0xbf169872	-0.58826363
149	0xbe040bbb	-0.128951
150	0x3be099f1	0.0068542887
151	0x3dc550dc	0.09634563
152	0x3e2628c4	0.16226488
153	0xbe65fac3	-0.22458939
154	0xbe688c97	-0.22709881
155	0x3cdd93ef	0.02704808
156	0xbcda3381	-0.026635887
157	0x3eec4699	0.46147612
158	0x3dded566	0.10880546
159	0x3dcf19b8	0.10112327
160	0xbd66bef2	-0.056334443
161	0x3e4e9ecc	0.20177764
162	0x3d41be43	0.04730059
163	0x3e26b319	0.16279258
164	0x3f15b352	0.58476746
165	0x3e97df7e	0.29662699
166	0x3e92ba5d	0.2865781
167	0xbc95240e	-0.018205669
168	0x3e284874	0.16433889
169	0xbe450e2f	-0.19243692
170	0xbbb73b2b	-0.00559177
171	0xbe17e86d	-0.14834757
172	0xbc7eaca6	-0.015544092
173	0x3df615bc	0.12015864
174	0x3e826dd4	0.25474417
175	0x3dbce5fd	0.09223554
176	0x3d334eac	0.0437762
177	0xbe8bcea8	-0.27306104
178	0x3c26f7e2	0.010190936
179	0xbd4f5020	-0.050613523
180	0xbd4aa57b	-0.04947422
181	0xbe10bc2a	-0.14134279
182	0x3da8bcd9	0.08239145
183	0x3da77ee2	0.08178498
184	0xbc519069	-0.012790778
185	0x3c381d3b	0.011237438
186	0x3c3a5929	0.0113737965
187	0xbe7dba55	-0.24778111
188	0xbe6b4d3e	-0.22978684
189	0xbcac6e98	-0.021048829
190	0x3e098bb6	0.13432202
191	0x3de92eb5	0.11385862
192	0xbd92d387	-0.07169252
193	0xbeb2997e	-0.3488273
194	0x3bdcd653	0.0067394166
195	0xbe87c948	-0.26520753
196	0xbebe09b0	-0.37116766
197	0xbe94ecd2	-0.2908693
198	0xbe25444e	-0.16139337
199	0xbed3eb02	-0.41390234
200	0x3e0a1dc0	0.13487911
201	0xbea1d8fa	-0.31610852
202	0xbe6b68af	-0.22989152
203	0xbe0d0389	-0.1377088
204	0x3d5faf87	0.054610755
205	0x3dc88371	0.097906955
206	0x3e79c132	0.24390104
207	0xbd8b947f	-0.06815433
208	0x3de76806	0.11299138
209	0x3d1ea53b	0.038731795
210	0xbe137cb4	-0.14403039
211	0xbed4a4bb	-0.4153193
212	0xbe6ba20c	-0.23011035
213	0x3c8a071b	0.016849091
214	0x3e8579ff	0.26069638
215	0x3d8e0819	0.06935138
216	0x3dccecb7	0.10006087
217	0xbe39827f	-0.18116187
218	0xbf0ea464	-0.5571959
219	0xbe90474a	-0.2817939
220	0xbee21fc7	-0.4416487
221	0xbf2a6f1f	-0.6657581
222	0xbe853e51	-0.26024106
223	0x3d5a6bc2	0.053325422
224	0xbe4def11	-0.20110728
225	0xbd8b1679	-0.06791396
226	0xbe0ef6cc	-0.13961333
227	0x3d051c53	0.032497715
228	0x3e893057	0.26794693
229	0xbe08e489	-0.13368429
230	0xbde24f21	-0.11050249
231	0x3e404857	0.18777595
232	0xbe31426a	-0.17310491
233	0x3ea356ed	0.31902257
234	0xbdccbed2	-0.099973336
235	0xbe36c4d4	-0.17848521
236	0x3cb5fdae	0.02221569
237	0x3d620dbe	0.055188887
238	0x3dd7a48b	0.10529431
239	0xbe2774b9	-0.1635312
240	0xbdd07dc3	-0.10180237
241	0x3e8d82b2	0.27638775
242	0x3cfb29c2	0.03065956
243	0xbe626887	-0.22110187
244	0xbe46b117	-0.19403492
245	0x3e0456c8	0.1292373
246	0x3e35d294	0.1775611
247	0x3da5289f	0.080643885
248	0x3d897863	0.06712415
249	0x3d6dec5b	0.058086734
250	0xbcf72e14	-0.030173339
251	0xbc9b4b60	-0.01895684
252	0xbbde5de0	-0.006786093
253	0x3d43326b	0.047655504
254	0xbda76e36	-0.08175318
255	0xbd3405a8	-0.043950707

5.bias f4 [128]
0	0xbd376bb6	-0.044780456
1	0xbe160ef0	-0.14654136
2	0x3dbbc717	0.09168833
3	0x3e000953	0.12503557
4	0xbe87c3fb	-0.2651671
5	0xbdd4130d	-0.10355196
6	0xbe87893d	-0.26471892
7	0xbeab79fd	-0.33491507
8	0xbdddddc8	-0.10833317
9	0xbca3a210	-0.019974738
10	0x3cdcbbef	0.026945082
11	0xbd14df60	-0.03634584
12	0x3f138051	0.5761767
13	0xbe8a3216	-0.26991338
14	0xbdd88651	-0.10572494
15	0xbe0cbfea	-0.13745084
16	0xbd87490d	-0.0660573
17	0xbe57ade3	-0.21062426
18	0x3deb586b	0.11491474
19	0x3d0f53f2	0.034992166
20	0x3e9d696b	0.3074449
21	0xbeebaf15	-0.46032014
22	0x3dc85f15	0.097837605
23	0x3e970463	0.29495534
24	0xbd92ec39	-0.07173962
25	0xbd5e665b	-0.054296833
26	0xbe6a36a4	-0.22872406
27	0xbe5f7e92	-0.21825626
28	0x3e7cb6f4	0.24679166
29	0xbe354c9e	-0.17705008
30	0x3e65d107	0.22443019
31	0x3eccbd8b	0.3998836
32	0x3e882390	0.26589632
33	0xbe26f1f8	-0.16303241
34	0xbf1d9623	-0.61557215
35	0xbd7c4f4d	-0.061599065
36	0x3ea8a111	0.32935384
37	0x3dada274	0.08478251
38	0x3e098923	0.1343122
39	0x3e03d314	0.12873489
40	0x3d02d0b3	0.031937312
41	0xbd9285c0	-0.07154417
42	0xbec786dc	-0.38970077
43	0xbe4b1be9	-0.19834866
44	0xbeef0412	-0.46682793
45	0x3b8cd5bb	0.0042979396
46	0x3e2d1385	0.16901977
47	0x3ed455df	0.41471764
48	0xbe9febe0	-0.31234646
49	0xbd88d743	-0.06681683
50	0x3e67faf4	0.22654325
51	0x3ca457f4	0.02006147
52	0xbefd400f	-0.49462935
53	0x3f19e9d6	0.6012243
54	0x3e1cff06	0.15331659
55	0x3dad65cb	0.08466681
56	0x3e9139aa	0.28364307
57	0x3e03d911	0.12875773
58	0x3dd082b8	0.101811826
59	0x3f4b4c88	0.7941365
60	0xbcb1464a	-0.021639962
61	0xbe3c496c	-0.18387383
62	0x3d3541a3	0.04425205
63	0x3e8034f3	0.25040397
64	0xbe2850cd	-0.16437073
65	0xbc90c72b	-0.017673096
66	0xbd81b543	-0.06333401
67	0x3debbe22	0.11510874
68	0xbd636d4c	-0.055524155
69	0x3d2d36f4	0.042288736
70	0x3d9bd244	0.07608464
71	0xbeac9059	-0.3370388
72	0xbd724455	-0.059147198
73	0x3e63835e	0.22218081
74	0xbe320750	-0.17385602
75	0xbd3e8b85	-0.046519775
76	0xbe88da53	-0.26729068
77	0x3f28de73	0.6596443
78	0x3d817e50	0.0632292
79	0x3e2cc9b4	0.16873819
80	0x3e6f6256	0.23377356
81	0xbe14b9f0	-0.14524055
82	0xbe154e30	-0.14580607
83	0x3e36e953	0.17862444
84	0xbd8a6b0d	-0.067586996
85	0xbd6ec1f4	-0.058290437
86	0xbd87ad9e	-0.06624912
87	0x3ddfa413	0.109199665
88	0xbc8a8db4	-0.016913272
89	0xbdb6bfff	-0.08923339
90	0x3db198dd	0.086717345
91	0x3e0432a4	0.12909943
92	0xbd317aef	-0.04333013
93	0xbeadf2f2	-0.33974415
94	0x3df68548	0.1203714
95	0x3e6d1eef	0.23156331
96	0x3debfd38	0.11522907
97	0xbe99aec9	-0.30016163
98	0x3e3e771d	0.18600126
99	0xbf1cc7c5	-0.61242324
100	0x3e41e3f1	0.18934609
101	0xbe3496fb	-0.1763572
102	0x3e5a6019	0.21325721
103	0xbde6162c	-0.11234698
104	0xbe1bc8eb	-0.15213363
105	0x3e7b1832	0.24520949
106	0x3e9badb4	0.30405962
107	0x3e05c7e7	0.13064538
108	0x3dbc33b3	0.09189548
109	0x3f006b3b	0.5016362
110	0xbbb7ff03	-0.0056151166
111	0xbe57fb1b	-0.21091883
112	0x3e75ca3d	0.24002929
113	0x3e370b7d	0.17875476
114	0xbd793fd0	-0.060851872
115	0x3e0b230d	0.1358759
116	0xbd98a4ff	-0.074533455
117	0xbe8090aa	-0.2511037
118	0xbec3a12b	-0.382089
119	0xbbde6182	-0.006786526
120	0x3d674b28	0.05646816
121	0x3e848483	0.25882348
122	0xbc0cd604	-0.008595947
123	0x3e812dd4	0.25230277
124	0xbda03fa2	-0.07824637
125	0x3d8244a4	0.063607484
126	0x3d83f7d7	0.06443756
127	0xbded28cf	-0.11580049

7.weight f4 [128, 128]
0	0xbe7e4714	-0.24831802
1	0xbe4de2d0	-0.20106053
2	0xbeb52b2c	-0.353845
3	0xbc453bc5	-0.012038176
4	0xbd892c44	-0.06697896
5	0xbdc4aa3c	-0.09602782
6	0xbd26ec3e	-0.04075264
7	0xbd595281	-0.053057197
8	0xbd96105a	-0.073273376
9	0xbb45cb48	-0.003018098
10	0xbea145a2	-0.31498438
11	0xbdb3bafa	-0.08775897
12	0xbd4e0b0c	-0.050303504
13	0xbd91d6df	-0.071210615
14	0xbe7212ce	-0.23639986
15	0xbd918fb9	-0.07107491
16	0xbcd41be2	-0.025892202
17	0xbe6805ec	-0.22658509
18	0xba0fbfe6	-0.0005483612
19	0xbd91efbe	-0.07125805
20	0xbdc6caa0	-0.097066164
21	0xba44cdcc	-0.0007507473
22	0xbc267725	-0.010160242
23	0xbe1a3bcd	-0.15061875
24	0xbe1c5b05	-0.15269096
25	0xbdde7f1b	-0.10864087
26	0xbbf6f7d6	-0.0075368686
27	0xbd5e178e	-0.054221682
28	0xbd9bd303	-0.07608607
29	0xbab394dc	-0.001370098
30	0xbe191ffb	-0.14953606
31	0xbc0cf47d	-0.008603212
32	0xbe0eddc0	-0.13951778
33	0xbc338605	-0.010957246
34	0xbe051e08	-0.12999737
35	0xbdf73c15	-0.120720066
36	0xbe1e3357	-0.15449272
37	0xbd5d679a	-0.05405388
38	0xbe024b09	-0.12723936
39	0xbaca8e06	-0.0015453703
40	0xbdc7b8e2	-0.097520605
41	0xbb815ace	-0.0039475923
42	0xbe256370	-0.16151214
43	0xbd2a8ca9	-0.04163805
44	0xbdba3435	-0.09091989
45	0xbd51ff31	-0.05126876
46	0xbd19ae91	-0.037519995
47	0xba5c18f3	-0.00083960517
48	0xbe3f5f0c	-0.18688601
49	0x3da3e0f9	0.080018945
50	0xbb96e2d6	-0.0046046777
51	0xbcca2b9c	-0.024678998
52	0xbcaea787	-0.021320118
53	0xbd30ce54	-0.04316552
54	0xbd2483e1	-0.040164832
55	0xbe9b34bf	-0.3031368
56	0xbc0be503	-0.008538487
57	0xba14dfd3	-0.00056791044
58	0xb9802a6f	-0.00024445678
59	0xbdd4be93	-0.10387912
60	0xbe83cbf6	-0.25741547
61	0xbd69a310	-0.057040274
62	0xbc7b4c3c	-0.015338
63	0xbdcc843c	-0.09986159
64	0xb8c2f45c	-9.296156e-05
65	0xbe2c9320	-0.16852999
66	0xbc9dcc97	-0.019262595
67	0xba94f795	-0.0011365289
68	0xbb4e3317	-0.0031463557
69	0xbeb2e758	-0.34942126
70	0xb9b437c0	-0.00034373812
71	0xbd23599d	-0.039880384
72	0xbd74f17a	-0.059800602
73	0xbcb1da77	-0.021710617
74	0xbb3c371b	-0.002871937
75	0xbb706b61	-0.0036685097
76	0xbc9178dd	-0.017757827
77	0xbb3ac673	-0.0028499633
78	0xbd5b5b91	-0.05355412
79	0xbe613a4b	-0.21994893
80	0xbe8421fc	-0.25807178
81	0xbe1d503d	-0.1536264
82	0xb9c5513a	-0.00037635287
83	0xbb75204d	-0.0037403286
84	0x3d8b9bcb	0.068168245
85	0x3d2ad90e	0.041710906
86	0xb98e543a	-0.00027147104
87	0xbdbc80f4	-0.09204283
88	0xb981c8df	-0.00024754458
89	0xb8f6cdfd	-0.000117685624
90	0xba21c193	-0.00061705074
91	0xbafeba92	-0.0019434264
92	0xbcbe9614	-0.023264922
93	0xb997c539	-0.00028947907
94	0xbd414ed6	-0.047194324
95	0xbe1fe39f	-0.15614174
96	0xbaf3304d	-0.0018553823
97	0xbbfcbdb9	-0.0077130464
98	0xbe1a6be2	-0.15080217
99	0xbc0a23a9	-0.008431354
100	0xbb47d7fa	-0.0030493722
101	0xbdf14e06	-0.1178246
102	0xbda0a415	-0.07843796
103	0xb9040076	-0.00012588673
104	0xbdaa2c5f	-0.08309244
105	0xbacbffd1	-0.001556391
106	0xbeae3384	-0.34023678
107	0xbdb1a82e	-0.08674656
108	0xb96a9ef4	-0.00022375194
109	0xbc4c39dc	-0.012464967
110	0x3d8487c1	0.064712055
111	0xbe0fee8a	-0.14055839
112	0xbef463d2	-0.47732407
113	0xbd16c2a9	-0.036806736
114	0xbe661d65	-0.2247215
115	0xbb0c43a1	-0.0021402615
116	0xbe1d1dc7	-0.1534339
117	0xbdc16516	-0.09443109
118	0xbe2cc4e5	-0.16871984
119	0xbe120ace	-0.14261934
120	0xb9eceda9	-0.00045190498
121	0xbdece99b	-0.11567994
122	0xbe30b017	-0.17254673
123	0xb989323a	-0.00026168098
124	0x3d63ef09	0.055647884
125	0xbd057ebd	-0.03259157
126	0xbe57d478	-0.21077144
127	0xbc0d5877	-0.008627049
128	0xbd866896	-0.06562917
129	0x3e89deac	0.26927698
130	0xbd877f49	-0.066160746
131	0x3cc8d0f1	0.024513694
132	0x3d47027c	0.048586354
133	0x3e9d75dc	0.30753982
134	0x3e97b9fa	0.29634076
135	0xbf0d73dd	-0.5525492
136	0x3e4c9380	0.19978142
137	0xbdd05951	-0.10173286
138	0xbdc2bef6	-0.09509079
139	0xbdf826cf	-0.12116777
140	0x3c27afc8	0.010234781
141	0xbceb3f97	-0.028716845
142	0x3e8750be	0.2642879
143	0xbcfc3b57	-0.030790014
144	0x3e0d7729	0.13814987
145	0x3c83dd84	0.016096838
146	0xbeb7bcf9	-0.35886362
147	0xbdc1f0a8	-0.0946973
148	0xbd795fd6	-0.060882412
149	0x3de47dfc	0.11156842
150	0x3e85878f	0.26079985
151	0xbe9ef8d6	-0.31049222
152	0xbd0c14b3	-0.034199428
153	0xbde3928b	-0.11111935
154	0x3e4e77c3	0.20162873
155	0x3ecfe81f	0.40606782
156	0xbe019746	-0.12655362
157	0xbe7ae8e2	-0.245029
158	0x3e9ffe74	0.3124882
159	0xbcc9b6fd	-0.024623388
160	0x3cc85dc5	0.024458775
161	0xbea92b0f	-0.33040664
162	0x3e061d6b	0.1309716
163	0x3d6aaaa8	0.057291657
164	0xbf0b2d8b	-0.5436637
165	0xbe8fb1c0	-0.280653
166	0xbeabd0a1	-0.3355761
167	0x3e0c826f	0.13721631
168	0x3e37a4c9	0.17933954
169	0x3e887df1	0.26658586
170	0x3eb65d5b	0.356181
171	0x3cb8336d	0.02248546
172	0x3e98c317	0.29836342
173	0xbd7ea9c0	-0.062173605
174	0x3e85c317	0.26125404
175	0x3cf380f7	0.029724581
176	0xbe2af67e	-0.16695592
177	0x3cc973b7	0.02459131
178	0xbecf8723	-0.4053279
179	0xbdb89f97	-0.09014814
180	0xbee8e4dd	-0.4548711
181	0xbe72f314	-0.2372554
182	0xbeb243f8	-0.3481748
183	0x3ea13df8	0.3149259
184	0xbe415bcb	-0.18882672
185	0xbf01a0d2	-0.5063602
186	0xbf2d2653	-0.67636603
187	0xbe227aec	-0.15867203
188	0xbdb956e8	-0.09049779
189	0xbea2d224	-0.3180095
190	0xbe09fdf8	-0.13475788
191	0xbe880065	-0.265628
192	0x3d4cdd8d	0.050015975
193	0xbd9465d0	-0.07245982
194	0xbe1e3c08	-0.15452588
195	0xbe253650	-0.16134
196	0x3ee3440c	0.44387853
197	0xbca29f96	-0.019851487
198	0x3d08f52e	0.033436947
199	0xbf28cc52	-0.6593677
200	0xbe13c845	-0.14431866
201	0xbe02d72d	-0.12777396
202	0xbe1b64d1	-0.15175177
203	0xbdae53d2	-0.08512081
204	0x3e43f3ce	0.19135973
205	0xbc07335c	-0.008251991
206	0x3e826744	0.2546941
207	0xbc95d2aa	-0.018288929
208	0xbd864766	-0.06556587
209	0xbeb2e204	-0.3493806
210	0xbe311c81	-0.1729603
211	0xbe3fd5db	-0.18733923
212	0xbdb8fe2d	-0.09032855
213	0x3e0bc489	0.13649191
214	0xbf14d24f	-0.58133405
215	0xbdab15b7	-0.08353751
216	0x3dc5b5b7	0.096538
217	0x3e888e96	0.26671284
218	0xbd320151	-0.043458287
219	0x3e8931c4	0.2679578
220	0xbd771188	-0.060319453
221	0x3ef059f7	0.46943638
222	0xbe8ed10c	-0.27893865
223	0xbee771e4	-0.4520408
224	0xbe12e17a	-0.14343825
225	0xbd9c342e	-0.0762714
226	0xbdc5a306	-0.09650235
227	0xbe823ca6	-0.25436896
228	0x3d7cd03d	0.06172203
229	0xbd9f5d7d	-0.07781503
230	0x3dbfe0cb	0.09369048
231	0xbe032ab2	-0.12809256
232	0x3d3e7761	0.046500567
233	0xbdcdb6d4	-0.10044637
234	0xbdcd42a3	-0.100224756
235	0xbd26756b	-0.040639322
236	0x3e96eff9	0.2947996
237	0x3dbc1f15	0.09185616
238	0xbf2caffa	-0.6745602
239	0xbea650c8	-0.32483506
240	0x3e492fbb	0.19647114
241	0x3e8fc31f	0.28078553
242	0xbdba00b6	-0.09082167
243	0xbe8e72c2	-0.27821928
244	0xbef54683	-0.4790536
245	0x3e237854	0.1596387
246	0xbe2093a2	-0.15681317
247	0xbd72ffdb	-0.059326034
248	0xbce33af0	-0.027738065
249	0x3e739866	0.23788604
250	0x3da78a19	0.08180637
251	0xbc8512d4	-0.01624433
252	0xbd71035a	-0.058841087
253	0xbe942fd2	-0.28942734
254	0xbed283a4	-0.4111606
255	0x3e5e55e7	0.21712457

7.bias f4 [128]
0	0xbe1f95f3	-0.15584545
1	0xbd017685	-0.03160717
2	0xbbff56ec	-0.0077923443
3	0xbe8f6173	-0.28004035
4	0x3c47a4fd	0.012185332
5	0x3e76c391	0.2409804
6	0x3e11ed8e	0.14250776
7	0xbe18e672	-0.14931658
8	0x3d8b40e8	0.06799489
9	0xbe8a6a37	-0.2703416
10	0x3dde4375	0.1085271
11	0x3ea0608f	0.31323668
12	0xbec453b9	-0.38345125
13	0xbed2c035	-0.41162267
14	0x3e01b971	0.12668397
15	0xbe85f58d	-0.26163903
16	0xbdacd01b	-0.084381305
17	0xbea73015	-0.3265387
18	0xbe162145	-0.14661129
19	0xbe6f25bf	-0.23354243
20	0x3ebdcebb	0.37071785
21	0xbd983744	-0.07432416
22	0x3e6d17ec	0.23153657
23	0x3f4633b7	0.7742266
24	0x3e9a7693	0.3016859
25	0x3e05382c	0.13009709
26	0x3e7449c7	0.23856269
27	0xbe255299	-0.1614479
28	0xbdd055db	-0.10172626
29	0x3de3ab8b	0.111167036
30	0xbe8bd9c3	-0.27314577
31	0xbeb67ad4	-0.35640585
32	0xbe815955	-0.25263467
33	0xbe1a0e9f	-0.1504464
34	0xbe95462c	-0.291551
35	0xbd8ae5fa	-0.06782146
36	0xbf06ac7a	-0.5260693
37	0x3eea5cb4	0.45773852
38	0xbebad96a	-0.36494
39	0x3e4cea8b	0.20011346
40	0xbe9ef420	-0.31045628
41	0xbe2ade56	-0.16686377
42	0x3e7f1445	0.24910076
43	0x3e4e4d75	0.20146735
44	0x3d99fe52	0.07519211
45	0xbdedf668	-0.11619264
46	0xbda28d11	-0.079370625
47	0xbe7369fe	-0.23770902
48	0xbeab01ee	-0.3339991
49	0xbdfd78e0	-0.12376571
50	0x3e6cb325	0.23115213
51	0x3e11ef71	0.14251496
52	0xbd7fc05a	-0.0624393
53	0xbeb67dfe	-0.35643
54	0xbcb8d5e5	-0.02256293
55	0xbe35a634	-0.17739183
56	0xbda28474	-0.0793542
57	0x3ee06f23	0.4383479
58	0xbe6361a4	-0.22205216
59	0xbee08618	-0.43852305
60	0x3ea02f11	0.3128591
61	0x3dab540c	0.0836564
62	0xbe4038d0	-0.18771672
63	0xbeb167ad	-0.3464941
64	0x3efa6b9a	0.48910218
65	0xbef9abca	-0.48763877
66	0x3dc56fb7	0.096404485
67	0xbefa5203	-0.48890695
68	0xbe8dd891	-0.2770429
69	0xbe440a66	-0.19144592
70	0x3e6de2d5	0.23231061
71	0xbe66e412	-0.2254794
72	0x3dc4814e	0.095949754
73	0xbef4a0ee	-0.4777903
74	0xbe6ee51e	-0.23329589
75	0xbeda4771	-0.4263263
76	0x3d3a1d92	0.045438357
77	0xbe35c571	-0.17751099
78	0xbe8f19d8	-0.27949405
79	0x3d726a29	0.059183273
80	0xbe89f39a	-0.26943666
81	0x3e0fb466	0.1403366
82	0xbdbac8f7	-0.09120362
83	0xbe00e7c3	-0.1258841
84	0xbf270bf7	-0.6525263
85	0x3f35ea3e	0.7106055
86	0xbc83b716	-0.016078513
87	0x3f1bd4e9	0.6087175
88	0x3c6d43d3	0.014481503
89	0xbd7280a1	-0.0592047
90	0x3e709953	0.23495989
91	0x3ea7cc95	0.3277327
92	0xbd841a1c	-0.064502925
93	0xbe752b49	-0.23942293
94	0xbddeccc4	-0.108789
95	0x3e0aac43	0.13542275
96	0xbe1d116a	-0.15338674
97	0xbe4a4e38	-0.197564
98	0xbe950dd4	-0.29112113
99	0xbdec8004	-0.115478545
100	0xbeacfb3a	-0.3378542
101	0xbe0c9825	-0.13729914
102	0xbda08b27	-0.07839041
103	0xbe242915	-0.16031297
104	0xbe02048c	-0.12697047
105	0xbdd6fe72	-0.1049775
106	0x3e0723bc	0.13197225
107	0xbe042aed	-0.12907
108	0x3d0ba742	0.034095056
109	0x3f25de41	0.6479226
110	0xbdfdecc0	-0.12398672
111	0xbd46abb9	-0.04850361
112	0xbe4d3d98	-0.20043027
113	0xbea7373f	-0.32659337
114	0x3d779faf	0.06045502
115	0xbe6123da	-0.21986333
116	0x3e249c85	0.16075332
117	0xbe13d6d1	-0.14437415
118	0x3e2900be	0.1650419
119	0x3e4d462b	0.20046298
120	0xbda23433	-0.079201125
121	0xbe7264d6	-0.23671278
122	0xbced6424	-0.028978415
123	0x3ea5b126	0.32361716
124	0xbefbb971	-0.49164918
125	0xbe04a609	-0.12953962
126	0xbe2102fd	-0.15723796
127	0xbe8bf309	-0.2733386

9.weight f4 [128, 128]
0	0xbcfb68eb	-0.030689677
1	0x3ebea3c0	0.37234306
2	0xbdeffb31	-0.11717833
3	0xbcf56938	-0.029957399
4	0xbe33af09	-0.1754724
5	0xbd177b80	-0.036983013
6	0xbe1da93b	-0.15396588
7	0xbcfbe05a	-0.030746628
8	0xbe95a6e3	-0.29228887
9	0x3e1871c5	0.1488715
10	0xbdcb3672	-0.09922494
11	0xbc94b915	-0.01815466
12	0x3de801cc	0.11328468
13	0xbd1ec5af	-0.038762745
14	0xbd5b7ff5	-0.053588826
15	0xbe60204e	-0.21887323
16	0x3e923671	0.2855716
17	0x3dc1b111	0.09457601
18	0x3d98187c	0.07426545
19	0xbe7fec4c	-0.24992484
20	0x3e71eab9	0.23624696
21	0x3e20d1e3	0.15705065
22	0xbdf01b08	-0.11723906
23	0x3de4ebe2	0.111778036
24	0xbd4b3e58	-0.049620003
25	0xbdd3365b	-0.10313102
26	0x3dd64c4a	0.1046377
27	0x3c47f27a	0.012203807
28	0x3f0d6af1	0.55241305
29	0xbe08b609	-0.13350691
30	0xbe2f4390	-0.17115617
31	0xbd35ca7d	-0.04438256
32	0x3d23eb1c	0.04001914
33	0xbe3254dc	-0.17415184
34	0x3d156700	0.03647518
35	0xbe3a1bc4	-0.18174654
36	0x3e650732	0.22366026
37	0xbe6ab125	-0.22919138
38	0x3e305350	0.17219281
39	0x3d73924d	0.059465695
40	0x3ce2555c	0.027628593
41	0x3c947efe	0.01812696
42	0x3de03564	0.109476835
43	0xbddffbd3	-0.109367035
44	0xbe095ee6	-0.13415107
45	0xbd152a17	-0.036417093
46	0xbce66652	-0.028124962
47	0x3d6d5486	0.057941936
48	0xbdd4b5d3	-0.10386243
49	0xbe57b624	-0.21065575
50	0xbd999128	-0.074983895
51	0xbe964fb7	-0.29357693
52	0xbe679269	-0.22614445
53	0x3d700e30	0.05860728
54	0xbe96bc75	-0.29440656
55	0xbe88ebef	-0.26742503
56	0x3cdc0780	0.026859045
57	0xbe325bea	-0.17417875
58	0xbe8c63b7	-0.27419826
59	0x3e8f04e7	0.27933428
60	0xbe1fb912	-0.15597942
61	0xbe50c0d3	-0.20386057
62	0xbe2159b7	-0.1575688
63	0x3c17b983	0.009260538
64	0xbd36f8af	-0.044670757
65	0x3dd2fb68	0.10301858
66	0xbdd783a6	-0.10523157
67	0xbefe3b10	-0.49654436
68	0x3dac0c57	0.08400791
69	0x3e4c3dc8	0.19945443
70	0xbdd652cf	-0.10465013
71	0xbe5eadbe	-0.21745965
72	0xbe1206b3	-0.14260368
73	0x3e82c20d	0.25538674
74	0x3e4be846	0.19912824
75	0x3d8147b0	0.063125014
76	0xbd871841	-0.06596423
77	0xbdf70d28	-0.12063056
78	0x3e2be126	0.16785106
79	0xbdf9f8d7	-0.122056656
80	0xbd8357d0	-0.06413233
81	0x3e20e791	0.15713336
82	0xbe17d8a5	-0.14828737
83	0x3dc971df	0.09836172
84	0x3d7f5348	0.062335283
85	0xbe14e546	-0.14540586
86	0xbec34810	-0.38140917
87	0xbdefee8e	-0.117154226
88	0x3d833556	0.064066574
89	0xbee7f247	-0.4530203
90	0xbd81a013	-0.0632936
91	0xbd04fb8d	-0.03246646
92	0x3e64ade8	0.22331965
93	0xbcd24385	-0.025666961
94	0x3eacc02f	0.33740374
95	0x3dec3a20	0.11534524
96	0x3e560411	0.20899989
97	0x3d44b29a	0.04802189
98	0x3d64fce5	0.05590524
99	0x3eadb0ca	0.33923942
100	0x3d26e3d9	0.040744636
101	0x3e0103f8	0.1259917
102	0xbe18e47e	-0.14930913
103	0xbccc523b	-0.024941554
104	0x3e7aa50e	0.24477026
105	0xbe2cb75c	-0.16866821
106	0x3eca8b5a	0.39559442
107	0xbd543e66	-0.05181732
108	0xbd2bca2d	-0.041940857
109	0x3dd0ddcf	0.10198557
110	0xbd0c7306	-0.034289382
111	0xbb6cb475	-0.0036118303
112	0x3c18dc8e	0.009329928
113	0xbc811e55	-0.015761534
114	0xbda83c44	-0.0821462
115	0xbe8f93af	-0.2804236
116	0xbed2640b	-0.41091952
117	0xb930bb1b	-0.0001685437
118	0xbd237138	-0.039902896
119	0x3ea4ec62	0.32211596
120	0xbf059fc4	-0.5219691
121	0x3d6659e3	0.056238066
122	0xbeaa9557	-0.33317062
123	0xbdb208cb	-0.086930834
124	0xbe0e016c	-0.1386773
125	0x3d96dbf2	0.0736617
126	0xbd8fe145	-0.07025389
127	0x3d6dbc15	0.058040697
128	0xbdbd3698	-0.092389286
129	0x3f07d3c0	0.5305748
130	0xbd181542	-0.037129648
131	0xbe19166e	-0.14949962
132	0xbea55a6d	-0.32295552
133	0xbd9675c9	-0.073466845
134	0xbdfeec4b	-0.12447413
135	0xbe04b1c4	-0.12958437
136	0xbce7c5aa	-0.028292496
137	0x3d40b503	0.047047626
138	0xbd009323	-0.03139032
139	0xbe14777d	-0.14498706
140	0xbe338478	-0.17531002
141	0xbdc6c42a	-0.09705384
142	0xbbd72908	-0.0065661706
143	0x3e9420d1	0.28931287
144	0x3de54c2b	0.111961685
145	0x3d919ba3	0.071097635
146	0xbcd67ca4	-0.02618248
147	0x3c6b3cbe	0.014357744
148	0xbddb0014	-0.10693374
149	0x3cfcda11	0.0308657
150	0x3e60a5e6	0.21938285
151	0x3d56d796	0.052451693
152	0xbb775b59	-0.0037743656
153	0x3daf94f7	0.08573335
154	0xbc28ee49	-0.010310718
155	0x3d3d010f	0.046143588
156	0xbdabbefa	-0.08386035
157	0xbd9583aa	-0.073005036
158	0x3d8f8d66	0.070093915
159	0xbe249424	-0.16072136
160	0xbe3979e4	-0.18112904
161	0xba1724f9	-0.0005765702
162	0x3d12faf7	0.03588387
163	0x3e163c8e	0.14671537
164	0xbd801a86	-0.06255059
165	0x3c259ca5	0.010108148
166	0xbd828afc	-0.063741654
167	0xbd0cc391	-0.034366194
168	0xbdbe46ee	-0.092908725
169	0x3d3354ea	0.043782152
170	0xbd2f4116	-0.04278668
171	0x3e5de46d	0.21669169
172	0xbd865223	-0.06558635
173	0x3cf57b97	0.029966159
174	0xbe5b8422	-0.21437123
175	0xb9a95aa5	-0.00032301727
176	0xbc9efa33	-0.019406414
177	0xbe3551df	-0.17707013
178	0x3dad65bf	0.08466672
179	0xbddac421	-0.1068194
180	0x3e525783	0.20541196
181	0xbd5cc415	-0.053897936
182	0xbe02949a	-0.12752
183	0x3da1f3fe	0.07907866
184	0xbdcf1eca	-0.101132944
185	0xbd13c90a	-0.036080398
186	0x3d3261dd	0.04355036
187	0xbdab039f	-0.083503
188	0xbe278911	-0.1636088
189	0x3ba9bcdc	0.0051799845
190	0x3e23e349	0.16004671
191	0xbe6ca4c6	-0.23109731
192	0x3ea8c84b	0.3296531
193	0xbe04e221	-0.12976886
194	0x3b82578d	0.003977722
195	0x3b5a4af5	0.0033308838
196	0xbd37f788	-0.0449138
197	0x3e1d8bd7	0.15385376
198	0xbda15b32	-0.07878722
199	0xbe5634e3	-0.20918612
200	0xbc046fb9	-0.008083277
201	0x3dccfb3a	0.10008855
202	0xbe04bc7e	-0.12962529
203	0xbd25a2d4	-0.040438488
204	0xbdc0631d	-0.09393904
205	0xbe009fde	-0.12560984
206	0x3df138ee	0.117784366
207	0xbd515921	-0.05111039
208	0x3dbb9726	0.09159689
209	0x3c0f855b	0.008759822
210	0x3d2ead7b	0.042645913
211	0x3bdc6bce	0.0067267185
212	0xbe94498c	-0.28962362
213	0x3db1fe3b	0.08691069
214	0xbea3dbf2	-0.32003742
215	0xbd2beb48	-0.04197243
216	0xbe5f8395	-0.21827538
217	0x3df6c50e	0.12049304
218	0x3d82ad44	0.06380704
219	0xbe3a0aa5	-0.18168123
220	0xbe879235	-0.26478735
221	0xbd242706	-0.04007628
222	0x3de20f02	0.11038019
223	0xbcbe48b0	-0.02322802
224	0x3d36526a	0.04451219
225	0xbe45fde1	-0.19335128
226	0xbd9be2a0	-0.07611585
227	0xbe003efc	-0.12524027
228	0x3e1b5fef	0.15173315
229	0x3e0304d9	0.12794818
230	0x3dac9dbe	0.084285244
231	0xbe7999a8	-0.24375021
232	0x3db63ec2	0.08898689
233	0xbdbe533f	-0.09293222
234	0xbdd97ed6	-0.10619895
235	0xb8f60458	-0.00011731003
236	0x3e05d870	0.13070846
237	0xbc46ecbb	-0.012141402
238	0xbde47953	-0.11155953
239	0x3e18cd03	0.14921956
240	0xbd3aad46	-0.045575403
241	0x3e107aac	0.14109296
242	0xbd60999b	-0.05483399
243	0xbdc034d1	-0.09385074
244	0xbe45b86c	-0.19308633
245	0xbdf465ed	-0.11933503
246	0x3dab415e	0.08362077
247	0xbd1be4b0	-0.03805989
248	0x3d3f5fe9	0.046722326
249	0xbe795e46	-0.24352369
250	0x3c9bd3f7	0.019021971
251	0xbdde8c35	-0.10866586
252	0xbe7836f3	-0.24239711
253	0xbd931058	-0.07180852
254	0x3e2c6b8f	0.16837905
255	0xbdc7a730	-0.09748685

9.bias f4 [128]
0	0xbdb5bc11	-0.088737614
1	0x3e113206	0.14179239
2	0x3e6806df	0.22658871
3	0xbe688fae	-0.2271106
4	0x3e39fd4c	0.18163031
5	0x3c2c61de	0.01052138
6	0xbeefc90f	-0.46833083
7	0xbe9c11df	-0.30482385
8	0xbe691256	-0.22760901
9	0xbe267555	-0.16255696
10	0xbef0439a	-0.46926576
11	0xbe931829	-0.2872937
12	0xbd2301a4	-0.039796486
13	0xbe8e3104	-0.2777177
14	0xbd9f1a0f	-0.07768642
15	0xbddc650a	-0.10761459
16	0xbdd8532e	-0.1056274
17	0xbe848fd1	-0.25890973
18	0xbe2294ac	-0.15877026
19	0xbe35087d	-0.1767902
20	0x3e24b160	0.16083288
21	0x3e8f48b0	0.27985144
22	0x3c2f76c9	0.010709473
23	0xbe25ee71	-0.1620424
24	0xbeb50b1f	-0.35360047
25	0xbcdb3071	-0.026756497
26	0x3e46dbfb	0.19419853
27	0xbe38421c	-0.17993969
28	0xbc3248ac	-0.010881584
29	0xbe876880	-0.26446915
30	0x3e740ea6	0.23833713
31	0xbe9d3779	-0.30706385
32	0xbeeab5f4	-0.45841944
33	0x3da650d8	0.081208885
34	0xbe86385e	-0.2621488
35	0xbe137f8c	-0.14404124
36	0xbea30a0a	-0.31843597
37	0xbe31338f	-0.17304824
38	0x3df6bb8e	0.12047492
39	0xbe651d0b	-0.2237436
40	0xbde23633	-0.11045494
41	0xbf05bc65	-0.5224059
42	0x3f0de78d	0.55431443
43	0xbeafa52a	-0.34305698
44	0x3e2dd4f1	0.16975762
45	0x3df59fce	0.11993371
46	0xbecd4d4f	-0.40098044
47	0x3ee143f6	0.43997163
48	0x3e116133	0.14197235
49	0x3dbcb333	0.09213867
50	0x3e13e79f	0.14443825
51	0xbe1d4070	-0.15356612
52	0x3f41cc57	0.7570242
53	0xbe2a835e	-0.16651675
54	0xbdd0f82c	-0.10203585
55	0x3eb6dc70	0.35715055
56	0x3ecadb05	0.39620224
57	0x3f047ffc	0.5175779
58	0xbe34e619	-0.176659
59	0x3eec52de	0.46156973
60	0xbe98d1c7	-0.29847547
61	0xbe1b9382	-0.15192989
62	0xbe8008ee	-0.25006813
63	0xbe0d104a	-0.13775745
64	0x3edf0bfb	0.43563828
65	0xbea1d8f8	-0.31610847
66	0x3ec37a2e	0.38179153
67	0xbe9519f6	-0.2912137
68	0x3e776c9d	0.24162526
69	0xbc1ad52d	-0.009450239
70	0xbe8e68eb	-0.2781442
71	0xbed0a118	-0.40747905
72	0xbe8754b7	-0.2643182
73	0xbd71feca	-0.059080876
74	0x3ecbee6e	0.39830345
75	0x3f178126	0.5918144
76	0x3e4924d9	0.19642963
77	0xbeeb3903	-0.45941934
78	0xbe6115db	-0.21980993
79	0xbe5208f5	-0.2051123
80	0xbd25e2c1	-0.040499453
81	0xbf035b6f	-0.5131139
82	0x3e69f078	0.22845638
83	0x3d74323d	0.059618223
84	0x3f168eea	0.5881182
85	0x3ec8aafb	0.39192948
86	0x3daddc75	0.084893145
87	0x3eb62697	0.35576317
88	0xbe747a55	-0.23874791
89	0x3dc10928	0.094255745
90	0xbc808e27	-0.015692784
91	0xbe23708a	-0.15960899
92	0x3e5e758f	0.21724533
93	0x3ebc3cda	0.36765176
94	0xbdffd016	-0.12490861
95	0x3eacfb36	0.3378541
96	0xbe235fac	-0.15954465
97	0x3d139f41	0.03604055
98	0xbdaca24c	-0.08429393
99	0xbdae71e8	-0.0851782
100	0x3d7e7495	0.0621229
101	0x3de2ae7c	0.110684365
102	0xbebd6f8e	-0.36999172
103	0x3cc82956	0.024433773
104	0x3dedffe7	0.11621075
105	0xbf36fc41	-0.7147866
106	0xbcbbed64	-0.022940345
107	0x3c4a3924	0.012342725
108	0xbe874d8d	-0.26426354
109	0xbe9c4501	-0.30521396
110	0x3d91059a	0.070811465
111	0xbe59e9f0	-0.21280646
112	0x3e059fcd	0.1304924
113	0xbe3ebb8f	-0.18626235
114	0xbd442253	-0.047884297
115	0xbec7673a	-0.38945943
116	0x3e3f09ba	0.18656054
117	0xbedfb871	-0.43695405
118	0xbea1aa54	-0.31575263
119	0x3e4cdd17	0.20006214
120	0xbe19263f	-0.14955996
121	0xbdc25262	-0.094883695
122	0xbeaf1f5b	-0.3420361
123	0xbe816503	-0.25272378
124	0x3f205a3e	0.626377
125	0xbe86e82d	-0.2634901
126	0xbe158d18	-0.14604604
127	0xbec11f5e	-0.37719244

11.weight f4 [128, 128]
0	0xbd891f09	-0.066953726
1	0xbdb8e2d0	-0.09027636
2	0xbded2236	-0.11578791
3	0xbcef6193	-0.029221332
4	0xbd93774e	-0.0720049
5	0x3cd0e642	0.02550042
6	0x3dbfae2b	0.09359392
7	0xbe6f87a1	-0.23391582
8	0xbbc152d6	-0.0058997674
9	0x3e313c0e	0.17308065
10	0xbe1bd412	-0.15217617
11	0xbdf5007b	-0.11962982
12	0xbdf985dd	-0.121837355
13	0xbdfe169c	-0.12406656
14	0xbd3568bf	-0.044289347
15	0xbe19e499	-0.1502861
16	0xbdad3191	-0.0845672
17	0x3d06c9e2	0.032907374
18	0xbd052afb	-0.032511692
19	0x3c67b3a4	0.014141951
20	0x3d304821	0.043037537
21	0x3dc15bc0	0.09441328
22	0xbd3c6bc3	-0.046001207
23	0xbe027c75	-0.12742789
24	0xbd9a3307	-0.07529264
25	0x3cbf80bb	0.023376813
26	0xbc584880	-0.013200879
27	0xbdf3e0a4	-0.11908081
28	0x3d1c4d73	0.0381598
29	0xb90c0088	-0.00013351638
30	0xbd8c617c	-0.06854531
31	0x3e8e63c2	0.27810484
32	0xba3c90ac	-0.00071931886
33	0xbe989ff0	-0.29809523
34	0x3ef7a482	0.48367697
35	0xbd86d0be	-0.06582783
36	0xbeb22dc9	-0.34800556
37	0xbc0d0e6d	-0.008609396
38	0xbd14bc4a	-0.03631238
39	0xbe27f528	-0.16402113
40	0xbe0a171f	-0.13485382
41	0xbd53b219	-0.05168352
42	0xbd107764	-0.03527011
43	0xbddce24e	-0.10785352
44	0xbe2ba4f9	-0.16762151
45	0xbe3223ba	-0.17396441
46	0xbe03ac6a	-0.1285874
47	0x3d21bf43	0.039489042
48	0xbd0d3fde	-0.034484737
49	0xbdf20e5e	-0.118191466
50	0xbda9faaf	-0.08299767
51	0xbd2f0570	-0.042729795
52	0x3ee74900	0.45172882
53	0xbdb792e0	-0.08963561
54	0xbde9e38b	-0.114203535
55	0xbd80b996	-0.06285398
56	0xbd5d7771	-0.054068986
57	0xbda6ac1b	-0.08138295
58	0xbd340ba5	-0.043956418
59	0x3de4131e	0.11136459
60	0xbd0201b8	-0.03173992
61	0xbc157636	-0.009122422
62	0x3df31549	0.11869294
63	0x3ea60232	0.3242355
64	0xbda80c0e	-0.08205424
65	0xbd82b22c	-0.0638164
66	0x3cbd4048	0.02310194
67	0xbe0bcf11	-0.13653208
68	0xbd81bcc7	-0.063348345
69	0xbd592cac	-0.053021118
70	0x3cb697a1	0.0222891
71	0xbdb2c07f	-0.08728122
72	0xbbb3e6e1	-0.0054901694
73	0x3cdf26ea	0.027240235
74	0x3d0373f0	0.03209299
75	0x3e108337	0.14112554
76	0xbe5fab8e	-0.21842787
77	0xbca24e43	-0.019812709
78	0xbe4b49ac	-0.19852322
79	0xbdcdb595	-0.100444
80	0x3db96493	0.09052386
81	0xbdf37aa1	-0.11888624
82	0xbd0425c0	-0.032262564
83	0x3e41c358	0.18922174
84	0xbbfa912c	-0.0076467004
85	0x3e16046b	0.14650123
86	0x3dd4c089	0.10388286
87	0xbd6ea257	-0.058260288
88	0xbde86fb2	-0.11349429
89	0xbdd4575c	-0.10368225
90	0xbe5f2296	-0.21790537
91	0xbdf33eb8	-0.11877197
92	0xbc55979b	-0.013036634
93	0xbd112f4a	-0.03544549
94	0xbeaabe8a	-0.33348495
95	0x3d2b564e	0.041830353
96	0xbe22c3fc	-0.15895075
97	0xbd8f2f40	-0.06991434
98	0xbe73cebc	-0.23809332
99	0xbe778349	-0.24171175
100	0xbb9c4d70	-0.0047699735
101	0xbd859939	-0.065233655
102	0x3e273eb2	0.1633251
103	0x3c5b0dd0	0.013369992
104	0xbcbe356e	-0.023218837
105	0xbd5e49ff	-0.054269787
106	0xbd179107	-0.037003543
107	0xbd9ec709	-0.07752807
108	0xbca1c981	-0.019749405
109	0xbde15edc	-0.11004421
110	0x3dd2df4d	0.102964975
111	0xbb459827	-0.0030150504
112	0x3bf667dc	0.007519705
113	0xbd5e9558	-0.054341644
114	0xbdf2104e	-0.11819516
115	0xbc6e80c3	-0.014557066
116	0x3e613896	0.21994242
117	0x3e552568	0.2081505
118	0xbccc14ac	-0.0249122
119	0xbdf9610c	-0.12176713
120	0x3e78d2de	0.2429919
121	0x3e1e4f15	0.15459855
122	0xbdea2418	-0.114326656
123	0x3d40be1a	0.047056295
124	0xbc5b6050	-0.013389662
125	0xbc623aa0	-0.013807923
126	0xbda0b53b	-0.07847067
127	0xbe12cc04	-0.14335638
128	0xbdc313db	-0.095252715
129	0x3e18913b	0.14899151
130	0xbe12e884	-0.1434651
131	0xbc9af757	-0.018916769
132	0xbcd544cd	-0.026033783
133	0x3d1b50de	0.037918918
134	0xbe1c4144	-0.15259272
135	0x3dc95b2e	0.09831844
136	0xbbda6b65	-0.0066656345
137	0x3e4156a4	0.18880707
138	0xbea260ed	-0.31714574
139	0xbd9202f6	-0.07129471
140	0xbe04273d	-0.12905593
141	0xbe8d3913	-0.27582607
142	0x3debefb7	0.11520331
143	0x3c412c4b	0.011790345
144	0xbdc79951	-0.0974604
145	0xbc64455b	-0.013932551
146	0x3d8ee405	0.06977085
147	0xbe513f8f	-0.20434402
148	0xbd8e1b5d	-0.06938813
149	0x3be64756	0.007027547
150	0xbdf53921	-0.11973787
151	0xbe11d513	-0.14241438
152	0xbe0f64a3	-0.14003234
153	0xbe05183a	-0.12997523
154	0xbced3f94	-0.02896098
155	0xbb26145f	-0.0025341732
156	0x3d9a29b1	0.07527483
157	0x3d8094ac	0.06278357
158	0x3e0f56f7	0.13998018
159	0xbde05f22	-0.10955645
160	0xbe86f5ea	-0.26359493
161	0xbdc3aad1	-0.09554065
162	0xbe122ee9	-0.14275707
163	0x3da7962e	0.081829414
164	0xbe167d37	-0.14696203
165	0xbc0baebd	-0.008525548
166	0xbe2fe30e	-0.17176458
167	0xbe1474d8	-0.14497697
168	0xbe23684a	-0.15957752
169	0xbd810f82	-0.06301786
170	0x3d3459f2	0.04403109
171	0xbe07647f	-0.1322193
172	0xbdeb82f9	-0.114995904
173	0xbbb157da	-0.005412084
174	0xbe175e43	-0.14782052
175	0x3e5d13cd	0.21589585
176	0xbcca3b85	-0.024686584
177	0xbcd04545	-0.025423655
178	0x3e7ecb4f	0.24882244
179	0xbdbcd5cd	-0.09220467
180	0x3eb7b4a3	0.35880002
181	0xbcdafed9	-0.026732849
182	0xbe1622e0	-0.14661741
183	0x3eb1a05e	0.34692663
184	0xbd64267c	-0.055700764
185	0x3e33120e	0.17487356
186	0x3dcb3278	0.099217355
187	0x3d4dbc04	0.050228134
188	0xbdcbd98f	-0.099536054
189	0xbd2ffe25	-0.04296698
190	0x3df2554a	0.11832674
191	0x3bf4f160	0.007475063
192	0xbdca9b2c	-0.09892878
193	0xbe56be0c	-0.20970935
194	0xbcdf065b	-0.02722471
195	0xbdefa4f0	-0.11701381
196	0xbe02a6d5	-0.12758954
197	0xbd914f48	-0.070952
198	0xbd2cb941	-0.04216886
199	0xbd7a1ee6	-0.061064623
200	0xbe7e8a35	-0.2485741
201	0xbe4de48e	-0.20106718
202	0x3d3761a3	0.044770848
203	0x3e0eeea4	0.13958222
204	0xbd80083d	-0.06251571
205	0xbdeda305	-0.11603359
206	0xbd901a7d	-0.07036302
207	0xbea317d7	-0.31854126
208	0xbd3d4911	-0.04621226
209	0xbd56d5ea	-0.052450098
210	0x3d4365c1	0.047704462
211	0xbe8a43c3	-0.27004823
212	0x3d6412d5	0.055682022
213	0x3e01bb7a	0.12669173
214	0x3d1835b2	0.037160583
215	0x3cf69f91	0.030105384
216	0xbd893b98	-0.0670082
217	0xbdc5d421	-0.09659601
218	0x3d392246	0.0451987
219	0xbdc337d7	-0.09532135
220	0xbe115f88	-0.14196599
221	0xbdd1db12	-0.102468625
222	0xbe04941e	-0.12947127
223	0x3e68d1c6	0.22736272
224	0xbe0904d3	-0.13380747
225	0xbde97ebe	-0.11401127
226	0xbe315d1f	-0.17320679
227	0xbd8f20ad	-0.06988654
228	0xbd9feed6	-0.07809226
229	0xbe3080b3	-0.17236595
230	0x3e6df57a	0.23238173
231	0x3d9ee435	0.07758371
232	0xbe210d9a	-0.15727845
233	0xbcdd077b	-0.026981106
234	0xbe510fbd	-0.2041616
235	0x3e2cbb79	0.1686839
236	0xbd853649	-0.06504495
237	0xbcc05f23	-0.023482865
238	0xbc58132a	-0.013188163
239	0xbd81df44	-0.06341413
240	0xbe380903	-0.17972188
241	0xbd9fdc89	-0.078057356
242	0x3bc8b9b9	0.0061256555
243	0x3d51fbe0	0.051265597
244	0xbdb48eba	-0.088162854
245	0xbe79fbfd	-0.24412532
246	0xba2b52f2	-0.0006535492
247	0xbdea00f0	-0.1142596
248	0xbd8ce092	-0.06878771
249	0xbdf7df57	-0.121031456
250	0xbdbcf0dd	-0.092256285
251	0xbe969476	-0.29410142
252	0x3e494491	0.19655062
253	0x3c36e7bf	0.011163651
254	0xbd9e8857	-0.077408485
255	0x3cfc6f09	0.030814664
