project_networks/new_sabr/cifar10_cnn_2layer_w2_sabr.onnx (onnx, 805923 bytes, 16 tensors)

0.weight f4 [8, 3, 4, 4]
0	0x3e0dcc45	0.13847454
1	0x3dec4c56	0.115379974
2	0x3ecc551d	0.39908686
3	0x3dd6e383	0.10492613
4	0x3c31332e	0.010815425
5	0x3b8af190	0.0042402223
6	0x3c8ebfb6	0.0174254
7	0x3b43f6d8	0.002990177
8	0x3e0c8226	0.13721523
9	0x3d32df02	0.043669708
10	0x3d93241f	0.07184624
11	0x3cfd7cd0	0.030943304
12	0x3b0657e3	0.0020499162
13	0x3a493cf2	0.0007676623
14	0xba4fbe02	-0.0007924737
15	0x3ab8195a	0.0014045641
16	0xbd8c7082	-0.06857397
17	0xbcb9fae2	-0.022702638
18	0xbc52d3ca	-0.012867877
19	0xbbd3169c	-0.006441904
20	0xbb0b6ac0	-0.0021273345
21	0xba804e05	-0.0009788877
22	0xbba4494e	-0.0050136214
23	0xba595683	-0.00082907843
24	0xbd7e0bf3	-0.062023114
25	0xbd5f4b7d	-0.05451535
26	0xbe37eb17	-0.17960773
27	0xbd06df81	-0.032927994
28	0xbba0e291	-0.0049098213
29	0xbb32643b	-0.0027220387
30	0xbc400f4a	-0.011722395
31	0xb9df067e	-0.00042538712
32	0xbdc2559c	-0.09488985
33	0xbd1d8d8a	-0.03846506
34	0xbd8e4b71	-0.06947983
35	0xbce16d71	-0.027518006
36	0xb9014048	-0.00012326345
37	0xb9fce58c	-0.0004823621
38	0xbaab200b	-0.0013055814
39	0xba663ccf	-0.0008782865
40	0xbcc0881e	-0.023502406
41	0xbd4e70cb	-0.050400537
42	0xbe747dea	-0.23876157
43	0xbd141abd	-0.036158312
44	0xb98c8952	-0.00026805192
45	0xba72db45	-0.0009264241
46	0xba57b45c	-0.0008228475
47	0x39852a99	0.00025399475
48	0xbe1ef69b	-0.1552376
49	0xbd1cae56	-0.038252197
50	0xbd703ec3	-0.058653604
51	0xbd957dd1	-0.07299388
52	0xbac35b55	-0.0014904538
53	0x3b2448bc	0.0025067767
54	0x3c1c91a2	0.009556206
55	0xb990dcf5	-0.00027630446
56	0x3ed84d7f	0.42246625
57	0x3ead7b4a	0.33883125
58	0x3ec32fea	0.38122493
59	0x3d8e73ff	0.06955718
60	0x3bc8e974	0.0061313454
61	0x3bc47ac9	0.0059960824
62	0x3d0c8e17	0.034315195
63	0x3a5c67d6	0.0008407807
64	0xbc0b7988	-0.008512862
65	0xbcafe8f5	-0.021473387
66	0xbd3ed1b6	-0.046586715
67	0x3bd4e5d2	0.0064971233
68	0xbcaa70e3	-0.020805782
69	0xbc365c1a	-0.011130357
70	0xbcb5c796	-0.022189897
71	0xbb8df882	-0.004332603
72	0xbec1ef8f	-0.3787808
73	0xbea65b3d	-0.32491484
74	0xbed29c25	-0.41134754
75	0xbd9c9031	-0.0764469
76	0xbcd28f16	-0.025702994
77	0xbc53b43a	-0.012921387
78	0xbd2fd0c5	-0.042923708
79	0xbb0da494	-0.0021612989
80	0x3e367614	0.1781848
81	0x3d6c506b	0.05769388
82	0x3dfb9552	0.1228434
83	0x3d6f9034	0.058487132
84	0xbb8b331a	-0.004248035
85	0xbb8fccbe	-0.004388421
86	0xbb6a3be3	-0.0035741262
87	0xbb2fca27	-0.0026823373
88	0xbd751baa	-0.059840836
89	0xbd943f28	-0.072386086
90	0xbd8f512f	-0.069979064
91	0x3cc006ce	0.023440745
92	0xbb36d17c	-0.0027895859
93	0xbb64999d	-0.00348816
94	0xbb2faaa4	-0.002680459
95	0xbafe18c0	-0.0019386038
96	0xbdde6828	-0.1085971
97	0xbdc07a54	-0.09398332
98	0xbe753319	-0.23945273
99	0xbd446d23	-0.047955643
100	0x37d863ae	2.5795624e-05
101	0x39f1bdef	0.00046108614
102	0x3b1ba4c1	0.0023749324
103	0x3a67b33c	0.00088386587
104	0x3dcbf134	0.09958115
105	0x3db81668	0.08988649
106	0x3e8ac7a1	0.2710543
107	0x3d5079b4	0.050897315
108	0x3ae77cbf	0.0017661079
109	0x3aa9b91d	0.0012948845
110	0x3b7598e2	0.0037475158
111	0x3a5fc200	0.0008535683
112	0xbd98dee6	-0.074643895
113	0xbd7a36e7	-0.061087515
114	0xbe219a16	-0.15781435
115	0xbcf420c6	-0.029800784
116	0xba5556fc	-0.0008138267
117	0xb8e2dbaa	-0.000108174354
118	0x3a7ba7f9	0.000959992
119	0x391c2c5e	0.00014893847
120	0x3d248916	0.040169798
121	0x3d309b59	0.0431169
122	0x3e08956e	0.13338253
123	0x3cb50104	0.02209521
124	0x39fd0972	0.00048262958
125	0x3a1d1f09	0.00059936993
126	0x3b0f0169	0.002182091
127	0xb76efda0	-1.4244957e-05
128	0xbe102342	-0.1407595
129	0xbdf315a8	-0.11869365
130	0xbe86ee96	-0.26353902
131	0xbd4a4b8a	-0.049388446
132	0xb9906df1	-0.00027547733
133	0xb82a0cb8	-4.0543004e-05
134	0x39efcd9b	0.0004573882
135	0x399f4e15	0.0003038502
136	0x3df2f3e4	0.11862925
137	0x3e04bd1a	0.12962762
138	0x3eb86694	0.3601576
139	0x3d83fb0b	0.06444367
140	0x39b784df	0.00035003477
141	0x3a64ab5b	0.0008723044
142	0x3a957496	0.0011402543
143	0x392037fc	0.00015279645
144	0x3cca0acb	0.02466335
145	0xbdc1fb73	-0.09471788
146	0x3bad67ad	0.0052919
147	0x3de68189	0.112551756
148	0xba5ae31d	-0.00083498826
149	0xbba76920	-0.0051089674
150	0x3ac7ddf6	0.0015248645
151	0x3c04fd4f	0.008117034
152	0x37c8d924	2.3942972e-05
153	0xbe41a381	-0.18910028
154	0xbc62a33a	-0.013832862
155	0x3e6fdc6c	0.23423928
156	0x3bbb2705	0.0057114386
157	0xba531647	-0.0008052331
158	0xb9cc5fa5	-0.00038981173
159	0x3badc596	0.005303095
160	0xbaa90153	-0.0012894071
161	0xbd9cd3e5	-0.07657603
162	0xb8dbf792	-0.00010488847
163	0x3d740b52	0.05958111
164	0xbb8f1101	-0.0043660407
165	0xbc19cef1	-0.009387718
166	0x3abab6cf	0.0014245155
167	0x3c1425a5	0.009042178
168	0xbd5273da	-0.051380016
169	0xbe2cd54a	-0.16878238
170	0xbc38edd4	-0.011287171
171	0x3e1292b4	0.14313775
172	0x3ad3f417	0.0016170767
173	0xbb8553df	-0.004068836
174	0xbadd1247	-0.0016866409
175	0x3ba2e1fd	0.0049707876
176	0x3c59982a	0.013280908
177	0xbe07b384	-0.13252074
178	0xbc968199	-0.018372344
179	0x3e20d43b	0.1570596
180	0xba11bc26	-0.00055593473
181	0xbbd7f0c6	-0.0065899817
182	0x38636b42	5.422091e-05
183	0x3c0ac9e1	0.008470983
184	0xbcffe4ec	-0.031237088
185	0xbe817ff1	-0.25292924
186	0xbc839ca4	-0.016065903
187	0x3ea1bb02	0.31587988
188	0x3a9fdf60	0.0012197308
189	0xbb131a4b	-0.0022446092
190	0xb7f436a3	-2.9112509e-05
191	0x3b8da083	0.004322113
192	0x3dc23e89	0.09484584
193	0xba44a1e3	-0.00075009296
194	0xbd969c5b	-0.07354041
195	0x3c881b90	0.016614705
196	0x3c4df99a	0.012571717
197	0x3aaa4a54	0.0012992122
198	0xbc48eb3d	-0.012263116
199	0x39a2ae4d	0.00031028912
200	0x3ebfe2f9	0.37477854
201	0x3cdf1116	0.027229827
202	0xbe9ee7d8	-0.31036258
203	0xbce35226	-0.027749132
204	0x3c4de260	0.012566179
205	0x3aaea1f2	0.001332341
206	0xbbe4b38b	-0.006979411
207	0xb87b2dd6	-5.988575e-05
208	0x3cfdc575	0.030977944
209	0xbc1245bc	-0.008927759
210	0xbd89faed	-0.067373134
211	0x3bc9638b	0.0061458996
212	0x3c276661	0.01021728
213	0x39910e37	0.00027667146
214	0xbc8c4a6a	-0.017125327
215	0xba4b16ee	-0.0007747252
216	0x3e4de045	0.20105083
217	0x3beb6094	0.007183144
218	0xbe873db2	-0.26414257
219	0xbce2fa6c	-0.027707301
220	0x3c22d3e4	0.009938214
221	0x39f07086	0.00045860204
222	0xbc26a3a4	-0.010170851
223	0xba746e21	-0.0009324272
224	0x3d9dc2f2	0.077031985
225	0xbc3a14ba	-0.011357481
226	0xbdc1510a	-0.09439285
227	0x3c7810c6	0.015140718
228	0x3b6571bb	0.0035010416
229	0x391988d3	0.00014642188
230	0xbb6908a3	-0.0035558126
231	0xba0da98c	-0.00054039876
232	0x3ed76176	0.42066544
233	0x3c940d88	0.018072858
234	0xbebefbcd	-0.37301484
235	0xbd07055a	-0.032964088
236	0x3b398d57	0.0028313005
237	0x39c2c8a5	0.00037152055
238	0xbb2331ec	-0.0024901582
239	0xba4f2db1	-0.0007903232
240	0x3b009b9a	0.0019623996
241	0x3c8238e6	0.015896272
242	0x3e01cb6d	0.12675257
243	0x3d032c41	0.032024626
244	0x39b1def5	0.00033926187
245	0x3ac48642	0.0014993625
246	0x3c04e278	0.008110635
247	0x3b108315	0.0022050787
248	0xbc12d82e	-0.008962674
249	0x3b91697e	0.0044376245
250	0x3dabc7c5	0.083877124
251	0x3cb63866	0.02224369
252	0xba1058e8	-0.0005506412
253	0x39ddf8c0	0.00042337738
254	0x39cb6f17	0.00038801946
255	0x3a063e20	0.00051209517

0.bias f4 [8]
0	0xbd7d1547	-0.06178787
1	0xbdff3a26	-0.12462263
2	0xbdd50a88	-0.10402399
3	0xbd6ce799	-0.057838056
4	0xbd495b0c	-0.049159095
5	0xbe16bd3c	-0.14720625
6	0xbe0cb548	-0.13741028
7	0xbe0afe19	-0.13573493

2.weight f4 [16, 8, 4, 4]
0	0xbc9e238b	-0.019304058
1	0xbd39d29b	-0.045366865
2	0xbd842899	-0.06453056
3	0xbd3d2a57	-0.046182957
4	0xbc89ed85	-0.016836891
5	0xb9e779cc	-0.000441505
6	0xbc7b662f	-0.015344187
7	0xbd533ff8	-0.051574677
8	0xbc1bc368	-0.009507038
9	0xbb633832	-0.0034670946
10	0x3b0a6294	0.0021115886
11	0xbcb09814	-0.021556892
12	0x3c55f6e3	0.013059351
13	0x3ce52eb8	0.027976379
14	0x3cbe8027	0.023254467
15	0x3d55930c	0.052142188
16	0xbd8899fc	-0.06669995
17	0xbdcbbe67	-0.09948426
18	0xbdd3bed6	-0.103391334
19	0xbdc26072	-0.09491052
20	0xbd09585f	-0.033531543
21	0xbda33dbe	-0.07970761
22	0xbd9ce134	-0.076601416
23	0xbd62325f	-0.05522382
24	0xbd011e72	-0.031523176
25	0x3bd59e56	0.0065191193
26	0x3a68b565	0.00088771275
27	0xbd538cf2	-0.051648088
28	0xbd8819e3	-0.066455625
29	0xbc3c9f9c	-0.011512663
30	0xbc2d7aaa	-0.010588327
31	0xbc60dcab	-0.013724486
32	0xbe0ade7a	-0.1356143
33	0xbd9a6a69	-0.075398274
34	0xbcaec303	-0.021333223
35	0xbb1d01fa	-0.0023957477
36	0xbddc866b	-0.10767826
37	0x3b473df9	0.0030401929
38	0x3e048c21	0.1294408
39	0x3e0ae299	0.13563003
40	0xbd826be6	-0.06368236
41	0xbc1b5619	-0.0094809765
42	0x3c9c4982	0.01907802
43	0x3bba850c	0.00569213
44	0x3bc08d04	0.0058761854
45	0xbd02f14b	-0.031968396
46	0xbd65640f	-0.056003626
47	0xbcbb700f	-0.022880582
48	0x3d1f5f93	0.038909506
49	0x3c6e4e25	0.014544998
50	0xbd7be1a5	-0.06149449
51	0xbd5e2d7e	-0.054242603
52	0x3c86f12d	0.016472423
53	0x3d5e5807	0.05428317
54	0x3c17814b	0.009247134
55	0xbce518af	-0.027965872
56	0xbc646d2d	-0.013942045
57	0x3c9c5248	0.019082204
58	0x3d03b02b	0.03215043
59	0x3cd2ca2f	0.025731174
60	0xbd0afe7b	-0.033934098
61	0xbcec247f	-0.028825996
62	0x3c886d9a	0.016653825
63	0x3a754fef	0.00093579193
64	0xbd589f73	-0.052886438
65	0xbe254894	-0.16140968
66	0xbd7d3424	-0.061817303
67	0x3d46a9f4	0.048501924
68	0xbc8ec60e	-0.017428424
69	0xbd4a88e2	-0.049446948
70	0xbd1654f4	-0.03670211
71	0x392cab84	0.00016467093
72	0xbabf13cd	-0.0014578045
73	0xbd3b842c	-0.045780346
74	0xbd07d6c0	-0.033163786
75	0xbce1bc1a	-0.027555514
76	0x3d51060a	0.05103115
77	0xbd33b3bb	-0.043872576
78	0xbdc6a533	-0.09699478
79	0xbd874c09	-0.066062994
80	0x3e8dd965	0.2770492
81	0x3ecc24ff	0.39871976
82	0x3eb3e353	0.35134372
83	0x3dc9329c	0.09824106
84	0xbd897b4b	-0.067129694
85	0x3db3e50b	0.08783921
86	0x3e15806b	0.14599769
87	0x3d9c5151	0.076326974
88	0xbe3eff96	-0.18652186
89	0xbe5fb27c	-0.2184543
90	0xbc9a7b19	-0.018857526
91	0x3d4ee16c	0.050507948
92	0xbb0351e6	-0.002003783
93	0xbe7478b7	-0.23874174
94	0xbe30f783	-0.17281918
95	0xbe214930	-0.15750575
96	0x3d52577d	0.051352967
97	0x3dd948c4	0.10609582
98	0x3dedf521	0.1161902
99	0x3d52ec73	0.051495027
100	0xbd24bd57	-0.04021963
101	0x3cafde4d	0.021468306
102	0x3de9e9cd	0.11421547
103	0x3da37b10	0.07982457
104	0xbdaccea5	-0.08437852
105	0xbdff48ab	-0.12465032
106	0xbd1314e9	-0.035908613
107	0xbd021038	-0.03175375
108	0x3cf1b3fd	0.02950477
109	0xbe48fcfd	-0.19627757
110	0xbe27fec1	-0.16405775
111	0xbe2d9b2d	-0.16953726
112	0x3d2c835b	0.042117458
113	0x3e087745	0.13326748
114	0x3dda319d	0.10653994
115	0x3c981880	0.01856637
116	0xbdae6d38	-0.085169256
117	0x3d1f9980	0.03896475
118	0x3e07abcd	0.1324913
119	0x3dd200f7	0.1025409
120	0xbe16cd9b	-0.1472687
121	0xbe53925e	-0.20661303
122	0xbd809026	-0.06277494
123	0xbd7d697a	-0.06186817
124	0x3dfd3076	0.12362759
125	0xbe4badd2	-0.19890526
126	0xbe1af2c4	-0.1513167
127	0xbe4c8a9a	-0.19974747
128	0xbcf4ac4c	-0.029867314
129	0xbd39e7b3	-0.04538698
130	0xbd2facd9	-0.04288945
131	0xbcd4ee8b	-0.025992652
132	0xbd26d5af	-0.04073113
133	0xbd639b44	-0.055567995
134	0xbd6b38e9	-0.05742732
135	0xbd9887de	-0.074477896
136	0xbd0bd335	-0.03413697
137	0xbd15b7c0	-0.03655219
138	0xbce9ae6b	-0.028525552
139	0xbd0ba6dc	-0.034094676
140	0xbd1f43c1	-0.038882975
141	0xbd35f44a	-0.044422425
142	0xbd14615a	-0.036225654
143	0xbca24a44	-0.019810803
144	0xbc754c69	-0.014971831
145	0xbcfd3abe	-0.0309118
146	0xbd69536b	-0.05696432
147	0xbc55a5c4	-0.01304001
148	0xbd8e6003	-0.069519065
149	0xbd9712e2	-0.073766485
150	0xbd85d136	-0.065340444
151	0xbd6e2d83	-0.058148872
152	0xbb0a8b24	-0.0021140063
153	0xbcee9c3b	-0.02912723
154	0xbce6135e	-0.028085407
155	0xbc825f94	-0.015914716
156	0x3dd9ee53	0.1064116
157	0x3d7cf1ed	0.061754156
158	0x3d475837	0.048668113
159	0x3d4c7504	0.049916282
160	0xbd52d736	-0.051474772
161	0xbbc8e318	-0.0061305873
162	0xbba1577d	-0.0049237595
163	0xbd139dde	-0.036039226
164	0x3c0c591e	0.008566169
165	0xbc8b372c	-0.016994081
166	0xbd0678f6	-0.0328302
167	0xbd1545f4	-0.036443666
168	0xbd0c8bd3	-0.034313034
169	0xbd1b5267	-0.037920382
170	0xbd31fd7b	-0.04345463
171	0xbd7bb6df	-0.061453696
172	0x3e813d7f	0.2524223
173	0x3e47be17	0.19506107
174	0x3e0e58af	0.13901018
175	0x3db4c85a	0.088272765
176	0xbd363f1b	-0.044493776
177	0xbc5089b5	-0.012728144
178	0x3c18279e	0.009286789
179	0xbbc4b36f	-0.0060028355
180	0xbcb3b683	-0.021937614
181	0xbb411aae	-0.0029465365
182	0x3c37f7ef	0.011228546
183	0x3b96a0e8	0.0045968182
184	0xbd2f122c	-0.04274194
185	0xbd04aabf	-0.0323894
186	0x3c01275f	0.007882922
187	0x3bc00424	0.0058598686
188	0xbcc8810e	-0.0244756
189	0xbd1bfba5	-0.038081784
190	0xbd020a1c	-0.031747922
191	0xbc55cfd3	-0.013050037
192	0xbc796626	-0.015222108
193	0xbd4bdaea	-0.04976932
194	0xbd94528a	-0.072423056
195	0xbd1d59da	-0.038415767
196	0xbd1adb25	-0.03780665
197	0xbd3da389	-0.046298537
198	0xbd59e5fc	-0.053197846
199	0xbbeecd1a	-0.0072876336
200	0xbd1ff48f	-0.03905159
201	0xbd9aaff0	-0.07553089
202	0xbdc5294f	-0.096270196
203	0xbd145956	-0.03621801
204	0xbcb38e0f	-0.021918325
205	0xbd4b4938	-0.049630374
206	0xbd922228	-0.07135421
207	0xbd84b481	-0.06479741
208	0xbdc28780	-0.09498501
209	0xbe543a28	-0.2072531
210	0xbd8eb7d5	-0.06968657
211	0x3dfb2a1c	0.12263891
212	0x3d94a464	0.072579175
213	0x3cbca568	0.02302809
214	0x3cb0eecc	0.021598242
215	0x3d9ca003	0.07647707
216	0xbcd3cad5	-0.025853554
217	0xbdcf7365	-0.10129432
218	0xbd8e1096	-0.06936757
219	0x3cc9312e	0.024559584
220	0x3d5903ab	0.052982014
221	0xbdfd2876	-0.12361233
222	0xbe391e16	-0.18077883
223	0xbdd2855a	-0.10279341
224	0xbcc647bd	-0.02420413
225	0xbd58fc34	-0.052974895
226	0xbc5ef0e3	-0.013607237
227	0x3d293a89	0.04131559
228	0x3c948555	0.018129984
229	0xbc1cbc46	-0.009566372
230	0x3c6d4bf8	0.014483444
231	0x3d8c03f6	0.06836693
232	0xbd3349de	-0.043771617
233	0xbd8a5d6c	-0.067561
234	0xbd06961e	-0.032858007
235	0xbca39beb	-0.019971808
236	0x3dac799d	0.084216334
237	0x3c0643a5	0.008194839
238	0xbcd69f3b	-0.026198974
239	0xbca37e1e	-0.019957598
240	0xbcae03ee	-0.021242108
241	0xbdb117ab	-0.086470924
242	0xbccaa602	-0.024737362
243	0x3dbf2811	0.09333814
244	0x3d329abd	0.0436046
245	0x3b21f9f6	0.0024715639
246	0x3c98a2d8	0.018632337
247	0x3dea6f51	0.11447013
248	0xbd9cb763	-0.07652166
249	0xbdeeff85	-0.1166983
250	0xbd90aa5b	-0.07063743
251	0xbcc7431a	-0.024323989
252	0x3e292706	0.16518793
253	0x3aa8c01d	0.0012874637
254	0xbd8d77b2	-0.06907596
255	0xbd5e6946	-0.054299615

2.bias f4 [16]
0	0xbd9ce055	-0.076599754
1	0x3e42a601	0.19008638
2	0x3e1989d5	0.14993985
3	0xbc8a340e	-0.016870525
4	0x3c774e30	0.015094325
5	0xbd4d5d8a	-0.050138034
6	0x3e084cfc	0.13310617
7	0xbe055036	-0.1301888
8	0xbea01d71	-0.31272462
9	0xbd04e6af	-0.03244656
10	0x3ab48e64	0.0013775346
11	0xbd17d6a7	-0.037069943
12	0xbd85bca8	-0.06530124
13	0xbd25291c	-0.040322408
14	0xbc84600a	-0.016159076
15	0x3dee6385	0.116400756

5.weight f4 [128, 1024]
0	0x3ec1d5cb	0.37858424
1	0x3f7cd9c7	0.987698
2	0x3f679d40	0.9047432
3	0xbf400bd5	-0.75018054
4	0xbf878721	-1.0588113
5	0xbeef7658	-0.46769977
6	0xbedb672b	-0.42852148
7	0x3f517bd7	0.8182959
8	0xbe25e3d2	-0.16200188
9	0x3e07508c	0.1321432
10	0xbd8f9dff	-0.07012557
11	0x3e18fe0a	0.14940658
12	0xbcaa48f5	-0.020786742
13	0x3d6c6f54	0.05772336
14	0xbd41febe	-0.04736208
15	0xbd065679	-0.03279731
16	0xbdd7a0e2	-0.10528733
17	0x3dfa7f29	0.12231285
18	0x3dafc0ae	0.085816726
19	0x3e9b30ee	0.30310768
20	0xbdf8a844	-0.12141469
21	0x3d04da51	0.032434765
22	0x3dddd1b3	0.108310126
23	0x3ddcef30	0.10787809
24	0x3d552ea3	0.05204643
25	0x3d889330	0.06668699
26	0x3e9e8dde	0.3096761
27	0xbcfe7e64	-0.031066127
28	0x3db94325	0.0904601
29	0x3d61f53b	0.05516551
30	0xbc678233	-0.014130163
31	0x3e99a630	0.30009604
32	0x3d99a3f1	0.075019725
33	0x3d5a61f0	0.053316057
34	0x3ec09e38	0.3762071
35	0x3e47306e	0.19452068
36	0xbd82c7b7	-0.06385749
37	0x3e5300f1	0.20605828
38	0xbc01b9b5	-0.007917811
39	0xbd2f9523	-0.042866837
40	0x3e305d52	0.17223099
41	0xbe311493	-0.17293005
42	0xbd19eb7e	-0.0375781
43	0xbddc6999	-0.10762329
44	0x3d204369	0.039126787
45	0x3dbffdaa	0.093745545
46	0x3e00634b	0.12537877
47	0xbe45383e	-0.19259736
48	0x3e4a8a58	0.19779336
49	0x3e6714b1	0.22566487
50	0x3dfa3279	0.12216658
51	0x3e92170a	0.28533202
52	0xbd00086f	-0.031258043
53	0x3d9bb84c	0.07603511
54	0x3c060638	0.008180194
55	0x3d07dac2	0.033167608
56	0x3dd8f3a5	0.105933465
57	0x3d98ee05	0.074672736
58	0x3db5bcf3	0.0887393
59	0xbe0861ff	-0.13318633
60	0xbd76d68a	-0.060263194
61	0x3d112fe2	0.035446055
62	0xbd8d9325	-0.06912831
63	0x3d100f0e	0.035170607
64	0xbd17204b	-0.03689603
65	0xbd3e8a5a	-0.04651866
66	0x3d20e6b9	0.039282534
67	0xbec66b9a	-0.38753968
68	0xbd2a415f	-0.04156625
69	0xbdd7d6bb	-0.105390035
70	0xbe0b7e08	-0.13622296
71	0x3cc6e0c5	0.0242771
72	0x3cf0939b	0.029367259
73	0x3e84b84d	0.2592186
74	0x3e92a454	0.28640997
75	0x3e101c88	0.14073384
76	0x3d7a6e08	0.06114009
77	0x3ea822bb	0.32838997
78	0x3d6b2a02	0.05741311
79	0x3d74b66b	0.05974428
80	0x3e75f594	0.24019462
81	0x3e002fb3	0.12518196
82	0x3eabd3a9	0.3355992
83	0x3e2811d7	0.16413055
84	0x3e10dd88	0.14147007
85	0xbd97d881	-0.07414342
86	0x3e201e05	0.15636452
87	0xbea1a185	-0.31568542
88	0xbe5b86b4	-0.21438104
89	0xbdc9a450	-0.09845793
90	0xbde68b44	-0.112570316
91	0xbe6caa56	-0.23111853
92	0xbe0e8ec3	-0.13921647
93	0x3d68ea73	0.056864213
94	0x3de9cdbb	0.11416193
95	0x3cc9ff57	0.024657888
96	0xbec3b190	-0.38221407
97	0xbeaeca7d	-0.3413886
98	0xbe3a4ce4	-0.18193394
99	0xbe8d0012	-0.27539116
100	0xbead9844	-0.33905232
101	0xbee7f4ea	-0.45304042
102	0xbe9b4940	-0.30329323
103	0xbe864429	-0.26223877
104	0x3c90c696	0.017672818
105	0xbe3f6410	-0.18690515
106	0xbcabafe4	-0.020957895
107	0x3d9cf92d	0.07664714
108	0x3d9a0dea	0.07522185
109	0x3e264df6	0.16240677
110	0x3d81b2c9	0.06332929
111	0xbe32d47a	-0.17463866
112	0x3e6d52d0	0.23176122
113	0x3e009bf6	0.12559494
114	0x3e69661d	0.2279286
115	0x3e2d878e	0.16946241
116	0x3e61f628	0.22066557
117	0x3df37877	0.11888211
118	0x3d040dbe	0.032239668
119	0xbdc05c71	-0.09392632
120	0xbdfd5745	-0.12370161
121	0xbc8cd9c9	-0.017193692
122	0x3cc4d5f6	0.024027806
123	0x3e15c82b	0.1462714
124	0x3e8de0d9	0.27710608
125	0x3e19d819	0.15023841
126	0x3e4c84d5	0.19972546
127	0x3e621d66	0.22081527
128	0x3d427a75	0.047480065
129	0xbe444e68	-0.19170535
130	0x3dd71a42	0.10503055
131	0x3eae5b7f	0.3405418
132	0x3e774608	0.24147809
133	0x3e99eef8	0.3006513
134	0x3d7a2ffe	0.061080925
135	0xbf2cd058	-0.6750541
136	0x3e9c6317	0.3054435
137	0xbc4a02a8	-0.012329735
138	0x3ee3ef69	0.44518593
139	0x3e0fb2ec	0.14033097
140	0x3ccea7a5	0.025226424
141	0x3eb03d9e	0.3442201
142	0x3ddae71a	0.106886104
143	0x3da5359f	0.08066868
144	0x3dcd4ac3	0.10024025
145	0x39a4ba18	0.00031419168
146	0xbc85e78c	-0.016345762
147	0x3ec06a73	0.37581214
148	0x3e781398	0.24226224
149	0x3de924d9	0.11383981
150	0x3e799ee9	0.24377026
151	0xbe89f89f	-0.26947495
152	0xbacb3688	-0.0015503922
153	0xbdbdc914	-0.09266868
154	0xbe612eee	-0.21990559
155	0x3ed82dc9	0.4222243
156	0x3ea84ed1	0.32872632
157	0x3e5ab48d	0.21357937
158	0xbd4b9e04	-0.049711242
159	0xbe81ef16	-0.2537772
160	0xbdacdeff	-0.08440971
161	0x3e3061a5	0.17224748
162	0xbef12a9a	-0.47102815
163	0xbe88fb0b	-0.2675403
164	0xbe9c5a15	-0.30537477
165	0xbae19cbe	-0.001721285
166	0xbdbaa36f	-0.09113204
167	0xbe9a6349	-0.30153874
168	0xbdf63119	-0.120210834
169	0xbe1bca3b	-0.15213864
170	0xbe7f70c1	-0.24945356
171	0xbe35f240	-0.17768192
172	0xbe207e0c	-0.15673083
173	0xbdba1af4	-0.09087172
174	0x3c5b8906	0.013399368
175	0x3e263e28	0.16234648
176	0xbe23a636	-0.15981373
177	0xbe388002	-0.18017581
178	0xbd00d51f	-0.031453248
179	0xbbfda7e5	-0.007740962
180	0x3cafee50	0.021475941
181	0xbdc2c429	-0.09510071
182	0x3d922afc	0.07137105
183	0x3da293aa	0.07938321
184	0x3e6fe3fa	0.2342681
185	0x3e834d8a	0.25645095
186	0x3d56d57a	0.05244968
187	0x3e837a2a	0.2567914
188	0x3e56969f	0.20955895
189	0x3e26f975	0.16306098
190	0x3d13c6f9	0.036078427
191	0x3e338024	0.1752935
192	0xbe5c862a	-0.21535555
193	0xbed4ef23	-0.41588697
194	0xbe260fc0	-0.16216946
195	0xbea9df3c	-0.33178127
196	0xbe99d9ee	-0.3004908
197	0xbeafe9e7	-0.3435814
198	0xbea29bae	-0.317594
199	0xbc4dd9fd	-0.0125641795
200	0xbee175f0	-0.44035292
201	0xbe81fd40	-0.25388527
202	0xbeb411aa	-0.35169727
203	0xbe1c2395	-0.15247948
204	0xbea9d2e5	-0.33168712
205	0x3d2073b5	0.039172847
206	0x3e85f8c4	0.26166356
207	0x3d2d8867	0.04236641
208	0x3e78d195	0.24298699
209	0x3e4e1955	0.20126851
210	0xbea1ed1a	-0.31626207
211	0xbea154f8	-0.3151014
212	0xbe8e41d3	-0.27784595
213	0x3e46f1d8	0.19428194
214	0x3cf0b0a0	0.029381096
215	0x3cf1fb42	0.029538754
216	0xbe78153a	-0.24226847
217	0x3e4fd605	0.20296486
218	0x3c17fbd2	0.009276347
219	0xbe4981d4	-0.19678432
220	0xbe72284c	-0.23648185
221	0x3a8e6b5b	0.0010865735
222	0x3ca83242	0.020531777
223	0xbd597a97	-0.053095426
224	0x3d22e5fb	0.039770108
225	0x3dbd6f88	0.092497885
226	0xbe76d86c	-0.24105996
227	0xbde6ab80	-0.1126318
228	0xbf0b227e	-0.54349506
229	0xbe8f891b	-0.2803429
230	0xbd9b36a2	-0.0757878
231	0xbd514afb	-0.051096898
232	0x3ecce68d	0.40019646
233	0xbee47b9f	-0.44625565
234	0xbec6e10a	-0.38843566
235	0x3d4fa330	0.050692737
236	0xbefdb1de	-0.49549764
237	0xbf262856	-0.649053
238	0xbe4279c6	-0.18991765
239	0x3be5871f	0.007004633
240	0x3e087b1e	0.13328215
241	0xbe488e08	-0.1958543
242	0x3e3ce575	0.18446906
243	0xbe677b21	-0.22605564
244	0xbed5c666	-0.41752928
245	0xbe9471e4	-0.28993142
246	0xbe5ef153	-0.21771745
247	0x3da0b72e	0.07847439
248	0xbce010ed	-0.02735182
249	0xbd690a23	-0.056894433
250	0xbc03a215	-0.008034249
251	0xbd0ac160	-0.033875823
252	0xbe2a4fdd	-0.16632028
253	0xbe689f43	-0.22717004
254	0xbd0d1933	-0.03444786
255	0x3c919b18	0.01777415

5.bias f4 [128]
0	0x3ed057f5	0.40692106
1	0xbd5e3232	-0.05424709
2	0xbeafc754	-0.34331763
3	0x3f114a88	0.5675435
4	0xbe2af39e	-0.16694495
5	0x3e84b41e	0.25918669
6	0xbd88a5d9	-0.06672258
7	0xbe1ec35a	-0.15504208
8	0x3d3da536	0.046300136
9	0xbd7512e7	-0.05983248
10	0x3cb66d2b	0.022268852
11	0x3e5150ea	0.20441023
12	0x3dcb5af4	0.09929457
13	0xbe5565fb	-0.20839684
14	0x3d81eda8	0.063441575
15	0x3d9cb5bd	0.07651851
16	0x3dcd35d4	0.100200325
17	0x3e6d9146	0.23199949
18	0xbc8da864	-0.017292209
19	0xbda7e140	-0.0819726
20	0x3f5beeb1	0.8591109
21	0x3f317bad	0.6932934
22	0xbdd546d2	-0.104138985
23	0xbe8b8fd8	-0.27258182
24	0x3d50fca2	0.05102218
25	0xbdb07168	-0.086153805
26	0x3ea7aaef	0.327476
27	0xbe9ba2d2	-0.3039766
28	0xbd33bd37	-0.04388162
29	0xbe23d6c0	-0.1599989
30	0x3e0698e4	0.1314426
31	0xbe0d6122	-0.13806584
32	0xbe3e8337	-0.18604742
33	0xbdf5f79d	-0.12010119
34	0xbe2b39f2	-0.16721323
35	0xbedaf111	-0.42762044
36	0x3e16d5b5	0.1472996
37	0x3f05280f	0.5201425
38	0xbde80756	-0.11329524
39	0xbd970f2b	-0.0737594
40	0xbd9906f0	-0.07472026
41	0x3dd3df92	0.10345377
42	0x3daf459a	0.08558197
43	0xbd8211b8	-0.06351036
44	0x3e3f481c	0.18679851
45	0x3d2cc8ec	0.0421838
46	0xbec0fd0e	-0.37693065
47	0xbe3e393f	-0.18576525
48	0xbd66221d	-0.056184877
49	0xbd1c1052	-0.0381015
50	0x3e259ab7	0.161723
51	0xbd1f382c	-0.03887193
52	0x3ea214f2	0.31656605
53	0xbe03e15b	-0.12878935
54	0x3de317fc	0.11088559
55	0x3df0ecd4	0.117639214
56	0x3e6fdf45	0.23425014
57	0xbaa85b19	-0.0012844532
58	0xbea05fed	-0.31323186
59	0x3e6cdcf4	0.23131162
60	0xbec188d2	-0.37799698
61	0xbcf3b59f	-0.02974969
62	0x3dcd787a	0.10032745
63	0xbd829a72	-0.06377114
64	0x3e354849	0.17703356
65	0x3e024055	0.12719853
66	0xbc82b1a1	-0.01595384
67	0x3f20eea0	0.6286411
68	0x3c5c8f83	0.01346195
69	0xbf09016a	-0.5351778
70	0xbd8b1440	-0.06790972
71	0xbd811647	-0.06303077
72	0x3dff79b0	0.12474382
73	0xbe67b138	-0.22626197
74	0xbe23af96	-0.1598495
75	0x3e2ec434	0.17067033
76	0xbdb0f506	-0.086404845
77	0xbe38e488	-0.18055928
78	0x3f0d2abe	0.55143344
79	0xbd8cce59	-0.06875295
80	0xbed7cbb2	-0.42147595
81	0xbe0b19ed	-0.13584109
82	0xbd9b8291	-0.07593263
83	0xbdf82ef8	-0.121183336
84	0x3e798c82	0.24370006
85	0xbe912531	-0.28348687
86	0x3d0592f6	0.032610856
87	0xbe6140c6	-0.21997365
88	0x3d2b22b5	0.041781146
89	0xbebd500e	-0.3697514
90	0x3eb8ee60	0.36119366
91	0xbdc16c94	-0.09444538
92	0x3e0895b6	0.1333836
93	0x3d402a54	0.046915367
94	0x3c7d65b3	0.0154661415
95	0xbd1e3810	-0.038627684
96	0x3d81d6a8	0.063397706
97	0x3eeaea6a	0.4588197
98	0xbd9670a6	-0.07345705
99	0xbe02fdd3	-0.12792139
100	0x3e48082b	0.19534366
101	0xbe915936	-0.28388375
102	0x3db4774f	0.08811819
103	0xbd8b6f9c	-0.06808397
104	0xbcfe3953	-0.031033194
105	0xbd638e7d	-0.05555581
106	0x3e2aad7f	0.16667746
107	0xbd9966a7	-0.074902825
108	0x3e40394f	0.18771861
109	0x3e473433	0.19453506
110	0xbe0e4da3	-0.13896804
111	0xbd501c18	-0.050808042
112	0x3ee3eb64	0.44515526
113	0x3ce8ecb0	0.028433174
114	0x3f12d6c5	0.5735896
115	0x3e35e5dc	0.17763466
116	0xbd77b484	-0.060474887
117	0xbcd47344	-0.02593387
118	0xbdfdd984	-0.123950034
119	0xbd46b63a	-0.04851363
120	0xbd5144c5	-0.051090974
121	0x3eab7431	0.33487085
122	0x3f113716	0.5672468
123	0xbd89d99a	-0.06730957
124	0xbdcc8222	-0.09985758
125	0xbd679817	-0.05654153
126	0x3c8e4b1a	0.017369796
127	0xbd9e90e3	-0.07742479

7.weight f4 [128, 128]
0	0xbb7ddcdc	-0.0038736379
1	0x3c77a072	0.015113937
2	0xbc6e665c	-0.014550772
3	0xbdaab890	-0.08335984
4	0xbd00bec0	-0.031431913
5	0x3da64a6b	0.08119663
6	0x3dc24717	0.094862156
7	0x3e138819	0.14407386
8	0xbdaedd34	-0.08538285
9	0x3e0f0fee	0.1397092
10	0xbde2827e	-0.11060046
11	0xbdd8c193	-0.10583796
12	0xbde5b9be	-0.11217068
13	0x3e3ed84d	0.186372
14	0x3d8483f2	0.06470479
15	0x3d4d02c0	0.05005145
16	0xbcf93122	-0.030418936
17	0xbb98b94a	-0.00466076
18	0x3e477f92	0.19482258
19	0x3e0c2ed0	0.13689733
20	0xbe22d693	-0.15902166
21	0xbd16a8c1	-0.03678203
22	0xbda3827f	-0.079838745
23	0x3d1dfb11	0.038569514
24	0xbc33ee01	-0.0109820375
25	0x3db5a36d	0.088690616
26	0xbdb0a22b	-0.08624681
27	0x3d8655ad	0.0655931
28	0xba917fbb	-0.0011100689
29	0x3e2fabbb	0.17155354
30	0xbda9dfc6	-0.082946345
31	0x3e191f34	0.1495331
32	0x3da64a1f	0.08119606
33	0xbd3325e1	-0.043737296
34	0x3d7e37ff	0.06206512
35	0x3e38143c	0.17976469
36	0x3e18e699	0.14931716
37	0xbc90c9e0	-0.017674387
38	0xbe2345c8	-0.15944588
39	0x3e04dbc2	0.12974456
40	0xbdd45987	-0.103686385
41	0xbe6b359f	-0.22969674
42	0xbce2e6cf	-0.027697949
43	0x3da62743	0.08112957
44	0x3de8700e	0.11349498
45	0x3da68b5e	0.08132051
46	0x3e5caf4d	0.21551247
47	0xbe619909	-0.22031035
48	0xbcac186e	-0.021007743
49	0x3c199366	0.009373521
50	0x3ea7d724	0.32781327
51	0xbd485813	-0.04891212
52	0xbe56a2b3	-0.20960502
53	0x3ddae8f0	0.106889606
54	0xbdfd8ac7	-0.12379985
55	0x3e9dac87	0.3079569
56	0xbe6be42d	-0.23036261
57	0xbe9c793d	-0.30561247
58	0xbe93d2c5	-0.28871742
59	0x3e91fc35	0.2851273
60	0xbddaf4fd	-0.10691259
61	0xb9847468	-0.0002526373
62	0xbe21cebe	-0.15801522
63	0xbd5c6603	-0.053808223
64	0xbdf871ab	-0.121310554
65	0xbe303dc0	-0.17211056
66	0x3e922f9d	0.2855195
67	0x3e0f2b88	0.1398145
68	0x3d22cc63	0.0397457
69	0x3d65a419	0.0560647
70	0xbc2d4061	-0.010574431
71	0x3da96bb6	0.08272497
72	0xbc9d153b	-0.019175163
73	0x3df1a93f	0.11799859
74	0xbcb5072d	-0.022098148
75	0xbdbbee05	-0.09176258
76	0x3d2272d3	0.039660286
77	0xbe849d56	-0.25901288
78	0xbd758231	-0.059938613
79	0xbcccfc8e	-0.025022771
80	0x3e0e0e4d	0.13872643
81	0xbe0ecb0c	-0.13944644
82	0x3d31c32d	0.043399025
83	0xbe08facb	-0.1337692
84	0x3db7e030	0.08978307
85	0x3dd27972	0.1027707
86	0x3d172c73	0.036907624
87	0xbc6ce352	-0.014458494
88	0x3e10b421	0.14131214
89	0xbea59c6a	-0.32345897
90	0xbd2b186c	-0.041771337
91	0xbe284fc0	-0.16436672
92	0xbda59bae	-0.08086334
93	0x3da19bcf	0.07891046
94	0xbe2fe665	-0.17177732
95	0x3d568b84	0.052379146
96	0x3dcb8fb3	0.09939518
97	0xbaea28d9	-0.0017864957
98	0xbc1b82c6	-0.009491628
99	0x3ced7ad9	0.028989242
100	0xbd18a8e0	-0.037270427
101	0x3e42a114	0.19006759
102	0xbd9da92e	-0.07698284
103	0xbe3b5ef2	-0.18297938
104	0xbd939321	-0.07205797
105	0xbcee1aed	-0.029065574
106	0xbb9e4fa9	-0.0048312736
107	0xbcd8052f	-0.02636966
108	0x3ed3f3e7	0.4139702
109	0xbdcfdc01	-0.10149384
110	0x3d1ba753	0.03800137
111	0xbe6efd38	-0.23338783
112	0xbdcfa308	-0.101385176
113	0xbcaae970	-0.020863265
114	0x3de5e1ce	0.112247095
115	0xbe0bb5d6	-0.13643584
116	0x3d39263a	0.04520247
117	0x3ec0244a	0.37527686
118	0xbc6a93e2	-0.014317485
119	0xbd697c49	-0.057003293
120	0x3dd862e3	0.10565736
121	0x3da7acb8	0.0818724
122	0x3cf83d69	0.03030272
123	0xbd063275	-0.032762963
124	0x3ce87ae4	0.028378911
125	0xbbda76e8	-0.0066670068
126	0xbe0c6a9d	-0.13712545
127	0xbccd6454	-0.025072254
128	0xbd2a1c9a	-0.041531183
129	0xbe09cd5d	-0.13457246
130	0xb91805a0	-0.00014497945
131	0xbd54b190	-0.05192715
132	0xbe1c2832	-0.15249708
133	0xbdbf5d44	-0.09343961
134	0xbd45cb24	-0.048289433
135	0xbbdc7f9d	-0.00672908
136	0xbd926752	-0.07148613
137	0xbe775549	-0.24153627
138	0xbe05d10b	-0.13068025
139	0xb88a421f	-6.592669e-05
140	0xbbc93cbe	-0.0061412742
141	0xbecc6b77	-0.3992574
142	0xbc21430e	-0.009842647
143	0xb9a03f1b	-0.00030564595
144	0xbe20ad2f	-0.15691064
145	0xbdcfd26b	-0.10147556
146	0xbc28d6b4	-0.010305095
147	0xbda38c7b	-0.07985779
148	0xbda4df60	-0.08050418
149	0xbe65e690	-0.22451234
150	0xbe45e51f	-0.19325684
151	0xbdea35f2	-0.114360705
152	0xbe1aef69	-0.1513039
153	0xbc929788	-0.017894521
154	0xbd75177a	-0.059836842
155	0xbed89bf8	-0.42306495
156	0xbd646f56	-0.05577024
157	0xbd4641f6	-0.04840275
158	0xbe6c2271	-0.23060013
159	0xbde3c99a	-0.11122437
160	0xbdb6a211	-0.089176305
161	0xbccc14ed	-0.024912322
162	0xbd6387b4	-0.05554934
163	0xbde72f22	-0.11288287
164	0xbb010bc4	-0.001969085
165	0xbe439a85	-0.19101913
166	0xbc917260	-0.017754734
167	0x3d9029f4	0.07039252
168	0xbd62bf3c	-0.055358157
169	0xbcf2ece9	-0.029653983
170	0xbe25d48e	-0.16194364
171	0xbe096769	-0.13418354
172	0xbd4eae0e	-0.05045896
173	0xbd67cd87	-0.05659249
174	0xbd11d69b	-0.035605054
175	0xb919b520	-0.00014658691
176	0xbdf25ae3	-0.118337415
177	0xbc893b88	-0.01675202
178	0xbd36dfb6	-0.04464694
179	0xbdefdd9b	-0.1171219
180	0xbeb70674	-0.3574711
181	0xbe8ae4c1	-0.2712765
182	0xbe9bc38f	-0.30422637
183	0xbeb68cf1	-0.35654405
184	0xb9807253	-0.0002449924
185	0xba32c6cb	-0.00068197836
186	0xbdd960ac	-0.10614142
187	0xbef2f488	-0.47452188
188	0xbc58e9ab	-0.013239305
189	0xbdcbbb8b	-0.0994788
190	0xbbd7032c	-0.0065616574
191	0xbdaec648	-0.08533913
192	0xbe002058	-0.12512338
193	0xbdf1f54e	-0.11814366
194	0xbb469f09	-0.0030307195
195	0xbe5c1594	-0.21492606
196	0xbdd073c6	-0.10178332
197	0xbd97d28f	-0.07413208
198	0x3cf496b3	0.029857015
199	0xb93c6dc6	-0.00017969971
200	0xbe4f008a	-0.2021505
201	0xbe05ec7e	-0.13078496
202	0xbd79cd35	-0.060986716
203	0xbd864a58	-0.06557149
204	0xbb424273	-0.0029641658
205	0x3c113128	0.008861817
206	0xbd0501a6	-0.032472275
207	0xbd94db7e	-0.07268427
208	0xb90ad3c6	-0.00013239597
209	0xba995647	-0.0011698686
210	0x3d2f0673	0.04273076
211	0xba67fc71	-0.00088495674
212	0xbd565a7a	-0.05233238
213	0xbe368509	-0.17824186
214	0xbe7a9d18	-0.24473989
215	0xbdea3813	-0.114364766
216	0xbb5eca71	-0.0033995176
217	0xb8798ca0	-5.9497193e-05
218	0xbebe75ea	-0.37199336
219	0xbabaa382	-0.0014239403
220	0xbdce6973	-0.100787066
221	0xbc5590c1	-0.013035
222	0xbb155329	-0.0022785163
223	0xbc402577	-0.011727682
224	0xbd8676b3	-0.06565609
225	0xbe52e66f	-0.20595716
226	0x3a920fa1	0.0011143574
227	0xbc4ef9b7	-0.012632779
228	0xbbdc4372	-0.0067219073
229	0xbe6fda92	-0.23423222
230	0xbca68f54	-0.020332016
231	0x39297a3a	0.00016162629
232	0xbd1466fe	-0.036231034
233	0xbd8fd0b2	-0.07022227
234	0xb7bd9fe7	-2.2605016e-05
235	0x3df3a2d5	0.11896292
236	0xbeaa5e92	-0.33275276
237	0xbd048ce1	-0.032360915
238	0xbcef3f7c	-0.029205076
239	0xbd3260b4	-0.043549255
240	0xbd2c91a2	-0.042131074
241	0x3b3771f7	0.0027991512
242	0xbe226d67	-0.15862046
243	0xb9be3585	-0.000362795
244	0x3d82d0ff	0.06387519
245	0xbd679ed6	-0.056547962
246	0xbdc30dad	-0.09524093
247	0xbd90e13d	-0.07074211
248	0x3dc5d507	0.09659772
249	0x3b79ca3a	0.0038114921
250	0xb8f37b74	-0.00011610138
251	0x3de29054	0.11062685
252	0xbe683b15	-0.22678788
253	0xbdb40f16	-0.0879194
254	0xbe9e7191	-0.3094602
255	0xbe133022	-0.1437383

7.bias f4 [128]
0	0x3dfb2c7b	0.12264343
1	0xbe05e1b4	-0.1307438
2	0x3e0df5e1	0.13863327
3	0x3ebbf0eb	0.36707243
4	0xbdd7f8e5	-0.1054552
5	0x3dbcdef0	0.092222095
6	0xbcbc9355	-0.023019472
7	0x3dd006cf	0.10157549
8	0xbe10d08c	-0.14142054
9	0x3f020cb0	0.5080061
10	0x3cb0d77a	0.021587122
11	0x3e8464d9	0.2585819
12	0x3dbd38cc	0.09239349
13	0x3e79bb27	0.24387799
14	0xbe5534ec	-0.2082097
15	0x3d7b0731	0.061286155
16	0xbef495d1	-0.4777055
17	0xbefe954e	-0.49723285
18	0xbe9f79a1	-0.31147483
19	0xbeb72088	-0.35767007
20	0x3ea18293	0.31544933
21	0xbe783eb4	-0.2424267
22	0xbe92f457	-0.28702042
23	0xbd20187a	-0.039085843
24	0xbe633f78	-0.2219218
25	0xbdff3d5d	-0.12462876
26	0x3e9fa5a6	0.31181067
27	0x3e4d42f1	0.20045067
28	0x3d533a57	0.05156931
29	0x3e54c58b	0.20778482
30	0xbec0163b	-0.3751696
31	0xbddb8d72	-0.10720338
32	0x3d4dc8f5	0.050240476
33	0x3e351abe	0.17685983
34	0xbe65f494	-0.2245658
35	0x3f28b3de	0.65899456
36	0xbe833d87	-0.2563288
37	0x3e922177	0.28541157
38	0x3e4c605e	0.19958636
39	0x3e7639c5	0.24045475
40	0xbd0d9315	-0.034564096
41	0xbe2ed431	-0.17073132
42	0xbe1af1ce	-0.15131304
43	0xbd9612b9	-0.0732779
44	0xbe6df615	-0.23238404
45	0xbe907baf	-0.28219363
46	0x3e8cc92c	0.27497232
47	0xbe416a0c	-0.1888811
48	0xbda697ba	-0.08134408
49	0x3f4cbc26	0.7997459
50	0xbd2dea84	-0.04245998
51	0x3d8fcba0	0.0702126
52	0xbf0d59ed	-0.5521534
53	0x3f478c41	0.77948385
54	0xbef68226	-0.4814617
55	0xbea3785f	-0.31927773
56	0x3cd53eb3	0.026030874
57	0x3e64474e	0.22292826
58	0x3e9c0c1c	0.3047799
59	0xbe931b16	-0.28731602
60	0x3eb5c96a	0.3550523
61	0xbe32caa9	-0.17460121
62	0xbf201e2e	-0.6254605
63	0x3dbfbc28	0.0936206
64	0xbe76c1c5	-0.24097355
65	0xbe56ac7e	-0.20964238
66	0xbeb68ab4	-0.35652697
67	0xbea97fdf	-0.3310537
68	0xbd8fb96e	-0.0701779
69	0xbcecd74c	-0.028911255
70	0x3dd0690f	0.10176288
71	0xbdac3909	-0.08409316
72	0xbe25d5e3	-0.16194873
73	0x3e6ba1a8	0.23010886
74	0x3ebd5455	0.36978403
75	0xbe251e8b	-0.16124932
76	0xbeb4ba70	-0.3529849
77	0x3e8b6fc4	0.27233708
78	0xbded0fa9	-0.115752526
79	0xbdd60118	-0.10449427
80	0xbe230e82	-0.15923503
81	0x3daa74de	0.08323072
82	0xbdb01c1e	-0.08599113
83	0x3d77a079	0.060455773
84	0x3ee19791	0.44060948
85	0xbe05ab77	-0.1305369
86	0xbe40d3c7	-0.18830787
87	0x3e1711ec	0.1475293
88	0xbeca79aa	-0.39545947
89	0x3dcc8705	0.099866904
90	0xbf26e1f0	-0.65188503
91	0x3d34a471	0.044102136
92	0x3e961486	0.29312533
93	0xbe05bedd	-0.1306109
94	0xbebbc55e	-0.36674017
95	0x3eac74c3	0.33682832
96	0xbe0156e0	-0.12630796
97	0xbe87a7db	-0.2649525
98	0x3d3184ae	0.043339424
99	0x3d4b4f95	0.049636442
100	0x3e2a10cb	0.16607969
101	0x3c45670a	0.012048492
102	0x3e505f71	0.20348908
103	0xbd5df3dd	-0.054187644
104	0xbebd8115	-0.37012544
105	0xbe96be2d	-0.29441968
106	0xbb8ad047	-0.0042362544
107	0xbe89fd54	-0.26951087
108	0x3ddba9af	0.10725724
109	0xbe10644e	-0.14100763
110	0xbdea7775	-0.11448566
111	0xbe3f2afa	-0.18668738
112	0x3e324fd8	0.1741327
113	0xbde14fd6	-0.110015556
114	0xbc43eb5d	-0.01195797
115	0xbd24e8af	-0.040260967
116	0x3f05364e	0.5203599
117	0xbebb9592	-0.3663755
118	0xbdecf736	-0.11570589
119	0xbea5e6be	-0.32402605
120	0xbe4b86f3	-0.19875698
121	0x3ef3d8e6	0.47626418
122	0x3f166c3d	0.5875891
123	0xbedca5d2	-0.4309526
124	0xbd681eea	-0.056670107
125	0xbd94d0cb	-0.072663866
126	0xbe9001fb	-0.2812651
127	0xbe29ee05	-0.16594703

9.weight f4 [128, 128]
0	0xbdd4dbda	-0.10393496
1	0x3d9a9cd3	0.07549443
2	0xbe0ecc23	-0.1394506
3	0x3c22650f	0.00991179
4	0x3c7230dc	0.014782157
5	0x3e1600af	0.14648698
6	0x3d519513	0.05116756
7	0x3d8d72c0	0.069066525
8	0x3b08ffbd	0.0020904385
9	0xbbc5ced7	-0.00603662
10	0xba528569	-0.0008030744
11	0x3e13a2bf	0.14417551
12	0xbd0f2bd6	-0.034953915
13	0xbd8e3d48	-0.06945282
14	0x3e645e22	0.22301534
15	0xbe0930f2	-0.13397577
16	0xbe3a5731	-0.18197323
17	0xbe3dfc12	-0.18553188
18	0xbd50bc60	-0.0509609
19	0xbd217796	-0.039420687
20	0xbe0d3793	-0.13790731
21	0x3d669c2e	0.05630129
22	0xbd852a91	-0.065022595
23	0x3e2f5818	0.17123449
24	0x3ce235a8	0.027613476
25	0xbe870776	-0.2637288
26	0x3d9fa649	0.07795388
27	0xbceb7256	-0.028741043
28	0x3c5f8c32	0.013644265
29	0xbde5130f	-0.11185276
30	0xbcbc4abe	-0.022984859
31	0xbd363004	-0.044479385
32	0x3d6759d0	0.056482136
33	0xbe728b36	-0.23685917
34	0xb7aec21f	-2.0832811e-05
35	0xbb95fab4	-0.0045770053
36	0xbb6e874c	-0.0036396561
37	0xbe430a5a	-0.19046918
38	0x3da6b647	0.081402354
39	0xbe849820	-0.25897312
40	0xbd63c9ab	-0.055612247
41	0x3c375a39	0.011190944
42	0x3e1ac6ed	0.15114947
43	0x3e1c2c77	0.15251337
44	0xbddb97b0	-0.107222915
45	0xbe73d2b2	-0.23810843
46	0xbd681735	-0.056662757
47	0xbbb0ace6	-0.005391705
48	0xbe543188	-0.2072202
49	0xbd5320c1	-0.05154491
50	0xbe0d3e3a	-0.13793269
51	0xbdb46455	-0.08808199
52	0xbc64cfb3	-0.013965535
53	0xbd802687	-0.062573485
54	0x3dd33c4c	0.10314235
55	0x3e7c5e8e	0.24645445
56	0xbc20f59d	-0.009824184
57	0xbdef8db1	-0.11696947
58	0x3c3d9607	0.011571414
59	0xbf083e73	-0.5322029
60	0x3de5139d	0.111853816
61	0xbe7bdb61	-0.24595405
62	0xbd56571b	-0.052329164
63	0xba29efb1	-0.0006482555
64	0xbdf39206	-0.11893086
65	0x3d90e2b6	0.07074492
66	0x3e2852a5	0.16437776
67	0x3c9ac061	0.018890562
68	0xbd8a76c3	-0.06760933
69	0xbc94cd19	-0.018164204
70	0xbe86fc07	-0.26364157
71	0xbc65346f	-0.013989552
72	0xbdf0bd96	-0.11754911
73	0xbe2aa718	-0.16665304
74	0x3da77fd0	0.08178675
75	0xbd971661	-0.07377315
76	0xbdc05f22	-0.09393145
77	0xbdb73fbe	-0.08947705
78	0x3db49ef8	0.088193834
79	0xbe1daa9c	-0.15397114
80	0xbcefa257	-0.029252214
81	0x3cd079b0	0.02544865
82	0xbe3cf207	-0.18451701
83	0xbe09d09b	-0.13458483
84	0xbe4cffbc	-0.2001943
85	0xbe721868	-0.23642123
86	0x3d3dd9e0	0.04635036
87	0x3e0814e5	0.1328922
88	0xbd4c7bba	-0.049922682
89	0x3bad317a	0.005285439
90	0xbe4fcdbc	-0.20293325
91	0xbbd93cae	-0.006629548
92	0xbde27127	-0.11056738
93	0x3da67436	0.08127634
94	0xbd1af72b	-0.037833374
95	0xbe88d927	-0.26728174
96	0x3e37c68f	0.17946838
97	0xbd3cdc37	-0.04610845
98	0xbd765a65	-0.0601448
99	0x3dca3391	0.09873117
100	0xbcfbcb77	-0.030736668
101	0x3d4b616e	0.049653463
102	0xbe475b74	-0.1946848
103	0xbe2cdb13	-0.16880445
104	0x3e9555c6	0.29167002
105	0x3bbc08ca	0.0057383524
106	0x3d1c1e4a	0.038114823
107	0x3dd80bae	0.10549103
108	0x3e26d259	0.16291179
109	0x3d9b55d8	0.07584733
110	0x3e64b390	0.22334123
111	0xbdab788e	-0.08372603
112	0xbe38329a	-0.17988053
113	0xbe2010d9	-0.15631427
114	0x3de0f85c	0.10984871
115	0x3e91157e	0.2833671
116	0xbdd912d3	-0.105992936
117	0x3df94124	0.12170628
118	0xb9c59532	-0.00037685927
119	0xbe3e5f7b	-0.1859111
120	0x3e5595f1	0.2085798
121	0x3dc74922	0.09730746
122	0xbd47aa3a	-0.048746325
123	0x3da1c175	0.07898227
124	0xbc4e7ffe	-0.012603758
125	0xbda6dda9	-0.08147747
126	0x3e289149	0.16461672
127	0x3d4d2bad	0.05009048
128	0x3e73fb81	0.2382641
129	0xbd44b533	-0.048024368
130	0xbe3105fd	-0.1728744
131	0x3d1a754f	0.03770953
132	0xbc9fc812	-0.01950458
133	0xbd99eedc	-0.07516262
134	0xbd15e8eb	-0.03659908
135	0x3dd5736c	0.104224056
136	0xbdffef3f	-0.124968044
137	0xbd3f2a4d	-0.0466712
138	0x3d19bf58	0.037535995
139	0xbd864a80	-0.065571785
140	0xbd6e07e3	-0.05811299
141	0xbe245b1b	-0.16050379
142	0x3e12d3c3	0.14338593
143	0x3db73942	0.08946468
144	0xbda77fbd	-0.08178661
145	0xbe3ed3ad	-0.18635435
146	0xbe08e749	-0.13369478
147	0x3d522184	0.051301494
148	0x3b88084f	0.004151381
149	0xbe44e363	-0.19227366
150	0xbce66a72	-0.028126929
151	0xbd2d3ed2	-0.04229624
152	0xbd825ef9	-0.06365771
153	0xbdbb936a	-0.091589764
154	0x3d5ed92c	0.05440633
155	0xbd74a678	-0.05972907
156	0xbd43a6ec	-0.04776661
157	0x3bb4f3dd	0.005522235
158	0x3d35570b	0.044272464
159	0xbe23d5d0	-0.15999532
160	0x3d1720db	0.036896568
161	0xbe1b2f11	-0.15154673
162	0xb8c5ac6b	-9.4258074e-05
163	0xbdb675f0	-0.089092135
164	0xb810b406	-3.4499935e-05
165	0xba0acff3	-0.0005295269
166	0xbd71cf4a	-0.059035577
167	0xbcae9fb9	-0.021316396
168	0x3db1e7cb	0.08686789
169	0x3d0b1c59	0.03396258
170	0xbe019d6c	-0.12657708
171	0x3e5b5631	0.21419598
172	0xbcc97a21	-0.024594368
173	0x3dda716c	0.10666165
174	0xbd88dbb9	-0.06682534
175	0x3d1decb8	0.03855583
176	0x3d87a001	0.06622315
177	0x3e622f07	0.22088252
178	0xbe0ec92b	-0.13943927
179	0x3c071f1a	0.008247161
180	0x3e381bf0	0.17979407
181	0xbd0e8db2	-0.0348031
182	0x3df00444	0.117195636
183	0xbe07f6b1	-0.13277699
184	0xbcf3d85e	-0.029766258
185	0x3d288493	0.041142058
186	0x3d81cbc7	0.063376956
187	0xbe7df2bd	-0.24799629
188	0xbd71521e	-0.058916204
189	0xbe59b4c8	-0.21260369
190	0x3dc3e480	0.09565067
191	0x3bfdcf24	0.0077456404
192	0x3dc14a5f	0.09438013
193	0xbcc97701	-0.024592878
194	0xbdd60849	-0.10450799
195	0xbd5c5408	-0.053791076
196	0xbdd4b2fa	-0.103856996
197	0xb98a1490	-0.0002633673
198	0xbdc63807	-0.09678655
199	0xbcf65ac4	-0.030072577
200	0xbd8dd3c7	-0.06925159
201	0xbc0caa22	-0.008585485
202	0xbe3e5cd9	-0.18590106
203	0x3d1a2092	0.037628718
204	0x3cbd5058	0.0231096
205	0x3e585fad	0.21130247
206	0xbd8109d7	-0.06300705
207	0xbdf4f532	-0.1196083
208	0x3c37768f	0.0111977
209	0x3e474fe1	0.19464065
210	0xbe414310	-0.18873239
211	0x3e55868a	0.20852104
212	0x3daca159	0.08429212
213	0xbe0e12aa	-0.13874307
214	0xbeae1e75	-0.34007612
215	0xbd966de0	-0.07345176
216	0x3cc79fff	0.024368284
217	0xbe5fe27f	-0.21863745
218	0xbdef2ee8	-0.116788685
219	0xbd8611b8	-0.06546348
220	0xbdee113d	-0.11624382
221	0xbafa47e7	-0.0019094915
222	0x3d112d02	0.035443313
223	0x3cec40eb	0.028839549
224	0xbd6ccffb	-0.057815533
225	0x3d92edb1	0.07174242
226	0xbde7e9be	-0.1132388
227	0xbd7e8fab	-0.06214873
228	0x3d9b9c06	0.075981185
229	0xbd21c54f	-0.03949481
230	0xbdfe43e6	-0.12415294
231	0xbcaa7754	-0.020808853
232	0xbe06d187	-0.13165866
233	0xbdf63082	-0.12020971
234	0xbc86637f	-0.016404865
235	0xbd929406	-0.071571395
236	0xbce624e9	-0.028093772
237	0xbb707c9f	-0.0036695374
238	0x3d3c5207	0.045976665
239	0x3d9d665b	0.076855384
240	0xbc34d287	-0.011036522
241	0x3d0e6080	0.03476
242	0xbd140fd7	-0.03614792
243	0xbcd9031c	-0.02649074
244	0xbc3a70f3	-0.011379468
245	0xbda60c74	-0.08107844
246	0xbe3342c3	-0.17505936
247	0x3e9835d1	0.2972856
248	0x3db753f4	0.0895156
249	0xbe391a20	-0.18076372
250	0x3d4deda7	0.05027547
251	0xbe18b390	-0.14912248
252	0x3d4a714d	0.04942446
253	0x3d456516	0.048192106
254	0xbe3e744e	-0.18599054
255	0xbd845ff9	-0.06463618

9.bias f4 [128]
0	0x3ed5c000	0.41748047
1	0x3ea8d95c	0.32978332
2	0x3f280e1b	0.65646523
3	0x3e8f814e	0.2802834
4	0xbe4ffc03	-0.20310979
5	0x3e9c1289	0.3048289
6	0x3e582c67	0.21110688
7	0x3e5d8cd1	0.21635748
8	0xbe2234a1	-0.15840389
9	0xbe3d6fc0	-0.1849966
10	0xbe455cd4	-0.19273692
11	0x3ecc9b41	0.399622
12	0xbebc4465	-0.3677093
13	0xbe667333	-0.22504883
14	0xbeca232a	-0.39479953
15	0x3e665fa9	0.22497429
16	0x3ea282c9	0.31740406
17	0x3ed225b6	0.41044396
18	0xbe474106	-0.19458398
19	0x3dcb4271	0.09924782
20	0xbd518741	-0.05115438
21	0xbe381f16	-0.17980608
22	0xbe1b1940	-0.15146351
23	0xbd857c9c	-0.06517908
24	0xbe632bbb	-0.2218465
25	0x3f2f27f4	0.6842034
26	0xbe8220f7	-0.25415775
27	0xbe197dfd	-0.14989467
28	0xbe8aa69b	-0.27080235
29	0x3eb22b1c	0.34798515
30	0x3ed7f553	0.42179355
31	0x3f0531cc	0.5202911
32	0x3ea5b687	0.3236582
33	0xbd010874	-0.031502202
34	0xbe7013a1	-0.23444988
35	0xbe6d17f2	-0.23153666
36	0x3eef7273	0.46767005
37	0xbe7195a4	-0.2359224
38	0x3ef82a76	0.48469895
39	0xbe7fa844	-0.24966532
40	0xbe827224	-0.25477707
41	0x3f6e1571	0.93001467
42	0x3e8f225c	0.27955902
43	0x3ec82fdd	0.39099017
44	0x3ea8aeb3	0.32945785
45	0x3e0ccc84	0.13749892
46	0xba471a26	-0.0007595144
47	0xbebafe14	-0.3652197
48	0xbe6d9f5a	-0.23205319
49	0xbe755fde	-0.23962352
50	0xbad0287f	-0.0015881209
51	0x3d364c54	0.044506386
52	0x3e488d4d	0.19585152
53	0xbe2d3843	-0.16915993
54	0x3ca3e53e	0.020006772
55	0x3e974411	0.29544118
56	0x3e8f7725	0.28020588
57	0x3eae36ab	0.34026083
58	0x3dbfc55b	0.093638144
59	0x3d760921	0.0600673
60	0x3cb29a42	0.021802071
61	0xbe103cd6	-0.14085707
62	0x3edc9d47	0.43088743
63	0xbdf091a3	-0.11746528
64	0xbeb598a4	-0.35468018
65	0xbd8b5d5d	-0.06804917
66	0x3ed8d01c	0.42346275
67	0xbe90aa6d	-0.28255025
68	0x3f6070f6	0.87672365
69	0xbe849c92	-0.25900704
70	0xbe9b17bf	-0.30291554
71	0xbd124e3a	-0.035719134
72	0x3e1ecd85	0.15508087
73	0xbdba1f50	-0.09088004
74	0xbeae482e	-0.34039444
75	0x3e899c09	0.26876858
76	0xbeaa19bf	-0.33222768
77	0xbebd354b	-0.36954722
78	0x3f1f10a8	0.6213479
79	0xbd3bd094	-0.045853212
80	0xbdc3fe75	-0.09570018
81	0x3ea90c1f	0.3301706
82	0xbe79c5df	-0.24391888
83	0xbe42b792	-0.19015339
84	0xbe1f4392	-0.1555312
85	0xbeb6375e	-0.35589117
86	0x3d1b98e6	0.037987612
87	0x3e9a9530	0.30191946
88	0x3f16911c	0.5881517
89	0x3f02f2cd	0.51151735
90	0x3dacdf99	0.08441085
91	0xbd94dfa6	-0.0726922
92	0xbe5221b2	-0.20520666
93	0x3e34f6c3	0.17672257
94	0x3dcfc361	0.101446874
95	0x3e1f56cb	0.15560453
96	0xbe3b92c7	-0.1831771
97	0x3e6830a9	0.22674812
98	0xbe2c85a5	-0.16847856
99	0xbe6ebe3b	-0.23314755
100	0x3e4a5afe	0.19761273
101	0x3d932635	0.07185022
102	0x3ed832d8	0.4222629
103	0xbe2ce497	-0.16884075
104	0xbeaf113f	-0.34192845
105	0x3efde7ea	0.49591
106	0xbe0667e3	-0.13125567
107	0x3ebf2681	0.37334064
108	0xbc7dfa62	-0.01550159
109	0xbe639a7f	-0.22226904
110	0x3de46617	0.111522846
111	0xbe2a4775	-0.16628821
112	0x3ec92660	0.3928709
113	0xbe46a4b5	-0.19398768
114	0x3ede8a2d	0.43464795
115	0x3e286ecb	0.16448514
116	0xbe260864	-0.16214138
117	0x3d54e80a	0.051979102
118	0xbe566b7b	-0.20939438
119	0xbe350776	-0.17678627
120	0xbd88c170	-0.0667752
121	0x3e3cfbe8	0.1845547
122	0xbe778367	-0.2417122
123	0xbe8653dc	-0.26235855
124	0xbe80b20d	-0.25135842
125	0x3e3cb959	0.1843008
126	0xbe69c635	-0.22829516
127	0x3f06d2c8	0.52665377
