project_networks/new_sabr/mnist_cnn_2layer_w1_sabr.onnx (onnx, 474867 bytes, 16 tensors)

0.weight f4 [4, 1, 4, 4]
6.1198836e-05 -0.00025113128 -0.0001897562 -1.1499833e-05 0.7541007 -0.000103795355 6.9376394e-05 -6.440498e-05
-0.00018432799 2.715773e-05 -0.001129888 -0.00078503805 -5.2549944e-06 -0.0001890233 -9.639433e-05 0.00014019033
-0.0003092495 -0.00044576277 -0.0001599346 0.00063234 5.455007e-05 0.00020960851 0.00012208354 0.0003120249
1.9725436e-05 0.00033732047 0.8633848 0.00044198552 -0.00023312525 -0.0001401926 0.0010735181 2.6329057e-05
5.2979136e-05 0.00017468631 -0.00019929421 -0.00034440975 -0.000121765035 9.109528e-05 -5.2543954e-05 -0.00050536694
0.00012198871 0.88479865 -0.0002981086 -0.0003776315 -0.00027707173 -0.00012776806 -0.00027345534 -0.0005866549
-0.0072382553 -0.00801076 -0.0021459602 -0.0061559062 -0.0066267597 -0.009201455 -0.121739216 -0.009083098
-0.008000793 -0.0120473765 -0.017272511 -0.014444513 -0.009125659 -0.023435056 0.12527546 0.009667176
00000000: e057 8038 45aa 83b9 4bf9 46b9 68ef 40b7
00000010: be0c 413f b5ac d9b8 2b7e 9138 2911 87b8
00000020: 2b48 41b9 c8d0 e337 c018 94ba 03cb 4dba
00000030: 0f54 b0b6 8e34 46b9 5027 cab8 0e00 1339
00000040: c422 a2b9 44b5 e9b9 1eb4 27b9 9ec3 253a
00000050: b1cc 6438 5bca 5b39 8d03 0039 4697 a339
00000060: 0d78 a537 63da b039 c906 5d3f 4bba e739
00000070: 1573 74b9 aa00 13b9 4ab5 8c3a 38dd dc37
00000080: ea35 5e38 002c 3739 a2f9 50b9 e591 b4b9
00000090: 1b5c ffb8 680a bf38 a462 5cb8 9a7a 04ba
000000a0: 31d4 ff38 2a82 623f 764b 9cb9 d8fc c5b9
000000b0: f043 91b9 7af9 05b9 8e5e 8fb9 bec9 19ba
000000c0: e32e edbb 903f 03bc 3da3 0cbb 7cb7 c9bb
000000d0: 4a25 d9bb b3c1 16bc 6952 f9bd 46d1 14bc
000000e0: c215 03bc 5c62 45bc 157f 8dbc aea8 6cbc
000000f0: ca83 15bc e0fa bfbc 3648 003e 1363 1e3c

0.bias f4 [4]
-0.22767435 -0.2612973 -0.26741725 -0.13499022
00000000: 7723 69be c2c8 85be eaea 88be e03a 0abe

2.weight f4 [8, 4, 4, 4]
0.00027354245 0.0010367393 0.0007302924 -0.00049345294 0.0005031426 0.0025240183 0.10701167 0.14801621
0.0035196182 0.021065788 0.17403151 0.32011798 0.00061917334 0.0012131691 -0.00044496357 -0.00023022485
0.0017046678 0.00185424 -0.00044928087 -0.00031019666 0.015692674 0.17594488 0.21228921 0.0067690993
0.0018974349 0.03956308 0.0074082157 -0.00013686673 -0.0075617167 -2.02422 -2.472519 -0.004790677
0.0010742665 0.0010957435 -0.00081798004 -0.000448221 0.0017431834 0.121708296 0.34651643 0.15258662
0.0022615157 0.0084874835 0.12890615 0.0026885131 1.6022875e-06 -0.13765694 -2.2362971 -0.02588576
1.5771896e-06 3.3163506e-05 7.8266654e-05 -0.00014719523 -0.00030077083 -1.1597294e-05 9.594657e-05 -0.00021869854
-5.7600315e-05 0.00022385542 -0.020324051 6.6971355e-05 2.4407627e-06 3.9391856e-05 0.00011555619 3.5349098e-05
0.00014800148 -0.0009339318 0.0020794293 0.01206316 0.0016181989 0.22047374 0.034258276 -0.0039705075
0.0025191258 0.0074062715 -0.024543207 -1.3854508 -0.00054428785 -0.0023862661 -1.8685548 0.0025742229
0.0064072376 0.16149989 0.0008957118 -0.00088278676 0.041720938 0.007504037 -0.42150024 -0.0011046877
-0.0018588037 -0.037041415 -0.0029759607 0.003230416 -0.0028083108 -0.24192674 0.0032494206 -0.00042743044
0.00093998 0.13165267 0.042363763 -0.0018317127 0.040507175 0.029701665 -0.015115338 -0.35386217
-0.00046801983 -0.0027597628 -1.9323754 0.0007667781 -0.0015782677 -0.046589363 0.0022455808 0.00604493
6.8379404e-06 3.4160963e-05 1.6256405e-05 0.00061264104 -4.598815e-05 -0.3211041 -0.002342713 3.4399127e-06
-7.789963e-06 -0.13925049 -0.00010520494 2.5465778e-07 -4.2611364e-06 -9.322845e-05 -3.9526597e-07 -6.6994285e-06
-0.0019056442 -0.00032947274 0.0032832378 0.0030320955 -0.00022393753 0.01132232 0.5299931 0.16702887
-0.018232083 0.00194004 0.00029579748 -0.0032215528 0.0005528264 0.0034419112 0.000530568 -0.00029229495
0.0027917395 0.2257681 0.053927433 0.0022263404 0.00400807 0.06828201 0.0026252626 0.00012937945
-2.3707821 -2.1725478 -0.0011816309 -0.0005056557 0.034307506 0.001660676 0.0006837996 -0.00028376107
0.0006380454 0.0986903 0.42653242 0.023705304 0.0028292725 0.027203262 0.03576621 0.0015575606
-1.3222667 -2.5271256 -0.030006241 -0.000386497 0.030872634 0.008535042 2.8360006e-05 -0.00089419965
3.800239e-06 -0.00018569322 -4.7153885e-06 5.126856e-05 -0.0016177085 -4.0712252e-06 -1.29488735e-05 -4.05519e-06
-3.7271747e-08 1.86848e-05 -1.1695458e-05 8.617185e-06 -9.3468094e-05 -6.820257e-06 1.1488213e-05 1.1560109e-05
0.0035155967 0.0053938865 -0.0015003796 0.00018251153 0.11355493 0.014603176 -0.30841908 0.0013296319
0.045839295 0.032317646 -1.6529214 0.044054613 0.0028647853 -1.4431908 -0.0098617645 0.3699748
0.0062761735 -0.0017572426 0.00054606923 0.0015209739 0.012687613 -1.9828886 0.003014711 -0.00015319612
-0.00036376953 -0.004282727 0.054721437 0.087153845 -0.91746014 -0.004983136 0.058099046 0.0020274322
0.017117871 -0.0022667919 -0.01437945 0.00013515828 0.116140395 -0.0020450028 0.003142772 0.0058058803
0.009325957 -3.124046 0.00507703 0.3226821 -0.023527399 -0.010422615 0.02353107 0.031387325
3.061904e-05 -0.7281478 5.7315723e-05 1.9074602e-07 -1.4329755 -1.4087101e-06 -0.00012756785 0.00019823224
-0.04073755 -1.9195071e-05 -4.2668074e-07 1.9148117e-06 -1.4897233e-05 -9.530952e-05 -3.689982e-06 -4.0354305e-05
00000000: 3f6a 8f39 33e3 873a 1871 3f3a 115b 01ba
00000010: 54e5 033a 006a 253b ef28 db3d 9091 173e
00000020: 65a9 663b 2992 ac3c 5135 323e 81e6 a33e
00000030: 0550 223a 3303 9f3a 004a e9b9 8368 71b9
00000040: 296f df3a f809 f33a 758d ebb9 e4a1 a2b9
00000050: ec8d 803c e52a 343e 5862 593e 52cf dd3b
00000060: 5ab3 f83a e50c 223d 9ec0 f23b e283 0fb9
00000070: 47c8 f7bb d28c 01c0 c03d 1ec0 1dfb 9cbb
00000080: 67ce 8c3a 0d9f 8f3a b66d 56ba 34ff eab9
00000090: 877b e43a 3342 f93d 9a6a b13e ab3f 1c3e
000000a0: f035 143b 160f 0b3c f9ff 033e c431 303b
000000b0: 2e0e d735 f1f5 0cbe 7e1f 0fc0 600e d4bc
000000c0: d2af d335 0b19 0b38 1723 a438 6b58 1ab9
000000d0: c7b0 9db9 0092 42b7 ec36 c938 7152 65b9
000000e0: de97 71b8 bbba 6a39 a07e a6bc f972 8c38
000000f0: fccb 2336 af38 2538 c256 f238 ce43 1438
00000100: d830 1b39 1ad3 74ba 0947 083b 8fa4 453c
00000110: bf19 d43a dec3 613e 6852 0c3d 081b 82bb
00000120: eb17 253b 4fb0 f23b d60e c9bc 7456 b1bf
00000130: 8aae 0eba e762 1cbb ce2c efbf 4bb4 283b
00000140: cef3 d13b 3a60 253e 34ce 6a3a d16a 67ba
00000150: 93e3 2a3d 6de4 f53b e1ce d7be 2bcb 90ba
00000160: 1aa3 f3ba bdb8 17bd 5608 43bb 63b5 533b
00000170: a30b 38bb a5bb 77be 3bf4 543b be18 e0b9
00000180: fd68 763a f5cf 063e a085 2d3d 1416 f0ba
00000190: daea 253d e850 f33c 53a6 77bc 6c2d b5be
000001a0: 8f60 f5b9 23dd 34bb 1458 f7bf 9b01 493a
000001b0: e0dd ceba 7dd4 3ebd 982a 133b 8c14 c63b
000001c0: 7671 e536 0e48 0f38 5d5e 8837 a599 203a
000001d0: 66e3 40b8 c267 a4be 3488 19bb 40d9 6636
000001e0: a3b1 02b7 ae97 0ebe 79a1 dcb8 e6b7 8834
000001f0: e2fa 8eb6 a583 c3b8 f134 d4b4 a7cb e0b6
00000200: cfc6 f9ba 15bd acb9 972b 573b 1fb6 463b
00000210: c6d0 6ab9 4181 393c a1ad 073f 9e09 2b3e
00000220: 735b 95bc f148 fe3a 4415 9b39 b020 53bb
00000230: 8deb 103a b091 613b d115 0b3a 2a3f 99b9
00000240: 9ef5 363b c12f 673e 03e3 5c3d cbe7 113b
00000250: 2156 833b 70d7 8b3d 990c 2c3b 08aa 0739
00000260: e5ba 17c0 060b 0bc0 f4e0 9aba fb8d 04ba
00000270: 0786 0c3d 0aab d93a 0441 333a c4c5 94b9
00000280: 8142 273a 241e ca3d 7562 da3e a031 c23c
00000290: 516b 393b 60d9 de3c 977f 123d 1027 cc3a
000002a0: 0940 a9bf 6dbc 21c0 a6cf f5bc c0a2 cab9
000002b0: 9be8 fc3c 90d6 0b3c a6e6 ed37 b968 6aba
000002c0: 9c07 7f36 a5b6 42b9 e138 9eb6 3209 5738
000002d0: 4a09 d4ba 8f9b 88b6 fd3e 59b7 d111 88b6
000002e0: b814 20b3 4dbd 9c37 9c37 44b7 8792 1037
000002f0: 4d04 c4b8 90d9 e4b6 80bd 4037 4af2 4137
00000300: ed65 663b 33bf b03b 63a8 c4ba 9160 3f39
00000310: 7d8f e83d 2942 6f3c 1be9 9dbe 0b47 ae3a
00000320: fcc1 3b3d 825f 043d ee92 d3bf 9c72 343d
00000330: 1fbf 3b3b 7aba b8bf 3d93 21bc 566d bd3e
00000340: 5ca8 cd3b 4753 e6ba 1626 0f3a 6a5b c73a
00000350: b5df 4f3c 4bcf fdbf 7592 453b 45a3 20b9
00000360: 52b8 beb9 1e56 8cbb 9623 603d b77d b23d
00000370: abde 6abf 9349 a3bb 44f9 6d3d abde 043b
00000380: c73a 8c3c 758e 14bb c997 6bbc 46b9 0d39
00000390: 04db ed3d 7405 06bb f7f6 4d3b 413f be3b
000003a0: e6cb 183c 5ff0 47c0 375d a63b 9736 a53e
000003b0: 88bc c0bc 9ec3 2abc 3bc4 c03c ff8f 003d
000003c0: f26c 0038 e567 3abf 4a66 7038 decf 4c34
000003d0: be6b b7bf e912 bdb5 bcc3 05b9 90dc 4f39
000003e0: 6bdc 26bd 1a05 a1b7 8e12 e5b4 3780 0036
000003f0: 21ef 79b7 e9e0 c7b8 68a1 77b6 1b42 29b8

2.bias f4 [8]
-0.00015664089 0.12103597 0.004596869 0.0071385116 0.28028572 -0.0015684114 0.3637408 -0.002021873
00000000: f83f 24b9 b5e1 f73d 55a1 963b 2dea e93b
00000010: 9c81 8f3e 2793 cdba 3c3c ba3e 6681 04bb

5.weight f4 [128, 392]
-0.12065046 -0.05937399 0.0077247503 -0.019990755 -0.07770054 0.0052241427 -0.2730549 -0.1096328
-0.21529008 -0.1816384 0.0005254067 0.60591877 -0.0009950843 0.0573364 -0.35242897 -0.34113812
0.010794106 -0.00374427 0.00094287324 0.011689068 0.43325785 -0.10057196 -0.0027135997 0.0024998456
0.007869237 -0.0014966914 -0.006814059 -0.53361434 -0.058647223 -0.014079791 0.002432281 -0.011537442
-0.0002702741 -0.38628158 0.01012879 0.1413236 0.0075720972 -0.0059573883 -0.00065526745 -0.012682338
-0.04116848 0.27006048 1.0160475 0.10809115 0.033464916 0.005390317 0.0034909297 0.17859583
0.54828626 -0.10239139 -0.40295622 -0.030214468 0.028572083 0.0003575066 -0.00015643777 0.11631277
-0.37787026 0.0032278951 0.19593069 -1.5398474 -3.311977 -0.14401664 -0.0005534667 0.09124318
0.18064961 -0.1866506 0.02494512 -0.0124319205 -0.0014171464 0.6353473 0.009324876 0.00054563215
-0.00047233506 -0.31815743 0.0001684108 0.24155702 0.0036514513 0.14091411 -0.24505372 -0.00057958177
0.001096406 0.00026725867 -0.04666432 -0.3395647 0.14607193 -0.06486384 0.099930316 9.719286e-05
0.0042699277 -0.06196462 0.06904885 0.09744555 -0.0011551126 -0.012342996 0.0030925332 -0.0010945501
-0.058125574 0.47829345 -0.11552496 0.065580785 -0.29499227 -0.054278605 0.0010487849 0.19771598
-0.0010604534 -0.03920185 -0.052126426 -0.0044520427 5.217602e-05 -0.020584434 0.24511977 0.09288444
-0.22981316 -0.26169193 -0.067316525 0.012243766 0.007913997 0.4068209 -0.003061249 -0.1333629
-0.049882025 0.0032623052 -0.0022373917 -0.010841606 0.011688792 0.05463164 -0.2288992 -0.016213257
0.0007721091 0.0010099601 -0.0077119446 -0.3282628 -0.33980405 -0.06260897 0.008008456 0.0009291299
-0.00848863 0.0003471969 -0.09661301 0.010303787 0.028182395 0.2390925 0.0015743762 0.0016416196
-0.002110556 -0.16130383 0.108449936 -0.07083653 -0.7064944 -0.36495084 -0.07698134 0.002162445
0.0017828968 0.023764117 -0.6179705 -0.9998217 2.6671574e-05 0.0021337855 -3.3820548 -0.38787642
-0.0032904197 -0.13533379 0.0036442662 -0.0023442828 -0.01383869 0.0034114392 -0.16153413 0.09291882
-0.03870544 -0.00036234962 0.0010209037 0.017213892 0.009056005 0.009588437 0.00467414 0.011532166
0.0019329705 -0.0016966907 0.002638911 0.0045073 0.0013340639 -1.0198385 0.039520964 -0.016090224
0.0022953984 0.0034338401 0.0001253679 0.0011851861 -0.20352884 0.46327642 -0.006822155 0.3224508
0.0003434018 0.0035999005 0.012535395 -0.018226681 0.06049575 -0.2229195 -0.25726894 0.008798156
0.09523874 0.31120974 0.0473066 -0.18064159 -0.1690471 0.014358945 0.25750878 0.002493367
-0.7747901 -0.2180625 0.09458515 0.007156649 0.042119097 -0.37530786 -1.499273 -1.2421075
-0.33543405 0.01869166 0.032006294 0.0067076595 0.17385994 -0.08933219 -0.80706304 0.15717158
0.29059127 0.21449748 0.005813577 -1.376804 0.30389762 0.17495944 0.11469314 -0.01975907
0.40886858 -0.13282606 -0.0062924107 0.0056228237 0.19737768 -0.1794545 0.20709652 0.21699777
-0.0010391658 -0.15232219 -0.0015938233 0.053631984 0.14499874 0.65628624 -0.24418342 -0.9558533
-0.04057809 0.0016809856 -0.00015160379 0.063458964 -0.004255612 -0.8379904 0.0031090558 0.0029996906
00000000: 9717 f7bd 2432 73bd e71f fd3b a7c3 a3bc
00000010: 7621 9fbd 492f ab3b dacd 8bbe 2987 e0bd
00000020: 0175 5cbe 6bff 39be 72bb 093a 7e1d 1b3f
00000030: 7d6d 82ba 93d9 6a3d 9271 b4be a8a9 aebe
00000040: c3d9 303c 6d62 75bb 272b 773a 8183 3f3c
00000050: f9d3 dd3e acf8 cdbd a6d6 31bb 73d4 233b
00000060: f9ed 003c a12c c4ba 7848 dfbb f39a 08bf
00000070: 1238 70bd ecae 66bc e766 1f3b 8a07 3dbc
00000080: 93b3 8db9 b3c6 c5be 39f3 253c 22b7 103e
00000090: 5b1f f83b 3236 c3bb 41c6 2bba 95c9 4fbc
000000a0: 48a0 28bd 5e45 8a3e d80d 823f e55e dd3d
000000b0: 8212 093d 42a1 b03b 15c8 643b d3e1 363e
000000c0: 7d5c 0c3f 94b2 d1bd 4750 cebe 5584 f7bc
000000d0: 0010 ea3c b96f bb39 7209 24b9 6435 ee3d
000000e0: 3678 c1be 188b 533b 0ea2 483e b819 c5bf
000000f0: 6ef7 53c0 1979 13be 8616 11ba b4dd ba3d
00000100: 36fc 383e 5621 3fbe b559 cc3c 41af 4bbc
00000110: 8bbf b9ba 1fa6 223f 5dc7 183c c108 0f3a
00000120: bda3 f7b9 88e5 a2be 6e97 3039 b95a 773e
00000130: 304d 6f3b ca4b 103e 5def 7abe 13ef 17ba
00000140: 48b5 8f3a da1e 8c39 1623 3fbd 6ddb adbe
00000150: e193 153e 55d7 84bd 44a8 cc3d 05d4 cb38
00000160: c0ea 8b3b 9dce 7dbd 7c69 8d3d 8891 c73d
00000170: 2667 97ba 473a 4abc 19ac 4a3b 0277 8fba
00000180: 1515 6ebd e1e2 f43e 5a98 ecbd 384f 863d
00000190: 3a09 97be 3e53 5ebd 6277 893a 0f76 4a3e
000001a0: e9fe 8aba 1e92 20bd 8582 55bd 71e2 91bb
000001b0: 93d7 5a38 b0a0 a8bc ad00 7b3e 333a be3d
000001c0: 2454 6bbe 7cfc 85be 3fdd 89bd 149a 483c
000001d0: b6a9 013c d44a d03e 3c9f 48bb 4990 08be
000001e0: 1851 4cbd 66cc 553b 34a1 12bb fea0 31bc
000001f0: 5982 3f3c 6dc5 5f3d 8d64 6abe aad1 84bc
00000200: 5d67 4a3a a360 843a 7bb4 fcbb 1012 a8be
00000210: ccfa adbe 2239 80bd e635 033c da90 733a
00000220: e513 0bbc fb07 b639 0bdd c5bd 37d1 283c
00000230: c4de e63c aad4 743e 4d5b ce3a 9d2b d73a
00000240: 4151 0abb d52c 25be 001b de3d be12 91bd
00000250: d1dc 34bf d6da babe 65a8 9dbd cfb7 0d3b
00000260: 17b0 e93a f7ac c23c 5133 1ebf 51f4 7fbf
00000270: c5bc df37 fbd6 0b3b 9673 58c0 bd97 c6be
00000280: 15a4 57bb f194 0abe a4d4 6e3b 8aa2 19bb
00000290: acbb 62bc 7492 5f3b 3469 25be 394c be3d
000002a0: 9889 1ebd bef9 bdb9 d8cf 853a 2604 8d3c
000002b0: a35f 143c d218 1d3c 8729 993b 69f1 3c3c
000002c0: ba5b fd3a 7e63 deba 94f1 2c3b f9b1 933b
000002d0: c2db ae3a 118a 82bf bce0 213d a5cf 83bc
000002e0: 656e 163b 470a 613b 3075 0339 3f58 9b3a
000002f0: dd69 50be 9132 ed3e 628c dfbb 4518 a53e
00000300: 9c0a b439 4fec 6b3b 4261 4d3c 1f50 95bc
00000310: 64ca 773d 0245 64be c1b8 83be 2426 103c
00000320: 870c c33d e256 9f3e 91c4 413d 1cfa 38be
00000330: af1a 2dbe c841 6b3c 31d8 833e c267 233b
00000340: a558 46bf c74b 5fbe dcb5 c13d 5382 ea3b
00000350: 1385 2c3d 5a28 c0be 2de8 bfbf 61fd 9ebf
00000360: 03be abbe 411f 993c 0819 033d edcb db3b
00000370: 5708 323e ccf3 b6bd af9b 4ebf 96f1 203e
00000380: 61c8 943e 3aa5 5b3e d27f be3b 1d3b b0bf
00000390: 7898 9b3e 9128 333e 3de4 ea3d c6dd a1bc
000003a0: 3957 d13e 8e03 08be 9130 cebb aa3f b83b
000003b0: 601d 4a3e ecc2 37be 1c11 543e aa34 5e3e
000003c0: 9e34 88ba 59fa 1bbe d6e7 d0ba 36ad 5b3d
000003d0: 8d7a 143e 6002 283f 380b 7abe cdb2 74bf
000003e0: 3635 26bd 8454 dc3a d5f7 1eb9 c6f6 813d
000003f0: a972 8bbb 8a86 56bf 4dc1 4b3b 7596 443b

5.bias f4 [128]
0.0046394016 -0.040357273 -0.00081267394 0.17284459 0.1865071 0.17164129 -0.021720365 -0.08515439
0.07897985 0.11239621 -0.053083047 0.17717266 0.20329235 0.2169015 0.1302182 -0.08889652
0.090705805 0.04524905 -0.1308305 0.12550013 0.092719175 -0.052593704 0.22920632 -0.067186415
-0.060007736 0.2822729 0.056140184 -0.05473102 -0.06316916 0.24222496 -0.040762942 0.020234227
-0.11007125 0.06484835 -0.049103346 0.15003969 -0.023800373 0.29036835 0.17772053 0.11757466
0.18856412 -0.01016305 7.782025e-05 0.32377347 0.036696427 -0.014034879 0.08343144 -0.051641278
0.2550287 0.05536555 0.08493437 0.12880754 0.06760341 0.20081303 -0.054248486 0.13948119
0.08622977 0.231929 0.16470325 -0.052698884 0.0028143397 0.15887114 -0.037914302 0.07749276
0.2802808 0.13487956 0.260853 0.2903325 0.1669754 0.2696001 -0.06822345 0.11308604
0.21873139 -0.0113192 0.14916898 -0.05137783 0.07229663 -0.056587353 -0.009779753 0.01247424
-0.13239972 0.2622969 0.044102106 0.15964606 0.020562753 -0.023952784 -0.08778632 0.09054668
0.22684978 0.22043271 0.09831259 0.12739363 -0.07050639 0.046536844 -0.1585709 0.089205176
0.13447176 0.08992942 0.1374589 0.16601442 0.13597001 0.19842054 0.21301724 -0.11656752
0.11608921 -0.022738185 0.12771904 0.1102189 0.09352361 0.118702285 0.06456479 0.13812535
0.08036141 0.33365008 0.25847685 -0.10850986 0.10054255 0.1416331 0.006223884 -0.123664305
0.3267977 -0.078047924 0.016648656 0.16635005 -0.06287266 0.20667133 0.08527754 0.035539776
00000000: 1f06 983b ab4d 25bd a009 55ba 2cfe 303e
00000010: b8fb 3e3e bcc2 2f3e e8ee b1bc 6d65 aebd
00000020: 30c0 a13d fc2f e63d 9c6d 59bd c06c 353e
00000030: df2b 503e 6d1b 5e3e eb57 053e 610f b6bd
00000040: f7c3 b93d 1157 393d 6ef8 05be 1b83 003e
00000050: 8de3 bd3d 7f6c 57bd 10b5 6a3e 0899 89bd
00000060: acca 75bd 1386 903e 40f3 653d a22d 60bd
00000070: d55e 81bd d209 783e 0bf7 26bd 40c2 a53c
00000080: 096d e1bd 36cf 843d 9720 49bd 01a4 193e
00000090: 00f9 c2bc 29ab 943e 5ffc 353e fcca f03d
000000a0: f416 413e ec82 26bc 6e33 a338 a3c5 a53e
000000b0: fe4e 163d 8df2 65bc 1ade aa3d ce85 53bd
000000c0: 1f93 823e fdc6 623d 12f2 ad3d 20e6 033e
000000d0: a873 8a3d eea1 4d3e a933 5ebd 28d4 0e3e
000000e0: 3c99 b03d cc7e 6d3e f8a7 283e c9da 57bd
000000f0: c970 383b 1eaf 223e 074c 1bbd 86b4 9e3d
00000100: f780 8f3e de1d 0a3e 868e 853e 76a6 943e
00000110: 99fb 2a3e 0609 8a3e bcb8 8bbd a799 e73d
00000120: 1ffb 5f3e 2a74 39bc c1bf 183e 8f71 52bd
00000130: 4110 943d 24c8 67bd 423b 20bc c160 4c3c
00000140: cb93 07be c74b 863e 69a4 343d 427a 233e
00000150: 3873 a83c a138 c4bc 50c9 b3bd 8a70 b93d
00000160: 4f4b 683e 1db9 613e 1c58 c93d 7a73 023e
00000170: a765 90bd 6b9d 3e3d 6960 22be 34b1 b63d
00000180: f7b2 093e ea2c b83d 07c2 0c3e afff 293e
00000190: b93b 0b3e c12e 4b3e 3121 5a3e f4ba eebd
000001a0: 2ec0 ed3d 6e45 babc c8c8 023e 72ba e13d
000001b0: 4e89 bf3d 2f1a f33d 8b3a 843d bb70 0d3e
000001c0: 8694 a43d 2fd4 aa3e 1457 843e 6b3a debd
000001d0: 41e9 cd3d 4408 113e b9f1 cb3b b643 fdbd
000001e0: 0752 a73e 97d7 9fbd c362 883c ab57 2a3e
000001f0: 62c3 80bd a6a1 533e fea5 ae3d 2892 113d

7.weight f4 [128, 128]
0.02833988 0.020490825 -0.026648657 -0.0017097058 -0.0038820703 -0.034125473 0.0144500565 -0.2687719
0.0070141377 -0.45947188 -0.049457103 -0.0033623725 -0.013269831 -0.67591816 0.69064283 -0.012596343
-0.8608694 0.00045703704 0.021528404 -1.0544283 -0.10792989 -0.048354324 0.0008417475 -0.10200867
-0.05649491 -0.07031178 -0.006825605 -0.016763408 -0.108925946 -0.51103246 -0.8116335 -0.4988698
-0.1170925 -0.20608589 -0.06320868 -0.5442454 0.017020458 0.00030127712 0.0027292254 -0.22269136
0.12618673 -0.17482458 -0.55045456 -0.012928347 0.00039492012 -0.2267495 -0.123468265 -0.02928302
-0.030023374 -0.13300252 -0.009508276 -0.8194766 -0.0764007 0.00042521892 0.112644106 -0.0022822684
-0.51741016 -0.5449118 -0.93246305 -0.0023281658 7.094844e-05 0.0018834178 -0.0054916875 0.00016976429
-0.00030576927 0.0057683713 -0.0007368733 -1.5250546 -0.16284613 0.01920097 -0.07104964 -0.3892387
-0.026410481 -0.005537828 0.00086865766 0.046956457 -0.19001293 0.13802373 -0.14609571 -0.4797733
-0.16604483 0.013186344 0.02578489 -0.16010727 -0.21519195 -0.009074586 -0.04910342 0.0041547017
-0.5214037 0.0039872397 -1.0627464 -0.26790854 -0.11090767 -0.001915646 -0.6108445 0.004281863
0.0040746895 -0.014076974 -0.0024790277 0.02798386 0.009927744 -0.0004792842 -0.54152644 -0.35660422
-0.93097955 -0.078250565 0.054778688 -0.49459043 -0.0008606552 -0.009691726 -0.010754065 -0.741983
-0.31119817 -0.83578324 0.0031282161 -0.00024974812 -0.11610648 0.0017665154 -0.15682262 0.19824673
-1.5377507 0.051536012 -1.4152278 -0.0095139295 -0.10194876 -0.6042915 -0.004702574 -0.8924079
0.007908351 0.047316764 -0.70873153 -0.17410749 -0.43935734 -0.33147237 -0.39397526 0.069556914
-0.09048952 -0.021632638 0.019771425 0.014356824 -0.55941737 -0.3343497 -0.4274131 -0.08904394
-0.016407408 -0.358716 0.010526697 -0.010535351 -0.40200856 -0.12261354 -0.38213477 -0.15145646
0.008427369 -0.024566278 -0.025569525 0.026662601 -0.05786501 -0.8166388 -0.36203355 -0.45835477
-0.16622673 -0.5354538 -0.15693566 -0.5783573 0.011080182 0.058944304 -0.056151077 -0.25472564
-0.003558266 0.087426126 -0.0010737586 -0.6395384 -1.6676826 0.022193264 -0.3221686 -0.11215714
0.32453215 -1.2479887 -0.34088135 -0.104769655 -0.28091776 0.052711412 -0.010869819 -1.640661
-0.35369092 -0.0590142 -0.59437394 -0.15398988 -0.27351195 -0.49970317 -0.5032009 -0.0036966128
-0.93838817 -0.427691 -0.78024566 -0.36730698 -0.115122765 -0.9868577 -0.07723321 -0.24470446
-0.685883 0.02060782 0.0022242393 0.0051011005 -0.029140279 -0.16815308 -0.67652017 -0.00019378128
-0.049273953 -0.31531128 -0.45027792 -0.017147856 -0.80083615 0.1902874 -0.0032809512 -0.0136263035
-0.37885237 -1.1136689 -0.47594732 -0.2524095 0.13474679 -0.52891004 -0.99297315 0.00014459611
-0.0044066464 0.07329416 -0.03311203 -0.4574678 -0.5625956 -0.009860797 -0.013618094 0.11382843
-0.24293256 0.123634435 0.0037452632 -0.06897325 8.7961715e-05 0.086195305 -0.006917136 -0.10766997
-0.25271145 -0.29916447 0.28655723 0.035244893 0.0030347372 -0.1609898 -0.010172803 -0.031713802
-0.13370076 0.009109671 -0.76599556 0.006345434 -0.07007787 -0.6814011 -0.001290404 -0.61049175
00000000: 0929 e83c 60dc a73c 494e dabc 3518 e0ba
00000010: 556a 7ebb 27c7 0bbd eebf 6c3c 789c 89be
00000020: dad6 e53b e63f ebbe 8893 4abd 405b 5cbb
00000030: b569 59bc f908 2dbf f8cd 303f e460 4ebc
00000040: f061 5cbf 799e ef39 565c b03c 82f7 86bf
00000050: 590a ddbd 2f0f 46bd b8a8 5c3a ece9 d0bd
00000060: 3567 67bd 9fff 8fbd 53a9 dfbb 6a53 89bc
00000070: 9114 dfbd 06d3 02bf 37c7 4fbf dd6b ffbe
00000080: 31ce efbd 2e08 53be 8d73 81bd ab53 0bbf
00000090: 7d6e 8b3c bbf4 9d39 cedc 323b 3409 64be
000000a0: 1837 013e 3705 33be 97ea 0cbf 6bd1 53bc
000000b0: 480d cf39 0531 68be eedc fcbd f2e2 efbc
000000c0: 94f3 f5bc d031 08be 9ac8 1bbc 38c9 51bf
000000d0: f877 9cbd ebef de39 f4b1 e63d 1c92 15bb
000000e0: fe74 04bf 577f 0bbf e6b5 6ebf 2494 18bb
000000f0: 27ca 9438 04dd f63a 9df3 b3bb c102 3239
00000100: a84f a0b9 9b04 bd3b bb2a 41ba fd34 c3bf
00000110: 23c1 26be 5a4b 9d3c 7982 91bd 4b4a c7be
00000120: cb5a d8bc ab76 b5bb a1b6 633a 6a55 403d
00000130: c092 42be 1856 0d3e 1d9a 15be d9a4 f5be
00000140: a807 2abe 890b 583c d53a d33c 29f3 23be
00000150: 475b 5cbe 93ad 14bc ab20 49bd 2a24 883b
00000160: b67a 05bf 64a7 823b 1308 88bf 4f2b 89be
00000170: 8f23 e3bd 6a16 fbba 4e60 1cbf df4e 8c3b
00000180: f984 853b 1ca3 66bc 2f77 22bb 683e e53c
00000190: faa7 223c 7048 fbb9 7aa1 0abf d494 b6be
000001a0: ad54 6ebf d541 a0bd 9e5f 603d f53a fdbe
000001b0: 989d 61ba 0cca 1ebc d131 30bc 99f2 3dbf
000001c0: 5e55 9fbe e4f5 55bf c202 4d3b a0f0 82b9
000001d0: 3cc9 edbd 6c8a e73a 1c96 20be 3101 4b3e
000001e0: 04d5 c4bf 6d17 533d 2f26 b5bf 50e0 1bbc
000001f0: 83ca d0bd d9b2 1abf 0d18 9abb d874 64bf
00000200: 0792 013c 39cf 413d 6e6f 35bf 3c49 32be
00000210: 72f3 e0be bfb6 a9be 20b7 c9be db73 8e3d
00000220: 9252 b9bd ee36 b1bc aff7 a13c e238 6b3c
00000230: fa35 0fbf e22f abbe e4d5 dabe ab5c b6bd
00000240: d468 86bc a0a9 b7be 2b78 2c3c 779c 2cbc
00000250: 11d4 cdbe cf1c fbbd 2ba7 c3be 6717 1bbe
00000260: f312 0a3c 383f c9bc 2e77 d1bc 876b da3c
00000270: dc03 6dbd 3e0f 51bf 765c b9be 7aad eabe
00000280: 5737 2abe 8013 09bf beb3 20be 390f 14bf
00000290: a789 353c 956f 713d acfe 65bd 666b 82be
000002a0: cc31 69bb 780c b33d 5cbd 8cba cab8 23bf
000002b0: a076 d5bf a6ce b53c 48f3 a4be a5b2 e5bd
000002c0: 1429 a63e 18be 9fbf 0088 aebe 7991 d6bd
000002d0: 74d4 8fbe ece7 573d 5317 32bc 2e01 d2bf
000002e0: fa16 b5be e0b8 71bd e428 18bf 86af 1dbe
000002f0: c209 8cbe 18d9 ffbe c6d1 00bf df42 72bb
00000300: 353a 70bf 51fa dabe 2ebe 47bf a90f bcbe
00000310: 7cc5 ebbd b5a2 7cbf 722c 9ebd ce93 7abe
00000320: 0796 2fbf bbd1 a83c 8bc4 113b 2227 a73b
00000330: 98b7 eebc 5230 2cbe 6d30 2dbf c431 4bb9
00000340: 7cd3 49bd 7b70 a1be d48a e6be a979 8cbc
00000350: 9903 4dbf b3da 423e 3a05 57bb dc40 5fbc
00000360: f0f8 c1be b48c 8ebf 5eaf f3be d13b 81be
00000370: 10fb 093e a666 07bf 7d33 7ebf b99e 1739
00000380: a165 90bb 401b 963d 7ba0 07bd 3839 eabe
00000390: 4406 10bf 2e8f 21bc 6d1e 5fbc e11e e93d
000003a0: 50c3 78be 0d34 fd3d 1773 753b d941 8dbd
000003b0: 1678 b838 2a87 b03d 24a9 e2bb 1382 dcbd
000003c0: 6563 81be 162c 99be a1b7 923e f35c 103d
000003d0: 71e2 463b 83da 24be d4ab 26bc 55e6 01bd
000003e0: dae8 08be bb40 153c 4918 44bf 5ced cf3b
000003f0: fc84 8fbd 4d70 2ebf c622 a9ba 3049 1cbf

7.bias f4 [128]
-0.14749289 0.04565884 -0.12479853 -0.16614321 -0.082969375 0.10345408 -0.084727734 -0.13529934
-0.3945243 -0.1232934 -0.245925 -0.031105587 0.30905804 0.34357885 -0.1946675 0.027392056
-0.06876264 -0.07404372 0.13589592 -0.012898623 -0.15637913 -0.17039725 -0.15672582 0.10566281
-0.17176999 -0.239998 0.044673197 -0.016386803 0.39038852 0.18033984 0.15103243 -0.28951773
0.12452017 -0.15118149 -0.21676278 0.00071276 -0.060207717 -0.054761637 0.03788102 -0.1698222
-0.16537525 -0.18169314 -0.17160916 0.13102838 0.043071266 -0.14781733 0.026074043 -0.10835279
-0.021605512 -0.19493788 0.18614146 -0.056915518 0.40475357 -0.19840871 0.55622125 -0.12839667
-0.2207422 0.47439805 -0.16293427 0.48960626 -0.06849075 -0.015394627 -0.0093004545 0.08455994
-0.08158986 0.11361991 -0.05294497 -0.0769273 0.33370823 0.052969303 0.008841331 -0.1566653
0.23179929 -0.15040667 0.21483073 0.11270365 -0.07516207 0.39170775 -0.26208404 -0.20181686
0.4173754 0.22174765 0.16321704 -0.08774583 -0.24077386 -0.19345134 -0.2580817 -0.2978538
0.21568865 -0.03229419 0.25772896 -0.021304809 0.081688546 -0.24284828 -0.029176189 -0.10830461
0.0049330518 0.18600357 0.08995748 -0.29314193 -0.038656075 -0.2514683 -0.09197971 -0.22789685
-0.12487307 -0.26170632 -0.13827838 -0.26705104 0.30441055 -0.030069288 0.1425015 -0.22122891
-0.15031962 0.085304126 -0.26743042 -0.1905744 -0.068781435 -0.13678269 -0.093546234 0.101238385
-0.0026852263 -0.15932901 -0.16882096 -0.14863214 -0.303566 -0.24333721 -0.09209108 0.09095517
00000000: 6008 17be c404 3b3d 5f96 ffbd 7221 2abe
00000010: d9eb a9bd bcdf d33d bc85 adbd e98b 0abe
00000020: 17ff c9be 4081 fcbd c3d3 7bbe 25d1 febc
00000030: db3c 9e3e 91e9 af3e eb56 47be 4e65 e03c
00000040: 6dd3 8cbd 3ca4 97bd 4d28 0b3e bf54 53bc
00000050: da21 20be 9e7c 2ebe bc7c 20be be65 d83d
00000060: 79e4 2fbe 09c2 75be 3efb 363d 9e3d 86bc
00000070: 01e1 c73e 02ab 383e 3fa8 1a3e ab3b 94be
00000080: 6e04 ff3d 52cf 1abe 10f7 5dbe 84d8 3a3a
00000090: 5e9c 76bd bd4d 60bd 2129 1b3d dfe5 2dbe
000000a0: 2158 29be c40d 3abe 50ba 2fbe 4e2c 063e
000000b0: 7f6b 303d 6d5d 17be 3b99 d53c 11e8 ddbd
000000c0: 0bfe b0bc cc9d 47be de9b 3e3e 3f20 69bd
000000d0: dc3b cf3e a72b 4bbe 8464 0e3f 6b7a 03be
000000e0: 3e0a 62be 4de4 f23e 3ed8 26be acad fa3e
000000f0: e144 8cbd bf39 7cbc ef60 18bc c32d ad3d
00000100: 9618 a7bd 8eb1 e83d d3dc 58bd 0f8c 9dbd
00000110: cedb aa3e 57f6 583d 3bdb 103c de6c 20be
00000120: cb5c 6d3e 3504 1abe 96fc 5b3e 2cd1 e63d
00000130: 92ee 99bd eb8d c83e e12f 86be 14a9 4ebe
00000140: 3ab2 d53e d111 633e 5e22 273e 16b4 b3bd
00000150: 6c8d 76be 1c18 46be 4923 84be 4b80 98be
00000160: 7cdd 5c3e ea46 04bd 0df5 833e 6c87 aebc
00000170: 534c a73d 38ad 78be e702 efbc cfce ddbd
00000180: 70a5 a13b b877 3e3e a13b b83d b316 96be
00000190: d555 1ebd 74c0 80be dc5f bcbd cb5d 69be
000001a0: 74bd ffbd 5ffe 85be d998 0dbe eaba 88be
000001b0: b3db 9b3e de53 f6bc eaeb 113e d589 62be
000001c0: 63ed 19be eeb3 ae3d a4ec 88be ef25 43be
000001d0: 48dd 8cbd c310 0cbe 2b95 bfbd 1256 cf3d
000001e0: 9ffa 2fbb 2527 23be 67df 2cbe 0633 18be
000001f0: 016d 9bbe 642d 79be 409a bcbd b446 ba3d

9.weight f4 [128, 128]
-0.20273472 -0.15853214 -0.010475772 0.64711905 -0.023657821 -3.202317e-05 -0.007859681 -0.0068331156
-0.3326488 -0.014345809 -0.009728597 -0.47735074 -0.0026254791 -0.0024999746 -0.025803406 -0.017786942
-0.2657446 -0.25383872 -0.003022697 -0.64809066 -0.41650116 0.08474139 -0.00019698011 0.00029885053
0.033430383 -0.0007431277 -0.39573488 -0.0009259263 0.0031053824 -0.2682074 -0.002255999 -0.31924957
0.0028828129 0.057055254 -0.41191065 -0.059085105 -0.020625407 0.44913322 0.0032383732 0.015887918
-0.006158701 0.049854387 -0.0016050995 -0.011805065 0.0010480876 -0.012841802 -0.0038922045 -0.058547564
-0.008002402 -0.09607688 0.0035815698 -0.1981201 -0.0027153557 0.03585317 0.0039227027 0.018034369
-0.12888913 -0.013609512 -0.011694583 0.0011522842 0.00032054816 -0.20775266 -0.0124283405 -0.010586587
-0.032482784 -0.27200046 -0.22443332 -0.0006555855 0.0004439796 -0.15038294 -0.000551817 0.080857754
-0.013311511 0.07470369 -0.0006207342 -0.0038048087 -0.40033624 0.0026943216 -0.0037030627 -0.190294
-0.44193146 -0.41185248 -0.0027757832 -0.009308554 -0.0033024151 0.01705789 0.0028284779 -0.028614322
0.003360071 -0.257575 -0.0004911323 -0.0208285 -0.122748636 -0.009929465 -0.0063276105 0.0012952656
-0.010481421 -0.0446319 -0.0018258502 -0.0019206157 -0.00870063 -0.06571758 -0.43690634 -0.10381213
-0.15104198 0.0015542153 0.015465352 -0.09950732 0.0019576761 -0.088132195 -0.014930584 -0.3782534
-0.010305857 0.009399464 -0.052168686 -0.11075335 -0.26505065 -0.0007551138 -0.37361112 -0.013728703
-0.002826453 0.0025753523 0.014798081 -0.00037596197 -0.014976748 -0.018536128 -0.018723384 -0.0010454605
-0.10624141 -0.046154894 -0.3659822 -0.011019183 -0.17036457 -0.012643141 -0.002159855 -0.003660656
-0.29545027 -0.00055877864 -0.0015856181 -0.34100986 -0.011218808 -0.0854819 0.11712558 -0.16232836
-0.02664926 -0.09480599 -0.008511523 -0.30789042 -0.6278802 -0.013060587 -0.30628216 -0.13836682
0.023147127 -0.10532425 -0.009226518 -0.06452489 -0.0006976921 -0.28184384 -0.043473527 -0.36658353
-0.6399119 0.049842875 -0.040201224 -0.07678052 -0.0076958854 -0.00029847212 -0.0120498985 0.002766793
-0.0012713443 -0.07531918 -0.11899272 -0.35729071 -0.57639056 -0.0069255517 -0.047225554 -0.004037714
-0.004638773 -0.09367167 -0.07669588 -0.42814487 -0.033115733 0.102556646 -0.0038378704 -0.011620432
-0.035303466 -0.0012643308 -0.11667202 -0.02327225 -0.023466542 -0.07169117 -0.0050910073 -0.014972725
-0.079662144 -0.39399755 -0.35664004 -0.008402699 -0.018157328 -0.02330724 -0.124386385 1.0732273e-05
-0.28447595 -0.014477503 -0.2791663 -0.0028468356 -0.31139648 -0.2147235 -0.21480124 -0.035930358
-0.21781914 -0.024502028 -0.1595534 -0.010882789 -0.09155227 0.043381974 -0.022437913 -0.004890647
-0.006942144 -0.2756961 -0.030225448 -0.0042416956 -0.00049627817 -0.019710476 -0.42915133 -0.033351388
-0.27116823 -0.0010884319 -0.24740365 -0.00012238875 -0.012685282 -0.00012547085 -0.08861788 -0.01662444
-0.40460268 0.08234188 0.094065376 -0.19507632 -0.005393154 -0.00959123 -0.1089115 -0.118653156
-0.00040897183 -0.0011642544 -0.00434286 -0.08761597 -0.3529316 -0.06297512 -0.047876656 -0.011813038
-0.011628496 -0.00094569364 -1.1794917e-05 -4.6620753e-05 -0.23059489 -0.18985489 -0.005605636 -0.14982997
00000000: b199 4fbe 4056 22be 93a2 2bbc 98a9 253f
00000010: 0cce c1bc 9e50 06b8 e4c5 00bc 54e8 dfbb
00000020: f250 aabe af0a 6bbc b164 1fbc 5167 f4be
00000030: 3b10 2cbb 9dd6 23bb aa61 d3bc ecb5 91bc
00000040: ad0f 88be 26f7 81be 7118 46bb 45e9 25bf
00000050: a43f d5be e58c ad3d 728c 4eb9 0aaf 9c39
00000060: 4cee 083d 75ce 42ba c39d cabe ddb9 72ba
00000070: ac83 4b3b 7b52 89be 62d9 13bb ae74 a3be
00000080: 93ed 3c3b c5b2 693d f4e5 d2be 3903 72bd
00000090: 9df6 a8bc caf4 e53e e33a 543b 6127 823c
000000a0: eece c9bb 1d34 4c3d 3462 d2ba 086a 41bc
000000b0: fc5f 893a 6c66 52bc 5b14 7fbb 92cf 6fbd
000000c0: 821c 03bc f5c3 c4bd c5b8 6a3b ffdf 4abe
000000d0: 1cf4 31bb c6da 123d 048a 803b d0bc 933c
000000e0: 83fb 03be 6efa 5ebc a39a 3fbc 3e08 973a
000000f0: 3f0f a839 1dbd 54be 3da0 4bbc 5d73 2dbc
00000100: ab0c 05bd a543 8bbe d9d1 65be 99db 2bba
00000110: efc5 e839 fcfd 19be d0a7 10ba c098 a53d
00000120: 8618 5abc 40fe 983d c4b8 22ba 195a 79bb
00000130: dff8 ccbe 3793 303b 15af 72bb 6edc 42be
00000140: d744 e2be 54de d2be eae9 35bb e882 18bc
00000150: 556d 58bb fdbc 8b3c fc5d 393b 9568 eabc
00000160: a334 5c3b dfe0 83be 55bf 00ba 88a0 aabc
00000170: a363 fbbd 32af 22bc d857 cfbb e7c5 a93a
00000180: 44ba 2bbc f0cf 36bd 5e51 efba 2bbd fbba
00000190: 168d 0ebc f096 86bd 30b2 dfbe 749b d4bd
000001a0: c0aa 1abe d0b6 cb3a 6362 7d3c 7eca cbbd
000001b0: 5b4c 003b a77e b4bd 689f 74bc 6eaa c1be
000001c0: e6d9 28bc 3600 1a3c d5ae 55bd a7d2 e2bd
000001d0: b8b4 87be d4f2 45ba f549 bfbe 5bee 60bc
000001e0: 033c 39bb 3ec7 283b a673 723c c31c c5b9
000001f0: 0961 75bc 14d9 97bc c861 99bc d507 89ba
00000200: 1995 d9bd ea0c 3dbd 0562 bbbe ce89 34bc
00000210: 0d74 2ebe 2d25 4fbc 5b8c 0dbb 9ee7 6fbb
00000220: 4245 97be 007b 12ba 84d4 cfba d898 aebe
00000230: 17cf 37bc 2211 afbd 89df ef3d 6839 26be
00000240: 8d4f dabc a529 c2bd ea73 0bbc d0a3 9dbe
00000250: c2bc 20bf 13fc 55bc 04d1 9cbe 08b0 0dbe
00000260: 0b9f bd3c 3eb4 d7bd d22a 17bc a025 84bd
00000270: 53e5 36ba d64d 90be 4c11 32bd d6b0 bbbe
00000280: 44d1 23bf 0b28 4c3d 0aaa 24bd 1b3f 9dbd
00000290: c42d fcbb 407c 9cb9 f06c 45bc 1553 353b
000002a0: 3ca3 a6ba f140 9abd 75b2 f3bd cfee b6be
000002b0: 558e 13bf bdef e2bb 956f 41bd cd4e 84bb
000002c0: d900 98bb efd6 bfbd bb12 9dbd ce35 dbbe
000002d0: 5da4 07bd 3809 d23d c884 7bbb a063 3ebc
000002e0: 5e9a 10bd e7b7 a5ba bdf1 eebd 72a5 bebc
000002f0: e83c c0bc d2d2 92bd 77d2 a6bb 2950 75bc
00000300: e825 a3bd 0cba c9be 8699 b6be 79ab 09bc
00000310: adbe 94bc d3ee bebc 4abe febd c30e 3437
00000320: d5a6 91be 0c33 6dbc e3ee 8ebe fa91 3abb
00000330: 5c6f 9fbe 7ae0 5bbe dbf4 5bbe b62b 13bd
00000340: fb0b 5fbe 7ab8 c8bc f761 23be ba4d 32bc
00000350: c27f bbbd 4cb1 313d b7cf b7bc b841 a0bb
00000360: ed7a e3bb 0a28 8dbe 5c9b f7bc ecfd 8abb
00000370: aa18 02ba dd77 a1bc b9b9 dbbe 779b 08bd
00000380: 90d6 8abe b7a9 8eba 6257 7dbe 7b55 00b9
00000390: eed5 4fbc d390 03b9 4b7d b5bd fa2f 88bc
000003a0: 1528 cfbe dca2 a83d 59a5 c03d 16c2 47be
000003b0: 0eb9 b0bb 8924 1dbc fe0c dfbd 6d00 f3bd
000003c0: 456b d6b9 e599 98ba 8d4e 8ebb 0070 b3bd
000003d0: 73b3 b4be 1af9 80bd 501a 44bd 798b 41bc
000003e0: 7385 3ebc 6de8 77ba c8e2 45b7 a78a 43b8
000003f0: 1121 6cbe 5269 42be 7caf b7bb 076d 19be

9.bias f4 [128]
-0.22078635 -0.10488519 0.20908974 0.0015001914 0.0013878415 0.012428667 -0.09319702 -0.2057226
-0.29942256 -0.004023317 0.22426662 0.08013614 -0.17100158 -0.23636943 -0.22686633 -0.15435743
-0.24369396 -0.11658914 0.22730239 0.3093245 0.21692592 0.50282866 -0.071016006 -0.23257597
-0.14980263 -0.04707874 -0.22261214 0.2089378 -0.16590977 -0.27624938 -0.15444368 -0.11402145
-0.13198264 0.05601076 -0.034138907 -0.015726235 -0.18223336 -0.22237414 -0.19682677 -0.2206755
-0.27306604 0.16352433 -0.17913733 -0.07132675 -0.16622168 -0.25925657 -0.1719195 -0.15944462
-0.017674405 -0.056736626 -0.11148174 -0.39174184 0.030008243 -0.30890864 -0.14531574 -0.042686004
-0.12742986 -0.11853698 -0.08548948 -0.25314605 -0.24892093 -0.28925195 0.108901344 -0.12419323
-0.16450298 -0.05904631 0.048957027 -0.22671631 -0.10427941 -0.012996323 0.27968025 -0.29638124
0.06854185 -0.27847803 -0.038782768 -0.37445384 -0.22208947 -0.26282197 -0.26954666 0.22926411
-0.18595129 0.12092304 -0.010970386 -0.10768962 -0.019404585 -0.122011445 -0.32070982 0.023191504
-0.2261826 0.018340573 -0.13732718 -0.25864092 0.04141712 -0.19074276 -0.20200527 -0.19056988
-0.041779634 -0.24954055 -0.021498503 -0.022862362 -0.1722713 -0.34105524 -0.28483075 -0.05151749
-0.19966495 0.008157296 -0.28226018 -0.25838444 -0.13642342 0.34375474 0.16265051 -0.14423986
-0.025653627 -0.18983297 -0.15001464 -0.13547029 0.14951025 -0.22098722 0.09798807 0.13537559
-0.22774029 -0.09808511 0.13903923 -0.3078959 0.008226722 -0.1886537 0.052092366 -0.08576304
00000000: d115 62be 0cce d6bd 9f1b 563e 12a2 c43a
00000010: 3ce8 b53a 9ca1 4b3c 14de bebd f2a8 52be
00000020: ea4d 99be 07d6 83bb 26a6 653e 6b1e a43d
00000030: 0a1b 2fbe d40a 72be a64f 68be e00f 1ebe
00000040: e98a 79be 49c6 eebd f5c1 683e c85f 9e3e
00000050: d421 5e3e 61b9 003f d770 91bd 6528 6ebe
00000060: dc65 19be a3d5 40bd 70f4 63be caf3 553e
00000070: 40e4 29be 8f70 8dbe 7c26 1ebe 1484 e9bd
00000080: 7526 07be 8a6b 653d 3dd5 0bbd 4ed4 80bc
00000090: 629b 3abe 0cb6 63be f58c 49be c2f8 61be
000000a0: 50cf 8bbe ec72 273e c76f 37be c213 92bd
000000b0: 0436 2abe 47bd 84be aa0b 30be 7345 23be
000000c0: eac9 90bc aa64 68bd 8a50 e4bd 6392 c8be
000000d0: d9d3 f53c 4629 9ebe a6cd 14be 85d7 2ebd
000000e0: f97c 02be 84c3 f2bd 1c15 afbd 5c9c 81be
000000f0: 21e5 7ebe d518 94be ab07 df3d 0559 febd
00000100: 7873 28be 8bda 71bd 2a87 483d 5228 68be
00000110: 7190 d5bd 88ee 54bc 4032 8f3e 48bf 97be
00000120: ab5f 8c3d ac94 8ebe aeda 1ebd 6ab8 bfbe
00000130: 6c6b 63be 9a90 86be 0502 8abe 36c4 6a3e
00000140: 046a 3ebe 80a6 f73d 22bd 33bc 608c dcbd
00000150: 5df6 9ebc 23e1 f9bd 1434 a4be 1cfc bd3c
00000160: 699c 67be f83e 963c 7f9f 0cbe 956c 84be
00000170: ffa4 293d 1252 43be 78da 4ebe c024 43be
00000180: 1f21 2bbd 8f87 7fbe a11d b0bc d949 bbbc
00000190: e367 30be cb9e aebe 56d5 91be 0104 53bd
000001a0: f874 4cbe 2ea6 053c 6884 90be f74a 84be
000001b0: 95b2 0bbe 9f00 b03e db8d 263e 9db3 13be
000001c0: 8e27 d2bc 9363 42be 709d 19be b9b8 0abe
000001d0: 3719 193e 794a 62be f8ad c83d e69f 0a3e
000001e0: c034 69be d9e0 c8bd 4d60 0e3e 88a4 9dbe
000001f0: 5fc9 063c 6f2e 41be ce5e 553d 88a4 afbd

11.weight f4 [128, 128]
0.08960194 -0.026072618 -0.9535052 -0.0032885694 -0.0012985115 0.008099399 0.038183253 -0.07477314
0.00017667247 -0.003961994 8.3956314e-05 0.009762816 -0.024407 -6.84662e-05 0.16515917 0.0021444557
0.09760795 0.004661897 -0.0015219747 0.0023861271 0.0012024656 -0.9455721 0.054901104 0.017524078
-0.0002558337 -0.0006408714 0.0036207696 0.00053034833 -0.031161504 -0.027941875 -0.013363251 -0.0022098697
0.00013529381 -0.0046038204 4.756226e-05 -0.00045954308 -0.010940966 0.10800326 -2.7613734e-05 -0.15073249
0.2040541 -0.00064013863 -3.6264013e-05 0.0059975586 -0.0011852 0.007237608 -0.011384886 0.0223068
0.0015925942 0.0045781694 -0.00020343583 0.0054625124 8.7217115e-05 0.0038167397 0.050276235 -0.0016114701
0.005573707 0.06448752 -0.0015972732 -0.0002777757 -1.0282833e-05 0.020202694 -0.00088312896 9.897632e-06
0.0011685833 -0.00040656023 -0.0026519527 3.5381458e-05 -0.14155918 -0.003791699 -0.0024656006 0.00604935
0.0016506353 -8.2231e-06 0.006143487 0.010653629 0.0015764716 0.0030220398 0.14792022 0.00042684143
0.00078321627 -0.023601698 0.003831709 -0.010403557 0.0040688263 -3.5486792e-06 0.2317323 0.0025106769
0.013823634 0.0064313277 -0.0007301998 0.17066725 -0.0005564832 1.8187187e-05 -0.008767702 -0.023160918
-1.2566284e-06 0.08645028 0.005680817 -0.0031664525 -0.07542429 0.006307707 -0.0029368307 -0.0014707742
0.107945144 0.0014790382 0.01193672 0.13509786 -0.004510537 0.0020166181 0.0013988476 0.03915146
0.034151617 -0.096124396 -0.001126804 0.009275842 0.0077357884 -0.004301909 -2.9215564e-05 -0.56545055
-0.010200624 0.004168397 0.24008639 -0.1453274 0.0018177062 0.007973077 -5.8724316e-05 -0.00044100813
-0.008075326 -0.0065969336 -0.0051104017 0.0005811973 -0.04268637 -0.0013651317 -0.69538593 -0.13333856
-0.05494203 -0.0062187463 0.16975772 0.00034685008 -0.010969774 0.025296256 -0.0010046228 -0.1317104
-0.004499536 -0.66289055 -0.0008294615 -9.095344e-05 0.0005369547 -0.000469419 -0.100914046 0.10207062
-0.27242032 0.0008439885 -0.16159096 0.00089057157 0.10462723 -0.05344735 -0.019328145 0.029570164
-0.011011077 0.00052227604 0.0033893767 -0.005596921 -0.00030471937 0.019122267 -0.03378206 0.0393738
-0.0010642124 0.00046997605 -0.005995982 -0.0040683984 -0.0058797295 -0.34631586 0.051945448 0.0663716
-0.014635588 0.7476306 -0.0026948731 -0.116402805 -0.021961547 -0.19806619 0.04837289 -0.002531039
-0.28069338 -0.5355089 -0.00026424907 -0.43728384 -0.06639404 -0.3239918 0.00012085169 -0.00022572682
-0.05176771 -0.0014838192 -0.00036385682 8.733336e-06 -0.00018656792 -0.007245029 -0.0012951235 -1.0025678
0.33058834 -0.043807007 -0.6251015 -0.0029829573 -0.0011752928 0.0001329395 -0.080972716 -0.0022158301
-0.08148114 -0.0076860297 0.3139689 -0.042100444 -0.0041950373 -0.0071996944 -0.00044076462 -0.013102805
-0.24300288 0.00031184574 -0.00045125827 -0.02938971 0.0009412045 -0.15241264 -0.36272496 -0.10166235
0.033918515 -0.005331885 -0.036964394 -0.000107305365 -0.08671774 -0.2620999 -0.10399364 -0.2236796
-0.0010929592 -0.00042845032 -0.00059947994 -0.012462878 -0.006707619 -0.00033436052 0.00033792725 -0.13568822
0.44173872 -0.040758412 0.06185293 -0.175946 0.0011388331 -0.00020924941 0.00071360025 -0.0076858555
-0.0002914002 -0.09249126 0.0051359083 -0.013569226 -0.00096972816 -0.90851444 -0.014452905 -0.0016609852
00000000: 3981 b73d 3e96 d5bc eb18 74bf 0a85 57bb
00000010: d132 aaba 57b3 043c 0b66 1c3d a922 99bd
00000020: 2841 3939 9dd3 81bb b411 b038 38f4 1f3c
00000030: 30f1 c7bc 8395 8fb8 7c1f 293e ff89 0c3b
00000040: ade6 c73d d4c2 983b ff7c c7ba 9260 1c3b
00000050: 0d9c 9d3a 0311 72bf fbdf 603d a88e 8f3c
00000060: 6b21 86b9 2700 28ba 6f4a 6d3b 1307 0b3a
00000070: 6946 ffbc 5ce6 e4bc 8af1 5abc 76d3 10bb
00000080: a8dd 0d39 a5db 96bb 967d 4738 d4ee f0b9
00000090: bd41 33bc d030 dd3d 0ba4 e7b7 9e59 1abe
000000a0: 8ff3 503e face 27ba 301a 18b8 2b87 c43b
000000b0: b658 9bba 7529 ed3b ac87 3abc c0bc b63c
000000c0: 98be d03a 7804 963b 6451 55b9 e0fe b23b
000000d0: 55e8 b638 4422 7a3b 74ee 4d3d f737 d3ba
000000e0: a5a3 b63b 0812 843d 985b d1ba 6ca2 91b9
000000f0: 6e84 2cb7 1f80 a53c c881 67ba 010e 2637
00000100: 262b 993a 9727 d5b9 62cc 2dbb 8d66 1438
00000110: e4f4 10be 277e 78bb ea95 21bb a039 c63b
00000120: 215a d83a f2f5 09b7 4e4f c93b 8f8c 2e3c
00000130: 9ca1 ce3a 6a0d 463b 6678 173e b0c9 df39
00000140: c150 4d3a 5958 c1bc 691d 7b3b ae73 2abc
00000150: ca53 853b d825 6eb6 3b4b 6d3e 2b8a 243b
00000160: 867c 623c e3bd d23b e16a 3fba 65c3 2e3e
00000170: f5e0 11ba b090 9837 68a6 0fbc f7bb bdbc
00000180: 6ca9 a8b5 d80c b13d 2626 ba3b 4284 4fbb
00000190: 0d78 9abd e2b0 ce3b d877 40bb fec6 c0ba
000001a0: 5812 dd3d 49dc c13a 3c92 433c 1857 0a3e
000001b0: 20cd 93bb 3d29 043b 8959 b73a 485d 203d
000001c0: 91e2 0b3d dedc c4bd 45b1 93ba b4f9 173c
000001d0: 7f7c fd3b 07f7 8cbb f213 f5b7 5ec1 10bf
000001e0: 8520 27bc 0c97 883b 35d9 753e b5d0 14be
000001f0: 1940 ee3a 82a1 023c c14e 76b8 1c37 e7b9
00000200: 5f4e 04bc 172b d8bb 2875 a7bb 7e5b 183a
00000210: e7d7 2ebd 38ee b2ba d004 32bf e789 08be
00000220: e50a 61bd a0c6 cbbb f8d4 2d3e 6ed9 b539
00000230: 91ba 33bc 183a cf3c 8cad 83ba 17df 06be
00000240: d870 93bb 32b3 29bf 3870 59ba 42be beb8
00000250: 6cc2 0c3a 5a1c f6b9 06ac cebd 670a d13d
00000260: ad7a 8bbe 1c3f 5d3a 1a78 25be 3f75 693a
00000270: cd46 d63d 9ceb 5abd 0f56 9ebc 213d f23c
00000280: ce67 34bc 5ae9 083a 4e20 5e3b 6066 b7bb
00000290: bec2 9fb9 4da6 9c3c 0f5f 0abd 6c46 213d
000002a0: 0b7d 8bba 1e67 f639 f179 c4bb 3350 85bb
000002b0: bfaa c0bb 5050 b1be c0c4 543d d5ed 873d
000002c0: 1bca 6fbc b864 3f3f 789c 30bb 9864 eebd
000002d0: b4e8 b3bc ddd1 4abe a722 463d cadf 25bb
000002e0: 0bb7 8fbe 1c17 09bf e98a 8ab9 abe3 dfbe
000002f0: 99f9 87bd 41e2 a5be c271 fd38 15b1 6cb9
00000300: 610a 54bd b67c c2ba 09c4 beb9 6485 1237
00000310: 72a1 43b9 b567 edbb 22c1 a9ba 2454 80bf
00000320: e042 a93e fa6e 33bd a706 20bf b87d 43bb
00000330: 480c 9aba ad65 0b39 06d5 a5bd 7637 11bb
00000340: 95df a6bd 17db fbbb 88c0 a03e 8471 2cbd
00000350: 8676 89bb 6aeb ebbb 6d16 e7b9 26ad 56bc
00000360: bfd5 78be 3a7f a339 dc96 ecb9 b0c2 f0bc
00000370: 2abb 763a 0f12 1cbe 16b7 b9be 5a34 d0bd
00000380: 24ee 0a3d 18b7 aebb fa67 17bd 2109 e1b8
00000390: 1299 b1bd f531 86be 9efa d4bd 440c 65be
000003a0: a041 8fba a1a1 e0b9 6b26 1dba 1931 4cbc
000003b0: 96cb dbbb 1c4d afb9 d42b b139 daf1 0abe
000003c0: 942b e23e 4bf2 26bd 7f59 7d3d 302b 34be
000003d0: e644 953a f669 5bb9 e710 3b3a a1d9 fbbb
000003e0: 13c7 98b9 0f6c bdbd 1f4b a83b 7551 5ebc
000003f0: 5b35 7eba 6794 68bf e1cb 6cbc 6ab5 d9ba

11.bias f4 [128]
0.53886765 -0.2068406 -0.13959962 -0.22690885 -0.25193104 -0.0837878 -0.00390603 -0.27058697
-0.010835084 -0.24524488 -0.07431487 -0.31198066 -0.20502533 -0.30576065 -0.17565274 -0.16425997
-0.0012044666 -0.018902013 -0.050115112 -0.059290588 -0.029275639 0.0052279118 -0.38527402 -0.0007906005
-0.00040717097 -0.2490807 -0.26624963 -0.17137511 0.30303094 -0.11041974 -0.2644612 0.12273545
-0.10990068 -0.09122299 -0.0014774877 -0.30962747 -0.048082616 -0.0009324271 -0.03095575 -0.12993982
0.11448381 -0.10855481 -0.15079436 -0.69375867 0.005826028 -0.1706547 -0.32751423 -0.056783434
-0.03087818 -0.013294985 -0.06903144 -0.01932992 -0.0239617 -0.015913125 -0.06741552 0.3014121
-0.32355845 -0.28304598 0.095413886 -0.09141834 -0.46957028 -0.1266079 -0.21019918 0.51913667
-0.097526595 -6.45299e-07 0.25030035 -0.089087896 -0.024925597 -0.44639838 0.13949472 -0.0072367378
-0.12897791 -0.23913524 -0.002995991 -0.29064026 -0.14223896 -0.17173006 -0.22840504 -0.26556277
-0.24167714 -0.16396664 0.26415685 -0.22820991 -0.18098287 -0.13208893 -0.07273117 -0.2007879
-0.112913616 -0.14652751 -0.14737941 -0.09802583 0.023076609 -0.2026709 -0.07784876 -0.47540104
-0.24311888 -0.15313913 -0.009423148 -0.15110615 -0.4113191 -0.07517515 -0.15775244 -0.24878329
-0.09374339 -0.00083455455 -4.517528e-05 -0.15358442 -0.09170882 -0.18396705 -0.25303558 -0.11373833
-0.09808884 -0.41314474 -0.36547762 -0.03513927 -0.07902602 -0.38265845 -0.25504345 -0.054665074
-0.2752976 -0.22483294 -0.0032836131 -0.039654933 -0.15059361 -0.071477056 -0.0020389175 -0.2646266
00000000: 3bf3 093f 06ce 53be 34f3 0ebe cb5a 68be
00000010: 1bfd 80be f098 abbd 4ffc 7fbb 608a 8abe
00000020: a385 31bc 7921 7bbe 6532 98bd eebb 9fbe
00000030: 29f2 51be a98c 9cbe 50de 33be c433 28be
00000040: 31df 9dba 65d8 9abc 8145 4dbd b0da 72bd
00000050: 77d3 efbc e74e ab3b a342 c5be 4d40 4fba
00000060: 9079 d5b9 030f 7fbe df51 88be f57c 2fbe
00000070: df26 9b3e bf23 e2bd 7567 87be b95c fb3d
00000080: 9c13 e1bd 1ed3 babd 43a8 c1ba 7e87 9ebe
00000090: 47f2 44bd 206e 74ba ea96 fdbc f20e 05be
000000a0: 7d76 ea3d fc51 debd d669 1abe 2b9a 31bf
000000b0: 44e8 be3b 1bc0 2ebe f2af a7be bf95 68bd
000000c0: 3df4 fcbc 35d3 59bc 5b60 8dbd c859 9ebc
000000d0: 544b c4bc 3e5c 82bc 2611 8abd b052 9a3e
000000e0: 74a9 a5be 67eb 90be 5b68 c33d 8a39 bbbd
000000f0: 846b f0be 80a5 01be 743e 57be 24e6 043f
00000100: 06bc c7bd 9c38 2db5 5e27 803e b773 b6bd
00000110: c430 ccbc 548e e4be b4d7 0e3e 2822 edbb
00000120: c912 04be dedf 74be 6358 44bb cdce 94be
00000130: 17a7 11be 01da 2fbe 03e3 69be d8f7 87be
00000140: 367a 77be dfe6 27be 913f 873e dcaf 69be
00000150: 9353 39be 5242 07be 14f4 94bd 589b 4dbe
00000160: 413f e7bd 4f0b 16be a1ea 16be c4c1 c8bd
00000170: 280b bd3c f688 4fbe 2c6f 9fbd c467 f3be
00000180: 28f4 78be 81d0 1cbe 8c63 1abc 92bb 1abe
00000190: 6b98 d2be 6ef5 99bd db89 21be 0cc1 7ebe
000001a0: 89fc bfbd 02c6 5aba 967a 3db8 3c45 1dbe
000001b0: d5d1 bbbd dc61 3cbe e18d 81be a4ef e8bd
000001c0: cde2 c8bd b587 d3be e21f bbbe 32ee 0fbd
000001d0: 65d8 a1bd cfeb c3be 0e95 82be 7ce8 5fbd
000001e0: cff3 8cbe 9b3a 66be e331 57bb 366d 22bd
000001f0: 3635 1abe 9062 92bd 5c9f 05bb 237d 87be
