project_networks/new_sabr/mnist_cnn_3layer_k5_w1_sabr.onnx (onnx, 85616 bytes, 10 tensors)

0.weight f4 [4, 1, 5, 5]
0	0xbc38e2bd	-0.011284527
1	0xbc5a81b6	-0.01333659
2	0xbc3ffe1f	-0.011718302
3	0xbc522cc5	-0.012828057
4	0xbc80ae2d	-0.015708053
5	0xbb827177	-0.003980811
6	0xbc2805fd	-0.010255334
7	0xbc24de8b	-0.010062824
8	0xbc6589a8	-0.014009871
9	0xbc2d92e9	-0.010594108
10	0xbb817f06	-0.00395191
11	0xbb1c9266	-0.0023890971
12	0xbb32e3d3	-0.0027296438
13	0xbc889da6	-0.016676735
14	0xbcaf9d91	-0.021437438
15	0xbbf7e62a	-0.0075652795
16	0xbc00d1fe	-0.007862566
17	0xbc30fb6f	-0.010802134
18	0xbcca661c	-0.024706893
19	0xbcb7a818	-0.02241902
20	0xbbd55f41	-0.0065115993
21	0xbc056e61	-0.008143992
22	0xbcc99ea5	-0.02461178
23	0x3dd5f7c4	0.10447648
24	0xbc9443ff	-0.01809883
25	0x39f6c565	0.00047067847
26	0x39e79605	0.00044171527
27	0x3967d294	0.00022108323
28	0x37765bc8	1.4684112e-05
29	0xb9cda391	-0.00039222513
30	0x3a03ce08	0.00050279545
31	0x3a2dff2c	0.000663745
32	0x3a085e57	0.0005202046
33	0x399549c4	0.00028474454
34	0x388bd574	6.667795e-05
35	0x3f19fb6e	0.60149276
36	0x39d5eeaa	0.00040804344
37	0x382a78c8	4.0643645e-05
38	0xb8f1f4d3	-0.000115373776
39	0x393d5cab	0.00018058966
40	0xb8ecd3ac	-0.00011292784
41	0x38ef0024	0.00011396434
42	0x394104df	0.00018407729
43	0xb96564c0	-0.00021876674
44	0xba2a1052	-0.0006487417
45	0x380f10ed	3.410962e-05
46	0xba09175d	-0.00052296167
47	0xba52dc2c	-0.00080436724
48	0xb9be1841	-0.00036257695
49	0xb9ab2258	-0.0003264125
50	0x39c29126	0.00037110707
51	0x398c85f9	0.00026802698
52	0xb86a19f0	-5.5814104e-05
53	0x3917ae42	0.00014465398
54	0x381019f6	3.4356453e-05
55	0x3938f085	0.00017637208
56	0x397c1626	0.00024040844
57	0xb6f89860	-7.4087147e-06
58	0x381b55bd	3.703473e-05
59	0x36349c7d	2.6913178e-06
60	0x389a4b96	7.357371e-05
61	0x377cc7bb	1.5066874e-05
62	0x392b5c48	0.00016342208
63	0xb968b416	-0.00022192331
64	0x3989641e	0.0002620527
65	0x38fbb4b6	0.00012002273
66	0x394788be	0.0001902906
67	0x390d36d0	0.00013467227
68	0x38f83513	0.000118354474
69	0x3effc214	0.49952757
70	0x395e7476	0.00021214955
71	0x38281da2	4.008192e-05
72	0x390fa271	0.00013698057
73	0xb8ab8bba	-8.1799415e-05
74	0x39ccff9e	0.00039100362
75	0xb8ec2d4e	-0.000112617956
76	0xb88474de	-6.316019e-05
77	0xb7e9a22d	-2.7851283e-05
78	0x3f07efae	0.531001
79	0xb9185a4a	-0.00014529485
80	0xb8a012aa	-7.632871e-05
81	0xb95c5340	-0.00021011848
82	0x3910d941	0.00013813844
83	0x390147b8	0.00012329116
84	0xb885e0c6	-6.3838015e-05
85	0xb91319eb	-0.00014028668
86	0xb8ea2c53	-0.000111662455
87	0xb969695b	-0.0002225986
88	0x390a4e66	0.00013189911
89	0xb815fd1c	-3.5760095e-05
90	0xb95d4335	-0.00021101239
91	0x3858ff5d	5.173624e-05
92	0x39234e0a	0.00015573963
93	0x37ddaa35	2.6424512e-05
94	0xb9c42a26	-0.00037415436
95	0xb9cf820e	-0.00039579015
96	0xb988dfb9	-0.00026106628
97	0x3925db53	0.00015817331
98	0x380491d4	3.1607065e-05
99	0xb8891e84	-6.538353e-05

0.bias f4 [4]
0	0xbde44f5f	-0.11147951
1	0xbe39aa86	-0.18131456
2	0xbe1ab758	-0.15109003
3	0xbe246531	-0.16054226

2.weight f4 [8, 4, 5, 5]
0	0xbf6b23b2	-0.9185134
1	0xbf2b1fc7	-0.66845363
2	0xbeccc836	-0.399965
3	0x330c9689	3.27332e-08
4	0x361160a1	2.166293e-06
5	0x399e6eff	0.00030218807
6	0x38eb8fd1	0.00011232461
7	0x386d5521	5.6584486e-05
8	0x347f3f6d	2.37718e-07
9	0x35fcacd8	1.8825767e-06
10	0x382dfee3	4.1483796e-05
11	0x374a3671	1.2052814e-05
12	0x37773be6	1.4736293e-05
13	0x36611b07	3.3543345e-06
14	0xb7ab4b75	-2.0419926e-05
15	0x385935f8	5.1787094e-05
16	0xb55e8a46	-8.290266e-07
17	0x34e2025a	4.209749e-07
18	0xb823dfe0	-3.907073e-05
19	0xb5a8587a	-1.2542725e-06
20	0x358f9d2b	1.0700072e-06
21	0x360fcf10	2.1429187e-06
22	0x3495eea9	2.792706e-07
23	0xb78b3aae	-1.6597416e-05
24	0xb50ad5c3	-5.172007e-07
25	0xbb555107	-0.0032549517
26	0xbf7b4acb	-0.98161
27	0xbc3ca931	-0.011514948
28	0xbba3b0e7	-0.0049954536
29	0xbb3912ce	-0.0028239968
30	0xbad270e9	-0.0016055378
31	0xbf46f5d0	-0.7771883
32	0xbb407304	-0.002936543
33	0xba86c737	-0.0010282759
34	0xbaedefe7	-0.0018153162
35	0xbf0e107c	-0.55493903
36	0xbdd3d03d	-0.10342453
37	0xbf646cd5	-0.89228565
38	0xbf7aa56d	-0.9790867
39	0xbf21007f	-0.6289138
40	0xbf45e95f	-0.7730922
41	0xbf59e442	-0.8511392
42	0xbf812d09	-1.0091869
43	0xbb09e393	-0.0021040186
44	0xb9a76b57	-0.00031932697
45	0xbfa49b36	-1.2859867
46	0xb822185d	-3.86465e-05
47	0xba48c80f	-0.00076592056
48	0xb9be9dff	-0.0003635734
49	0x3a8afc1a	0.0010603697
50	0xbad5b8d3	-0.0016305692
51	0xbf857066	-1.0424926
52	0xbfabff9e	-1.3437383
53	0xbf6547f7	-0.89562935
54	0xbb6255ab	-0.0034535925
55	0xbf5f7668	-0.8729005
56	0xbf2ef968	-0.68349314
57	0xbb60ed03	-0.0034320957
58	0xbb8e445e	-0.004341646
59	0xbb1ee455	-0.0024244983
60	0xb9ae509d	-0.00033247928
61	0x39b01ab5	0.00033589234
62	0xb9352b9c	-0.00017277751
63	0xb9ed63e8	-0.000452786
64	0xb9ee66ed	-0.00045471583
65	0x3a6e04eb	0.00090797123
66	0x3ac301b8	0.0014877832
67	0x39cb7079	0.00038802976
68	0xb96b3f8b	-0.00022435018
69	0xba59f5fb	-0.0008314547
70	0x3a7f4a08	0.00097385095
71	0xb99f43bf	-0.00030377318
72	0xb9a3da30	-0.00031252345
73	0xb9c3c3f6	-0.000373393
74	0xba362252	-0.0006947863
75	0xbba03e63	-0.0048902496
76	0xbb8b14cb	-0.004244422
77	0xbb493bc3	-0.0030705787
78	0xbb45cc43	-0.0030181564
79	0xbba53119	-0.0050412533
80	0xbbfe5c7b	-0.0077624894
81	0xbb926565	-0.0044676536
82	0xbaf6d52c	-0.0018831841
83	0xbb9acfc2	-0.0047244737
84	0xbff42cca	-1.9076169
85	0xbba842b6	-0.0051349057
86	0xbb368165	-0.0027848121
87	0xbb3b660c	-0.002859476
88	0xbbd92c06	-0.0066275625
89	0xbfb4c1c6	-1.4121635
90	0xba9b4947	-0.00118474
91	0xbabae794	-0.001425969
92	0xbe49557a	-0.19661513
93	0xbf3720a5	-0.71534187
94	0xbec69ef8	-0.3879316
95	0xbf14f016	-0.5817884
96	0xbeace892	-0.33771187
97	0xbf218684	-0.6309588
98	0xbb4422bd	-0.0029927932
99	0xbb8bc8a5	-0.004265862
100	0xb6c2bd86	-5.803714e-06
101	0xbea1d4ee	-0.31607765
102	0x37883619	1.6237655e-05
103	0xb641381e	-2.8791906e-06
104	0xb596c447	-1.1232995e-06
105	0xbf41b8ff	-0.75672907
106	0x39ab4cb4	0.0003267281
107	0xb75f0d21	-1.3294893e-05
108	0xb632de31	-2.66534e-06
109	0xb59bbc32	-1.1603172e-06
110	0xbdee9c64	-0.11650923
111	0xb4b97320	-3.45427e-07
112	0xb5b79bf5	-1.3679952e-06
113	0xb5be01b3	-1.4156598e-06
114	0xb642eb12	-2.9045082e-06
115	0x3787cb9f	1.6188073e-05
116	0xb6a28626	-4.843593e-06
117	0xb42fa610	-1.6358558e-07
118	0xb53cefea	-7.038458e-07
119	0x3183bf59	3.8343555e-09
120	0x351f40d8	5.9326476e-07
121	0xb598b0c2	-1.1376326e-06
122	0xb575802b	-9.145612e-07
123	0xb4214144	-1.5018037e-07
124	0xb56d4e49	-8.84033e-07
125	0x3a440cbe	0.00074787054
126	0x3a194576	0.00058468373
127	0x38f87624	0.00011847567
128	0xb9c12027	-0.00036835784
129	0xbb88e5a9	-0.0041777682
130	0x3a3d9980	0.0007232651
131	0x3a8d40ed	0.0010776796
132	0x391605b7	0.00014307244
133	0xba234edb	-0.0006229707
134	0xbf9927d3	-1.1965278
135	0x3a879c73	0.0010346308
136	0xb9971bc5	-0.00028821654
137	0xba4f4a84	-0.0007907527
138	0xbb1a529f	-0.0023547781
139	0xbf431ad6	-0.76212823
140	0x3919f3b8	0.0001468201
141	0xba69856b	-0.00089081255
142	0xba8df7bb	-0.0010831276
143	0xc0022fa0	-2.0341568
144	0xbbc610b6	-0.0060444726
145	0x389750b6	7.215275e-05
146	0xba3c9152	-0.0007193285
147	0xbf9e86e0	-1.238491
148	0xbf8ecf15	-1.1156946
149	0xb9b1ada3	-0.0003388944
150	0xbf3fd4c0	-0.74934006
151	0xbccaf09d	-0.024772936
152	0xbaae177c	-0.0013282145
153	0x39872921	0.0002577985
154	0x3a384313	0.0007029038
155	0xbf4913ab	-0.78545636
156	0xbb80fcbd	-0.0039363788
157	0xbaa7bfeb	-0.0012798285
158	0xb8b02a74	-8.4002415e-05
159	0x390ae84d	0.00013247244
160	0xbb9355d2	-0.0044963146
161	0xbb3d9347	-0.0028926895
162	0xba99dedc	-0.0011739391
163	0xb923973b	-0.00015601229
164	0xb93bcfd0	-0.00017911126
165	0xba410d26	-0.0007364325
166	0xb95fa9b5	-0.00021330158
167	0x38932e79	7.0181624e-05
168	0x3a076960	0.00051655434
169	0xba4c1b00	-0.0007786006
170	0x3a648d65	0.0008718579
171	0x3a5405fe	0.0008088051
172	0x3a3402d0	0.0006866874
173	0x3981d615	0.000247643
174	0xba68b442	-0.0008876958
175	0x3a2e4eed	0.0006649334
176	0xbaf5bb44	-0.0018747826
177	0xbb53dbc3	-0.0032327033
178	0xbfb9928d	-1.4497849
179	0xbacef7ed	-0.001579044
180	0xb9faaeaa	-0.0004781385
181	0xba09b2b9	-0.0005252767
182	0xbfb8ffb6	-1.4453037
183	0xbc9457ff	-0.018108366
184	0xbab6961a	-0.0013930232
185	0xb94acda4	-0.00019340828
186	0xbb56d1e9	-0.0032778925
187	0xc00d125d	-2.2042458
188	0xbb40d064	-0.0029421085
189	0x388131c3	6.160468e-05
190	0xba1f9188	-0.00060870545
191	0xbf162e2d	-0.5866421
192	0xbc8dac9a	-0.017294217
193	0xbaa747f9	-0.0012762538
194	0x388786c9	6.462407e-05
195	0xbc57b7f7	-0.013166419
196	0xbebea397	-0.37234184
197	0xbb8a1f9f	-0.0042151953
198	0xba89c661	-0.0010511392
199	0x38f52a9e	0.000116904484
200	0xb586c14a	-1.0040033e-06
201	0x34ac5ce9	3.2105098e-07
202	0x360bdfe7	2.0842942e-06
203	0x3646170a	2.951771e-06
204	0xbe5f4c82	-0.21806529
205	0x359f2c03	1.1859232e-06
206	0x37d3d9c1	2.525456e-05
207	0x36f2463f	7.2203397e-06
208	0xbe6b3541	-0.22969534
209	0xb66ed663	-3.5589553e-06
210	0x3455167b	1.9845349e-07
211	0x34bae147	3.480911e-07
212	0x354041ab	7.1621133e-07
213	0xbed04016	-0.40673894
214	0xb645f8fa	-2.950021e-06
215	0xb2b9b2bf	-2.1618119e-08
216	0x32c57138	2.2985304e-08
217	0x36c4aaac	5.861124e-06
218	0xb3e9fc40	-1.0895792e-07
219	0xb4678e5f	-2.1565346e-07
220	0x3375cbdf	5.7228927e-08
221	0x344430bd	1.8271653e-07
222	0x331e27ee	3.6823558e-08
223	0xb51109e1	-5.4031085e-07
224	0xb5470b03	-7.41493e-07
225	0xbf83319a	-1.0249512
226	0xbaf58e4d	-0.0018734426
227	0x3a218bc4	0.00061624893
228	0x3a59f9ee	0.00083151355
229	0x395d0d1b	0.00021081085
230	0xbf6da7cd	-0.9283417
231	0xb9ef4c53	-0.00045642498
232	0xb99b0fbf	-0.00029575636
233	0xb923c0c4	-0.00015616702
234	0x39a4e67f	0.0003145225
235	0xbb516d8f	-0.003195617
236	0xbb009c20	-0.0019624308
237	0xb9f34bc7	-0.0004640503
238	0x3a05bf86	0.00051020866
239	0xb94e3339	-0.00019664773
240	0xbb8029ea	-0.0039112465
241	0xbb0afe0b	-0.002120855
242	0x3893c009	7.0452756e-05
243	0x3a6d49f4	0.00090518524
244	0xb7047330	-7.894632e-06
245	0xbb1d7c77	-0.0024030486
246	0xba64ce79	-0.00087282766
247	0x39ec9b89	0.0004512931
248	0xb8190e19	-3.6491172e-05
249	0xba19d8b3	-0.00058687775
250	0x393556db	0.00017293861
251	0x39bb3475	0.00035706503
252	0x3aa2bbd6	0.0012415599
253	0xbf811022	-1.0083048
254	0xbb38452f	-0.0028117409
255	0x39b53426	0.00034561864

2.bias f4 [8]
0	0x3e4c5856	0.19955572
1	0x3e900d66	0.28135222
2	0x3e2a379e	0.16622779
3	0x3e95958d	0.2921566
4	0x3e9ee594	0.3103453
5	0x3e4333f3	0.19062786
6	0x3e649dc9	0.22325815
7	0x3e80376a	0.25042278

4.weight f4 [8, 8, 4, 4]
0	0xbd2226bc	-0.03958772
1	0xbb1524e2	-0.002275758
2	0xbbc791cd	-0.006090379
3	0x393a7b7f	0.00017784348
4	0xbd3703f0	-0.04468149
5	0xbba0a880	-0.0049028993
6	0xbb3d8889	-0.0028920493
7	0x3b861704	0.004092099
8	0xbba7192f	-0.0050994377
9	0xbbed13f6	-0.0072350455
10	0xba6d0507	-0.00090415817
11	0x3ba0f93e	0.0049125245
12	0xbc17efcc	-0.009273481
13	0xbbfd8c6e	-0.007737688
14	0x3804a93c	3.1628864e-05
15	0x3b94b5cb	0.004538273
16	0xbb8a92ca	-0.0042289244
17	0x3b1dec10	0.0024097003
18	0x3b87391f	0.0041266824
19	0x3b8755d5	0.004130105
20	0xbb874062	-0.004127548
21	0x3bb10a3b	0.005402831
22	0x3b834bc4	0.0040068347
23	0x3d4dc9c5	0.05024125
24	0x3aec2afc	0.0018018181
25	0x3b5cda6e	0.003369953
26	0x39f42768	0.00046568667
27	0x3de075b3	0.10959949
28	0x3aaf7ac7	0.0013388031
29	0x3b072833	0.0020623326
30	0xb8be7cde	-9.083164e-05
31	0x3e1a8502	0.15089801
32	0x3af6425b	0.0018788086
33	0xba5739e1	-0.0008210224
34	0xbb17222c	-0.002306114
35	0xbaf36979	-0.0018570862
36	0x3a199fd6	0.0005860304
37	0x3b211c3b	0.0024583477
38	0xbadf744f	-0.0017048212
39	0xbb17086b	-0.002304579
40	0x3be10c96	0.0068679554
41	0x3bcf1579	0.0063196984
42	0xbaf95cb4	-0.001902482
43	0x38073950	3.2239885e-05
44	0x3c08c7a6	0.008348381
45	0x3be4c992	0.006982037
46	0xbac020f3	-0.0014658257
47	0xbb3f2afb	-0.0029169905
48	0xba3853a9	-0.00070315093
49	0x3b318519	0.002708739
50	0xb9ef476b	-0.00045638843
51	0x3b8d3b88	0.004310075
52	0xb85531fe	-5.0829716e-05
53	0x3a49ef25	0.0007703177
54	0xb9be68ae	-0.00036317616
55	0x3ae77abd	0.001766048
56	0xba0cdfb8	-0.0005373913
57	0xbb625a8a	-0.0034538829
58	0xbaeeb20a	-0.0018211019
59	0x3956bc66	0.00020478814
60	0xbc5cd55e	-0.013478605
61	0xbbebad78	-0.00719231
62	0xbaeaac21	-0.0017904082
63	0x3a271818	0.00063741347
64	0x3d687da6	0.056760453
65	0x3e7ba1eb	0.24573486
66	0x3eefe5a8	0.468549
67	0x3f6424b8	0.8911853
68	0x3d2210ee	0.039566927
69	0x3e42b997	0.1901611
70	0x3e6cc561	0.23122169
71	0x3f19e561	0.6011563
72	0x3b03ec7e	0.0020129974
73	0x3dd437c9	0.10362203
74	0x3dc1f749	0.09470994
75	0x3ea3afa4	0.3196994
76	0x3b2ca91b	0.0026345912
77	0x3ba74c43	0.0051055267
78	0x3c030223	0.007996115
79	0x3ecb8390	0.39748812
80	0xbb87817d	-0.0041353093
81	0xbb0df150	-0.0021658726
82	0xbbc9314a	-0.006139909
83	0xbc47568c	-0.0121666305
84	0xbc41bf5e	-0.011825411
85	0xbd83f378	-0.06442922
86	0xbd2db21c	-0.042406186
87	0xbd775221	-0.06038106
88	0xbe79ca72	-0.24393633
89	0xbe179b18	-0.14805257
90	0xbd92f6c4	-0.07175973
91	0xbdaa3651	-0.08311141
92	0xbdf944cd	-0.12171326
93	0xbc8d5e3f	-0.017256854
94	0xbbe4469c	-0.006966425
95	0xbaa8c940	-0.001287736
96	0xbc1beff7	-0.009517661
97	0xbbadb934	-0.005301619
98	0x3b317d75	0.0027082835
99	0x3dc945ba	0.098277524
100	0xbb0a2f74	-0.0021085413
101	0xbb65cf22	-0.0035066088
102	0x3b3ffd00	0.0029295087
103	0x3c3e1bc2	0.011603298
104	0xba7659a3	-0.0009397512
105	0xbac578df	-0.001506593
106	0x3a919eb1	0.0011109916
107	0x3b0d8437	0.0021593699
108	0x393fe8c1	0.00018301887
109	0xbb8f1b46	-0.004367265
110	0x389e9c89	7.563184e-05
111	0x3a8f0d48	0.0010913992
112	0xbdd9df78	-0.106383264
113	0xb9e15106	-0.0004297571
114	0xba251e43	-0.000629876
115	0x3a72af78	0.0009257714
116	0xbe8ebbdb	-0.27877697
117	0xbe287a98	-0.16453016
118	0xbba45c27	-0.005015868
119	0xbaae372e	-0.0013291591
120	0xbf598c83	-0.8498003
121	0xbea32f3d	-0.31871977
122	0xbe1468a2	-0.14493039
123	0xbc00dae0	-0.007864684
124	0xbf995db7	-1.1981725
125	0xbf19d444	-0.60089517
126	0xbe0efc91	-0.13963534
127	0xbd8e9d28	-0.06963569
128	0x3b9dd8ac	0.004817089
129	0x3d59fc1c	0.053218946
130	0x3b3f6fb1	0.002921086
131	0x3ac3ff50	0.0014953408
132	0x3baf8355	0.005356232
133	0x3ce6826a	0.028138358
134	0x3d3192ae	0.043352775
135	0x3db53df4	0.08849707
136	0x3dc060f7	0.093934946
137	0x3dba91cb	0.09109839
138	0x3e4a0ddf	0.19731854
139	0x3e45f4f4	0.19331723
140	0x3d0765d6	0.033056103
141	0x3b4aab9b	0.0030925039
142	0x3d8d5333	0.069006346
143	0x3b1b0f92	0.0023660404
144	0xbd087ff2	-0.033325143
145	0xbbfeb092	-0.0077725137
146	0xb8baacc0	-8.901348e-05
147	0x3a91ffda	0.0011138872
148	0xbbfbc1ec	-0.0076830294
149	0xbb8a0ba2	-0.0042128125
150	0x3b0be1a1	0.0021344202
151	0x3a74e037	0.0009341272
152	0x3aafeb9c	0.0013421657
153	0x3b0507e5	0.0020298895
154	0x3a1a88f5	0.0005895042
155	0x3a369f03	0.00069664436
156	0x3a894357	0.0010472339
157	0x3a2278fb	0.0006197837
158	0xbae5c36e	-0.0017529556
159	0xbbb11fbe	-0.0054053953
160	0x3c011ae5	0.007879947
161	0x3b033cc4	0.0020025233
162	0x3a5b094e	0.00083555735
163	0xbae254dd	-0.0017267723
164	0x3adfe090	0.0017080475
165	0x38c4e0fe	9.387916e-05
166	0x3a18142b	0.0005801345
167	0xb8118aec	-3.4700075e-05
168	0x38c44929	9.3596354e-05
169	0xba5c3298	-0.0008399873
170	0xbbab496a	-0.0052272575
171	0x39bc5326	0.00035920105
172	0xb9d97bee	-0.000414818
173	0xbb85ecd5	-0.0040870705
174	0xbcaedaa1	-0.021344485
175	0x39f65ce0	0.00046989974
176	0x3ee2c3a9	0.44289902
177	0x3e1634fb	0.14668648
178	0x3d8284bc	0.06372973
179	0x3cd23653	0.02566067
180	0x3d6fdde1	0.05856121
181	0x3a457c8c	0.00075335125
182	0xba7099a8	-0.000917817
183	0xb8ec8d2b	-0.000112796515
184	0xb8a7a884	-7.994569e-05
185	0xbb89cbd7	-0.004205208
186	0xbb81493b	-0.0039454973
187	0xbad363ca	-0.0016127762
188	0x3889eced	6.5768e-05
189	0xbd84f5ff	-0.064922325
190	0xbbddd664	-0.006769942
191	0xbbc5cc2e	-0.006036303
192	0x3ad22f61	0.0016035849
193	0x3af47416	0.0018650319
194	0xba36492b	-0.0006953652
195	0xbbb017d3	-0.005373934
196	0x3b5804f1	0.003296193
197	0x3a642fa3	0.0008704608
198	0xbc01e7ec	-0.00792883
199	0xbbedb164	-0.0072538126
200	0xbc861fcc	-0.016372584
201	0xbd62e994	-0.05539854
202	0xbe1953a2	-0.1497331
203	0xbe327a0c	-0.1742937
204	0xbe51e8df	-0.2049899
205	0xbee0b024	-0.43884385
206	0xbf14bcd4	-0.5810063
207	0xbf524009	-0.8212896
208	0xbc53acd5	-0.012919624
209	0xbc025aa8	-0.007956184
210	0xba842b0e	-0.0010083632
211	0xb9dc2a67	-0.00041993262
212	0xbc70362b	-0.014661352
213	0xbc0250eb	-0.007953863
214	0xbbbb4aa5	-0.0057156854
215	0xbb03f2d0	-0.0020133741
216	0xbba850de	-0.0051365932
217	0xbb1b01f3	-0.0023652285
218	0x3a579f41	0.000822533
219	0x39f9b9d4	0.00047631434
220	0x3aa60ca2	0.001266856
221	0x3ae46d20	0.0017427541
222	0xb83dda75	-4.5264565e-05
223	0x3964b413	0.00021810857
224	0x3aad00e8	0.0013199123
225	0xbbf9b83d	-0.00762084
226	0xbb510206	-0.0031892075
227	0xbb3a84c5	-0.0028460484
228	0xbbd15ba1	-0.006389097
229	0xbb03c032	-0.002010357
230	0xba3bf4bd	-0.0007169953
231	0xba0d00a4	-0.00053788186
232	0xbac84ded	-0.0015282013
233	0xba27b070	-0.00063968357
234	0xba684314	-0.0008860093
235	0x3aeb72ea	0.0017963324
236	0xba384552	-0.00070293725
237	0xb9a72390	-0.00031879218
238	0x38277023	3.9920338e-05
239	0x3ba90e0d	0.0051591457
240	0x3e031a48	0.12802994
241	0x3ddb959e	0.107218966
242	0x3df654f9	0.12027926
243	0x3e2fffa6	0.17187366
244	0x3e6f34cc	0.23359984
245	0x3ee12d62	0.43979937
246	0x3e7d4deb	0.24736755
247	0x3e1085c2	0.14113525
248	0x3ecfd027	0.40588495
249	0x3eb3038a	0.34963638
250	0x3d6cd2c2	0.05781818
251	0x3c57d14e	0.013172461
252	0x3e99c0e4	0.30029976
253	0x3e09ec01	0.13468935
254	0x3b892401	0.0041852
255	0x3a3e9847	0.0007270616

4.bias f4 [8]
0	0xbe63e793	-0.22256307
1	0xbb456db3	-0.00301252
2	0x3e549667	0.20760499
3	0x3e81ab0a	0.25325805
4	0x3ecb814d	0.39747086
5	0x3d11a7f7	0.035560574
6	0xbacd03b2	-0.001564136
7	0xbaf7caa7	-0.0018905

7.weight f4 [64, 288]
0	0xbd97a9f6	-0.07405464
1	0xbc5d40fe	-0.013504265
2	0xbc37c63a	-0.0112166945
3	0xba5f128f	-0.00085095403
4	0xbb9711cf	-0.0046102772
5	0xbc3c422a	-0.011490384
6	0x3b1ac435	0.0023615484
7	0x3d17055d	0.03687035
8	0xbc1faa98	-0.009745263
9	0xbed72ec2	-0.4202786
10	0xbe1df853	-0.1542676
11	0xbdf649eb	-0.120258175
12	0x3b7e9d14	0.003885095
13	0x3c97380b	0.01845934
14	0x3bbcacc1	0.0057578986
15	0xbab166a8	-0.0013534622
16	0xbbc5483f	-0.0060205753
17	0xbe5085c4	-0.20363528
18	0x3a29c76c	0.00064765546
19	0x3ea25dbc	0.3171214
20	0x3c37092f	0.011171623
21	0x399fa157	0.0003044705
22	0xbb4fe6f6	-0.0031723357
23	0x3d04e6f2	0.03244681
24	0x3b0ff591	0.0021966437
25	0x3cc3b1fe	0.023888584
26	0xbaacf0a0	-0.001319427
27	0x3e3a835a	0.18214169
28	0xbb896e5f	-0.0041940655
29	0x3a80f215	0.0009837771
30	0x395c9fb6	0.00021040332
31	0x3a75302f	0.0009353188
32	0x3f5d65b5	0.8648332
33	0x3b19f6c8	0.002349304
34	0xbc026156	-0.007957777
35	0x3ce8633a	0.028367627
36	0xbaf62777	-0.0018780072
37	0xbae739bc	-0.0017641108
38	0x3ad7f416	0.0016475942
39	0xba35db7f	-0.00069373095
40	0xbafdc03b	-0.0019359657
41	0x399b6db7	0.00029645648
42	0xbb3ce0b2	-0.0028820452
43	0xbc0b7935	-0.008512785
44	0xbb4e36bb	-0.0031465727
45	0xbb15aedd	-0.0022839822
46	0x3bcc3f17	0.006233107
47	0xbcf34806	-0.02969743
48	0xbbc69a82	-0.0060608992
49	0xbe213dd8	-0.15746248
50	0xbf045da0	-0.5170536
51	0x39f05ca0	0.00045845378
52	0x3e3ac3b9	0.18238725
53	0x3ad5c8d4	0.0016310462
54	0xb9566657	-0.00020446755
55	0xbbddbb59	-0.0067667183
56	0xbf34fac4	-0.7069514
57	0x3945a023	0.0001884704
58	0xbf2c98e1	-0.67420775
59	0x378717ec	1.6104394e-05
60	0xbb268106	-0.0025406494
61	0xbb35cb24	-0.002773949
62	0x3cd08d59	0.025458025
63	0xba81cb61	-0.0009902531
64	0xbe7b9a7b	-0.24570648
65	0x3e5eda65	0.21762998
66	0x3bc4cd27	0.0060059014
67	0xba99cbe0	-0.0011733733
68	0xbef4d881	-0.4782143
69	0xbd6c29bc	-0.05765699
70	0x39dd017a	0.00042153505
71	0x3e4fd3cd	0.2029564
72	0x3c0ef140	0.008724511
73	0xbe544975	-0.20731147
74	0xbbef06bc	-0.007294504
75	0xbbdf570a	-0.006815796
76	0xb95be40b	-0.0002097042
77	0x3e8e9095	0.27844682
78	0x373562bb	1.0811428e-05
79	0xbb0114f9	-0.0019696339
80	0xbb2eec5f	-0.002669118
81	0xbb266951	-0.0025392363
82	0x3b3fad95	0.002924775
83	0x3f2f1498	0.683908
84	0x3aa71d5e	0.0012749841
85	0xba3b777d	-0.0007151289
86	0xbb91229b	-0.004429174
87	0xbaedfc40	-0.0018156841
88	0x3b88f7e4	0.0041799415
89	0x3ece7a08	0.40327477
90	0xbc3ed34d	-0.011647058
91	0x3b803203	0.003912212
92	0xbb356e57	-0.0027684176
93	0x3b9a4314	0.0047077034
94	0x3bf5020d	0.007477051
95	0xbea9ef6d	-0.3319048
96	0xba0133fc	-0.0004928706
97	0x3c91f844	0.017818578
98	0x3b08f9a9	0.0020900762
99	0xbc1712c5	-0.009220784
100	0xbeada3a7	-0.3391392
101	0xbf2443bb	-0.6416585
102	0x3c6b7494	0.014371056
103	0xbb913b59	-0.0044321236
104	0x3d2ebf04	0.042662635
105	0xbb350885	-0.0027623486
106	0xbb425db6	-0.0029657907
107	0x3b88e3ac	0.004177531
108	0x3d9f7235	0.07785455
109	0xbb06eb22	-0.0020586927
110	0xbb6e00ab	-0.0036316316
111	0x3b9560fe	0.0045586815
112	0x3b5abf3c	0.0033378145
113	0xbc4156f4	-0.011800516
114	0x3c3e8842	0.011629166
115	0x3a122e83	0.0005576389
116	0xbb895c74	-0.0041919295
117	0x3a0f15cc	0.0005458265
118	0xbb7bcf1a	-0.0038423003
119	0x3c6bf47f	0.014401554
120	0x3906299f	0.00012794741
121	0x3a16bf6d	0.00057505706
122	0x3b475d37	0.003042055
123	0xbb472137	-0.0030384788
124	0xbbd04a0d	-0.006356484
125	0x3c10fd7a	0.008849496
126	0xbbe54d09	-0.0069977087
127	0xbb4f6f32	-0.003165197
128	0x39d588be	0.00040728407
129	0xbbbc8efe	-0.0057543507
130	0xbd3d7bca	-0.046260633
131	0xbb41e28b	-0.0029584493
132	0xbba5e7c7	-0.0050630304
133	0xbbb5217f	-0.0055276747
134	0xbb1a1e9e	-0.0023516784
135	0xbbe482b8	-0.0069735907
136	0x3b0325c0	0.0020011514
137	0x3ab941e6	0.0014134019
138	0x3f6ae2af	0.9175214
139	0x3ed7d184	0.42152035
140	0x369123de	4.3255122e-06
141	0x3eaa06a3	0.33208188
142	0x3e6b0cd6	0.22954115
143	0x3c83e91e	0.01610237
144	0xbe403213	-0.18769102
145	0x3af6f633	0.0018841684
146	0xbf477fd8	-0.7792945
147	0xbd6c704e	-0.05772429
148	0xba87c13e	-0.0010357273
149	0x3ef2c686	0.47417086
150	0x3a987e29	0.0011634278
151	0x3a962250	0.0011454318
152	0x3a34df62	0.0006899742
153	0xbae433f1	-0.0017410499
154	0xbb9d2b95	-0.004796455
155	0x3b935ba0	0.0044970065
156	0x3cbbc880	0.022922754
157	0x3ebaca96	0.36482686
158	0x3f3052a3	0.68876094
159	0x3923cb1e	0.00015620558
160	0xb9bca150	-0.00035978341
161	0x3bdcbc39	0.006736305
162	0x3ed384e6	0.4131233
163	0x3e89f3fa	0.26943952
164	0x3b18fe7d	0.0023345046
165	0x3dde3983	0.10850813
166	0xba5da84e	-0.00084555603
167	0x3bba6f3f	0.005689531
168	0xbcf73dee	-0.030180898
169	0xbd8e3743	-0.06944134
170	0x3ab69816	0.0013930823
171	0xbe4ab059	-0.19793834
172	0xbba9dc5d	-0.00518374
173	0x3bf30877	0.0074167806
174	0x3aca0698	0.0015413342
175	0xb99e01be	-0.00030137406
176	0xbb000452	-0.0019533825
177	0xbb0ee1ec	-0.002180214
178	0xbb05f1df	-0.0020438356
179	0xbf223487	-0.633614
180	0x3bdb7f6b	0.006698539
181	0xbfcddb8d	-1.6082627
182	0x3a136522	0.0005622675
183	0x3b480c27	0.0030524821
184	0xbacdd95c	-0.0015705037
185	0x3a9e5956	0.0012081068
186	0x3c111cbe	0.00885695
187	0x3b04bef0	0.002025541
188	0x3a74382a	0.00093162304
189	0xbc313664	-0.01081619
190	0xbd9e57e9	-0.07731611
191	0xbcf4246a	-0.02980252
192	0x3b80b193	0.0039274185
193	0x39bdab66	0.0003617659
194	0x3b640e7b	0.003479867
195	0xbdc74a87	-0.09731012
196	0xbbeb18c1	-0.0071745818
197	0x3a6610cd	0.0008776307
198	0x3bc4aef8	0.006002303
199	0x3badf135	0.005308295
200	0x3e0a25bc	0.13490957
201	0xbb3669ff	-0.0027834175
202	0x39f2ec19	0.00046333743
203	0x3bf8f105	0.007597091
204	0x3a94a075	0.0011339324
205	0x3b0fec3a	0.002196087
206	0x3aa10994	0.001228618
207	0x38e8651b	0.000110814544
208	0xbb8ca09a	-0.004291606
209	0x3bed3ed5	0.007240156
210	0xbbd0ed26	-0.0063759265
211	0x3a50d728	0.0007966631
212	0x398d4a11	0.000269488
213	0xbb5d4ffa	-0.0033769594
214	0x3b10b213	0.0022078797
215	0x3e9c8d1b	0.30576405
216	0x3e7c8456	0.24659857
217	0x3c108eaa	0.008823076
218	0x3a8c127b	0.001068666
219	0x3b88d188	0.0041753687
220	0x3a93cb00	0.0011275709
221	0xba77c934	-0.0009452284
222	0x3b88bade	0.004172667
223	0xbb339e53	-0.00274076
224	0xbbb6f9dd	-0.0055839852
225	0xbb7b8cd8	-0.003838351
226	0xbb217a23	-0.002463945
227	0x3c0c4444	0.008561198
228	0xbb321819	-0.0027175008
229	0xbb01d322	-0.0019809683
230	0xbb8cfc2c	-0.004302522
231	0xbc393e72	-0.011306392
232	0xbad9a1e9	-0.0016604039
233	0xb91c4fd7	-0.00014907062
234	0xbc41ece9	-0.011836269
235	0x3a14d9f2	0.00056782283
236	0x3e03694d	0.12833138
237	0x3b217513	0.0024636432
238	0x3e36e243	0.1785975
239	0x3b47a688	0.003046425
240	0x3ae2f87b	0.0017316485
241	0xba83a41d	-0.0010043416
242	0x3a0d4935	0.0005389632
243	0x3b4b8cdb	0.0031059298
244	0xbafcd577	-0.0019289692
245	0xbe2d36cf	-0.16915439
246	0xbb32d8a1	-0.0027289765
247	0xb7b0c449	-2.1072237e-05
248	0x3cdb6d8d	0.026785636
249	0xbc089e34	-0.0083385
250	0xbeee4c11	-0.4654241
251	0x3b8e13b0	0.004335843
252	0x3a3a0dd2	0.00070973963
253	0xbb3e7349	-0.0029060415
254	0x392b5f28	0.0001634328
255	0xbaa9b2cf	-0.0012946966

7.bias f4 [64]
0	0x3c85d235	0.016335586
1	0x3de5085b	0.11183234
2	0x3d004404	0.031314865
3	0x3e55a000	0.20861816
4	0xbee6242c	-0.44949472
5	0xbe0f734d	-0.14008828
6	0x3eb00663	0.34379873
7	0x3e7fe696	0.24990305
8	0xbe0a471a	-0.13503686
9	0x3e2e1e73	0.17003803
10	0xbea0c627	-0.31401178
11	0xbd97c31d	-0.07410262
12	0x3e46c4c3	0.19410996
13	0x3e2d80b8	0.16943634
14	0xbe492a14	-0.19644958
15	0xbee8997e	-0.45429605
16	0x3c0e8d0b	0.008700619
17	0xbc0c7db3	-0.008574891
18	0x3c04603c	0.008079585
19	0x3c7f831f	0.015595227
20	0xbc8d32a6	-0.017236065
21	0x3e33583e	0.1751413
22	0x3e0656e1	0.13119079
23	0xbc8e9c55	-0.01740853
24	0x3da348eb	0.079728924
25	0x3f048749	0.5176893
26	0xbe1dd993	-0.15415029
27	0x3e795ca4	0.24351746
28	0x3cc67f70	0.024230689
29	0xbe805474	-0.25064433
30	0x3eaad808	0.33367944
31	0x3d086b70	0.033305585
32	0x3e09364b	0.13399617
33	0xbece9433	-0.40347442
34	0x3dca2414	0.098701626
35	0xbe1cc22d	-0.15308447
36	0x3e5796a7	0.21053563
37	0x3dec5a7b	0.11540695
38	0x3e96f127	0.2948086
39	0xbe754ce9	-0.2395512
40	0x3ebd7f08	0.3701098
41	0xbe8934f8	-0.26798224
42	0xbe954134	-0.2915131
43	0xbf000503	-0.5000765
44	0x3e25a3ca	0.16175762
45	0xbda666ea	-0.08125098
46	0xbe0814f1	-0.13289239
47	0x3ec82fe6	0.39099044
48	0xbd2929ea	-0.041299738
49	0xbd7c1172	-0.061540075
50	0x3de2c83c	0.11073348
51	0xbed23bc3	-0.4106122
52	0x3e6a933c	0.22907728
53	0xbddb15b0	-0.10697496
54	0x3e12166f	0.1426637
55	0xbe236d50	-0.15959668
56	0xbec3cd5e	-0.3824262
57	0x3ed1d6bd	0.40984145
58	0xbd801670	-0.062542796
59	0x3ed1776c	0.40911424
60	0x3e214775	0.15749915
61	0xbe3c4801	-0.18386842
62	0xbdfda884	-0.123856574
63	0x3a2fe367	0.0006709606

8.weight f4 [10, 64]
0	0xbb9514ee	-0.004549614
1	0x3a98d688	0.0011660615
2	0x3b75a0af	0.0037479808
3	0xb89d006a	-7.4864205e-05
4	0x39f9aeb8	0.00047623157
5	0xbb0b471f	-0.0021252108
6	0xba23137a	-0.0006220859
7	0xba198303	-0.0005856009
8	0xbb64d2c5	-0.0034915667
9	0xb9088ea6	-0.00013023111
10	0x3b1b2f23	0.0023679219
11	0x3a0b69cc	0.0005318194
12	0xb9cd051c	-0.00039104454
13	0x3a0f529a	0.00054673257
14	0xbaf71ab0	-0.0018852558
15	0xbb4fc812	-0.0031704945
16	0xb98a751b	-0.00026408662
17	0xba920455	-0.0011140207
18	0x3b9e194b	0.0048247925
19	0x3b394981	0.0028272572
20	0x3b20d89c	0.0024543172
21	0xba53c760	-0.00080787204
22	0xc003d121	-2.0596392
23	0x3f028732	0.5098754
24	0xba76bbc6	-0.00094121357
25	0xba44bacc	-0.00075046415
26	0xba57abb7	-0.00082271866
27	0xb9a46e1a	-0.0003136255
28	0x3a7e8b23	0.0009710064
29	0x397c06f9	0.0002403519
30	0x3b0c66f2	0.0021423665
31	0xbb516c3e	-0.0031955387
32	0x3a9b65e9	0.0011855933
33	0x3ac015f7	0.0014654984
34	0x38a3b49a	7.806085e-05
35	0x3a381f14	0.0007023674
36	0xbb83853b	-0.004013685
37	0x3b42701e	0.0029668878
38	0xb9ea87bf	-0.00044733097
39	0xbac9810d	-0.0015373543
40	0xbb044e79	-0.0020188375
41	0x3b248141	0.0025101455
42	0x3720f598	9.593925e-06
43	0x3a4d700b	0.0007836825
44	0x3ae5dea6	0.0017537668
45	0xbac28b31	-0.0014842508
46	0xbb041173	-0.0020152002
47	0xbb4f5f84	-0.0031642625
48	0x3b04bc26	0.0020253747
49	0xb733f433	-1.07260885e-05
50	0xbfa87ca2	-1.3163035
51	0xbadff4f0	-0.0017086547
52	0x37d74f67	2.5666972e-05
53	0x3b07afb9	0.0020704104
54	0x3787048f	1.6095377e-05
55	0xba83be94	-0.0010051304
56	0x3a94e96d	0.001136107
57	0xbb4b2f6c	-0.0031003607
58	0x3cc1b08a	0.02364375
59	0xba7d919b	-0.0009672881
60	0x3ad0ab34	0.0015920163
61	0x3af924a5	0.0019008113
62	0xbba10f1f	-0.0049151327
63	0x3b8a104c	0.0042133685
64	0xbafb974e	-0.0019194873
65	0x38d95d17	0.00010364706
66	0x3af279f7	0.0018499483
67	0xb9831b45	-0.00025006584
68	0xbaaf09b4	-0.0013354332
69	0xbb7283a1	-0.0037004726
70	0xba017d94	-0.0004939672
71	0xba0007a7	-0.0004883953
72	0xbb87f74d	-0.0041493536
73	0x3a3e2c91	0.0007254566
74	0xbae760e4	-0.0017652777
75	0x3be5bd6a	0.0070111053
76	0x39758ff1	0.00023418643
77	0x3b93e6e4	0.0045136083
78	0xba93cf9a	-0.001127708
79	0x3a6e3667	0.0009087086
80	0x3af7ae0c	0.0018896475
81	0xbc4431a7	-0.011974729
82	0xbbdcc792	-0.006737658
83	0x3b454010	0.0030097999
84	0x3ae57afb	0.0017507965
85	0xbacda54a	-0.0015689519
86	0xbb941f3e	-0.004520326
87	0x3c0abf44	0.008468453
88	0x3ab31e4b	0.0013665644
89	0x3a86a221	0.0010271707
90	0x3a10adee	0.00055190816
91	0x3f944344	1.1583028
92	0x3e2d5e7e	0.16930577
93	0xb938609b	-0.00017583596
94	0xb9f1481e	-0.00046020834
95	0xbaf3107b	-0.001854434
96	0x39c294ba	0.00037113373
97	0x3b4b1636	0.003098858
98	0x3b95d074	0.0045719687
99	0xbfdef419	-1.7418243
100	0xbbb07485	-0.005384984
101	0x3e212d39	0.15739907
102	0xb98f8d26	-0.0002738025
103	0xb99ec746	-0.0003028458
104	0x3af5ae5b	0.0018743979
105	0xbb1b4c75	-0.0023696695
106	0x3a0d80cd	0.0005397916
107	0xba155f3c	-0.000569809
108	0xba11446b	-0.0005541506
109	0x3b0773b4	0.002066833
110	0xbb0fd27a	-0.0021945522
111	0xbb37e9cd	-0.002806294
112	0xbb935d7d	-0.0044972287
113	0xbb735f94	-0.0037135826
114	0xbbd3f846	-0.0064688055
115	0xbd7aab88	-0.06119874
116	0xb9152c21	-0.00014226187
117	0x3b29e7a3	0.002592542
118	0x39dced82	0.00042138627
119	0x39b3804c	0.0003423713
120	0xba71db05	-0.0009226057
121	0x395eed36	0.00021259938
122	0x3c05586a	0.008138755
123	0x3b47e032	0.003049862
124	0xba90c106	-0.0011043854
125	0xbac56e16	-0.0015062715
126	0xbb3d8ee5	-0.0028924283
127	0xbc44507b	-0.011982079
128	0xbcfff203	-0.03124333
129	0x38bdb95f	9.04675e-05
130	0x3c24ff6b	0.010070662
131	0xbaf021bf	-0.0018320604
132	0xbb226f5e	-0.0024785618
133	0xbe702a28	-0.23453581
134	0xbc815463	-0.015787309
135	0xbae22a7b	-0.0017255092
136	0xba1e6110	-0.0006041685
137	0x3dc9b427	0.098488145
138	0xbaa69989	-0.0012710552
139	0xb9dc8e95	-0.00042067902
140	0xbacbcaaf	-0.0015548075
141	0x3f41f82a	0.75769293
142	0xba62deac	-0.00086543965
143	0xb9a1f385	-0.0003088975
144	0xba867425	-0.0010258002
145	0x3c9ef794	0.019405164
146	0x3c37766f	0.01119767
147	0xbb3ef58d	-0.002913806
148	0x3ba6f291	0.005094834
149	0x393cf33f	0.00018019693
150	0xb9c64359	-0.0003781568
151	0xb7a9ab78	-2.0226216e-05
152	0xb9da5d7d	-0.00041649854
153	0x3aeb3f88	0.0017948011
154	0xb9e1ac6d	-0.00043043811
155	0x3a91928c	0.0011106296
156	0x3a0579ad	0.00050916785
157	0xba0ed2c9	-0.00054482796
158	0x3bd5669b	0.0065124757
159	0x3b82a672	0.003987127
160	0xbbbf0297	-0.005829166
161	0x3a663dd9	0.000878302
162	0x3f8192f3	1.012297
163	0xba2f4197	-0.0006685494
164	0xbb14401f	-0.0022621227
165	0xb8b3dae9	-8.57616e-05
166	0x3a6aa7f7	0.00089514203
167	0xb90943e0	-0.00013090624
168	0xba02fea6	-0.0004997052
169	0xbbfbb81b	-0.007681859
170	0xb9b2ec72	-0.0003412697
171	0xbb08d58b	-0.0020879235
172	0xba011c0b	-0.0004925138
173	0xba3c2690	-0.0007177377
174	0xbc2e2adb	-0.010630335
175	0x39546fc5	0.00020259533
176	0x3bf6cf5f	0.007532045
177	0xbfa64461	-1.2989618
178	0xba5c274c	-0.00083981897
179	0xbaf13fe4	-0.0018405882
180	0xbb34ef43	-0.0027608431
181	0xbb45280d	-0.0030083687
182	0xb9bc2455	-0.00035885224
183	0xb9192ab5	-0.00014607127
184	0xbb185b89	-0.0023247919
185	0x3c27ecda	0.010249341
186	0xb96b8ec4	-0.00022464531
187	0x3b3ee99d	0.0029130944
188	0xb9c5d50e	-0.00037733506
189	0xba93cad6	-0.001127566
190	0xbb1686a8	-0.0022968445
191	0x3c9594a0	0.018259346
192	0x3b5f1cad	0.0034044192
193	0xbb513a7a	-0.0031925724
194	0x3a4b7aa9	0.0007762113
195	0xb9189c4a	-0.00014554072
196	0x3a4999fc	0.0007690487
197	0x3b31be72	0.002712157
198	0xba5c98e1	-0.0008415115
199	0xba4242a6	-0.0007410444
200	0x3bd05aaf	0.0063584666
201	0xbb2ae9c5	-0.002607928
202	0xbf4b7eb8	-0.7949023
203	0xbaf906ca	-0.0018999216
204	0xba310db0	-0.0006754054
205	0xbafe3db2	-0.0019397049
206	0x3b17f113	0.0023184463
207	0x3b108698	0.002205288
208	0xb9fb7f5d	-0.00047969344
209	0x3c2ec88f	0.010667934
210	0xbb1d8bdd	-0.0024039664
211	0x39edc126	0.0004534807
212	0xbb688ce0	-0.0035484359
213	0x3a3c08d3	0.0007172946
214	0x3b182079	0.0023212715
215	0xbb760cfd	-0.0037544363
216	0xba5f42db	-0.0008516737
217	0xb8a57bcb	-7.890871e-05
218	0x3b3b78f7	0.0028606036
219	0x3a9ed4f0	0.0012117904
220	0x3ab0714d	0.0013461501
221	0xbce77379	-0.028253304
222	0xbacf2e1e	-0.0015806591
223	0xba54ea41	-0.0008122065
224	0xb9c16d81	-0.00036893415
225	0x3a0585af	0.0005093468
226	0xbb21701a	-0.0024633468
227	0xb8d4bf00	-0.00010144524
228	0x3e64f477	0.22358881
229	0x3aacdba8	0.0013188021
230	0xb92945f8	-0.00016143161
231	0x3b1095ad	0.002206187
232	0x3f1ec5a0	0.620203
233	0xbdacc3f7	-0.08435815
234	0x3b103906	0.0022006645
235	0xb98de75e	-0.00027065998
236	0x3ab8a404	0.0014086966
237	0xb90cdc9e	-0.00013433627
238	0x3a096e81	0.00052426016
239	0x3ea2a011	0.31762746
240	0xb99936b2	-0.00029223185
241	0x3b132556	0.0022452674
242	0x3b9b2987	0.004735175
243	0x3b68de62	0.003553294
244	0xb9b8c195	-0.00035239445
245	0x3a6b0910	0.0008965889
246	0xba4e4a1c	-0.00078693195
247	0xbb6b4dee	-0.0035904604
248	0x39c5d88f	0.00037736117
249	0xb679f06a	-3.724383e-06
250	0xbb874de3	-0.004129158
251	0x3f111757	0.5667624
252	0x39215735	0.00015386644
253	0xbf067e1c	-0.5253618
254	0x3b16d69e	0.0023016105
255	0xbab80de7	-0.0014042229

8.bias f4 [10]
0	0xbe6ade30	-0.2293632
1	0x3cbf1d6a	0.023329455
2	0x3a09cc4b	0.0005256577
3	0x3e33a648	0.175439
4	0x3d751c0f	0.059841212
5	0x3e801ac9	0.25020435
6	0xbe9d6b73	-0.3074604
7	0x3eaead2a	0.3411649
8	0xbe2ff44d	-0.17183037
9	0xbe498d81	-0.19682886
