project_networks/new_sabr/mnist_cnn_3layer_k5_w2_sabr.onnx (onnx, 331989 bytes, 10 tensors)

0.weight f4 [8, 1, 5, 5]
000000 9d 16 e9 bb 77 36 93 bb 4d 5a c6 bb b5 f5 c7 bb
       -0.0071132914 -0.0044925767 -0.006053245 -0.0061022886
000010 35 12 ed bb 09 8f ee bb aa 3b ae 3a b1 d0 e0 bb
       -0.0072348365 -0.0072802347 0.0013292928 -0.0068608155
000020 b6 3c 0b bc 39 2b 20 bc e2 84 00 bc 78 70 b4 bb
       -0.008498361 -0.00977593 -0.007844182 -0.0055065714
000030 c9 27 0d bc 38 59 c4 bd 33 1e a9 bb 95 e2 0e bc
       -0.008615443 -0.095873296 -0.0051610707 -0.008721014
000040 29 20 29 3d d3 03 24 bc f3 bd 2e bc 20 62 c5 bb
       0.041290436 -0.010010677 -0.010665405 -0.0060236603
000050 81 25 01 bc dd dd f3 bb f8 40 19 bc 24 54 2a bc
       -0.007882477 -0.0074422196 -0.009353869 -0.010396037
000060 ed 14 fe bb eb b1 18 b8 69 13 f5 b7 72 19 1a 38
       -0.0077539594 -3.6405323e-05 -2.9215314e-05 3.674016e-05
000070 7b f8 16 b8 24 7d e5 b9 1f ad d2 b9 26 78 3f b8
       -3.5994202e-05 -0.0004377152 -0.00040183307 -4.5649846e-05
000080 78 9d a9 39 b4 52 61 37 9b ab 37 3f 7f dd 6c ba
       0.00032351515 1.3430301e-05 0.71746224 -0.0009035691
000090 32 76 49 b9 bf 20 0b 3a 58 32 ad 3a a9 a4 5b 3a
       -0.00019212885 0.0005307309 0.0013213856 0.0008378723
0000a0 3d 6f 4c b8 1c b7 0d b9 cb 79 f8 39 98 a9 94 39
       -4.874099e-05 -0.00013515021 0.0004739299 0.00028355117
0000b0 b1 94 b4 38 9f 0d 81 b9 cb 7f 05 3a d3 cc 82 39
       8.610765e-05 -0.00024614946 0.000509259 0.00024948138
0000c0 14 ac 1d 38 16 c7 53 39 73 dc 20 b9 67 79 50 b9
       3.7591977e-05 0.00020196693 -0.00015340913 -0.00019881652
0000d0 f6 d6 03 38 9b 71 8e b9 8d 9a f1 37 b9 0f ca 37
       3.1433032e-05 -0.00027168993 2.8801407e-05 2.4087598e-05
0000e0 dd 37 12 b8 36 2b 72 b9 3c 79 d7 b9 2e 69 d4 b9
       -3.486114e-05 -0.00023095016 -0.00041098322 -0.00040514156
0000f0 07 f9 c7 37 35 68 21 b9 5a 2e 60 b9 2b fa 9e b9
       2.3838611e-05 -0.00015392977 -0.00021379572 -0.00030322498
000100 72 10 52 b9 44 1a 00 3a 43 a5 eb 38 f4 6f 00 b9
       -0.00020033287 0.00048867264 0.000112364556 -0.00012248737
000110 2f 84 2b bf 31 fe ec 37 c6 6c 9a 38 34 1d 3a b7
       -0.6699857 2.825176e-05 7.363553e-05 -1.1093263e-05
000120 d5 45 2b bf c4 22 0d b9 44 c8 af 39 2c 50 a5 ba
       -0.6690343 -0.00013459759 0.0003352781 -0.0012612394
000130 27 b3 c3 ba 89 b3 bb bb de c6 91 bb 60 c1 39 bb
       -0.0014930711 -0.0057281894 -0.0044487556 -0.002834402
000140 43 8a 9c ba 95 c3 b5 ba 72 81 8e bb d1 19 2c bd
       -0.0011943061 -0.0013867492 -0.004348927 -0.042016808
000150 a1 0e af bb 3b b7 66 bb 15 4e 29 bb 9a 2f a6 bb
       -0.00534232 -0.0035204429 -0.0025833894 -0.0050715925
000160 f0 7b e2 bb d2 c5 9d bb 62 22 50 bb 00 33 59 bb
       -0.006911747 -0.004814842 -0.0031758775 -0.003314197
000170 a6 86 a1 bb 28 5f 98 bb 6c 6a 20 3c bb 59 62 bb
       -0.0049293814 -0.0046500154 0.009790998 -0.0034538347
000180 0c 0c 4e bb e8 08 5f bb 83 b2 6a bb cb c6 90 bb
       -0.0031440286 -0.0034032408 -0.0035811968 -0.004418229
000190 09 47 3c bc 2b 50 35 bc 03 08 5e bc 96 18 ba bc
       -0.0114915455 -0.011066477 -0.013551715 -0.022716802
0001a0 46 57 f5 bc df c9 3b bc 85 ae 27 bc fb 73 64 bc
       -0.029948842 -0.011461704 -0.01023448 -0.0139436675
0001b0 3d ec b2 bc a2 df ac 3d b7 2f 44 bc 6a d7 2c bc
       -0.021841163 0.08441092 -0.011974267 -0.010549406
0001c0 a2 e5 2d be 8c 39 a9 bc 36 12 d5 bc c2 50 11 bc
       -0.16982129 -0.020657323 -0.02600966 -0.008869352
0001d0 1c 10 c2 bb f1 43 26 bc 1f b1 5f bc f6 21 7b bc
       -0.0059223305 -0.010148034 -0.013653069 -0.015327921
0001e0 2e a6 ab bb a2 ce af bb 9c c6 05 bc 16 99 49 bc
       -0.005238316 -0.0053652087 -0.008165028 -0.012304565
0001f0 f2 a2 63 bc c1 b8 f6 b8 63 94 aa b9 9f 63 00 bb
       -0.01389383 -0.00011764607 -0.00032535483 -0.0019590629
000200 e5 81 11 b8 93 78 9b ba ce 79 9e ba 79 41 43 ba
       -3.4691668e-05 -0.0011861495 -0.0012090744 -0.0007448416
000210 a8 da ee bd f7 d7 9c bb 22 d6 95 ba 84 88 5b 39
       -0.11662799 -0.004786487 -0.0011431614 0.00020936324
000220 e8 f1 00 ba f3 4c fb bb fb 05 01 be f1 f3 8a b9
       -0.00049188593 -0.007669085 -0.12599938 -0.00026503162
000230 a6 ce f9 b9 fe fa 02 39 ac 83 d3 b8 d4 f0 20 39
       -0.00047646946 0.00012491268 -0.0001008579 0.00015348505
000240 16 7f b4 38 d4 c4 c4 37 28 b2 24 b8 42 22 54 b5
       8.6067404e-05 2.3456676e-05 -3.9266568e-05 -7.9026006e-07
000250 99 44 2d 3a 4a 9a 69 39 c2 76 6a bc 1d 69 14 bc
       0.0006609648 0.00022278089 -0.014310541 -0.009058264
000260 3c 08 10 bc 1e ba ff bb 6c be 05 bc 0d 26 3d bc
       -0.008791026 -0.0078041693 -0.008163076 -0.011544717
000270 8f b7 e1 bb 4e 61 57 bb 6f b6 d2 ba 2e b5 0f bb
       -0.006888337 -0.0032864395 -0.0016076098 -0.002192806
000280 57 e0 57 bb 93 29 2a bb ed 3d c4 ba 17 28 a8 ba
       -0.0032940113 -0.0025964722 -0.0014972069 -0.001282933
000290 c6 65 17 be 98 21 17 be 06 15 f8 bd 4c 5a fa bd
       -0.14784917 -0.14758909 -0.12113385 -0.12224254
0002a0 38 79 73 bc dc 0e 5d bc 00 69 e6 bc 47 4c 06 3e
       -0.014860444 -0.013492312 -0.02812624 0.13115035
0002b0 07 39 bd 3c c0 e6 87 3d 6f a9 b5 bc b1 4c 66 39
       0.023098482 0.06635809 -0.022175519 0.00021963079
0002c0 f1 be 03 3f 9e e3 33 ba e0 8c 40 39 76 e6 04 ba
       0.5146323 -0.0006862226 0.00018363027 -0.0005069742
0002d0 63 ce 16 3a 33 65 90 38 3a 16 41 ba 54 40 88 ba
       0.00057528 6.885305e-05 -0.0007365678 -0.0010395148
0002e0 70 3e be 38 18 b4 87 38 72 a8 3a ba be 3d 15 ba
       9.071536e-05 6.470847e-05 -0.0007120437 -0.0005693099
0002f0 30 c1 7a b9 63 17 95 b9 81 ad 73 38 b8 e1 c2 38
       -0.00023913826 -0.0002843692 5.8097303e-05 9.292684e-05
000300 26 5f 58 39 78 ee 05 ba fa a0 43 ba e1 3b 88 39
       0.00020634811 -0.0005109082 -0.0007462647 0.00025984555
000310 4c 05 cf 37 05 b2 30 39 8b 95 43 b9 97 bf ab b9
       2.467879e-05 0.00016850985 -0.00018652358 -0.00032758407

0.bias f4 [8]
000000 eb 9b 36 bd 51 3e 5e be 27 0a ed 3e 39 76 09 bc
       -0.04458229 -0.2170346 0.46296808 -0.008390003
000010 39 34 b0 bd a3 c0 c1 3d a1 12 63 be 9b 76 1f be
       -0.08603711 0.09460571 -0.22175075 -0.15572588

2.weight f4 [16, 8, 5, 5]
000000 89 88 08 b9 cc 42 e6 36 a6 dc 1d b8 0d 7f 38 ba
       -0.00013020834 6.8623103e-06 -3.763721e-05 -0.0007037975
000010 21 36 a3 b9 57 7c 35 37 d1 57 87 b9 22 05 a2 37
       -0.00031130112 1.0817391e-05 -0.00025814635 1.9314295e-05
000020 1c 91 d9 b8 2e b4 89 b3 0e 2d ef 35 78 78 90 ba
       -0.00010374395 -6.412334e-08 1.782e-06 -0.0011022231
000030 ef a9 71 ba 31 4f 39 b9 49 66 93 b7 e3 91 df 39
       -0.00092187425 -0.00017672476 -1.7571396e-05 0.0004264257
000040 3d fa 44 ba c3 5e d5 ba 0e e8 81 ba c8 87 82 35
       -0.0007514095 -0.0016278852 -0.0009911077 9.725272e-07
000050 4e f5 90 b9 b1 d4 ef b6 76 d2 91 ba 01 f6 99 ba
       -0.00027648587 -7.1475156e-06 -0.0011125344 -0.0011746289
000060 18 a0 29 37 f7 50 7e 3b e9 51 0b 3b c5 04 83 ba
       1.011046e-05 0.0038805583 0.002125854 -0.0009995928
000070 04 ca 1d 3c e2 88 ed b9 22 fa 66 c0 f3 c5 70 bf
       0.009630684 -0.00045306148 -3.609017 -0.94052047
000080 b8 5f 7c ba 45 11 ad 3b d7 87 24 b9 27 d0 8c bb
       -0.00096273003 0.0052815997 -0.00015690863 -0.0042972746
000090 43 11 a1 bf 9c ce b3 c0 df 9c 8f c0 1c fb e7 be
       -1.2583393 -5.618971 -4.4878993 -0.4530877
0000a0 3a d5 55 3a 36 5a 31 ba b7 d6 e0 ba 2e 32 76 bb
       0.00081570784 -0.00067654566 -0.0017153834 -0.003756653
0000b0 ce 6b 48 bf 5d 88 06 ba b0 0a 6c 3a 64 18 85 ba
       -0.78289497 -0.0005132014 0.0009004278 -0.0010154364
0000c0 8b 4c 3b bb 11 cf 09 bb 56 b0 0d 39 87 1e 18 b8
       -0.0028579559 -0.0021027962 0.00013512498 -3.6268055e-05
0000d0 70 11 31 b6 30 fa 04 3a be 45 2a 3a 73 1f bd b7
       -2.6385205e-06 0.0005072681 0.0006495378 -2.25452e-05
0000e0 ba db 43 b9 6a 19 86 39 c6 20 91 37 11 fc 9a 39
       -0.00018678504 0.00025577407 1.7300608e-05 0.00029560973
0000f0 45 1a a9 39 25 e4 83 39 24 88 2b b9 95 e1 4f 3a
       0.00032253764 0.00025156248 -0.00016358547 0.00079300377
000100 7b 62 73 39 3d ba 26 3a 9f a8 14 3a 9a d8 36 39
       0.00023210973 0.0006360149 0.00056708785 0.00017437563
000110 87 fa 6c c0 19 df c4 ba c7 06 1b 3a 2f 41 fe 39
       -3.702791 -0.0015020102 0.00059137907 0.0004849522
000120 93 78 23 3a e2 bc 86 38 24 b8 83 39 5f 54 09 b8
       0.00062359235 6.4248e-05 0.00025123463 -3.2741922e-05
000130 ec 46 be b9 54 72 ed 39 3d 5d 0c 3a 79 99 0d b7
       -0.00036292465 0.00045289344 0.000535447 -8.439988e-06
000140 54 ff 0d 38 67 55 02 b9 77 0f 7d b8 60 ee 57 b9
       3.3854813e-05 -0.00012429581 -6.0334303e-05 -0.000205928
000150 5a f6 84 b9 8b 54 70 38 6b 5d a7 38 fb cf b2 37
       -0.00025360548 5.7299196e-05 7.980581e-05 2.1316102e-05
000160 d5 87 03 b5 0c ea 26 37 74 88 0c 3a e4 f1 ef 39
       -4.8998965e-07 9.948864e-06 0.0005360909 0.00045765855
000170 f4 bf 4a 3a e6 36 c0 b6 85 a9 59 b9 4d 4a 33 37
       0.0007734292 -5.728437e-06 -0.00020757884 1.0686531e-05
000180 49 62 0b b7 ae e2 3f b7 40 3a cb b9 e8 b3 be 38
       -8.307929e-06 -1.1437265e-05 -0.00038762577 9.093416e-05
000190 ff db ce b9 6b 0b 86 39 1a 5a bb ba d4 50 87 b8
       -0.00039455292 0.0002556698 -0.001429382 -6.452357e-05
0001a0 97 74 89 b9 d7 9d f2 be 16 ed 5f b8 47 d9 91 bb
       -0.00026217542 -0.47386047 -5.3388147e-05 -0.0044509503
0001b0 e1 6a 9a b9 12 84 bd b9 e3 b3 e8 b8 07 b7 71 be
       -0.000294528 -0.0003614729 -0.000110961286 -0.23604976
0001c0 f3 de 22 bd df f2 d0 be 95 52 4b bb e6 23 f4 ba
       -0.039763402 -0.40810296 -0.0031024565 -0.0018626421
0001d0 a7 3f 0e 3b ad 3c 39 b7 c8 e6 b6 bd 0c ce 06 bb
       0.002170542 -1.10409865e-05 -0.08930737 -0.002056959
0001e0 35 3a ab 3a 86 30 aa b9 6e 02 9d b6 c1 9b 82 b6
       0.0013063612 -0.0003246108 -4.6792475e-06 -3.892434e-06
0001f0 b3 5a fa bb ae 85 bf 39 04 d8 6d 39 87 80 ba b8
       -0.0076402067 0.00036529958 0.00022682553 -8.893111e-05
000200 06 da 49 39 67 21 17 39 29 1c 01 3a 6f 96 9e 39
       0.00019250074 0.00014412926 0.00049251557 0.0003024819
000210 db 96 ed b6 d6 98 42 3a 5c 8e 00 3a 1e a6 99 b9
       -7.0807123e-06 0.0007423287 0.00049040257 -0.000293062
000220 62 1d cc b9 da 9d c2 38 ff ca 1e 38 d8 69 ef 39
       -0.00038931804 9.280043e-05 3.785919e-05 0.00045664492
000230 2c 47 2d b9 20 ba c5 38 0b 0f e1 b9 a7 e4 14 39
       -0.00016525079 9.4283605e-05 -0.00042926552 0.0001419956
000240 04 37 54 3a 26 a8 da 39 8e 16 da 38 fa 5b d2 b8
       0.0008095356 0.0004170548 0.00010399251 -0.00010030712
000250 d8 3a 16 ba fc 85 7b ba 68 4d 1d 37 6b ac 34 ba
       -0.00057308143 -0.00095948554 9.375952e-06 -0.00068921474
000260 2c 8d b9 b9 be c1 e4 ba 78 fd b3 ba a4 87 fd 36
       -0.0003539113 -0.0017452759 -0.0013732156 7.555778e-06
000270 44 2c 97 b9 6a 18 bf b9 3d f0 9d ba d5 6a b3 b9
       -0.00028833945 -0.0003644855 -0.0012049746 -0.00034221137
000280 65 e4 be 36 0b cc 00 b9 a6 1e 1c b8 c0 5d 2d ba
       5.68903e-06 -0.00012283043 -3.7221842e-05 -0.0006613396
000290 ae ac b3 b9 7b 67 a8 b9 76 60 cc 32 eb 1c be b6
       -0.00034270197 -0.00032120556 2.3792591e-08 -5.6658077e-06
0002a0 d2 d3 ab b9 d4 a7 0d b9 aa 57 47 b9 4d 68 13 b9
       -0.0003277348 -0.00013509329 -0.00019010776 -0.00014057868
0002b0 7e cd 80 b8 92 dd 1f bb 2d 89 c1 bd 33 f6 d2 ba
       -6.1417915e-05 -0.002439354 -0.09449992 -0.0016095102
0002c0 cf 00 81 bb f7 b1 ae ba 05 0b 34 3a a9 99 7a 3a
       -0.003936864 -0.0013328184 0.0006868097 0.00095596403
0002d0 7a d6 27 bf 07 d2 aa b9 07 ad 39 3b a6 4a 7a 3b
       -0.6556164 -0.0003258141 0.0028331892 0.0038191467
0002e0 13 b5 fa 3a 9e 6c c0 bf 39 6f 25 c0 2d 04 44 c0
       0.0019127451 -1.5033147 -2.5849135 -3.0627549
0002f0 99 51 34 c0 41 6c 93 be 3e 5f e1 bb fb 93 05 bb
       -2.8174803 -0.2879353 -0.006877809 -0.0020382393
000300 50 dd 43 3b fa 08 6e bb b1 fa 01 bf 34 95 16 bb
       0.0029886551 -0.0036321268 -0.5077315 -0.0022977116
000310 c9 9a 11 3a 43 27 8f 3a ef c8 30 3a fb 14 3b ba
       0.0005554376 0.0010921735 0.00067438086 -0.000713661
000320 1b 68 a7 ba b5 42 2f 3a f3 8b a7 3a d5 8f 50 3a
       -0.0012772115 0.00066856603 0.0012782797 0.0007956003
000330 52 dd cb 39 95 68 9b ba e4 7d a5 3a 5e b3 8c 3a
       0.00038884074 -0.0011856729 0.0012626019 0.0010734608
000340 36 95 bb 39 6b bb 16 39 dc 30 2e ba ec 61 e7 39
       0.0003577859 0.00014374933 -0.0006644854 0.0004413271
000350 bd 8b 15 3a 0e 20 a9 39 44 01 81 b7 51 68 01 bb
       0.00057047216 0.00032258074 -1.5378588e-05 -0.0019746015
000360 9d aa 95 39 14 8b 7a b9 c1 80 ab b9 3b c2 8b 39
       0.0002854661 -0.00023893669 -0.0003271159 0.0002665686
000370 3f bc 7c bb 65 85 88 ba 51 7a 57 bc ea 7d cb b9
       -0.0038564352 -0.0010415731 -0.013151721 -0.0003881299
000380 34 d7 ca b7 2c f7 bd 3a 43 3f 8e 3a 14 e0 99 3a
       -2.4180488e-05 0.0014493219 0.0010852594 0.0011739754
000390 5c c0 02 3b 20 95 5e 3a a8 4e 4a 3a fe a7 b9 39
       0.001995108 0.0008490849 0.0007717409 0.00035411114
0003a0 38 9c eb 3a 23 5f 29 3a c1 74 11 3a 21 3a 62 39
       0.0017975634 0.0006461015 0.0005548709 0.00021574694
0003b0 49 67 12 bf b5 bb 84 ba b2 47 11 3a fd f9 cd 3a
       -0.5718885 -0.0010126742 0.00055419945 0.0015714761
0003c0 c2 86 28 39 f8 21 a8 38 82 ed 23 3a d6 19 67 3a
       0.0001607193 8.0171914e-05 0.0006253348 0.00088158005
0003d0 d1 ad d5 3a 71 18 b1 3a 31 fe 8c 3a 0c 3c 00 3b
       0.0016302412 0.0013511312 0.0010756907 0.001956704
0003e0 e9 97 b8 3a 4e 10 84 3a ca 66 65 bb 11 69 e1 b9
       0.0014083359 0.001007566 -0.0035003894 -0.00042993625
0003f0 1d 11 4b b8 8f f4 61 39 2c 94 e5 39 72 9a 24 c0
       -4.841491e-05 0.00021548777 0.0004378868 -2.5719266

2.bias f4 [16]
000000 da 2c 57 3e c6 55 23 3e c5 ee 13 3e b4 f2 84 3e
       0.21013203 0.15950689 0.14446552 0.25966418
000010 05 20 86 bb be 7f 78 3e 1e 79 6a 3e e6 21 50 bc
       -0.0040931725 0.2426748 0.22897765 -0.0127033945
000020 bb ea 71 3e 9f 77 4e 3e f8 1e 55 3e 16 e5 66 3e
       0.23624699 0.2016282 0.20812595 0.22548327
000030 60 4d e1 3c 15 02 ed 3d 75 27 e0 3d 08 0e 34 3e
       0.027502716 0.11572663 0.10945026 0.17583477

4.weight f4 [16, 16, 4, 4]
000000 f4 85 bc bb 51 13 95 bb 3b d2 8d b9 0f 40 d9 38
       -0.005753273 -0.004549422 -0.0002705025 0.00010359298
000010 4c bc 82 3a bd 22 12 bb f0 d6 ec bb 38 cd e2 bb
       0.000997433 -0.0022298538 -0.007227771 -0.0069214366
000020 dc a4 e9 ba 1d 5c e8 bb 67 58 30 39 dd 1f b8 bb
       -0.0017825621 -0.007091059 0.000168176 -0.005619033
000030 7a 18 37 39 4c 8a 4a 3a cd ad 06 3b 12 f6 07 3b
       0.00017461358 0.00077262963 0.002055037 0.0020746035
000040 c5 c9 75 3b a0 e8 dc 39 71 de 30 3b d5 ae 09 bb
       0.0037504297 0.0004213499 0.0026988054 -0.002100875
000050 77 7c ae 3b e8 3e d2 ba e9 54 10 ba e9 a9 40 bb
       0.005324896 -0.0016040476 -0.00055058167 -0.002939815
000060 b1 06 ae bb 91 19 a4 bb 67 00 78 bb f7 9f bf bb
       -0.0053108563 -0.0050079306 -0.0037842037 -0.0058479267
000070 5d 09 8f ba f9 b6 c2 bb 83 54 84 bb a1 d5 fb bb
       -0.0010912825 -0.005942222 -0.004038395 -0.0076853787
000080 bd 53 8b 3b f3 f1 49 3b 4c d4 a0 3b d7 ff 52 3b
       0.0042519257 0.003081438 0.0049081203 0.003219595
000090 2c 80 82 ba fc 63 ca 39 8a f9 56 ba 5d 57 54 b9
       -0.0009956411 0.00038602937 -0.00082006364 -0.00020250441
0000a0 b4 b2 0b ba a9 1d ac ba 53 31 d0 3a f4 a4 94 39
       -0.0005329058 -0.0013131398 0.001588384 0.0002835166
0000b0 b0 5a 74 bb 73 b3 23 3b 0c f8 c9 3a ae da 55 3a
       -0.00372855 0.0024978786 0.0015409007 0.0008157891
0000c0 77 db 06 3b 16 bf 62 3b 75 13 df 3b ca ab 06 3c
       0.0020577589 0.003459876 0.0068077394 0.008219669
0000d0 fc 42 a0 bb 3a bd d8 b9 b9 0e f9 bb 3b 8f e8 b9
       -0.0048907977 -0.00041339715 -0.007600632 -0.00044357203
0000e0 75 17 31 bb 04 0a d1 ba af 41 ae bb f6 32 31 bc
       -0.0027022038 -0.001594842 -0.0053178887 -0.010815373
0000f0 c6 ec ce 3a c2 30 5e 3a 89 3a 89 39 e3 8d bb bb
       0.0015787117 0.00084758934 0.00026174288 -0.0057237013
000100 dc 70 3a 3e 24 de 00 3e 7e c0 91 3b 0f 5b 75 3b
       0.18207115 0.1258474 0.0044479957 0.0037438308
000110 c8 02 90 3e 9d 17 3a 3e 2f 7c 9e 3d db c2 38 3c
       0.28127122 0.1817307 0.0773853 0.011276926
000120 db cb 91 3e 21 8b 3e 3e 49 f1 85 3b ea d7 86 3b
       0.28475842 0.18607761 0.0040876013 0.0041150944
000130 fc 3b 7f 3e e3 d0 4f 3e 18 5c d2 3c 94 82 13 3b
       0.24925226 0.20294528 0.02567868 0.002250825
000140 7d 18 e5 bb 20 48 0f 3b ed e8 9d 3a d6 54 0c ba
       -0.0069914446 0.0021863058 0.0012047567 -0.0005353218
000150 41 6c de b9 05 2a 31 3b 3d 73 7a 3b fe 12 53 3a
       -0.00042423795 0.0027033102 0.003821566 0.0008051841
000160 7b 67 a9 ba a2 bb f5 ba 8b ca a0 bb ab 3f 62 3a
       -0.0012924516 -0.0018747936 -0.0049069575 0.0008630703
000170 1e 91 ad 38 6d d1 7a bb d0 fe e6 b8 53 ec b0 3a
       8.276313e-05 -0.00382718 -0.00011014717 0.0013498164
000180 a0 a6 bb ba 61 20 07 b9 b8 0f 44 3b 82 24 08 b9
       -0.0014316626 -0.00012886665 0.0029916596 -0.00012983571
000190 0c 74 c4 39 83 1f 1e 3a 93 0c 99 bb 40 90 a3 3b
       0.00037470495 0.00060319173 -0.0046706884 0.004991561
0001a0 bf 43 89 bc ef d3 9a 3a db 8c 83 bb 1f 9e a0 3b
       -0.016755937 0.0011812429 -0.004014594 0.004901662
0001b0 4c 82 fb b9 c1 f3 ce bc 8d 82 97 3b 64 70 ce 3b
       -0.0004797153 -0.025262715 0.004623717 0.006300019
0001c0 66 ad 49 bb 80 ea 17 bb c4 94 a1 b9 bb 8a 48 bb
       -0.003077352 -0.0023180544 -0.00030819152 -0.0030600268
0001d0 c1 0d 8a bb 4e 78 a1 bb 34 d8 01 bb 7d 27 aa ba
       -0.0042130654 -0.0049276715 -0.0019812705 -0.0012981739
0001e0 cc 07 a2 bb cd a2 a3 bb a7 46 9c ba cd 71 c6 ba
       -0.004944777 -0.0049937726 -0.0011922912 -0.0015140116
0001f0 33 16 a0 bb 81 a4 37 3a 35 74 a5 ba 76 e9 0b bb
       -0.004885459 0.0007005409 -0.0012623133 -0.002134887
000200 41 b2 45 ba f6 bd dc 3a 01 ef ef 3a ab fe 38 3b
       -0.00075415155 0.0016841281 0.0018305482 0.0028227966
000210 98 25 57 bb 3b 00 b2 ba 0d 41 82 bb 2a af 28 bc
       -0.0032828804 -0.0013580391 -0.00397504 -0.010295669
000220 b3 08 c2 bc e5 c6 68 bc d2 ec 21 be 14 dc a2 be
       -0.023685789 -0.014207576 -0.15812996 -0.3180853
000230 6e dd 0a bc e6 57 13 bd 22 eb 84 bc e7 22 96 bc
       -0.0084756445 -0.0359725 -0.016225401 -0.01832719
000240 b3 01 55 bb 67 8e 17 bb 74 24 07 bb 91 14 0c ba
       -0.0032502234 -0.002312565 -0.0020621093 -0.0005343641
000250 45 83 9b ba a4 f0 e1 ba e1 c9 f2 b8 b0 d2 0a 39
       -0.0011864683 -0.0017237854 -0.00011577062 0.00013239193
000260 85 cc c8 ba 88 82 df ba c1 71 45 ba d6 ed 93 3a
       -0.0015319741 -0.0017052451 -0.0007531904 0.0011286091
000270 e8 20 05 bd da 5f 5c bd 59 08 bd bc f0 3b bd bc
       -0.032502085 -0.05380235 -0.02307527 -0.02309987
000280 a1 a1 da bb 9e be 1d bb d0 62 88 3b 4c c7 a0 bb
       -0.0066720997 -0.0024069916 0.00416217 -0.0049065705
000290 73 2c 94 ba 4b 5b bf 3a 2b ed 71 bc cf c3 09 bd
       -0.0011304751 0.0014599351 -0.014766018 -0.033634003
0002a0 97 68 e6 bb 68 33 25 bb a1 b0 37 bc b2 77 24 bc
       -0.007031511 -0.0025207642 -0.011211545 -0.010038303
0002b0 15 bd b3 3a a4 d1 3f 3a f9 cc a2 ba b6 40 eb bb
       0.0013712967 0.00073173107 -0.0012420706 -0.007179345
0002c0 4c c7 7e bb e3 9b 1d ba 1b d0 3c ba ad 6f c8 bb
       -0.0038876114 -0.00060123036 -0.0007202641 -0.0061168284
0002d0 7a ab 02 bc 2f 7c 3c bb 81 55 5a bc 9f 8a 1c bc
       -0.0079754535 -0.0028760543 -0.01332605 -0.009554534
0002e0 19 d3 59 bb 4c 51 5c bb fa 63 67 3b 6a 3c 63 bc
       -0.0033237396 -0.0033617793 0.0035307393 -0.013869384
0002f0 f0 17 cf bb c7 58 a6 bb cd 60 6c bd 05 60 42 bc
       -0.0063199922 -0.005076501 -0.057709504 -0.011863713
000300 0f 73 05 bb a9 c6 6a bc 6d c4 76 bc 29 fe 3e bb
       -0.002036277 -0.014329591 -0.01506148 -0.002914319
000310 b3 b1 fb bc ae d5 43 bc 5b e6 c6 bb a7 69 24 bb
       -0.030724382 -0.011952801 -0.006069941 -0.0025087388
000320 05 75 9c bc a4 e7 38 bb 62 88 70 bc 53 e2 c4 39
       -0.019098768 -0.002821424 -0.014680954 0.00037552658
000330 2e a5 78 b8 29 38 5c bc 45 e4 22 39 ee 27 2f 39
       -5.9281643e-05 -0.013441124 0.00015534561 0.00016704176
000340 83 95 ba 3c 55 2d fc 3b 3e 55 03 ba 3f 5a 25 3d
       0.02277637 0.0076958337 -0.00050099555 0.04036927
000350 24 d3 13 3d a3 2f c0 3b d6 0d aa 3b 45 71 cd 3b
       0.03609003 0.0058650537 0.0051896377 0.0062696063
000360 7b 46 c9 3b 31 26 1a 3c 9e 9c b8 3b 77 8f e0 3a
       0.006142435 0.00940852 0.0056339046 0.00171326
000370 37 33 bb b9 b2 92 ef ba 82 38 9b 3a c1 e5 f2 39
       -0.00035705577 -0.0018277972 0.0011842402 0.00046329017
000380 0b 38 e3 b9 92 df b8 3b 5a c9 1a b9 72 5f 3e 3b
       -0.0004333857 0.005641886 -0.00014761594 0.002904859
000390 2a 50 c7 bd f0 e3 86 bc 59 f1 cc bb f9 2f 06 b9
       -0.09732087 -0.016466111 -0.006254357 -0.00012797107
0003a0 35 5c 95 bd 6c 3b 74 bc e1 82 5a bb a7 67 74 3a
       -0.07292978 -0.014906745 -0.003334217 0.0009323307
0003b0 49 77 23 3a b2 e3 3c 39 ec 5d 69 ba 83 d1 51 bb
       0.00062357314 0.000180139 -0.000890224 -0.0032015748
0003c0 a7 22 9f bc a5 fa c5 bc 51 0c 9f bc 97 f1 21 b9
       -0.019425703 -0.024167368 -0.019415053 -0.00015444156
0003d0 f2 d0 c3 bb 23 00 eb bb 84 b8 8d bb 68 ca 7c ba
       -0.005975836 -0.007171647 -0.0043249745 -0.0009643198
0003e0 85 3a 6c bc f5 18 3c bc 51 6e f6 38 98 e3 18 3b
       -0.014418249 -0.01148056 0.00011750742 0.0023329016
0003f0 a0 15 19 bb af 5e e4 bb 77 ef ee ba 24 f6 81 ba
       -0.0023358837 -0.006969295 -0.0018229325 -0.0009915275

4.bias f4 [16]
000000 41 3a 1a bb 52 fe 0a 3b 85 f9 08 3a d4 a4 01 bb
       -0.0023533257 0.0021208716 0.00052251696 -0.0019782083
000010 72 71 62 bc 7d b9 8b ba ae e4 f7 bb 12 92 6e 3b
       -0.013820993 -0.0010660138 -0.0075651025 0.0036402983
000020 2e ef 82 b9 56 dc 18 3e 0b 54 80 bb dd ab 31 bb
       -0.00024973735 0.14927801 -0.0039162687 -0.0027110495
000030 fd 23 83 ba 7c 30 75 3e 12 e3 16 bc 92 f6 19 bc
       -0.0010005232 0.23944277 -0.009209411 -0.009397166

7.weight f4 [128, 576]
000000 22 45 a6 3d 8b 08 84 bb 7a dc 92 3c 6b a8 87 be
       0.08118655 -0.0040293387 0.017927397 -0.2649568
000010 99 61 a7 3a bc e0 fa 3b 7b bb 87 3a 34 fc 47 3c
       0.0012770175 0.007656185 0.0010355556 0.012206126
000020 87 98 1c 3b fa 41 54 ba c6 d6 7f 3c 9f ce ec 3f
       0.0023894624 -0.00080969895 0.015615171 1.8500556
000030 09 95 3a 3c 41 77 45 bb 75 25 74 3c f0 ba 6d ba
       0.011388072 -0.0030130895 0.014901509 -0.00090686884
000040 50 7f 6a 3f e6 74 9c 3d 4a 7b 37 3c c2 f2 af bb
       0.91600513 0.07639484 0.011198828 -0.005369515
000050 af 6b 8c 3d 49 e2 0d bc 1e ee d7 b9 db 04 5c bc
       0.068564765 -0.008659908 -0.00041185407 -0.013428892
000060 7e e5 29 b8 54 4f b4 bb 60 19 0b 3c 99 77 11 bc
       -4.050647e-05 -0.0055026207 0.008489937 -0.008878612
000070 22 2f f0 bb 6e 6a 79 bb 33 fa 2f bb b0 ba 1c bb
       -0.0073298374 -0.0038057822 -0.0026852011 -0.0023914985
000080 8e 39 f2 b8 57 24 21 bb 53 9f 22 ba c8 cf 9a 3b
       -0.000115501796 -0.002458831 -0.0006203551 0.0047244765
000090 3b 3f e3 bd 87 bb 8d 3a 9b e5 b4 bd 55 0c 12 bc
       -0.11096045 0.0010813334 -0.08832856 -0.008914073
0000a0 af 5f 4e ba 01 ee 93 3b 25 bd 80 3f e1 10 00 3e
       -0.00078725343 0.0045144563 1.0057722 0.12506439
0000b0 9c 86 b4 bb 1a c8 6f 3b ea 9e 63 be 14 db 87 3e
       -0.0055092108 0.0036587776 -0.2222859 0.2653433
0000c0 d5 d9 99 3a f8 38 ae bb 37 ff fe 3a 6c a1 10 bb
       0.0011737893 -0.00531685 0.0019454722 -0.0022068871
0000d0 5f e2 5d 3c c1 c4 2c ba 79 ae 12 3b aa 88 9d bb
       0.013542741 -0.0006590598 0.0022381826 -0.0048075514
0000e0 4b a9 8a bb 8d 0f 20 bb f0 ea bb 39 a6 ad 8d 3e
       -0.004231607 -0.0024423331 0.00035842462 0.27671546
0000f0 19 45 ba bb a4 73 57 bc e7 b6 98 ba 15 6b d6 3a
       -0.0056845066 -0.0131501295 -0.0011651189 0.0016358817
000100 fb 5f cd 3b 50 c0 93 bb 66 44 0d bc 71 6d c2 3c
       0.0062675453 -0.0045090094 -0.0086222645 0.023733826
000110 87 d9 a3 3d 2d 46 d3 3b 1f 8f 60 38 3e b0 56 3c
       0.080004744 0.0064475746 5.3539054e-05 0.013103543
000120 19 18 5d bd d2 fc 20 3b c6 49 de 3b 96 5c c8 3b
       -0.05397806 0.0024564755 0.006783697 0.0061145527
000130 4a 31 3f ba 2f f0 0e bc 96 de 6f 3d 93 fc 35 3c
       -0.00072934164 -0.008724256 0.058561884 0.011107582
000140 41 bd be 3e 02 4b f0 3d 71 47 99 3c f9 65 ee 3b
       0.37253764 0.117330566 0.018710824 0.0072753397
000150 eb 9a e8 3b b5 fb 03 3b 7b 35 d4 ba 88 a9 3d ba
       0.007098546 0.0020139043 -0.0016190255 -0.000723504
000160 47 79 47 3d 89 9a 45 3b 23 7f 07 3b 91 84 f0 ba
       0.048699643 0.0030151925 0.0020675145 -0.0018350055
000170 5b 99 8e ba 02 7a 87 3b 47 ad ce 3d 8f 73 a8 3a
       -0.0010879444 0.0041344175 0.10091644 0.0012851822
000180 78 65 e2 bb 87 10 21 bc b7 72 a5 3e 8d 0e 9f 3c
       -0.0069090687 -0.009830601 0.32314083 0.019416118
000190 4d 06 a4 3c 73 33 0e bb e0 13 24 3f 66 ae e9 3b
       0.020022536 -0.0021698147 0.64092827 0.0071313856
0001a0 0a 62 79 3c 33 59 73 3d d0 3a a0 3d cf d2 a4 3a
       0.015221128 0.05941124 0.078237176 0.0012575033
0001b0 59 7f e0 bd d2 6b 12 40 72 7f 15 3e 4c f9 0a bc
       -0.1096179 2.2878308 0.14599398 -0.008482289
0001c0 ad 98 c4 ba f1 ca 39 3c 3e 9b e5 3e bb 93 89 3b
       -0.0014999114 0.011339889 0.44845003 0.004198519
0001d0 e6 4c 90 3e 5d b9 0a 3e 38 bf 83 3b 60 73 01 3e
       0.2818367 0.13547273 0.004020598 0.12641668
0001e0 61 39 c0 3c 0d 82 35 3c a9 41 fc 3a 09 6d a9 3b
       0.02346486 0.01107837 0.0019245642 0.0051704687
0001f0 ff 2e 95 3d 3c 94 31 bc ca cb ac 3d b4 2b 1b bc
       0.072843544 -0.0108385645 0.08437307 -0.009470869
000200 3c 2f bb 3e 52 8b b1 3a f1 7b 4b 3e 48 d2 c1 bb
       0.36559474 0.0013545549 0.19871499 -0.00591496
000210 33 7d bb 39 86 3b 7b bb a1 5e 1b 3f 12 14 14 39
       0.000357607 -0.003833504 0.6069127 0.00014121857
000220 24 17 43 be 0f de 05 bc 94 85 88 3d a2 ca 0f 3d
       -0.19051796 -0.008170619 0.06666103 0.035105355
000230 3e cc 57 3c c5 14 f3 3b 86 a3 89 3c e4 ae 51 3c
       0.013171254 0.0074182474 0.016801607 0.012798045
000240 0c c8 0d be 8e 68 c0 3b 87 0d 06 3b 3e 17 61 ba
       -0.13845843 0.005871839 0.002045484 -0.0008586532
000250 01 3e 34 3b da 25 dd 39 c0 31 55 3c 40 d3 90 3c
       0.0027502778 0.00042180606 0.01301235 0.017678857
000260 c5 5c b1 3c 47 ea d1 3d fc 09 34 3d 23 bc e4 3b
       0.021650681 0.10249763 0.043954834 0.0069804355
000270 c7 ef de b9 79 19 d1 3e 7f 55 66 3a 2b 67 b7 3c
       -0.00042521788 0.40839747 0.00087865436 0.022388062
000280 54 0e 19 3d a8 b4 35 3d 5b 1d 34 3f b2 d6 d6 3b
       0.03736718 0.04436174 0.7035729 0.0065563554
000290 0b 4d 2b bd 4c e2 02 3d 5c 9d 99 bb 7c 0e 65 bb
       -0.04182152 0.031954095 -0.004687948 -0.003495126
0002a0 40 a2 2c ba 59 03 04 3d 12 91 42 3e f0 b2 c3 3b
       -0.00065854564 0.032229755 0.19000652 0.0059722587
0002b0 d4 9f 20 3c 06 4e 9a 3d c8 3a 4e 3d e9 e4 14 3c
       0.009803731 0.07534413 0.050349027 0.00908778
0002c0 65 31 e0 bb 02 11 c1 3e 8a 3f 30 3f 7d 83 9e 3e
       -0.006841826 0.37708288 0.6884695 0.30959693
0002d0 a5 e1 23 be 59 60 ca bd b7 4c b7 be f1 bf dd bb
       -0.16004045 -0.09881658 -0.35800716 -0.006767266
0002e0 96 be a6 ba e5 89 a0 b8 6c 69 49 bd 21 b7 1c bc
       -0.0012721594 -7.6550794e-05 -0.049172804 -0.009565146
0002f0 c0 f5 98 3b ff b9 46 3d 60 f9 eb b9 d3 34 a9 3c
       0.0046679676 0.048517223 -0.00045008492 0.020655071
000300 f1 c2 40 3b 50 97 43 39 a6 0e b7 3e 99 f9 e2 ba
       0.002941307 0.00018653017 0.35753363 -0.0017316818
000310 ab 6e 7c 3b 3e 9f 9e bb e0 e8 6f bc 5d f0 37 3e
       0.0038518112 -0.0048407605 -0.014642924 0.17962785
000320 4e cd bf 3a 66 98 96 bc e4 e9 40 3a b2 29 98 3a
       0.0014633329 -0.018383216 0.0007359071 0.0011609106
000330 16 b9 9b 3c 6b 93 48 bb d0 89 22 3f 9f 0c 8c 3c
       0.019009154 -0.0030605446 0.63491535 0.017095862
000340 3b a9 18 bc a5 00 ec 3c 30 a9 0e bd aa d8 11 3d
       -0.009317691 0.028808901 -0.03482932 0.035607018
000350 f4 ef a1 3d ec 90 b1 bb 04 52 01 bb ec 4c 8a bd
       0.079070956 -0.0054188874 -0.0019732723 -0.06752953
000360 f9 a6 09 bd eb 52 11 3d b9 79 1d bc 96 96 e7 bb
       -0.033606503 0.035479467 -0.0096115405 -0.007067512
000370 5f 9b bc 3b 50 da d9 bb 37 55 3c 3b 8c 18 9a 3c
       0.0057558264 -0.0066483393 0.0028737315 0.018810533
000380 e2 8c f2 bb 39 e5 71 be fc 81 c2 be ac 42 57 3d
       -0.0074020484 -0.23622598 -0.37989795 0.052553818
000390 11 e9 cb be 18 c8 cf 3a 55 22 c0 39 ed 9a 1d bc
       -0.39826253 0.0015852479 0.00036646673 -0.009619457
0003a0 cf 22 cf 3c 08 e2 99 b8 2d 8b 82 bc 45 fc f8 bb
       0.025285153 -7.33771e-05 -0.015935505 -0.0075984322
0003b0 60 36 b0 bc ce c1 6c be c5 98 4d 3b 08 1d 27 3e
       -0.021510303 -0.23120806 0.0031371575 0.16319668
0003c0 77 05 0d bb 5b cc b4 bc 02 75 f6 bb 04 03 75 3c
       -0.002151815 -0.0220701 -0.0075212726 0.014954332
0003d0 35 b8 86 3b 09 92 56 3c 79 f2 1e bc f5 78 1e 3c
       0.0041113147 0.013096341 -0.009701365 0.009672393
0003e0 f8 0a fb 3d 55 46 3f 3d 39 e8 18 3d 97 06 83 bc
       0.122579515 0.046697933 0.03733084 -0.015994353
0003f0 d4 6e c2 ba 5a ec 36 bb a9 94 0c 3c a2 4a d8 b9
       -0.0014834055 -0.0027911873 0.008580365 -0.00041254336

7.bias f4 [128]
000000 9c 64 09 3e 69 19 a5 bb fe 36 d0 3e ea 41 d0 3e
       0.13417286 -0.0050384295 0.40666956 0.40675288
000010 f9 5c 26 3c 6c db 4a 3d 3a 17 27 3e 7a 91 90 3e
       0.010154002 0.049525663 0.16317454 0.2823599
000020 3e 49 7d ba b6 57 0c 3e 2a ff 82 3e 53 a1 93 be
       -0.0009662098 0.13705334 0.255853 -0.28834018
000030 f3 a7 8c ba 75 e3 83 3d 9d d9 7d be 5a a8 6c bc
       -0.0010731205 0.06439868 -0.24790044 -0.014444435
000040 a5 e4 90 3d 8d f6 95 bd 21 2d 6c 3e 66 5b 84 be
       0.070748605 -0.073224165 0.2306409 -0.2585098
000050 1f 9b 19 bc 7d 9b ca 3c 52 14 a8 bd 8c 20 cd 3c
       -0.009375363 0.024732346 -0.08207001 0.025039934
000060 d0 3f dd 3e 38 83 d1 bc e5 1e d5 3e cd c8 1a 3a
       0.43212748 -0.025575265 0.41625133 0.00059045554
000070 00 6f b0 3e aa 60 9d 3b 3b a1 bb be 11 c3 7f be
       0.34459686 0.004802783 -0.36646447 -0.24976756
000080 af 2d d2 be ac f6 40 3e 0a 28 78 3e 4c 74 1b be
       -0.4105048 0.18844098 0.24234024 -0.15181082
000090 e9 ab 30 3b c5 79 b5 3b 7d 19 96 3b ca 08 4c ba
       0.0026957935 0.0055381977 0.004580675 -0.0007783292
0000a0 57 66 d7 b9 c2 12 98 bb 08 8f 93 3e a4 ea 04 3e
       -0.00041084245 -0.004640908 0.28820062 0.12980133
0000b0 ba 51 82 be ec bc eb bd 6e 4f 69 3e 93 ae 26 bc
       -0.25452977 -0.11510643 0.22784206 -0.010173458
0000c0 6d b0 b2 3e df 1c b0 bd 9a 55 be 3d 27 e0 b8 bb
       0.34900227 -0.08599257 0.09293671 -0.0056419554
0000d0 c3 23 c1 bd bc 1c 71 ba 12 a2 54 3b 13 bb 22 3c
       -0.09430649 -0.0009197702 0.0032445234 0.009932297
0000e0 8c 4f 5e bd c1 81 84 be b9 1a e1 3d 1a ca 3a 3d
       -0.05427508 -0.25880244 0.10991425 0.045602895
0000f0 15 46 5a be b7 f2 84 3d 8b b0 9d 3b 88 56 6e 3e
       -0.21315797 0.06491607 0.0048123053 0.23275197
000100 de 3f 4a 3a 9f 23 65 3e 1e 45 ae bd f2 36 c4 3b
       0.00077152054 0.2237687 -0.08509277 0.0059879953
000110 52 43 c2 bc 06 56 07 3e 7a e3 ba bd e0 71 ca bd
       -0.023713741 0.13216409 -0.09125419 -0.09885001
000120 86 23 5d 3d 42 d7 8f be 1c 8d 7f be 06 51 e8 bc
       0.053988956 -0.28093916 -0.24956173 -0.028358947
000130 87 17 39 be da 21 8e 3d d1 ea 58 3d f6 58 b5 bd
       -0.18075381 0.069400504 0.052958313 -0.088548586
000140 10 5a 81 3d f4 31 4c bb f3 d7 fd bd 20 7d c7 ba
       0.06316006 -0.0031157704 -0.12394705 -0.0015219785
000150 1f d5 5b 3c 0e a9 9c 3b 56 8b aa 3c 57 10 62 ba
       0.013417511 0.004780895 0.020818394 -0.00086236506
000160 0c b3 94 bd c5 87 42 be ca ac b7 be 1a 24 77 3b
       -0.07260713 -0.18997104 -0.35874015 0.0037710727
000170 a2 08 6c bd 49 f5 b9 3b 35 a8 cd 3e 41 0d a0 bd
       -0.05762542 0.005674992 0.40167394 -0.07815028
000180 3e 8e 95 3e 48 b0 16 bc 75 0f 03 3c 0b eb e4 3d
       0.29210085 -0.009197302 0.007999291 0.111776434
000190 11 26 38 bb 7a 5f 8a bd e5 04 86 3b 69 ad f2 3d
       -0.0028098861 -0.06756492 0.004089939 0.118494816
0001a0 5d 4c e3 ba dd a6 f7 bc 5a 05 8a 3b 2a 24 6b bd
       -0.0017341484 -0.030230934 0.0042120637 -0.057407536
0001b0 6b 88 a8 bd 9a 82 48 be 97 00 10 3d 38 66 ad 3d
       -0.08229145 -0.1958107 0.035156813 0.08466762
0001c0 89 e5 f0 bb ba cd 24 bd 66 03 36 3e d3 09 3f be
       -0.0073515815 -0.04023526 0.17774734 -0.18656091
0001d0 a4 a5 ec be 8e 60 33 3b e8 18 5c be 23 5b 34 be
       -0.46220124 0.0027370784 -0.21493876 -0.17612891
0001e0 76 1e e3 3e c4 1f 96 3d 26 c7 24 bb f4 cf c3 3d
       0.44359177 0.073302776 -0.0025143116 0.09561148
0001f0 2d 3f 71 bb d8 61 f8 3d 1b 1b a2 bd df f1 5e ba
       -0.0036811337 0.12128037 -0.07915326 -0.00085046695

8.weight f4 [10, 128]
000000 1a 11 30 bb f7 01 ac 39 71 a9 49 3b b9 7e 16 3b
       -0.0026865662 0.0003280786 0.003077116 0.0022963716
000010 d0 cf 57 b9 7f 70 c1 3f 23 9d 39 bb 9e 23 57 3a
       -0.00020581414 1.5112456 -0.002832242 0.00082069065
000020 cb 5c 58 ba 71 5d 3c 3b 35 ae 96 39 1d cc e8 b9
       -0.00082535733 0.002874222 0.00028740024 -0.00044402565
000030 a3 4c ea 38 2a 03 19 3b 91 f8 0d ba 6b 76 0e bb
       0.00011172264 0.0023347833 -0.00054157624 -0.0021738063
000040 87 07 43 3b cd 94 f8 38 03 cc 36 39 45 6f 6d be
       0.0029759125 0.00011853278 0.00017432873 -0.23186977
000050 38 b6 d4 38 ae 14 07 ba 53 fb 55 ba e1 36 3d 3a
       0.00010142889 -0.0005152923 -0.00081627554 0.00072179554
000060 a6 f1 6e 3b 0f ac c2 38 7f dc a8 3a d1 6c d5 b9
       0.0036459952 9.282689e-05 0.0012883096 -0.000407076
000070 0e c9 3f 3b f2 d2 33 b9 f0 61 65 bb e4 e2 4b 38
       0.0029264125 -0.00017149354 -0.0035001002 4.861028e-05
000080 60 02 20 bb 26 39 65 3e 15 77 4b b8 11 27 cd bf
       -0.0024415478 0.22385082 -4.8509875e-05 -1.6027547
000090 21 33 41 ba b3 ea 69 38 6a df 03 3a 94 e8 c0 b9
       -0.00073699845 5.577011e-05 0.00050305447 -0.00036794378
0000a0 73 27 60 ba 38 04 b6 b8 f8 04 cb b9 2f b4 37 b9
       -0.00085508 -8.679222e-05 -0.0003872288 -0.00017519364
0000b0 21 30 9f ba 45 f4 b0 bf b7 eb 6f ba 84 ac 40 ba
       -0.0012145081 -1.3824545 -0.0009152251 -0.00073499256
0000c0 4c 2f ea ba f2 58 9a 3a 64 00 e6 38 0b f7 27 39
       -0.0017866879 0.0011775775 0.000109673274 0.00016018392
0000d0 a4 5d cb ba 36 d7 c0 b9 2e d4 b9 38 12 b8 95 ba
       -0.0015515578 -0.00036781438 8.861009e-05 -0.0011422655
0000e0 1c 18 98 ba 1a 99 ef bc 59 5a 8f bb 91 08 f1 ba
       -0.0011603865 -0.02924781 -0.004374784 -0.0018389394
0000f0 3b 6c 8c 38 a4 74 35 bb eb 27 02 ba 78 52 bc b9
       6.69588e-05 -0.0027687931 -0.00049650547 -0.00035919598
000100 ca 74 df 38 f9 60 fb 38 50 77 5b bb 44 60 d6 b9
       0.00010655222 0.00011986675 -0.0033487864 -0.00040888984
000110 8f ab aa ba bd 6f 2f bb e9 bb a4 3a 5f 9c 04 b9
       -0.0013021099 -0.0026769482 0.0012568209 -0.00012646754
000120 5a 44 ac 39 77 21 ef ba eb 30 55 ba 8f 29 7f b9
       0.00032857322 -0.0018244226 -0.00081325945 -0.00024334177
000130 8a 2c 14 ba 0c d7 46 3b 29 e1 54 3b 7a cb 28 3b
       -0.0005652389 0.003034058 0.0032482839 0.0025756047
000140 d6 6e cb 3a 55 8b 1b b9 a6 31 89 ba be 24 d0 b9
       0.0015520703 -0.00014833857 -0.0010467067 -0.00039700227
000150 7d dc 0e ba aa 2e 00 ba 12 1c 6d 38 17 05 63 b7
       -0.00054497254 -0.0004889766 5.6531346e-05 -1.3531439e-05
000160 91 49 bd 3a 26 59 45 3b af f5 97 39 40 12 93 b8
       0.001444148 0.003011295 0.00028984013 -7.0129056e-05
000170 c2 67 26 bb cf 4e 27 ba 7c 8e 68 3b c8 9a 31 bb
       -0.0025391434 -0.0006382288 0.0035485318 -0.0027100313
000180 c5 86 6b 3b a5 c3 46 3a c3 74 63 b8 2c 6e f6 ba
       0.0035938483 0.0007582254 -5.422976e-05 -0.0018801144
000190 55 4c 43 b9 73 79 3f 3b a1 f1 bd 38 71 9b 4b 3b
       -0.00018625085 0.0029216676 9.057229e-05 0.0031067992
0001a0 9b 6b bf 39 15 34 12 bb e5 ee b3 b9 c8 08 26 bb
       0.0003651053 -0.0022308875 -0.0003431953 -0.0025334824
0001b0 5e 4d e5 3a 6a 69 9e bf 8c 17 09 3b 47 e0 a0 39
       0.0017494371 -1.237592 0.0020918576 0.00030684678
0001c0 8f 80 42 b7 a8 70 77 3b c5 f9 83 b8 d1 df 0e 3b
       -1.15932335e-05 0.0037756357 -6.29309e-05 0.0021800885
0001d0 00 70 31 bb 27 08 b4 b8 55 e4 4b ba a7 58 e6 b9
       -0.0027074814 -8.584587e-05 -0.00077778596 -0.0004393507
0001e0 36 91 9a 3b 44 f9 d2 39 6c b3 63 3a 50 0e e6 b9
       0.0047170175 0.0004024004 0.0008686099 -0.00043879682
0001f0 50 09 1a 3a 06 8b 36 bb eb f0 1f bb db 9b ef 39
       0.00058760215 -0.002785386 -0.0024405073 0.00045701754
000200 80 4d 23 bf 69 51 c5 ba 68 4e 80 3a 33 db 02 3a
       -0.6379013 -0.0015054169 0.0009788992 0.00049917697
000210 de 66 7e 3a 8c 1b 35 bb 58 00 a6 bf aa 46 14 bb
       0.00097046595 -0.0027634827 -1.2968855 -0.0022625127
000220 c7 65 82 3a c0 07 e0 3b bd 8b 67 ba 0f e8 31 3b
       0.0009948545 0.0068368614 -0.00088327733 0.0027146374
000230 3c ff 37 ba a1 45 8a ba 17 82 1a 3b 12 ca 0c bb
       -0.0007018929 -0.0010549315 0.0023576075 -0.0021482748
000240 09 2d 94 3a 8a 39 ce 3a a6 50 85 3a 75 8f 4d 3b
       0.0011304925 0.0015733701 0.001017113 0.0031366025
000250 55 10 91 3a e5 f3 e7 39 9d f8 ae b9 1b e0 09 3a
       0.0011067489 0.0004424147 -0.00033373098 0.00052595296
000260 96 30 36 38 37 1a 18 bb b7 cc f9 3a 0e 00 d1 39
       4.343743e-05 -0.0023208985 0.0019058202 0.00039863627
000270 fb 86 1c ba aa 1b 21 3a 10 6a 70 b9 00 61 b6 3a
       -0.00059710414 0.0006145785 -0.00022927695 0.0013914406
000280 e6 f1 58 3a 29 0d 23 bb 10 29 ce 3a ba a0 5d 3b
       0.0008275792 -0.002487967 0.001572879 0.0033817724
000290 ea b9 14 3a 33 93 7e 3a 89 ed e6 ba c0 22 6c 3a
       0.00056734553 0.00097112654 -0.0017618398 0.00090078637
0002a0 07 37 42 3a ed 78 25 ba 64 40 50 bb 6d c7 fa ba
       0.00074087124 -0.000631227 -0.003177666 -0.001913292
0002b0 ab 44 46 ba 29 a4 52 3b c3 7f 05 3b 25 26 8a 3a
       -0.0007563333 0.0032141304 0.0020370341 0.0010539932
0002c0 24 4a 78 39 4e 06 49 3b 53 29 93 ba 53 75 84 ba
       0.00023678743 0.0030673924 -0.0011227526 -0.0010105766
0002d0 9c 0c 11 bd 35 49 b5 ba c3 ad c1 38 ed cf fc 3a
       -0.035412416 -0.0013831021 9.235323e-05 0.0019288041
0002e0 16 7d 84 3a 9d 40 47 3a f1 f1 ff bd 94 86 38 bb
       0.0010108079 0.00076008757 -0.124973185 -0.0028156387
0002f0 5f 2f ef ba e3 a3 30 bb 6f 49 0c 3a 90 3b 08 3b
       -0.0018248371 -0.0026953153 0.00053515186 0.0020787455
000300 b7 43 fc b9 b8 71 1c 3b 94 f0 cf ba fa 60 42 3a
       -0.00048115637 0.0023871493 -0.0015864545 0.00074149633
000310 fa 31 87 3a 17 05 b5 bf 8f fb 53 3b a7 d2 cc 3a
       0.0010314577 -1.4142178 0.0032345986 0.0015626744
000320 b8 b6 4a ba c4 d8 dc b9 4a 1d 0d 3b c8 d1 68 3a
       -0.00077329157 -0.00042123173 0.002153235 0.00088813575
000330 38 56 91 3a 26 35 2f ba 8b 74 87 39 80 2e 30 3f
       0.0011088317 -0.000668364 0.00025836038 0.68820953
000340 99 5f 23 ba 05 d2 0b 3a 54 e0 9d bd cd d6 a6 3a
       -0.00062322017 0.00053337245 -0.07708803 0.001272881
000350 28 79 b4 39 cc a1 fc 3a b8 e7 e2 37 1d de bb 3b
       0.00034422544 0.0019274293 2.7049202e-05 0.005733265
000360 30 aa 13 3b 71 8c c2 3f 69 bb 7b 38 00 36 fa 39
       0.002253186 1.5199109 6.0017603e-05 0.0004772395
000370 05 7f 78 3a 1f 99 26 3a 8b 54 18 3a 25 05 ed b9
       0.00094793766 0.0006355214 0.0005810938 -0.00045207996
000380 80 77 bf 39 5f 28 39 ba 88 7d 71 39 d1 1f 1f bb
       0.00036519393 -0.00070632057 0.00023030315 -0.0024280439
000390 e0 ef 2a 3b 70 0f 7b 3f 10 79 28 39 13 f4 e4 3a
       0.0026082918 0.9807043 0.00016066828 0.0017467759
0003a0 60 3a 71 b9 91 17 dc ba 38 cc a1 3a 90 d2 09 3a
       -0.00023005297 -0.0016791691 0.0012344187 0.00052575115
0003b0 71 9d 37 3b 9e 2e 62 3b 97 04 b1 ba 8a d6 0c b9
       0.0028017426 0.003451265 -0.0013505396 -0.00013431362
0003c0 58 eb d5 b7 24 d2 6c bb 55 f4 f2 ba dc 98 5a 3a
       -2.550117e-05 -0.0036135996 -0.0018535951 0.0008338818
0003d0 8d e1 c5 3a 14 f6 94 b9 aa 1d 29 3b d3 5d a5 3a
       0.0015097127 -0.00028412102 0.0025805035 0.0012616463
0003e0 80 d4 19 3b ea ec 3c bb 8c ac d0 ba fd 9c e4 39
       0.0023472607 -0.0028827735 -0.0015920564 0.00043604514
0003f0 e8 11 89 ba b5 c7 05 be 4a 6e 25 3b 16 70 37 ba
       -0.0010457607 -0.13064463 0.002524274 -0.0006997598

8.bias f4 [10]
000000 ba 77 86 bd ec 59 87 be 04 7c 87 3e 2e 46 30 3e
       -0.06565805 -0.26435792 0.26461804 0.17214271
000010 a3 09 9e 3d 68 fd f5 3d ce d4 1f be 00 48 b7 bd
       0.07716682 0.12011224 -0.15608522 -0.0894928
000020 88 4c 8b 3c 06 52 24 be
       0.017004266 -0.16046914
