project_networks/ensemble_models/mnist_cnn_2layer_w2_ensemble1.onnx (onnx, 682424 bytes, 16 tensors)

0/Conv.weight f4 [8, 1, 4, 4]
000000 aa 0e 61 3a 43 b5 1f 3b c1 f5 01 3b 39 e0 02 ba
       0.0008585254 0.0024369515 0.0019830319 -0.0004992518
000010 e3 30 90 3a d0 d7 4b 3f 68 c4 4d 3f ef d4 d7 39
       0.0011000898 0.7962618 0.8037782 0.00041166643
000020 07 0d c3 3a 30 09 2b ba e8 55 b9 3a 57 cd 6a 39
       0.0014881202 -0.00065245014 0.0014139982 0.00022392474
000030 7c 92 22 39 ac 23 95 bb bb 59 1d bb ab 2a a3 38
       0.00015504094 -0.0045513716 -0.0024009782 7.780393e-05
000040 47 8a 3b bb 0d 97 d2 ba 22 24 49 ba 50 5f a9 ba
       -0.0028616355 -0.0016066745 -0.0007672926 -0.0012922082
000050 96 57 01 bb e5 1c 73 ba a2 57 ab ba ac a5 13 ba
       -0.0019736043 -0.000927402 -0.0013072381 -0.0005632292
000060 7f 2e 4d ba e2 ca ca ba ef aa 97 ba 3b 44 38 b8
       -0.0007827058 -0.0015471841 -0.0011571328 -4.3932563e-05
000070 21 db 0b bb 33 58 97 bb e8 52 8b bb 04 83 26 ba
       -0.0021340328 -0.0046186685 -0.0042518266 -0.00063519203
000080 9e 92 ba be 1e 70 84 3d 18 d5 8e 3d ee 50 5f be
       -0.36439985 0.06466697 0.06974238 -0.21808216
000090 c5 ac 86 3d c6 a4 8f bd b6 b8 68 be b9 b2 5d be
       0.06575922 -0.0701385 -0.22726712 -0.21650209
0000a0 0c 69 6d bc a6 85 15 be bd 25 a7 be 54 9d f2 bd
       -0.014490377 -0.14601764 -0.3264598 -0.11846414
0000b0 2c b6 11 be 8e c6 51 bd 60 de e5 bd 98 f0 a1 3b
       -0.1422965 -0.051214747 -0.11224055 0.004942011
0000c0 51 a8 d9 bc e7 45 07 bd 78 c1 1d bd 77 84 35 bd
       -0.026569517 -0.03302565 -0.038514584 -0.04431578
0000d0 a3 a7 97 bc ed 35 09 bd f5 36 9a 3c 87 42 90 3d
       -0.018512553 -0.033498693 0.018825034 0.07043939
0000e0 b8 1e 01 bd f6 fb ef bc 5e 98 de bc 59 e3 0b bd
       -0.031523436 -0.029294949 -0.027172264 -0.034152362
0000f0 dc 01 af bd 0e 70 7f be 1b 18 22 be 00 21 87 be
       -0.085452765 -0.24945089 -0.15829508 -0.26392365
000100 67 fe 26 3b 5b 76 13 39 2a 09 3a 3a 21 31 79 39
       0.0025481225 0.00014063103 0.00070967025 0.00023764792
000110 e9 5e 00 3a 77 c1 01 3a fd a3 bd 3a d3 d2 95 39
       0.0004896955 0.0004949788 0.0014468428 0.0002857657
000120 57 2a 4b bf f6 cc 82 3a 7c 6d 48 bf 7c 4b 02 3b
       -0.7936148 0.0009979296 -0.7829206 0.0019881418
000130 1c 64 56 b8 8d 55 25 ba c1 78 09 ba 2b bc cd 3a
       -5.111481e-05 -0.00063069985 -0.0005244129 0.0015696337
000140 20 07 ab 3d 2a 66 1a bc 07 14 95 bb 04 f5 f5 bd
       0.08350968 -0.009423772 -0.0045495066 -0.12009624
000150 4f 50 ef 3d 85 93 21 bc 92 fa 02 bd 1a c7 41 bc
       0.116852395 -0.009861832 -0.031977244 -0.011827255
000160 dc fb 7b bc 08 bf 61 bc bc bc 9c bd f8 fd 0b bc
       -0.015379872 -0.013778456 -0.07653186 -0.008544438
000170 03 c8 0a 3e bf 05 65 bc 40 f7 e9 bd b8 06 ab ba
       0.13552861 -0.013978421 -0.11424112 -0.0013048267
000180 03 5d e6 b8 87 d1 dd 39 52 10 01 3b b9 2d 45 3f
       -0.000109845794 0.00042308515 0.0019693566 0.7702289
000190 60 df 18 37 4c 6b 34 39 89 59 82 3a 82 8e bf 3a
       9.111915e-06 0.00017206109 0.0009944896 0.0014614614
0001a0 b2 a4 c2 b7 9d 8e 15 3a ed c1 09 39 a6 ff 63 b9
       -2.3203294e-05 0.000570515 0.00013137581 -0.00021743643
0001b0 88 44 30 3a 53 d1 6a ba fa 39 7e ba 9a 66 23 3a
       0.0006724079 -0.00089575833 -0.000969797 0.00062332454
0001c0 96 cd f4 b6 29 09 f6 bd 9f 6b 5b bc 54 71 b9 bd
       -7.2957e-06 -0.12013466 -0.013392358 -0.09054819
0001d0 84 84 c3 bd 13 40 08 3d 31 43 79 be 00 4e d4 bd
       -0.0954676 0.03326423 -0.24342038 -0.1036644
0001e0 06 98 55 3d 1a de 71 bd f7 45 2f be 74 6d 00 be
       0.052146934 -0.059049703 -0.17116533 -0.12541753
0001f0 28 8e 43 bc d8 b9 55 bd ba a8 9b 3c 98 5c ed 3c
       -0.011935748 -0.052179188 0.019001354 0.028974816

0/Conv.bias f4 [8]
000000 f3 74 fd be c8 25 54 bb 4b 20 53 be b7 df b6 bd
       -0.49503288 -0.0032371152 -0.20617788 -0.08929389
000010 2c 7c 08 3f 6c 22 ac be 24 0c 70 be 16 93 e9 bd
       0.5331447 -0.33620012 -0.23442131 -0.114050075

2/Conv.weight f4 [16, 8, 4, 4]
000000 b7 1a 8c bd 10 f0 84 be ac 01 a0 b9 df b6 0f 3a
       -0.06841033 -0.25964403 -0.00030518824 0.0005482267
000010 f3 20 36 bf d1 c4 09 bc f5 e4 48 b9 df 4b 39 39
       -0.71144027 -0.008408741 -0.0001915878 0.00017671239
000020 04 1e 0f bf fa 6b 75 39 a0 91 fc 39 06 fc c4 39
       -0.55905175 0.00023405245 0.00048173685 0.00037571805
000030 c3 13 2a bb 37 a6 11 3a f1 c6 73 3a 12 b3 28 38
       -0.002595172 0.0005556079 0.0009299359 4.0221094e-05
000040 46 50 80 37 b5 0a 4d b8 01 c1 97 b6 f8 b3 6e be
       1.529617e-05 -4.888578e-05 -4.5226193e-06 -0.2331084
000050 94 dc f9 b8 9e d5 74 37 b5 1f af be b4 9a fd bd
       -0.00011914331 1.459327e-05 -0.34203878 -0.12383023
000060 4c 3b d2 b7 8b 48 01 b9 ff 7d 70 bd 24 ad 88 b8
       -2.5061563e-05 -0.00012329423 -0.05871391 -6.517235e-05
000070 c3 ce c1 37 36 a9 c3 b8 ea 10 26 36 bf 07 26 b7
       2.3103674e-05 -9.3298426e-05 2.4745773e-06 -9.896175e-06
000080 91 2e 35 3a 84 49 1a be 55 1b 0b be 5d dc 18 b9
       0.0006911541 -0.15067106 -0.13584645 -0.00014577941
000090 64 36 b2 bc 2b 0f cf be 98 9a 9f bd 29 01 12 3a
       -0.021754451 -0.4044126 -0.07793158 0.0005569631
0000a0 be 0a d2 bd df fd a1 b9 89 6e db ba c7 c5 4e 39
       -0.10255955 -0.00030897462 -0.0016741316 0.00019719369
0000b0 8f fb 15 3e d5 f5 b1 3b cb 07 a7 ba bf 33 04 bc
       0.14646743 0.005430917 -0.0012743411 -0.008068978
0000c0 29 1f 07 b7 84 1c 82 b8 eb cf ca b7 95 e8 84 ba
       -8.053882e-06 -6.2041945e-05 -2.4177096e-05 -0.0010140116
0000d0 cf c1 c6 bd 1b 5e 75 ba 91 92 d7 b5 fb 03 5b b9
       -0.09704935 -0.0009360031 -1.6061405e-06 -0.0002088695
0000e0 35 05 c2 ba 12 56 82 39 f7 27 16 b8 ec 42 08 b9
       -0.0014802577 0.0002485966 -3.5800007e-05 -0.00012994901
0000f0 40 1c 15 39 d3 f9 52 ba 1b 47 92 b8 cd d5 3e b8
       0.00014220271 -0.0008048091 -6.975067e-05 -4.5498648e-05
000100 49 08 bf b8 39 1b 68 39 fd 1b a6 b8 96 20 d0 b9
       -9.109133e-05 0.00022135385 -7.92071e-05 -0.0003969713
000110 7c 12 3b 39 59 5c b1 38 41 af a9 39 00 ab 5e c0
       0.00017840596 8.457219e-05 0.00032364766 -3.479187
000120 a5 7a 3a 39 79 3a b6 b9 33 21 21 39 f6 47 c3 b9
       0.00017784031 -0.0003475731 0.00015366524 -0.00037246913
000130 f6 9d 27 38 53 56 95 b8 cd b6 24 b8 65 11 5b ba
       3.9963015e-05 -7.120953e-05 -3.9270893e-05 -0.0008356779
000140 84 d3 4b 37 50 0a 2e bb c9 99 8c b8 e2 a2 41 39
       1.214899e-05 -0.002655644 -6.704365e-05 0.00018466593
000150 2d 2b 33 b7 5a 27 fc be 29 fc 28 b9 f1 03 25 b7
       -1.0679284e-05 -0.49248773 -0.00016115665 -9.835684e-06
000160 f6 d3 70 be 7b a9 cc be fc bb 6c b7 9f 4a 37 b9
       -0.23518357 -0.39973053 -1.4110465e-05 -0.00017480039
000170 4e 9d 63 b9 25 e4 bd b7 0c 60 9b 3a 08 5a 3c ba
       -0.00021707008 -2.2636794e-05 0.0011854186 -0.00071850466
000180 9d 2b 2b bf 86 d0 0d bc 6a 3e 32 3a 85 1e 06 38
       -0.66863424 -0.008655673 0.00067994616 3.1976513e-05
000190 40 9c b7 c0 c3 99 8a ba 3b 53 eb 3a a4 8e d3 39
       -5.7378235 -0.0010574389 0.0017953882 0.00040351332
0001a0 a0 1b 61 bf 35 19 eb 39 5a c6 dd 39 ee a6 21 ba
       -0.8793278 0.00044841474 0.00042300188 -0.0006166537
0001b0 99 1e 3e ba f4 82 a9 3a bd 09 77 38 51 76 b9 b8
       -0.0007252484 0.0012932704 5.889846e-05 -8.8435256e-05
0001c0 37 62 77 bc 6a c9 16 be 9c a1 4b be 17 61 3e 3e
       -0.0150991 -0.14725271 -0.19885868 0.18591724
0001d0 5f 7d 30 bd a3 8c 6a bd b4 3e 2b 3d 39 7e e6 bd
       -0.043088313 -0.057263028 0.041807845 -0.11254544
0001e0 51 4a c7 bd b2 69 1f be 1a a8 05 be 18 0c 1c bd
       -0.097309716 -0.15567663 -0.13052407 -0.03809747
0001f0 92 3d a1 3d 4a e1 25 3e ff 06 41 be 05 1c 0b be
       0.07873072 0.16199222 -0.18850325 -0.13584907
000200 8f a3 5a be 4b 47 c7 bc 8f c1 c1 bc 99 bf 2f bc
       -0.21351455 -0.024325987 -0.023651866 -0.010726833
000210 cd ba e0 bc f5 40 a6 bc 35 88 a5 bc 29 47 75 bc
       -0.027432824 -0.020294646 -0.02020655 -0.014970579
000220 07 b6 2d bc 95 99 6d bc bd 32 ec bb 5b 17 8f bf
       -0.010602481 -0.014501949 -0.007208197 -1.1179003
000230 bf bf ff bb 3f fc 8c bc e0 15 68 bf 62 c7 cb be
       -0.0078048403 -0.017210124 -0.9065838 -0.39800555
000240 e6 b9 13 38 b4 8a 84 be 3b d5 69 be b4 93 c8 b7
       3.5220663e-05 -0.25887072 -0.22835247 -2.3910638e-05
000250 88 2b dd bd dd 57 a3 bd cf 55 19 3d c3 01 17 b8
       -0.107993186 -0.07975743 0.03743535 -3.6002846e-05
000260 ef 2a 86 b8 db 94 21 3e c4 1c 38 39 3e 1b d4 37
       -6.397615e-05 0.1577944 0.00017558323 2.5285055e-05
000270 49 27 e6 3b 64 99 8d 36 b6 8e af 37 7c 1a 54 39
       0.007023726 4.2199845e-06 2.092808e-05 0.00020227762
000280 4d 74 47 bb 0a 02 ad be c8 94 af b8 99 4a 6f bb
       -0.003043431 -0.33790618 -8.372363e-05 -0.003651297
000290 b5 f3 d0 be b7 27 4e 3d 82 22 0e 3b 8a f4 38 bb
       -0.40810934 0.050330844 0.0021688049 -0.0028221929
0002a0 40 07 4f 3a ba c8 06 b9 c5 a3 3e b8 d9 0c b3 be
       0.00078975037 -0.00012854012 -4.5452052e-05 -0.3497074
0002b0 67 f0 e2 b9 ae 92 d9 b7 a5 6a 26 bd 89 fc 9b bc
       -0.00043285193 -2.5936719e-05 -0.040629048 -0.019041317
0002c0 43 45 bc b9 48 96 24 bf 4a f2 90 ba 63 14 0f 3a
       -0.00035909758 -0.6429181 -0.0011058536 0.0005458055
0002d0 86 ac a9 b8 63 0f de b7 ce 4b 05 b8 7d 0d 24 be
       -8.090683e-05 -2.6471627e-05 -3.178027e-05 -0.1602077
0002e0 eb 6a 96 b8 ee 82 76 b9 06 18 5a bc b8 bc bc bd
       -7.1724724e-05 -0.00023509163 -0.013311392 -0.09215683
0002f0 c3 af 23 b6 b1 35 3f b9 83 74 ad be c1 07 a0 b9
       -2.43912e-06 -0.00018235181 -0.33877954 -0.00030523355
000300 62 8d f9 bb 3a a2 a3 bb ed 29 c5 bf cd d0 b2 bc
       -0.007615731 -0.004993704 -1.540342 -0.02182808
000310 6d c7 dd bc 96 4b d1 bf ae 5b 85 bb cf bf 94 bc
       -0.027072633 -1.6351192 -0.004069767 -0.018157868
000320 34 c4 55 bc e8 c7 e2 bc 9a b7 89 bc 1d bb 94 bc
       -0.013047267 -0.027683213 -0.01681118 -0.018155629
000330 8c 58 cd bb 16 7a 9b bb 3e a0 b8 bb 32 12 fe bb
       -0.006266659 -0.0047447784 -0.0056343367 -0.007753634
000340 d4 89 97 bb ad fa 72 ba ee 8e 92 b8 04 95 cd b8
       -0.0046245847 -0.0009268921 -6.988445e-05 -9.802918e-05
000350 13 f0 22 be 79 ae 8b b7 49 70 c7 b7 85 75 80 37
       -0.15911894 -1.6651336e-05 -2.3774935e-05 1.5313513e-05
000360 63 be a3 b8 84 4e 14 39 30 e6 c1 39 17 ad 7b bd
       -7.807908e-05 0.00014143629 0.00036983332 -0.06144437
000370 eb 99 c5 39 c6 24 10 39 f2 2d 9e b5 7a 98 10 be
       0.00037689446 0.0001374661 -1.1785289e-06 -0.14120665
000380 4f 82 30 bc 81 3c cf bc e1 8f 8b bc cc e2 28 bc
       -0.0107732555 -0.025297405 -0.01703638 -0.010307979
000390 95 f1 f9 bc ff 5c 6c bc cf e8 95 bc 78 64 4b bf
       -0.030510703 -0.014426469 -0.018299488 -0.7945018
0003a0 fc dd 79 bc 84 78 be bc 29 1c 06 bf 9e 7b dd bf
       -0.015250679 -0.023250826 -0.5238672 -1.730335
0003b0 af 5f 5b bc 0a e6 ee bd 7e 11 0e c0 e2 a6 49 bf
       -0.013389512 -0.1166497 -2.2198176 -0.7877027
0003c0 63 a3 2c bd 8c cd b4 bd 3f 5c a5 bc 04 18 44 bd
       -0.042148005 -0.088282675 -0.020185588 -0.047874466
0003d0 0e 97 92 bd 1a 4e b8 bd 2c e9 82 bd 86 d3 cd bc
       -0.07157718 -0.08999272 -0.0639213 -0.025125276
0003e0 2d 91 a4 bd 25 0c a9 3d 81 0c 0d be ec b3 5b be
       -0.080355026 0.082542695 -0.13774301 -0.21455353
0003f0 e0 56 f1 3d 86 05 e4 bd d2 09 1b be a1 e4 0d be
       0.11784148 -0.11133866 -0.15140465 -0.13856746

2/Conv.bias f4 [16]
000000 14 58 36 3e 84 1e 31 3b 47 15 14 bc 6d 51 c9 bd
       0.17807037 0.0027026245 -0.009038276 -0.09829984
000010 a8 18 5c bd 8f fe 26 3e ba 91 38 be 4f ce 2b 3e
       -0.05373445 0.16308044 -0.1802434 0.16777919
000020 63 6d 9a bd e3 96 be bd 42 09 b8 bd a3 6a 2d bd
       -0.07540395 -0.09306123 -0.08986141 -0.042338025
000030 d4 57 d0 bd 7d fa 3e bc 28 28 b3 3b 78 e3 45 3b
       -0.10173002 -0.011656401 0.0054674335 0.0030195396

5/Gemm.weight f4 [128, 784]
000000 a6 8c c5 3c 8d 37 8a bb db 15 12 3c 25 1b 8b be
       0.024114918 -0.004218048 0.008916344 -0.27169147
000010 6a 0c f6 bb da 13 aa bb db 50 71 bc ce 9f 9c bc
       -0.007508804 -0.005190355 -0.01472875 -0.01911917
000020 33 3a 9f 3b d0 b7 b8 3a 2e a2 8e 3d cb ba 18 bb
       0.004859233 0.0014092866 0.06964527 -0.0023304697
000030 96 ca 4b bc ba 69 d8 b8 3d 1c 1b be a3 56 e0 be
       -0.012438437 -0.00010319376 -0.15147491 -0.438161
000040 12 e2 2d bb ab f3 9e 3f c0 d2 19 bd 61 50 c9 bd
       -0.0026532453 1.2418112 -0.037554502 -0.09829784
000050 3b a0 f8 3b 18 f7 8e bd f7 24 4b bf 47 53 1b bb
       0.0075874603 -0.06980723 -0.7935328 -0.002370076
000060 f3 96 52 3d 16 eb 8c bf 84 50 23 bb 3a a5 db bb
       0.051413488 -1.1009243 -0.0024919817 -0.006703046
000070 f6 c2 df be 63 1e f4 be 0c d2 75 3e 5e 86 1f b9
       -0.4370343 -0.47679433 0.24005908 -0.00015213477
000080 b1 d7 7a bb a6 d1 04 3c 77 46 1b bc 6d 9d 08 bd
       -0.0038275535 0.008106625 -0.009477249 -0.033353258
000090 77 78 13 bc 02 bf 55 3e 50 2c 42 ba 8d 4e 8e 3c
       -0.009000889 0.20873645 -0.0007407116 0.01737144
0000a0 db d1 96 3d a0 70 17 bc 10 fb c7 bc b4 ac 7a bf
       0.073642455 -0.0092431605 -0.024411708 -0.97919774
0000b0 26 0c c0 bd a2 d7 89 be cb 7c 17 bf d9 c0 d7 3b
       -0.09377317 -0.26922327 -0.59174794 0.0065842685
0000c0 fb d8 98 bc 0e 6b c9 ba f9 17 ce 3c 0d 87 bf 3b
       -0.018658152 -0.0015366988 0.025157915 0.0058449567
0000d0 e2 95 28 bc c5 72 ce bb 64 0d 8b bb c1 8c 3a bb
       -0.010289641 -0.0063003027 -0.0042435396 -0.0028465244
0000e0 f0 43 96 3d 80 a2 4f be 1c 2d b7 bb 79 d7 1d bf
       0.07337177 -0.20276833 -0.0055900943 -0.6165691
0000f0 c0 5d ae b7 68 bc cc be c6 7d ae be 84 a3 a2 bc
       -2.0786072e-05 -0.39987493 -0.34080333 -0.019853361
000100 1c 7a 7a be 91 d9 0a bc 15 90 cf be d1 8a 34 b6
       -0.24460644 -0.008474723 -0.40539613 -2.6902892e-06
000110 02 1c 2c bf 5c 0b 4a be 4a 07 74 bd 86 d3 50 be
       -0.67230237 -0.19730896 -0.059577264 -0.2039319
000120 11 84 1c bc 47 ed 93 b6 9e a7 b7 be b6 01 aa 3b
       -0.009552971 -4.408564e-06 -0.3587007 0.0051881922
000130 4e 68 d1 bd 83 01 bc bc fb db 1d bd b2 e7 55 ba
       -0.10224973 -0.02294994 -0.038539868 -0.00081598305
000140 4c 96 1d b7 91 40 c6 bf 2a 41 00 bd e8 40 07 bd
       -9.392923e-06 -1.5488454 -0.031312145 -0.033020884
000150 b4 48 99 bd 95 86 bf bc 8b 84 4a b8 42 95 92 b7
       -0.0748457 -0.023379603 -4.8283993e-05 -1.747406e-05
000160 8b 1f 62 bf d1 1f dc bc 7d 02 37 ba 4c 10 23 bd
       -0.8832938 -0.02687064 -0.0006981267 -0.039810464
000170 53 61 79 bc 5f cd a7 bc b9 99 57 38 cc 82 18 bf
       -0.015220958 -0.02048367 5.140316e-05 -0.5957458
000180 a7 b3 9b bd 1b 1f 3b 3c c7 7f 9c bc ff b6 9f 3a
       -0.07602625 0.01142099 -0.019103898 0.0012185274
000190 2e 38 50 bd 7a d1 e3 bc f6 a1 ec bc e8 87 b9 ba
       -0.050834827 -0.027809847 -0.028885823 -0.0014154883
0001a0 61 bc 16 3c 8b f6 e5 3d 08 45 bb 3b 13 23 1b c0
       0.0092001865 0.11228665 0.0057150163 -2.4240158
0001b0 7e d9 96 bf b7 81 33 be db b8 6d be 54 ea 82 bf
       -1.1785123 -0.17529951 -0.23215048 -1.0227761
0001c0 85 f7 cc 3c 90 db 82 bd a7 cb 11 bf 23 c3 2e bf
       0.02502037 -0.063895345 -0.56951374 -0.68266505
0001d0 c1 24 02 c0 82 ca 70 bf bf f0 ca bf 0f 70 09 3e
       -2.0334933 -0.94059 -1.585472 0.13421653
0001e0 ed 39 b6 be c0 8c 13 bf a3 52 14 bb f0 0a 3e bc
       -0.3559107 -0.5763664 -0.0022632263 -0.011599287
0001f0 45 e6 44 be 57 34 36 bb 76 cd f6 bb c3 dc e3 be
       -0.19228466 -0.0027802193 -0.007531817 -0.44504365
000200 9b 01 fd bb cf e7 b0 bc 08 03 69 bc 01 dd ca be
       -0.0077211387 -0.02159491 -0.014221914 -0.39621738
000210 1f f3 93 3c 49 b0 9f 3c bc fb 06 c0 22 da d2 ba
       0.018060265 0.019493239 -2.1091146 -0.0016086737
000220 d0 5f 43 b9 a2 df 8b bc 37 62 04 bf 2f 5a a7 3d
       -0.00018632342 -0.01707441 -0.51712364 0.08171498
000230 98 cc fc bb 06 5f d6 bf f3 f8 65 bb e6 25 83 3b
       -0.007714819 -1.6747749 -0.0035091012 0.0040023206
000240 fc fa 87 bd 48 58 fc be cb 86 57 3c 19 f6 83 3c
       -0.06639668 -0.49286103 0.013154696 0.01610856
000250 54 46 29 be 42 6a 6b be fa db 93 bd 78 02 85 bc
       -0.16530734 -0.22989753 -0.072196916 -0.016236529
000260 f2 3e a3 b8 66 74 5f 3d 39 f9 bd 3d 7d 54 d0 bc
       -7.78417e-05 0.054554366 0.09276051 -0.025430912
000270 91 00 72 be 3c ea 25 bd 8a 12 77 3d 79 28 a4 bd
       -0.23633029 -0.040506586 0.060320415 -0.08015532
000280 ad 69 81 ba 7e e0 08 3e 83 0e 16 bd ec aa 02 be
       -0.0009873413 0.13366887 -0.036634933 -0.12760514
000290 04 1f 9d bd a6 3a 39 3d db da 8f 3c c0 29 44 be
       -0.076719314 0.045221947 0.017560413 -0.19156551
0002a0 e3 68 33 3d 1f 97 a2 3d 7c 24 b0 bd 98 27 7a 3d
       0.0438012 0.0793898 -0.08600709 0.061072916
0002b0 14 75 c0 bc 43 5b b9 3c de d4 d4 bd 2f f5 10 be
       -0.023493327 0.022626525 -0.10392164 -0.1415603
0002c0 b1 3b 64 bd 95 03 ff bd 7d 69 a8 3c 08 7b 9e 3d
       -0.05572099 -0.12451855 0.020558113 0.0773831
0002d0 9a 43 05 bd 57 f7 2c be b8 45 77 bc ea d8 4f be
       -0.032535173 -0.16891228 -0.015092306 -0.2029759
0002e0 b7 1c 2f bd a9 8c 0a 3d a5 f7 aa bd 6e d5 dd bd
       -0.042751994 0.03382555 -0.08348016 -0.10831724
0002f0 9d 17 85 bd 46 5c e5 3b ae fd 2c be e5 f5 3d be
       -0.064986445 0.0069995252 -0.16893646 -0.18550833
000300 02 d6 bb be ba f8 f8 3c 1e 1d f9 bd 02 fb 0f 3c
       -0.36686713 0.03039204 -0.12163757 0.008787872
000310 0a e5 6f bc 95 eb 1a be 95 df bf bd 10 d6 62 be
       -0.0146420095 -0.1512893 -0.09368817 -0.22151971
000320 03 ad 23 be ec fb c8 3c db f8 93 3d 61 b3 78 3d
       -0.15983967 0.024534188 0.072252 0.060717944
000330 50 da 02 be e3 be 8d be d1 dd e1 be f0 b3 ec bd
       -0.12778592 -0.27684698 -0.44114545 -0.11557758
000340 c1 5c 33 bd 33 f1 df b9 46 9a c5 bc 65 95 11 be
       -0.04378963 -0.00042713582 -0.024121415 -0.14217146
000350 01 ba 03 be 06 38 41 be 38 8c 70 bd f8 58 9a 3d
       -0.12863924 -0.18869027 -0.058727473 0.07536501
000360 d7 94 00 be 99 79 65 3d 2e c0 d2 bb 12 0a bb 3d
       -0.12556778 0.056024168 -0.006431601 0.0913278
000370 c9 38 86 3d 9b 45 8a bd a0 1d ed 3c c5 a8 fb bd
       0.065538 -0.067515574 0.02894479 -0.122880496
000380 c6 17 30 bd 55 1c 3f bd 19 76 46 bd 7d 26 07 be
       -0.042991422 -0.04665788 -0.04845247 -0.13198276
000390 ea 0b b4 3d b4 f2 01 3c df 55 16 be 0a ad 0a be
       0.08791335 0.0079314 -0.14681195 -0.13542572
0003a0 70 12 1b be 61 1e 94 3b 8f 92 09 be 95 8e a3 bc
       -0.15143752 0.004520223 -0.13434814 -0.01996545
0003b0 2e 06 f0 39 ca a8 87 3c 11 5f 76 3d 95 8e 58 be
       0.0004578097 0.016559977 0.060149256 -0.2114814
0003c0 a9 73 82 3e 26 7c fb bc 60 60 6a bc d0 77 a7 3d
       0.25478867 -0.030698847 -0.014305204 0.08177149
0003d0 65 29 ee 3d 76 12 80 bc 0a 08 13 bc 45 b8 c4 3b
       0.11628989 -0.015633803 -0.008974085 0.006003412
0003e0 41 1f 40 be 52 3d 49 bb e7 5f 5b 3d af a8 28 bc
       -0.18761922 -0.0030706716 0.053558256 -0.010294124
0003f0 42 1a 2c bc 2b fb 6f 3c bf 99 6d bc 97 8b 1f bf
       -0.010504307 0.014647285 -0.014501988 -0.6232237

5/Gemm.bias f4 [128]
000000 c1 50 a3 bd 3a 76 70 bd 87 75 b6 bd 6e 7e db bd
       -0.07974387 -0.0587065 -0.08909135 -0.10717474
000010 27 b3 d9 bd fd d1 b8 bd 4a d1 c2 3d f3 82 f8 bd
       -0.10629874 -0.09024427 0.09512575 -0.121343516
000020 9a 61 a2 bd cc 2d d0 bd 11 5a 0e bd e7 8d 2d be
       -0.07928772 -0.10164985 -0.034753863 -0.16948663
000030 45 99 9c bd df c9 89 bd 3a ad 40 be 5f 4f 99 bd
       -0.07646421 -0.06727957 -0.1881608 -0.07485842
000040 e9 c6 aa bd 16 11 b7 bd aa a3 f8 bd 4c 93 f7 bd
       -0.0833872 -0.08938806 -0.121405914 -0.120886415
000050 b0 5b fa bd 62 d3 c1 bd 42 e3 ff bd c3 94 10 be
       -0.12224519 -0.09464146 -0.12494518 -0.14119248
000060 26 ba 2e bd aa dd 9b bd 66 34 cd bd 50 03 0b be
       -0.042657994 -0.076106384 -0.1001976 -0.13575482
000070 2c df 63 bd de bf 86 bd 41 95 0e be 71 34 0c be
       -0.055632755 -0.065795645 -0.13924123 -0.1369188
000080 f8 f8 04 be 45 c1 f0 bd 00 49 ba bd d7 71 8b 3c
       -0.12985599 -0.11755613 -0.09095955 0.017022057
000090 27 05 eb bd 4d 5f fb bd 90 b8 c2 bd 41 a0 57 bd
       -0.11475592 -0.122740366 -0.09507859 -0.052643064
0000a0 9d 7c b0 bd ac 2d 1c be 49 5d b7 bd c7 01 b8 bd
       -0.08617518 -0.15251797 -0.089533396 -0.08984714
0000b0 2f 7b 46 bd 78 58 b2 bd 61 3c dd bd b2 d9 80 bd
       -0.04845732 -0.0870828 -0.10802532 -0.06291522
0000c0 ee 02 88 bd 4f b1 db bd 3f 88 13 be 04 ac f8 bd
       -0.06641184 -0.10727178 -0.14407443 -0.121421844
0000d0 26 6b 11 be ce 4e 8e bd 72 fe 9e bd 63 cb 49 bd
       -0.1420103 -0.069486246 -0.07763375 -0.04926623
0000e0 fd 11 1e be f8 17 bf bd 32 99 15 be 6d 8e 00 be
       -0.1543655 -0.093307436 -0.1460922 -0.12554331
0000f0 b2 4b 25 bd 82 fa 87 bd da cb de bd 15 bd d3 bd
       -0.04035539 -0.066395774 -0.10878725 -0.10338799
000100 e9 4f bc bc 8a e9 0d be 91 47 32 be 12 30 e5 bd
       -0.022987323 -0.1385862 -0.17410113 -0.11190809
000110 b9 03 42 3a fa 5f 72 3c 25 4d b0 bd 4e 7f 81 bd
       0.00074010674 0.01479339 -0.08608464 -0.063231096
000120 aa a7 1a 3e 69 65 4f be c2 3e 1c 3e 9d ef e1 bd
       0.15103021 -0.20253529 0.15258315 -0.11032031
000130 76 36 06 be 81 a5 05 be 16 e6 88 bd e2 2b 9c bd
       -0.13106713 -0.13051416 -0.066845104 -0.076255575
000140 29 23 69 3e d6 0a 00 be 83 38 b2 bd 98 c1 96 bd
       0.22767319 -0.12504134 -0.08702185 -0.07361144
000150 92 ec c5 bd b9 fd cf bd 9c be 05 be ee b1 fb bd
       -0.09664263 -0.10155816 -0.13060993 -0.12289797
000160 47 c3 61 bd ce 14 9f bd b2 fb 1c be 51 29 b3 bd
       -0.05511787 -0.0776764 -0.15330389 -0.08748115
000170 10 67 15 3d de 60 ae bd b7 58 a4 bd 16 8f 08 be
       0.03647524 -0.0851457 -0.080247335 -0.13335833
000180 0d e4 8d bd a7 d7 69 bd 8d ab 3e bd 0a 10 09 be
       -0.06928263 -0.057090428 -0.046550322 -0.13385025
000190 50 19 2f be d5 fe 0e bc 35 13 11 be 4e 82 89 3c
       -0.170995 -0.008727749 -0.14167483 0.016785767
0001a0 b0 a8 a0 bd 9b d3 87 bd cf 5e d7 bd 0d 28 0e 3d
       -0.078446746 -0.066321574 -0.1051613 0.034706164
0001b0 ef 63 b6 bd 5a 45 52 bc ee f0 2c 3c 9e 6a bd bd
       -0.089057796 -0.0128339175 0.010555489 -0.09248851
0001c0 f4 ab 27 be 1b 42 96 bc 7b c5 6a 3c d9 a3 9d bd
       -0.16374189 -0.018342068 0.01432931 -0.07697267
0001d0 54 d2 0b be 7f 93 b6 bd 6b 23 f7 bd d3 13 17 bc
       -0.13654453 -0.089148514 -0.12067302 -0.009221035
0001e0 24 a6 11 be ce aa 2a be df e7 80 3d 61 b8 c1 bd
       -0.14223534 -0.1666672 0.06294226 -0.094589956
0001f0 62 b5 ff bd 53 41 cd bd d3 67 0f be 90 22 64 bd
       -0.12485768 -0.10022225 -0.1400445 -0.055697024

7/Gemm.weight f4 [128, 128]
000000 5c e3 48 be 64 f1 22 be bf 4c 02 bc 80 eb 58 3d
       -0.1961798 -0.15912396 -0.007952868 0.052958965
000010 f3 af 9a 3d 86 6a 71 3d f2 1a bd bd c0 1b c5 bb
       0.07553091 0.05893948 -0.09233655 -0.006015271
000020 28 16 39 be 06 e8 3a 3e f4 86 d6 be f4 0a 02 3e
       -0.18074858 0.18252572 -0.41899836 0.12699491
000030 ec 68 97 be 0f 6a 0f be f0 18 1e be ab dd 88 bd
       -0.29572237 -0.14005302 -0.154392 -0.06682905
000040 cc 3d 5b be dc d6 5d be ef f7 1f bd 47 e2 41 3d
       -0.21410292 -0.21663994 -0.039054807 0.047334936
000050 c1 ad 92 3e 4e fc c9 bd 65 ba 12 3e e1 f5 9c 3c
       0.2864819 -0.098625764 0.14328916 0.019160213
000060 dc f5 a1 bd c5 cb 20 3c 8a 8c cc bd 57 4c 0f bd
       -0.07908222 0.009814207 -0.09987743 -0.034984913
000070 87 87 7a be f7 74 04 be 89 e8 85 3d 83 4a 8f bd
       -0.24465762 -0.12935244 0.06538493 -0.06996634
000080 1a 0a d8 bc e7 98 b0 bb ca 55 11 bd f2 fe b9 bd
       -0.026372004 -0.005389321 -0.035482205 -0.0908183
000090 fc a6 c5 3d ff d7 4b 3e 67 bf a0 3d 72 42 aa bd
       0.0965099 0.19906615 0.07849007 -0.08313455
0000a0 0f 44 87 bd 70 45 66 3a 67 df d2 bc f7 89 d5 bc
       -0.06604778 0.00087841507 -0.025741292 -0.026066763
0000b0 5c eb 93 3c 4b f8 29 ba e6 1d 94 bd f1 15 41 3d
       0.018056564 -0.0006483837 -0.07232265 0.047140066
0000c0 5f 8f cc bd 82 f7 89 be 53 68 a8 3c 84 d2 15 bd
       -0.09988283 -0.26946646 0.020557558 -0.036577716
0000d0 59 fb 9f bd 70 b4 16 be 0b 90 04 bc 3a aa c5 bd
       -0.07811613 -0.14717269 -0.008090983 -0.09651609
0000e0 82 10 73 3c 82 8d 44 3d 3a 01 eb 3c 05 7e 97 3d
       0.014835479 0.047986515 0.028687108 0.07397083
0000f0 2a f0 1b 3e 71 35 14 b8 84 8c cf bc 9e fc 1f bc
       0.15228334 -3.533572e-05 -0.025335558 -0.0097648185
000100 c8 6d 26 3c 05 57 6b 3d c4 e4 78 3c f3 16 8b bb
       0.01015801 0.057456035 0.015191261 -0.004244679
000110 6f d6 df bc fc dc 59 be 31 67 b2 bd f6 fc 7c bd
       -0.02732393 -0.21275705 -0.087110884 -0.06176468
000120 1d 40 9c 3d 89 e6 08 3e de b5 62 be fc d3 b2 3d
       0.07629416 0.13369192 -0.2213969 0.08731839
000130 44 24 8e bc fb 42 87 be 70 c6 e8 bc d3 20 35 3d
       -0.017351277 -0.2641829 -0.028414935 0.044220757
000140 1a aa 16 be e9 79 d5 3d ef a1 3c be 2d 32 05 bc
       -0.14713326 0.10423643 -0.18421148 -0.008129639
000150 41 bb 29 be 5d 07 37 be b3 50 03 3e ed 3c 5c bd
       -0.16575338 -0.17873903 0.12823753 -0.05376904
000160 20 ca 62 be ef a4 67 bd 52 34 0f bd 8d d0 25 bd
       -0.22147417 -0.056553777 -0.034962006 -0.040482093
000170 6d b3 07 bd 16 bb 27 bd 8d dd d6 3d ae 9f 62 bd
       -0.033130098 -0.040949903 0.10491476 -0.055328064
000180 ce 0c da 3d 9d 5c e4 3d 33 b8 bb bd aa 80 01 3e
       0.106469736 0.11150477 -0.091659926 0.12646738
000190 e3 60 9a bd ae b9 aa bc 2a f5 5b bd fc 99 2d bd
       -0.07538011 -0.020840492 -0.053700604 -0.04238318
0001a0 2e 7d 22 be 7a e6 8e bd 7f 10 5a bd 42 a6 05 3d
       -0.15868065 -0.06977554 -0.05323839 0.03262926
0001b0 c8 40 50 bd 71 52 c9 bd e0 b6 26 bd 47 62 64 bb
       -0.05084303 -0.098301776 -0.040701747 -0.0034848617
0001c0 23 19 42 3d 16 52 36 be bb 74 dc bc 82 ea 06 3d
       0.047387253 -0.17804751 -0.02691113 0.032938488
0001d0 dd fd 0f bd c5 34 bf bc 72 7a 89 3d 93 6d f5 bc
       -0.035154212 -0.023340592 0.06712808 -0.029959476
0001e0 bc 57 f3 b9 3c 20 a2 be e6 10 3d 3c 03 cf 20 3d
       -0.0004641394 -0.31665218 0.011539673 0.03925992
0001f0 ef 1b cc bd b7 c3 2c 3c 77 ac 71 3d 88 60 e6 bd
       -0.099662654 0.010544709 0.059002366 -0.112488806
000200 96 36 42 be 42 81 64 be eb bd 90 bc 55 b7 e5 3d
       -0.18966135 -0.22314933 -0.017668685 0.112166084
000210 8b f0 5d be bc 70 2d be 5e f8 f2 bd a4 32 ee bc
       -0.21673791 -0.16937536 -0.118637785 -0.029076882
000220 28 53 1f bd 89 bd 55 bc 7d d4 38 be 14 30 e2 bd
       -0.038897663 -0.013045677 -0.18049808 -0.110443264
000230 2b e6 e6 bb c7 ea b2 3d 6c 85 d4 3c 64 dc 3b 3d
       -0.007046481 0.087361865 0.025942527 0.045864478
000240 f9 90 9d bd 97 a0 38 be 83 db 2a bc ae e1 8b bd
       -0.07693667 -0.1803001 -0.010428312 -0.06830154
000250 31 61 46 3d 2e b1 a4 bd b9 87 95 bd 0d be 1f be
       0.048432533 -0.08041607 -0.07301278 -0.15599842
000260 da 83 be bd 79 95 ec 3c fc 81 81 3c cc 6f 7b be
       -0.093024924 0.028879868 0.015809052 -0.24554366
000270 ca 87 0c be 47 42 18 bc ec e9 87 bd 91 38 64 be
       -0.13723674 -0.0092931455 -0.06636414 -0.22287203
000280 b7 70 2f be 6c 2d a9 3d 79 79 5e be 66 3a 2b be
       -0.17132841 0.08260617 -0.21726026 -0.16721496
000290 a9 7a 30 bd bf a2 16 be 45 bc 24 be 31 0c f8 bd
       -0.043085728 -0.1471052 -0.16087444 -0.121117
0002a0 59 10 12 be 03 b9 8d be 9b e0 3f be 98 a9 2d bd
       -0.14264049 -0.27680215 -0.18738024 -0.042398065
0002b0 5c 5a 35 be 14 31 ae be 50 3b de bd e5 89 19 be
       -0.1771025 -0.3402182 -0.10851157 -0.14994009
0002c0 c1 27 17 be 32 97 9c bd f7 0f 32 be cf dc c2 bd
       -0.14761259 -0.07646026 -0.17388903 -0.09514772
0002d0 7c 1f 46 3c 40 15 18 be 12 f3 86 bd dc 0d 17 be
       0.012092467 -0.14851856 -0.06589331 -0.1475138
0002e0 92 84 88 be 78 41 1e bd 64 02 36 be 5c 43 82 3c
       -0.26663643 -0.038636655 -0.1777435 0.01590126
0002f0 89 25 7c 3d 41 bb 1d bd 46 6a 3b be 76 22 da 3b
       0.061559234 -0.038508657 -0.18302259 0.00665694
000300 54 b0 3d be cf b2 53 be 97 10 d4 bc 1d 77 a0 bb
       -0.18524295 -0.20673679 -0.025886817 -0.004897012
000310 65 c2 21 3d 9e 31 46 be a5 7a 07 3d 87 94 3e be
       0.03949203 -0.19354865 0.033075947 -0.18611346
000320 6f 81 81 bd b5 c2 6a be a9 b5 78 3d 86 79 16 3e
       -0.063235156 -0.22925837 0.06072012 0.14694795
000330 f9 e9 94 be 68 5b b9 bd 79 b3 71 be 42 31 8d bd
       -0.29084757 -0.090506375 -0.2360362 -0.06894161
000340 ce 33 1d be b3 07 f9 bd 9e d2 26 be c5 c6 0e be
       -0.15351793 -0.12159672 -0.16291282 -0.13943012
000350 91 96 16 be 2a a9 31 be 52 da 3c 3d 46 23 e5 bd
       -0.14705874 -0.17349687 0.046106644 -0.111883685
000360 1e c7 0c 3c f4 44 5f be 03 df c9 3d b2 0b cb bd
       0.008592395 -0.21803647 0.09856989 -0.0991434
000370 00 3a 10 3d d2 66 66 bd 0e a9 fa 3c 1d 65 67 be
       0.035211563 -0.0562504 0.03059819 -0.22597165
000380 ce 73 99 be 1f 03 4b be fe d6 cd bd e2 df 10 3d
       -0.29971164 -0.1982541 -0.10050772 0.03536976
000390 66 0e 8f bc 95 8e 87 be e4 33 fb 3c 06 f2 2d bd
       -0.01746292 -0.2647597 0.030664392 -0.04246714
0003a0 4c 67 70 be 9d 79 48 be a2 4f 2a bd fa aa 0d 3e
       -0.23476905 -0.19577642 -0.04157985 0.13834754
0003b0 52 57 41 be 36 df cd bd ca 75 2a be 62 4c 0b be
       -0.18880966 -0.1005234 -0.16646495 -0.13603356
0003c0 56 f3 21 bd 9d 49 5e be 8d de a0 3d f0 ed 73 bc
       -0.039538704 -0.21707769 0.07854948 -0.014888272
0003d0 0b 00 69 bc 75 48 6e be 79 fd d2 bd 39 eb a5 bd
       -0.014221202 -0.23269828 -0.10302252 -0.08101506
0003e0 e0 29 a2 bd 17 87 4c 3d be 39 41 bc 67 50 e9 bc
       -0.07918143 0.04993352 -0.011793552 -0.028480722
0003f0 27 2b 18 bd 36 11 f4 bd df 63 70 be 41 88 2d be
       -0.03715053 -0.11917345 -0.23475598 -0.16946508

7/Gemm.bias f4 [128]
000000 5f 4e 17 be 84 e0 65 be 3d 8f e5 bd 20 ff 23 be
       -0.1477599 -0.22448927 -0.11208961 -0.16015291
000010 04 73 1b be aa d5 de bd c9 d5 05 be f8 37 95 ba
       -0.15180594 -0.10880597 -0.13069834 -0.0011384478
000020 89 98 3a be b4 44 cd bd f3 1f 57 be 6b 0f e4 bd
       -0.1822225 -0.1002287 -0.21008281 -0.11135753
000030 63 5b 3f be 8a 6f 0d be 00 0b 27 be 06 b4 54 be
       -0.18687205 -0.1381208 -0.1631279 -0.20771798
000040 c1 52 5c 3e 6b d1 ad bd 2c 86 52 be 79 49 7e 3e
       0.21515943 -0.08487209 -0.20558995 0.24832715
000050 88 93 13 be 23 44 2c be 18 4f 1a be 69 ec 3f be
       -0.14411747 -0.16822867 -0.15069234 -0.18742527
000060 01 67 37 be fb 9b 1b be 63 3a e5 bd 35 cf 5d be
       -0.17910387 -0.1519622 -0.11192777 -0.21661074
000070 ba d8 1c be 91 f7 24 be e9 28 b9 bd b1 03 1d be
       -0.1531705 -0.16110064 -0.09041006 -0.1533344
000080 4b 15 b2 bd d9 30 44 be 50 44 81 be 7e 26 0e be
       -0.086954676 -0.19159259 -0.2524743 -0.13881871
000090 8b cf 05 be d3 36 e1 bd ed 42 0f be 56 08 1a be
       -0.13067453 -0.10996785 -0.13990374 -0.15042242
0000a0 2d 3b 52 be f9 9d 69 be fb 52 3c be e4 87 39 be
       -0.20530386 -0.22814168 -0.1839103 -0.18118244
0000b0 5c 98 1c be 73 d3 57 be 92 7e ff 3c ff ba 28 be
       -0.15292495 -0.21076755 0.031188283 -0.16477583
0000c0 ee 1a 1d be 57 fd 5e be ae 94 03 be 93 a0 8f be
       -0.15342304 -0.21776329 -0.12849686 -0.28052196
0000d0 90 66 0e be d5 ac 11 be f4 37 ee bd a5 19 3b be
       -0.13906312 -0.14226086 -0.11631766 -0.18271501
0000e0 be 25 39 be ce c5 5c be 5a 6c e1 bd 2e a0 42 be
       -0.18080804 -0.21559832 -0.110069945 -0.19006416
0000f0 ec 58 49 be 1b 11 b6 bd df e3 2b be 9c b9 03 be
       -0.19662827 -0.08889981 -0.16786145 -0.12863773
000100 8f 54 05 be 00 54 f4 bd 0d ff 0b be 90 a0 97 bd
       -0.13020538 -0.11930084 -0.13671513 -0.07403672
000110 a8 fb 18 be 52 2f 7c be ee 5a e8 bd c0 ed 31 be
       -0.14939749 -0.24627426 -0.113454685 -0.1737585
000120 af 91 b3 bd 72 10 2a 3e e7 35 1e be fa 1f 7c b9
       -0.08768021 0.16607836 -0.1545025 -0.00024044505
000130 04 10 2b be f5 75 ee bd 6e 37 2e be 65 ee 06 be
       -0.16705328 -0.11643592 -0.17013332 -0.13176878
000140 10 d8 55 be a1 76 33 be 46 61 df bd a3 98 a3 bd
       -0.20883203 -0.17525722 -0.10907225 -0.079880975
000150 07 35 28 be 6b 4a 29 be 6e a5 15 be c5 83 3f be
       -0.16426478 -0.16532294 -0.14613888 -0.1870261
000160 a0 42 45 be 19 e2 3e be 50 77 24 be d4 72 8c bd
       -0.19263697 -0.18640937 -0.16061139 -0.06857839
000170 94 12 24 be d1 08 07 be be 3d 20 be c8 2a 2a be
       -0.16022712 -0.13186957 -0.15648553 -0.16617882
000180 03 91 be bd 9f e2 15 be 72 98 17 be 4b a3 7f be
       -0.093050025 -0.1463723 -0.14804247 -0.24964635
000190 0b d2 fe bd 31 9e 0e be 5a bb 4e be 5f 21 1d be
       -0.12442406 -0.13927533 -0.20188656 -0.15344761
0001a0 de 9f 3f be 3b 45 e5 bd 99 7f f8 bd 83 c0 5a be
       -0.18713328 -0.11194845 -0.12133712 -0.213625
0001b0 1a d0 29 be 8d 0e e6 bd 56 9b 2a be 3a 44 13 be
       -0.1658329 -0.11233244 -0.16660818 -0.14381495
0001c0 6f 65 d1 bd ec 93 3d be d2 28 23 be af 08 78 be
       -0.10224425 -0.18513459 -0.1593354 -0.24222063
0001d0 7b c9 31 be 5f 55 8c bd 16 8d 42 be e9 fc 25 be
       -0.17362015 -0.06852221 -0.18999133 -0.16209759
0001e0 b7 16 31 be 16 b1 fd bd a0 cc 0c be f3 ea 12 be
       -0.17293821 -0.12387292 -0.13749933 -0.14347439
0001f0 b6 5d 84 be 44 f8 37 be 3f 96 17 be 43 f8 f8 bd
       -0.25852746 -0.179658 -0.14803408 -0.12156727

9/Gemm.weight f4 [128, 128]
000000 cb c3 0a bd 6e 4f 10 3c 58 0c e1 3d 39 fd 93 bb
       -0.03387813 0.008808 0.109886825 -0.0045162705
000010 2f 3f d6 bc da 79 27 bb 9c e0 f5 3d 2f 1c 86 bb
       -0.026153175 -0.0025554807 0.120057315 -0.004092715
000020 60 bb bc bd 90 96 82 be a1 06 33 3d 5c 6f d8 bc
       -0.092154264 -0.25505495 0.043707494 -0.026420288
000030 4e 92 14 bd df 83 b7 3d ef de a5 bd 22 f8 97 b8
       -0.03627234 0.08960699 -0.08099162 -7.2464594e-05
000040 2f fa 51 3a e9 af fe 3c 1e f2 64 3d 53 64 42 3a
       0.00080099975 0.03108974 0.055894963 0.0007415462
000050 45 f9 28 bd 75 90 b4 3a c4 7c a3 3d 42 7b de bc
       -0.041253347 0.0013775962 0.079827815 -0.027158383
000060 93 3f 2c 3e f2 9a dc 3d bb fb 06 be b3 c2 f2 3b
       0.16821127 0.10771741 -0.13181965 0.007408464
000070 da 22 98 3d b5 0e 25 3d 30 02 1c be 23 a4 2b be
       0.074285224 0.04029723 -0.1523521 -0.16761832
000080 44 99 27 bd 6f be aa 3b e9 98 db b8 89 4d d7 bd
       -0.04091765 0.0052106897 -0.000104712155 -0.105128355
000090 4b 1a 73 3c b5 5d 4d 3d 43 11 48 bd ac 6a 39 be
       0.014837812 0.050138194 -0.048844587 -0.18107098
0000a0 59 a5 45 3b ea b3 2c b8 f4 7d 47 bc ad a8 9c bd
       0.003015837 -4.1175554e-05 -0.012176026 -0.0764936
0000b0 c0 98 3e 3d 74 4e 16 3d f5 36 02 c0 0f 02 f1 3d
       0.046532393 0.036695912 -2.0346043 0.11767971
0000c0 4a d4 0d be 46 a6 df 3d 61 89 b7 bd 84 b7 77 3c
       -0.13850513 0.10920386 -0.0896175 0.015119437
0000d0 78 3c 02 3d 36 51 17 bc 62 62 8d be 8e 8d e8 3a
       0.03179595 -0.009235671 -0.27614123 0.0017742382
0000e0 8a 93 dd 3d ad b6 95 3d 52 a1 ad bd 4e 7a 15 3e
       0.108191565 0.07310233 -0.08478035 0.14597437
0000f0 75 f8 e1 3b 84 b3 2c be f0 a6 ac 3c cb 6f 65 be
       0.0068960735 -0.16865355 0.021075696 -0.22405927
000100 87 2f 03 3a f6 57 13 3e 78 a0 5a bc e7 bd 89 3c
       0.00050043355 0.14389023 -0.013343923 0.016814185
000110 83 6d 57 be 3b fe 8d 3e 35 74 00 3d 7a 07 ff bd
       -0.21037869 0.27733025 0.031360824 -0.12452598
000120 0d 40 1d be cd 90 2c ba f4 42 88 bc 48 71 3b b9
       -0.15356465 -0.00065828563 -0.016633488 -0.0001787591
000130 16 14 bb bc 54 cb 1b be a9 8f f6 3d 0f 50 86 bd
       -0.022836726 -0.15214282 0.1203912 -0.06558239
000140 a1 d1 8b 3e 5c 9a 49 bd 2b 91 e3 bc b7 04 90 bc
       0.27308372 -0.049219474 -0.027779182 -0.017580373
000150 b0 03 96 3d 48 51 14 3d 75 92 5a 3e 34 b7 23 3c
       0.07324922 0.03621033 0.21344931 0.0099924095
000160 e2 81 99 3d 82 9e 12 3d 58 db f8 bd ec dd 1e bd
       0.07495476 0.035795696 -0.121512115 -0.03878586
000170 10 f6 59 bd 97 35 42 3c 25 a0 2d bc ad 6d 34 3d
       -0.05321318 0.011853597 -0.010597263 0.044049907
000180 71 a6 bb bd db 88 af 3d 04 8c ae bd af 3e 96 bc
       -0.091626056 0.08571025 -0.085227996 -0.018340437
000190 b8 6a f6 bd f0 4a 43 b7 e0 56 02 3e c8 a6 ff 3d
       -0.12032074 -1.16403535e-05 0.12728453 0.12482983
0001a0 62 e5 74 3e d8 7d c4 3c 63 80 46 be f0 3c d6 b9
       0.23915628 0.023985788 -0.19384913 -0.00040862663
0001b0 dc e2 04 ba 12 ab 13 be 74 b3 7f 3c 60 94 c6 3c
       -0.0005069205 -0.14420727 0.01560675 0.024240673
0001c0 c4 d2 82 36 0e 16 15 3d 01 cc 68 be fd ed 8a 3c
       3.8988383e-06 0.036397986 -0.22734071 0.016959185
0001d0 c0 3d 9c 3c e0 51 d8 3d f0 d4 a6 3c f9 65 89 b8
       0.019072413 0.105624914 0.020365208 -6.551663e-05
0001e0 57 d6 aa 3c a0 18 9f bc 40 3b 68 be 55 f7 9f bc
       0.020854158 -0.019420922 -0.22678852 -0.019527117
0001f0 cd 74 1e be a3 40 bd 3b c4 41 1e 3d 18 d9 01 bd
       -0.15474243 0.0057755276 0.038636938 -0.031701177
000200 08 e6 4b bd 47 38 14 be a7 b0 02 3d bc ec c9 bd
       -0.04977992 -0.14474593 0.03190675 -0.098596066
000210 69 fb 12 bd d6 49 64 be 9c 6c cd bd 12 82 9d bd
       -0.035884295 -0.22293791 -0.10030481 -0.076908246
000220 e0 45 27 be 5e de 0e bd df 9f 11 bd 96 80 1f be
       -0.16335249 -0.034880035 -0.035552856 -0.15576395
000230 84 6f 5c 3d df ff e2 3c ba a8 b4 3d ea f0 26 be
       0.053817287 0.0277099 0.088212445 -0.16302839
000240 28 28 6c bd 93 a4 62 be ba 65 cd bd 74 4d 5a be
       -0.057655483 -0.22133093 -0.100291684 -0.21318609
000250 08 e1 07 bd 7d 78 f1 bc 69 31 39 3d 59 48 12 bd
       -0.03317359 -0.029476399 0.045213137 -0.035713527
000260 ad 61 0c be c1 0c 64 3d 1c 1c 74 bb 6e 42 c7 bd
       -0.13709135 0.055676226 -0.00372482 -0.09729467
000270 e4 c7 5d be 36 db 12 3d 7f 76 05 3d c6 88 90 bd
       -0.21658283 0.035853587 0.03258371 -0.070573375
000280 02 19 aa bd 29 4e 18 be 7d f0 1b be 45 07 c4 bc
       -0.08305551 -0.14873566 -0.15228458 -0.023929248
000290 6b c9 73 bd 0d 73 37 bc ec 6d 25 bd 49 7c 30 be
       -0.05951826 -0.011196864 -0.040388033 -0.17234911
0002a0 d6 0e fb bc 13 b2 86 bd dc 7b f6 bc 6d 24 4d be
       -0.030646723 -0.06576934 -0.030088358 -0.20033427
0002b0 f1 cd c6 bd 04 9c 2d bd 85 ef dc bc 49 a3 d2 bc
       -0.09707249 -0.042385116 -0.02696968 -0.025712626
0002c0 5b ba 44 bd 58 37 36 bd 27 c3 08 bd 9b 9d 19 be
       -0.048029285 -0.044486374 -0.033389237 -0.15001528
0002d0 32 43 0a bd a9 d9 0a bc ea ac d6 bd 64 1a 51 be
       -0.03375549 -0.008474746 -0.104821995 -0.20420223
0002e0 ed b1 fa bc a7 c8 ed 3c b9 70 1f bd 9a b6 2b bd
       -0.03060242 0.029026343 -0.03892586 -0.04192219
0002f0 cb 5c cb bd 14 eb 05 be 04 36 3e bd b8 9a f4 bc
       -0.09929808 -0.13077956 -0.046438232 -0.029858932
000300 73 67 d4 bd 21 64 4c 3d d5 81 fb bd 8a d5 3d be
       -0.10371294 0.049900178 -0.12280623 -0.1853849
000310 9f 68 22 bd 5f 53 48 be 01 e1 0a be db 90 1b 3e
       -0.039650556 -0.19563054 -0.13562395 0.15191977
000320 57 33 f3 bb 31 46 c0 bd 6d 3c e1 bb 6b 16 e2 bd
       -0.0074218917 -0.09388388 -0.0068736584 -0.11039432
000330 76 ef f5 bd fa cf 71 bc 81 4d a1 bd 4f 53 e2 bd
       -0.12008564 -0.014759058 -0.07876111 -0.11051046
000340 b4 a8 18 3e af b5 11 be 04 39 61 be 27 4c 1c bd
       0.14908105 -0.14229463 -0.21994406 -0.038158562
000350 30 7a 88 bc 92 1a ac bd bb 62 39 be e9 10 1e be
       -0.016659826 -0.084035054 -0.18104069 -0.15436138
000360 33 05 62 be eb 02 6a 3d a2 9e 1b be 77 00 a4 3c
       -0.22072296 0.05713169 -0.15197232 0.020019753
000370 50 8f 80 bd 55 01 71 be 78 3e b4 bd 2a 10 52 bd
       -0.06277335 -0.23535664 -0.088009775 -0.051284947
000380 12 f0 1c be ee a0 fb bc 8c 4c 28 be 6b 40 98 bd
       -0.15325955 -0.030716386 -0.1643545 -0.07434162
000390 3f ee 04 be 3f 1d a9 bb f0 e4 b2 3c d0 d0 2d 3d
       -0.12981509 -0.005160957 0.021837682 0.042435467
0003a0 7d e9 63 3d 13 a7 79 3d de e4 18 bd 02 7f 29 be
       0.055642594 0.06095035 -0.03732764 -0.16552356
0003b0 9d 63 54 bd 88 6c f5 bd f8 d5 cd bd e6 9c c6 bc
       -0.05185281 -0.11983591 -0.10050577 -0.024244737
0003c0 16 78 d1 bd 17 c5 d4 3c 68 5e 45 be a6 74 34 bd
       -0.10227983 0.025972886 -0.19274294 -0.044056557
0003d0 0c 27 f1 bc 57 85 29 bc 6b 95 76 bd 58 a8 7b 3d
       -0.029437564 -0.010346732 -0.06020109 0.061439842
0003e0 6b c8 e3 bd 2f 34 1b 3d 10 65 01 3c 2d ed 13 3d
       -0.11122211 0.037891563 0.00789763 0.03611486
0003f0 ed cc 0f bd cd ff 9e 3c f2 50 0a be 14 af bd bb
       -0.03510754 0.019409085 -0.1350744 -0.005788693

9/Gemm.bias f4 [128]
000000 ef 16 ae 3d ac 62 36 be f5 04 7f bd 80 97 b7 bd
       0.08500468 -0.17811078 -0.062260587 -0.08964443
000010 e2 ab 2d be a2 f6 3c bd 5d ea 70 be 91 02 f4 bd
       -0.169601 -0.046133645 -0.23526902 -0.11914552
000020 25 86 32 be f1 28 37 be 79 e3 58 bd 9f d5 f3 bd
       -0.17433985 -0.17886712 -0.05295131 -0.11905979
000030 0d 6e 1a be da 23 03 3e 5b 53 b0 bd f9 df 54 be
       -0.15081044 0.12806645 -0.08609649 -0.20788564
000040 82 c9 0f be 04 b0 36 be 1c ec a1 3e 68 b0 d0 bd
       -0.14041713 -0.17840582 0.3162545 -0.10189897
000050 6c 43 f1 3e 91 16 7b bd 86 ae 58 bd 98 92 de ba
       0.4712175 -0.061300818 -0.052900814 -0.0016980944
000060 53 e1 bf bd 7a 2c 1a be 95 4e 9d bd 80 a3 a5 ba
       -0.09369149 -0.15056029 -0.07681004 -0.0012637228
000070 f3 36 e9 bd 8a fc 53 be b0 ec 48 be 66 91 87 3e
       -0.11387434 -0.20701805 -0.19621539 0.26478118
000080 7b 01 4a be bf 5b 15 bd 4f 7a 0b 3e 99 99 10 be
       -0.19727127 -0.03646445 0.13620876 -0.14121093
000090 6c cf 0a be 2b a5 03 bc a4 34 4a be b2 8d ed be
       -0.13555688 -0.008034985 -0.19746643 -0.46397167
0000a0 be 6b 8e be 1c 60 c3 bd 43 34 64 be 56 fe 98 bd
       -0.27816576 -0.09539816 -0.22285561 -0.07470386
0000b0 49 c4 37 bd 75 5b 93 ba e2 58 f6 bd 3a 44 22 be
       -0.044864926 -0.0011242466 -0.12028672 -0.15846339
0000c0 4a 61 08 be 5c f3 5c b8 98 17 a5 bd 85 c6 a4 3d
       -0.13318363 -5.2678733e-05 -0.08061141 0.08045677
0000d0 1f 65 1b be f7 70 2a be 5e 80 ac bd bc 7f 23 be
       -0.15175293 -0.16644655 -0.084229216 -0.15966696
0000e0 31 3e 1b be 7a 15 1f be 61 29 06 be d7 ff 3a be
       -0.15160443 -0.15535536 -0.13101722 -0.18261658
0000f0 9e 55 fd bd 8a cb be bd a2 a1 ba bd 5c cc 46 be
       -0.12369846 -0.09316166 -0.0911286 -0.19413894
000100 fc 6a 55 be 77 20 bd 3e 1d bc fe bd 77 5d 01 be
       -0.20841593 0.3693883 -0.124382235 -0.1263331
000110 1a ea 9e 3e 7d 9e 2d be 55 cf c6 bd 3a 71 36 be
       0.3103798 -0.1695499 -0.09707514 -0.1781663
000120 96 4e fd bd 05 51 88 be dd cc bb bd e3 7b 3b bd
       -0.12368505 -0.26624313 -0.09169934 -0.045772444
000130 74 34 8c be 9c 7f cf bd ed 60 86 be 4a a8 fd bd
       -0.2738377 -0.101317614 -0.26245824 -0.12385614
000140 11 a8 47 be b4 0c b6 3e c1 16 af 3e ff 1a cb 3e
       -0.19497706 0.35556567 0.34197047 0.39669034
000150 b9 c5 63 bd 46 6d 5a be 10 d0 6c bd e3 3b a4 3d
       -0.055608485 -0.21330747 -0.05781561 0.08019235
000160 8b 01 da bd 6d 9d 01 be 0e 42 06 be d0 07 59 be
       -0.106448255 -0.1265771 -0.13111135 -0.21194386
000170 31 3f ec bc d1 85 0b be 4a ae 5e bd 23 11 b2 bd
       -0.028838726 -0.13625266 -0.054365434 -0.08694675
000180 0c 1e ac 3e 5d 35 a9 3d dc 94 5e be b4 d4 ca bc
       0.33616674 0.08262131 -0.21736473 -0.024759628
000190 3d 13 c8 bc 45 6d c7 3e 76 fe fd bd fb 60 5e be
       -0.024423236 0.38950554 -0.1240205 -0.21716683
0001a0 17 0d cf bc f3 f2 c9 bd e6 51 37 be 63 66 ca bd
       -0.025274796 -0.09860792 -0.17902336 -0.0988281
0001b0 58 18 59 be 14 fe 34 be 40 37 18 be 9e 0b a2 3e
       -0.21200693 -0.17675048 -0.14864826 0.31649488
0001c0 3d 5e 89 bd 92 4f 9d bd 40 ca 0c be 33 dc f5 bd
       -0.06707428 -0.076811925 -0.13749027 -0.1200489
0001d0 e9 48 85 3e e6 be fc bd 95 b2 39 bd 26 21 1b be
       0.2603219 -0.123410985 -0.045336325 -0.15149364
0001e0 6e 9d 37 bd 1f 29 63 be 60 a6 0b 3e 46 1d 99 bd
       -0.04482787 -0.22183655 0.13637686 -0.074762866
0001f0 02 d0 3b be 28 1a 4b be e7 18 74 3d d7 2f 2a bd
       -0.18341067 -0.19834197 0.05959406 -0.04154953
