project_networks/ensemble_models/mnist_cnn_2layer_w1_ensemble.onnx (onnx, 475272 bytes, 16 tensors)

0/Conv.weight f4 [4, 1, 4, 4]
0	0xba7e60fa	-0.00097037817
1	0xb9185451	-0.0001452726
2	0xba2230c3	-0.00061870756
3	0xb7be6d97	-2.2700797e-05
4	0xba23c0f3	-0.0006246708
5	0xb9d2a501	-0.0004017726
6	0xb9a509c5	-0.0003147853
7	0xb9431be4	-0.00018607039
8	0x3a201d65	0.0006107896
9	0x3a16bb54	0.000574996
10	0x39278e8c	0.00015979464
11	0xb83926ca	-4.4143562e-05
12	0x3fa87f21	1.3163797
13	0x3bd0135d	0.0063499645
14	0x384828c7	4.7721693e-05
15	0xb981c0aa	-0.00024748343
16	0xbd32beb6	-0.043638907
17	0xbd293d75	-0.041318376
18	0xbd84754a	-0.064676836
19	0x3e870b90	0.2637601
20	0xbce76633	-0.028246975
21	0xbd0793ac	-0.033099815
22	0xbd40a5d2	-0.04703314
23	0xbd8c0f33	-0.068388365
24	0xbcdd4e0a	-0.027014751
25	0xbd048be3	-0.03235997
26	0xbd1dc1b9	-0.038514826
27	0xbd2ca177	-0.042146172
28	0xbeadac30	-0.3392043
29	0xbe64b18d	-0.22333355
30	0xbe99089d	-0.29889384
31	0xbeed81c1	-0.46388057
32	0x399da734	0.0003006995
33	0x39effd4e	0.0004577436
34	0x3f6a3369	0.91484696
35	0x3a3afcc7	0.00071330037
36	0x39899757	0.00026243433
37	0x3abb492e	0.0014288777
38	0x380a1d09	3.2928805e-05
39	0xb8aadc19	-8.147228e-05
40	0xb837dd6a	-4.3836808e-05
41	0x38d07bc0	9.941263e-05
42	0x39deb32e	0.0004247664
43	0xb993e273	-0.00028206743
44	0xb8edbb8c	-0.00011335974
45	0x373a6870	1.111078e-05
46	0x3847a233	4.7596357e-05
47	0xba01bcf5	-0.0004949116
48	0xb986cc14	-0.00025710522
49	0x3ad9b45b	0.0016609536
50	0x3a73e281	0.0009303466
51	0x39f156c2	0.00046031742
52	0xba142a3c	-0.00056520454
53	0xb9a54995	-0.00031526075
54	0x3a982794	0.0011608475
55	0x3a77a214	0.0009446454
56	0xb921cf4e	-0.00015431384
57	0x3892f55d	7.007525e-05
58	0x396f19ac	0.0002280238
59	0x3f9563e3	1.1671108
60	0x3a8468cc	0.0010102033
61	0xb8b31fdb	-8.541319e-05
62	0x39724eb7	0.00023108242
63	0x3925bffe	0.00015807149

0/Conv.bias f4 [4]
0	0xbecc6367	-0.39919588
1	0xbe871ffd	-0.26391593
2	0xbe8e1d6c	-0.27756822
3	0xbeb61286	-0.35561007

2/Conv.weight f4 [8, 4, 4, 4]
0	0xc0440dde	-3.0633464
1	0xbf4e7e90	-0.8066187
2	0x3b0fa9dc	0.0021921312
3	0x3b337b39	0.002738668
4	0xc083be2f	-4.116966
5	0xbdff2178	-0.124575555
6	0x3e00b39c	0.12568516
7	0x3b130c38	0.0022437703
8	0xbff1d1e0	-1.8892174
9	0xb9cfedc2	-0.0003965926
10	0x3d2ff0e7	0.04295435
11	0x3b1cbb04	0.002391518
12	0xbb12b58a	-0.0022386038
13	0x3b09ad71	0.002100792
14	0x3c794492	0.015214102
15	0xba8e5a21	-0.0010860601
16	0x39b54da1	0.00034580848
17	0xb97ef1e8	-0.00024313445
18	0xbf5e282c	-0.8678005
19	0xb5e184ed	-1.6802493e-06
20	0xb5d44c43	-1.5817426e-06
21	0xbf92f678	-1.1481466
22	0xbf4c8c01	-0.7990113
23	0x3861cf24	5.3837095e-05
24	0xb6cde325	-6.135919e-06
25	0x3602c076	1.9483537e-06
26	0xbf473154	-0.77809644
27	0xbe14377b	-0.14474289
28	0xb51a58a3	-5.7498454e-07
29	0xb542a8a9	-7.2516065e-07
30	0xb69d792d	-4.6930713e-06
31	0xbf7fdaf9	-0.999435
32	0xbb111226	-0.0022136061
33	0xbb0e9691	-0.0021757225
34	0x3aaf9d9c	0.0013398412
35	0xba505e01	-0.0007948578
36	0xc027f756	-2.6244712
37	0x3a637ae2	0.0008677674
38	0x3ab3e143	0.001372375
39	0xba9b9e60	-0.0011872761
40	0xbfb3caba	-1.4046242
41	0x3ea7778e	0.327084
42	0x3c729876	0.014806857
43	0xbfbf3366	-1.493756
44	0xbab5c1b8	-0.0013866937
45	0x3dc99d80	0.09844494
46	0x3a4fc64a	0.0007925971
47	0xc01a767c	-2.4134817
48	0xba94dc7f	-0.0011357217
49	0x3b1d24c5	0.0023978215
50	0xb9db60c2	-0.00041843025
51	0xbfc26fd1	-1.5190374
52	0x3a786741	0.0009475835
53	0x3e68d4b5	0.22737391
54	0x3ab1d73f	0.0013568177
55	0xc06bba95	-3.683263
56	0x397ca843	0.00024095275
57	0x3e03a878	0.12857234
58	0xbbc6673f	-0.0060547884
59	0xc02e5a18	-2.724249
60	0x3cd3db79	0.025861489
61	0x3d82393f	0.06358575
62	0xbfc279cb	-1.5193418
63	0xbfa7c4a0	-1.310688
64	0xc03a1c7d	-2.9079888
65	0xc00cdd3e	-2.2010036
66	0xbcbdda83	-0.023175484
67	0xbb4698bf	-0.0030303446
68	0xba8ed2a8	-0.0010896521
69	0xba9624da	-0.0011455074
70	0xb98fdfb3	-0.00027441754
71	0xbaf1803d	-0.0018425059
72	0x3b021cbf	0.001985356
73	0x3d8558d1	0.06511081
74	0x3ddfe3bd	0.109321095
75	0x3e1caf0b	0.15301149
76	0x3a0bc977	0.000533245
77	0xba35ecd8	-0.00069398945
78	0x3984a51f	0.00025300027
79	0x3b38edbd	0.0028217875
80	0xb805ed69	-3.1930776e-05
81	0xb6ae85d4	-5.2011837e-06
82	0xb4284d75	-1.5674398e-07
83	0x361779b8	2.2571603e-06
84	0xb93b1588	-0.00017841731
85	0xb7117ba2	-8.671459e-06
86	0x3650e6da	3.1128789e-06
87	0x360d22a7	2.1030808e-06
88	0xbb30a9ab	-0.0026956599
89	0xbeb1234b	-0.3459724
90	0xbddaa6a2	-0.10676314
91	0xbcb332e0	-0.021874845
92	0xb565efe4	-8.5658235e-07
93	0x384152d3	4.6091922e-05
94	0x361395e4	2.1991955e-06
95	0xb7bfbd3b	-2.2857092e-05
96	0x3a50900f	0.0007956037
97	0xba264522	-0.0006342699
98	0xbad62e3d	-0.0016340684
99	0xbb25019c	-0.0025177961
100	0xbcdd0724	-0.026980944
101	0xbb0fc8b1	-0.002193969
102	0xba25f44f	-0.00063306553
103	0xbb375eaa	-0.0027980008
104	0xbfddf44b	-1.7340177
105	0xc05a8d30	-3.4148674
106	0xc057831b	-3.367377
107	0xc01cfb73	-2.4528472
108	0x3bbb2738	0.0057114623
109	0x3dc45305	0.09586147
110	0x3d2858b5	0.041100223
111	0x3cc1f27c	0.023675196
112	0xbba56ecf	-0.00504861
113	0xbb1f57db	-0.002431384
114	0x397456ac	0.00023301941
115	0xbaa551c9	-0.0012612875
116	0xc00a5a71	-2.16177
117	0xc04fe6d1	-3.248463
118	0xc02e5e5f	-2.72451
119	0xbfd9a2d6	-1.7002819
120	0x3da69113	0.081331395
121	0x3c9f7363	0.0194642
122	0x3c7f3fa9	0.015579143
123	0x3b1bc1fb	0.0023766744
124	0x3df3ed29	0.11910469
125	0x3e8e92d1	0.27846387
126	0x3e71a10d	0.23596592
127	0x3d0322de	0.032015674
128	0x3a988eef	0.0011639277
129	0x3a139aa3	0.00056306476
130	0x3a6377c0	0.0008677207
131	0xba46ab54	-0.00075786305
132	0x38d98d9d	0.00010373744
133	0x399db2c3	0.0003007856
134	0x39b040ed	0.0003361771
135	0x3a9d68d8	0.0012009395
136	0xba5759ac	-0.0008214961
137	0xbb5f5ca5	-0.003408232
138	0x3b50514e	0.0031786743
139	0xb8a0ace8	-7.661601e-05
140	0xbb95454f	-0.0045553814
141	0xbaa33bb9	-0.0012453712
142	0xba8458f0	-0.0010097306
143	0x3a25d842	0.00063264754
144	0x37939244	1.7591876e-05
145	0x38246b64	3.9200662e-05
146	0x37143a4b	8.83506e-06
147	0x38fee8c3	0.00012155019
148	0xb78258a9	-1.5538493e-05
149	0xb883796e	-6.269185e-05
150	0xbe934eb2	-0.28770977
151	0xbaa10b54	-0.0012286701
152	0xb256556d	-1.2475863e-08
153	0x3682e709	3.901198e-06
154	0xb8a753c6	-7.9787846e-05
155	0xb7d1b51c	-2.4999077e-05
156	0xb425cf33	-1.5442201e-07
157	0xb7fc2043	-3.0055764e-05
158	0xb3631291	-5.2869442e-08
159	0xb63dc235	-2.8276238e-06
160	0xb909abca	-0.00013129335
161	0xb9f3a936	-0.00046474644
162	0xb9807d28	-0.0002450731
163	0xba48c3cd	-0.0007658571
164	0x392b7abd	0.00016353554
165	0xb9233399	-0.00015564113
166	0x39b28cb3	0.00034055635
167	0xc02d5673	-2.7084014
168	0x3a12962e	0.00055918365
169	0x392b9b53	0.00016365694
170	0x39ec521e	0.0004507461
171	0xbb68dd32	-0.0035532233
172	0xba8c768a	-0.001071648
173	0x3b929941	0.0044738357
174	0x3e941d9c	0.2892884
175	0x36ee0296	7.0932538e-06
176	0x3a4939a3	0.000767613
177	0x39c2336b	0.00037040873
178	0xbfba6150	-1.4560947
179	0xbff1dba1	-1.889515
180	0x388a2a0d	6.588185e-05
181	0x3a9de7cd	0.0012047231
182	0xbb06429d	-0.0020486482
183	0xbb501f04	-0.0031756768
184	0x399e9d8d	0.00030253493
185	0x3e3440d6	0.17602858
186	0x3e4d9380	0.20075798
187	0x398bcecd	0.00026666225
188	0x3a0088d6	0.00049032026
189	0xb99e79ee	-0.00030226953
190	0xb96bc638	-0.00022485189
191	0xbab02cc2	-0.0013441073
192	0xbbd64157	-0.006538551
193	0xbb8c3b7c	-0.004279552
194	0x39ce45c3	0.00039343358
195	0x38b1f092	8.4848274e-05
196	0xbfcebfad	-1.6152245
197	0xc024cc5b	-2.5749729
198	0xbe96f075	-0.2948033
199	0x3ba68ae4	0.005082475
200	0xbab90a73	-0.0014117494
201	0x3a3cfd91	0.0007209415
202	0x3aaecbec	0.001333592
203	0x3b625af8	0.0034539085
204	0x3d90519e	0.07046817
205	0x3e6e59a9	0.2327639
206	0x3e3cacd8	0.1842531
207	0x3e49101b	0.1963505
208	0x36217f09	2.4064814e-06
209	0x37485d2f	1.1942625e-05
210	0xb67dbd80	-3.7810241e-06
211	0x371d343b	9.37009e-06
212	0x375d10f6	1.31765755e-05
213	0x349f72aa	2.9699487e-07
214	0xb63d1761	-2.8176803e-06
215	0xb5c0aa26	-1.4354634e-06
216	0xbe3bc1e1	-0.18335678
217	0xb49dea4c	-2.9414002e-07
218	0xb271bc61	-1.4070879e-08
219	0x349eb27e	2.9559664e-07
220	0xbae28d03	-0.0017284456
221	0xbeb53b4e	-0.35396808
222	0xbc0fe61b	-0.008782889
223	0xb91b2210	-0.00014794641
224	0xba7bae2d	-0.00096008444
225	0xba1dfe5e	-0.00060269784
226	0xb90d2946	-0.00013462183
227	0x3a0034ba	0.00048906694
228	0xbb4b5d87	-0.0031031088
229	0xbb0d63ce	-0.002157438
230	0xb92be692	-0.00016393725
231	0x38f87dc9	0.00011848991
232	0xc0349390	-2.8215065
233	0xbc5c3e58	-0.013442598
234	0x3be20e05	0.006898644
235	0x3dd2e991	0.102984555
236	0xbe06645b	-0.1312422
237	0xc0366a9a	-2.8502564
238	0xc0555392	-3.3332257
239	0xc00fd529	-2.2473853
240	0xb9c0ec01	-0.0003679693
241	0xba1365c7	-0.0005622771
242	0x3a0e8844	0.0005437175
243	0x39e8b5ef	0.0004438604
244	0xbf71645d	-0.9429377
245	0x3a9b34dd	0.0011841316
246	0x3ddf7c97	0.109124355
247	0xb9e10824	-0.0004292141
248	0xbfbd7a85	-1.4803015
249	0xc03a56f5	-2.9115574
250	0xc030c431	-2.7619746
251	0xbf4ba6e6	-0.7955154
252	0x3d11f004	0.035629287
253	0x3c021b6d	0.007941109
254	0x3bc38c18	0.005967628
255	0x3af61efe	0.0018777547

2/Conv.bias f4 [8]
0	0xbbd25c99	-0.00641973
1	0xbb93372f	-0.0044926624
2	0xbb49f937	-0.003081871
3	0xbac467cd	-0.0014984548
4	0xbb2bd27e	-0.0026217992
5	0xbaf6c848	-0.0018827999
6	0x39bda5ba	0.00036172365
7	0xbb8d8dfe	-0.0043199053

5/Gemm.weight f4 [128, 392]
0	0x3af2eb6b	0.0018533295
1	0xbd8eeb4a	-0.069784716
2	0xbe1d37e1	-0.15353347
3	0xbecf850a	-0.40531188
4	0xbdc2c84c	-0.0951086
5	0xbe7e4d6b	-0.2483422
6	0x3b985b4e	0.0046495562
7	0xbeb27078	-0.34851432
8	0xbe86b2ba	-0.26308233
9	0xbdb175c1	-0.08665038
10	0xbf1d987c	-0.615608
11	0xbda70254	-0.08154741
12	0xba971a34	-0.0011528195
13	0xbd7618e7	-0.060082342
14	0xbd2d1574	-0.042256787
15	0xbf0aa56d	-0.5415867
16	0xbcca7788	-0.0247152
17	0x3aaf06e4	0.0013353494
18	0xbc3f95ff	-0.011693477
19	0x3b045a49	0.0020195416
20	0x3c433a9b	0.011915828
21	0xbe03b050	-0.12860227
22	0x3d3958ca	0.04525069
23	0x3b879d4f	0.0041386257
24	0x3c67ca29	0.01414732
25	0xbf1d0ca5	-0.6134742
26	0xc016109b	-2.3447635
27	0xbd50b8e3	-0.05095757
28	0xbce69a4f	-0.028149752
29	0xbb059d9b	-0.002038813
30	0xbc8daa9c	-0.017293267
31	0xbc8e4606	-0.017367374
32	0x3a712628	0.0009199106
33	0xbf7120d6	-0.9419073
34	0x3bf36942	0.007428319
35	0xbca8b239	-0.020592796
36	0xbae28edb	-0.0017285006
37	0xbe3fb19e	-0.187201
38	0xbdacb97c	-0.08433816
39	0xbd45236b	-0.04812948
40	0x3c39027f	0.011292099
41	0xbb08fc71	-0.002090242
42	0x3cded8ba	0.027202953
43	0xbe240e5d	-0.16021104
44	0xbc4469f8	-0.011988156
45	0xbd726054	-0.059173897
46	0xbc04f4d6	-0.008115014
47	0xbefac522	-0.48978525
48	0x3d03c9f1	0.03217501
49	0x3e2c4929	0.16824783
50	0xbf8aa212	-1.083071
51	0xbf53b013	-0.8269054
52	0xbfdbae87	-1.7162637
53	0xc04dc6d2	-3.21526
54	0xbb99c112	-0.004692205
55	0x3a866534	0.001025355
56	0xbece04b9	-0.40237978
57	0xbe143b51	-0.14475752
58	0xbcf359eb	-0.029705962
59	0xbb23521f	-0.0024920774
60	0xbb82d25c	-0.003992362
61	0xbb7ee651	-0.0038894603
62	0x3a52d908	0.00080432044
63	0xbf71f1ec	-0.9450977
64	0xbb89e6e2	-0.0042084316
65	0x3db29c11	0.087211736
66	0x3da374f5	0.07981292
67	0xbbb89229	-0.005632658
68	0xbe9c5a98	-0.30537868
69	0xbf4cb3ff	-0.7996215
70	0xbad70816	-0.0016405608
71	0x3c2326d3	0.009957987
72	0xbd0bc7c8	-0.034126073
73	0xb953991d	-0.00020179567
74	0x3c86570d	0.01639893
75	0xba9d1130	-0.0011983272
76	0xbf3b8b74	-0.73259664
77	0xbb3a828e	-0.0028459164
78	0x3d8c4a2a	0.06850083
79	0xbc044e43	-0.0080753
80	0xbdc01e78	-0.093808115
81	0x3d105f18	0.03524694
82	0x3a4c3b11	0.0007790784
83	0x3982a392	0.00024917402
84	0x3b0e34d3	0.0021698966
85	0x3ccb7e41	0.024840476
86	0x3d7a51a0	0.061113
87	0x3c8a1ac7	0.016858472
88	0xbec50cfc	-0.3848647
89	0x3ce5afdc	0.028037958
90	0x3e7386bc	0.23781866
91	0x3ea6ce6c	0.32579362
92	0xb9c06097	-0.0003669306
93	0x3c20b5db	0.009808983
94	0x3dbfa5d4	0.09357801
95	0x3e29ce3d	0.1658258
96	0x3f01f644	0.50766397
97	0x3f12d3db	0.57354516
98	0x3b0d4d0d	0.0021560818
99	0xbeb7923c	-0.35853755
100	0xbf1c0b07	-0.60954326
101	0xbf9b84a4	-1.2149854
102	0xbfeb2105	-1.8369452
103	0xbf730fb1	-0.9494582
104	0xbdd3e5e4	-0.103465825
105	0xbe541546	-0.2071124
106	0xbf46a3f6	-0.77593935
107	0xbcf400b5	-0.029785493
108	0xbe18e297	-0.14930187
109	0xba95fe86	-0.0011443652
110	0x3ba7e7cc	0.005124068
111	0xbddc6ac8	-0.107625544
112	0xbef40dd1	-0.4766679
113	0xbbf6a595	-0.007527063
114	0xbb08c161	-0.0020867216
115	0x3da9088b	0.082535826
116	0xbc756507	-0.0149777
117	0xbf33b62b	-0.7019984
118	0x3dc40d99	0.09572906
119	0xbf1c1ad3	-0.6097843
120	0xb9647e4f	-0.00021790828
121	0xbc7e719e	-0.015530018
122	0x3c2092e0	0.009800643
123	0xbb7e87ac	-0.003883819
124	0xbfe9eeb1	-1.8275968
125	0xbfc283ec	-1.5196509
126	0xbe152e09	-0.14568342
127	0xba23939e	-0.0006239953
128	0xbbc1dbd7	-0.0059160995
129	0xbaff056c	-0.0019456572
130	0xbac11220	-0.0014730133
131	0xbf0f4b12	-0.55973923
132	0xbe868608	-0.26274133
133	0x3ca77c1f	0.020444928
134	0x3d4175c4	0.04723145
135	0x3cd46311	0.025926145
136	0xbca53641	-0.020167472
137	0xbb07f269	-0.0020743853
138	0x3d286b3e	0.0411179
139	0x3cb265db	0.021777084
140	0x3d048019	0.032348726
141	0xbec378a4	-0.3817798
142	0xbd433df2	-0.047666498
143	0xbd4fdb27	-0.05074611
144	0xbf11d14e	-0.5696
145	0xbec1c0f0	-0.37842512
146	0xbe8f7d13	-0.28025112
147	0x3d1b7212	0.037950583
148	0xbf936d6b	-1.1517767
149	0xbee67656	-0.45012158
150	0xbe9f06b6	-0.31059808
151	0xbf4bd2c7	-0.79618496
152	0x3bdd3dc6	0.0067517487
153	0x3c88fd96	0.016722482
154	0xbde5ecf6	-0.11226837
155	0xbd49dadd	-0.04928099
156	0xbb730da3	-0.0037086986
157	0x39a9a907	0.00032360127
158	0x3b1e7a65	0.002418184
159	0x3b3290b3	0.0027246892
160	0x3baf4e8d	0.00534994
161	0xbe60013f	-0.21875475
162	0xbb15310e	-0.0022764835
163	0x3bf06b34	0.0073369984
164	0xbcd81108	-0.026375309
165	0xbcd5267f	-0.026019333
166	0xbc3b9847	-0.01144988
167	0xbf693863	-0.91101664
168	0xbf08282f	-0.53186315
169	0xbad00df0	-0.0015873294
170	0x3dce18e5	0.10063342
171	0xbbea5ffb	-0.007152555
172	0x3ed22504	0.41043866
173	0xbb958e36	-0.004564072
174	0xbef21520	-0.47281742
175	0x3d7ed469	0.06221429
176	0x3d0d6371	0.034518663
177	0x3dda18a8	0.10649234
178	0xbcb98915	-0.022648374
179	0x3d7858f3	0.060631704
180	0x3db03d9c	0.08605501
181	0x3d701886	0.058617137
182	0xbb2dfdd5	-0.0026549
183	0xbb0f2b77	-0.0021845975
184	0x3c95828c	0.018250726
185	0xbcd7ebc4	-0.026357539
186	0x3ae62e50	0.001756141
187	0xbd864157	-0.06555431
188	0x3d276270	0.04086536
189	0xbdfbbc3d	-0.12291763
190	0xbc9b15c7	-0.018931283
191	0xbb76d4fd	-0.0037663572
192	0xb93e849a	-0.0001816921
193	0xbe2b125f	-0.16706227
194	0x3d5e80ca	0.05432204
195	0x3e6106dc	0.21975273
196	0xbd823615	-0.063579716
197	0xbfa92487	-1.3214272
198	0xbeade150	-0.33960962
199	0xbf40bd7b	-0.75289124
200	0xbf949254	-1.1607156
201	0xbe7ecb14	-0.24882156
202	0x3cc8ab07	0.024495615
203	0xbf77c33a	-0.9678227
204	0xbec2c878	-0.3804357
205	0xbcceaef2	-0.025229905
206	0xbc501d71	-0.012702332
207	0xba4712ae	-0.0007594031
208	0xbe144d01	-0.144825
209	0xbd0e15fb	-0.03468893
210	0xbfa334e6	-1.2750518
211	0xbc746191	-0.01491584
212	0x3a4d7c29	0.00078386307
213	0x3bf4fcdd	0.0074764327
214	0xc00db57f	-2.2142026
215	0xbee2166d	-0.44157735
216	0xbd009978	-0.03139636
217	0xbc42405f	-0.011856168
218	0xbba50fb8	-0.005037274
219	0xbca3c13f	-0.019989608
220	0xbc8b1971	-0.016979905
221	0xc00fe3b2	-2.2482724
222	0xbfaf16f2	-1.3678877
223	0x3d2bbd39	0.041928504
224	0xbc506adc	-0.01272079
225	0x3b1f516b	0.0024310004
226	0xbc402a88	-0.01172889
227	0xbbdb5901	-0.0066939597
228	0x3b696599	0.0035613535
229	0xbccc71cc	-0.024956606
230	0xbba57dac	-0.0050503816
231	0xbd488a35	-0.04895993
232	0xbc7d4a75	-0.0154596465
233	0xbddf0b94	-0.1089088
234	0xbbf60611	-0.0075080474
235	0x3c7d77e1	0.015470476
236	0xbbb2fd90	-0.005462356
237	0xbd16ff6b	-0.03686468
238	0xbea9bb51	-0.33150724
239	0xbe561819	-0.2090763
240	0xbde17008	-0.110076964
241	0xbda11a7b	-0.07866379
242	0xbe931acc	-0.28731382
243	0x3d2963dd	0.041355003
244	0x3d82591e	0.06364654
245	0x3d6abb30	0.057307422
246	0x3d0916e2	0.03346909
247	0xbe6c5888	-0.23080647
248	0xbe7f6ff5	-0.24945052
249	0xbc6b201f	-0.01435092
250	0xbd998ed6	-0.07497947
251	0xbd06c579	-0.03290317
252	0xbccce921	-0.025013508
253	0xbeecca92	-0.462483
254	0xbf9e7907	-1.2380685
255	0xbf1469c3	-0.5797388

5/Gemm.bias f4 [128]
0	0x3cf4cfd6	0.02988426
1	0xbe2026f8	-0.15639865
2	0xbde614d0	-0.112344384
3	0xbe1ea4fc	-0.15492624
4	0xbdbed1e4	-0.09317377
5	0xbe3a4271	-0.18189408
6	0x3deb09a4	0.11476448
7	0xbe6d10d9	-0.23150958
8	0xbe38fa2b	-0.18064182
9	0xbe314058	-0.17309701
10	0xbe2013f4	-0.15632612
11	0xbdbcfa5d	-0.092274405
12	0xbe3b04a7	-0.18263493
13	0xbe54844a	-0.2075359
14	0xbe40acb8	-0.18815887
15	0xbe484a6a	-0.19559637
16	0xbe3c55c8	-0.18392098
17	0xbe2812b8	-0.1641339
18	0xbdf12cc5	-0.11776117
19	0xbe11fed7	-0.1425737
20	0xbe34d4a6	-0.17659244
21	0xbe65e965	-0.22452314
22	0xbe0414ec	-0.12898606
23	0xbe58450f	-0.21120094
24	0x3d4f98ee	0.050682954
25	0xbe38e58a	-0.18056312
26	0xbe17a842	-0.14810279
27	0xbe0be284	-0.13660628
28	0xbe1c2539	-0.15248574
29	0xbe346f8a	-0.17620674
30	0xbe4b1f5c	-0.19836181
31	0x3e658274	0.22413045
32	0xbe1b3ba4	-0.1515947
33	0xbe4410aa	-0.19146982
34	0xbdc96475	-0.09833614
35	0xbe1be4cf	-0.15224002
36	0xbe06f43d	-0.13179107
37	0xbe024849	-0.12722887
38	0xbe60ee32	-0.21965864
39	0xbe442f66	-0.19158706
40	0xbe4b4813	-0.19851713
41	0xbe11748a	-0.14204612
42	0xbe274664	-0.16335446
43	0x3e44906e	0.1919572
44	0xbe365ca1	-0.17808773
45	0x3cf0eb9d	0.029409224
46	0xbe3c1ac8	-0.18369591
47	0xbe0bb016	-0.1364139
48	0xbde6266b	-0.112377964
49	0xbdf74e80	-0.120755196
50	0xbe3021c0	-0.17200375
51	0x3de74c06	0.11293797
52	0x3afff3cf	0.0019527617
53	0xbe81d4c8	-0.25357652
54	0xbe1141b2	-0.14185217
55	0xbe2fbef6	-0.1716269
56	0xbdd79139	-0.10525746
57	0xbe354645	-0.17702587
58	0xbdfa4004	-0.12219241
59	0xbe0e1e63	-0.13878779
60	0xbe80919f	-0.251111
61	0xbe10a99a	-0.14127198
62	0xbe1b9678	-0.15194118
63	0xbe65b4a8	-0.22432196
64	0xbdfe2a5c	-0.12410423
65	0xbe2f5362	-0.17121652
66	0xbe218273	-0.15772419
67	0xbdf7d14a	-0.121004656
68	0xbe4ac6d4	-0.1980241
69	0xbe13c629	-0.14431061
70	0xbe519c10	-0.2046969
71	0xbe45b9fd	-0.1930923
72	0xbe17a7de	-0.1481013
73	0xbe1f1250	-0.1553433
74	0xbded9506	-0.116006896
75	0xbdf65b5a	-0.12029143
76	0xbe4f1b3f	-0.20225237
77	0xbe2f2b42	-0.17106345
78	0xbe2f004d	-0.17089958
79	0xbe51d4db	-0.20491354
80	0xbe2a6393	-0.16639547
81	0xbe17e20c	-0.14832324
82	0xbe45deb9	-0.19323243
83	0x3dbf19f1	0.0933112
84	0xbe07d502	-0.1326485
85	0x3e3598b2	0.1773403
86	0xbe4fc7b2	-0.20291021
87	0xbe4dd456	-0.20100531
88	0xbe28a396	-0.16468653
89	0xbe1188ef	-0.14212392
90	0xbe75532f	-0.23957513
91	0xbe1015cf	-0.1407082
92	0xbe27a4e6	-0.16371498
93	0xbe0f7eed	-0.14013262
94	0xbe22c4e1	-0.15895416
95	0x3e0bdec3	0.13659196
96	0xbe41ec8c	-0.18937892
97	0xbe7b9586	-0.24568757
98	0xbe2ef37d	-0.17085071
99	0xbe45f2d2	-0.1933091
100	0xbe38733a	-0.18012705
101	0xbe317002	-0.17327884
102	0xbe5cdf8c	-0.21569651
103	0xbe099857	-0.1343702
104	0xbe395b8b	-0.18101327
105	0xbe3ac99c	-0.1824097
106	0xbe43695e	-0.19083163
107	0xbe21f576	-0.15816292
108	0xbe25f821	-0.16207935
109	0xbe13c140	-0.14429188
110	0xbde93e61	-0.11388851
111	0xbe239b5b	-0.15977232
112	0xbe07b9ca	-0.13254467
113	0xbe384355	-0.17994435
114	0xbe49ea91	-0.19718386
115	0xbe66df62	-0.22546151
116	0xbe0d7d64	-0.13817364
117	0xbe196a7c	-0.14982027
118	0xbe1dec72	-0.15422228
119	0xbe3bc154	-0.18335468
120	0x3e6fb162	0.2340751
121	0xbe282eba	-0.16424075
122	0x3ded9383	0.11600401
123	0xbe0a5348	-0.13508332
124	0xbe06090b	-0.13089387
125	0x3dc388e9	0.09547598
126	0xbe1469e4	-0.14493519
127	0xbe395730	-0.18099666

7/Gemm.weight f4 [128, 128]
0	0xbe5006b7	-0.20315062
1	0x3dd777b0	0.105208755
2	0xbd893562	-0.06699635
3	0xbe26ccc5	-0.16289051
4	0xbd8ea376	-0.069647714
5	0xbd654f7c	-0.055984005
6	0xbd4c4603	-0.049871456
7	0xbd0cdcd8	-0.0343903
8	0x3dcd1e51	0.10015548
9	0xbded3386	-0.11582093
10	0xbe370ca2	-0.17875913
11	0x3b24b701	0.0025133493
12	0x39b0bb55	0.0003370891
13	0xbe259229	-0.16169037
14	0xbe47e0e0	-0.19519377
15	0x3d82e924	0.06392124
16	0xbe31acf9	-0.1735114
17	0xbe0024be	-0.12514016
18	0xbe8d7446	-0.27627772
19	0xbe73ec84	-0.23820692
20	0x3acf9e82	0.0015840086
21	0xbe164c07	-0.1467744
22	0xbe5f648c	-0.218157
23	0x3d091317	0.03346547
24	0xbaade168	-0.0013266029
25	0xbd9208fc	-0.0713062
26	0xbd94c6fb	-0.07264515
27	0xbd53f7c9	-0.05174998
28	0xbe3c8961	-0.18411781
29	0x3d5fbf7b	0.05462597
30	0xbcec67b2	-0.02885804
31	0xbe58a9bb	-0.21158497
32	0xbe138628	-0.14406645
33	0xbcb8ed5c	-0.02257412
34	0xbe8f03b4	-0.27932513
35	0xbd23bbfb	-0.039974194
36	0xbe1b151d	-0.15144773
37	0xbbabf2b2	-0.0052474374
38	0xbe57ffea	-0.21093717
39	0xbe622475	-0.2208422
40	0xbe35b6e2	-0.17745546
41	0x3d44941d	0.047992814
42	0xbe4e6c9d	-0.2015862
43	0xbe2ecb1b	-0.17069666
44	0xbdad278e	-0.0845481
45	0xbdc6ca56	-0.09706561
46	0x3d2021ca	0.039094724
47	0x3bf57833	0.0074911355
48	0xbe5101f4	-0.20410901
49	0xbd76787e	-0.060173504
50	0xbe01521d	-0.1262898
51	0xbe3dda52	-0.18540314
52	0xbdff1fce	-0.12457238
53	0xbdd1c06f	-0.10241782
54	0xbcfe4d40	-0.031042695
55	0xbe9fb36e	-0.3119158
56	0xbd67faee	-0.05663579
57	0xbdb5fa2c	-0.08885607
58	0xbe14f79c	-0.1454758
59	0xbd2b91e5	-0.041887183
60	0xbd84513c	-0.06460807
61	0xbe4cd96d	-0.20004816
62	0xbd08a839	-0.033363555
63	0xbc4017c6	-0.011724418
64	0xbe03f184	-0.128851
65	0xbe37f21a	-0.17963448
66	0xbd204c3f	-0.039135214
67	0xbe322c31	-0.1739967
68	0xbe894556	-0.26810712
69	0xbe5cca41	-0.21561529
70	0xbda80280	-0.08203602
71	0xbe68451b	-0.22682612
72	0xbe50f560	-0.20406103
73	0xbe32e96e	-0.17471859
74	0xbd9f3c7e	-0.0777521
75	0xbe2ba55e	-0.16762301
76	0xbe595300	-0.21223068
77	0x3deeccf6	0.11660187
78	0xbe07e60d	-0.13271351
79	0xbdfdc2cd	-0.12390671
80	0xbe9315af	-0.2872748
81	0xbc2ed233	-0.010670233
82	0xbe2ab036	-0.16668782
83	0xbd2617e7	-0.04055014
84	0xbe3bdc4c	-0.18345755
85	0xbddb84db	-0.107186995
86	0xbe1008de	-0.14065883
87	0x3dac58d9	0.08415384
88	0xbdc6fe8c	-0.0971652
89	0xbe21267d	-0.15737338
90	0xbd1698b8	-0.036766738
91	0xbe45c985	-0.19315155
92	0xbd0a65b1	-0.033788387
93	0xbdb3bd6b	-0.08776363
94	0xbe4c1025	-0.19928034
95	0xbd9e7930	-0.077379584
96	0xbdc87ad0	-0.097890496
97	0xbdf76b20	-0.12080979
98	0xbe1d73e2	-0.15376237
99	0xbcd75575	-0.026285866
100	0xbe5a8d0c	-0.21342868
101	0xbe20828f	-0.15674804
102	0xbe933ba7	-0.2875645
103	0xbcfe1f2d	-0.031020725
104	0xbe326c1d	-0.17424054
105	0xbdb7a3fe	-0.08966826
106	0xbe424ca9	-0.18974556
107	0xbe094925	-0.13406809
108	0xbe5861ff	-0.21131133
109	0x3e13914d	0.14410897
110	0xbc4923bf	-0.012276589
111	0xbd0c8941	-0.034310583
112	0xbde74df3	-0.112941645
113	0x3cb08b0e	0.021550681
114	0xbdab108a	-0.08352764
115	0xbdaf0ff2	-0.08547963
116	0xbd079020	-0.033096433
117	0xbe7acf86	-0.24493226
118	0x3dc5254b	0.09626254
119	0xbb63380d	-0.003467086
120	0xbe497dc4	-0.19676882
121	0x3d636dcb	0.05552463
122	0xbe6437e9	-0.22286953
123	0xbd88cfea	-0.066802815
124	0xbd748b09	-0.059702907
125	0xbe6f3a76	-0.23362145
126	0x3dc89db8	0.097957075
127	0xbcf8ebf1	-0.030385943
128	0xbd844eb9	-0.06460328
129	0xbd090f93	-0.03346212
130	0xbde7d3d4	-0.113197
131	0xbd2a54df	-0.041584846
132	0xbe18b948	-0.14914429
133	0xbcf87fb3	-0.03033433
134	0xbe5bdb6b	-0.2147042
135	0xbd23b9df	-0.039972182
136	0xbe1b797c	-0.15183061
137	0x3cce43e2	0.025178853
138	0x3d5c39b2	0.05376596
139	0x3d246b14	0.04014118
140	0xbe7e438b	-0.24830453
141	0xbe2cc3c3	-0.16871552
142	0x3d5b8ac3	0.05359913
143	0xbd256ef5	-0.04038902
144	0xbda56eb6	-0.08077757
145	0x3c801c3a	0.01563846
146	0x3d1ca399	0.038241956
147	0xbdd03339	-0.1016602
148	0xbe534601	-0.20632173
149	0xbd4f1048	-0.050552636
150	0xbe0aa287	-0.13538562
151	0x3a047635	0.00050530146
152	0xbdf89f6f	-0.121397845
153	0xbc605408	-0.01369191
154	0x3d5768e9	0.052590284
155	0x3dc2284f	0.094803445
156	0x3ccbdcf3	0.02488563
157	0x3dc1402e	0.094360694
158	0x3cd8fb81	0.026487114
159	0xbe1cdb73	-0.15318088
160	0x3d8bd71d	0.06828139
161	0xbd1130e4	-0.035447016
162	0x3d903017	0.070404224
163	0x3cb113f7	0.021615965
164	0x3de113a0	0.10990071
165	0x3e326bad	0.17423888
166	0x3d7740d4	0.06036456
167	0xbcd35cf5	-0.025801161
168	0x3cb1f607	0.02172376
169	0xbe552dd2	-0.2081826
170	0xbe04a15a	-0.12952176
171	0x3d953b63	0.07286718
172	0x3e51ba17	0.20481144
173	0xbd6874bd	-0.056751955
174	0x3c0a7c53	0.008452493
175	0xbdcede00	-0.10100937
176	0x3e0872a7	0.13324986
177	0x3d73a051	0.05947906
178	0xbdfd8cf5	-0.12380401
179	0xbdaef7f2	-0.085433856
180	0xbeba45a2	-0.3638125
181	0x3d90ff58	0.07079953
182	0x3d308f61	0.043105487
183	0xbc964c90	-0.018347055
184	0x3d7cfea0	0.061766267
185	0x3e0db0d7	0.1383699
186	0xbd30f14e	-0.043198876
187	0xbe8b9cf8	-0.27268195
188	0x3e1c6d46	0.1527606
189	0xbd89e915	-0.0673391
190	0xbcbff317	-0.023431344
191	0x3cf08a69	0.029362874
192	0xbe543efe	-0.20727155
193	0xbd387c14	-0.045040205
194	0xbdeb5a6b	-0.11491855
195	0xbd370ae7	-0.04468813
196	0xbd2fcfbc	-0.04292272
197	0xbd0e14f4	-0.03468795
198	0xbdea72e8	-0.11447698
199	0xbe3b0a87	-0.18265735
200	0x3df39633	0.118938826
201	0x3b8c002c	0.0042724814
202	0x3bd976b5	0.0066364654
203	0x3db51a5f	0.088429205
204	0xbdc26b86	-0.09493165
205	0xbd20fdce	-0.039304547
206	0x3da9ca81	0.08290578
207	0xbd07c3ca	-0.033145703
208	0xbe5139e1	-0.20432235
209	0xbdc3c2c6	-0.095586345
210	0xbdd519cd	-0.10405312
211	0x3d925a1c	0.07146093
212	0x3bd12390	0.006382413
213	0x3ccf5797	0.02531032
214	0xbd99f857	-0.0751807
215	0xbdaf5a3b	-0.08562132
216	0xbd81c60d	-0.06336603
217	0xbd8a634c	-0.067572206
218	0x3e2f9484	0.17146498
219	0xbc97012f	-0.018433182
220	0xbd902747	-0.070387416
221	0xbe09e0f9	-0.13464727
222	0x3e274901	0.16336443
223	0x3dbf4567	0.09339409
224	0xbe3cb0b7	-0.18426786
225	0xbe445217	-0.1917194
226	0x3d0d3c4b	0.034481328
227	0xbd16d99b	-0.03682862
228	0xbe931bc7	-0.2873213
229	0x3c002373	0.007820952
230	0xbcb6d2c0	-0.02231729
231	0xbe6364c1	-0.22206403
232	0xbe3d021f	-0.1845784
233	0xbe394431	-0.18092419
234	0xbdceb681	-0.100934036
235	0xbe573e5f	-0.21019886
236	0xbceff08d	-0.029289508
237	0xbd6fb53a	-0.05852244
238	0x3d5335a6	0.051564835
239	0xbd8a72e3	-0.06760194
240	0xbe93f523	-0.28897962
241	0x3d703b60	0.058650374
242	0xbe22d235	-0.159005
243	0x3d91d694	0.07121006
244	0xbe8c24a3	-0.27371702
245	0x3d331ec2	0.043730505
246	0xbd1b11fe	-0.037858956
247	0xbe4e5b65	-0.20152052
248	0x3e05f197	0.1308044
249	0xbdc16b53	-0.094442986
250	0xbdcecae7	-0.10097294
251	0x3d7ab282	0.061205395
252	0xbbb6c89f	-0.005578115
253	0xbd2b7930	-0.04186362
254	0xbc1ff33f	-0.009762584
255	0x3d8aae9d	0.06771586

7/Gemm.bias f4 [128]
0	0xbe02523c	-0.12726682
1	0xbe1e1520	-0.15437746
2	0xbe16519c	-0.14679569
3	0xbdde6127	-0.10858374
4	0x3e515307	0.20441829
5	0xbb83c37b	-0.004021106
6	0xbe169c0c	-0.14707965
7	0xbe52f0ba	-0.20599642
8	0xbe465298	-0.19367445
9	0xbe0fc064	-0.14038235
10	0xbe4e2dc0	-0.2013464
11	0xbe644f32	-0.22295836
12	0xbe08590c	-0.13315219
13	0xbe46b8a9	-0.1940638
14	0xbe3fa9e3	-0.1871715
15	0xbe647f3f	-0.22314166
16	0xbe2773e0	-0.16352797
17	0xbe08877b	-0.13332932
18	0xbe21c30f	-0.15797065
19	0xbdebd559	-0.11515302
20	0xbe17e71c	-0.14834255
21	0x3dfd4eb8	0.1236853
22	0xbde57fd2	-0.112060204
23	0xbe08cf18	-0.1336025
24	0xbe26a63e	-0.16274354
25	0xbe4fcd67	-0.20293199
26	0xbe2f28d5	-0.1710542
27	0xbe2266b6	-0.15859494
28	0xbe444502	-0.1916695
29	0xbe1f8d7d	-0.15581317
30	0xbdf65038	-0.12027019
31	0xbd94710a	-0.07248123
32	0xbe64a8bd	-0.22329994
33	0xbde89fc0	-0.11358595
34	0xbe060af9	-0.13090123
35	0xbe2cb983	-0.16867642
36	0xbe16fa05	-0.14743812
37	0xbe21cee9	-0.15801586
38	0xbdda7454	-0.10666719
39	0xbe704daf	-0.23467134
40	0xbe0c4a05	-0.13700111
41	0xbe23c0cb	-0.15991513
42	0xbedf852b	-0.43656287
43	0xbe4a6732	-0.19765928
44	0xbe319f3a	-0.17345896
45	0xbe1e462a	-0.15456453
46	0x3e107f25	0.14111002
47	0xbe093c7a	-0.13401976
48	0xbe3c1b1f	-0.18369721
49	0xbe206f76	-0.15667519
50	0xbd928b99	-0.071555324
51	0xbe0707bc	-0.13186544
52	0xbdb645c3	-0.08900025
53	0xbdcd7e5a	-0.10033865
54	0xbe7bf13e	-0.24603745
55	0xbdaf8f12	-0.0857221
56	0xbe063a44	-0.13108164
57	0xbe10eb50	-0.14152265
58	0xbe5f981b	-0.21835367
59	0xbde15b29	-0.110037155
60	0xbe233ac3	-0.15940385
61	0xbdfb65f9	-0.12275309
62	0xbe1bade1	-0.15203048
63	0xbde6ee22	-0.11275889
64	0xbe2808c4	-0.16409594
65	0xbe39d71e	-0.18148467
66	0xbe4ea355	-0.20179494
67	0xbd4fe4e2	-0.05075539
68	0xbe5f832a	-0.21827379
69	0xbda539fa	-0.08067699
70	0xbe2408ec	-0.16019028
71	0xbc61d507	-0.0137837
72	0x3d39ae95	0.04533251
73	0xbd80846c	-0.062752575
74	0xbe26495c	-0.16238922
75	0xbe27819b	-0.16358034
76	0xbe4f26b7	-0.20229612
77	0xbe136d38	-0.14397132
78	0xbe1c170d	-0.15243168
79	0xbe1af288	-0.15131581
80	0xbdf58f40	-0.119902134
81	0xbd3ff1ac	-0.046861336
82	0xbb4c53b6	-0.0031177825
83	0xbe3c9748	-0.18417084
84	0x3e2e20f6	0.17004761
85	0xbe629136	-0.22125706
86	0xbe0c8bd5	-0.13725217
87	0xbe244afb	-0.16044228
88	0xbd6fc0bb	-0.05853341
89	0xbd6f9a70	-0.058496892
90	0xbdb5cac4	-0.08876565
91	0xbe1241f2	-0.14282969
92	0xbddb6570	-0.10712707
93	0xbd208534	-0.039189532
94	0xbdba315e	-0.09091447
95	0xbe061e05	-0.13097389
96	0xbdab27b4	-0.08357182
97	0xbe7395d8	-0.2378763
98	0xbdc62df7	-0.09676736
99	0xbe2d3471	-0.16914536
100	0xbe321803	-0.17391972
101	0xbd995948	-0.07487732
102	0xbe82de28	-0.25560117
103	0xbe5b438c	-0.21412486
104	0xbd04cab3	-0.03241987
105	0xbe04ed67	-0.12981187
106	0xbdcba810	-0.09944165
107	0xbdf03189	-0.11728198
108	0xbdab21d2	-0.0835606
109	0xbe19ffa6	-0.15038928
110	0xbdc136d4	-0.09434286
111	0xbd3100e4	-0.04321374
112	0xbe046a6c	-0.12931222
113	0xbe618e01	-0.22026826
114	0xbdb890de	-0.09012006
115	0xbe132763	-0.14370494
116	0xbb9acfea	-0.0047244923
117	0xbe14ec2f	-0.14543222
118	0xbe06be52	-0.13158539
119	0xbd2bea2c	-0.04197137
120	0xbe405b27	-0.18784772
121	0xbe041360	-0.12898016
122	0xbe025522	-0.12727788
123	0xbe2acb4c	-0.16679114
124	0xbdaa611b	-0.08319303
125	0xbe1b2591	-0.15151049
126	0xbdda1c09	-0.106498785
127	0xbe4433ef	-0.19160436

9/Gemm.weight f4 [128, 128]
0	0xbb2960ac	-0.0025844974
1	0x3def2c38	0.11678356
2	0xbd8f1ed9	-0.069883056
3	0xbe15317d	-0.1456966
4	0xbbc9fac9	-0.006163929
5	0x3e527ca3	0.20555358
6	0xbd2315dc	-0.03981577
7	0x3d417028	0.0472261
8	0xbe10a0b1	-0.14123799
9	0xbd1aaf73	-0.037764978
10	0x3e34d895	0.17660744
11	0x3e87a7dd	0.26495257
12	0x3ce44843	0.027866488
13	0x3d74e4fc	0.05978869
14	0xbd0ed474	-0.03487058
15	0x3cefd547	0.029276503
16	0x3d8acabb	0.06776949
17	0xbac5d82d	-0.0015094333
18	0x3d986359	0.07440824
19	0xbd1d86d5	-0.038458664
20	0xbd9e0362	-0.07715489
21	0xbe5dcc72	-0.21660021
22	0xbd8946f2	-0.06702985
23	0x3d0f29c4	0.03495194
24	0xbe24f328	-0.16108382
25	0xbe127ee8	-0.14306223
26	0x3d1a181e	0.037620656
27	0xbcea8185	-0.028626213
28	0xbdc1f9c9	-0.09471471
29	0x3ca69ba2	0.020337883
30	0xbcdab76c	-0.02669879
31	0x3d4e41c0	0.050355673
32	0xbd0bd1da	-0.034135677
33	0xbe58da9f	-0.21177147
34	0xbe2b33d9	-0.16718997
35	0x3d8c0385	0.06836609
36	0xbe722d32	-0.23650053
37	0xbd9f995d	-0.077929236
38	0x3dcd57b6	0.10026495
39	0x3e5d2f30	0.21600032
40	0xbba74442	-0.0051045725
41	0x3e37bae5	0.17942388
42	0x3cb6754b	0.022272727
43	0xba8bbdaf	-0.0010661389
44	0xbd7f30a1	-0.062302236
45	0xbb91fb34	-0.0044549946
46	0xbd845a80	-0.06462574
47	0xbbacf22b	-0.005277892
48	0xbe024c9a	-0.12724534
49	0xbd5e5d9d	-0.054288495
50	0xbe9aa170	-0.30201292
51	0x3d8922c0	0.06696081
52	0xbdd55fb3	-0.10418644
53	0xbe1db74f	-0.15401958
54	0xbd4195cf	-0.04726201
55	0xbd1a203e	-0.037628405
56	0xbd17cd47	-0.037061002
57	0xbe5e093d	-0.21683212
58	0x3dbd207b	0.09234711
59	0xbb73c9b1	-0.0037199075
60	0xbd6994cd	-0.057026673
61	0xbce016a4	-0.027354546
62	0xbea0c34d	-0.31399003
63	0xbcdb6a0f	-0.026783971
64	0x3d78ddbc	0.060758337
65	0xbe3594e9	-0.17732586
66	0x3dc8f6b6	0.098126814
67	0xbe29910d	-0.16559239
68	0xbcde7b7d	-0.027158493
69	0x3d343f40	0.044005632
70	0x3d811c89	0.06304271
71	0xbca255b1	-0.019816251
72	0x3d0d27c8	0.034461766
73	0xbcca55ca	-0.02469911
74	0xbcb326cb	-0.021869084
75	0xbdf53d89	-0.119746275
76	0xbea6e048	-0.32592988
77	0x3cc8f0d9	0.024528908
78	0x3e415017	0.18878208
79	0xbbec5203	-0.007211925
80	0xbcbe506d	-0.02323171
81	0xbca1f7f1	-0.019771548
82	0xbe1f3e8b	-0.15551202
83	0x3d9dbedc	0.07702419
84	0xbde857de	-0.11344884
85	0xbcec311b	-0.028832009
86	0xbe044437	-0.12916647
87	0x3d6e2835	0.058143813
88	0x3c8e81d8	0.017395899
89	0xbd158a60	-0.036508918
90	0xbd1c2028	-0.038116604
91	0xbe8ffc6c	-0.2812227
92	0xbc339b1d	-0.010962275
93	0x3c959c66	0.018263053
94	0x3b869f7d	0.004108368
95	0xbdc20e39	-0.09475369
96	0xbe7f2c7f	-0.24919318
97	0x3ce114fe	0.02747583
98	0xbdb9135f	-0.09036898
99	0xbab94061	-0.0014133566
100	0x3cf38ae8	0.029729322
101	0xbe5123c7	-0.20423804
102	0xbe284340	-0.16431904
103	0x3ab028d3	0.0013439901
104	0x3c096658	0.008386217
105	0xbc65b7d1	-0.014020876
106	0xbd5c1c5e	-0.05373799
107	0xbe04a6c0	-0.12954235
108	0xbdb68d0d	-0.08913622
109	0x3d8b3e3d	0.067989804
110	0xbd1af826	-0.03783431
111	0x3df85eec	0.1212748
112	0x3ddb6640	0.10712862
113	0x3e02d2b0	0.12775683
114	0x3cd0e01b	0.025497487
115	0xbdeca0d0	-0.1155411
116	0x3c230b04	0.009951357
117	0x3de7563a	0.11295743
118	0x3db10996	0.086444065
119	0xbdae5edb	-0.08514186
120	0x3e1787a3	0.14797835
121	0x3d3f1583	0.046651375
122	0xbde6e044	-0.11273244
123	0xbd9015a9	-0.07035381
124	0x3d14d06b	0.036331575
125	0xba8c3c4f	-0.0010699126
126	0xbd23df0c	-0.040007636
127	0xbcbf9065	-0.023384282
128	0xbc53f739	-0.01293736
129	0x3a1f2aef	0.0006071766
130	0xbd3d17ae	-0.04616516
131	0xbda3d639	-0.07999844
132	0xbcaaec79	-0.020864712
133	0xbd151b1a	-0.0364028
134	0x3d68805d	0.05676304
135	0xbaf580ee	-0.0018730441
136	0xbe33b2a4	-0.17548615
137	0xbdf8b673	-0.121441744
138	0xbbf01c4b	-0.0073275915
139	0xbdd74679	-0.105114885
140	0xbe0a6bae	-0.13517639
141	0xbd140176	-0.036134206
142	0xbdccfc62	-0.10009076
143	0xbcf44cd9	-0.0298218
144	0xbd4917b2	-0.049094863
145	0xbec90eb6	-0.39269036
146	0xbc80e5b6	-0.015734535
147	0xbd34d0bb	-0.044144373
148	0xbe3ef567	-0.18648301
149	0x3da764b6	0.08173506
150	0xbe1ed801	-0.15512086
151	0xbd187aa3	-0.03722633
152	0xbe096a62	-0.13419488
153	0xbe2fc8f3	-0.171665
154	0x3dfb2944	0.1226373
155	0x3e394a58	0.18094766
156	0xbd495abc	-0.049158797
157	0x3cf8a182	0.03035045
158	0xbe1f37db	-0.15548651
159	0xbddafa3b	-0.10692259
160	0xbd16cdb2	-0.03681726
161	0x3dc7807f	0.097413056
162	0x3deaba52	0.11461319
163	0xbe16d7d0	-0.14730763
164	0xbd862b5c	-0.06551239
165	0xbd1e8f9a	-0.038711168
166	0xbd14c50f	-0.036320742
167	0xbced3561	-0.028956117
168	0xbcd5d97f	-0.026104687
169	0xbd0e01ab	-0.03466956
170	0xbc3ca319	-0.011513495
171	0xbe98cc6a	-0.29843456
172	0xbd70c30b	-0.058779757
173	0xbc043409	-0.008069047
174	0xbb642d68	-0.0034817103
175	0xbd1bfbc1	-0.038081888
176	0xbe3c4757	-0.18386589
177	0xbc8d139b	-0.017221263
178	0x3e36148a	0.17781273
179	0x3c66670d	0.014062655
180	0xbd693527	-0.056935456
181	0xbdacb5c9	-0.0843311
182	0x3e13db17	0.14439045
183	0xbe8b60da	-0.2722233
184	0xbe50991b	-0.20370905
185	0xbd24e007	-0.04025271
186	0xbded0ae0	-0.1157434
187	0x3e2ff262	0.17182305
188	0xbe7e0c1e	-0.2480931
189	0xbdafb77a	-0.08579917
190	0xbcaa9fa1	-0.02082807
191	0x3e2ca65a	0.16860333
192	0x3e07d1a0	0.1326356
193	0xbca61b8e	-0.020276811
194	0xbcf1b1dd	-0.029503757
195	0xbe53a587	-0.20668612
196	0x3ca1b90b	0.019741556
197	0xbc793cd8	-0.01521226
198	0x3d75b94d	0.05999117
199	0x3d24d51e	0.040242307
200	0xbdc6fff6	-0.097167894
201	0xbde10d2b	-0.1098884
202	0xbd088d4b	-0.033337872
203	0x3ba32a2c	0.0049793925
204	0x3de3ece9	0.111291714
205	0x3e17c075	0.1481951
206	0xbe676e05	-0.22600563
207	0xbd2655ca	-0.04060916
208	0xbea33d1d	-0.31882563
209	0xbd21ff0b	-0.03954987
210	0x3cae14ee	0.021250214
211	0xbdff1b81	-0.12456418
212	0xbdf5bd72	-0.119990245
213	0xbdb7baa9	-0.089711495
214	0xbc9cde84	-0.019149072
215	0xbcfee106	-0.031113159
216	0xbd1dc307	-0.03851607
217	0xbe2025f1	-0.15639473
218	0xbd23a804	-0.039955154
219	0xbe288a3e	-0.16458985
220	0xbdc09bbe	-0.094047055
221	0x3c8205d6	0.015871923
222	0xbd2e60bf	-0.042572733
223	0xbd922a5c	-0.07136986
224	0xbcce17b4	-0.025157787
225	0xbe4c51f4	-0.19953138
226	0xbe52d8b7	-0.20590483
227	0x3e15404a	0.14575306
228	0xbd8d380c	-0.06895456
229	0xbcda8778	-0.026675925
230	0xbe9390c2	-0.2882138
231	0xbdee83ee	-0.11646257
232	0xbe88d5d4	-0.26725638
233	0x3dd08e54	0.10183397
234	0xbd86e9d4	-0.06587568
235	0xbe3eeb43	-0.18644433
236	0x3dc5f1d3	0.09665265
237	0xbda99642	-0.082806125
238	0xbe436576	-0.19081673
239	0x3dcc79c6	0.09984164
240	0x3d134692	0.035955973
241	0xbe1b6108	-0.15173733
242	0xbd3fc107	-0.046814945
243	0xbed11639	-0.40837267
244	0xbe6dd151	-0.23224379
245	0xbe6256e6	-0.22103462
246	0xbd5e0a50	-0.054209054
247	0xbd285d2b	-0.041104477
248	0xbc4e1a3e	-0.012579499
249	0x3e2eac0e	0.17057821
250	0x3dea6fb0	0.11447084
251	0x3d8fbcc0	0.07018423
252	0x3cb66902	0.022266869
253	0x3e227528	0.15865004
254	0x3c36b96e	0.011152608
255	0xbd78a4d6	-0.060704075

9/Gemm.bias f4 [128]
0	0xbeac0da6	-0.33604163
1	0xbe25e668	-0.16201174
2	0xbe2755cc	-0.16341323
3	0xbdf75262	-0.1207626
4	0xbe306f0c	-0.17229861
5	0xbe1c9895	-0.1529258
6	0x3e9c9fb0	0.30590582
7	0xbe9f38db	-0.31098065
8	0x3e58e4b8	0.21181
9	0xbe5d096b	-0.21585624
10	0x3eb8af84	0.36071408
11	0x3eca2967	0.39484712
12	0x3e5b1b05	0.21397026
13	0xbdd9ac52	-0.106285706
14	0xbe841ed2	-0.25804764
15	0xbdd5d9ba	-0.10441919
16	0xbdd5f09c	-0.10446283
17	0xbe165af3	-0.14683132
18	0xbe136bd4	-0.14396602
19	0xbe2025bc	-0.15639395
20	0xbe97abd0	-0.2962327
21	0xbea5b42d	-0.32364026
22	0xbe31d899	-0.17367782
23	0xbe4c5b6f	-0.19956754
24	0xbea02bdc	-0.31283462
25	0x3d573d9e	0.052548997
26	0xbe196435	-0.14979632
27	0xbe84db7f	-0.25948712
28	0xbdd126ad	-0.10212455
29	0xbddc0ce2	-0.10744645
30	0xbe610849	-0.21975817
31	0xbe6227ba	-0.22085467
32	0xbd93496a	-0.07191737
33	0xbdf9db6a	-0.12200053
34	0xbe22041b	-0.15821879
35	0xbe6b0636	-0.22951588
36	0xbe121ac3	-0.14268021
37	0xbe8788f5	-0.26471677
38	0xbd3f7656	-0.046743713
39	0x3d18c340	0.03729558
40	0x3f012b1a	0.5045639
41	0xbe79ad9a	-0.2438263
42	0xbe34ce51	-0.17656828
43	0xbe55415b	-0.20825712
44	0xbe09cc7d	-0.13456912
45	0xbdac5a84	-0.08415702
46	0xbe2aa02b	-0.16662662
47	0xbe361142	-0.17780021
48	0xbecd2a1c	-0.4007119
49	0x3ec5cfe4	0.3863517
50	0xbe8a58ee	-0.27020973
51	0x3e78e9df	0.24307965
52	0xbe6402b0	-0.2226665
53	0xbe4c59dd	-0.19956155
54	0xbe6fb623	-0.23409323
55	0xbdf60aae	-0.12013756
56	0xbe70519e	-0.23468634
57	0xbded3272	-0.11581887
58	0xbe2101b6	-0.15723309
59	0xbe55487a	-0.20828429
60	0xbe373a8d	-0.17893429
61	0xbe21a65c	-0.15786117
62	0xbe836ef1	-0.2567058
63	0xbd7a7225	-0.061144013
64	0x3e7ac098	0.24487531
65	0x3e562201	0.20911409
66	0xbebf517d	-0.37366858
67	0xbde5e0f9	-0.11224551
68	0xba36dc8d	-0.00069756137
69	0xbe2eb9c3	-0.1706305
70	0xbe43bb84	-0.191145
71	0xbe80740f	-0.25088546
72	0xbb8df3e1	-0.004332051
73	0xbe0a7d99	-0.13524474
74	0x3e104e5a	0.14092389
75	0xbe2f8e30	-0.17144084
76	0xbe405aca	-0.18784633
77	0xbec82822	-0.3909312
78	0xbdb89210	-0.09012234
79	0xbdfa4f37	-0.1222214
80	0x3e37a9e5	0.17935903
81	0xbe369bc4	-0.17832857
82	0xbc5f2530	-0.013619706
83	0x3e74eddf	0.23918866
84	0xbe43a089	-0.19104208
85	0xbe110ab1	-0.14164235
86	0xbe3e9aca	-0.18613735
87	0xbe3279c3	-0.17429261
88	0xbe5dba53	-0.21653108
89	0xbe3f6357	-0.18690239
90	0x3eea7fd0	0.45800638
91	0x3d95fe16	0.07323854
92	0xbe84f65e	-0.25969213
93	0x3e317cfa	0.17332831
94	0x3e345d37	0.17613684
95	0x3d68a890	0.05680138
96	0xbc04d016	-0.008106252
97	0xbe194744	-0.14968592
98	0x3c6ed5e7	0.0145773655
99	0xbe6a43fa	-0.22877494
100	0xbe84db88	-0.2594874
101	0xbee6c410	-0.4507146
102	0xbe8419de	-0.25800985
103	0x3c65677b	0.014001722
104	0x3e2514a1	0.1612115
105	0x3e6efe9e	0.23339316
106	0xbe7a11aa	-0.24420801
107	0x3dbb5ec0	0.091489315
108	0x3e626f18	0.22112691
109	0xbe93e82c	-0.2888807
110	0x3edfa738	0.43682265
111	0xbdb3aaac	-0.087727875
112	0xbea1611b	-0.31519398
113	0xbe6e25ce	-0.23256609
114	0xbe791aaf	-0.24326585
115	0xbf2076c8	-0.62681246
116	0x3eba362a	0.3636945
117	0x3d2a4fd8	0.04158005
118	0xbe4e169b	-0.20125811
119	0xbe8bcc4b	-0.273043
120	0x3ea43944	0.3207494
121	0xbd77802c	-0.06042497
122	0x3eb64982	0.35602957
123	0xbd758830	-0.05994433
124	0xbe4b0d14	-0.19829208
125	0xbd8e0f9c	-0.06936571
126	0xbe1c3551	-0.15254714
127	0xbe0c7f03	-0.13720326

11/Gemm.weight f4 [128, 128]
0	0xbd339514	-0.043843344
1	0xbd93af60	-0.072111845
2	0xbda8b961	-0.08238483
3	0xbc93f250	-0.01805988
4	0xbc615713	-0.01375367
5	0xbc229a52	-0.009924488
6	0xbcffa856	-0.031208199
7	0xbdf03464	-0.11728743
8	0xbe119283	-0.14216046
9	0xbd4e04d2	-0.050297566
10	0xbd827714	-0.063703686
11	0xbe17d7a0	-0.14828348
12	0xbd89d8ff	-0.06730842
13	0xbd048bd5	-0.032359917
14	0xbcbc67e3	-0.022998756
15	0x3c8b6712	0.017016921
16	0xbcf91a7f	-0.030408142
17	0xbd4d6158	-0.050141662
18	0xbe276c2e	-0.16349861
19	0xbe0fce6f	-0.14043592
20	0x3d71577b	0.05892132
21	0x3ca48411	0.020082505
22	0xbcbd0db8	-0.02307783
23	0xbdce0762	-0.10060002
24	0xbe045975	-0.1292475
25	0xbda62008	-0.08111578
26	0xbe6c3026	-0.23065242
27	0xbc770fd5	-0.015079458
28	0xbd0207fb	-0.031745892
29	0xbdd5e52a	-0.104441
30	0xbd3d1279	-0.046160195
31	0xbe1b92f8	-0.15192783
32	0xbd27479c	-0.040839776
33	0xbd61b57d	-0.05510472
34	0xba6ab7d6	-0.0008953785
35	0xbd9b11fd	-0.0757179
36	0x3d4a7aee	0.04943364
37	0xbcd6190b	-0.026134988
38	0xbd234b46	-0.03986671
39	0x3d1c71f3	0.038194608
40	0xbdc196b5	-0.09452573
41	0xbcd787cf	-0.026309876
42	0x3d8465ba	0.06464715
43	0x3d04dfb3	0.0324399
44	0xbcb68d98	-0.022284314
45	0xbdef8c4c	-0.116966814
46	0xbc51507b	-0.012775536
47	0xbdd53c27	-0.10411864
48	0xbb7aa6d2	-0.0038246405
49	0xbb13ae31	-0.0022534246
50	0x3d97e51b	0.07416745
51	0x3cc550b3	0.024086332
52	0x3d1d594b	0.038415235
53	0x3e0cc327	0.1374632
54	0xbe168346	-0.14698514
55	0x3dcb9e61	0.09942318
56	0xbdd09f36	-0.10186617
57	0xbda72261	-0.08160854
58	0xbd7bfbfb	-0.061519604
59	0x3deda969	0.11604578
60	0xbc838e57	-0.016059084
61	0xbc03b0b5	-0.008037736
62	0xbd3aea97	-0.04563388
63	0xbdd0df7b	-0.101988755
64	0xbe04386b	-0.12912147
65	0xbdbd876e	-0.09254347
66	0xbcc85632	-0.024455164
67	0xbe15cd01	-0.14628984
68	0xbdac09f2	-0.084003344
69	0xbd42d334	-0.0475647
70	0x3e0a1f40	0.13488483
71	0xbe0996a7	-0.13436376
72	0xbe15311b	-0.14569513
73	0xbdddfa0e	-0.1083871
74	0xbdd779f0	-0.105213046
75	0xbd167c98	-0.036739916
76	0xbe4c0a14	-0.1992572
77	0xbdea8cf5	-0.11452667
78	0xbe284c74	-0.16435415
79	0xbdba0799	-0.090834804
80	0xbe2c832e	-0.16846916
81	0xbd5ee499	-0.054417226
82	0xbe14ffd2	-0.14550713
83	0xbd25c545	-0.040471334
84	0xbd16adaa	-0.036786713
85	0xbd2a15a6	-0.04152455
86	0xbd2c6fcc	-0.042098805
87	0xbe1c2c73	-0.15251331
88	0xbde1187d	-0.10990999
89	0x3b981030	0.0046406016
90	0xbd55d99d	-0.052209485
91	0xbe249a2b	-0.16074435
92	0xbe031708	-0.12801754
93	0x3d651ff3	0.055938672
94	0xbc70d3dd	-0.01469895
95	0x3dcb2a72	0.09920205
96	0xbda8e82b	-0.082474075
97	0x3db07979	0.08616919
98	0xbe7391d7	-0.23786102
99	0x3ded4c19	0.1158678
100	0x3d3879c4	0.045038
101	0xbe57de73	-0.21080951
102	0x3e395eb8	0.18102539
103	0xbe520d01	-0.20512773
104	0xbd0ecd8a	-0.034863986
105	0x3d166d28	0.036725193
106	0x3cb6c3b4	0.022310115
107	0xbe133985	-0.1437741
108	0xbe23e832	-0.16006544
109	0xbd9e5bc8	-0.0773235
110	0xbbd170f1	-0.0063916375
111	0xbbc5bb14	-0.0060342643
112	0xbe0a97fa	-0.13534537
113	0xbd034fbf	-0.032058474
114	0xbd1cc227	-0.038271096
115	0xbcb3868f	-0.021914748
116	0xbd84f708	-0.0649243
117	0xbd28e350	-0.041232407
118	0x3ca07486	0.019586813
119	0xbdda8b06	-0.10671048
120	0xbcfbc614	-0.0307341
121	0x399e995d	0.00030250373
122	0xbccf0537	-0.025271041
123	0xbccc8266	-0.024964523
124	0x3dc6e9ff	0.097126
125	0xbe7c22b0	-0.24622607
126	0xbe2095d3	-0.15682153
127	0xbbae6b0a	-0.0053228186
128	0x3dff1b4c	0.12456378
129	0xba7ebff5	-0.0009717935
130	0x3a4ec442	0.0007887521
131	0xbd20e113	-0.039277148
132	0x3d4b2826	0.049598835
133	0xbd160235	-0.0366232
134	0xbbd14ea4	-0.0063875485
135	0xbe04f072	-0.12982348
136	0xbcb67559	-0.022272753
137	0xbe46063d	-0.19338317
138	0xbcb16183	-0.021652943
139	0xbe828d15	-0.25498262
140	0xb9b2b682	-0.00034086785
141	0xbb4704d6	-0.0030367873
142	0x3d5fceb5	0.05464049
143	0x3d330682	0.04370738
144	0xbd209222	-0.039201863
145	0x3d10392b	0.03521077
146	0x3cb4eb35	0.022084812
147	0xbe0f9cfd	-0.1402473
148	0xbc3c603f	-0.011497556
149	0xbd2891cc	-0.041154668
150	0xbb6447f1	-0.003483292
151	0xbd1575ae	-0.03648918
152	0xbd81ee23	-0.06344249
153	0xbece413d	-0.40284148
154	0xbe58361e	-0.21114394
155	0xbcbc8bc0	-0.023015857
156	0xbd2470e8	-0.04014674
157	0xbdafdd8c	-0.085871786
158	0xb608275a	-2.0288485e-06
159	0x3b98d847	0.004664454
160	0xbb85e374	-0.0040859524
161	0xbcf766c2	-0.030200366
162	0x3d036d7a	0.032086827
163	0xbdefbfed	-0.11706529
164	0xbcb66e3a	-0.022269357
165	0x3dbb5fbe	0.09149121
166	0xbbb6a5e1	-0.0055739735
167	0x3eb60359	0.3554943
168	0xbdc0aca2	-0.09407927
169	0xbcdd2ea5	-0.02699978
170	0x3de93960	0.113878965
171	0x3c8f3fe1	0.017486515
172	0xbc471ce3	-0.012152883
173	0xbc68f28f	-0.014217987
174	0xbd7f428f	-0.062319335
175	0x3d2aa330	0.041659534
176	0x3dd40b68	0.10353738
177	0xbe0a0a9d	-0.13480611
178	0xbe423f6e	-0.18969509
179	0xba77c6c5	-0.0009451921
180	0xbd104476	-0.03522154
181	0xbd33ff13	-0.04394443
182	0xbceb195a	-0.028698612
183	0x3e002921	0.1251569
184	0x3cfab4c1	0.030603768
185	0x3d855969	0.06511194
186	0xbbf275ab	-0.007399281
187	0xbd21b216	-0.039476477
188	0xbb611284	-0.0034343312
189	0x3e2c01e4	0.16797596
190	0xbd107eed	-0.035277296
191	0xbd19fd3c	-0.03759502
192	0xbcd60b93	-0.026128566
193	0xbc8b4cda	-0.01700442
194	0xbc1c4fd0	-0.009540513
195	0xbe17d470	-0.14827132
196	0xbf41e014	-0.7573254
197	0xbcfa2b83	-0.030538326
198	0x3d9cd565	0.07657889
199	0xbf72b23c	-0.94803214
200	0xbaacf26d	-0.0013194807
201	0x3d9ccb82	0.076560035
202	0xbc504db7	-0.012713841
203	0xbea2b92a	-0.31781894
204	0x3bd73cea	0.006568541
205	0xbc81d9eb	-0.015850982
206	0xbc30135b	-0.010746802
207	0xbc7b0242	-0.0153203625
208	0xba5e748a	-0.00084859936
209	0x3e1f11a9	0.1553408
210	0xbc333310	-0.010937467
211	0xba21b176	-0.00061681063
212	0x3d7734a7	0.060352948
213	0xbd294098	-0.041321367
214	0x3cdef18c	0.027214788
215	0xbc169d04	-0.009192709
216	0xba168abc	-0.0005742719
217	0xbdbc999f	-0.092089884
218	0xbe83c203	-0.25733957
219	0xbd3d6fcc	-0.046249196
220	0xbc608478	-0.013703458
221	0x3d72f519	0.059315775
222	0x3c6261fb	0.013817306
223	0xbc8114e2	-0.015757028
224	0x3dcd2352	0.100165024
225	0xbcfb790c	-0.030697368
226	0x3e50c5ff	0.2038803
227	0x3dcd7b10	0.10033238
228	0xbc801296	-0.015633862
229	0xbe323f95	-0.17407067
230	0xbd36b588	-0.044606715
231	0xbe491b12	-0.19639233
232	0xbd0bd70b	-0.034140628
233	0x3d943929	0.07237465
234	0x3d290389	0.041263137
235	0xbd36a2c9	-0.044588838
236	0xbcf32336	-0.029679876
237	0x3cb835c1	0.02248657
238	0xbf662b61	-0.8990994
239	0xbacb93b2	-0.0015531688
240	0x3d3b10bf	0.045670267
241	0xbdf637a0	-0.120223284
242	0xbc128919	-0.008943819
243	0xbbe0191d	-0.0068389312
244	0xbd11fa6b	-0.035639208
245	0xbc425cb7	-0.011862925
246	0xbc7b51c4	-0.015339319
247	0x3ce5623b	0.028000942
248	0xbd0d9bfa	-0.03457258
249	0xbe1aea81	-0.15128519
250	0xbbf683d1	-0.007523038
251	0xbc9081b9	-0.017639982
252	0xbda7de16	-0.081966564
253	0xbd91b0b0	-0.071137786
254	0xbd8fabfe	-0.07015227
255	0xbceef721	-0.029170575

11/Gemm.bias f4 [128]
0	0xbe2aa39b	-0.16663973
1	0x3d858951	0.06520332
2	0xbe17bc5a	-0.14817944
3	0x3e04bdd2	0.12963036
4	0x3eaffa84	0.34370816
5	0x3eaf70ce	0.3426575
6	0xbcfb6906	-0.030689728
7	0x3ca29c2d	0.019849861
8	0x3ea6f690	0.32609987
9	0x3f2ae148	0.6675
10	0xbdf3d641	-0.119061
11	0xbe8eb270	-0.27870512
12	0x3e3cb71a	0.18429223
13	0x3da64e94	0.08120456
14	0xbbc35a15	-0.0059616663
15	0xbe39e5c0	-0.18154049
16	0xbdacfe10	-0.08446896
17	0xbe028b9c	-0.12748569
18	0x3edb3c33	0.42819366
19	0xbdd5083d	-0.10401962
20	0xbe3c4b08	-0.18387997
21	0x3ead296e	0.3382067
22	0xbdd3a084	-0.1033335
23	0x3ee6eb08	0.4510119
24	0xbe13c595	-0.1443084
25	0xbe3cd8de	-0.18442103
26	0x3e415b11	0.18882395
27	0xbe270c97	-0.16313396
28	0xbdb40bb4	-0.08791295
29	0xbe0d4f3d	-0.13799758
30	0x3e57de03	0.21080784
31	0x3ebd2aa8	0.36946607
32	0x3d1a6a6e	0.037699156
33	0xbdf1a630	-0.11799276
34	0xbdf0da1a	-0.117603496
35	0x3e9dcf54	0.3082224
36	0x3ef169a5	0.47150913
37	0x3dcbaf9d	0.09945605
38	0xbe82c889	-0.2554362
39	0xbd3c365e	-0.045950286
40	0xbe57019a	-0.20996705
41	0x3ee66185	0.44996276
42	0x3d39db9f	0.045375463
43	0xbe6715e3	-0.22566943
44	0x3dcd7c22	0.10033442
45	0xbd4f090a	-0.05054573
46	0x3e5d05c6	0.21584234
47	0x3f0e4083	0.5556719
48	0xbe13964b	-0.14412801
49	0x3ef319e4	0.4748069
50	0x3d3261ad	0.043550182
51	0x3e7d5ecb	0.24743192
52	0xbe1571b4	-0.14594156
53	0x3eb8ebfe	0.36117548
54	0xbe17f51e	-0.14839599
55	0xbe0eae7b	-0.13933747
56	0xbe5061db	-0.20349829
57	0xbe871417	-0.26382515
58	0x3eeeec04	0.4666444
59	0xbe288888	-0.16458333
60	0xbdb98d26	-0.09060125
61	0x3f746950	0.95473194
62	0xbe5f5ecf	-0.2181351
63	0xbe1f9590	-0.15584397
64	0xbd98a7e5	-0.07453898
65	0xbe01e377	-0.12684427
66	0xbdd7fbe9	-0.10546095
67	0x3e8e1507	0.27750418
68	0xbe1641ee	-0.14673588
69	0xbe5630b0	-0.2091701
70	0x3e903180	0.28162766
71	0xbeaad840	-0.3336811
72	0xbc848cfd	-0.01618051
73	0xbd48c15d	-0.04901253
74	0x3e1b3377	0.15156351
75	0x3e61dbdc	0.22056526
76	0xbe1bab2d	-0.15202017
77	0xbe2fad2c	-0.17155904
78	0xbe21633c	-0.15760511
79	0x3ed163bb	0.408964
80	0xbc8b8ec2	-0.017035846
81	0x3ead49dc	0.33845413
82	0xbde5d420	-0.112221
83	0xbe2568b7	-0.16153227
84	0xbe333c32	-0.17503431
85	0xbe01ccb9	-0.12675752
86	0x3edef5bb	0.43546852
87	0xbde2d0c0	-0.11074972
88	0xbd9317af	-0.07182252
89	0xbdc8409c	-0.09777948
90	0x3ec7597a	0.38935453
91	0xbd3fde23	-0.046842705
92	0x3e5c1d57	0.21495567
93	0xbddfd5a5	-0.10929421
94	0x3ecc22d0	0.3987031
95	0x3e73f0b0	0.23822284
96	0xbe9df40e	-0.3085026
97	0x3cd056fe	0.025432106
98	0xbdfd9340	-0.12381601
99	0xbe182a7f	-0.14859961
100	0x3f06966c	0.52573276
101	0xbdac3d9c	-0.084101886
102	0x3e83df47	0.25756285
103	0xbe1a5f7b	-0.15075485
104	0xbdf7bcf7	-0.12096589
105	0xbd5927de	-0.053016536
106	0x3e5b4e0d	0.21416493
107	0xbe1ec203	-0.15503697
108	0xbe296878	-0.16543758
109	0xbe384ea4	-0.17998749
110	0xbbee2b1e	-0.0072683236
111	0xbe1b009e	-0.15136954
112	0x3daa5cbe	0.083184704
113	0x3e39648a	0.18104759
114	0xbd8d3541	-0.06894923
115	0x3ec08080	0.37598038
116	0xbd95a68c	-0.07307157
117	0xbe20474a	-0.15652195
118	0x3d005b9d	0.03133737
119	0xbe0b2c78	-0.13591182
120	0xbe2efd5d	-0.17088838
121	0x3e219d4b	0.15782659
122	0x3e876def	0.2645106
123	0xbdb56067	-0.08856278
124	0xbe4e6407	-0.20155345
125	0x3f57fe3c	0.84372306
126	0x3cae1ce6	0.021254014
127	0x3d0c2edf	0.034224387
