project_networks/ensemble_models/mnist_cnn_2layer_w1_ensemble1.onnx (onnx, 475272 bytes, 16 tensors)

0/Conv.weight f4 [4, 1, 4, 4]
00000000: 17b0 68ba 88a8 d5ba bab5 d8b9 136e d0b9
00000010: 7cb8 25ba b1ab bcb9 e705 2a3a eec9 843a
00000020: 71fb 3eb9 55ae 8a3a c75f 763a 10aa 8138
00000030: 5127 ac3f 890e e73a 4faf 403a 3758 11ba
00000040: b6be 32bd 753d 29bd 4a75 84bd 900b 873e
00000050: 3366 e7bc ac93 07bd d2a5 40bd 330f 8cbd
00000060: 0a4e ddbc e38b 04bd b9c1 1dbd 77a1 2cbd
00000070: 30ac adbe 8db1 64be 9d08 99be c181 edbe
00000080: a453 493a c0eb 0c3b 62f0 6d3f 7611 cc3a
00000090: 14f7 8e3a bb1c 7439 65b7 843a e27a 0c39
000000a0: 1237 8439 8e6f 053a d26b 27ba c3a9 56bb
000000b0: 9353 013a 6890 b9b6 f22a 7fbb 0ff4 eebb
000000c0: 4fc6 8ab8 d3c7 89b9 870b 7cb7 80af 8f38
000000d0: 3e47 c838 6ac2 6ab8 7b19 ca39 78d2 853a
000000e0: b661 be38 4869 9538 830c 76b9 ff50 9b3f
000000f0: 3089 57b9 402c 3bba 886a 83b9 23d7 4c39
-0.0008876337 -0.0016300837 -0.00041334127 -0.00039754863 -0.0006321741 -0.00035986074 0.0006485865 0.001013098
-0.00018213481 0.001058052 0.0009398427 6.182876e-05 1.3449498 0.0017628233 0.0007350342 -0.0005544456
-0.043638907 -0.041318376 -0.064676836 0.2637601 -0.028246975 -0.033099815 -0.04703314 -0.068388365
-0.027014751 -0.03235997 -0.038514826 -0.042146172 -0.3392043 -0.22333355 -0.29889384 -0.46388057
0.0007680005 0.0021502823 0.9294492 0.0015569169 0.0010907375 0.00023280356 0.0010125457 0.00013397218
0.00025218033 0.00050901703 -0.0006386611 -0.0032754994 0.0004933413 -5.5302407e-06 -0.003893551 -0.0072922776
-6.617291e-05 -0.00026279557 -1.5023054e-05 6.851461e-05 9.550013e-05 -5.597101e-05 0.00038547427 0.0010209819
9.078106e-05 7.124484e-05 -0.00023465049 1.2134093 -0.00020555104 -0.00071400777 -0.0002506564 0.00019535101

0/Conv.bias f4 [4]
00000000: 84d5 d2be fd1f 87be 25d8 90be 468b bbbe
-0.41178524 -0.26391593 -0.28289905 -0.36629695

2/Conv.weight f4 [8, 4, 4, 4]
00000000: 3329 61c0 2529 86bf 8dfd a63a 1e22 b338
00000010: a412 9bc0 e133 50bc 02f1 233e 2e2c 2e3c
00000020: aa62 0cc0 a167 b13b afe3 2a3c 432b 7a3b
00000030: ad79 7ebb e946 883b c4e8 d03a 8a38 87ba
00000040: a14d b539 e8f1 7eb9 2c28 5ebf ed84 e1b5
00000050: 434c d4b5 78f6 92bf 018c 4cbf 24cf 6138
00000060: 25e3 cdb6 76c0 0236 5431 47bf 7b37 14be
00000070: a358 1ab5 a9a8 42b5 2d79 9db6 f9da 7fbf
00000080: 2b20 bfba 9937 79ba 7e84 a939 6ee8 1e3a
00000090: 9fbe 2ac0 4f08 f439 ac4b 0dba d25a 76bb
000000a0: 4523 99bf 832a b93e c61c ec3b 4a3b d4bf
000000b0: 2855 fdbb 920c f03d 597e ab3b 260e 31c0
000000c0: 230c 6cbb 3fb7 e5b9 1e88 19ba 0011 c9bf
000000d0: 1e04 dd3b 56a4 843e ea73 2f3c 4c6e 81c0
000000e0: a9c2 033c 17b2 243e d766 9bba 80b0 43c0
000000f0: 39ca 053c b8cd 053c 3f93 d8bf bb2e c7bf
00000100: ff0c 51c0 0853 1cc0 0147 3abc 08fe a4bb
00000110: 315a 073b 6320 803a a584 ff36 2535 f1bb
00000120: eca1 103c 4a44 8c3d 5dfa 033e a23e 093e
00000130: 687f fb3b a42f 893b b836 733b 010c 9b3b
00000140: 69ed 05b8 d485 aeb6 754d 28b4 b879 1736
00000150: 8815 3bb9 a27b 11b7 dae6 5036 a722 0d36
00000160: aba9 30bb 4b23 b1be a2a6 dabd e032 b3bc
00000170: e4ef 65b5 d352 4138 e495 1336 3bbd bfb7
00000180: 6e9f 0bbb c1e9 11ba df37 e538 ff5b af38
00000190: 2c85 31bb 4b87 66bb 903f c1ba 2f06 a3bb
000001a0: c645 efbf daff 66c0 23f1 6dc0 86d9 19c0
000001b0: 46e8 fe3a 5571 a23d df6b bd3b c4e8 c03b
000001c0: 345a ebba 9d1d 3abb cfc8 35bb 7dee 28bb
000001d0: 3c96 1ac0 0e8f 56c0 f7f4 32c0 f347 f2bf
000001e0: 69ef 2e3c 46fb 993c f7ce a93a 00eb 293a
000001f0: 7af0 0f3e c4a6 9f3e c28b 653e 689d 313c
00000200: 89bb 18bc 3fa9 45b9 f7c6 393a 6276 cd3a
00000210: fc01 19bc e42a 42bb 386d 3f3a 0a50 47b8
00000220: d681 0cbc c589 99bb 182e 273b 8714 b23b
00000230: b11b f2ba 6c36 b0bb ecc9 0dbb 4a84 b738
00000240: 4492 9337 646b 2438 4b3a 1437 c3e8 fe38
00000250: a958 82b7 6e79 83b8 b24e 93be 540b a1ba
00000260: 6d55 56b2 09e7 8236 c653 a7b8 1cb5 d1b7
00000270: 33cf 25b4 4320 fcb7 9112 63b3 35c2 3db6
00000280: 1042 56bb 0bc5 3e3b 3439 153a ae54 0cbc
00000290: fc63 003a 3e61 a63a 9caf 56bb 0aed 35c0
000002a0: 95f4 94ba 5a8a b639 9922 30b9 1fad d038
000002b0: 5e0e 9fbb 4b3f c83b ad43 893e d6f1 b13b
000002c0: 1542 86ba 09a8 a63a d9f7 83bf 0ec6 edbf
000002d0: 5378 4abb 5c5f e23a d634 baba ab12 01bc
000002e0: 005c 98ba 578a 213e 9d25 613e 1771 713b
000002f0: aad3 d3ba b5b2 d7ba f80f 18b7 e6f7 ed39
00000300: fb54 28bc 7e5f a1bc 6441 96bb 6047 31ba
00000310: 746d dcbf 4b7f 37c0 d456 cabe ff58 3c3b
00000320: 8a74 693b 2306 ac3a a050 78bb f8df e3bb
00000330: f164 863b c428 5f3e a1ca 503e c5db 3a3e
00000340: 097f 2136 2f5d 4837 80bd 7db6 3b34 1d37
00000350: f610 5d37 aa72 9f34 6117 3db6 26aa c0b5
00000360: e1c1 3bbe 4cea 9db4 61bc 71b2 7eb2 9e34
00000370: 038d e2ba 4e3b b5be 1be6 0fbc 1022 1bb9
00000380: 2a7a 9cba c1ff 3abb 5f0b 62ba 544f 72bb
00000390: 5be4 49bc 11cd 5cbb e1e3 a3ba 1213 ef39
000003a0: 3dd1 46c0 0c8f 1cbb e855 093c e35b d13d
000003b0: 68db f3bd 8efa 3bc0 2c27 67c0 fa3c 10c0
000003c0: 39f1 c0bb e7b2 3fbb c963 96ba 5f7e 2b39
000003d0: 02ce 8bbf fbdc 0a3b 022b 2e3e 7cf6 ff3b
000003e0: be53 bbbf 2302 48c0 0211 3cc0 36fe 81bf
000003f0: bdd6 2d3d e749 b8b8 d98d 833b 288e 753a
-3.5181396 -1.0481306 0.0012740359 8.54174e-05 -4.8460255 -0.012707681 0.16009906 0.01063065
-2.193522 0.005413965 0.010430261 0.0038172759 -0.0038829849 0.004158844 0.001593851 -0.0010316533
0.00034580848 -0.00024313445 -0.8678005 -1.6802493e-06 -1.5817426e-06 -1.1481466 -0.7990113 5.3837095e-05
-6.135919e-06 1.9483537e-06 -0.77809644 -0.14474289 -5.7498454e-07 -7.2516065e-07 -4.6930713e-06 -0.999435
-0.001458173 -0.0009506881 0.00032332906 0.00060618564 -2.6678846 0.00046545497 -0.0005389999 -0.0037590754
-1.1963888 0.36165246 0.0072055785 -1.6580594 -0.0077310987 0.117211476 0.0052335677 -2.7664886
-0.0036017976 -0.00043814813 -0.000585677 -1.5708313 0.0067448756 0.25906628 0.010708788 -4.044714
0.008042016 0.16083561 -0.001185621 -3.0576477 0.008165889 0.008166723 -1.6919936 -1.5561136
-3.2664182 -2.4425678 -0.011369468 -0.0050351657 0.0020653124 0.0009775277 7.615034e-06 -0.0073610716
0.008827668 0.068489626 0.12888475 0.13402799 0.0076751 0.0041865874 0.0037111472 0.0047316556
-3.1930776e-05 -5.2011837e-06 -1.5674398e-07 2.2571603e-06 -0.00017841731 -8.671459e-06 3.1128789e-06 2.1030808e-06
-0.0026956599 -0.3459724 -0.10676314 -0.021874845 -8.5658235e-07 4.6091922e-05 2.1991955e-06 -2.2857092e-05
-0.0021304744 -0.0005566143 0.00010929978 8.361786e-05 -0.0027087433 -0.0035175856 -0.0014743675 -0.0049751024
-1.8693168 -3.609366 -3.7178428 -2.4039016 0.0019447885 0.079317726 0.0057806815 0.005887123
-0.001795596 -0.0028398999 -0.00277381 -0.0025776916 -2.4154196 -3.3524814 -2.7962015 -1.8928207
0.010677197 0.018796574 0.0012955357 0.0006481856 0.14056578 0.3118192 0.22416595 0.010840751
-0.009322056 -0.00018850433 0.0007086838 0.001567554 -0.009338852 -0.0029627616 0.00073023466 -4.751984e-05
-0.008575877 -0.004685613 0.0025509652 0.005434576 -0.0018471387 -0.0053775813 -0.0021635247 8.750761e-05
1.7591876e-05 3.9200662e-05 8.83506e-06 0.00012155019 -1.5538493e-05 -6.269185e-05 -0.28770977 -0.0012286701
-1.2475863e-08 3.901198e-06 -7.9787846e-05 -2.4999077e-05 -1.5442201e-07 -3.0055764e-05 -5.2869442e-08 -2.8276238e-06
-0.0032693185 0.0029109146 0.0005692423 -0.008565111 0.00048977113 0.0012693775 -0.003275848 -2.8425927
-0.0011364395 0.00034816825 -0.00016797557 9.950459e-05 -0.0048540076 0.0061110607 0.26809445 0.0054304404
-0.0010243083 0.0012714873 -1.0310012 -1.8576066 -0.0030894473 0.0017270851 -0.001420642 -0.007877986
-0.0011624098 0.15775429 0.21987005 0.0036841088 -0.0016161103 -0.0016456457 -9.063624e-06 0.0004538886
-0.010274167 -0.019698855 -0.004585432 -0.000676265 -1.7220902 -2.8671443 -0.3951937 0.002873957
0.0035622441 0.0013124387 -0.0037889853 -0.0069541894 0.0041013886 0.21792895 0.20389797 0.18247898
2.4064814e-06 1.1942625e-05 -3.7810241e-06 9.37009e-06 1.31765755e-05 2.9699487e-07 -2.8176803e-06 -1.4354634e-06
-0.18335678 -2.9414002e-07 -1.4070879e-08 2.9559664e-07 -0.0017284456 -0.35396808 -0.008782889 -0.00014794641
-0.0011938263 -0.002853379 -0.000862291 -0.0036973553 -0.012322511 -0.0033691565 -0.0012503826 0.0004559984
-3.106521 -0.0023888974 0.008382298 0.10222604 -0.11907083 -2.9371676 -3.6117659 -2.2537217
-0.005888131 -0.0029250921 -0.001147383 0.00016354908 -1.0922244 0.0021188844 0.17008594 0.0078113656
-1.4634931 -3.1251304 -2.938538 -1.0155704 0.04244112 -8.787569e-05 0.0040147123 0.0009367191

2/Conv.bias f4 [8]
00000000: 730c 48ba cea4 993a 964a 62bb 4587 68b9
00000010: 22ad 78ba 79b8 efba 829e 683a 4207 c6bb
-0.00076312496 0.0011722089 -0.003452932 -0.00022175636 -0.0009486248 -0.001828923 0.0008873717 -0.0060433457

5/Gemm.weight f4 [128, 392]
00000000: b571 af3d 38e8 3f3c a7cf 89be ec42 e0be
00000010: 37a9 71be 2bef fbbe 07a3 8fbb cb34 8cbe
00000020: 2c0c 96be a61d a6be d9fd 6bbf 4c71 58bd
00000030: 3f62 f93a 6a5f 65bd 7ab2 a2bc 1da5 22bf
00000040: 5fb0 bdbd 75a2 cd38 2622 703b 77ee 1fbc
00000050: 23a7 7bbb 3a0f 6bbd 69b5 7a3c d7cd dd39
00000060: 33e8 7f3c 9785 b4be 7194 31c0 9e8f 313c
00000070: 8c61 fbbc 3a8a fa3b c124 10bc 1b2a e23a
00000080: 7357 e1bb 7f91 7ebf 634c 52bc 2ac5 54bc
00000090: 8ec1 d0b8 5b33 3ebe 3ee1 9cbc f542 dabd
000000a0: 8f49 353c bcfa cf3d 8dc2 0c3e 2e8a c9be
000000b0: ee31 39bb de28 e1bc 1f34 f3ba 6806 dcbe
000000c0: f5c1 ea3d 01e3 a03e 7bd2 9cbf 7083 6bbf
000000d0: adb0 fcbf 797a 62c0 3d89 2bbb afcb 013c
000000e0: 59b5 e2be defc c2be 532b bcbb 3f3f 86bb
000000f0: 5019 e5ba 88f3 e4ba 924c 08ba e1cd 95bf
00000100: 7c31 6839 b529 233d 6754 e03d 7dfc c7bb
00000110: 040a 61bc 0d2d 2dbf 7fb6 0fbc 8d11 1abb
00000120: f69f 03be c3cb db3a 98d3 443d 92a6 4fba
00000130: 6900 4abf 0915 34bd 5b8f a73d 89c1 ffba
00000140: e279 85bd 8989 d7bb 284e 59bc 20de b6bb
00000150: 4ebd 3c3b 9eb4 963a f3a0 2e3d 4182 593c
00000160: fd13 f5be 0617 8c3c 2ea3 973e 3088 f53e
00000170: abe6 f73b 147b c33a e2a3 7dbb 84b6 223e
00000180: 3a11 293f d1ef 383f 203f 433d 6786 dfbe
00000190: ff86 3cbf 3d57 9abf 9859 e6bf 6304 a4bf
000001a0: f646 09be 74d0 7abe 9f83 87bf a506 44bc
000001b0: b13c 85be 0f47 36bb b785 863a ccab aabc
000001c0: ca92 18bf c1c8 fcbd a2a9 5eb9 ba36 923d
000001d0: b226 46ba 819e a7bd b0cf 79bb 7d72 20bf
000001e0: 5fa0 883b ddca b3bc 0288 6538 f76f 3a3c
000001f0: cc94 0fc0 fe87 cabf c184 d7bd 1a0d 8aba
00000200: 370f ff39 ebde 17bb 4950 5cba 3aac 0bbf
00000210: 1ec5 58be 1cd3 ce3b c78e e83a eaf2 08bc
00000220: eee6 7c3b 5704 e6bb 4db8 c23c bbf2 933d
00000230: cfcd 493d d441 15bf d8d3 763c 93c0 3cbe
00000240: 60d7 15bf f00d abbe 8b5f 70be 0184 783d
00000250: 1881 96bf 2db0 29bf 861a bfbe 1ef7 5bbf
00000260: d7e7 5dbb 6aff 0d3c 3d94 76bd 3590 bdbd
00000270: a65b f7ba 239b cdb9 8c4a aa3c 6b16 83ba
00000280: cc5c ae3a 9d49 78be fdda 913b 92e6 05bc
00000290: 3847 02bd 19a7 68bb c77c 3abc 777f 86bf
000002a0: 8ce5 3abf 8ea3 e13b 7bc7 c13d cef0 ad3b
000002b0: e2d9 8f3e e15c 683b d80e ddbe 445a efba
000002c0: 15fe 093b 3ded 013c 9087 133c 981e 1c3c
000002d0: 70a9 bbbc 7387 273d bcec 16bc 78e5 2d3a
000002e0: 85b3 11bc 421a 81bc 0189 bd3b edcb 45bb
000002f0: d096 8bbb 30a1 8ebd 4b2b b8bb a313 283b
00000300: 9d04 48bd 76dc 1bbd ab10 bc3d 093b 803e
00000310: 4772 09be 183a c1bf 6c0c 21bf 99ec 67bf
00000320: 12a4 b3bf 7e60 ebbe 04b6 a0bb 136e 80bf
00000330: 6b6e fabe bc3d ebbc 07ec 06bc e3f5 f73b
00000340: a3fe 6abe 4946 e9bd d4e8 babf d89b cbbb
00000350: 1aeb 013c c438 e63a 5b51 1bc0 0882 c3be
00000360: 1660 aa3a 0435 f639 214f 06ba f921 f1bb
00000370: 1132 603a 845c 2ec0 41ea d2bf 1b53 b9bc
00000380: c186 66b7 56d3 09ba 3542 00bb 6d47 223a
00000390: a09a 483c c7dd ccbc f854 8abd e8da 2abe
000003a0: 0441 d4bc 2faa d5bd 1210 cabc aa9b 713c
000003b0: 4130 2bbd f6ef ebbd 2be4 e9be 6af0 fbbe
000003c0: 8a61 83be 3ae8 0bbf 6669 5bbe cf38 3dbd
000003d0: 1644 50bb 4225 223e b27f bc3d 9987 c6be
000003e0: 4855 c0be 5c61 6cbc 723a 1fbe dbe9 773d
000003f0: 6e19 903d 14ed 03bf 7fd0 a8bf 55d1 24bf
0.0856661 0.01171308 -0.2691624 -0.43801057 -0.23599707 -0.49205908 -0.004383448 -0.27384028
-0.2930616 -0.32444495 -0.92184216 -0.052842423 0.0019026472 -0.055999197 -0.019860495 -0.6353319
-0.09262156 9.805422e-05 0.0036641448 -0.009761444 -0.0038399182 -0.057387568 0.015302041 0.00042305767
0.015619325 -0.3525817 -2.7746851 0.010837464 -0.030686162 0.0076458724 -0.008797825 0.001725498
-0.00687688 -0.9944076 -0.012835595 -0.012986461 -9.954265e-05 -0.18574278 -0.019150373 -0.10657302
0.011064901 0.10155246 0.1374609 -0.39363235 -0.002825852 -0.027485307 -0.0018554962 -0.42973638
0.114627756 0.3142319 -1.2251734 -0.9199743 -1.9741417 -3.5387251 -0.002617433 0.007922097
-0.44278982 -0.38083547 -0.0057424693 -0.004096895 -0.0017478857 -0.0017467597 -0.0005199398 -1.1703454
0.00022143679 0.039834697 0.109535985 -0.006103097 -0.013735298 -0.6764687 -0.008771538 -0.0023508996
-0.12853989 0.00167691 0.048053354 -0.0007921244 -0.78906876 -0.043965373 0.0818164 -0.0019512634
-0.06517388 -0.0065776748 -0.013263263 -0.0055806786 0.0028799358 0.001149792 0.042633962 0.013275684
-0.47866812 0.017100822 0.29616684 0.47955465 0.0075653396 0.0014914 -0.0038702418 0.15889937
0.6604191 0.7224093 0.047667623 -0.43657228 -0.7364349 -1.2057873 -1.7996092 -1.2813839
-0.13405976 -0.24493581 -1.0587043 -0.011964475 -0.26022866 -0.002781335 0.0010263239 -0.020833872
-0.5959898 -0.12342978 -0.00021234763 0.071393445 -0.00075588666 -0.08184529 -0.0038118176 -0.62674695
0.0041695083 -0.021947319 5.472452e-05 0.011379234 -2.2434568 -1.5822752 -0.10523368 -0.0010532469
0.00048648726 -0.002317364 -0.00084042974 -0.5455967 -0.21168944 0.0063117873 0.0017742746 -0.0083586965
0.0038589793 -0.0070195603 0.023769522 0.072240315 0.04926854 -0.5830357 0.015065156 -0.18432836
-0.5853176 -0.3340907 -0.23473947 0.060672764 -1.1758146 -0.6628445 -0.37324923 -0.85923946
-0.003386011 0.0086668525 -0.060199965 -0.09256021 -0.0018871918 -0.00039216233 0.0207875 -0.0010001188
0.0013302802 -0.24246831 0.0044511543 -0.008172648 -0.0318062 -0.0035499989 -0.011382288 -1.0507649
-0.7300651 0.0068859523 0.09461876 0.005308247 0.2809592 0.003545575 -0.43175387 -0.0018261154
0.0021055986 0.007930097 0.009004489 0.0095287785 -0.022907943 0.04090066 -0.009211715 0.000663362
-0.008892898 -0.015759591 0.0057841544 -0.0030181364 -0.0042599216 -0.06964338 -0.0056203953 0.002564647
-0.048832525 -0.038052045 0.09182867 0.2504504 -0.134225 -1.5095854 -0.6290958 -0.90595394
-1.4034445 -0.45972055 -0.0049045105 -1.0033592 -0.48912367 -0.02871596 -0.008234984 0.007567154
-0.22948699 -0.11390359 -1.4602304 -0.0062136464 0.007929588 0.0017564525 -2.4268405 -0.38185143
0.0012998607 0.00046960276 -0.00051234855 -0.007358786 0.00085523824 -2.7243967 -1.6477739 -0.022622636
-1.3740443e-05 -0.0005257627 -0.0019570712 0.0006190453 0.012243897 -0.025008095 -0.06754488 -0.16685069
-0.025909908 -0.104328506 -0.024665866 0.014746586 -0.041794065 -0.11520378 -0.4568189 -0.4920686
-0.25660354 -0.54651225 -0.21426925 -0.046196755 -0.0031778864 0.15834525 0.092040434 -0.38775328
-0.37565064 -0.014427509 -0.15549639 0.060525756 0.070361 -0.5153363 -1.3188628 -0.64381915

5/Gemm.bias f4 [128]
00000000: 8b49 763d f826 20be d014 e6bd fca4 1ebe
00000010: e4d1 bebd 7142 3abe 54b8 393e d910 6dbe
00000020: 2bfa 38be 5840 31be f413 20be 5dfa bcbd
00000030: a704 3bbe 4a84 54be b8ac 40be 6a4a 48be
00000040: c855 3cbe b812 28be c52c f1bd d7fe 11be
00000050: a6d4 34be 65e9 65be ec14 04be 0f45 58be
00000060: 5c4b 5f3d 8ae5 38be 42a8 17be 84e2 0bbe
00000070: 3925 1cbe 8a6f 34be 5c1f 4bbe 88a9 6d3e
00000080: a43b 1bbe aa10 44be 7564 c9bd cfe4 1bbe
00000090: 3df4 06be 4948 02be 32ee 60be 662f 44be
000000a0: 1348 4bbe 8a74 11be 6446 27be 3169 533e
000000b0: a15c 36be 80b2 243d c81a 3cbe 16b0 0bbe
000000c0: 6b26 e6bd 804e f7bd c021 30be 3723 fa3d
000000d0: d6c2 743b c8d4 81be b241 11be f6be 2fbe
000000e0: 3991 d7bd 4546 35be 0440 fabd 631e 0ebe
000000f0: 9f91 80be 9aa9 10be 7896 1bbe a8b4 65be
00000100: 5c2a febd 6253 2fbe 7382 21be 4ad1 f7bd
00000110: d4c6 4abe 29c6 13be 109c 51be fdb9 45be
00000120: dea7 17be 5012 1fbe 0695 edbd 5a5b f6bd
00000130: 3f1b 4fbe 422b 2fbe 4d00 2fbe dbd4 51be
00000140: 9363 2abe 0ce2 17be b9de 45be 5ef2 df3d
00000150: 02d5 07be 3d78 493e b2c7 4fbe 56d4 4dbe
00000160: 96a3 28be ef88 11be 2f53 75be cf15 10be
00000170: e6a4 27be ed7e 0fbe e1c4 22be b9bd 263e
00000180: 8cec 41be 8695 7bbe 7df3 2ebe d2f2 45be
00000190: 3a73 38be 0270 31be 8cdf 5cbe 5798 09be
000001a0: 8b5b 39be 9cc9 3abe 5e69 43be 76f5 21be
000001b0: 21f8 25be 40c1 13be 613e e9bd 5b9b 23be
000001c0: cab9 07be 5543 38be 91ea 49be 62df 66be
000001d0: 647d 0dbe 7c6a 19be 72ec 1dbe 54c1 3bbe
000001e0: 23c2 8c3e ba2e 28be 77b4 023e 4853 0abe
000001f0: 0b09 06be 66eb c23d e469 14be 3057 39be
0.06012873 -0.15639865 -0.112344384 -0.15492624 -0.09317377 -0.18189408 0.18136722 -0.23150958
-0.18064182 -0.17309701 -0.15632612 -0.092274405 -0.18263493 -0.2075359 -0.18815887 -0.19559637
-0.18392098 -0.1641339 -0.11776117 -0.1425737 -0.17659244 -0.22452314 -0.12898606 -0.21120094
0.054515228 -0.18056312 -0.14810279 -0.13660628 -0.15248574 -0.17620674 -0.19836181 0.23209202
-0.1515947 -0.19146982 -0.09833614 -0.15224002 -0.13179107 -0.12722887 -0.21965864 -0.19158706
-0.19851713 -0.14204612 -0.16335446 0.20645596 -0.17808773 0.040209293 -0.18369591 -0.1364139
-0.112377964 -0.120755196 -0.17200375 0.12213748 0.0037347577 -0.25357652 -0.14185217 -0.1716269
-0.10525746 -0.17702587 -0.12219241 -0.13878779 -0.251111 -0.14127198 -0.15194118 -0.22432196
-0.12410423 -0.17121652 -0.15772419 -0.121004656 -0.1980241 -0.14431061 -0.2046969 -0.1930923
-0.1481013 -0.1553433 -0.116006896 -0.12029143 -0.20225237 -0.17106345 -0.17089958 -0.20491354
-0.16639547 -0.14832324 -0.19323243 0.109349 -0.1326485 0.19674774 -0.20291021 -0.20100531
-0.16468653 -0.14212392 -0.23957513 -0.1407082 -0.16371498 -0.14013262 -0.15895416 0.16283311
-0.18937892 -0.24568757 -0.17085071 -0.1933091 -0.18012705 -0.17327884 -0.21569651 -0.1343702
-0.18101327 -0.1824097 -0.19083163 -0.15816292 -0.16207935 -0.14429188 -0.11388851 -0.15977232
-0.13254467 -0.17994435 -0.19718386 -0.22546151 -0.13817364 -0.14982027 -0.15422228 -0.18335468
0.27491865 -0.16424075 0.12764154 -0.13508332 -0.13089387 0.09517555 -0.14493519 -0.18099666

7/Gemm.weight f4 [128, 128]
00000000: b706 50be b077 d73d 6235 89bd c5cc 26be
00000010: 76a3 8ebd 7c4f 65bd 0346 4cbd d8dc 0cbd
00000020: 511e cd3d 8633 edbd a20c 37be 01b7 243b
00000030: 55bb b039 2992 25be e0e0 47be 24e9 823d
00000040: f9ac 31be be24 00be 4674 8dbe 84ec 73be
00000050: 829e cf3a 074c 16be 8c64 5fbe 1713 093d
00000060: 68e1 adba fc08 92bd fbc6 94bd c9f7 53bd
00000070: 6189 3cbe 7bbf 5f3d b267 ecbc bba9 58be
00000080: 2886 13be 5ced b8bc b403 8fbe fbbb 23bd
00000090: 1d15 1bbe b2f2 abbb eaff 57be 7524 62be
000000a0: e2b6 35be 1d94 443d 9d6c 4ebe 1bcb 2ebe
000000b0: 8e27 adbd 56ca c6bd ca21 203d 3378 f53b
000000c0: f401 51be 7e78 76bd 1d52 01be 52da 3dbe
000000d0: ce1f ffbd 6fc0 d1bd 404d febc 6eb3 9fbe
000000e0: eefa 67bd 2cfa b5bd 9cf7 14be e591 2bbd
000000f0: 3c51 84bd 6dd9 4cbe 39a8 08bd c617 40bc
00000100: 84f1 03be 1af2 37be 3f4c 20bd 312c 32be
00000110: 5645 89be 41ca 5cbe 8002 a8bd 1b45 68be
00000120: 60f5 50be 6ee9 32be 7e3c 9fbd 5ea5 2bbe
00000130: 0053 59be f6cc ee3d 0de6 07be cdc2 fdbd
00000140: af15 93be 33d2 2ebc 36b0 2abe e717 26bd
00000150: 4cdc 3bbe db84 dbbd de08 10be d958 ac3d
00000160: 8cfe c6bd 7d26 21be b898 16bd 85c9 45be
00000170: b165 0abd 6bbd b3bd 2510 4cbe 3079 9ebd
00000180: d07a c8bd 206b f7bd e273 1dbe 7555 d7bc
00000190: 0c8d 5abe 8f82 20be a73b 93be 2d1f febc
000001a0: 1d6c 32be fea3 b7bd a94c 42be 2549 09be
000001b0: ff61 58be 4d91 133e bf23 49bc 4189 0cbd
000001c0: f34d e7bd 0e8b b03c 8a10 abbd f20f afbd
000001d0: 2090 07bd 86cf 7abe 4b25 c53d 0d38 63bb
000001e0: c47d 49be cb6d 633d e937 64be eacf 88bd
000001f0: 098b 74bd 763a 6fbe b89d c83d f1eb f8bc
00000200: b94e 84bd 930f 09bd d4d3 e7bd df54 2abd
00000210: 48b9 18be b37f f8bc 6bdb 5bbe dfb9 23bd
00000220: 7c79 1bbe e243 ce3c b239 5c3d 146b 243d
00000230: 8b43 7ebe c3c3 2cbe c38a 5b3d f56e 25bd
00000240: b66e a5bd 3a1c 803c 99a3 1c3d 3933 d0bd
00000250: 0146 53be 4810 4fbd 87a2 0abe 3576 043a
00000260: 6f9f f8bd 0854 60bc e968 573d 4f28 c23d
00000270: f3dc cb3c 2e40 c13d 81fb d83c 73db 1cbe
00000280: 1dd7 8b3d e430 11bd 1730 903d f713 b13c
00000290: a013 e13d ad6b 323e d440 773d f55c d3bc
000002a0: 07f6 b13c d22d 55be 5aa1 04be 633b 953d
000002b0: 17ba 513e bd74 68bd 537c 0a3c 00de cebd
000002c0: a772 083e 51a0 733d f58c fdbd f2f7 aebd
000002d0: a245 babe 58ff 903d 618f 303d 904c 96bc
000002e0: a0fe 7c3d d7b0 0d3e 4ef1 30bd f89c 8bbe
000002f0: 466d 1c3e 15e9 89bd 17f3 bfbc 698a f03c
00000300: fe3e 54be 147c 38bd 6b5a ebbd e70a 37bd
00000310: bccf 2fbd f414 0ebd e872 eabd 870a 3bbe
00000320: 3396 f33d 2c00 8c3b b576 d93b 5f1a b53d
00000330: 866b c2bd cefd 20bd 81ca a93d cac3 07bd
00000340: e139 51be c6c2 c3bd cd19 d5bd 1c5a 923d
00000350: 9023 d13b 9757 cf3c 57f8 99bd 3b5a afbd
00000360: 0dc6 81bd 4c63 8abd 8494 2f3e 2f01 97bc
00000370: 4727 90bd f9e0 09be 0149 273e 6745 bf3d
00000380: b7b0 3cbe 1752 44be 4b3c 0d3d 9bd9 16bd
00000390: c71b 93be 7323 003c c0d2 b6bc c164 63be
000003a0: 1f02 3dbe 3144 39be 81b6 cebd 5f3e 57be
000003b0: 8df0 efbc 3ab5 6fbd a635 533d e372 8abd
000003c0: 23f5 93be 603b 703d 35d2 22be 94d6 913d
000003d0: a324 8cbe c21e 333d fe11 1bbd 655b 4ebe
000003e0: 97f1 053e 536b c1bd e7ca cebd 82b2 7a3d
000003f0: 9fc8 b6bb 3079 2bbd 3ff3 1fbc 9dae 8a3d
-0.20315062 0.105208755 -0.06699635 -0.16289051 -0.069647714 -0.055984005 -0.049871456 -0.0343903
0.10015548 -0.11582093 -0.17875913 0.0025133493 0.0003370891 -0.16169037 -0.19519377 0.06392124
-0.1735114 -0.12514016 -0.27627772 -0.23820692 0.0015840086 -0.1467744 -0.218157 0.03346547
-0.0013266029 -0.0713062 -0.07264515 -0.05174998 -0.18411781 0.05462597 -0.02885804 -0.21158497
-0.14406645 -0.02257412 -0.27932513 -0.039974194 -0.15144773 -0.0052474374 -0.21093717 -0.2208422
-0.17745546 0.047992814 -0.2015862 -0.17069666 -0.0845481 -0.09706561 0.039094724 0.0074911355
-0.20410901 -0.060173504 -0.1262898 -0.18540314 -0.12457238 -0.10241782 -0.031042695 -0.3119158
-0.05663579 -0.08885607 -0.1454758 -0.041887183 -0.06460807 -0.20004816 -0.033363555 -0.011724418
-0.128851 -0.17963448 -0.039135214 -0.1739967 -0.26810712 -0.21561529 -0.08203602 -0.22682612
-0.20406103 -0.17471859 -0.0777521 -0.16762301 -0.21223068 0.11660187 -0.13271351 -0.12390671
-0.2872748 -0.010670233 -0.16668782 -0.04055014 -0.18345755 -0.107186995 -0.14065883 0.08415384
-0.0971652 -0.15737338 -0.036766738 -0.19315155 -0.033788387 -0.08776363 -0.19928034 -0.077379584
-0.097890496 -0.12080979 -0.15376237 -0.026285866 -0.21342868 -0.15674804 -0.2875645 -0.031020725
-0.17424054 -0.08966826 -0.18974556 -0.13406809 -0.21131133 0.14410897 -0.012276589 -0.034310583
-0.112941645 0.021550681 -0.08352764 -0.08547963 -0.033096433 -0.24493226 0.09626254 -0.003467086
-0.19676882 0.05552463 -0.22286953 -0.066802815 -0.059702907 -0.23362145 0.097957075 -0.030385943
-0.06460328 -0.03346212 -0.113197 -0.041584846 -0.14914429 -0.03033433 -0.2147042 -0.039972182
-0.15183061 0.025178853 0.05376596 0.04014118 -0.24830453 -0.16871552 0.05359913 -0.04038902
-0.08077757 0.01563846 0.038241956 -0.1016602 -0.20632173 -0.050552636 -0.13538562 0.00050530146
-0.121397845 -0.01369191 0.052590284 0.094803445 0.02488563 0.094360694 0.026487114 -0.15318088
0.06828139 -0.035447016 0.070404224 0.021615965 0.10990071 0.17423888 0.06036456 -0.025801161
0.02172376 -0.2081826 -0.12952176 0.07286718 0.20481144 -0.056751955 0.008452493 -0.10100937
0.13324986 0.05947906 -0.12380401 -0.085433856 -0.3638125 0.07079953 0.043105487 -0.018347055
0.061766267 0.1383699 -0.043198876 -0.27268195 0.1527606 -0.0673391 -0.023431344 0.029362874
-0.20727155 -0.045040205 -0.11491855 -0.04468813 -0.04292272 -0.03468795 -0.11447698 -0.18265735
0.118938826 0.0042724814 0.0066364654 0.088429205 -0.09493165 -0.039304547 0.08290578 -0.033145703
-0.20432235 -0.095586345 -0.10405312 0.07146093 0.006382413 0.02531032 -0.0751807 -0.08562132
-0.06336603 -0.067572206 0.17146498 -0.018433182 -0.070387416 -0.13464727 0.16336443 0.09339409
-0.18426786 -0.1917194 0.034481328 -0.03682862 -0.2873213 0.007820952 -0.02231729 -0.22206403
-0.1845784 -0.18092419 -0.100934036 -0.21019886 -0.029289508 -0.05852244 0.051564835 -0.06760194
-0.28897962 0.058650374 -0.159005 0.07121006 -0.27371702 0.043730505 -0.037858956 -0.20152052
0.1308044 -0.094442986 -0.10097294 0.061205395 -0.005578115 -0.04186362 -0.009762584 0.06771586

7/Gemm.bias f4 [128]
00000000: 3c52 02be 2015 1ebe 9c51 16be 2761 debd
00000010: 7405 613e 193e a6bb 0c9c 16be 6818 53be
00000020: 9852 46be c536 30be c02d 4ebe 324f 64be
00000030: ec85 08be 8a5c 47be ca0a 40be cfd5 66be
00000040: e073 27be 7b87 08be 0fc3 21be 7f56 e1bd
00000050: 45fd 37be 698b 113e d27f e5bd 18cf 08be
00000060: 3ea6 26be 833b 54be d528 2fbe 18ec 42be
00000070: 5b59 44be 7d8d 1fbe 3850 f6bd 0a71 94bd
00000080: bda8 64be 0fd3 14be f90a 06be 83b9 2cbe
00000090: 05fa 16be e82f 42be 5474 dabd 960c 8bbe
000000a0: 9232 10be cbc0 23be 7d3f e9be 369e 4abe
000000b0: f542 31be 2a46 1ebe df5c 1c3e cb9e 13be
000000c0: 518f 5cbe 766f 20be 998b 92bd bc07 07be
000000d0: 4571 c0bd 5a7e cdbd 3ef1 7bbe 17c7 b4bd
000000e0: 92be 26be 14eb 29be 1b98 5fbe ee2e 11be
000000f0: c33a 23be f965 fbbd e1ad 1bbe 22ee e6bd
00000100: c408 28be 1ed7 39be 55a3 4ebe e2e4 4fbd
00000110: a6b4 7bbe fa39 a5bd ec08 24be 6255 b3bc
00000120: be3b 143d 6c84 80bd 5c49 26be 9b81 27be
00000130: 51e5 4ebe 2fde 33be 0d17 1cbe 88f2 1abe
00000140: cfb5 eabd acf1 3fbd c89e b7bb 1710 3dbe
00000150: 6467 383e b349 7abe d58b 0cbe 8bc6 44be
00000160: bbc0 6fbd 709a 6fbd 090f b5bd f241 12be
00000170: 7065 dbbd 3485 20bd 5e31 babd 051e 06be
00000180: b427 abbd d895 73be f72d c6bd cab5 4dbe
00000190: 0318 32be 30fb d3bd 8e1e 83be 62a5 7bbe
000001a0: 87eb 12bd 67ed 04be 10a8 cbbd 8931 f0bd
000001b0: d221 abbd c805 1abe d436 c1bd e400 31bd
000001c0: 6c6a 04be b5cc 65be de90 b8bd 6327 13be
000001d0: 01e4 1cba 2fec 14be bbcf 00be 2cea 2bbd
000001e0: f5cd 60be 6013 04be 2255 02be 9628 4bbe
000001f0: 1b61 aabd a8a5 3bbe 091c dabd 4371 44be
-0.12726682 -0.15437746 -0.14679569 -0.10858374 0.21974736 -0.0050733206 -0.14707965 -0.20614779
-0.19367445 -0.17208393 -0.2013464 -0.22295836 -0.13332337 -0.19468895 -0.18754116 -0.22542499
-0.16352797 -0.13332932 -0.15797065 -0.11002826 -0.17967708 0.14213337 -0.112060204 -0.1336025
-0.16274354 -0.20725827 -0.1710542 -0.19035375 -0.19174711 -0.15581317 -0.12027019 -0.07248123
-0.22329994 -0.14533637 -0.13090123 -0.16867642 -0.14743812 -0.18963587 -0.10666719 -0.2715804
-0.14081791 -0.15991513 -0.4555625 -0.19786915 -0.17310698 -0.15456453 0.15269803 -0.14416043
-0.21539046 -0.15667519 -0.071555324 -0.13186544 -0.093966044 -0.10033865 -0.24603745 -0.08827036
-0.16283634 -0.16593581 -0.21835367 -0.14178059 -0.15940385 -0.12275309 -0.15203048 -0.11275889
-0.16409594 -0.18148467 -0.20179494 -0.05075539 -0.2458063 -0.08067699 -0.16019028 -0.0218913
0.036189787 -0.062752575 -0.16238922 -0.16358034 -0.20204665 -0.17565225 -0.15243168 -0.15131581
-0.114604585 -0.046861336 -0.005603645 -0.18463169 0.1800819 -0.24442177 -0.13725217 -0.19216363
-0.05853341 -0.058496892 -0.08840758 -0.14282969 -0.10712707 -0.039189532 -0.09091447 -0.13097389
-0.08357182 -0.2378763 -0.09676736 -0.20088878 -0.17391972 -0.103506446 -0.2560925 -0.24574807
-0.035869148 -0.12981187 -0.09944165 -0.11728198 -0.0835606 -0.15041268 -0.09434286 -0.04321374
-0.12931222 -0.22441371 -0.09012006 -0.14370494 -0.0005984903 -0.14543222 -0.12579243 -0.04197137
-0.21953566 -0.12898016 -0.12727788 -0.19839701 -0.08319303 -0.18324912 -0.106498785 -0.19183831

9/Gemm.weight f4 [128, 128]
00000000: ac60 29bb 382c ef3d d91e 8fbd 7d31 15be
00000010: c9fa c9bb a36a 553e dc15 23bd 2870 413d
00000020: b1a0 10be 73af 1abd 95d8 343e dda7 873e
00000030: 4348 e43c fce4 743d 74d4 0ebd 47d5 ef3c
00000040: bbca 8a3d 2dd8 c5ba 5963 983d d586 1dbd
00000050: 6203 9ebd efc4 58be f246 89bd c429 0f3d
00000060: 28f3 24be e87e 12be 1e18 1a3d 8581 eabc
00000070: c9f9 c1bd a29b a63c 6cb7 dabc c041 4e3d
00000080: dad1 0bbd 9fda 58be d933 2bbe 8503 8c3d
00000090: 322d 72be 5d99 9fbd b657 cd3d 302f 5d3e
000000a0: 4244 a7bb e5ba 373e 4b75 b63c afbd 8bba
000000b0: a130 7fbd 34fb 91bb 7298 80bd 2bf2 acbb
000000c0: 9a4c 02be 9d5d 5ebd 70a1 9abe c022 893d
000000d0: e7ba bebd 4fb7 1dbe cf95 41bd 3e20 1abd
000000e0: 47cd 17bd 3d09 5ebe 7b20 bd3d b1c9 73bb
000000f0: cd94 69bd a416 e0bc 4dc3 a0be 0f6a dbbc
00000100: bcdd 783d e994 35be b6f6 c83d 0d91 29be
00000110: 7d7b debc 403f 343d 891c 813d b155 a2bc
00000120: 22d0 253d ca55 cabc cb26 b3bc 893d f5bd
00000130: 48e0 a6be d9f0 c83c 1750 413e 0352 ecbb
00000140: 6d50 bebc f1f7 a1bc 9801 14be dcbe 9d3d
00000150: 7800 ddbd 1b31 ecbc 3744 04be 3528 6e3d
00000160: d881 8e3c 608a 15bd 2820 1cbd 6cfc 8fbe
00000170: 1d9b 33bc 669c 953c 7d9f 863b 390e c2bd
00000180: 7f2c 7fbe fe14 e13c 5f13 b9bd 6140 b9ba
00000190: e88a f33c fd07 58be 4043 28be d328 b03a
000001a0: 5866 093c d1b7 65bc 5e1c 5cbd c0a6 04be
000001b0: 0d8d b6bd 3d3e 8b3d 26f8 1abd ec5e f83d
000001c0: 4066 db3d b0d2 023e 1be0 d03c d0a0 ecbd
000001d0: 0912 433c 3a56 e73d 9609 b13d db5e aebd
000001e0: a387 173e 8315 3f3d 44e0 e6bd a915 90bd
000001f0: 6bd0 143d 4f3c 8cba 0cdf 23bd 6590 bfbc
00000200: 39f7 53bc ef2a 1f3a ae17 3dbd 39d6 a3bd
00000210: 79ec aabc 1a1b 15bd 5d80 683d ee80 f5ba
00000220: a4b2 33be 73b6 f8bd 4b1c f0bb 7946 d7bd
00000230: ae6b 0abe 7601 14bd 62fc ccbd d94c f4bc
00000240: b217 49bd b60e c9be b6e5 80bc bbd0 34bd
00000250: 67f5 3ebe 2c91 4d3d 01d8 1ebe a37a 18bd
00000260: 626a 09be f3c8 2fbe 4429 fb3d 584a 393e
00000270: bc5a 49bd 82a1 f83c db37 1fbe 3bfa dabd
00000280: b2cd 16bd 7f80 c73d 52ba ea3d d0d7 16be
00000290: 5c2b 86bd 9a8f 1ebd 0fc5 14bd 6135 edbc
000002a0: 7fd9 d5bc ab01 0ebd 19a3 3cbc 6acc 98be
000002b0: 0bc3 70bd 0934 04bc 682d 64bb c1fb 1bbd
000002c0: 5747 3cbe 9b13 8dbc 8a14 363e 0d67 663c
000002d0: 2735 69bd c9b5 acbd 17db 133e da60 8bbe
000002e0: 1b99 50be 07e0 24bd e00a edbd 62f2 2f3e
000002f0: 1e0c 7ebe 7ab7 afbd a19f aabc 5aa6 2c3e
00000300: a0d1 073e 8e1b a6bc ddb1 f1bc 87a5 53be
00000310: 0bb9 a13c d83c 79bc 4db9 753d 1ed5 243d
00000320: 72f2 01be 2b0d e1bd 4b8d 08bd 2c2a a33b
00000330: e9ec e33d 75c0 173e 056e 67be ca55 26bd
00000340: 1d3d a3be 0bff 21bd ee14 ae3c 811b ffbd
00000350: 4ba9 1abe a9ba b7bd 84de 9cbc 06e1 febc
00000360: 07c3 1dbd f125 20be 04a8 23bd 3e8a 28be
00000370: be9b c0bd d605 823c bf60 2ebd 5c2a 92bd
00000380: b417 cebc f451 4cbe b7d8 52be 4a40 153e
00000390: 0c38 8dbd 7887 dabc c290 93be ee83 eebd
000003a0: fa43 98be 548e d03d d4e9 86bd 43eb 3ebe
000003b0: d3f1 c53d 4296 a9bd 7665 43be c679 cc3d
000003c0: 9246 133d 0861 1bbe 07c1 3fbd 3916 d1be
000003d0: 51d1 6dbe e656 62be 500a 5ebd 2b5d 28bd
000003e0: 3e1a 4ebc 0eac 2e3e b06f ea3d c0bc 8f3d
000003f0: 0269 b63c 2875 223e 6eb9 363c d6a4 78bd
-0.0025844974 0.11678356 -0.069883056 -0.1456966 -0.006163929 0.2084146 -0.03981577 0.0472261
-0.14123799 -0.037764978 0.17660744 0.26495257 0.027866488 0.05978869 -0.03487058 0.029276503
0.06776949 -0.0015094333 0.07440824 -0.038458664 -0.07715489 -0.21168874 -0.06702985 0.03495194
-0.16108382 -0.14306223 0.037620656 -0.028626213 -0.09471471 0.020337883 -0.02669879 0.050355673
-0.034135677 -0.21177147 -0.16718997 0.06836609 -0.23650053 -0.077929236 0.10026495 0.21600032
-0.0051045725 0.17942388 0.022272727 -0.0010661389 -0.062302236 -0.0044549946 -0.06279077 -0.005277892
-0.12724534 -0.054288495 -0.30201292 0.06696081 -0.093129925 -0.15401958 -0.04726201 -0.037628405
-0.037061002 -0.21683212 0.09234711 -0.0037199075 -0.057026673 -0.027354546 -0.31399003 -0.026783971
0.060758337 -0.17732586 0.098126814 -0.16559239 -0.027158493 0.044005632 0.06304271 -0.019816251
0.040481694 -0.02469911 -0.021869084 -0.119746275 -0.32592988 0.024528908 0.18878208 -0.007211925
-0.02323171 -0.019771548 -0.14453733 0.07702419 -0.10791105 -0.028832009 -0.12916647 0.058143813
0.017395899 -0.036508918 -0.038116604 -0.2812227 -0.010962275 0.018263053 0.004108368 -0.09475369
-0.24919318 0.02747583 -0.09036898 -0.0014133566 0.029729322 -0.21096797 -0.16431904 0.0013439901
0.008386217 -0.014020876 -0.05373799 -0.12954235 -0.08913622 0.067989804 -0.03783431 0.1212748
0.10712862 0.12775683 0.025497487 -0.1155411 0.011906155 0.11295743 0.086444065 -0.08514186
0.14797835 0.046651375 -0.11273244 -0.07035381 0.036331575 -0.0010699126 -0.040007636 -0.023384282
-0.01293736 0.0006071766 -0.04616516 -0.07999844 -0.020864712 -0.0364028 0.05676304 -0.0018730441
-0.17548615 -0.121441744 -0.0073275915 -0.105114885 -0.13517639 -0.036134206 -0.10009076 -0.0298218
-0.049094863 -0.39269036 -0.015734535 -0.044144373 -0.18648301 0.050187275 -0.15512086 -0.03722633
-0.13419488 -0.171665 0.1226373 0.18094766 -0.049158797 0.03035045 -0.15548651 -0.10692259
-0.03681726 0.097413056 0.11461319 -0.14730763 -0.06551239 -0.038711168 -0.036320742 -0.028956117
-0.026104687 -0.03466956 -0.011513495 -0.29843456 -0.058779757 -0.008069047 -0.0034817103 -0.038081888
-0.18386589 -0.017221263 0.17781273 0.014062655 -0.056935456 -0.0843311 0.14439045 -0.2722233
-0.20370905 -0.04025271 -0.1157434 0.17182305 -0.2480931 -0.08579917 -0.02082807 0.16860333
0.1326356 -0.020276811 -0.029503757 -0.20668612 0.019741556 -0.01521226 0.05999117 0.040242307
-0.12690142 -0.1098884 -0.033337872 0.0049793925 0.111291714 0.1481951 -0.22600563 -0.04060916
-0.31882563 -0.03954987 0.021250214 -0.12456418 -0.15103643 -0.089711495 -0.019149072 -0.031113159
-0.03851607 -0.15639473 -0.039955154 -0.16458985 -0.094047055 0.015871923 -0.042572733 -0.07136986
-0.025157787 -0.19953138 -0.20590483 0.14575306 -0.06895456 -0.026675925 -0.2882138 -0.11646257
-0.29739362 0.10183397 -0.06587568 -0.18644433 0.09665265 -0.082806125 -0.19081673 0.09984164
0.035955973 -0.15173733 -0.046814945 -0.40837267 -0.23224379 -0.22103462 -0.054209054 -0.041104477
-0.012579499 0.17057821 0.11447084 0.07018423 0.022266869 0.15865004 0.011152608 -0.060704075

9/Gemm.bias f4 [128]
00000000: 4489 aabe e723 46be cc55 27be 6252 f7bd
00000010: 0c6f 30be 9598 1cbe 0ff6 af3e db38 9fbe
00000020: d803 423e 6b09 5dbe 3196 b73e d0a6 c43e
00000030: ed12 763e 52ac d9bd dcf4 83be 3f7a dcbd
00000040: 9cf0 d5bd f35a 16be d46b 13be 4984 3fbe
00000050: d0ab 97be a26f a5be 9ecd 31be 6f5b 4cbe
00000060: dc2b a0be 0e84 3d3d 29e8 39be 87b2 93be
00000070: ad26 d1bd e20c dcbd 0b8e 7ebe ba27 62be
00000080: f848 8fbd 6adb f9bd e262 42be 3606 6bbe
00000090: c31a 12be f588 87be 8322 5bbd d599 e93c
000000a0: 6e02 073f e4d1 73be b919 38be 2eb8 5cbe
000000b0: 7dcc 09be 845a acbd 257b 4bbe 4971 56be
000000c0: 483d ddbe f8c0 ba3e 1448 81be e8bc 673e
000000d0: b002 64be 3dc8 6cbe 23b6 6fbe ae0a f6bd
000000e0: 316b 88be e62b edbd a389 3fbe 7a48 55be
000000f0: 8d3a 37be 1f5e 22be f16e 83be 2572 7abd
00000100: 3358 8c3e 6190 8b3e ce82 cfbe f9e0 e5bd
00000110: 254e 50bb fdbe 37be 84bb 43be 6742 2ebe
00000120: e1f3 8dbb 351c 0cbe 0fbb f63d 308e 2fbe
00000130: ca5a 40be 3caa d2be b952 f9bd 884d f8bd
00000140: ca0c 3c3e c219 57be 80a9 81bd 1d52 883e
00000150: 244b 64be b10a 11be ca9a 3ebe b11f 2fbe
00000160: 53ba 5dbe 5763 3fbe 9b8e ea3e 328e 913d
00000170: 5ef6 84be 5b35 323e 9cad 1b3e 730f bb3c
00000180: 16d0 04bc 0499 39be 4c17 ec3c fa43 6abe
00000190: 82e6 92be 5919 eebe 953c 92be 9512 f1bc
000001a0: b26e 3c3e e95c 6e3e aa11 7abe d591 813d
000001b0: 7faa 793e 2ce8 93be 41a6 e33e 849b 01be
000001c0: d8c0 9ebe ce25 6ebe af1a 79be 85c1 24bf
000001d0: 9d81 c03e 2a08 413d cc43 51be 4bcc 8bbe
000001e0: 3533 a23e 2c80 77bd 60e8 c53e 3088 75bd
000001f0: ea5a 6bbe 9c0f 8ebd 5135 1cbe 037f 0cbe
-0.3330785 -0.19349633 -0.16341323 -0.1207626 -0.17229861 -0.1529258 0.34367415 -0.31098065
0.18946779 -0.21585624 0.35856774 0.38408518 0.24030657 -0.106285706 -0.2577275 -0.10765504
-0.10446283 -0.14683132 -0.14396602 -0.18702807 -0.2962327 -0.32311732 -0.17363593 -0.19956754
-0.31283462 0.046268515 -0.18154968 -0.28847143 -0.10212455 -0.10744645 -0.24858873 -0.22085467
-0.069963396 -0.12200053 -0.18983033 -0.22951588 -0.14268021 -0.26471677 -0.05349971 0.028515736
0.5273808 -0.23810536 -0.17978562 -0.21554634 -0.13456912 -0.08415702 -0.19871195 -0.20941652
-0.43210816 0.36475348 -0.25250304 0.22630656 -0.2226665 -0.2312326 -0.23409323 -0.12013756
-0.2664428 -0.115806386 -0.18704848 -0.20828429 -0.17893429 -0.15856217 -0.2567058 -0.061144013
0.2741104 0.2725859 -0.40529484 -0.11224551 -0.003178486 -0.1794395 -0.191145 -0.17017518
-0.004332051 -0.13682635 0.12047397 -0.17144084 -0.18784633 -0.41145504 -0.12173981 -0.12124163
0.18364254 -0.2100592 -0.06331158 0.26625147 -0.22294289 -0.14164235 -0.18613735 -0.17101933
-0.21653108 -0.18690239 0.45811924 0.071072 -0.25969213 0.17403166 0.15202945 0.022834515
-0.008106252 -0.18124777 0.028819703 -0.22877494 -0.28691489 -0.46503714 -0.28561845 -0.029427806
0.18401602 0.2327763 -0.24420801 0.063266434 0.24381445 -0.2888807 0.4446278 -0.12656981
-0.31006503 -0.23256609 -0.24326585 -0.6435779 0.37598887 0.047126926 -0.20436019 -0.273043
0.31679693 -0.06042497 0.3865385 -0.05994433 -0.229839 -0.06936571 -0.15254714 -0.13720326

11/Gemm.weight f4 [128, 128]
00000000: 1495 33bd 60af 93bd 61b9 a8bd 50f2 93bc
00000010: 1357 61bc 529a 22bc 56a8 ffbc 6434 f0bd
00000020: 8392 11be d204 4ebd 1477 82bd a0d7 17be
00000030: ffd8 89bd d58b 04bd e367 bcbc 1267 8b3c
00000040: 7f1a f9bc 5861 4dbd 2e6c 27be 6fce 0fbe
00000050: 7b57 713d 1184 a43c b80d bdbc 6207 cebd
00000060: 7559 04be 0820 a6bd 2630 6cbe d50f 77bc
00000070: fb07 02bd 2ae5 d5bd 7912 3dbd f892 1bbe
00000080: 9c47 27bd 7db5 61bd d6b7 6aba fd11 9bbd
00000090: ee7a 4a3d 0b19 d6bc 464b 23bd f371 1c3d
000000a0: b596 c1bd cf87 d7bc ba65 843d b3df 043d
000000b0: 988d b6bc 4c8c efbd 7b50 51bc 273c d5bd
000000c0: d2a6 7abb 31ae 13bb 1be5 973d b350 c53c
000000d0: 4b59 1d3d 27c3 0c3e 4683 16be 619e cb3d
000000e0: 369f d0bd 6122 a7bd fbfb 7bbd 69a9 ed3d
000000f0: 578e 83bc b5b0 03bc 97ea 3abd 7bdf d0bd
00000100: 6b38 04be 6e87 bdbd 3256 c8bc 01cd 15be
00000110: f209 acbd 34d3 42bd 401f 0a3e a796 09be
00000120: 1b31 15be 0efa ddbd f079 d7bd 987c 16bd
00000130: 140a 4cbe f58c eabd 744c 28be 9907 babd
00000140: 2e83 2cbe 99e4 5ebd d2ff 14be 45c5 25bd
00000150: aaad 16bd a615 2abd cc6f 2cbd 732c 1cbe
00000160: 7d18 e1bd 3010 983b 9dd9 55bd 2b9a 24be
00000170: 0817 03be f31f 653d ddd3 70bc 722a cb3d
00000180: 2be8 a8bd 7979 b03d d791 73be 194c ed3d
00000190: c479 383d 73de 57be b85e 393e 010d 52be
000001a0: 8acd 0ebd 286d 163d b4c3 b63c 8539 13be
000001b0: 32e8 23be c85b 9ebd f170 d1bb 14bb c5bb
000001c0: fa97 0abe bf4f 03bd 27c2 1cbd 8f86 b3bc
000001d0: 08f7 84bd 50e3 28bd 8674 a03c 068b dabd
000001e0: 14c6 fbbc 5d99 9e39 3705 cfbc 6682 ccbc
000001f0: ffe9 c63d b022 7cbe d395 20be 0a6b aebb
00000200: 4c1b ff3d f5bf 7eba 42c4 4e3a 13e1 20bd
00000210: 2628 4b3d 3502 16bd a44e d1bb 72f0 04be
00000220: 5975 b6bc 3d06 46be 8361 b1bc 158d 82be
00000230: 82b6 b2b9 d604 47bb b5ce 5f3d 8206 333d
00000240: 2292 20bd 2b39 103d 35eb b43c fd9c 0fbe
00000250: 3f60 3cbc cc91 28bd f147 64bb ae75 15bd
00000260: 23ee 81bd 3d41 cebe 1e36 58be c08b bcbc
00000270: e870 24bd 8cdd afbd 5a27 08b6 47d8 983b
00000280: 74e3 85bb c266 f7bc 7a6d 033d edbf efbd
00000290: 3a6e b6bc be5f bb3d e1a5 b6bb 5903 b63e
000002a0: a2ac c0bd a52e ddbc 6039 e93d e13f 8f3c
000002b0: e31c 47bc 8ff2 68bc 8f42 7fbd 30a3 2a3d
000002c0: 680b d43d 9d0a 0abe 6e3f 42be c5c6 77ba
000002d0: 7644 10bd 13ff 33bd 5a19 ebbc 2129 003e
000002e0: c1b4 fa3c 6959 853d ab75 f2bb 16b2 21bd
000002f0: 8412 61bb e401 2c3e ed7e 10bd 3cfd 19bd
00000300: 930b d6bc da4c 8bbc d04f 1cbc 70d4 17be
00000310: 14e0 41bf 832b fabc 65d5 9c3d 3cb2 72bf
00000320: 6df2 acba 82cb 9c3d b74d 50bc 2ab9 a2be
00000330: ea3c d73b ebd9 81bc 5b13 30bc 4202 7bbc
00000340: 8a74 5eba a911 1f3e 1033 33bc 76b1 21ba
00000350: a734 773d 9840 29bd 8cf1 de3c 049d 16bc
00000360: bc8a 16ba 9f99 bcbd 03c2 83be cc6f 3dbd
00000370: 7884 60bc 19f5 723d fb61 623c e214 81bc
00000380: 5223 cd3d 0c79 fbbc ffc5 503e 107b cd3d
00000390: 9612 80bc 953f 32be 88b5 36bd 121b 49be
000003a0: 0bd7 0bbd 2939 943d 8903 293d c9a2 36bd
000003b0: 3623 f3bc c135 b83c 612b 66bf b293 cbba
000003c0: bf10 3b3d a037 f6bd 1989 12bc 1d19 e0bb
000003d0: 6bfa 11bd b75c 42bc c451 7bbc 3b62 e53c
000003e0: fa9b 0dbd 81ea 1abe d183 f6bb b981 90bc
000003f0: 16de a7bd b0b0 91bd feab 8fbd 21f7 eebc
-0.043843344 -0.072111845 -0.08238483 -0.01805988 -0.01375367 -0.009924488 -0.031208199 -0.11728743
-0.14216046 -0.050297566 -0.063703686 -0.14828348 -0.06730842 -0.032359917 -0.022998756 0.017016921
-0.030408142 -0.050141662 -0.16349861 -0.14043592 0.05892132 0.020082505 -0.02307783 -0.10060002
-0.1292475 -0.08111578 -0.23065242 -0.015079458 -0.031745892 -0.104441 -0.046160195 -0.15192783
-0.040839776 -0.05510472 -0.0008953785 -0.0757179 0.04943364 -0.026134988 -0.03986671 0.038194608
-0.09452573 -0.026309876 0.06464715 0.0324399 -0.022284314 -0.116966814 -0.012775536 -0.10411864
-0.0038246405 -0.0022534246 0.07416745 0.024086332 0.038415235 0.1374632 -0.14698514 0.09942318
-0.10186617 -0.08160854 -0.061519604 0.11604578 -0.016059084 -0.008037736 -0.04563388 -0.101988755
-0.12912147 -0.09254347 -0.024455164 -0.14628984 -0.084003344 -0.0475647 0.13488483 -0.13436376
-0.14569513 -0.1083871 -0.105213046 -0.036739916 -0.1992572 -0.11452667 -0.16435415 -0.090834804
-0.16846916 -0.054417226 -0.14550713 -0.040471334 -0.036786713 -0.04152455 -0.042098805 -0.15251331
-0.10990999 0.0046406016 -0.052209485 -0.16074435 -0.12801754 0.055938672 -0.01469895 0.09920205
-0.082474075 0.08616919 -0.23786102 0.1158678 0.045038 -0.21080951 0.18102539 -0.20512773
-0.034863986 0.036725193 0.022310115 -0.1437741 -0.16006544 -0.0773235 -0.0063916375 -0.0060342643
-0.13534537 -0.032058474 -0.038271096 -0.021914748 -0.0649243 -0.041232407 0.019586813 -0.10671048
-0.0307341 0.00030250373 -0.025271041 -0.024964523 0.097126 -0.24622607 -0.15682153 -0.0053228186
0.12456378 -0.0009717935 0.0007887521 -0.039277148 0.049598835 -0.0366232 -0.0063875485 -0.12982348
-0.022272753 -0.19338317 -0.021652943 -0.25498262 -0.00034086785 -0.0030367873 0.05464049 0.04370738
-0.039201863 0.03521077 0.022084812 -0.1402473 -0.011497556 -0.041154668 -0.003483292 -0.03648918
-0.06344249 -0.40284148 -0.21114394 -0.023015857 -0.04014674 -0.085871786 -2.0288485e-06 0.004664454
-0.0040859524 -0.030200366 0.032086827 -0.11706529 -0.022269357 0.09149121 -0.0055739735 0.3554943
-0.09407927 -0.02699978 0.113878965 0.017486515 -0.012152883 -0.014217987 -0.062319335 0.041659534
0.10353738 -0.13480611 -0.18969509 -0.0009451921 -0.03522154 -0.04394443 -0.028698612 0.1251569
0.030603768 0.06511194 -0.007399281 -0.039476477 -0.0034343312 0.16797596 -0.035277296 -0.03759502
-0.026128566 -0.01700442 -0.009540513 -0.14827132 -0.7573254 -0.030538326 0.07657889 -0.94803214
-0.0013194807 0.076560035 -0.012713841 -0.31781894 0.006568541 -0.015850982 -0.010746802 -0.0153203625
-0.00084859936 0.1553408 -0.010937467 -0.00061681063 0.060352948 -0.041321367 0.027214788 -0.009192709
-0.0005742719 -0.092089884 -0.25733957 -0.046249196 -0.013703458 0.059315775 0.013817306 -0.015757028
0.100165024 -0.030697368 0.2038803 0.10033238 -0.015633862 -0.17407067 -0.044606715 -0.19639233
-0.034140628 0.07237465 0.041263137 -0.044588838 -0.029679876 0.02248657 -0.8990994 -0.0015531688
0.045670267 -0.120223284 -0.008943819 -0.0068389312 -0.035639208 -0.011862925 -0.015339319 0.028000942
-0.03457258 -0.15128519 -0.007523038 -0.017639982 -0.081966564 -0.071137786 -0.07015227 -0.029170575

11/Gemm.bias f4 [128]
00000000: 9ba3 2abe 5189 853d 5abc 17be bb0c 2c3e
00000010: 3e3d ae3e 7809 a33e 7f60 7fbd 2d9c a23c
00000020: c174 b23e f841 2c3f e0b4 f6bd 70b2 8ebe
00000030: f732 163e f3fb d33d 155a c3bb c0e5 39be
00000040: 10fe acbd 9c8b 02be 2335 ec3e 3d08 d5bd
00000050: 1f62 46be 7efb c03e 84a0 d3bd 69f6 d33e
00000060: 95c5 13be ded8 3cbe 2791 603e b0fb 32be
00000070: b40b b4bd 3d4f 0dbe 9972 843e 3f79 aa3e
00000080: eae9 1d3d 30a6 f1bd 1ada f0bd 481e a23e
00000090: 45ba ef3e 8f39 043e 89c8 82be 5e36 3cbd
000000a0: b216 6bbe 14d7 f53e 9fdb 393d e315 67be
000000b0: 227c cd3d 0a09 4fbd d31b 5d3e daa7 0d3f
000000c0: 4b96 13be 583e 003f 0112 363d 8c0d 673e
000000d0: b471 15be f837 c03e 1ef5 17be 7bae 0ebe
000000e0: c374 5dbe f1d1 95be 712d 003f 1088 48be
000000f0: a200 8cbd f5a4 763f cf5e 5fbe 9095 1fbe
00000100: b817 d9bd 77e3 01be e9fb d7bd ee5b 973e
00000110: ee41 16be b030 56be ed98 aa3e feb8 acbe
00000120: ddec b5bc 5dc1 48bd 3e7a 073e cb8a 383e
00000130: 2dab 1bbe 2cad 2fbe 3c63 21be 85f9 d13e
00000140: c28e 8bbc 2884 b23e c267 13be b768 25be
00000150: 323c 33be b9cc 01be d895 ed3e c0d0 e2bd
00000160: af17 93bd 3660 04be 9e88 d83e 23de 3fbd
00000170: fa65 743e a5d5 dfbd 55ff c83e 8677 7f3e
00000180: 0ef4 9dbe abb9 073b 4093 fdbd 7f2a 18be
00000190: 4418 0e3f 9c3d acbd b6ee 8a3e 7b5f 1abe
000001a0: f7bc f7bd 179c 52bd ca31 8e3e 03c2 1ebe
000001b0: 7868 29be a44e 38be 1e2b eebb 9e00 1bbe
000001c0: 596a 9e3d 9c83 403e 4135 8dbd 5d7b bd3e
000001d0: 8ca6 95bd 4a47 20be 9d5b 003d 782c 0bbe
000001e0: 5dfd 2ebe b758 2d3e 8741 923e 6760 b5bd
000001f0: 0764 4ebe 8a2c 583f e61c ae3c df2e 0c3d
-0.16663973 0.06520332 -0.14817944 0.16801731 0.340311 0.31843162 -0.062347885 0.019849861
0.348547 0.6728816 -0.12046218 -0.27870512 0.14667879 0.1035079 -0.0059616663 -0.18154049
-0.08446896 -0.12748569 0.4613429 -0.10401962 -0.19373368 0.37691873 -0.1033335 0.41398934
-0.1443084 -0.18442103 0.21930371 -0.17478824 -0.08791295 -0.13799758 0.2586868 0.33295628
0.038553156 -0.11799276 -0.117603496 0.31663728 0.468218 0.12912582 -0.2554362 -0.045950286
-0.22957876 0.48015654 0.045375463 -0.22566943 0.10033442 -0.05054573 0.21592645 0.55334246
-0.14412801 0.5009513 0.044450764 0.22563761 -0.14594156 0.375427 -0.14839599 -0.13933747
-0.21626572 -0.29261735 0.5006934 -0.19583154 -0.06836058 0.96345454 -0.2181351 -0.15584397
-0.10600227 -0.12684427 -0.10546095 0.29562324 -0.14673588 -0.2091701 0.33319798 -0.33734888
-0.022207672 -0.04901253 0.13230225 0.18021695 -0.15202017 -0.17155904 -0.15760511 0.4101068
-0.017035846 0.34866452 -0.14395049 -0.16153227 -0.17503431 -0.12675752 0.46403384 -0.11074972
-0.07182252 -0.12927327 0.4229173 -0.046842705 0.23867026 -0.10929421 0.39257303 0.24947938
-0.3085026 0.0020710032 -0.12381601 -0.14859961 0.55505776 -0.084101886 0.27135247 -0.15075485
-0.12096589 -0.05141839 0.2777236 -0.15503697 -0.16543758 -0.17998749 -0.0072683236 -0.15136954
0.07735128 0.18800205 -0.06894923 0.3700818 -0.07307157 -0.15652195 0.03133737 -0.13591182
-0.17088838 0.16928373 0.28565618 -0.08856278 -0.20155345 0.8444296 0.021254014 0.034224387
