project_networks/ensemble_models/mnist_cnn_3layer_k3_w2_ensemble1.onnx (onnx, 430016 bytes, 10 tensors)

0/Conv.weight f4 [8, 1, 3, 3]
000000 0f 54 39 3e dc 48 d4 bb d1 11 ac bb cf 10 7a bc
       0.18098472 -0.006478412 -0.0052511473 -0.015262797
000010 13 78 05 bc fb 38 ca bc 9d 8d 1b bc 49 91 f1 bd
       -0.008146304 -0.024685374 -0.009494212 -0.11795289
000020 95 6d 0d bd af 10 a4 39 c9 42 99 39 0b 77 36 3a
       -0.034528334 0.00031292948 0.00029232193 0.0006960488
000030 3e df 0d 39 44 c6 38 b9 71 a6 af 3a 91 e8 6f 39
       0.00013529972 -0.00017621467 0.0013401044 0.00022879454
000040 ff 97 57 3a b5 ed 83 3f 0e 3a 31 3f d5 eb 27 38
       0.00082242483 1.0306917 0.6922921 4.003554e-05
000050 9a 21 1a 39 dc 7e 1c 39 d9 41 91 b9 ef 8e a6 b9
       0.00014699102 0.00014924578 -0.00027705616 -0.0003176848
000060 cd af 25 39 c0 f2 51 39 9c fd c9 b9 ca d8 99 b9
       0.00015801117 0.00020022225 -0.0003852666 -0.00029343955
000070 25 40 30 b9 5b f6 92 39 c9 f7 79 b9 72 aa c7 39
       -0.00016808564 0.0002803084 -0.00023838798 0.0003808323
000080 7c 9d a9 39 8c f3 83 3f ef 34 33 39 00 30 2a 38
       0.00032351527 1.03087 0.0001709049 4.0575862e-05
000090 f2 f0 02 bd 03 a4 9c be 76 03 9c be 49 dd 16 3e
       -0.031968065 -0.3059388 -0.3047139 0.14732851
0000a0 79 23 3c bc 34 f4 89 ba 9e ae a1 be 03 9c 6f be
       -0.011483067 -0.0010525049 -0.31578535 -0.23399357
0000b0 94 25 87 3d b8 23 41 bd e1 55 69 bd d3 ac a2 3e
       0.06598964 -0.047153205 -0.056966666 0.3177248
0000c0 77 d2 34 bd 8c e8 38 bd 40 01 53 bd 42 cd 73 be
       -0.044146027 -0.04514365 -0.051514864 -0.23808768
0000d0 f5 2d aa be 4a 40 00 bf c9 f3 70 bd 89 6b 90 bd
       -0.33238187 -0.500981 -0.05882624 -0.07051761
0000e0 41 ce b9 bd 8d 5e 80 bd e7 47 7c bd a7 3f 05 3f
       -0.09072543 -0.06268034 -0.06159201 0.5205025
0000f0 fa 6a 33 bf 46 06 e2 bc 6c a9 7d bd 09 f3 f2 3d
       -0.7008511 -0.027590882 -0.06192915 0.118627615
000100 fd e6 3d be f1 3d 62 be f7 29 d1 be 1a f9 80 bd
       -0.18545146 -0.22093941 -0.4085233 -0.06297512
000110 53 f1 cb 3b c1 1c 1e 3d df 66 88 be 6e 14 91 3d
       0.0062238364 0.03860164 -0.26640984 0.07083975

0/Conv.bias f4 [8]
000000 8c a4 3e be 66 a5 eb be cd 01 79 be 0f 05 e3 be
       -0.18617457 -0.46024626 -0.24317093 -0.44339797
000010 23 f0 5a be fd 20 a3 be 66 48 05 bf d2 f5 6d be
       -0.21380667 -0.31861106 -0.52063596 -0.23238304

2/Conv.weight f4 [16, 8, 3, 3]
000000 f4 7d 9f 36 14 54 ab b6 a8 56 95 b6 8e 50 c9 34
       4.753232e-06 -5.105985e-06 -4.450634e-06 3.749778e-07
000010 f0 02 a8 b5 a1 32 95 b6 56 82 29 36 7d 6b 1f b6
       -1.251783e-06 -4.44644e-06 2.5258828e-06 -2.3755413e-06
000020 90 22 a9 37 74 0c 22 39 12 6f aa bf ec b8 cf bf
       2.0162464e-05 0.00015454163 -1.3315146 -1.6228309
000030 52 14 60 be 40 e9 53 c0 78 e6 95 ba 5d 32 8e be
       -0.21882752 -3.3111115 -0.0011436483 -0.277728
000040 3b 50 07 b9 4b e3 b0 b9 2d 88 83 b8 cc b1 14 39
       -0.00012904491 -0.00033738682 -6.2719315e-05 0.00014180614
000050 43 f0 2a 3a 9b a8 1a b9 7f aa 1a 37 75 de 95 39
       0.0006520787 -0.00014749395 9.218812e-06 0.00028585238
000060 bb d5 32 b8 81 65 bd 38 71 08 00 b9 cd 09 88 b9
       -4.263756e-05 9.031129e-05 -0.00012210176 -0.00025947244
000070 6d f2 ee b8 ef 52 06 b8 39 1b 81 39 6e 3c 8e 39
       -0.0001139388 -3.2025328e-05 0.0002462508 0.00027129374
000080 d3 d3 8c be d0 33 7b 39 8d 80 5d b9 fc 16 64 bf
       -0.2750536 0.00023956527 -0.00021124091 -0.8909757
000090 9a df 9a 3b cc 74 38 3d c5 50 2b bd b1 a9 64 bd
       0.0047263624 0.04503326 -0.041825075 -0.055825893
0000a0 17 ab d5 bc 09 09 a1 bc 96 d5 3a b7 00 e4 45 be
       -0.026082559 -0.019657629 -1.1136193e-05 -0.19325256
0000b0 a8 e3 cf bb 07 a8 9b b5 05 bb 27 b5 d5 27 61 b4
       -0.0063442774 -1.1597302e-06 -6.24845e-07 -2.0969249e-07
0000c0 14 67 23 36 65 e1 17 36 89 57 4e 33 08 d0 dd b7
       2.4348892e-06 2.263195e-06 4.8042725e-08 -2.6442125e-05
0000d0 15 79 fe b8 9f 51 28 35 ad 12 09 3a 30 90 8c b4
       -0.00012134217 6.270365e-07 0.0005228918 -2.6181942e-07
0000e0 7a 8f da b5 12 ec f3 b8 7c 4b b9 bf 17 07 4f b9
       -1.6284023e-06 -0.000116311145 -1.4476161 -0.000197437
0000f0 ec a9 8b b9 d9 96 36 c0 33 4f 6a b1 44 8b b7 bd
       -0.00026638748 -2.852957 -3.4096501e-09 -0.0896211
000100 0a ed 05 3d 5a f8 aa 3d 93 6d 3a bd 99 c6 69 b7
       0.03269676 0.083481506 -0.045514654 -1.3934122e-05
000110 d9 be 1b be a1 c3 12 3d 32 3e 85 be 14 ab ec b9
       -0.15209521 0.035831098 -0.26024014 -0.0004514089
000120 7e 2c 81 bd ee 16 cf bd bc 68 21 3e c4 aa 63 3b
       -0.06307314 -0.10111795 0.15762609 0.0034739235
000130 21 61 74 bd ea 24 d8 bc 07 88 aa bc f7 21 de 3b
       -0.05966294 -0.02638479 -0.020816816 0.0067789513
000140 ba a1 58 be 26 52 c7 3b 24 9e 3e be 49 0d 5a be
       -0.21155444 0.006082791 -0.18615013 -0.2129413
000150 08 ec 08 3c b6 76 2d bd ab af df be 60 1d dd bc
       0.0083570555 -0.04234954 -0.43688712 -0.026991546
000160 38 64 19 bd a2 9f e4 be 87 21 06 3d 77 87 27 be
       -0.03744909 -0.4465304 0.032746818 -0.1636027
000170 04 9d e1 bc bd b8 fd bd 26 a0 cb bc 52 c2 1e be
       -0.027540691 -0.12388752 -0.024856638 -0.15503815
000180 fe 0e 00 bd cd cb 44 3c 6b 9c 14 be 3b a6 f7 bc
       -0.031264298 0.0120114805 -0.14512794 -0.030230632
000190 b9 66 fb bd 3b 08 b4 bd 9d c8 4e bd bd 8b bc bc
       -0.12275452 -0.08790632 -0.05048429 -0.023015851
0001a0 34 1d 4f bd 5c dd 61 be b5 3c 25 bd 42 65 40 bd
       -0.05056496 -0.22057098 -0.040341098 -0.046971567
0001b0 79 03 85 bd 4b 70 80 be e4 71 c9 bd a9 0c 4a 3b
       -0.06494803 -0.25085673 -0.09836176 0.00308303
0001c0 d8 5d a1 3d 67 dd 42 3a ba 56 37 bd e5 23 18 3e
       0.078792274 0.0007433504 -0.044760443 0.14857443
0001d0 43 fe e7 bc 74 83 43 be be 51 3e 3d 05 ec 12 3c
       -0.028319484 -0.19093114 0.046464674 0.008967404
0001e0 1e 3d 3b be 76 a3 88 be 90 c4 c2 bd 48 47 ab bd
       -0.18285033 -0.2668721 -0.095101476 -0.08363205
0001f0 d2 96 01 be e2 fc b3 bd 0d 51 8f be af 15 a7 be
       -0.1265519 -0.08788468 -0.27991524 -0.3263373
000200 1f 1a a8 be 32 20 a6 bd e0 28 e1 bd 6b c0 1d bf
       -0.3283243 -0.081116095 -0.109941244 -0.6162173
000210 ba d2 14 bc ad d3 0a bd d1 8e c5 bc 4d fd 4d bd
       -0.009083444 -0.033893276 -0.024115952 -0.050290395
000220 76 5d 3e 3d 4b e2 75 3d 58 c1 cf bd 58 89 00 3d
       0.04647585 0.060030263 -0.10144299 0.03138098
000230 85 98 58 bd b2 a4 bc bc 4a f7 2b 3e a4 61 95 3c
       -0.05287983 -0.023027752 0.16793552 0.018235035
000240 28 d4 26 be bf b6 9a be a6 14 ed bd 41 fa 9a bd
       -0.16291869 -0.3021755 -0.11576204 -0.075672634
000250 a5 55 3d bd 0a 59 bd 3d 92 d0 82 bd 67 4d 85 bd
       -0.046224255 0.092454985 -0.06387438 -0.06508904
000260 11 4e a6 bd 8a a9 9c be 49 08 9f bd 73 c3 8a be
       -0.08120359 -0.30598098 -0.07765252 -0.2710224
000270 57 a1 2b be 61 69 49 be 7a c7 f8 bd 51 b1 95 be
       -0.16760765 -0.19669105 -0.12147422 -0.29236844
000280 18 ef 60 be ca 6b 82 be 41 cf 4c be 0c ac cc bc
       -0.21966207 -0.25472862 -0.20000936 -0.024984382
000290 76 7d 17 3b 77 ff b3 ba e8 44 15 bc 92 45 0d be
       0.0023115552 -0.0013732751 -0.009110667 -0.1379607
0002a0 5a 63 84 bc 5c 12 c9 3b 93 84 65 3d 1c 4a 37 be
       -0.016160656 0.006136222 0.056034636 -0.17899364
0002b0 e1 e1 c4 bd 3b 25 26 be 9d ab e7 bb a2 52 91 bd
       -0.096133955 -0.1622514 -0.0070700184 -0.07095839
0002c0 15 5d 40 bd 24 ef 13 bd 6d d7 e2 bb 47 5e 6a 3d
       -0.04696377 -0.036116734 -0.0069226534 0.057218816
0002d0 e6 c0 29 3e 87 c0 1a bd b4 6b 11 be e7 00 65 bc
       0.16577491 -0.037781265 -0.14201242 -0.013977266
0002e0 26 bf 69 be 6c bc d9 3b 44 2e 36 3e 9a eb 25 bd
       -0.22826824 0.006644776 0.17791086 -0.04050789
0002f0 a6 9b 23 3e f0 f2 3f be e1 73 bb bd 53 23 6a be
       0.15977344 -0.18745017 -0.091529615 -0.22865038
000300 50 6a 4d 3c ac b8 a1 be e3 46 dd bc 2d 19 a3 ba
       0.012537554 -0.31586206 -0.02701134 -0.0012443416
000310 d8 ef 66 bd 2e 4e 0f be 3a 95 c7 be f4 66 8e be
       -0.056381077 -0.13994667 -0.38981038 -0.27812922
000320 25 2b c3 be 4f e4 7b be 1e 18 04 be 7a 5a 1a be
       -0.38118854 -0.24598812 -0.12899825 -0.15073577
000330 c3 92 1a be 87 a4 2e bd a6 b7 95 3d f8 dd 27 3d
       -0.15095048 -0.042637374 0.07310419 0.04098317
000340 09 d1 fd 3c b9 b9 18 be 8a 7e 61 3d 2d af 8c 3e
       0.030983465 -0.14914598 0.055052318 0.274774
000350 aa 8d a8 3d ca d6 11 bd 2b 85 8e bd c8 a2 42 bd
       0.08230145 -0.03560523 -0.069589935 -0.04751852
000360 55 ec ef b5 5f c7 ac 34 9d 7a 2d b6 ff 84 3b b6
       -1.7875669e-06 3.2182558e-07 -2.585038e-06 -2.7942585e-06
000370 96 bd ed 33 21 51 51 35 1d 2c 21 b6 4f a6 67 34
       1.1070658e-07 7.7976625e-07 -2.4016547e-06 2.1574054e-07
000380 03 5c da b6 51 9a 6a ba 74 d6 08 bc 06 84 3a c0
       -6.507618e-06 -0.00089493865 -0.008351911 -2.914308
000390 e5 04 05 bb 68 11 72 bb 07 6e f8 bf 21 89 25 ba
       -0.0020297107 -0.0036936644 -1.9408578 -0.0006314684
0003a0 58 3c 11 3b 43 a5 2d c0 da 61 4e 3b 58 a0 d7 3b
       0.0022161212 -2.7132118 0.003149143 0.0065803938
0003b0 43 2e 02 3c 15 73 de 3b 9c b4 b3 3e 77 90 d6 3a
       0.0079456 0.006788621 0.35098732 0.0016369958
0003c0 6b d8 84 3a 9f 9d b5 3a e4 0a 8d ba a0 a3 6f 3a
       0.0010135298 0.0013856179 -0.0010760692 0.00091415085
0003d0 b8 35 cc 3a e8 17 8a ba 98 64 15 3b 11 1b 81 bb
       0.0015579974 -0.0010535689 0.0022795554 -0.003939994
0003e0 1f f3 0b bb 35 cf 5f 3b c3 29 26 bb 8a 11 78 ba
       -0.0021354628 0.0034150605 -0.0025354482 -0.0009463063
0003f0 b1 20 0a 3d e7 6c c5 bc 3e cb e3 bd 47 2b 8f 3d
       0.033722583 -0.02409978 -0.1112275 0.069906764

2/Conv.bias f4 [16]
000000 2b 14 e7 3d a8 7c 94 bd 02 92 15 be 96 14 31 bd
       0.112831436 -0.07250339 -0.14606479 -0.043232523
000010 1b e3 c2 bd e3 fc d3 bd 93 a5 26 bc d9 ce 2f 3e
       -0.09515973 -0.10350969 -0.010171312 0.1716875
000020 32 25 c7 bb 00 fc c5 bd 59 26 af 3d 9c 88 d8 3d
       -0.006077432 -0.09667206 0.08552236 0.10572931
000030 b9 53 27 be cc 2a 22 3e f1 d3 57 bd be fd 0c 3e
       -0.16340531 0.15836638 -0.052692357 0.1376867

4/Conv.weight f4 [16, 16, 4, 4]
000000 f5 b8 f6 b9 47 f1 1f c0 a5 1f 92 ba 33 b7 a5 ba
       -0.0004705858 -2.4991014 -0.0011148347 -0.0012643099
000010 1b 85 91 39 3c f4 1a b9 b1 f4 39 c0 c2 84 39 bb
       0.00027755726 -0.00014777569 -2.9055598 -0.002830789
000020 2f 0b f9 ba 0f 43 44 bb 84 04 09 bd d0 f7 d3 be
       -0.0019000525 -0.0029947197 -0.033451572 -0.41400003
000030 46 3a f7 ba e0 29 db ba 38 91 70 bc 0b d7 0b bf
       -0.0018861971 -0.0016720854 -0.01468306 -0.54625005
000040 0a a0 c4 3d 94 24 3d 3e ee fd cf bd 1a ba ce bd
       0.096008375 0.18470985 -0.10155855 -0.1009409
000050 c6 dc 13 3e d4 0a 32 3e b2 cf 07 3e f3 25 c2 3d
       0.14439687 0.17386943 0.13262823 0.094798945
000060 59 be 69 be a1 58 8d bd cf 7c 18 be e0 d0 df 3d
       -0.22826518 -0.0690167 -0.1489136 0.109285116
000070 e0 99 5b be 36 a5 6e be b7 e7 ab bd 8e 83 c5 bd
       -0.21445417 -0.2330521 -0.083938055 -0.09644233
000080 d3 ee 7e 3c 34 9e 18 b5 01 90 9b b3 cb bb 58 bd
       0.01555987 -5.685463e-07 -7.243944e-08 -0.05291347
000090 c7 3d 48 3c 9a d7 97 bd a2 9f e9 3c fd 6c bc bb
       0.01222176 -0.074141696 0.028518502 -0.005750297
0000a0 db e6 cb 3b 39 3a cb bd d5 6e e4 bd 5c 48 53 bd
       0.0062225885 -0.099232145 -0.11153952 -0.05158268
0000b0 ba c4 55 bd a8 fe a2 bd a4 c0 70 bd fc 00 27 be
       -0.052189566 -0.07958728 -0.058777466 -0.1630897
0000c0 58 15 df 39 fd 0b e8 ba b1 66 07 b9 b6 f3 57 39
       0.00042549777 -0.0017703768 -0.00012912859 0.00020594787
0000d0 c7 06 7a 3a e7 5a ac ba c9 a5 7d b9 ca f5 8c b9
       0.0009537753 -0.001314965 -0.0002418972 -0.00026886008
0000e0 89 37 df b9 80 08 39 bb b3 a1 10 ba 15 c1 02 b9
       -0.0004257525 -0.0028233826 -0.0005517259 -0.00012469695
0000f0 01 d8 f1 bf 8e fc b3 ba 31 c6 e6 ba bf a2 d2 b9
       -1.8894044 -0.0013731883 -0.0017606673 -0.00040175577
000100 14 2c 46 be 97 28 1e be e7 f5 7b ba 03 16 7d bd
       -0.19352752 -0.15445171 -0.00096115324 -0.06178857
000110 71 d2 90 3d a4 9c 62 bd 3b ca 9e 3d cf a9 24 3e
       0.070713885 -0.055325165 0.07753416 0.16080402
000120 e8 eb c6 bd 13 3c e1 3c d5 c3 1f 3c 18 ee eb 3c
       -0.09712964 0.027494466 0.00975128 0.028800055
000130 b7 38 64 bc 8c 2c 05 bd 6c ca 66 bc 79 e0 e2 bc
       -0.0139295375 -0.032513186 -0.014086347 -0.027694928
000140 8b 8e f1 bd 72 c2 b6 bd 6c 7a 7f be 2c 21 64 be
       -0.11794766 -0.08923806 -0.24949044 -0.22278279
000150 01 6c 9b 3b 2e e8 ba bd 5a e4 67 bd 1d 87 c2 bb
       0.0047430997 -0.09126316 -0.056614257 -0.005936517
000160 25 66 21 bb 31 93 18 b7 1f c7 b4 3b a7 ca b2 bb
       -0.0024627533 -9.094177e-06 0.005516901 -0.005456287
000170 1b ef 9d bd bd d0 e4 bd 80 21 96 bc 6a 1b e4 3d
       -0.077116214 -0.11172626 -0.01832652 0.11138041
000180 0f 76 73 3b bd ab 26 39 a1 81 63 3a 8b 04 a4 bc
       0.0037149226 0.00015894971 0.0008678679 -0.020021698
000190 45 62 57 3b 3e 03 13 3b 3d 06 f0 3a aa 80 de ba
       0.003286497 0.0022432352 0.0018312406 -0.0016975601
0001a0 cc 4f 2a 3a c3 00 3d bb f5 96 1d 3a 3f 5e b4 ba
       0.0006496876 -0.0028839565 0.0006011569 -0.0013760998
0001b0 71 fd 88 37 81 c7 b0 39 67 ec 46 bb 92 b2 6c bb
       1.6330481e-05 0.00033717978 -0.003035331 -0.0036117178
0001c0 c5 2d 81 39 3e dc 85 3a 48 f9 b0 bf ca cb 82 bf
       0.00024638898 0.0010212732 -1.3826075 -1.0218441
0001d0 2a fa 61 3e 47 d3 da 39 14 a5 a7 bb 55 15 36 bf
       0.22068086 0.00041737614 -0.0051161144 -0.711263
0001e0 67 44 25 3f db 37 ad ba 53 c6 3f bc 06 e8 37 bf
       0.645575 -0.0013215499 -0.011704999 -0.71838415
0001f0 32 b5 fb 3b d3 9f 68 bb ea a6 ef bb f9 04 a4 bf
       0.0076815123 -0.0035495653 -0.007313599 -1.2814018
000200 21 a2 1d 3b a6 87 bb 3a 5e 89 a3 ba 31 5a 2d bb
       0.0024052935 0.0014307394 -0.0012476852 -0.0026451463
000210 75 f9 3b 3a a0 80 0d 3b 1d 9e a8 3a e1 e0 02 bb
       0.0007170656 0.002159156 0.0012864504 -0.0019970464
000220 cc a7 10 b9 a8 1b 35 ba ca 22 bd bb d1 7b a4 bb
       -0.0001379542 -0.0006908723 -0.0057719694 -0.005019643
000230 1f 03 36 b9 c3 e0 c1 ba de b1 65 bb 35 5e 4b bc
       -0.00017358035 -0.0014791716 -0.0035048644 -0.012412597
000240 d2 54 0d be ab ed 28 be 35 70 e3 bd 7c a0 4a be
       -0.13801888 -0.16496913 -0.11105386 -0.19787782
000250 8a 86 27 3d cf df 21 bd 28 18 1d bd 3b 32 40 be
       0.04089979 -0.03952008 -0.038353115 -0.18769161
000260 60 c0 3d bd 76 0a 8f bd 35 f3 48 bd 16 bd 04 be
       -0.04632604 -0.06984417 -0.049060065 -0.12962756
000270 f2 7b 36 be 3e 33 d0 3d 65 e6 d8 bd 0c 88 ab bc
       -0.17820719 0.10166024 -0.10590819 -0.020938896
000280 7d 0d d4 39 5b b7 e0 3a 83 87 c3 39 92 d8 ef 3c
       0.0004044584 0.0017144488 0.00037294262 0.029278073
000290 b6 ba 89 ba be e0 e1 bb 31 f8 95 38 36 a6 83 3b
       -0.0010507915 -0.0068932464 7.151103e-05 0.0040176166
0002a0 4f 92 17 bb bf 37 07 bb b3 f6 d3 bb 38 4d 9e ba
       -0.0023127978 -0.0020632592 -0.006468618 -0.0012077456
0002b0 6f f0 5f bb 88 7c 40 bb 3f 97 5a bb 81 1f 29 bb
       -0.003417041 -0.0029371101 -0.003335431 -0.0025806131
0002c0 04 88 02 bb b7 10 88 bb 80 f6 df ba ab 25 0d bf
       -0.0019917497 -0.004152383 -0.0017087013 -0.551356
0002d0 2a 8a 57 b9 b9 b1 d9 ba 80 a0 2d bb db 06 b4 ba
       -0.00020555468 -0.0016608752 -0.002649337 -0.0013734953
0002e0 53 a7 df b9 63 69 39 3c 1c e9 98 3b eb 5b 28 bb
       -0.0004265854 0.01131663 0.0046664607 -0.0025689553
0002f0 5e 1f 49 3f 68 65 e1 3e ab cd 02 3f 6d b2 86 ba
       0.7856349 0.4402268 0.51095074 -0.0010276564
000300 34 ee 0e bd fc 31 df bc 43 97 f7 bb 1d b3 0c 3e
       -0.034895137 -0.027245514 -0.0075558736 0.13740201
000310 df 18 f7 3d b6 b7 a4 3d ae d8 d6 bc 64 46 bc bc
       0.12065291 0.080428526 -0.026226368 -0.022982784
000320 f6 28 96 3d 78 68 85 3d 9f 79 b1 3d db 38 08 3c
       0.073320314 0.065140665 0.086657755 0.008314337
000330 4f f2 ad 3d 87 2f ff 3d 5e 98 b3 bd da e4 1d be
       0.08493482 0.12460237 -0.08769296 -0.15419331
000340 36 60 5c be c0 39 a3 bb dc 9d 84 bb 58 6b c4 ba
       -0.21521077 -0.0049812496 -0.0040471386 -0.0014985604
000350 df 2c 8a bc dd 5a 90 bb 76 56 6f ba 7a 37 e6 b9
       -0.0168671 -0.004405363 -0.000913001 -0.00043910352
000360 53 eb 9c ba 88 bb 3b bb 91 91 81 bb 70 21 cb b9
       -0.0011971988 -0.0028645713 -0.0039541204 -0.0003874409
000370 92 2d 22 3e e8 08 b9 ba d2 06 d8 b9 ad 9e 23 bc
       0.15837696 -0.0014117034 -0.00041203812 -0.009986562
000380 46 51 81 3e 73 71 8c 3e 61 54 0e bb ba e8 bb bd
       0.2525732 0.27430305 -0.0021717774 -0.091752484
000390 1f bf a1 37 da 12 d7 37 33 b2 22 b8 ff bf 27 be
       1.9281693e-05 2.5638776e-05 -3.878977e-05 -0.16381834
0003a0 11 7c f1 b6 5f 6c d7 37 65 9c 59 ba 7a 2a 3c bd
       -7.196803e-06 2.5680461e-05 -0.00083011977 -0.045938946
0003b0 c6 3f 75 ba b1 7f 8c b7 47 fd 8d b7 f1 cd 66 bb
       -0.0009355511 -1.6748761e-05 -1.6926451e-05 -0.0035217965
0003c0 4d 88 84 bf 66 ad 8a bf eb b8 ca bf 36 68 97 bf
       -1.0354096 -1.0834167 -1.5837682 -1.1828678
0003d0 4e d7 04 bb 73 fa 4e bb ca 7f 9c bb 24 b0 a1 bf
       -0.0020269933 -0.0031582385 -0.004775976 -1.2631879
0003e0 82 00 9d 37 67 e3 55 ba 72 dd 0c ba 67 a5 1d ba
       1.8716095e-05 -0.0008159191 -0.0005373574 -0.00060137216
0003f0 ab 64 d6 3a 46 9b c1 3d 16 a4 89 bb 89 44 5e bb
       0.0016356906 0.09453444 -0.004200469 -0.0033915362

4/Conv.bias f4 [16]
000000 a2 f3 9b 3d f5 0a 8d 3d f7 d9 41 be c3 9a bc ba
       0.07614829 0.068868555 -0.18930803 -0.0014389384
000010 72 55 b6 bd f9 c2 2f 3d b5 e6 db bd 29 25 bc bd
       -0.08903016 0.04291055 -0.10737363 -0.09186775
000020 a5 aa 71 be aa 2b 3e be 58 de 0e be 11 90 35 3e
       -0.23600252 -0.18571344 -0.13952005 0.17730738
000030 dc 72 f4 bd ff 68 82 be 23 6f 59 3e c8 ce 6f bb
       -0.1193597 -0.2547073 0.21233802 -0.0036591757

7/Gemm.weight f4 [128, 784]
000000 df c3 0c be 94 92 c7 3c 1c 01 4d 3d d6 3c 70 3f
       -0.13746594 0.024361886 0.050049886 0.9384283
000010 9c 99 b0 3e c1 63 15 be cf 3e 00 be 05 7a aa 3d
       0.34492195 -0.14588834 -0.1252396 0.08324055
000020 dd 2a b6 bb 27 3d 27 3e e4 7e 03 3f f5 dc 9d 3f
       -0.005559309 0.16331922 0.51365495 1.2333056
000030 0d 1b 80 3f 91 3c 14 3d d4 7d 2c 3d 28 21 ac 3d
       1.0008255 0.036190573 0.042112187 0.084047616
000040 24 0d 8f 3a 48 9d b4 b7 c2 3f 97 3f e1 46 0b 40
       0.001091395 -2.1530912e-05 1.1816332 2.176201
000050 4e 1a 22 bc 97 88 8c bd c9 28 04 3f 25 20 83 3c
       -0.009893967 -0.0686199 0.51624733 0.016006539
000060 5c 27 45 3a 96 60 9c 3e d6 59 39 3e 7c 7d 85 bc
       0.00075208186 0.3054244 0.18100676 -0.016295187
000070 d3 6f 4f bd b5 d0 0c 3f e8 c1 ed 3e be e4 41 3d
       -0.050643753 0.5500596 0.46437 0.047337286
000080 19 b4 1f 3b 06 e6 c3 bd b6 0b 2d 3c 28 b5 c3 3d
       0.0024368821 -0.09565358 0.010561874 0.09556037
000090 15 b3 0d 3d ba 44 c7 3e 62 8e 44 39 b5 7f 5b 3a
       0.034594614 0.38919622 0.00018745058 0.0008373217
0000a0 1b 9e ad 3f 21 3e b8 bd ca cf 10 3e b4 3f c8 3c
       1.3563875 -0.08996225 0.14141765 0.024444439
0000b0 55 43 17 3b d4 b1 2f 3c a0 3c 83 3d 4f 8c e0 bb
       0.0023080905 0.01072355 0.06408048 -0.0068526636
0000c0 d3 49 27 3e 21 34 e8 bd c7 fb 9d bd 46 ec e2 3c
       0.16336755 -0.11338068 -0.07714038 0.027700555
0000d0 ec d2 a1 3e e2 27 c7 3d ab e6 87 39 5f ac a9 bd
       0.31606233 0.09724404 0.00025921068 -0.0828483
0000e0 53 33 79 bd 19 d0 9a be 4e 80 ef be b6 5e d0 bb
       -0.060839962 -0.3023689 -0.46777576 -0.0063589467
0000f0 5a 6c f6 3b 98 a1 ca 3d ce 14 18 3d 8c f9 34 bd
       0.0075202407 0.09894103 0.037129216 -0.0441833
000100 bd e9 3e 3a 87 8f 32 3f eb b5 13 3a 47 80 47 3e
       0.00072827545 0.69750255 0.0005634713 0.19482528
000110 d9 cf 97 3c 34 f3 31 3a d2 39 9c 3c 64 38 81 3f
       0.018531727 0.0006788254 0.01907054 1.0095334
000120 d6 35 a4 3f f5 4d 2f 3b 13 39 59 b8 de bc 3f b9
       1.282893 0.0026749347 -5.1789986e-05 -0.00018285538
000130 a1 41 1e 38 fc 2f 1c 39 1d d9 fc 3f 68 69 c5 3d
       3.7731257e-05 0.00014895195 1.9753758 0.09639245
000140 3c 10 32 b9 80 8a 5d be e1 a9 57 be 49 9f c4 ba
       -0.0001698145 -0.21634865 -0.21060897 -0.0015001084
000150 c8 f1 22 38 8f 1f 76 3c 6e d8 52 3e 6f 12 88 ba
       3.8848986e-05 0.015022173 0.20590374 -0.001038147
000160 f7 7b 72 3b b2 41 20 bc a1 e5 bc 3b 08 0b f6 bd
       0.0037000158 -0.009781288 0.0057646786 -0.12013823
000170 05 80 87 3d a4 ec b2 3d 1c fa 93 bd 3f 88 82 3d
       0.06616215 0.08736542 -0.07225439 0.06373643
000180 ed 99 85 bd 00 4b a9 bc 00 6d ff bd f6 ff 8c be
       -0.065235 -0.020665646 -0.12471962 -0.27539033
000190 f5 ec fd bd b0 a0 cf bd 18 20 2f 3e f9 58 43 3e
       -0.123987116 -0.101380706 0.17102087 0.19076909
0001a0 f7 23 95 3d f6 25 1f bd df 81 30 be d8 55 55 3d
       0.072822504 -0.03885456 -0.17237042 0.05208382
0001b0 97 56 db bd 3f 54 cd 3d 4d 6e 52 3d b2 8f 2b 3c
       -0.10709875 0.10025834 0.051374722 0.010471271
0001c0 fc e3 c5 bd 32 c4 82 bc 06 f9 3d be e8 4a 0e 3a
       -0.09662625 -0.015962694 -0.18552026 0.0005428032
0001d0 0b ff c0 3d 20 c4 3b 3e 49 60 03 3e 62 d4 30 be
       0.094236456 0.18336535 0.12829699 -0.17268518
0001e0 86 83 c5 3d 16 e2 bc 3b 16 25 e5 bc 55 3a 0d bc
       0.09644227 0.005764256 -0.027971786 -0.0086198645
0001f0 63 7e 1d bd 77 52 07 3e b2 2f 24 3c 1c 72 70 3d
       -0.03845061 0.13215052 0.010021137 0.058702573
000200 69 91 c9 3d bf 8b 6b be 00 fd ad 3a 17 7d f7 3d
       0.09842188 -0.23002528 0.0013274252 0.12084406
000210 f1 6c 5a 3d da 11 91 bd 3b 33 05 3e 4d c4 6b 3d
       0.05332655 -0.07083483 0.13007824 0.057560254
000220 73 4e 03 3d ee 26 c0 bd 84 16 fe bc 5b 1a 98 3d
       0.032057237 -0.09382425 -0.031016596 0.07426902
000230 2e 26 0f be c0 5e 53 3c e2 c2 3f bd a0 9c 29 3e
       -0.13979408 0.012901008 -0.046816714 0.16563654
000240 2a 3e 85 3d e1 3d 49 3d 43 50 bc bb 47 7c 8a 3d
       0.065059975 0.049131278 -0.0057468726 0.06761985
000250 56 1c e2 3d 39 a1 10 3f e4 42 6d bf d7 f3 87 3c
       0.11040561 0.56496006 -0.9268019 0.016595764
000260 31 1f 1b 3f d0 4c 17 3e 52 88 e0 3b d9 70 ce 3b
       0.6059447 0.14775395 0.006852188 0.0063000736
000270 28 1c 1a bb fd dd 00 be e9 1c a4 be af 77 91 39
       -0.0023515318 -0.12584682 -0.32053307 0.00027745726
000280 e9 36 51 3c 23 4a ab ba 04 0e 6c bc e4 f4 96 3c
       0.012769439 -0.0013068359 -0.014407638 0.01842732
000290 9c 43 af bd 9e e5 cc 3a 3f a8 f0 3b ab f3 9a bb
       -0.08557817 0.0015632396 0.0073442752 -0.0047287545
0002a0 2d 2d c0 bc 10 75 8e 3f 0e d9 2d ba 46 80 d5 bd
       -0.023459041 1.1129475 -0.000663177 -0.10424857
0002b0 8e 2e 24 3f 1e 84 04 bc c2 25 a8 3c 7a a5 fa 3a
       0.64133537 -0.00808814 0.020525817 0.0019122802
0002c0 43 e8 e9 3a 83 14 89 3a 1e 03 47 be 87 70 d7 3e
       0.0017845709 0.0010458383 -0.19434783 0.4207804
0002d0 1f 2e 86 3e 2b ca 7f bc 7e cc 51 3c c8 bc a5 3b
       0.26207063 -0.015612165 0.012805102 0.005057905
0002e0 0b 6f 14 3e 48 e0 48 3e 4e b6 0a 40 ca 59 da 3c
       0.14495485 0.19616807 2.167377 0.026654143
0002f0 6a e5 89 3d 6d 4a 33 3e 66 ce da 3a 1a 97 e2 3b
       0.067332104 0.1750886 0.0016693592 0.0069149854
000300 ec 16 82 bd 48 90 2c bc 4f ce ab bb ef de ee 3d
       -0.06352028 -0.010532446 -0.0052430998 0.11663615
000310 60 a1 d6 bc 1e 91 fb bd 62 be 44 bc 32 57 0e 3e
       -0.026199996 -0.12283538 -0.012008281 0.1390045
000320 1a 8e c3 3e bb af 1f bc d9 50 8b 3d 6f c0 1a be
       0.38194352 -0.009746487 0.0680253 -0.1511247
000330 3d 67 78 3c d3 d6 82 3e 5c 6f 57 3d 9d ce 2f 3d
       0.015161333 0.25554523 0.052596435 0.04292165
000340 0c 86 5e bd b6 2a 0b be 6a 60 01 bd 22 59 86 bd
       -0.054327056 -0.13590512 -0.03158609 -0.065599695
000350 8c a1 8e bc 9f 21 41 3b e8 99 ca 3d c0 f7 a0 bb
       -0.017411016 0.0029469503 0.098926365 -0.0049123466
000360 7d 46 a0 3d 4c 57 16 bd b8 c7 83 bb d5 a4 0c be
       0.078259446 -0.036704347 -0.004021611 -0.13734753
000370 f7 28 8d 3c 26 9b 42 bc 51 95 b2 bd c7 44 27 be
       0.017231448 -0.011877811 -0.08719886 -0.1633483
000380 0c d7 df 3d 9c 76 4d 3d 04 da ba 3c f6 db 7e bd
       0.10929689 0.050161943 0.022809036 -0.06222149
000390 0f cc ea bc 70 0e b9 3b d2 f3 63 3d 3c 9c 68 bd
       -0.028661756 0.005647473 0.055652447 -0.05678962
0003a0 66 70 a0 bc 63 4a 8e 3d b3 14 a4 3c a8 2e 53 3e
       -0.019584846 0.06947782 0.020029401 0.20623267
0003b0 5f ca 96 bb b5 f1 32 3e a4 b7 d2 3c 63 fb 25 3e
       -0.0046017612 0.17475016 0.025722332 0.16209178
0003c0 e9 ae 32 be b3 e4 45 3e 2c b5 96 3d d8 9b 6e bd
       -0.17449535 0.19325523 0.073587745 -0.058254093
0003d0 f6 59 a0 bc 4c f2 9b 3c 57 be 3d 3c 6c e0 56 3f
       -0.019574147 0.019036435 0.011581025 0.8393619
0003e0 95 c8 1c 3e 0b 1e 8b 3e 20 33 c4 39 6a 4d e0 ba
       0.15310891 0.27171358 0.00037422124 -0.0017112915
0003f0 7b b5 45 be a1 18 36 3c 47 42 03 3f 0d 47 11 3f
       -0.1930751 0.01111427 0.51273006 0.5674904

7/Gemm.bias f4 [128]
000000 8f fc 0d 3d b8 ff c9 bc e7 76 90 bb 22 59 a4 b9
       0.034664687 -0.024658069 -0.0044087055 -0.00031346927
000010 6f 97 ae 3a b6 4d 47 bb 92 0e 54 be 8f bf 1f bd
       0.0013320277 -0.003041131 -0.20708683 -0.039001044
000020 31 81 5a be 08 df 9e 3e 14 bd 0a 3b c0 63 77 3d
       -0.21338345 0.31029534 0.0021169828 0.060397863
000030 b0 5d 8e 3c 27 dc 93 be 08 30 59 3e be 9b 5d 3e
       0.017378658 -0.288789 0.21209729 0.21641442
000040 b9 93 6d 3a 50 3f 32 3c 8e d4 cd 37 da 16 92 bd
       0.0009062845 0.010879353 2.4536883e-05 -0.07133265
000050 fd 6b 91 3e 42 3a 90 3e 05 2b 23 bc bd 37 9d 3a
       0.284027 0.28169447 -0.009958987 0.0011994761
000060 12 54 45 be 86 f3 3d bd 8e 1f 37 bd ae ec 54 3d
       -0.19270352 -0.04637482 -0.044707827 0.051983528
000070 37 98 65 3d 91 b3 32 3c 28 69 1f 3a 3e 57 8d 3d
       0.056053367 0.01090707 0.0006081038 0.06901406
000080 dc 09 58 3e 89 ef 16 3e 7e f2 7a 3d 3b 55 54 3e
       0.21097511 0.14739813 0.061266415 0.20735638
000090 66 97 a6 bc 13 7f 6f be 76 ad 9f 3a 36 1b 90 be
       -0.020335864 -0.23388319 0.0012182433 -0.2814576
0000a0 a9 2e 92 3e 81 e4 5b 3d 1a 7c 5b 3e b9 df 53 3c
       0.28551224 0.053684715 0.2143406 0.012931758
0000b0 c3 be bc 39 bb 27 a1 be 8a ee 17 be 9f 74 42 3d
       0.00036000283 -0.31475624 -0.14837089 0.0474745
0000c0 03 24 7a bc b3 0c 7a bd 00 85 30 3d a9 c9 3c bd
       -0.015267375 -0.061047267 0.04309559 -0.046090756
0000d0 ce 4f 4e 3e da 14 01 39 08 09 1c 3e 8b 6d 4f 3e
       0.2014763 0.00012310166 0.1523782 0.20256631
0000e0 4c 2d 06 3e 1e a1 74 bb 37 07 6f be 5a bf 7f 3e
       0.13103217 -0.0037327479 -0.23342596 0.24975339
0000f0 21 c9 9b 3c 00 9c cd 3a e7 46 88 be ee 40 a4 bc
       0.019016804 0.001568675 -0.26616594 -0.020050492
000100 cd 4d 9c 3a 86 18 77 3e 8d a4 94 3d d1 51 7c be
       0.0011925042 0.24130449 0.07257948 -0.24640585
000110 23 46 43 bc 9e 44 be 3d 80 b8 8d 3e 20 f8 1e bb
       -0.011918577 0.092904314 0.27679825 -0.002425678
000120 3a 28 91 3e 04 03 b5 bc 8b 5c 6d 3e 1d 53 50 be
       0.28351003 -0.022096165 0.23179834 -0.20344205
000130 e7 18 34 be f5 67 50 38 a4 96 8f 3e e7 57 4d 3e
       -0.17587624 4.9687882e-05 0.28044617 0.20053063
000140 7a d8 b4 bd 3c 78 77 3c 56 1b c0 3e 4a 57 34 be
       -0.08830352 0.01510435 0.37520856 -0.17611423
000150 82 7d 98 3e da 97 0b 3b 85 c2 33 be 6c 81 3f 3e
       0.29783255 0.0021300227 -0.17554672 0.18701714
000160 00 a6 15 3d 68 74 21 3e b7 d2 91 bc f7 58 4d bc
       0.036535263 0.15767062 -0.017800672 -0.012533418
000170 ff b1 4b be eb 5b ac bd b3 2e 3e 3e 1d 36 20 3d
       -0.19892119 -0.084159695 0.18572502 0.039114106
000180 d0 c8 91 be 8a 43 e2 bc 78 e8 94 bc f3 64 50 3e
       -0.2847352 -0.027620096 -0.018177256 0.20351009
000190 e6 da 90 bb 9b 01 6f 3e 08 6b 9c b9 ad 67 cd bc
       -0.004420626 0.23340456 -0.00029834383 -0.02507385
0001a0 b8 39 6c be ae db 1c be 0b fb 25 3e 43 78 97 bd
       -0.23068893 -0.15318176 0.16209047 -0.07395985
0001b0 e9 2d 6d 3e 08 96 d5 3c 71 f2 6f be 5c a3 7d bd
       0.23162045 0.026072517 -0.23432328 -0.06192337
0001c0 f0 b1 93 ba 5e 96 61 3e a6 b3 81 bc 3e 1e 63 bc
       -0.001126824 0.22030017 -0.015832733 -0.013862191
0001d0 de a0 3c be 9c a0 73 3e 09 36 e6 3b a5 ac 0f bd
       -0.18420741 0.23791736 0.0070254845 -0.035076756
0001e0 9e 74 78 be bf 84 f7 bc 6a 54 a3 3c e1 9e b2 3a
       -0.24263236 -0.030214665 0.019937713 0.0013627672
0001f0 ae 7c 13 b8 42 90 1f 3e 02 7d 01 3b 5d a0 73 be
       -3.5163648e-05 0.15582374 0.0019758348 -0.23791642

8/Gemm.weight f4 [10, 128]
000000 ea 6e 0c bb 2a ed 12 bb d9 50 04 39 3c 45 30 38
       -0.0021428415 -0.0022419193 0.00012618619 4.202615e-05
000010 1e 30 3e 38 f9 c7 0d b8 6b 09 03 b9 6c 48 32 bb
       4.5344343e-05 -3.380326e-05 -0.00012496642 -0.0027203811
000020 fc 9d 3b b6 e2 78 0e bb ae 87 87 ba 16 b7 be ba
       -2.795713e-06 -0.0021739532 -0.0010340118 -0.0014550413
000030 ce 9a f5 39 e9 10 23 35 c8 7a d6 b6 ce 18 36 bb
       0.0004684538 6.074684e-07 -6.3919906e-06 -0.002778578
000040 a0 ee 09 b9 4c 56 14 3b 5e 4b dd 38 f9 6d db 39
       -0.00013154233 0.0022634445 0.000105521394 0.0004185287
000050 c0 2b a7 b9 0d e3 8a bf 47 64 27 3b 61 65 1e b9
       -0.00031885318 -1.085054 0.0025541948 -0.00015105821
000060 60 7c 60 3f 55 4e 92 39 b6 fa 25 bb f6 73 14 3b
       0.8768978 0.00027905652 -0.0025326437 0.0022652126
000070 84 2d 11 3b 6e ec 19 bb 7b b3 88 b9 01 be 7d ba
       0.0022152374 -0.002348687 -0.00026073665 -0.0009679497
000080 09 f8 26 bb 77 27 49 b9 85 c2 f0 b9 c8 c3 00 38
       -0.002547743 -0.00019183556 -0.00045921296 3.0699914e-05
000090 6a be 13 bb 6b 81 9e 3f 02 56 f1 38 9d 79 03 b9
       -0.0022543916 1.2383245 0.00011507796 -0.00012538438
0000a0 ac b2 95 b8 b3 34 17 3b 67 a0 88 37 7f 4d 19 3b
       -7.138154e-05 0.0023072183 1.6287157e-05 0.0023392139
0000b0 b6 58 6f b9 aa 2d 33 39 91 7c d5 ba 69 b8 21 3b
       -0.00022825864 0.00017087781 -0.0016287734 0.0024676567
0000c0 6b d1 8b 3a 6f 16 0f b8 56 e8 0f b9 a3 6c 14 bb
       0.001066727 -3.411475e-05 -0.00013724095 -0.002264776
0000d0 75 4a 22 bb a4 c4 b6 b8 4c b1 81 3a 68 25 bd bf
       -0.0024763618 -8.7150634e-05 0.0009894758 -1.477704
0000e0 db fc 62 b9 15 39 25 bb b2 74 8a 39 ce 3c fd bf
       -0.00021647236 -0.0025211025 0.00026408356 -1.9784181
0000f0 34 4c 23 3b aa 22 b4 b8 24 c7 1a 3b f1 ca b2 ba
       0.0024917247 -8.5895255e-05 0.0023617232 -0.0013640804
000100 70 06 84 b7 5f 3b bc bf e0 b8 b7 3a a9 98 12 bb
       -1.5738624e-05 -1.4705619 0.0014016889 -0.0022368825
000110 57 f2 8f 3a 9f b5 0f 3b fe 17 a1 b9 c3 b9 50 39
       0.0010982257 0.0021928323 -0.0003072619 0.00019905627
000120 37 d0 e9 3a b9 19 6b 39 37 d4 0f bb b6 ce a4 ba
       0.0017838542 0.00022420929 -0.0021946558 -0.0012573812
000130 71 1a ef 3e ad 50 b8 b8 dc 3e f7 b8 a6 c7 c8 3a
       0.4669986 -8.788831e-05 -0.00011789586 0.0015318289
000140 6c a0 18 bb 55 2e 19 b9 43 2b 0d ba d3 cb a8 b8
       -0.0023288978 -0.00014608477 -0.00053851696 -8.0488295e-05
000150 a7 fc 94 3a a6 ff b4 b9 a4 c1 fe ba 2c 09 1b 3b
       0.00113668 -0.00034522748 -0.0019436372 0.002365659
000160 b9 a5 03 bb 5c 1a 30 b9 48 eb 41 ba 78 39 dd 3a
       -0.0020087792 -0.00016794488 -0.00073974254 0.0016878089
000170 77 d4 b7 ba bd db 19 3a e5 a9 91 38 28 5b 78 b8
       -0.0014025111 0.00058692304 6.945784e-05 -5.9212703e-05
000180 9f 59 40 3b 30 7e ca 3a 7a ae 6c 3a 46 f4 cc bf
       0.0029350293 0.0015448984 0.00090286846 -1.6012046
000190 60 ae 88 3a fe 19 96 39 e0 ca f0 b7 15 3e a4 3a
       0.0010427944 0.00028629595 -2.87047e-05 0.0012530709
0001a0 66 24 c5 ba 15 ca a5 ba bd ee 22 3b db b0 0e bb
       -0.0015040755 -0.0012648726 0.0024861537 -0.0021772895
0001b0 8b c5 14 bb 8c 82 91 39 1c 9e 2b 3b 03 41 07 3a
       -0.0022700753 0.0002775382 0.002618677 0.0005159529
0001c0 c9 69 00 b9 00 0f a1 b8 3d 2d 2f bb 6d f7 15 3b
       -0.0001224644 -7.679872e-05 -0.0026729845 0.0022883073
0001d0 1f 60 cb 37 d6 54 60 b9 4c fb a3 ba 56 fb 05 3b
       2.4244246e-05 -0.00021393909 -0.0012510805 0.0020443997
0001e0 75 fc 47 39 6f 64 78 ba cb 6b de 3a 53 e2 f9 ba
       0.00019072166 -0.0009475415 0.0016969381 -0.0019064642
0001f0 06 d3 63 37 6c 18 ea 3a f5 71 26 3b 21 29 e9 39
       1.3579387e-05 0.0017860061 0.0025397514 0.00044471867
000200 8f eb fa bf e1 c1 2c bf 6a 5f a5 b9 80 da 78 38
       -1.9603137 -0.67483336 -0.00031542341 5.93313e-05
000210 a7 f7 13 39 f7 14 0a b9 58 2d ad b8 16 9d e6 b8
       0.0001411127 -0.00013168516 -8.257729e-05 -0.00010996514
000220 d0 0b 12 ba cd cf aa 3a 14 fb b4 39 fe b5 5e 36
       -0.0005571218 0.00130319 0.00034519343 3.3186511e-06
000230 19 9e b2 3a a6 b4 43 ba 8c 33 3c 39 6a a7 c7 39
       0.0013627439 -0.00074655784 0.0001794828 0.0003808097
000240 c3 5a ba 39 2c d5 e2 3a 16 c4 88 b8 26 c7 da 39
       0.00035544307 0.0017305962 -6.521509e-05 0.00041728577
000250 78 52 72 3a 3c 99 02 ba 3b 91 96 3f b5 38 0d b9
       0.0009243856 -0.000498194 1.1763071 -0.00013467933
000260 65 f5 55 3a fe 6b 35 bb 23 e0 e6 b8 20 70 4f b8
       0.0008161872 -0.0027682777 -0.00011009003 -4.945707e-05
000270 fe 75 cc b6 ab 47 14 bf 8e 8a a4 39 c6 2a df ba
       -6.09341e-06 -0.57921857 0.0003138375 -0.0017026297
000280 f8 ae 94 38 14 0c 42 39 14 ab dd ba 3b b3 03 3a
       7.0897804e-05 0.00018505781 -0.0016911947 0.0005023961
000290 a1 91 e6 ba c2 4f 47 3a 02 d6 99 39 63 12 34 39
       -0.0017591008 0.00076031324 0.00029341882 0.00017172987
0002a0 61 78 76 3a 7d b4 ac 39 a4 cc 6f 39 7c b5 99 39
       0.0009402093 0.0003294087 0.00022869051 0.0002931765
0002b0 e8 5e 6a b9 28 2c 6e 38 1b e4 ef b9 70 56 b2 3f
       -0.00022351334 5.6784746e-05 -0.00045755584 1.3932629
0002c0 b9 05 83 39 c8 e5 a5 ba a0 a8 13 3b 51 a7 e7 ba
       0.0002499053 -0.0012656981 0.0022530928 -0.0017673766
0002d0 16 4b cf 39 1f d0 01 ba b4 2d 3f 3a 20 38 35 ba
       0.0003953806 -0.0004951972 0.0007292882 -0.00069129653
0002e0 0e 9d d0 39 e7 e7 ec b9 00 68 8a b8 13 c7 35 ba
       0.00039789866 -0.00045186208 -6.599724e-05 -0.00069342664
0002f0 49 3f f6 3e bb 5f 4a b7 27 e1 04 ba 14 cc 99 ba
       0.48095158 -1.2062427e-05 -0.00050689507 -0.0011733794
000300 19 39 01 b9 2a cb 45 ba 3c 2e 9b 39 23 1e ae b9
       -0.00012323669 -0.00075452274 0.0002959835 -0.0003321032
000310 bb dc 71 3c ab f8 55 3a 96 91 65 b8 b2 d1 1c 39
       0.014762099 0.00081623596 -5.4733442e-05 0.00014955437
000320 ab 67 e6 39 da 40 02 ba 0a 55 92 39 2a 01 eb ba
       0.00043946257 -0.000496877 0.0002791065 -0.0017929424
000330 f5 3d 44 3a e0 ed c5 b8 1f 16 00 3a 88 c8 79 39
       0.0007486039 -9.438e-05 0.0004886109 0.00023821194
000340 89 2d b0 ba 09 43 ce 3a 37 0b 14 b9 f8 c7 7e b9
       -0.0013441305 0.0015736531 -0.00014118558 -0.00024297822
000350 60 be b6 3a a3 06 10 b9 06 4e 79 b9 5c c3 91 3a
       0.0013942234 -0.00013735383 -0.00023775556 0.0011120844
000360 a8 6d 83 bf c7 a1 bb b7 83 fe b1 b9 72 ec 17 3b
       -1.026784 -2.236747e-05 -0.00033949697 0.0023181704
000370 f0 a6 15 ba e8 3b 9f b7 d9 3a 0a 3a 4d 57 f6 3a
       -0.00057087746 -1.8982173e-05 0.0005273051 0.0018794328
000380 d0 50 a4 b9 77 db 96 39 85 d3 ad b9 d9 f4 4c ba
       -0.00031340728 0.00028773744 -0.00033154726 -0.00078184676
000390 e9 9b 65 3a 40 0f 23 3a 92 d7 e7 b7 d7 dd 82 39
       0.0008758889 0.0006220229 -2.7637729e-05 0.00024960816
0003a0 e2 75 ad b9 9e 7c ba b9 a3 9c 26 3a f9 5b c6 ba
       -0.0003308496 -0.00035569532 0.0006355738 -0.0015133611
0003b0 c4 e7 80 3a 55 06 59 3a 5f 75 36 ba cb ad 9c 3a
       0.0009834697 0.00082788366 -0.00069602387 0.001195365
0003c0 69 00 82 b8 b7 af d4 b8 50 1c 91 bf e1 5d a1 39
       -6.1989595e-05 -0.00010141677 -1.1336765 0.00030778258
0003d0 62 67 23 ba aa 0f 4f 3a 22 7d 04 bb ce 4d 9f 3f
       -0.0006233362 0.00078987575 -0.0020216187 1.2445619
0003e0 75 59 5f b9 2d 01 f3 ba 48 a0 e2 3f 4c 62 39 b7
       -0.00021300263 -0.0018539779 1.7705164 -1.1049746e-05
0003f0 d5 8d 08 39 83 64 85 39 7e 11 81 39 57 97 92 b8
       0.00013022807 0.00025442624 0.0002461783 -6.990012e-05

8/Gemm.bias f4 [10]
000000 9d b9 a8 be b0 8e 55 bd 93 18 ea 3c 62 53 2b 3e
       -0.32954112 -0.05213803 0.028576171 0.16731027
000010 46 da c4 bb 55 5a 61 3e 29 b3 d4 bd 32 6e 3c 3e
       -0.0060074655 0.22007115 -0.103857346 0.18401411
000020 08 de 3e be 38 50 ce bc
       -0.18639386 -0.025184736
