project_networks/ensemble_models/mnist_cnn_3layer_k3_w2_ensemble.onnx (onnx, 430016 bytes, 10 tensors)

0/Conv.weight f4 [8, 1, 3, 3]
0.18098472 -0.006478412 -0.0052511473 -0.015262797 -0.008146304 -0.024685374 -0.009494212 -0.11795289
-0.034528334 0.0006235042 0.00024970158 0.0006126945 0.00046215672 2.7392653e-05 0.00018075616 -0.00015338708
0.00033079734 1.0468308 0.75009704 0.00040776492 -0.00013270107 -7.219288e-05 -0.00018878034 0.0009635933
8.8789704e-05 -3.8555398e-05 0.00042430245 0.00021249246 0.000100366975 8.346041e-06 0.00065266254 0.0002716273
-0.00036994455 1.0244381 -0.0001649921 -8.474019e-05 -0.031968065 -0.3059388 -0.3047139 0.14732851
-0.011483067 -0.0010525049 -0.31578535 -0.23399357 0.06598964 -0.047153205 -0.056966666 0.3177248
-0.044146027 -0.04514365 -0.051514864 -0.23808768 -0.33238187 -0.500981 -0.05882624 -0.07051761
-0.09072543 -0.06268034 -0.06159201 0.5205025 -0.7008511 -0.027590882 -0.06192915 0.118627615
-0.18545146 -0.22093941 -0.4085233 -0.06297512 0.0062238364 0.03860164 -0.26640984 0.07083975
00000000: 0f54 393e dc48 d4bb d111 acbb cf10 7abc
00000010: 1378 05bc fb38 cabc 9d8d 1bbc 4991 f1bd
00000020: 956d 0dbd a972 233a 61ea 8239 3b9d 203a
00000030: a04d f239 46c9 e537 5d89 3d39 88d6 20b9
00000040: de6e ad39 8dfe 853f 5c06 403f 48c9 d539
00000050: ac25 0bb9 4266 97b8 56f3 45b9 a799 7c3a
00000060: 9c34 ba38 8bb6 21b8 e974 de39 83d0 5e39
00000070: 1c7c d238 f905 0c37 7117 2b3a 3369 8e39
00000080: 1ef5 c1b9 ca20 833f bb01 2db9 8bb6 b1b8
00000090: f2f0 02bd 03a4 9cbe 7603 9cbe 49dd 163e
000000a0: 7923 3cbc 34f4 89ba 9eae a1be 039c 6fbe
000000b0: 9425 873d b823 41bd e155 69bd d3ac a23e
000000c0: 77d2 34bd 8ce8 38bd 4001 53bd 42cd 73be
000000d0: f52d aabe 4a40 00bf c9f3 70bd 896b 90bd
000000e0: 41ce b9bd 8d5e 80bd e747 7cbd a73f 053f
000000f0: fa6a 33bf 4606 e2bc 6ca9 7dbd 09f3 f23d
00000100: fde6 3dbe f13d 62be f729 d1be 1af9 80bd
00000110: 53f1 cb3b c11c 1e3d df66 88be 6e14 913d

0/Conv.bias f4 [8]
-0.18617457 -0.46029055 -0.29751545 -0.43852836 -0.21380667 -0.31861106 -0.52063596 -0.23238304
00000000: 8ca4 3ebe 34ab ebbe f253 98be ca86 e0be
00000010: 23f0 5abe fd20 a3be 6648 05bf d2f5 6dbe

2/Conv.weight f4 [16, 8, 3, 3]
4.753232e-06 -5.105985e-06 -4.450634e-06 3.749778e-07 -1.251783e-06 -4.44644e-06 2.5258828e-06 -2.3755413e-06
2.0162464e-05 -0.00038293906 -1.2728314 -1.3989588 -0.16970037 -2.8826897 -0.00037084855 -0.19767235
-0.0022930817 -0.00029379418 0.0007302261 0.0007814572 0.0005614798 0.0004481365 0.00021467787 0.00013732702
0.0005257028 0.00033154714 -0.0006843464 0.00028323565 0.00015590564 3.332309e-05 0.00018646843 -0.0003217723
-0.28562352 -0.00012660917 -0.0017465972 -1.0248277 0.0047263624 0.04503326 -0.041825075 -0.055825893
-0.026082559 -0.019657629 -1.1136193e-05 -0.19325256 -0.0063442774 -1.1597302e-06 -6.24845e-07 -2.0969249e-07
2.4348892e-06 2.263195e-06 4.8042725e-08 -2.6442125e-05 -0.00012134217 6.270365e-07 0.0005228918 -2.6181942e-07
-1.6284023e-06 -0.000116311145 -1.4476161 -0.000197437 -0.00026638748 -2.852957 -3.4096501e-09 -0.0896211
0.03269676 0.083481506 -0.045514654 -1.3934122e-05 -0.15209521 0.035831098 -0.26024014 -0.0004514089
-0.06307314 -0.10111795 0.15762609 0.0034739235 -0.05966294 -0.02638479 -0.020816816 0.0067789513
-0.21155444 0.006082791 -0.18615013 -0.2129413 0.0083570555 -0.04234954 -0.43688712 -0.026991546
-0.03744909 -0.4465304 0.032746818 -0.1636027 -0.027540691 -0.12388752 -0.024856638 -0.15503815
-0.031264298 0.0120114805 -0.14512794 -0.030230632 -0.12275452 -0.08790632 -0.05048429 -0.023015851
-0.05056496 -0.22057098 -0.040341098 -0.046971567 -0.06494803 -0.25085673 -0.09836176 0.00308303
0.078792274 0.0007433504 -0.044760443 0.14857443 -0.028319484 -0.19093114 0.046464674 0.008967404
-0.18285033 -0.2668721 -0.095101476 -0.08363205 -0.1265519 -0.08788468 -0.27991524 -0.3263373
-0.3283243 -0.081116095 -0.109941244 -0.6162173 -0.009083444 -0.033893276 -0.024115952 -0.050290395
0.04647585 0.060030263 -0.10144299 0.03138098 -0.05287983 -0.023027752 0.16793552 0.018235035
-0.16291869 -0.3021755 -0.11576204 -0.075672634 -0.046224255 0.092454985 -0.06387438 -0.06508904
-0.08120359 -0.30598098 -0.07765252 -0.2710224 -0.16760765 -0.19669105 -0.12147422 -0.29236844
-0.21966207 -0.25472862 -0.20000936 -0.024984382 0.0023115552 -0.0013732751 -0.009110667 -0.1379607
-0.016160656 0.006136222 0.056034636 -0.17899364 -0.096133955 -0.1622514 -0.0070700184 -0.07095839
-0.04696377 -0.036116734 -0.0069226534 0.057218816 0.16577491 -0.037781265 -0.14201242 -0.013977266
-0.22826824 0.006644776 0.17791086 -0.04050789 0.15977344 -0.18745017 -0.091529615 -0.22865038
0.012537554 -0.31586206 -0.02701134 -0.0012443416 -0.056381077 -0.13994667 -0.38981038 -0.27812922
-0.38118854 -0.24598812 -0.12899825 -0.15073577 -0.15095048 -0.042637374 0.07310419 0.04098317
0.030983465 -0.14914598 0.055052318 0.274774 0.08230145 -0.03560523 -0.069589935 -0.04751852
-1.7875669e-06 3.2182558e-07 -2.585038e-06 -2.7942585e-06 1.1070658e-07 7.7976625e-07 -2.4016547e-06 2.1574054e-07
-6.507618e-06 0.0014101893 0.000752262 -2.840673 -1.4456277e-05 -0.0036646572 -1.8625073 -0.00064605376
-0.0013795818 -2.639133 -0.0005399632 -0.0002468942 0.0008262912 -0.00083838403 0.33223316 0.0038288783
0.0028844331 0.0017231074 0.0010081817 0.0025176597 0.0014640318 0.0008239317 -0.00010212664 0.00077782193
-0.00024606977 0.0015257705 0.0015851355 -0.0006424045 0.033722583 -0.02409978 -0.1112275 0.069906764
00000000: f47d 9f36 1454 abb6 a856 95b6 8e50 c934
00000010: f002 a8b5 a132 95b6 5682 2936 7d6b 1fb6
00000020: 9022 a937 36c5 c8b9 24ec a2bf 1511 b3bf
00000030: efc5 2dbe fd7d 38c0 736e c2b9 9f6a 4abe
00000040: 8747 16bb 6308 9ab9 a56c 3f3a b4da 4c3a
00000050: 4630 133a ddf3 ea39 271b 6139 71ff 0f39
00000060: 51cf 093a 81d3 ad39 b665 33ba 3f7f 9439
00000070: 9a7a 2339 65c4 0b38 bd86 4339 8cb3 a8b9
00000080: 3f3d 92be 64c2 04b9 14ee e4ba 8e2d 83bf
00000090: 9adf 9a3b cc74 383d c550 2bbd b1a9 64bd
000000a0: 17ab d5bc 0909 a1bc 96d5 3ab7 00e4 45be
000000b0: a8e3 cfbb 07a8 9bb5 05bb 27b5 d527 61b4
000000c0: 1467 2336 65e1 1736 8957 4e33 08d0 ddb7
000000d0: 1579 feb8 9f51 2835 ad12 093a 3090 8cb4
000000e0: 7a8f dab5 12ec f3b8 7c4b b9bf 1707 4fb9
000000f0: eca9 8bb9 d996 36c0 334f 6ab1 448b b7bd
00000100: 0aed 053d 5af8 aa3d 936d 3abd 99c6 69b7
00000110: d9be 1bbe a1c3 123d 323e 85be 14ab ecb9
00000120: 7e2c 81bd ee16 cfbd bc68 213e c4aa 633b
00000130: 2161 74bd ea24 d8bc 0788 aabc f721 de3b
00000140: baa1 58be 2652 c73b 249e 3ebe 490d 5abe
00000150: 08ec 083c b676 2dbd abaf dfbe 601d ddbc
00000160: 3864 19bd a29f e4be 8721 063d 7787 27be
00000170: 049d e1bc bdb8 fdbd 26a0 cbbc 52c2 1ebe
00000180: fe0e 00bd cdcb 443c 6b9c 14be 3ba6 f7bc
00000190: b966 fbbd 3b08 b4bd 9dc8 4ebd bd8b bcbc
000001a0: 341d 4fbd 5cdd 61be b53c 25bd 4265 40bd
000001b0: 7903 85bd 4b70 80be e471 c9bd a90c 4a3b
000001c0: d85d a13d 67dd 423a ba56 37bd e523 183e
000001d0: 43fe e7bc 7483 43be be51 3e3d 05ec 123c
000001e0: 1e3d 3bbe 76a3 88be 90c4 c2bd 4847 abbd
000001f0: d296 01be e2fc b3bd 0d51 8fbe af15 a7be
00000200: 1f1a a8be 3220 a6bd e028 e1bd 6bc0 1dbf
00000210: bad2 14bc add3 0abd d18e c5bc 4dfd 4dbd
00000220: 765d 3e3d 4be2 753d 58c1 cfbd 5889 003d
00000230: 8598 58bd b2a4 bcbc 4af7 2b3e a461 953c
00000240: 28d4 26be bfb6 9abe a614 edbd 41fa 9abd
00000250: a555 3dbd 0a59 bd3d 92d0 82bd 674d 85bd
00000260: 114e a6bd 8aa9 9cbe 4908 9fbd 73c3 8abe
00000270: 57a1 2bbe 6169 49be 7ac7 f8bd 51b1 95be
00000280: 18ef 60be ca6b 82be 41cf 4cbe 0cac ccbc
00000290: 767d 173b 77ff b3ba e844 15bc 9245 0dbe
000002a0: 5a63 84bc 5c12 c93b 9384 653d 1c4a 37be
000002b0: e1e1 c4bd 3b25 26be 9dab e7bb a252 91bd
000002c0: 155d 40bd 24ef 13bd 6dd7 e2bb 475e 6a3d
000002d0: e6c0 293e 87c0 1abd b46b 11be e700 65bc
000002e0: 26bf 69be 6cbc d93b 442e 363e 9aeb 25bd
000002f0: a69b 233e f0f2 3fbe e173 bbbd 5323 6abe
00000300: 506a 4d3c acb8 a1be e346 ddbc 2d19 a3ba
00000310: d8ef 66bd 2e4e 0fbe 3a95 c7be f466 8ebe
00000320: 252b c3be 4fe4 7bbe 1e18 04be 7a5a 1abe
00000330: c392 1abe 87a4 2ebd a6b7 953d f8dd 273d
00000340: 09d1 fd3c b9b9 18be 8a7e 613d 2daf 8c3e
00000350: aa8d a83d cad6 11bd 2b85 8ebd c8a2 42bd
00000360: 55ec efb5 5fc7 ac34 9d7a 2db6 ff84 3bb6
00000370: 96bd ed33 2151 5135 1d2c 21b6 4fa6 6734
00000380: 035c dab6 1ad6 b83a 7333 453a 96cd 35c0
00000390: 3d89 72b7 bf2a 70bb a466 eebf ef5b 29ba
000003a0: 15d3 b4ba 8ee7 28c0 518c 0dba 9471 81b9
000003b0: 779b 583a 00c7 5bba 771a aa3e ebed 7a3b
000003c0: c208 3d3b e4d9 e13a f724 843a 52ff 243b
000003d0: c1e4 bf3a 1ffd 573a d32c d6b8 bfe6 4b3a
000003e0: ed02 81b9 5dfc c73a 52c4 cf3a 0967 28ba
000003f0: b120 0a3d e76c c5bc 3ecb e3bd 472b 8f3d

2/Conv.bias f4 [16]
0.105363235 -0.07250339 -0.14606479 -0.028228147 -0.09515973 -0.10350969 -0.0063619423 0.17970105
-0.0024984693 -0.09667206 0.09525134 0.10982945 -0.16340531 0.15632713 -0.052692357 0.13766469
00000000: aec8 d73d a87c 94bd 0292 15be b73e e7bc
00000010: 1be3 c2bd e3fc d3bd d777 d0bb 8d03 383e
00000020: 5cbd 23bb 00fc c5bd 2213 c33d 43ee e03d
00000030: b953 27be 3814 203e f1d3 57bd f9f7 0c3e

4/Conv.weight f4 [16, 16, 4, 4]
-0.0010567788 -2.173937 -0.0005912416 -0.0011255753 0.0027335535 0.00076190406 -2.424479 -0.0021929024
0.13102609 0.002188873 -0.012305608 -0.0057917885 0.008833168 0.0007112502 -0.026516832 -0.43763015
0.096008375 0.18470985 -0.10155855 -0.1009409 0.14439687 0.17386943 0.13262823 0.094798945
-0.22826518 -0.0690167 -0.1489136 0.109285116 -0.21445417 -0.2330521 -0.083938055 -0.09644233
0.01555987 -5.685463e-07 -7.243944e-08 -0.05291347 0.01222176 -0.074141696 0.028518502 -0.005750297
0.0062225885 -0.099232145 -0.11153952 -0.05158268 -0.052189566 -0.07958728 -0.058777466 -0.1630897
-0.00094448135 0.00046188672 0.0005856518 0.0006991978 2.8341456e-05 -0.00036632022 -4.356384e-05 0.0015281055
0.0018640936 -0.0006272399 -0.00033093372 0.001649566 -2.1899655 -0.0020430298 0.0003534159 0.0011587923
-0.19352752 -0.15445171 -0.00096115324 -0.06178857 0.070713885 -0.055325165 0.07753416 0.16080402
-0.09712964 0.027494466 0.00975128 0.028800055 -0.0139295375 -0.032513186 -0.014086347 -0.027694928
-0.11794766 -0.08923806 -0.24949044 -0.22278279 0.0047430997 -0.09126316 -0.056614257 -0.005936517
-0.0024627533 -9.094177e-06 0.005516901 -0.005456287 -0.077116214 -0.11172626 -0.01832652 0.11138041
0.0018679913 0.0027131354 0.001399812 -0.005783392 0.0031477984 0.0009523496 0.00030166988 0.00050029997
0.0014358228 0.0010090413 0.0018451756 0.0005701429 -0.00042364447 0.00082875 -0.0010879128 -0.0015206226
0.0036038845 0.00089312094 -1.0783311 -0.8483431 0.20383693 0.0050210175 0.00012921114 -0.8366866
0.51534384 0.0044466336 0.0014519987 -0.784394 1.4042766e-05 -0.0006333157 -0.0010459446 -1.2446822
0.0037164723 0.0013820092 0.0012776249 -0.0004775852 0.002397348 0.0011073853 0.0012431128 0.0017190226
-0.00038919688 0.0002655375 -0.0009074703 -0.0026982483 -0.00011004347 -0.0025839983 -0.004907384 -0.012829299
-0.13801888 -0.16496913 -0.11105386 -0.19787782 0.04089979 -0.03952008 -0.038353115 -0.18769161
-0.04632604 -0.06984417 -0.049060065 -0.12962756 -0.17820719 0.10166024 -0.10590819 -0.020938896
-0.004012181 -0.0017582218 0.008996579 0.18425913 0.0032751062 -0.00032964317 -0.001985452 0.01737875
-0.000129234 0.0016681093 -0.0004754728 0.0105855465 -0.0001940838 0.0009861869 0.0011278174 0.00094617024
-0.0038671133 -7.92939e-05 -0.006802624 -0.77055746 0.0009184978 0.00023022189 0.0010987768 9.0966394e-05
0.059804518 0.073392585 0.005706435 0.006153181 0.6592838 0.43733406 0.5036644 0.0038695487
-0.034895137 -0.027245514 -0.0075558736 0.13740201 0.12065291 0.080428526 -0.026226368 -0.022982784
0.073320314 0.065140665 0.086657755 0.008314337 0.08493482 0.12460237 -0.08769296 -0.15419331
-0.18683903 -0.0026435817 0.005341874 0.012664359 -0.0027396784 -0.049592678 0.0027125375 0.0052121826
0.0030466984 0.0067151245 0.0013009727 -0.0012823389 0.13597505 0.0034454127 0.004316569 0.0007111121
0.2525732 0.27430305 -0.0021717774 -0.091752484 1.9281693e-05 2.5638776e-05 -3.878977e-05 -0.16381834
-7.196803e-06 2.5680461e-05 -0.00083011977 -0.045938946 -0.0009355511 -1.6748761e-05 -1.6926451e-05 -0.0035217965
-1.2342198 -1.2601942 -1.3000592 -1.0783638 0.0022132043 -0.0017898787 -0.010852271 -1.1304598
0.0022552013 0.0047743917 0.003801222 -0.00010031422 0.015085607 0.08776336 0.005528084 0.0014112284
00000000: 9d83 8aba c921 0bc0 8dfd 1aba 0a88 93ba
00000010: 6b25 333b 84ba 473a aa2a 1bc0 ccb6 0fbb
00000020: b42b 063e 3273 0f3b 769d 49bc 0bc9 bdbb
00000030: feb8 103c 3173 3a3a d439 d9bc 0f11 e0be
00000040: 0aa0 c43d 9424 3d3e eefd cfbd 1aba cebd
00000050: c6dc 133e d40a 323e b2cf 073e f325 c23d
00000060: 59be 69be a158 8dbd cf7c 18be e0d0 df3d
00000070: e099 5bbe 36a5 6ebe b7e7 abbd 8e83 c5bd
00000080: d3ee 7e3c 349e 18b5 0190 9bb3 cbbb 58bd
00000090: c73d 483c 9ad7 97bd a29f e93c fd6c bcbb
000000a0: dbe6 cb3b 393a cbbd d56e e4bd 5c48 53bd
000000b0: bac4 55bd a8fe a2bd a4c0 70bd fc00 27be
000000c0: 1297 77ba 6329 f239 6d86 193a 5f4a 373a
000000d0: d0be ed37 ab0e c0b9 51b8 36b8 b64a c83a
000000e0: 9a54 f43a 5b6d 24ba 2c81 adb9 4036 d83a
000000f0: 6528 0cc0 5ae4 05bb ae4a b939 9ee2 973a
00000100: 142c 46be 9728 1ebe e7f5 7bba 0316 7dbd
00000110: 71d2 903d a49c 62bd 3bca 9e3d cfa9 243e
00000120: e8eb c6bd 133c e13c d5c3 1f3c 18ee eb3c
00000130: b738 64bc 8c2c 05bd 6cca 66bc 79e0 e2bc
00000140: 8b8e f1bd 72c2 b6bd 6c7a 7fbe 2c21 64be
00000150: 016c 9b3b 2ee8 babd 5ae4 67bd 1d87 c2bb
00000160: 2566 21bb 3193 18b7 1fc7 b43b a7ca b2bb
00000170: 1bef 9dbd bdd0 e4bd 8021 96bc 6a1b e43d
00000180: 63d7 f43a dcce 313b e679 b73a 9c82 bdbb
00000190: 4b4b 4e3b 1aa7 793a 7229 9e39 9026 033a
000001a0: 3832 bc3a cf41 843a d2d9 f13a a475 153a
000001b0: 991c deb9 7940 593a 4c98 8eba a14f c7ba
000001c0: 262f 6c3b 5520 6a3a c106 8abf 032d 59bf
000001d0: a1ba 503e 5987 a43b da7c 0739 1831 56bf
000001e0: 93ed 033f 11b5 913b fe50 be3a 0cce 48bf
000001f0: 3999 6b37 1905 26ba 1418 89ba bf51 9fbf
00000200: 0f90 733b 8924 b53a fa75 a73a 6764 fab9
00000210: d31c 1d3b af25 913a f2ef a23a d450 e13a
00000220: 1f0d ccb9 d737 8b39 4de3 6dba 18d5 30bb
00000230: 23c7 e6b8 4c58 29bb 1fce a0bb fb31 52bc
00000240: d254 0dbe abed 28be 3570 e3bd 7ca0 4abe
00000250: 8a86 273d cfdf 21bd 2818 1dbd 3b32 40be
00000260: 60c0 3dbd 760a 8fbd 35f3 48bd 16bd 04be
00000270: f27b 36be 3e33 d03d 65e6 d8bd 0c88 abbc
00000280: 9d78 83bb 2274 e6ba 6366 133c 6dae 3c3e
00000290: 2aa3 563b f5d3 acb9 5b1e 02bb e15d 8e3c
000002a0: fd82 07b9 76a4 da3a e148 f9b9 006f 2d3c
000002b0: f982 4bb9 f142 813a 46d3 933a 6908 783a
000002c0: 656f 7dbb 974a a6b8 8ce8 debb 4143 45bf
000002d0: 58c7 703a b867 7139 d504 903a 36c5 be38
000002e0: 95f5 743d da4e 963d 0cfd ba3b a0a0 c93b
000002f0: d3c6 283f 40ea df3e 26f0 003f 4198 7d3b
00000300: 34ee 0ebd fc31 dfbc 4397 f7bb 1db3 0c3e
00000310: df18 f73d b6b7 a43d aed8 d6bc 6446 bcbc
00000320: f628 963d 7868 853d 9f79 b13d db38 083c
00000330: 4ff2 ad3d 872f ff3d 5e98 b3bd dae4 1dbe
00000340: bb52 3fbe f13f 2dbb e30a af3b 2c7e 4f3c
00000350: 2d8c 33bb b121 4bbd d4c4 313b f5ca aa3b
00000360: 1eab 473b 8c0a dc3b 6685 aa3a 2714 a8ba
00000370: 0b3d 0b3e 6fcc 613b 0172 8d3b ed69 3a3a
00000380: 4651 813e 7371 8c3e 6154 0ebb bae8 bbbd
00000390: 1fbf a137 da12 d737 33b2 22b8 ffbf 27be
000003a0: 117c f1b6 5f6c d737 659c 59ba 7a2a 3cbd
000003b0: c63f 75ba b17f 8cb7 47fd 8db7 f1cd 66bb
000003c0: eafa 9dbf 0b4e a1bf 5768 a6bf d307 8abf
000003d0: 680b 113b 5d9a eaba b9cd 31bc e8b2 90bf
000003e0: 00cc 133b 8072 9c3b ec1d 793b c95f d2b8
000003f0: 9f29 773c 47bd b33d ee24 b53b f8f8 b83a

4/Conv.bias f4 [16]
0.09658919 0.07861526 -0.18930803 -0.0019055544 -0.08903016 0.039331596 -0.10737363 -0.09186775
-0.23482834 -0.208506 -0.13952005 0.17563011 -0.1193597 -0.28386793 0.1962083 -0.002528674
00000000: 8ed0 c53d 0a01 a13d f7d9 41be ccc3 f9ba
00000010: 7255 b6bd 2b1a 213d b5e6 dbbd 2925 bcbd
00000020: d776 70be 9982 55be 58de 0ebe 61d8 333e
00000030: dc72 f4bd 2357 91be d4ea 483e 1cb8 25bb

7/Gemm.weight f4 [128, 784]
-0.13746594 0.024361886 0.05195443 0.868118 0.38099125 -0.14604084 -0.1252396 0.08324055
-0.10441468 0.0574804 0.3651906 1.0116626 1.0198684 0.036040436 0.042112187 0.058531735
0.0101932045 -0.00025687367 0.8414487 2.371739 0.0007576385 -0.14474529 0.7273804 0.17610413
-0.0026745328 0.4065778 0.011708147 0.004886541 -0.047716096 0.5664006 0.38767424 0.10055833
0.018331116 -0.048210483 0.008435206 0.09556037 0.10885341 0.25831816 -0.0047199423 0.000913232
1.1698531 -0.08996225 0.14141765 0.024444439 -0.0025758282 0.0005790565 0.09765553 0.010536797
0.16336755 -0.11338068 -0.07714038 0.027700555 0.31565154 0.09724404 0.00025921068 -0.0828483
-0.060839962 -0.14910756 -0.3092214 -0.0012757436 0.0019471146 0.11957851 0.037129216 -0.034242716
-0.012963928 0.51916254 0.0022888312 0.04911602 0.27320844 -0.021231283 0.0068097566 0.8327351
1.2968154 0.00078107003 0.022314599 -0.021728745 -0.013671506 -0.0006263434 1.7100339 0.07632608
-0.004369663 -0.15278493 -0.0853418 -0.030813713 0.0003906621 0.003413317 0.059258386 -0.00061848963
-0.0064871744 -0.07911797 0.023380168 -0.12013823 0.06616215 0.06587073 -0.032470923 0.061066344
-0.053885587 -0.020665646 -0.12471962 -0.27539033 -0.123987116 -0.101380706 0.17102087 0.19076909
0.072822504 -0.03885456 -0.17237042 0.05208382 -0.10709875 0.10025834 0.051374722 0.010471271
-0.09662625 -0.015962694 -0.18552026 0.0005428032 0.094236456 0.18336535 0.12829699 -0.17268518
0.09644227 0.005764256 -0.027971786 -0.0086198645 -0.03845061 0.13215052 0.010021137 0.058702573
0.09842188 -0.23002528 0.0013274252 0.12084406 0.05332655 -0.07083483 0.13007824 0.057560254
0.032057237 -0.09382425 -0.031016596 0.07426902 -0.13979408 0.012901008 -0.046816714 0.16563654
0.065059975 0.049131278 -0.0057468726 0.06761985 0.06102835 0.6878165 -0.93159664 -0.09192061
0.6883854 0.14775395 0.0038588801 0.010481351 0.000844522 -0.16673346 -0.32081485 -0.06899372
0.014064913 -0.006956524 0.003913793 0.021075092 -0.10724389 0.0019321342 -0.00020651745 0.0033640538
-0.025681414 0.86606455 -0.0012770385 -0.12062605 0.6282786 -0.0007199153 0.008246045 0.10244088
0.008890593 -0.00092908845 -0.20337404 0.28085017 0.25203684 -0.00775435 0.009514892 0.015311273
0.12772773 0.19237047 1.8275771 0.0122197885 0.032177053 0.1750886 0.0016693592 0.0069149854
-0.06352028 -0.010532446 -0.0052430998 0.11663615 -0.026199996 -0.12283538 -0.012008281 0.1390045
0.38194352 -0.009746487 0.0680253 -0.1511247 0.015161333 0.25554523 0.052596435 0.04292165
-0.054327056 -0.13590512 -0.03158609 -0.065599695 -0.017411016 0.0029469503 0.098926365 -0.0049123466
0.078259446 -0.036704347 -0.004021611 -0.13734753 0.017231448 -0.011877811 -0.08719886 -0.1633483
0.10929689 0.050161943 0.022809036 -0.06222149 -0.028661756 0.005647473 0.055652447 -0.05678962
-0.019584846 0.06947782 0.020029401 0.20623267 -0.0046017612 0.17475016 0.025722332 0.16209178
-0.17449535 0.19325523 0.073587745 -0.058254093 -0.019574147 0.019036435 0.011581025 0.6320448
0.36441663 0.37233818 0.008499975 -0.0010224883 -0.1930751 0.007737586 0.49022987 0.62552774
00000000: dfc3 0cbe 9492 c73c 2bce 543d fb3c 5e3f
00000010: 4911 c33e bb8b 15be cf3e 00be 057a aa3d
00000020: 5dd7 d5bd 9170 6b3d 43fa ba3e 297e 813f
00000030: 0c8b 823f 239f 133d d47d 2c3d f9be 6f3d
00000040: 6601 273c 00ad 86b9 2f69 573f 92ca 1740
00000050: 429c 463a 1c38 14be 9a35 3a3f a454 343e
00000060: 3747 2fbb f72a d03e 87d3 3f3c 471f a03b
00000070: f471 43bd a1ff 103f 3d7d c63e 87f1 cd3d
00000080: 232b 963c 5b78 45bd d133 0a3c 28b5 c33d
00000090: 89ee de3d 4742 843e bfa9 9abb f665 6f3a
000000a0: bfbd 953f 213e b8bd cacf 103e b43f c83c
000000b0: 3acf 28bb d3cb 173a 9fff c73d 88a2 2c3c
000000c0: d349 273e 2134 e8bd c7fb 9dbd 46ec e23c
000000d0: 149d a13e e227 c73d abe6 8739 5fac a9bd
000000e0: 5333 79bd a7af 18be 4452 9ebe da36 a7ba
000000f0: 5336 ff3a 94e5 f43d ce14 183d 1742 0cbd
00000100: a866 54bc d6e7 043f 3700 163b e12d 493d
00000110: fae1 8b3e 3aed adbc 6124 df3b 212e 553f
00000120: 0cfe a53f b9c0 4c3a 1bcd b63c 7b00 b2bc
00000130: 74fe 5fbc 3231 24ba 64e2 da3f d950 9c3d
00000140: 642f 8fbb a773 1cbe aec7 aebd 0a6d fcbc
00000150: c8d1 cc39 f5b1 5f3b ecb8 723d 2322 22ba
00000160: 5d92 d4bb 9a08 a2bd c487 bf3c 080b f6bd
00000170: 0580 873d 3ce7 863d 3b00 05bd b420 7a3d
00000180: 22b7 5cbd 004b a9bc 006d ffbd f6ff 8cbe
00000190: f5ec fdbd b0a0 cfbd 1820 2f3e f958 433e
000001a0: f723 953d f625 1fbd df81 30be d855 553d
000001b0: 9756 dbbd 3f54 cd3d 4d6e 523d b28f 2b3c
000001c0: fce3 c5bd 32c4 82bc 06f9 3dbe e84a 0e3a
000001d0: 0bff c03d 20c4 3b3e 4960 033e 62d4 30be
000001e0: 8683 c53d 16e2 bc3b 1625 e5bc 553a 0dbc
000001f0: 637e 1dbd 7752 073e b22f 243c 1c72 703d
00000200: 6991 c93d bf8b 6bbe 00fd ad3a 177d f73d
00000210: f16c 5a3d da11 91bd 3b33 053e 4dc4 6b3d
00000220: 734e 033d ee26 c0bd 8416 febc 5b1a 983d
00000230: 2e26 0fbe c05e 533c e2c2 3fbd a09c 293e
00000240: 2a3e 853d e13d 493d 4350 bcbb 477c 8a3d
00000250: ddf8 793d be14 303f 1e7d 6ebf df40 bcbd
00000260: 073a 303f d04c 173e 44e5 7c3b f9b9 2b3c
00000270: e962 5d3a 2dbc 2abe d841 a4be 944c 8dbd
00000280: 8570 663c 8ef3 e3bb 463f 803b aca5 ac3c
00000290: afa2 dbbd aa3f fd3a 9b8c 58b9 7577 5c3b
000002a0: d461 d2bc 68b6 5d3f 4d62 a7ba ca0a f7bd
000002b0: ded6 203f b3b8 3cba 6b1a 073c 86cc d13d
000002c0: daa9 113c 128e 73ba 4941 50be 98cb 8f3e
000002d0: f90a 813e 3418 febb 59e4 1b3c 22dc 7a3c
000002e0: 0fcb 023e c4fc 443e 0cee e93f 8235 483c
000002f0: 16cc 033d 6d4a 333e 66ce da3a 1a97 e23b
00000300: ec16 82bd 4890 2cbc 4fce abbb efde ee3d
00000310: 60a1 d6bc 1e91 fbbd 62be 44bc 3257 0e3e
00000320: 1a8e c33e bbaf 1fbc d950 8b3d 6fc0 1abe
00000330: 3d67 783c d3d6 823e 5c6f 573d 9dce 2f3d
00000340: 0c86 5ebd b62a 0bbe 6a60 01bd 2259 86bd
00000350: 8ca1 8ebc 9f21 413b e899 ca3d c0f7 a0bb
00000360: 7d46 a03d 4c57 16bd b8c7 83bb d5a4 0cbe
00000370: f728 8d3c 269b 42bc 5195 b2bd c744 27be
00000380: 0cd7 df3d 9c76 4d3d 04da ba3c f6db 7ebd
00000390: 0fcc eabc 700e b93b d2f3 633d 3c9c 68bd
000003a0: 6670 a0bc 634a 8e3d b314 a43c a82e 533e
000003b0: 5fca 96bb b5f1 323e a4b7 d23c 63fb 253e
000003c0: e9ae 32be b3e4 453e 2cb5 963d d89b 6ebd
000003d0: f659 a0bc 4cf2 9b3c 57be 3d3c b0cd 213f
000003e0: d194 ba3e 1ca3 be3e 7b43 0b3c 0405 86ba
000003f0: 7bb5 45be 938b fd3b 69ff fa3e 9622 203f

7/Gemm.bias f4 [128]
0.045274522 -0.0149422465 -0.0010059249 0.00060192903 0.012734425 -0.00021194106 -0.19528754 -0.03095616
-0.20354189 0.28097633 -0.007955323 0.04920073 0.18279529 -0.25958318 0.20217392 0.19023319
0.0014007351 -0.005423893 -0.008821091 -0.05381116 0.25529265 0.29040575 -0.020499738 -0.0002963019
-0.19935006 -0.082158655 -0.036708057 0.044315524 0.048572853 0.023105742 -0.00049218035 0.0504414
0.18282498 0.13727875 0.043393638 0.1774591 -0.004161773 -0.24060237 -0.0031675517 -0.2523192
0.2560256 0.045047466 0.20915747 0.0048362017 0.00045244873 -0.28572688 -0.1274175 0.037124794
-0.0039191726 -0.078326285 0.05746161 -0.030524155 0.17495956 0.0008033448 0.1305976 0.20814283
0.120489486 -0.0052835327 -0.22399774 0.25530332 0.008537307 -0.0013692793 -0.23710641 -0.004248347
-0.0015855308 0.2476454 0.08388551 -0.22595242 -0.03127691 0.08555066 0.24721934 -0.00038204493
0.26282546 -0.048270334 0.20081656 -0.1869215 -0.18499048 0.0017204488 0.2511298 0.17997482
-0.07340122 0.033142842 0.34722197 -0.16408087 0.278601 0.0028479127 -0.15497126 0.16271691
0.047489353 0.14788617 -0.029772252 0.003619587 -0.17858724 -0.077269346 0.17327355 0.057233907
-0.25618288 -0.015713094 -0.0075978437 0.20915034 -0.022364434 0.20376343 -0.00024421833 -0.013068648
-0.20965403 -0.13120967 0.15462063 -0.058952592 0.20249341 0.20206726 -0.20514537 -0.042938944
-0.004706575 0.21000333 -0.005048406 -0.0228097 -0.17406216 0.20516728 0.023806889 -0.046385713
-0.21098779 -0.010289033 0.009192253 0.0031039254 -9.8011136e-05 0.13500288 -0.00580218 -0.22688094
00000000: c771 393d 53d0 74bc 3dd9 83ba c6ca 1d3a
00000010: 0da4 503c 7f3c 5eb9 75f9 47be c697 fdbc
00000020: 496d 50be 21dc 8f3e 0b57 02bc b486 493d
00000030: b02e 3b3e 16e8 84be ae06 4f3e 7dcc 423e
00000040: df98 b73a eaba b1bb 5686 10bc 1769 5cbd
00000050: b8b5 823e 10b0 943e 11ef a7bc f858 9bb9
00000060: 6c22 4cbe cc42 a8bd 305b 16bd 3284 353d
00000070: 54f4 463d 4148 bd3c aa05 01ba a49b 4e3d
00000080: 7936 3b3e cd92 0c3e 87bd 313d d7b7 353e
00000090: 7b5f 88bb 7860 76be b396 4fbb fb2f 81be
000000a0: ca15 833e b183 383d 602d 563e 0079 9e3b
000000b0: a436 ed39 cb4a 92be bc79 02be 2b10 183d
000000c0: 676c 80bb 8869 a0bd dd5c 6b3d cb0d fabc
000000d0: 9928 333e 8f97 523a 61bb 053e 6523 553e
000000e0: 31c3 f63d 7c21 adbb aa5f 65be 1eb7 823e
000000f0: 10e0 0b3c 6479 b3ba 06cc 72be b835 8bbb
00000100: 96d1 cfba c196 7d3e 2bcc ab3d 1260 67be
00000110: 381c 00bd 2f35 af3d 1127 7d3e 344d c8b9
00000120: 0f91 863e 1db7 45bd dba2 4d3e 5a68 3fbe
00000130: 256e 3dbe af80 e13a 1694 803e 524b 383e
00000140: 6153 96bd cac0 073d 14c7 b13e d104 28be
00000150: caa4 8e3e 0ca4 3a3b c9b0 1ebe 439f 263e
00000160: 3284 423d 796f 173e f0e4 f3bc 9836 6d3b
00000170: 93df 36be 643f 9ebd 9f6e 313e 1a6e 6a3d
00000180: 672a 83be bfb8 80bc 55f7 f8bb 822b 563e
00000190: 9e35 b7bc 5ca7 503e 6e0a 80b9 e21d 56bc
000001a0: 8caf 56be d45b 06be df54 1e3e 4678 71bd
000001b0: 6f5a 4f3e b8ea 4e3e a111 52be bfe0 2fbd
000001c0: 9d39 9abb 1d0b 573e 196d a5bb 68db babc
000001d0: 5a3d 32be 5f17 523e aa06 c33c f2fe 3dbd
000001e0: 2f0d 58be 5593 28bc 1b9b 163c 3a6b 4b3b
000001f0: 548b cdb8 323e 0a3e 3720 bebb 7a53 68be

8/Gemm.weight f4 [10, 128]
-0.002483664 -0.0040748515 9.282616e-05 -0.0002744441 -0.009420997 0.0007299085 -0.002492563 -0.0028114563
-0.002086128 -0.0026146711 -0.0029795996 -0.0031300948 0.0014812854 -0.0009194512 0.0035008127 -0.0029852528
0.000107002335 0.0022126434 0.002845267 0.0015348333 0.00035488178 -1.0994265 0.0031278422 0.00034534206
0.8959114 0.001540731 -0.002650353 0.003515899 0.0034960369 -0.0034699594 8.232331e-06 0.00014323453
-0.0028623918 0.0022373735 -0.0011902767 0.0025986428 -0.0018169263 1.2400249 0.00093321427 -0.00032478897
0.0014572566 0.0030732087 0.0016458124 0.0018667687 -8.279101e-05 -0.00061087485 -0.0031899891 0.0029266498
0.002929268 -0.0013116334 0.0011790785 -0.0019044462 -0.0025129167 -0.0011041549 0.0050085434 -1.4498434
0.0017950868 -0.0030242084 -0.002062951 -1.9457197 0.0030273115 1.3861685e-05 0.0033552756 -0.0019026491
-4.116869e-05 -1.4679159 0.0025614 -0.003797392 0.0029478825 0.0010512334 0.0009127983 -0.00015856238
0.003355715 -0.0021585603 -0.0031605507 -0.0028912362 0.5089006 0.00018696795 0.00089660817 0.0036048742
-0.0020287056 0.0007397668 0.0009865355 -0.0028829495 0.003123401 -0.0018828964 -0.0041970704 0.0025101032
-0.0026888675 0.0020714898 -0.0029976268 0.00084887707 -0.0033747735 0.002762947 0.0019820197 0.001100083
0.003420782 0.002797922 0.002496901 -1.5716122 0.0024659133 0.0013109992 -0.00036818287 0.0030817622
-0.0038519583 -0.003975471 0.0036177451 -0.0022595474 -0.0028953808 -0.02289454 0.002741956 0.0016860071
0.0019624543 0.0015433154 -0.0031382393 0.0029067276 -0.0029698662 -1.859854e-05 -0.002116402 0.002837004
-0.00014998365 -0.0025391497 0.0032735546 0.000247316 -0.00022454243 0.0038471112 0.002807357 0.0003092258
-1.925923 -0.68232554 1.1586892e-06 0.00039641594 -0.006528589 0.00023254585 0.0006819711 0.00046198504
0.0018425771 -0.0017206172 -0.0007844603 -0.0027160156 3.8781207e-05 0.0011014594 -0.0015834299 -0.0013836677
0.00036307197 0.002014619 0.023187662 0.00074963836 0.00082302897 -0.0009374848 1.1604089 0.00017640358
0.0010426483 -0.0015303087 0.0005281657 0.00034374665 -0.0004756822 -0.6248841 0.00041286004 0.000307017
-0.0025696044 -0.0015158989 -0.0008368033 -0.0013568403 -0.0062867496 0.00064604677 -0.0006694956 0.00012709404
-0.0005591476 -0.00023808889 -0.00082146947 -0.0011656292 2.6014191e-05 -0.0004065633 -0.0008944746 1.3571017
0.001540898 -0.0015451269 0.0019569108 -0.0019996965 -0.0019162864 0.005148461 0.0009587313 -0.0008283763
-0.0024071066 0.0005650217 0.0018871296 -0.0009997039 0.53201944 2.6514255e-07 0.001923616 -0.00094739866
-9.485771e-05 -0.0009312869 0.0004939521 -0.0006392832 0.110985085 0.00035655583 0.0016181876 0.0024664113
0.0005120112 -0.00031524498 -0.0024300695 -0.0047797835 0.0006598373 -0.0006293 0.0017156178 0.0003767753
-0.0014906443 0.00087875297 -0.000739065 0.0014103092 0.0015886225 0.0019268118 -0.00055321824 0.0012219752
-1.0124816 -0.002107151 -0.0031914643 0.0017915397 -0.0004341648 0.0007704736 -0.0011879678 0.0007556746
0.0025856537 0.00363513 0.0010222552 -0.00039957472 0.0041568875 -0.0011068237 0.00095315714 0.0029067595
-0.00057464244 -0.000585823 5.705053e-05 -0.0022069768 -0.0019092441 -0.0011036481 0.0017868907 0.0011010177
-0.00089767214 -0.0019620927 -1.1077738 -0.0009918249 0.0011913726 9.545349e-05 -0.0018951582 1.2492691
-0.00012233395 -0.0019675363 1.7215202 0.0004920375 0.00021567212 0.00032696498 0.0011061971 -0.0007275304
00000000: f8c4 22bb 5586 85bb aaab c238 43e3 8fb9
00000010: 875a 1abc 5557 3f3a 455a 23bb 6940 38bb
00000020: 6cb7 08bb e75a 2bbb 6345 43bb 4722 4dbb
00000030: b127 c23a 5307 71ba e46d 653b 3ba4 43bb
00000040: 7166 e038 ff01 113b a977 3a3b 762c c93a
00000050: 6d0f ba39 02ba 8cbf 7cfc 4c3b 070f b539
00000060: 735a 653f 5bf2 c93a 8bb1 2dbb ff6a 663b
00000070: c41d 653b 4268 63bb 981d 0a37 3a31 1639
00000080: f796 3bbb e6a0 123b 0f03 9cba fe4d 2a3b
00000090: ee25 eeba 23b9 9e3f f3a2 743a 7048 aab9
000000a0: 6b01 bf3a e367 493b 4db8 d73a 5dae f43a
000000b0: 16a0 adb8 1e23 20ba 230f 51bb 09cd 3f3b
000000c0: f6f8 3f3b 1deb abba 4f8b 9a3a 9c9e f9ba
000000d0: bfaf 24bb 4ab9 90ba b51e a43b 7894 b9bf
000000e0: 1e49 eb3a cc31 46bb 9332 07bb 580d f9bf
000000f0: dc65 463b 7c8f 6837 2fe4 5b3b 4f62 f9ba
00000100: 8bac 2cb8 abe4 bbbf 29dd 273b aadd 78bb
00000110: 4331 413b 8ac9 893a db48 6f3a c443 26b9
00000120: 8eeb 5b3b a276 0dbb 3e21 4fbb e57a 3dbb
00000130: 4f47 023f d40c 4439 5b0a 6b3a c13f 6c3b
00000140: 08f4 04bb e9ec 413a a34e 813a deef 3cbb
00000150: f9b1 4c3b 85cb f6ba 9487 89bb 8b80 243b
00000160: b637 30bb d5c1 073b d573 44bb 2d87 5e3a
00000170: 4e2b 5dbb 8f12 353b c6e4 013b a930 903a
00000180: 332f 603b 575d 373b 0ca3 233b 972a c9bf
00000190: 299b 213b d5d5 ab3a ab08 c1b9 64f7 493b
000001a0: 2371 7cbb ab44 82bb b117 6d3b ea14 14bb
000001b0: 6ec0 3dbb 558d bbbc 63b2 333b 03fd dc3a
000001c0: 859c 003b 1249 ca3a ebaa 4dbb cc7e 3e3b
000001d0: 16a2 42bb 0f04 9cb7 55b3 0abb 07ed 393b
000001e0: ee44 1db9 dd67 26bb 2289 563b 31aa 8139
000001f0: 2673 6bb9 d11f 7c3b a3fb 373b 961f a239
00000200: a584 f6bf e3ac 2ebf 4284 9b35 0cd6 cf39
00000210: c6ed d5bb 8dd7 7339 4ec6 323a 9536 f239
00000220: a182 f13a 5586 e1ba 3da4 4dba 2eff 31bb
00000230: 01a9 2238 d85e 903a 178b cfba 2f5c b5ba
00000240: b25a be39 b307 043b 0df4 bd3c 6183 443a
00000250: 8ac0 573a 8ac1 75ba 4788 943f faf8 3839
00000260: 79a9 883a a494 c8ba 9a74 0a3a e538 b439
00000270: fc64 f9b9 68f8 1fbf 2375 d839 20f7 a039
00000280: cf66 28bb 20b1 c6ba eb5c 5bba 01d8 b1ba
00000290: 1401 cebb 775b 293a 1781 2fba 8c44 0539
000002a0: c393 12ba 80a7 79b9 e257 57ba 07c8 98ba
000002b0: 0d39 da37 0128 d5b9 2d7b 6aba 82b5 ad3f
000002c0: f5f7 c93a db85 caba 843f 003b 570d 03bb
000002d0: e72b fbba 6cb4 a83b 5e53 7b3a 6427 59ba
000002e0: 8cc0 1dbb f71d 143a 9059 f73a 7f08 83ba
000002f0: 6d32 083f ea58 8e34 d821 fc3a d95a 78ba
00000300: 58ee c6b8 9b21 74ba 907c 013a 9295 27ba
00000310: 264c e33d 1df0 ba39 5e19 d43a 84a3 213b
00000320: 7d38 063a 7747 a5b9 cd41 1fbb bb9f 9cbb
00000330: eef8 2c3a 9cf7 24ba 95de e03a ed89 c539
00000340: b961 c3ba 1d5c 663a d0bd 41ba 20da b83a
00000350: 5339 d03a 138d fc3a d905 11ba af2a a03a
00000360: ff98 81bf 2118 0abb e327 51bb 19d2 ea3a
00000370: 9da0 e3b9 9cf9 493a 96b5 9bba 7718 463a
00000380: 1274 293b 5c3b 6e3b 31fd 853a 037e d1b9
00000390: 8036 883b d712 91ba 4bdd 793a 557f 3e3b
000003a0: 9aa3 16ba eb91 19ba 8a49 6f38 eda2 10bb
000003b0: 9a3f faba 49a8 90ba 1a36 ea3a 0650 903a
000003c0: c251 6bba 7496 00bb 88cb 8dbf 1f00 82ba
000003d0: d527 9c3a 342e c838 f566 f8ba 0de8 9f3f
000003e0: c546 00b9 c8f1 00bb c65a dc3f 14fc 003a
000003f0: 0b26 6239 7f6c ab39 d1fd 903a bdb7 3eba

8/Gemm.bias f4 [10]
-0.33167362 -0.06072114 0.023269886 0.15966067 -0.01944673 0.19314648 -0.083223775 0.16605997
-0.15393221 -0.010525147
00000000: 20d1 a9be bbb6 78bd 7da0 be3c 167e 233e
00000010: c04e 9fbc 31c8 453e 3a71 aabd a00b 2a3e
00000020: 68a0 1dbe ab71 2cbc
