project_networks/ensemble_models/mnist_cnn_3layer_k5_w1_ensemble1.onnx (onnx, 85851 bytes, 10 tensors)

0/Conv.weight f4 [4, 1, 5, 5]
0	0xbbb80d30	-0.0056168064
1	0xbb9dd4fa	-0.0048166486
2	0xbbafc4a6	-0.0053640185
3	0xbba281a0	-0.0049593
4	0xbbbc708e	-0.0057507223
5	0xbb9f4915	-0.004861007
6	0xbbc8c13a	-0.00612655
7	0xbb96c170	-0.0046006963
8	0xbbc6c8e6	-0.0060664294
9	0xbc0956ab	-0.00838248
10	0xbb83209c	-0.00400169
11	0xbbdecef5	-0.0067995735
12	0xbbeb4a15	-0.007180462
13	0xbc4f9ba8	-0.012671389
14	0xbc62bbb1	-0.013838694
15	0xbdd4f0d8	-0.103975
16	0xbcabefcf	-0.020988373
17	0xbc44446e	-0.0119792055
18	0x3de4cc18	0.1117174
19	0xbc627091	-0.013820783
20	0xbc9c964c	-0.019114636
21	0xbc2e69e1	-0.010645361
22	0xbc44c7c2	-0.012010517
23	0xbc79a96c	-0.015238147
24	0xbc0371b1	-0.008022712
25	0xb9d48a5f	-0.00040538886
26	0x3606e4c2	2.010071e-06
27	0xb980ae85	-0.0002454409
28	0xb97b23a0	-0.00023950497
29	0x3f2f4cab	0.6847636
30	0xb6ceab18	-6.1591963e-06
31	0xb9b1866c	-0.00033860223
32	0xb94e4fa3	-0.00019675358
33	0x383554aa	4.3232612e-05
34	0xb93163c9	-0.00016917208
35	0x3982c843	0.0002494474
36	0x37931bc2	1.7536691e-05
37	0xb9e32638	-0.0004332529
38	0xb92df90f	-0.00016591347
39	0xb9c16671	-0.00036888153
40	0x36c57c11	5.8855007e-06
41	0xb9baefd7	-0.0003565538
42	0xba00af54	-0.00049089384
43	0xba471ea0	-0.0007595811
44	0xb88ac954	-6.617853e-05
45	0xb986c275	-0.00025703353
46	0xb9e12520	-0.00042943005
47	0xba1d3d19	-0.0005998179
48	0xb8358b56	-4.328353e-05
49	0xb9341052	-0.00017172217
50	0xb942e259	-0.00018585603
51	0xb902deed	-0.00012480812
52	0x39468979	0.00018933964
53	0x3a031f64	0.0005001931
54	0x398bc356	0.00026657683
55	0x38af5557	8.360546e-05
56	0xb7fdab15	-3.0239617e-05
57	0x3943aed5	0.00018661779
58	0x39cfaebb	0.000396123
59	0x39965a75	0.00028677625
60	0xb9569aa9	-0.00020466246
61	0xb9638496	-0.00021697799
62	0x38b58092	8.654701e-05
63	0xb8d18303	-9.9902994e-05
64	0x3a3601b4	0.0006943003
65	0xb9ecd5a0	-0.0004517259
66	0x388590ac	6.3688814e-05
67	0x39431bab	0.00018606956
68	0x3abf59be	0.0014598889
69	0x3a8ab786	0.0010583259
70	0xb8196844	-3.6575148e-05
71	0x3a0c7ef8	0.0005359496
72	0xb9379cd0	-0.00017510657
73	0x3ffa5356	1.9556682
74	0x39ee5dc5	0.0004546476
75	0xbcc433df	-0.023950515
76	0xbca57e73	-0.020201897
77	0xbc959909	-0.01826145
78	0xbc590e7d	-0.013248083
79	0xbc06bddc	-0.008223977
80	0xbcc98305	-0.024598608
81	0xbca51de9	-0.020155864
82	0xbcc58d38	-0.02411519
83	0xbcb1cca4	-0.021704026
84	0xbc2a5c9d	-0.010398057
85	0xbca2200a	-0.019790668
86	0xbca06035	-0.019577125
87	0xbd077951	-0.03307468
88	0x3e97e531	0.29667047
89	0xbcf64034	-0.030059911
90	0xbc53635e	-0.012902109
91	0xbc802fc1	-0.01564777
92	0xbd07ea89	-0.033182655
93	0xbcf82481	-0.030290844
94	0xbc8b8301	-0.017030241
95	0xbb887378	-0.0041641556
96	0xbe73a481	-0.23793222
97	0xbccc7157	-0.024956388
98	0xbca55f15	-0.02018694
99	0xbc410ee2	-0.0117833335

0/Conv.bias f4 [4]
0	0xbde532df	-0.111913435
1	0xbe6d60d8	-0.23181474
2	0xbf221d4b	-0.6332595
3	0xbe9ce0a0	-0.30640125

2/Conv.weight f4 [8, 4, 5, 5]
0	0x38bcfcd9	9.011635e-05
1	0xb81ee5b6	-3.788407e-05
2	0x3b21e23c	0.0024701497
3	0xb7d776c9	-2.568531e-05
4	0xb7ab4da8	-2.042095e-05
5	0x3919cdb8	0.00014667853
6	0xb84da115	-4.9025828e-05
7	0xba5b5200	-0.0008366406
8	0x39ec3272	0.00045051012
9	0x3767a253	1.3806467e-05
10	0x3ac73e69	0.0015201095
11	0x3a1268d5	0.0005585079
12	0xb95231d7	-0.00020045727
13	0x39d0eec0	0.00039850734
14	0xb85e367d	-5.297967e-05
15	0x378a68f1	1.649975e-05
16	0x399c28f0	0.0002978514
17	0x3add641e	0.0016890799
18	0x39ad9ee1	0.00033115505
19	0x38499b3a	4.80667e-05
20	0xb8c3bf1e	-9.333923e-05
21	0x37746c0b	1.4568689e-05
22	0x315cb282	3.2115683e-09
23	0x3928fea4	0.0001611659
24	0x38168e38	3.589524e-05
25	0xbb100885	-0.0021977734
26	0xba76b83c	-0.00094116083
27	0xba6c6ccb	-0.0009018897
28	0xb8b5ae97	-8.6632725e-05
29	0xb9291a2f	-0.0001612685
30	0xbe2477da	-0.16061345
31	0xbb25ab88	-0.0025279243
32	0xbaca11e2	-0.0015416706
33	0xba18765b	-0.0005815976
34	0xb984741c	-0.0002526351
35	0xbe1fc94f	-0.15604137
36	0xbda2ef14	-0.07955757
37	0xb7deca92	-2.6558791e-05
38	0xb9fa092a	-0.00047690544
39	0x3908d888	0.00013050635
40	0xbe1d9d2f	-0.15391992
41	0xbca89de9	-0.02058311
42	0xbe016896	-0.12637553
43	0xbabaa528	-0.0014239894
44	0xb9544643	-0.0002024407
45	0xbd145fbd	-0.036224116
46	0x39c79c38	0.0003807263
47	0xbc3cd80c	-0.011526119
48	0xba115f4d	-0.0005545512
49	0xba7f3122	-0.00097347994
50	0xb9bb472b	-0.00035720444
51	0xbd336ccf	-0.04380494
52	0x399c5800	0.00029820204
53	0xbd0dbe68	-0.034605414
54	0xb990ab7d	-0.0002759359
55	0xb53f206d	-7.120023e-07
56	0x381dc1e9	3.761231e-05
57	0x3a6098a2	0.0008567666
58	0xbd234512	-0.039860792
59	0xba6f92ed	-0.000913902
60	0x3886cda9	6.427925e-05
61	0x3a614909	0.0008593952
62	0x37f60127	2.9326022e-05
63	0xba81981d	-0.0009887252
64	0xba7a1c66	-0.0009540975
65	0x399ce28e	0.00029923435
66	0x39fe503b	0.00048506432
67	0x3b938ae8	0.004502643
68	0x3a30bedb	0.0006742307
69	0xba25f246	-0.0006330352
70	0x3bae6694	0.005322287
71	0x3f930bd4	1.1487985
72	0x3f5bace4	0.85810685
73	0x3b35b246	0.0027724667
74	0x3aa25bfd	0.0012387034
75	0xb78f17ab	-1.705795e-05
76	0xba86d2aa	-0.0010286171
77	0xb9c98f1e	-0.00038444338
78	0x39cc0ca7	0.0003891934
79	0x38ae40d8	8.309045e-05
80	0x3773a799	1.4522951e-05
81	0xb91faa86	-0.00015226947
82	0x3a69e36c	0.0008922133
83	0xb8927055	-6.982746e-05
84	0x38813bbd	6.1623265e-05
85	0xb3b067f0	-8.214545e-08
86	0xb90b4c56	-0.0001328451
87	0xb80f8bb0	-3.422395e-05
88	0x3823d01e	3.9056053e-05
89	0x36ebd71b	7.0285873e-06
90	0x39eb196a	0.00044841628
91	0x3a8d5c21	0.0010784903
92	0xb578f2ef	-9.2740714e-07
93	0x3a6c8477	0.00090224243
94	0x38fd7cde	0.000120872384
95	0xb844a5a3	-4.6884303e-05
96	0x38a28f91	7.751503e-05
97	0x39cf08bf	0.00039488633
98	0x39323e1a	0.00016998537
99	0xb79e66ea	-1.888299e-05
100	0xb6e3cdf0	-6.7891015e-06
101	0xb49fae73	-2.9742986e-07
102	0xb5b3831b	-1.3374696e-06
103	0xb67858c9	-3.700656e-06
104	0xb8480339	-4.7686717e-05
105	0xb517b51f	-5.651545e-07
106	0xb35bfab8	-5.121794e-08
107	0x383d22af	4.5093413e-05
108	0xb7c3d5a3	-2.3345294e-05
109	0xb943e537	-0.00018682038
110	0x3a114b33	0.00055425166
111	0xb719df94	-9.1715665e-06
112	0xb8176043	-3.6090856e-05
113	0x37af1db9	2.0875466e-05
114	0x37b1c9a5	2.1193942e-05
115	0xb6834e22	-3.9132e-06
116	0xb6d2b503	-6.2795602e-06
117	0x37a40830	1.9554136e-05
118	0x393f2899	0.00018230303
119	0xb78f217e	-1.7062524e-05
120	0xb810e74a	-3.454768e-05
121	0xb966db9d	-0.00022016322
122	0xb818f950	-3.6471814e-05
123	0x38e65603	0.000109832756
124	0xb74711bc	-1.1865453e-05
125	0xbc2d29d4	-0.010569055
126	0xbbee8f2a	-0.00728025
127	0x3914022b	0.00014115188
128	0xba33008e	-0.0006828391
129	0xbab5f562	-0.0013882334
130	0xbaff591f	-0.0019481516
131	0xbbe49793	-0.006976077
132	0xbb9236b2	-0.0044620866
133	0x3a585b35	0.0008253337
134	0xb9adb65c	-0.00033133
135	0xb9472633	-0.00018992349
136	0xb9f21dcc	-0.00046180037
137	0x392bed17	0.00016396154
138	0xba878993	-0.0010340683
139	0xb9cd8856	-0.00039202225
140	0x3a40e7cd	0.000735876
141	0x3a0b9570	0.0005324697
142	0xb86cfde3	-5.6503235e-05
143	0x3a7a1d49	0.0009541107
144	0x39faede4	0.00047860958
145	0xba77f662	-0.0009459016
146	0x39edec22	0.00045380095
147	0xba37b79e	-0.0007008257
148	0x3b38f908	0.0028224606
149	0xba67f04b	-0.0008847757
150	0x3a590424	0.000827851
151	0xba370907	-0.0006982241
152	0x3a0fc5c5	0.0005484487
153	0xba00671c	-0.0004898177
154	0x3b30d773	0.0026983886
155	0x3a8417d1	0.0010077899
156	0x3ab12d71	0.0013517571
157	0xb7dc0d49	-2.623223e-05
158	0x3e83e86c	0.2576326
159	0x3dd722cb	0.10504683
160	0xbbcff7fa	-0.0063467
161	0x385f0ba2	5.3178177e-05
162	0x3e002df1	0.12517525
163	0x3e26bf11	0.16283824
164	0x3a597187	0.000829481
165	0xc00a9f22	-2.1659627
166	0xbaf1fee2	-0.0018462802
167	0x3b35f685	0.0027765345
168	0x39142fa3	0.00014132126
169	0xb93de38f	-0.00018109217
170	0xc008d180	-2.1377869
171	0xc05c7336	-3.444532
172	0xc06807fb	-3.625487
173	0xc06ca816	-3.6977592
174	0xc09e7abb	-4.9524817
175	0x395b0985	0.00020889014
176	0xb5780a2d	-9.2402007e-07
177	0x3856d56d	5.1220344e-05
178	0xb689b063	-4.1034523e-06
179	0xb79027d4	-1.7184684e-05
180	0xb81c259f	-3.7228336e-05
181	0xb6c562cd	-5.8825594e-06
182	0x38767cf9	5.876736e-05
183	0xb881b93c	-6.185702e-05
184	0xb89a96db	-7.371391e-05
185	0xb78d72ed	-1.6862026e-05
186	0xb9299ae7	-0.00016174802
187	0xba68793f	-0.0008868165
188	0xb6929bc1	-4.369271e-06
189	0xba14908c	-0.0005667291
190	0xb2de6140	-2.5888426e-08
191	0xb7688734	-1.3859757e-05
192	0xb8ac6fba	-8.22241e-05
193	0x39db8a52	0.00041873992
194	0x38bae409	8.911646e-05
195	0xb16e25bb	-3.4655006e-09
196	0xb704a77d	-7.9068095e-06
197	0x399a9dc9	0.00029490728
198	0xb837c9e0	-4.381861e-05
199	0xb744a507	-1.1720934e-05
200	0x36c2ae49	5.80194e-06
201	0xb5d09fce	-1.5543717e-06
202	0xb73d1cb2	-1.1271959e-05
203	0xb4a45e70	-3.0616093e-07
204	0xbf3a3046	-0.7272991
205	0xb8bd2e11	-9.020803e-05
206	0xb5fe33da	-1.8939566e-06
207	0xb450f9b9	-1.9462358e-07
208	0xb7d1a646	-2.4992169e-05
209	0xbf6bef3f	-0.92161936
210	0x3e110af7	0.14164339
211	0xb6a5412b	-4.9249697e-06
212	0xb5f3b084	-1.8156284e-06
213	0xbf30670e	-0.6890725
214	0xbf2491ff	-0.6428527
215	0xb5a1e10a	-1.206093e-06
216	0xb4814d0e	-2.4084187e-07
217	0xb969dc3d	-0.00022302657
218	0xbf7283c9	-0.9473234
219	0xbe0e7f9c	-0.13915867
220	0xb6c6078b	-5.901738e-06
221	0xb5f7ff8e	-1.847731e-06
222	0xb6372180	-2.7288625e-06
223	0xb4b3294c	-3.3371396e-07
224	0x37af8bd3	2.0926736e-05
225	0xb91b916f	-0.0001483613
226	0xba1681b2	-0.0005741372
227	0xb76c6379	-1.4089856e-05
228	0xb99bc79f	-0.00029712633
229	0xbaa700c6	-0.0012741319
230	0xb8d001dd	-9.91856e-05
231	0x3976c48a	0.00023533605
232	0x3a4eb19c	0.0007884742
233	0xba82ce46	-0.0009979687
234	0xbb08da5b	-0.0020882103
235	0x38943a06	7.067998e-05
236	0xb98e4208	-0.00027133548
237	0x3a55466b	0.0008135798
238	0xbac92e51	-0.0015348886
239	0xbaa42fa4	-0.0012526405
240	0x3a4e6925	0.0007873944
241	0x3a3734a5	0.00069887406
242	0xb80cccd2	-3.3569355e-05
243	0xba7ed6ac	-0.00097213197
244	0xb9b3d3ed	-0.00034299438
245	0x390a894d	0.00013211854
246	0x3a9d900d	0.001202108
247	0x399620ee	0.00028634764
248	0xbf79fc52	-0.97650635
249	0xc058f539	-3.3899672
250	0xb83daaa7	-4.5220044e-05
251	0x39a14c45	0.00030765138
252	0x3a376aac	0.00069967913
253	0x39c7de66	0.00038121938
254	0xbf41ee59	-0.75754315
255	0x3f5d2380	0.86382294

2/Conv.bias f4 [8]
0	0x3cc7557d	0.024332756
1	0xbc0562a8	-0.008141197
2	0xbc2408cf	-0.010011866
3	0xbb4020d8	-0.0029316451
4	0xbb2a7200	-0.002600789
5	0xbbfed0ba	-0.007776347
6	0xbc53b47d	-0.01292145
7	0x3e58b0f9	0.2116126

4/Conv.weight f4 [8, 8, 4, 4]
0	0xb96b25ab	-0.00022425379
1	0xba741de0	-0.0009312313
2	0x3975d3d0	0.00023443927
3	0xba41027e	-0.0007362737
4	0xb9880fbf	-0.00025951673
5	0x3932a49c	0.00017036725
6	0x397265e2	0.00023116873
7	0x3984d2d2	0.00025334075
8	0xb8389bf9	-4.401428e-05
9	0xb98e5457	-0.0002714719
10	0x39175427	0.00014431831
11	0xb8920ad1	-6.963837e-05
12	0x365c67d9	3.2843002e-06
13	0xb9aef0f5	-0.00033367393
14	0x398eb788	0.00027221092
15	0x38bfb8fa	9.142044e-05
16	0xbf3e8cdd	-0.7443369
17	0xbd007158	-0.031358093
18	0xbffc984e	-1.973398
19	0xc0e8d72d	-7.2762666
20	0xbbb7cf83	-0.005609454
21	0xbc3e079e	-0.011598496
22	0xc05de9e5	-3.4674008
23	0xc0ca4695	-6.321116
24	0xbf98daac	-1.1941733
25	0xbeea861f	-0.4580545
26	0xbf1cc9fa	-0.6124569
27	0xc0b2b750	-5.584877
28	0xbac778fc	-0.0015218551
29	0xbe07d033	-0.13263015
30	0xbd67c825	-0.056587357
31	0xc0ad22ec	-5.410513
32	0xb8ef0a56	-0.00011398333
33	0xba78955d	-0.0009482706
34	0xb9af4a3c	-0.0003343391
35	0x39c48b90	0.00037488015
36	0xb980aed7	-0.00024544328
37	0x38d8a633	0.000103306396
38	0xb94eec88	-0.00019733806
39	0xb89a39d6	-7.354065e-05
40	0xb9583798	-0.00020620076
41	0x373e086a	1.1326842e-05
42	0xb72b8c9e	-1.0225134e-05
43	0x3924dac6	0.00015721758
44	0xb974d9e2	-0.00023350821
45	0x38e647de	0.00010980641
46	0x38652b7a	5.4638345e-05
47	0xba0f78cb	-0.00054730166
48	0xbbfc40b5	-0.0076981434
49	0xbec739c9	-0.38911274
50	0xc049ed28	-3.1550999
51	0xc0e0a79a	-7.020459
52	0xc0633e14	-3.550664
53	0xc0463f6e	-3.0976214
54	0xc090f158	-4.529461
55	0xc1097033	-8.589892
56	0xc0857c51	-4.1714253
57	0xc0205d8c	-2.5057096
58	0xc08627fc	-4.192381
59	0xbb80fe26	-0.003936547
60	0xc04411ea	-3.0635934
61	0xbfb1439b	-1.3848757
62	0xba9e93b0	-0.0012098458
63	0xbb61c2db	-0.0034448418
64	0x388d0b9d	6.725567e-05
65	0xba2b15f2	-0.00065264024
66	0xb987f3c6	-0.00025930832
67	0x393b25c5	0.0001784778
68	0xb91176b3	-0.00013872496
69	0xba87f009	-0.0010371219
70	0xba76b25d	-0.00094107335
71	0xb99c0a5b	-0.00029762354
72	0xba6ab1ed	-0.00089529046
73	0xb9208dce	-0.00015311615
74	0x398d1b81	0.00026914108
75	0xb9aba68b	-0.00032739746
76	0xb8a0aad9	-7.6612174e-05
77	0x39267d83	0.0001587775
78	0x39f679a6	0.00047011412
79	0x3950128c	0.00019843335
80	0xbc4e70dd	-0.012600151
81	0xba1fa3c6	-0.0006089773
82	0xba39d9b5	-0.0007089631
83	0xb9f9f4d0	-0.0004767538
84	0xc02b7a39	-2.6793349
85	0xba081552	-0.0005191165
86	0xba1dfe4c	-0.0006026968
87	0xba027ff7	-0.00049781747
88	0xc02767ce	-2.6157107
89	0xbbde2a74	-0.006779963
90	0xb8b330c1	-8.544466e-05
91	0x3a1c6d36	0.00059672014
92	0xc06f0956	-3.7349448
93	0xba97d076	-0.0011582512
94	0x379b4e08	1.8513776e-05
95	0x39d60f2e	0.0004082857
96	0xb7c12068	-2.3022483e-05
97	0xb8a1f9cc	-7.7236065e-05
98	0x3ad2bcaa	0.0016077955
99	0xb8d5f0d8	-0.00010201492
100	0x3950a226	0.00019896831
101	0x396ee07b	0.00022781074
102	0x3a8327a0	0.0010006316
103	0x39922f44	0.00027882506
104	0xb8913f49	-6.9259266e-05
105	0x39a73fc9	0.00031900246
106	0x39c5597e	0.00037641445
107	0x39e26654	0.0004318232
108	0x394029e4	0.00018326152
109	0x3a28f99c	0.0006445886
110	0x39042a32	0.0001260422
111	0x39a695e7	0.00031773673
112	0x3b0cd7da	0.0021490962
113	0x3ad8c63e	0.0016538573
114	0x3acdef68	0.0015711607
115	0xb93b720a	-0.00017876193
116	0x384b4580	4.84637e-05
117	0x38a7c229	7.999346e-05
118	0xb9ccb6d8	-0.0003904614
119	0xbaa29c46	-0.0012406192
120	0x38a320ce	7.778556e-05
121	0xb9f2633f	-0.0004623178
122	0xbb17a583	-0.0023139424
123	0xbb3705f7	-0.002792714
124	0x39be2f0e	0.00036274682
125	0xbb12a4ee	-0.0022376138
126	0xbb7143c5	-0.0036814075
127	0xbb342b61	-0.0027491676
128	0x3938d932	0.00017628519
129	0xbacf6c74	-0.0015825168
130	0xbb6ee381	-0.003645152
131	0xbefd742c	-0.49502695
132	0xba08c7d6	-0.0005217766
133	0x38cc3fe4	9.7393786e-05
134	0xbfce79b0	-1.6130886
135	0xbb6b172a	-0.003587196
136	0xb70e5a27	-8.48485e-06
137	0xc021a303	-2.5255744
138	0xbe068105	-0.13135155
139	0xb9483716	-0.00019094007
140	0xbc8a80ac	-0.016907059
141	0xbf0f9c5c	-0.5609796
142	0xbab679b5	-0.001392177
143	0xb9af5c8e	-0.0003344756
144	0x3abddf76	0.0014486152
145	0xb922965e	-0.0001550554
146	0xbae45c8c	-0.0017422601
147	0x39339fbb	0.00017130275
148	0x39bf58a6	0.00036496407
149	0xbaf9ea62	-0.0019067044
150	0xbb2bc528	-0.0026210044
151	0xbda71838	-0.08158916
152	0xbad958d6	-0.0016582261
153	0xba970b0c	-0.0011523678
154	0xbc8e7149	-0.017388003
155	0xbc0c4ee7	-0.008563734
156	0xbacb7151	-0.0015521442
157	0xbfac5401	-1.3463136
158	0xbb5bd188	-0.0033541638
159	0x3ab962e6	0.0014143854
160	0x3abc5782	0.0014369341
161	0x3b29d5b7	0.0025914737
162	0x3ac7f39f	0.00152551
163	0x3a827cb3	0.0009955376
164	0x3b07e298	0.0020734426
165	0x3b1a9537	0.0023587474
166	0x3b628ee6	0.0034570037
167	0x3950a793	0.00019898852
168	0x3b4869fb	0.0030580747
169	0x3b2025b9	0.0024436547
170	0x3aa9fc2c	0.001296883
171	0x3984e2c2	0.0002534595
172	0x3b0a3a7b	0.0021091986
173	0xb9e9ab2b	-0.00044568753
174	0xba7d69ef	-0.00096669694
175	0xbc1c525e	-0.009541122
176	0x3a14aaa4	0.00056711794
177	0x37b217f9	2.1230417e-05
178	0xba851e6f	-0.0010156165
179	0x3921e54b	0.00015439575
180	0x3aa437ed	0.0012528874
181	0x3a0d9e69	0.0005402328
182	0xb8d7e7dc	-0.00010295186
183	0x39ba77b5	0.00035565873
184	0x3ac501ff	0.0015030502
185	0x3ab1375b	0.0013520526
186	0x39f070f1	0.00045860515
187	0xb98b3e82	-0.00026558718
188	0x3a2a5ecb	0.00064991106
189	0xb9aee361	-0.00033357277
190	0xba14eaf8	-0.0005680765
191	0xba02a13d	-0.0004983133
192	0x3aaa32fc	0.0012985165
193	0x3945369b	0.00018807726
194	0xb989b39e	-0.00026264502
195	0xbb88cc2f	-0.004174731
196	0x39ac5455	0.0003286923
197	0xba1c34c8	-0.0005958793
198	0xbaf71343	-0.0018850345
199	0xbe91e98b	-0.28498492
200	0xbaaeeb21	-0.001334522
201	0xbb31c850	-0.0027127452
202	0xbd888343	-0.06665661
203	0xbec495bb	-0.38395485
204	0xbb00a3c1	-0.0019628855
205	0xbb21a7f7	-0.0024666765
206	0xc00b3205	-2.174928
207	0xbad914a6	-0.001656194
208	0xb9dc337e	-0.00042000035
209	0xba6c269d	-0.00090084394
210	0xbac528cf	-0.0015042069
211	0xba730733	-0.0009270787
212	0x3a03368a	0.00050053804
213	0xb96b52d0	-0.00022442196
214	0xb9c961cf	-0.0003841058
215	0xba927707	-0.0011174389
216	0xbc2e79cc	-0.010649156
217	0xbc8d31e2	-0.0172357
218	0xbbfaca03	-0.007653476
219	0x38b91931	8.82618e-05
220	0xbb1dcfe4	-0.0024080211
221	0xbcc470ce	-0.02397957
222	0xbc35df1f	-0.0111005595
223	0xb9235908	-0.00015578058
224	0xbb52b474	-0.0032151015
225	0xbb6e44fa	-0.0036357031
226	0xbc36dafe	-0.01116061
227	0x39d260b4	0.0004012637
228	0xbc67a831	-0.014139221
229	0xbc54f3c9	-0.012997576
230	0x3b8c6381	0.0042843227
231	0x3b05850d	0.0020373494
232	0xbb36f03b	-0.0027914185
233	0xbb8fd4a8	-0.0043893643
234	0x3b0764f4	0.0020659538
235	0xb8b7c0f2	-8.762059e-05
236	0xbda3ef93	-0.080046795
237	0xbb0bed3b	-0.0021351117
238	0xba585163	-0.00082518737
239	0xb9eb6e38	-0.00044904812
240	0xbf842a4e	-1.032541
241	0xbefcb813	-0.49359187
242	0xbb0eaab9	-0.002176924
243	0x3a9e2101	0.0012064279
244	0xbc101b01	-0.008795501
245	0x3a28d3fa	0.00064402784
246	0x3aa1048b	0.0012284679
247	0x3b283da6	0.002567151
248	0xbb097f9f	-0.002098061
249	0x3adfa953	0.0017064012
250	0x3afecf9b	0.0019440533
251	0x3e800d3f	0.25010106
252	0xbabca096	-0.001439112
253	0x3a23ef59	0.0006253622
254	0x3c034765	0.008012627
255	0x3f83d6bd	1.0299908

4/Conv.bias f4 [8]
0	0x3eb38ec0	0.35069847
1	0x3e349bc5	0.17637546
2	0xbe539b2b	-0.2066466
3	0x3f039308	0.51396227
4	0x3ea6d924	0.3258754
5	0x3eb1510d	0.3463215
6	0xbc321327	-0.010868824
7	0x3ee5a9d4	0.4485613

7/Gemm.weight f4 [64, 288]
0	0x3b4b5cfc	0.0031030765
1	0x3e2eb089	0.1705953
2	0x3a03c8df	0.00050271855
3	0x3b070958	0.0020604935
4	0xbddb8d50	-0.107203126
5	0xbc6e4ad1	-0.014544205
6	0x39fba6a2	0.00047998602
7	0x3ba09c3d	0.0049014376
8	0x3abfc1f7	0.001462995
9	0xbe74d831	-0.23910595
10	0xbce32a5e	-0.027730163
11	0xbc4a5ad0	-0.012350753
12	0xba9a7936	-0.0011785391
13	0x3ac4e32b	0.0015021315
14	0xba7f6eca	-0.0009743987
15	0xbe4c3ca4	-0.19945008
16	0x3873382f	5.798804e-05
17	0xbb3c4f12	-0.0028733653
18	0xba0a9fea	-0.0005288111
19	0xbedce01c	-0.43139732
20	0xbea9773b	-0.33098778
21	0x3b18f61e	0.0023340057
22	0x39e1184b	0.00042933444
23	0x3ae3591a	0.001734528
24	0xbc3eaabf	-0.011637389
25	0xb98d5fd2	-0.00026965007
26	0x37d6dc9d	2.5613519e-05
27	0x3b097ec2	0.0020980095
28	0x3b0cd807	0.0021491067
29	0x3b0e4caf	0.0021713187
30	0xbeb82c19	-0.35971144
31	0xbead513f	-0.33851048
32	0xbc234eb1	-0.009967492
33	0xbbe762f3	-0.007061356
34	0x3a85c622	0.0010206143
35	0x3b4d4928	0.0031324122
36	0x3c8b0ecf	0.016974835
37	0xbf9faafd	-1.2474056
38	0xbc071bcf	-0.008246376
39	0x3a9fd7af	0.0012195016
40	0x3e8f2aa5	0.27962223
41	0x3b19423f	0.0023385433
42	0xbf3b5c54	-0.73187757
43	0xbf40a17b	-0.752464
44	0xbe845e88	-0.25853372
45	0x3a9ae15c	0.001181643
46	0x3b898ac3	0.00419745
47	0x3b6da1b8	0.0036259722
48	0xbfb16e64	-1.3861814
49	0xbe729d69	-0.2369286
50	0xbca8fb62	-0.020627681
51	0xba049d83	-0.00050588715
52	0xbba0f0f1	-0.004911535
53	0x3a64c055	0.00087261695
54	0xba89e62c	-0.0010520867
55	0x3b9a0895	0.00470073
56	0x3b17a369	0.0023138172
57	0xbbe5a655	-0.0070083537
58	0x38e7f7dd	0.000110611065
59	0xbb37aa5f	-0.0028025133
60	0xbac0e3ab	-0.0014716288
61	0xbbbc537d	-0.0057472573
62	0x38954701	7.118099e-05
63	0x382394f9	3.900097e-05
64	0x3b2b0679	0.0026096387
65	0xb9ea6894	-0.00044709875
66	0xba6a3578	-0.0008934359
67	0x39dd62e5	0.00042226087
68	0xba96c9e7	-0.0011504263
69	0x3b06b84e	0.0020556631
70	0xbab534dc	-0.0013824957
71	0xbb8415be	-0.004030912
72	0xbe6ba8cd	-0.23013611
73	0xbdb31b52	-0.08745445
74	0xbda1ba1d	-0.078968264
75	0x3b11183f	0.0022139696
76	0x3d0b40d0	0.033997357
77	0xbd3a2afd	-0.045451153
78	0x3d62f730	0.055411518
79	0xbd07b91d	-0.033135522
80	0xbb263a33	-0.002536428
81	0x3dad95a6	0.08475809
82	0x3dbe2928	0.09285194
83	0x3c84f34e	0.016229298
84	0x3c87aa5c	0.016560726
85	0x3d63c486	0.05560734
86	0x3d987b0d	0.07445345
87	0x383ac9a0	4.4533634e-05
88	0xbe18372c	-0.14864796
89	0x3ce9eae7	0.028554393
90	0x3bd0aedc	0.006368501
91	0x3e07a084	0.13244826
92	0x3d8fc385	0.07019714
93	0xbe8a960d	-0.27067605
94	0xbd403f5f	-0.046935435
95	0x3c3002e9	0.010742881
96	0xbdd493a5	-0.103797235
97	0x3dbd092f	0.09230267
98	0xbdc51c2a	-0.096245125
99	0x3d83eeca	0.0644203
100	0x3cd4a27f	0.02595639
101	0x3e13c59a	0.14430848
102	0x3db866d9	0.09003992
103	0x3c063fe8	0.008193947
104	0xbdbc424b	-0.09192332
105	0xbdfe326d	-0.12411962
106	0x3e062b92	0.13102558
107	0x3dd910e7	0.10598927
108	0xbc0887b8	-0.008333139
109	0xb9c712b8	-0.00037970184
110	0xbf36b7ec	-0.7137439
111	0xbe51ccd9	-0.204883
112	0xbe29f318	-0.16596639
113	0xbcbca471	-0.02302763
114	0x3ba57761	0.0050496315
115	0x3aeb8d73	0.0017971232
116	0xbe03329f	-0.12812279
117	0xbedc0a55	-0.42976633
118	0xbedbad58	-0.42905688
119	0xbed4a6a7	-0.41533396
120	0x3ccae004	0.024765022
121	0x39455856	0.00018820292
122	0x39e02fa8	0.00042760116
123	0x3b57c235	0.0032922153
124	0xbb4cdbc2	-0.0031258916
125	0xbf1c4628	-0.6104455
126	0xbce4b89d	-0.027920062
127	0xbdd9e51c	-0.10639402
128	0xba133e1e	-0.0005616861
129	0x3b207bed	0.0024487928
130	0x38af113b	8.34786e-05
131	0xbcd57f0a	-0.026061554
132	0xbb931236	-0.004488255
133	0x3b2a38b8	0.0025973748
134	0xbf03aedf	-0.5143871
135	0xbeb70dcb	-0.3575271
136	0xbcc2046f	-0.023683755
137	0x3d1b4eec	0.037917063
138	0x3b5ff3cb	0.0034172412
139	0xbb0d6948	-0.0021577645
140	0xbc84796d	-0.016171182
141	0xbe9a8995	-0.30183092
142	0xbeac7775	-0.33684888
143	0xb9a17109	-0.0003079253
144	0xbe61d5cb	-0.22054212
145	0xbfa97536	-1.3238895
146	0xbf25d239	-0.647739
147	0xbb4d4bbb	-0.0031325656
148	0xbab43a0c	-0.001375021
149	0xbb7c1eee	-0.0038470584
150	0xbe538568	-0.20656359
151	0xbb7dcceb	-0.0038726877
152	0xbc3ae8c4	-0.011408035
153	0x3da6aec9	0.081388064
154	0x3fc03c08	1.501832
155	0x3fbb4a8f	1.4632128
156	0xbb77df3f	-0.0037822274
157	0x3b33298b	0.0027337994
158	0x3b0764de	0.0020659487
159	0x3e4177c5	0.18893345
160	0x3c35c5ec	0.0110945515
161	0x3f4fa43b	0.8110997
162	0x3b099054	0.0020990567
163	0xba36ddb7	-0.0006975787
164	0x3b309e9a	0.0026950003
165	0xbaa659c5	-0.0012691548
166	0xbfc80676	-1.5626972
167	0xbf69844e	-0.91217506
168	0x371ce70d	9.35212e-06
169	0x3c2b0dcd	0.010440302
170	0x38d45cee	0.00010126257
171	0xbaead8f3	-0.0017917439
172	0xbb39d82d	-0.002835761
173	0xbab4ab24	-0.0013783914
174	0xbe60fbc1	-0.21971036
175	0x38c84c6a	9.5509764e-05
176	0x3dbef3a4	0.093238145
177	0x3e636e36	0.22210011
178	0x39fbef73	0.00048052854
179	0xbb1db408	-0.0024063606
180	0x3c9ae190	0.018906385
181	0x3ad4a9c8	0.0016224915
182	0x3b9191ea	0.004442443
183	0x3ae722f2	0.0017634316
184	0x3a2f0df7	0.0006677801
185	0x3acf523f	0.0015817358
186	0x3a87f0f3	0.0010371491
187	0xbd75e538	-0.060033053
188	0x3c08acd6	0.008341989
189	0x3d99172e	0.07475124
190	0x37f6d456	2.9424362e-05
191	0xbae324bc	-0.0017329673
192	0x3b2ee13f	0.002668455
193	0xbe8498b4	-0.25897753
194	0xbc68006d	-0.014160258
195	0x3deccee2	0.11562897
196	0x3f2726da	0.6529366
197	0x3ef58ce9	0.47959068
198	0x39a1cca9	0.00030860797
199	0x3a661b72	0.00087778934
200	0x3b0e1c5a	0.002168438
201	0x3c90d481	0.017679455
202	0x3b42ba5e	0.0029713134
203	0x3b07f71c	0.0020746654
204	0xbad5b079	-0.0016303203
205	0x3ab6b3d0	0.0013939086
206	0x3e20116c	0.15631646
207	0x3b08169d	0.0020765432
208	0xbd1ff510	-0.03905207
209	0x3887adcf	6.469676e-05
210	0x3a21075d	0.000614276
211	0xba839598	-0.0010039089
212	0x3ac0cd5d	0.001470964
213	0xbb2fe42b	-0.002683888
214	0x3a93b0a2	0.0011267851
215	0x3b5994b2	0.0033200202
216	0xbabc4666	-0.0014364242
217	0xb989b68e	-0.0002626669
218	0x3b3c89ce	0.0028768661
219	0x3d47dc33	0.048793983
220	0xbbd07432	-0.006361508
221	0xbbccdbe1	-0.0062517975
222	0x3b16d4e7	0.0023015083
223	0xb8c13c73	-9.214217e-05
224	0x3c59b99e	0.0132888835
225	0x3e76ef2b	0.24114673
226	0x3f16a059	0.5883842
227	0xba8bc855	-0.0010664562
228	0x3ae2078e	0.0017244683
229	0xbd89a4ca	-0.06720884
230	0xbf1c9e21	-0.61178786
231	0x3acc056b	0.001556558
232	0x3e137179	0.14398755
233	0x3de581c2	0.1120639
234	0xbb114e52	-0.0022171927
235	0x3adc9307	0.0016828486
236	0x3b154238	0.0022775065
237	0x3cc0c55a	0.023531605
238	0x39564048	0.00020432577
239	0xb8071f93	-3.2215914e-05
240	0xbbd8e5c0	-0.006619185
241	0xbbbb9d75	-0.0057255575
242	0x3a6db67d	0.00090680254
243	0x3b0d4281	0.0021554532
244	0xbd98e376	-0.0746526
245	0x3a384dd4	0.000703064
246	0xbc30c576	-0.010789266
247	0x39429d9a	0.00018559993
248	0x3945157c	0.00018795388
249	0xb9afd2f6	-0.0003353578
250	0x3a9c3295	0.001191693
251	0x3b0adc7f	0.0021188555
252	0x3a36eead	0.00069783145
253	0xbfe2d1e4	-1.7720304
254	0xbe5660bd	-0.2093534
255	0xba9cef25	-0.0011973126

7/Gemm.bias f4 [64]
0	0x3d184f96	0.037185274
1	0xbd21cd1a	-0.03950224
2	0xbf085147	-0.5324902
3	0x3e8829b9	0.26594332
4	0xbd536cdb	-0.051617485
5	0x3d163bf0	0.036678255
6	0x3e8aa399	0.2707794
7	0x3eaa9b2a	0.33321506
8	0x3bcb2ba7	0.006200272
9	0xbb75ae52	-0.0037487936
10	0x3cf8577d	0.030315155
11	0x3cd3af48	0.025840417
12	0xbe718cff	-0.23588942
13	0x3e3845b3	0.17995338
14	0x3df28fba	0.1184382
15	0xbf49ff8a	-0.78905547
16	0xbe5df8f2	-0.21676996
17	0xbdcda961	-0.10042072
18	0x3b8a43b5	0.004219497
19	0x3e0cf05a	0.13763562
20	0x3f265630	0.6497526
21	0xbda1d15b	-0.079012595
22	0xbc1de9c9	-0.009638258
23	0xbd702fd6	-0.05863937
24	0xbc8ab6a4	-0.016932793
25	0x3e248135	0.16064914
26	0xbc36667c	-0.011132833
27	0x3e1ba950	0.15201306
28	0xbc1a526e	-0.009419067
29	0x3d75d4fa	0.060017563
30	0xbdbc9052	-0.092072144
31	0xbd18a037	-0.037262168
32	0xbd8efeab	-0.06982168
33	0xbdb74157	-0.089480095
34	0xbc0e9add	-0.0087039145
35	0xbe3a0490	-0.18165803
36	0x3d93b9f2	0.07213201
37	0x3df58f95	0.11990277
38	0x3e01f963	0.1269279
39	0xbcc31693	-0.023814475
40	0xbf100391	-0.5625544
41	0xbd7d2111	-0.061799113
42	0x3be4d40b	0.0069832853
43	0xbe460e8b	-0.19341485
44	0xbe07f98a	-0.13278785
45	0xbd762899	-0.06009731
46	0x3dd13208	0.10214621
47	0x3e9530cd	0.29138795
48	0xbd105c53	-0.035244297
49	0xbee43088	-0.44568276
50	0xbf5e6e9d	-0.8688753
51	0x3d534bd4	0.051585987
52	0x3d489c80	0.048977375
53	0xbeb9aaba	-0.36263067
54	0x3c8393e2	0.016061727
55	0xbbba25c4	-0.0056807715
56	0x3ead9473	0.3390232
57	0xbf033e02	-0.5126649
58	0xbf05728c	-0.5212791
59	0xbdbddf7e	-0.092711434
60	0xbd4ff513	-0.05077083
61	0xbd151771	-0.03639931
62	0x3e40a94e	0.18814585
63	0xbe73c53d	-0.23805709

8/Gemm.weight f4 [10, 64]
0	0x38b3a777	8.566578e-05
1	0xbfafb207	-1.3726205
2	0xba0b2208	-0.00053075
3	0xbad97f35	-0.0016593697
4	0xbf91ea7e	-1.1399686
5	0x39a9b75b	0.00032370802
6	0x391d409a	0.00014996753
7	0xbf8b2116	-1.0869472
8	0x38321c48	4.2464846e-05
9	0x391cf292	0.00014967684
10	0xb80e8112	-3.3975644e-05
11	0x3a91a9a7	0.0011113182
12	0xba20cea0	-0.0006134305
13	0xba733e51	-0.0009279
14	0xbb1a9824	-0.0023589218
15	0xba49f710	-0.00077043567
16	0x39f6b70d	0.0004705716
17	0x3fa19f9b	1.2626833
18	0xb944a609	-0.0001875387
19	0xba04833c	-0.0005054956
20	0xb9294088	-0.00016141136
21	0x368da8b1	4.2217657e-06
22	0xb8ce0b29	-9.824924e-05
23	0xb9ec67e7	-0.0004509084
24	0x39cab57a	0.00038663653
25	0xba6c4eea	-0.00090144447
26	0xba3a9974	-0.0007118203
27	0x38e13d52	0.00010740258
28	0x3a889edf	0.0010423324
29	0x3b109f7a	0.0022067712
30	0x3b013dc2	0.0019720648
31	0xb9bf75a4	-0.00036518008
32	0xb9335f45	-0.00017106261
33	0xb9ce3b43	-0.00039335535
34	0x38f56e83	0.00011703095
35	0x38d88cde	0.00010325921
36	0x398feb1b	0.00027450253
37	0xba267c0b	-0.00063508813
38	0xba6e74b9	-0.00090963725
39	0x3a00f7da	0.0004919745
40	0x3a244054	0.0006265689
41	0x3fafa5ba	1.3722451
42	0xb8e5b874	-0.00010953928
43	0x384fe230	4.95633e-05
44	0x396b91e8	0.00022465701
45	0x3a652d06	0.0008742366
46	0xbad873e2	-0.0016514028
47	0x3a632878	0.0008665393
48	0xb9ea652f	-0.00044707346
49	0xb9e0a6db	-0.00042848926
50	0xb7b8a8d0	-2.2013119e-05
51	0xb986715e	-0.00025642937
52	0x398189c3	0.00024707438
53	0xba109d20	-0.00055165775
54	0xb8bec66b	-9.096864e-05
55	0xb8c78471	-9.5137286e-05
56	0x3a71ba07	0.00092211406
57	0xb983ea66	-0.00025160908
58	0xb86fd408	-5.717951e-05
59	0x3a7ed7b4	0.00097214733
60	0xbaa40439	-0.0012513465
61	0xb8ed7e09	-0.000113245165
62	0xba923564	-0.0011154828
63	0x3aa7e0a1	0.0012808033
64	0xb96e09d7	-0.00022701114
65	0xba0d9835	-0.0005401404
66	0x3f9d73af	1.2300929
67	0x3980774b	0.00024502943
68	0x3aa6f656	0.0012738209
69	0xb930bf4b	-0.0001685593
70	0xbb23d97f	-0.0025001464
71	0x3a1fd794	0.00060974923
72	0xb84643e4	-4.7270107e-05
73	0x39aa1940	0.0003244374
74	0xb9f11b51	-0.00045987454
75	0x38b1fc49	8.4870095e-05
76	0x3ac20787	0.0014803269
77	0xb9d0539b	-0.00039735142
78	0x3a1c400d	0.0005960472
79	0xba4b4c4d	-0.0007755205
80	0xb9cd9cba	-0.00039217417
81	0xba3e091e	-0.00072492834
82	0xb8b0d89c	-8.4326806e-05
83	0xba2bb453	-0.0006550003
84	0xbf4b3815	-0.7938245
85	0x3887b262	6.470528e-05
86	0x39046696	0.00012626717
87	0xba5ebeef	-0.0008497079
88	0xba1347ef	-0.0005618324
89	0xb9cbc138	-0.00038863136
90	0xb992b54a	-0.0002798236
91	0x3a29d482	0.00064785045
92	0x3a97fdf1	0.0011596066
93	0xb9df3e20	-0.0004258016
94	0x3b8d60b8	0.0043145083
95	0x38b61619	8.682552e-05
96	0xba851955	-0.0010154644
97	0xb8545b52	-5.0629787e-05
98	0x3a0191a7	0.00049426634
99	0x391a1c88	0.00014697213
100	0xb9737f7a	-0.00023221775
101	0x392262c3	0.00015486316
102	0xb9dc9378	-0.00042071543
103	0xbaa9c52d	-0.001295244
104	0x3f5d5cf7	0.8646998
105	0xba59c105	-0.0008306655
106	0xb888efe1	-6.529666e-05
107	0x395cea94	0.00021068222
108	0x39d10858	0.00039869803
109	0x3a14d14d	0.000567694
110	0x39b426c6	0.00034361164
111	0x3a2685a2	0.00063523103
112	0x3a374e44	0.00069925585
113	0x381aa5c8	3.6870857e-05
114	0x400d2fa7	2.2060335
115	0x39ace47d	0.00032976634
116	0xbb523fa5	-0.0032081392
117	0xba52d58c	-0.0008042685
118	0xb856eeca	-5.1243966e-05
119	0xb93f9354	-0.00018270063
120	0x39b79d66	0.0003502175
121	0x39d1c5ca	0.0004001095
122	0xba1b925a	-0.0005934589
123	0x38fccfe2	0.000120550176
124	0xb9c73ad3	-0.00038000065
125	0xb80847b8	-3.249172e-05
126	0xb93fa07d	-0.00018274966
127	0xb9c72036	-0.00037980237
128	0xbb52a052	-0.0032139015
129	0x39cf4124	0.0003953065
130	0xb9ad92e1	-0.00033106565
131	0x3922f678	0.0001554134
132	0xb9ea5e9c	-0.00044702447
133	0x3b47b145	0.003047065
134	0xb963d476	-0.00021727555
135	0xb9bfcc96	-0.00036582787
136	0x37ab1bd7	2.0397752e-05
137	0xb65d2da0	-3.2958123e-06
138	0x3b578502	0.0032885675
139	0xb96b8423	-0.00022460571
140	0x3afdf0ff	0.0019374191
141	0x389e7036	7.554928e-05
142	0xba37786a	-0.0006998839
143	0xbf5c908f	-0.8615808
144	0xbf06287e	-0.52405536
145	0x39d5e3ed	0.00040796344
146	0xb83b4585	-4.464902e-05
147	0x39535c27	0.00020156857
148	0x3b21044d	0.0024569214
149	0x3b22f663	0.0024866096
150	0xb980397a	-0.00024456886
151	0x397d2451	0.00024141489
152	0x3b5b6959	0.003347954
153	0x39ae3e46	0.00033234264
154	0x3a4602ef	0.0007553538
155	0xbb096ca8	-0.0020969305
156	0x3aee2644	0.0018169363
157	0x3ad678d1	0.001636291
158	0x3ad5beb3	0.0016307443
159	0x3b4046cf	0.002933908
160	0x39c2b606	0.00037138182
161	0xb98f1a37	-0.00027294617
162	0x36f8256a	7.3953315e-06
163	0x3aaaf783	0.0013043735
164	0x3b5369e7	0.0032259168
165	0xb8120c6b	-3.4820678e-05
166	0x3989667f	0.00026207042
167	0x3b41d88e	0.002957854
168	0x391fd34c	0.00015242136
169	0x396770ae	0.00022071853
170	0xb894a7b6	-7.0884285e-05
171	0x3a632802	0.00086653244
172	0x39a6e2af	0.0003183088
173	0xbb36e374	-0.0027906569
174	0x3a1875a3	0.0005815869
175	0xbad8d43e	-0.0016542745
176	0x3a850ffd	0.001015186
177	0xbdef6ac0	-0.11690283
178	0xbb3d69a6	-0.0028902083
179	0xbb025607	-0.0019887702
180	0x3b602e96	0.0034207455
181	0xbf470702	-0.7774507
182	0x3932b866	0.00017044097
183	0x37c53b58	2.3511864e-05
184	0xba6540bd	-0.00087453035
185	0xbe8037fa	-0.25042707
186	0xbfb61562	-1.4225276
187	0xb98ee3a2	-0.0002725395
188	0x3b32d590	0.0027287938
189	0xb9da533d	-0.00041642218
190	0x3867f4a0	5.5302517e-05
191	0xb9f31ca8	-0.00046369922
192	0x39ad4dbe	0.00033055054
193	0xbaf1fc7b	-0.0018462086
194	0x3a0c5dd9	0.00053545606
195	0xbab76f3b	-0.0013994941
196	0xbae484f9	-0.0017434648
197	0xbb53e487	-0.0032332258
198	0xba01264f	-0.0004926668
199	0xbaf6524e	-0.0018792839
200	0xb8bd5c22	-9.029383e-05
201	0xb74983e3	-1.2011241e-05
202	0xbb3e2fb8	-0.0029020142
203	0xbf0c4142	-0.54787076
204	0xbb211d03	-0.0024583943
205	0x3a90621a	0.0011015565
206	0x3b3b1ce2	0.002855115
207	0xb9cd738d	-0.0003918674
208	0xba11177c	-0.00055348105
209	0x3b034468	0.0020029787
210	0x39dfdfc4	0.00042700593
211	0xbb2f7e61	-0.0026778209
212	0x39ddf3b8	0.0004233399
213	0xbb4d77e9	-0.003135199
214	0x3789b716	1.6416929e-05
215	0x3a1f6ada	0.0006081291
216	0xbb57259c	-0.0032828813
217	0x3a71970f	0.000921593
218	0xbb5dc28e	-0.0033837887
219	0x3aef3708	0.0018250654
220	0xb99e5835	-0.00030201828
221	0xbb5a06f2	-0.00332683
222	0xbbad92e8	-0.0052970536
223	0xbb321809	-0.002717497
224	0x3a3f8d93	0.0007307168
225	0xb9db81b5	-0.00041867574
226	0x38327e06	4.2555876e-05
227	0xbb7e4359	-0.0038797467
228	0xbb63ff92	-0.0034789783
229	0x3ab754b3	0.0013987034
230	0x3f969a33	1.1765808
231	0xbb344505	-0.002750696
232	0xba276268	-0.0006385208
233	0x3ac9eb0d	0.0015405134
234	0xb7f75db2	-2.9488325e-05
235	0xbafb2433	-0.0019160568
236	0xbb33325e	-0.0027343254
237	0x3affd7c4	0.0019519259
238	0x3f9eb1f5	1.2398058
239	0x3ada393f	0.0016649141
240	0xbb4fb2c3	-0.0031692244
241	0xba2c74b1	-0.00065786677
242	0x3b3aca15	0.0028501798
243	0xba06a801	-0.0005136729
244	0xbafdbfea	-0.0019359563
245	0xba134615	-0.0005618048
246	0xb90b2e70	-0.00013273372
247	0xb6ea6706	-6.985737e-06
248	0x3aa58af0	0.0012629908
249	0x3b1210e1	0.0022287893
250	0xb990cfa4	-0.00027620525
251	0xb9032944	-0.00012508506
252	0x39bdd4d8	0.0003620747
253	0x39baa41c	0.00035598956
254	0x3a8a71b3	0.001056245
255	0xbfb6d57d	-1.4283901

8/Gemm.bias f4 [10]
0	0xbea2cdf5	-0.31797758
1	0xbf31ac6a	-0.6940371
2	0x3eb592f6	0.35463685
3	0x3d5d5dc8	0.054044515
4	0xbd951579	-0.07279486
5	0xbaea44da	-0.0017873303
6	0x3dc2b393	0.09506907
7	0x3d961ee3	0.0733011
8	0x3e0e45e5	0.1389385
9	0x3da50950	0.08058417
